TFPORL-main/pomdp-discrete/logs_results/network-defender/param-search/discount-exploration/discount099_se03/seed-3/save/agent_0010000_perf37.730.pt (torch, 941646 bytes, 28 tensors)

critic.observ_embedder.fc.weight f4 [32, 15]
000000 11 12 83 be 4e 92 50 be 41 7d e2 bd 66 24 7a be
       -0.2559972 -0.20368311 -0.110590465 -0.24427947
000010 49 29 70 bc 50 9b 68 be a3 c2 0f 3e ba dd 00 3e
       -0.014658281 -0.22715497 0.14039092 0.12584582
000020 6a b7 47 3d 61 18 4d 3e 57 27 cf bc 38 5e 1e 3e
       0.0487589 0.20028831 -0.025287313 0.15465629
000030 3e 29 39 be e5 68 50 bd 54 bf 6b be de 05 09 3d
       -0.18082139 -0.050881285 -0.23022205 0.03345286
000040 9c 94 45 be b5 46 a6 3e dd e1 a8 3e ff 24 8c 3e
       -0.19294971 0.3247582 0.3298482 0.27371976
000050 12 92 d8 3d 77 f6 12 be 60 10 be 3e 4a 66 6f be
       0.10574736 -0.14351831 0.37121868 -0.23378864
000060 b8 94 5e be f9 5c a8 bd 84 bf 32 bd 44 79 aa 3d
       -0.21736419 -0.08220858 -0.043639675 0.08323911
000070 22 00 78 be 9a 98 70 bd a7 4e 60 be 5f f6 0b 3e
       -0.242188 -0.058739282 -0.21905003 0.13668202
000080 97 b7 03 be 9a 52 e8 bd 41 61 61 be 6e c6 92 be
       -0.12863003 -0.1134388 -0.22009756 -0.28667015
000090 04 fc 19 3d b8 7a 93 be 3b ea b8 bd 86 f7 ee 3d
       0.037593856 -0.28804564 -0.09029051 0.11668305
0000a0 91 64 c3 be 3c a6 66 bd 40 e8 0a bc 4b 78 22 be
       -0.38162664 -0.056310877 -0.008478224 -0.158662
0000b0 74 b8 12 3e 2e bf 22 be cf 34 63 be 76 a3 eb bd
       0.14328176 -0.15893242 -0.22188114 -0.11505787
0000c0 6d b7 37 bd 5f 78 74 3e 93 97 25 3e 3f 53 90 be
       -0.044852663 0.23874043 0.16171102 -0.28188512
0000d0 9b 3e 1d be a5 cf ac 3e 4a 25 69 3e 97 fd 0b 3e
       -0.15355913 0.3375217 0.22768131 0.13670956
0000e0 74 fe ac bd a5 43 97 3e 8a e3 64 3d bc 12 1e be
       -0.084469706 0.29543796 0.05588106 -0.15436834
0000f0 ac 53 a1 3e 83 74 84 bd 49 92 e4 bd 97 f8 6c bd
       0.3150915 -0.06467535 -0.11160714 -0.05785426
000100 e6 7c b2 be e2 4c 22 be df 22 0b be 53 25 1a be
       -0.34860915 -0.15849641 -0.13587521 -0.150533
000110 de b7 83 3e df f4 d7 3d 0f c7 a2 3d e6 29 03 3f
       0.25726217 0.10544752 0.07948124 0.51235807
000120 93 ac a5 bd de db 27 3e 29 3e 93 3e 3e ff 9c 3e
       -0.080895565 0.16392466 0.28758362 0.30663484
000130 51 dc 8f 3e 27 89 c2 3e 22 d0 45 3e fd d4 8c 3e
       0.28097776 0.37995264 0.19317678 0.27506247
000140 a9 d5 81 be 7b 42 9e bd b7 d5 a9 be 03 f9 c5 3d
       -0.25358322 -0.07727524 -0.33170864 0.09666636
000150 ea fb 95 3e 16 69 b9 bd 73 33 30 3e 80 7a 8c be
       0.29293758 -0.09053247 0.17207126 -0.2743721
000160 65 86 72 be 0d ac f3 bd fd a7 b6 be 60 2a 0c 3e
       -0.2368408 -0.118980505 -0.3567504 0.1368804
000170 65 32 df be 5e f2 9c 3e b6 41 94 3e 1a 1f 35 3e
       -0.43593135 0.3065366 0.28956383 0.17687646
000180 dc 3b 00 be 55 be 7a 3e da fd 86 bc cc 28 f7 bc
       -0.12522835 0.24486668 -0.016478468 -0.03017082
000190 80 32 1c 3e f3 b0 08 3e b7 13 74 be 3e 29 1e bd
       0.15253639 0.13348751 -0.23835646 -0.03861355
0001a0 ea c0 8c 3d d8 87 c2 bd 3c 08 78 be aa 3a 02 be
       0.06872733 -0.094985664 -0.24221891 -0.12717691
0001b0 99 6c 03 3e 43 47 3e be a2 c8 73 3e 94 8d 5e 3e
       0.12834395 -0.18581872 0.23807004 0.21733695
0001c0 a9 dd 44 be d4 ff f1 bd d5 7a 6e be 33 58 64 be
       -0.19225182 -0.118163735 -0.23289044 -0.2229927
0001d0 b1 03 a2 3e a3 d7 c7 3e e3 1c 6a bd 23 bd c4 3e
       0.3164344 0.39031705 -0.057156455 0.3842555
0001e0 2e c9 95 3d e1 af 81 be ac ea 71 be 5b 57 ff bd
       0.073137626 -0.25329497 -0.23624676 -0.124678336
0001f0 80 dd 83 be 29 97 f2 bd 37 04 8f 3d a2 bc bd bb
       -0.2575493 -0.11845238 0.06983226 -0.005790309
000200 79 7c 45 bd 15 ea 81 3c 66 ba 71 3e 13 db 37 3b
       -0.04821441 0.01585869 0.23606262 0.0028054162
000210 f2 f0 04 3e b4 e8 7e bd 6f 58 46 be 60 f9 b6 bc
       0.12982538 -0.06223364 -0.19369672 -0.022335708
000220 18 e1 99 3d 0d 3e 6a 3e 63 bc f9 be a0 e8 3f 3e
       0.07513636 0.22875233 -0.4877654 0.18741083
000230 85 69 6d be dd 97 d2 3d 02 84 a5 3d cb a3 97 3c
       -0.23184784 0.10282872 0.08081819 0.01851072
000240 f7 c3 8e bd 3c 0e 29 bc 4a ac ff 3d ad 7f 95 be
       -0.06970971 -0.010318335 0.124840334 -0.2919897
000250 6a 5e 3e 3e 32 7d 06 3f 19 8b 2e be e5 cd a7 3e
       0.18590704 0.5253478 -0.17045249 0.32774273
000260 07 1c 2c 3e 8e 41 ad 3e a6 91 79 3e a9 b8 fd 3b
       0.16807567 0.33839077 0.24371967 0.0077429605
000270 15 99 8a 3e ab c7 0d bc f1 6b 65 3e f4 76 2b be
       0.27069917 -0.008653562 0.22404458 -0.16744596
000280 37 c7 5e be 2e 51 03 3e b2 59 e7 3d 06 16 a7 3e
       -0.21755682 0.12823936 0.11296405 0.3263399
000290 20 52 83 be e4 c1 69 be c5 91 91 3e 9e 69 02 bc
       -0.25648594 -0.2282787 0.28431526 -0.007959751
0002a0 d5 36 ae bd 51 ee 32 bd e3 92 c9 3b b2 83 8a 3e
       -0.08506552 -0.043684307 0.0061515435 0.270536
0002b0 82 a2 1f be 20 7c db 3d 11 a8 45 be db a9 62 3e
       -0.15589336 0.10717034 -0.19302393 0.22135107
0002c0 a6 9b ee be 13 ee d1 3d f8 4e 46 3e ec 48 18 be
       -0.46603125 0.10250487 0.19366062 -0.14871567
0002d0 6e ad 96 3e 27 f6 20 bd f8 f0 91 3e f1 b5 e2 3e
       0.2942919 -0.03929725 0.28504157 0.44279435
0002e0 8e 92 1c be 33 dc 09 3d f9 37 ef bb 08 66 7d 3e
       -0.15290281 0.033657264 -0.0073003736 0.24745953
0002f0 a5 a0 e6 be b3 de 58 3d 7e f6 2d 3e 5a cf 11 be
       -0.45044437 0.052946758 0.1698856 -0.14239255
000300 a4 be 8d be e8 a2 75 3e d8 32 49 3e 1f 55 7c 3e
       -0.2768451 0.23987925 0.19648302 0.24641846
000310 38 06 ba bd 1e c8 48 3e e2 df 7f be 0d b1 a4 3e
       -0.090832174 0.19607589 -0.24987748 0.3216633
000320 c1 80 a9 bd db e1 73 3e af 2a 64 3e 5d b9 af 3e
       -0.08276511 0.23816626 0.22281907 0.34321108
000330 38 0f 3d 3e 58 4c 11 be ff f5 89 3e e4 f6 df bd
       0.18462837 -0.14189279 0.26945493 -0.109357625
000340 62 3c 80 3e 25 73 a7 bd b9 90 62 be cb da 51 be
       0.25046068 -0.08176259 -0.2212552 -0.20493619
000350 b7 31 95 3e 22 e0 94 3e d2 49 22 be 1b 37 b2 bd
       0.29139492 0.2907725 -0.15848473 -0.08701917
000360 27 d7 da 3d 79 10 01 3d 78 c7 dd 3c 54 a3 5e 3e
       0.10685568 0.03150985 0.027072653 0.21741992
000370 0f 3d 5a be 5d c1 cc be a0 66 22 be 4f f2 4b 3e
       -0.21312355 -0.39991274 -0.15859461 0.19916652
000380 ed e9 2f 3e 71 9f 39 bc 73 55 1f be 5a 83 52 3e
       0.1717908 -0.011329518 -0.1555994 0.20557919
000390 3c 43 5e 3e 82 fb 63 be b2 32 1b 3c 92 cc 0b 3d
       0.21705335 -0.22263911 0.009472536 0.03413064
0003a0 28 f4 1a 3e 67 ca a1 3e 39 d1 05 3e 2d c2 24 3f
       0.151322 0.31599733 0.13068093 0.6435879
0003b0 5c f0 7e be 0f 3b ad 3d 4d e3 de bc 58 3a a0 3e
       -0.24896377 0.0845853 -0.027207995 0.31294513
0003c0 f2 3f ea bc d3 8d 58 3e 6d 59 06 be 88 87 f8 bd
       -0.028594945 0.21147852 -0.1312005 -0.121352255
0003d0 e1 9b d7 3d 20 ec 44 3e 2e a2 0b 3d 69 b8 15 3e
       0.105277784 0.192307 0.034090213 0.14621128
0003e0 ab c7 1f be 2d 19 6b 3d 0a cf b6 3e 5e 01 99 3e
       -0.15603511 0.057397056 0.35704833 0.29883856
0003f0 47 f2 b1 3e ae ac ba be 7d 8c 13 3d c3 f7 97 be
       0.34755155 -0.3645987 0.036022652 -0.29681215

critic.observ_embedder.fc.bias f4 [32]
000000 aa 02 2f be 0e 9f c8 3c 69 8f ea 3e 73 d6 33 3e
       -0.1709086 0.024489906 0.45812538 0.17562275
000010 c7 70 e2 3d ab 3d a3 3d 9d b9 6b 3e 0f 05 32 3d
       0.11056667 0.079707466 0.23020025 0.043461856
000020 ee a2 57 be 89 64 0d 3e 69 9a 9e be dd fa 20 3e
       -0.21058246 0.13807882 -0.3097718 0.15720697
000030 97 cc 90 3c 50 43 cd be 4a 97 30 3e ca c2 d0 be
       0.017675681 -0.40090418 0.17245212 -0.40773612
000040 e4 38 b6 bd 83 c5 3e 3e c9 b9 15 3f 52 0e c0 3c
       -0.0889757 0.18630032 0.5848661 0.023444328
000050 04 1e 33 3e 04 82 10 3e ba 3b ce bc 8b 15 f5 3e
       0.17491919 0.14112097 -0.025174964 0.47867998
000060 63 53 ca bd 8d 0b 2a be a4 1f 4f 3e 30 ef df bd
       -0.09879186 -0.16605969 0.20226914 -0.10934293
000070 64 13 da bd 73 68 34 3e ec 83 35 be 5e 55 15 3e
       -0.1064823 0.17617969 -0.17726105 0.14583346

critic.action_embedder.fc.weight f4 [16, 16]
000000 cb f2 43 be 8d 66 44 be 4e c5 57 be d2 6f 7c be
       -0.19135587 -0.19179745 -0.2107136 -0.24652031
000010 5a ca 2f 3e f7 81 5e 3e 6c 44 99 3d a9 63 fa 3d
       0.17167035 0.21729265 0.074837536 0.1222604
000020 6c c6 63 be 10 40 5c be 38 11 43 be fc 94 44 be
       -0.2224366 -0.21508813 -0.19049537 -0.19197458
000030 d0 5c ec 3e 3f 32 44 be e2 4f 02 3e a4 1c dc bc
       0.4616456 -0.19159792 0.12725785 -0.026869126
000040 f1 5d 3f 3e c2 c9 b3 3b 37 07 8f be f9 0f 89 3e
       0.1868818 0.005486698 -0.27935192 0.2677
000050 9b 20 40 3e 65 cb 51 3e 19 01 86 be b5 09 2a 3e
       0.18762438 0.20487745 -0.26172712 0.16605265
000060 ee 74 71 bc 4a 2b 40 be d9 ea a5 3d b9 dc 88 3e
       -0.014737351 -0.18766513 0.08101434 0.26730898
000070 de c2 42 be 2a 13 43 be d0 67 3e be 63 c5 33 bd
       -0.19019648 -0.1905028 -0.18594289 -0.043889415
000080 4f dd 45 3e 6d 0f ae 3c eb ca 0b be b5 62 28 be
       0.19322704 0.02124759 -0.13651626 -0.16443904
000090 ee 5f 7a be dd e3 8d 3b 86 4a 51 be 23 43 2a be
       -0.24450657 0.004330142 -0.20438585 -0.16627173
0000a0 cd 80 07 be e3 2e 3c 3e 0a a5 3a be b9 94 8b 3e
       -0.13232727 0.18377261 -0.1822702 0.27261904
0000b0 40 df 35 be 2c 90 8f 3d ee 9a 10 3f be 53 56 be
       -0.17760944 0.070099205 0.56486404 -0.20930383
0000c0 b0 8c 48 be ba 2d a7 bb b1 dd 79 3e 3c 72 87 3e
       -0.19584918 -0.0051018866 0.24400975 0.2645434
0000d0 45 7c 1b be 7f 3b 4a be c3 17 09 bd 74 6a 56 3e
       -0.15184124 -0.19749258 -0.033469927 0.20939046
0000e0 f7 c5 c6 bd c2 23 43 be 3a 3c 67 be 40 b3 5e be
       -0.097057275 -0.1905661 -0.22581568 -0.21748066
0000f0 de f0 c8 bc 9f a5 11 3e c8 49 c4 3e 74 3e 48 be
       -0.024528917 0.14223336 0.3833754 -0.19555074
000100 33 62 1c be 58 d4 1a be 6b 7e 1c be 43 61 1c be
       -0.15271835 -0.15120065 -0.152826 -0.15271477
000110 9c ab 1c be c7 68 35 3f c6 f3 4b be 00 ae f1 3e
       -0.15299839 0.70863 -0.19917211 0.47203064
000120 65 64 1a be 7d d1 2c bd 7f 6b 43 3e c5 79 1a be
       -0.1507736 -0.04219197 0.19083975 -0.15085514
000130 58 6a 58 bd b1 2e 1b be 64 69 1b be d4 98 6c be
       -0.052835792 -0.1515453 -0.15176922 -0.23105174
000140 b9 60 29 3e 1b 38 0d bd 09 a1 9f 3c be 91 39 be
       0.16540803 -0.034477334 0.019485967 -0.18122002
000150 f9 0f b3 3e be 72 0c bd 85 76 0e bd ca 66 0c 3f
       0.34973124 -0.034289114 -0.034780998 0.54844344
000160 e5 cc 0f bd e5 6d 02 3f 62 93 11 bd 29 a8 56 3d
       -0.035107512 0.50948936 -0.035540946 0.052406464
000170 b5 de 0e bd 55 c4 f7 bc d3 7b a2 3d 76 1c 14 be
       -0.03488036 -0.030244986 0.07933774 -0.14463982
000180 50 98 3a 3d c0 27 9a 3e fc 61 64 be 27 1b 38 be
       0.045555413 0.30108452 -0.22303003 -0.17979108
000190 e5 6c 36 be 22 08 28 bd 26 f0 37 be 7e 1c 42 be
       -0.17814977 -0.04102338 -0.17962703 -0.18956181
0001a0 c4 0b 40 3e 7a c4 3b 3e 82 2a b9 3e b0 94 7b be
       0.18754488 0.18336669 0.36165243 -0.24568439
0001b0 5a 0d 1c 3e 29 4f 82 3e 2d c2 12 bd f9 47 3a bb
       0.15239468 0.2545102 -0.03582971 -0.0028424247
0001c0 ea 3d 19 3e 3c 28 b5 bd 0e 10 35 be 44 86 b8 3e
       0.14965025 -0.08845565 -0.17681906 0.36039937
0001d0 a4 f6 e1 bd 41 14 68 3d e4 5c e4 3d 40 f5 ed bc
       -0.11033371 0.05665994 0.1115053 -0.029047608
0001e0 ec e7 b4 bd e5 23 a1 3e 55 44 d4 bc a8 9b 39 be
       -0.08833298 0.31472698 -0.02591149 -0.18125784
0001f0 ac cd 2e be d0 a7 38 be a4 9a 81 3e 86 4c 53 3e
       -0.17070645 -0.18032765 0.25313294 0.2063466
000200 bb 99 ba bc 6c 09 bb bc 3e fd 82 3d 77 76 ca bc
       -0.022778383 -0.022831641 0.06395958 -0.024714692
000210 70 43 13 be 03 a1 2b 3c 98 97 3a be 24 5d 3d be
       -0.14381194 0.0104754 -0.18221891 -0.18492562
000220 7e 7f cc 3e 54 97 c4 bc 99 83 c3 bc 1f 9f 7f 3e
       0.3994102 -0.02399794 -0.023866462 0.24963044
000230 62 0b 69 3e b4 75 ac bc 06 2e 0f be 05 ea 6c 3e
       0.22758248 -0.021052219 -0.139824 0.23136146
000240 ae 0e 71 be 81 5d 47 be 5a cb 87 be 60 b7 86 be
       -0.23540756 -0.19469263 -0.26522332 -0.2631178
000250 0a 24 23 3e 27 62 4f 3e 9e 3e 13 3e 80 38 48 be
       0.15931717 0.20252286 0.14379355 -0.19552803
000260 23 6d f1 3e aa a3 a2 bd 9d 8a 8c 3e 02 17 54 be
       0.47153577 -0.07941373 0.27449504 -0.20711902
000270 88 ab 81 3e 82 7f 00 be a0 3a 0d be 8c ff 76 be
       0.2532618 -0.1254864 -0.13791895 -0.24120921
000280 f6 d0 58 be 26 a8 3d be 8a 53 34 be 58 22 5c bd
       -0.21173462 -0.18521175 -0.17609993 -0.05374369
000290 4c 04 8b 3e f2 6f 86 3e 44 bf bb bd 84 c0 75 3b
       0.27151716 0.26257282 -0.091673404 0.0037498781
0002a0 04 45 79 be bb 2b 82 bc 40 99 a3 3d 0a 45 af bd
       -0.24342734 -0.015889993 0.079882145 -0.0855809
0002b0 e0 88 5a bd ab ab 36 3d 98 23 5f be e8 06 a0 3e
       -0.05335319 0.04459731 -0.21790922 0.3125527
0002c0 49 3f cd 3e e1 72 3f bd 70 01 07 3f 02 b5 a1 3e
       0.40087345 -0.046740416 0.5273657 0.3158341
0002d0 a0 a7 8a bd f2 36 3e be ab 18 3b bd e9 e6 7e 3e
       -0.06770253 -0.18575647 -0.045677822 0.24892773
0002e0 8e 5b 59 be d8 4f 49 be 18 c3 4d bd f4 50 17 be
       -0.21226332 -0.19659364 -0.050234884 -0.14776975
0002f0 70 56 68 3e 0c 96 75 be a5 36 e5 bc 9e 67 71 be
       0.22689223 -0.2398302 -0.027980158 -0.23574683
000300 c6 22 0b be 01 2d bb bd ca 5c a7 3e be 53 93 bd
       -0.13587484 -0.09139443 0.3268798 -0.07193707
000310 9a 01 32 bd 60 ab 01 bd 40 dd 9e 3d e8 2f 72 be
       -0.04345856 -0.031657577 0.07757044 -0.23651087
000320 d4 66 6d 3c 9a 67 e4 3d 33 43 77 3d 36 37 52 bd
       0.014489848 0.11152573 0.06036682 -0.051322185
000330 aa 97 f0 3d 34 87 0f be 98 3e a7 bd d2 ce 90 3d
       0.117476776 -0.1401642 -0.08166236 0.07070698
000340 98 8a 26 3e ae 0c 5b 3e 7b 9b 76 3d 10 ee 3e 3d
       0.16263807 0.21391556 0.06020687 0.046613753
000350 6f 3e e1 bd 80 27 5f be f9 c6 f9 3e 5f 76 21 3e
       -0.109982364 -0.21792412 0.48784617 0.15767811
000360 0f 14 83 3d 8a 79 31 be 47 d0 ea bc c9 8b 88 be
       0.0640031 -0.1733152 -0.028663768 -0.26669148
000370 53 ae a8 bd 24 a4 7b be 76 2d 40 3e d8 75 43 3e
       -0.08236375 -0.24574333 0.18767342 0.19087923
000380 ef 08 d8 bd 05 9d a8 bd 16 15 63 be 14 05 d7 bd
       -0.10548579 -0.08233074 -0.22176012 -0.104990155
000390 66 b6 5e 3e ed 03 1b 3d 9a fd 66 be e1 d9 c4 3d
       0.21749267 0.03784554 -0.22557679 0.096118696
0003a0 47 6d d6 bd 30 94 d5 bd 8a b6 d5 bd 29 2b f8 3e
       -0.10470062 -0.10428655 -0.10435207 0.4847043
0003b0 80 69 de 3d 5e 29 e8 3e e3 02 d7 bd ea 3c 19 be
       0.10859966 0.4534406 -0.104985975 -0.14964643
0003c0 58 e9 db 3b c8 d5 79 be c0 4d ba bc c0 06 fd bc
       0.0067111664 -0.24397957 -0.022742152 -0.030887008
0003d0 70 f6 2c bd 31 ad b9 bc 38 b6 6a bd 41 22 66 3d
       -0.04222721 -0.022665592 -0.057302684 0.05618501
0003e0 e2 55 70 be 54 61 fe bd bc 2a 1d 3f 93 00 bc bc
       -0.23470262 -0.124209076 0.6139333 -0.022949493
0003f0 7c 6b 9a bd c6 7b 59 be 8e d4 91 3e 8c 1f 8b bd
       -0.07540032 -0.21238622 0.2848248 -0.067931265

critic.action_embedder.fc.bias f4 [16]
000000 26 1d 40 3e be 2a 3c 3e da 89 1b 3e 67 a2 47 3e
       0.18761119 0.1837568 0.15189305 0.19495545
000010 cf 9c 19 3e 82 99 06 3d 62 a8 35 3e 19 f5 af 3d
       0.15001224 0.03286124 0.17740014 0.085916705
000020 ac db 9e 3c 7b d9 5c 3e af eb 57 3d f2 e6 2b 3d
       0.019391857 0.21567337 0.052715 0.041968293
000030 1c ef 64 3e 14 a0 5a 3e 99 83 d1 3d 47 9e b3 3c
       0.22356838 0.21350127 0.102301784 0.021926058

critic.seq_model.model.weight_ih_l0 f4 [256, 48]
000000 39 fe 1a 3e a9 e2 80 3c ed 37 e6 3c 1f 6b 15 bd
       0.15136041 0.01573308 0.02810284 -0.03647911
000010 81 b1 aa 3e d6 6a 25 3e 39 26 e8 bc 7b 25 0a 3e
       0.3333855 0.16154036 -0.028338538 0.1349086
000020 a1 de 68 be bd 1b 01 3e 46 19 19 3e 0a 1c 1a bd
       -0.22741176 0.12608238 0.14951047 -0.037624396
000030 35 51 e3 bc 57 ae d3 3d 25 b2 c9 3e 64 fc 3d bd
       -0.027748683 0.10335987 0.39393726 -0.046383277
000040 24 83 27 bc 53 0f e1 3c 5e bc d1 3d ac 65 94 3d
       -0.010224137 0.027473127 0.10241006 0.07245955
000050 5a cd 32 bc 95 d4 44 3e 9a 25 d4 3c 70 a5 04 3e
       -0.010913217 0.19221719 0.025896836 0.12953734
000060 d4 79 41 3b 61 95 26 be c9 c9 f3 3d 95 36 86 3c
       0.0029522078 -0.16267921 0.11903722 0.016383449
000070 ee a1 c8 bd 6b 0a a8 3c 16 cc a0 3c 64 f6 4e be
       -0.09796511 0.02051278 0.019628566 -0.20211178
000080 a9 81 90 3d 71 6a 07 bd c6 c7 61 3d c7 3c dd bd
       0.07055981 -0.033060495 0.05512216 -0.10802608
000090 18 ee 20 3f 9e ca 48 3e a3 41 ea 3d 86 c6 57 3e
       0.628633 0.19608542 0.114383005 0.21071824
0000a0 54 e3 84 3d 51 0b 0e bd 13 98 14 bd e1 80 ba be
       0.06488672 -0.03467876 -0.03627784 -0.36426452
0000b0 88 78 06 bf 75 09 18 3d 13 6a 0f 3d 02 0a 72 bd
       -0.52527666 0.037118394 0.03501327 -0.059091575
0000c0 3e 6c 31 3e 0d 26 60 3e cb fc 07 3e 96 68 31 bd
       0.17326447 0.21889515 0.13280027 -0.04331263
0000d0 5f 1d 6c 3c bd fa 7d 3e 28 07 bc 3d f9 b7 62 3d
       0.0144112995 0.2480268 0.091810524 0.05535123
0000e0 da 8a e3 3b a3 f3 c3 3c 47 c3 95 bd 6a 73 c8 bb
       0.0069440426 0.023919886 -0.07312637 -0.006117274
0000f0 11 b4 ce 3d fd df 29 bd 0b 72 1f 3e 7d 68 06 3e
       0.10092939 -0.041473377 0.15570848 0.13125797
000100 e9 d3 21 3d a0 7b 3c 3e 7a f2 b3 3c 66 0f c5 3d
       0.039508734 0.18406534 0.021966208 0.09622078
000110 55 11 fe bd f2 63 f2 3d a3 7a 61 3d 24 7d 26 3e
       -0.124056496 0.11835469 0.055048596 0.16258675
000120 21 10 54 3d d0 0f e7 3d 29 40 8b bc 20 66 17 bd
       0.051773194 0.11282313 -0.016998367 -0.03696263
000130 f9 7d ab 3d 87 92 a6 3d ad 90 74 3e 63 45 8e 3d
       0.08373637 0.081334166 0.23883314 0.06946828
000140 38 06 91 3b ea 65 29 3e 85 0a 2f bd bb 54 a9 bd
       0.00442579 0.16542783 -0.04273464 -0.08268114
000150 d8 92 66 bd 0f 2b ea 3d 95 7f 5f 3c af 64 ed bd
       -0.056292385 0.11433994 0.013641258 -0.115914695
000160 73 c4 79 bd 44 1e 84 bc 57 7a a3 bd 5e 3e 08 3e
       -0.060978364 -0.016127713 -0.07982319 0.13305041
000170 0b f4 a0 3d a8 1a b3 3d cc c7 0b 3e 22 2b 28 3e
       0.078590475 0.08745319 0.13650435 0.16422704
000180 9c 3e 5f 3c 4f 2d 57 3d f5 0a f3 3d 58 67 00 3e
       0.013625767 0.052533444 0.11867324 0.12539423
000190 98 14 e3 bc b5 36 e4 bd c3 b4 20 bc 54 95 2b 3e
       -0.02771978 -0.11143247 -0.009808722 0.16756183
0001a0 77 9f 83 3e 4d 9b 01 3c 04 35 01 3e 51 c5 72 3e
       0.257076 0.007910562 0.1261788 0.23708083
0001b0 6f 2d 45 3d 35 3b f1 3d 75 5d b6 bd ac 73 88 bd
       0.048139032 0.11778871 -0.08904544 -0.06662688
0001c0 d3 d0 b2 3d 0c 0e 9a 3d 52 7e 67 3d 79 9c 41 3e
       0.08731236 0.075222105 0.056516953 0.18907346
0001d0 58 6f a3 3c d8 8f 3e 3e 55 dd b7 3d 55 12 a2 3e
       0.019950554 0.1860956 0.089777626 0.3165461
0001e0 b0 7c d7 3d 99 dc 08 3e a4 4a 01 3e a7 7a 18 be
       0.10521829 0.13365401 0.1262613 -0.14890538
0001f0 b6 1d 54 3d 44 7e 6f 3d 2d 56 c2 3c 86 31 ea 3d
       0.051786147 0.058470026 0.023722732 0.11435227
000200 19 48 bf 3d 11 0c 89 3d 4c cb 33 3e 1f b8 0e 3e
       0.093399234 0.066917546 0.1755802 0.13937424
000210 36 a9 f5 3e 17 a4 47 3e 1c 0b b6 3d dc 96 03 3d
       0.4798066 0.19496189 0.08888838 0.032126293
000220 16 ed a8 3d 2a 8a 03 3c 6f 90 e9 3d e0 e5 95 3e
       0.082483456 0.008028546 0.11404502 0.29276943
000230 c4 7f 30 3e f2 5c 69 3d 9d 18 35 3d 31 b3 3b bd
       0.17236239 0.056973405 0.044212926 -0.045825187
000240 3c d2 41 3e 28 91 86 3d 1f 0d e1 3e 5a a1 e2 3c
       0.18927854 0.06570655 0.43955323 0.027664829
000250 52 c7 6a 3e f1 5c 4b 3d a4 2c 30 3d 0d e6 41 be
       0.22927597 0.049649183 0.043011323 -0.18935414
000260 7d 81 7c 3e b2 f5 7c 3e f9 c3 5e be 0a 2f 17 bc
       0.24658771 0.247031 -0.21754445 -0.009227524
000270 49 64 5d bd 96 14 c3 bd ed 9c 99 3e 4e 37 76 3c
       -0.054050718 -0.09525411 0.30002537 0.015027834
000280 44 6e 11 bd ce 02 e4 bc ac 80 cd 3e a9 62 66 3e
       -0.035505548 -0.027833369 0.4013723 0.22498573
000290 3e b2 da 3d 41 67 8d 3e 7e ed 11 3e 12 c1 1e 3d
       0.10678528 0.2761784 0.14250752 0.038758345
0002a0 06 d2 bc bc 8f ed 96 3d c0 e5 2c 3e 58 11 13 3e
       -0.023049366 0.073695295 0.16884518 0.14362085
0002b0 91 87 78 3e b4 58 7e 3e 85 a3 0e 3f c4 f9 94 3e
       0.24270464 0.24838525 0.5571826 0.29096806
0002c0 bd 24 55 3c de 7e a4 3d f4 c1 a6 3e e7 72 56 3e
       0.013009247 0.080320105 0.3256985 0.2094227
0002d0 4a 4e c9 3d 66 19 a1 3d 89 40 c5 3d d0 f0 85 3e
       0.098293856 0.078661725 0.0963145 0.26160288
0002e0 21 71 ef 3e 29 87 51 3b 4f 21 32 3d 2c b1 44 3f
       0.46765998 0.003197143 0.043488797 0.7683284
0002f0 ba 02 e2 3e f2 6b 17 3d 95 fc 09 3e 70 69 b3 3d
       0.44142705 0.03696818 0.13475259 0.08760345
000300 44 44 5a bd 87 ad 78 3e ea 78 c9 3d a8 60 71 3e
       -0.05328776 0.24284945 0.09837516 0.23572028
000310 1d 63 85 3d 9d ad 39 3f 4f 83 83 bb ae 94 83 be
       0.06513045 0.7253054 -0.004013456 -0.2569937
000320 2f 0a ea be 13 6b 82 3d a2 43 39 3d 61 70 fd 39
       -0.45710894 0.06368079 0.045230515 0.0004833965
000330 a4 6e a9 bd ac 9e 6f bd 3b 8e bf 3e 04 27 7e 3e
       -0.08273056 -0.05850093 0.374132 0.24819571
000340 8a 80 8e 3c c8 31 bb 3e 19 56 71 3c 7f ed c1 3e
       0.017395277 0.36561418 0.01473 0.37876508
000350 51 07 98 bd 2c d6 dd bd 61 20 92 3e 59 18 34 3e
       -0.074232705 -0.10831866 0.28540328 0.17587413
000360 2d cf 1a 3c f7 30 a5 be c6 61 67 3d 86 38 a0 3d
       0.009448809 -0.3226392 0.05648973 0.07823281
000370 d4 c8 aa 3d 56 8f e3 3d cc c3 3f be e5 b4 0a 3f
       0.08339086 0.111113235 -0.18727034 0.54182273
000380 a3 97 c2 3e df 01 b9 3d 31 5b 40 bc ef 4a 08 3e
       0.38006315 0.0903356 -0.011740492 0.13309835
000390 cd 68 aa 3d a1 43 66 3d a4 35 b4 3e 1b f0 2c 3e
       0.083207704 0.05621684 0.35197175 0.16888468
0003a0 24 40 ba 3e 35 1e a2 3c 9b 88 a8 bd af fb 8a 3c
       0.3637706 0.019789794 -0.082291804 0.016965715
0003b0 cf 0c 35 be 57 a9 b1 3e d1 94 f1 3a 8d 28 47 3d
       -0.17680667 0.3469951 0.0018431192 0.048622657
0003c0 d1 23 91 3d dd ff 1d 3e aa 4f 84 3e f1 6e 08 be
       0.070869096 0.15429635 0.2584203 -0.13323571
0003d0 ff 8f dd 3d 25 62 66 be 1c e0 1d bd 3f da 9a 3c
       0.10818481 -0.22498377 -0.038543805 0.018902896
0003e0 74 e7 0e be 3c c4 16 3e 02 c9 a6 3d 7a 7c a0 be
       -0.1395548 0.14723295 0.08143808 -0.31344968
0003f0 02 a4 d0 3c f7 e0 08 bd 39 85 de 3d 64 96 d9 3e
       0.02546883 -0.03341767 0.10865254 0.4249755

critic.seq_model.model.weight_hh_l0 f4 [256, 64]
000000 ab bc 26 3d 3a 39 8e bd 6e ca 01 bd 36 b3 f4 3c
       0.04070727 -0.06944509 -0.031687193 0.02987061
000010 df af 9f 3e 59 8b a6 bd 0c cc 5a 3e e4 93 ac bd
       0.31188866 -0.08132047 0.213669 -0.084266454
000020 e6 45 bf bd 72 16 f7 3d b5 d0 ce 3e 04 71 6c 3e
       -0.09339504 0.12064828 0.40393606 0.23089987
000030 b9 d7 3d 3e 44 ce cc 3e 3b 37 8e be e5 f3 c0 bb
       0.18539323 0.40001118 -0.27776513 -0.0058884495
000040 d8 10 cd 3e 37 e0 c0 be ab 39 b0 3d a9 5f 81 3e
       0.40051913 -0.37671062 0.08604749 0.25268295
000050 7a 80 2f 3d bd 66 cd 3e 0f 62 7a bd 28 5d 42 be
       0.042847134 0.40117446 -0.061128672 -0.18980849
000060 11 34 88 3e e8 b3 2d be 62 71 e1 3c 09 e9 a1 3d
       0.26602224 -0.1696316 0.027519885 0.07905776
000070 bf 77 83 3e 10 be a9 be f3 e3 ed bd ec 35 e6 3e
       0.25677297 -0.3315282 -0.116157435 0.44963014
000080 8d 03 14 be a6 0f f0 ba 3e 2f a3 bd 4d 73 04 be
       -0.1445448 -0.001831521 -0.07967995 -0.12934609
000090 6a 2a 20 3e 09 6c c1 3e cc 82 43 bc 43 ef 25 3e
       0.1564118 0.37777737 -0.01193304 0.16204552
0000a0 84 d9 63 3c 7c d7 e9 3d 99 08 25 be e1 84 19 be
       0.01390684 0.114180535 -0.16116561 -0.14992096
0000b0 f3 0d c6 be e0 f7 6e 3c 6a cf e9 3e 18 d4 ce bd
       -0.38682517 0.014585465 0.45666057 -0.100990474
0000c0 a2 6a 53 3e d8 d8 22 3d b2 16 22 be 4f da 86 3c
       0.20646146 0.03975758 -0.1582897 0.01646152
0000d0 1f 6b 88 3c 7d ef aa be 56 79 2a be 59 4b ba 3e
       0.016652642 -0.3338584 -0.16647848 0.3638561
0000e0 b0 de 33 bd 3d db e1 3e 24 73 3e 3f 9b f9 fe bd
       -0.043913543 0.44112578 0.7439444 -0.12449952
0000f0 fc ae e8 3d 7b c9 db be 7e b6 08 bf df 96 0e 3e
       0.113615006 -0.42927155 -0.5340346 0.1392474
000100 22 e5 ba 3d 65 6b a2 bd 7a 62 3f bc c0 2a 59 bb
       0.09125735 -0.0793064 -0.0116811935 -0.0033137053
000110 42 59 92 3d 8f 19 12 3d 66 a2 6a 3e b1 5a 85 3d
       0.07145931 0.035668906 0.22913513 0.06511439
000120 05 1c 3f 3c 0b cb d2 3d c6 c8 8f bc 83 09 00 be
       0.011664395 0.102926336 -0.01755179 -0.12503628
000130 d8 30 bb bb 7b de 1f be 84 28 1b be fe 0c 03 3d
       -0.0057126097 -0.15612213 -0.15152174 0.031994812
000140 9f cf 43 3e 37 93 75 bd ba b5 cd 3d 1d 7b c3 bc
       0.1912217 -0.05995485 0.10044427 -0.023862416
000150 2a c3 d8 bd 0f e7 21 3d 17 c2 e1 bc cf 37 1f 3e
       -0.105840996 0.039526995 -0.02755837 0.15548633
000160 19 a4 ff bd 1f 0d 5e 3c 11 a9 f3 3d 1e da 59 ba
       -0.12482471 0.013552933 0.11897481 -0.0008310395
000170 9c 0e 8f bc 84 f4 13 3d 61 3f 51 3e b7 a3 8d bd
       -0.017463021 0.03612186 0.20434333 -0.06915992
000180 3f f7 f6 bd 45 a5 22 bd 0f f1 e3 3d 7a 97 5e be
       -0.12058877 -0.039708395 0.11129963 -0.21737471
000190 b6 49 62 3e 7a 1d de ba 0e 3e 2c bd aa 20 e2 bd
       0.22098431 -0.001694604 -0.042051367 -0.110413864
0001a0 2e fa 01 3d 79 06 12 be bd 1b 36 be c3 73 a5 bd
       0.03173273 -0.14260282 -0.17784019 -0.080787204
0001b0 fc 42 68 3e d3 bd 8e bd db 94 6d be 53 42 bf bd
       0.22681803 -0.069698 -0.23201315 -0.09338822
0001c0 64 38 38 3d 6a df 69 3e 00 87 ec bd 1a 27 a3 3c
       0.044975653 0.22839132 -0.11549187 0.019916106
0001d0 39 18 ec bd 42 33 3b 3d 63 91 6e 3e 35 6c d9 3d
       -0.115280576 0.04570318 0.23297648 0.10616342
0001e0 ea ec a4 3e 9b 6b 12 be 53 15 0b be 08 a2 b2 bd
       0.32212 -0.1429886 -0.13582353 -0.08722311
0001f0 2d 47 6b 3d e0 81 d8 bd cc d4 cb bc 2a f6 cd bb
       0.057440925 -0.10571647 -0.024881743 -0.0062854486
000200 4f c0 61 be 0f 78 63 bd a2 f0 ab bd ff 32 33 3d
       -0.22046016 -0.05553442 -0.083955064 0.043749806
000210 b0 8a 64 be ed 57 be bd 35 a5 1e 3e 23 48 e5 3e
       -0.2231853 -0.09294114 0.15492709 0.44781598
000220 dc d5 41 be 63 5c 8f bc 43 af ec bd 50 5a cf be
       -0.18929237 -0.017500108 -0.11556866 -0.4049859
000230 bb 89 e5 3c 37 a7 55 bd 7d f9 32 be d1 cc 13 3c
       0.028019777 -0.05216142 -0.17477985 0.009021
000240 39 37 cc 3c 5f e8 18 3c 26 e9 83 3e 12 20 60 3b
       0.024928676 0.009332745 0.25763816 0.0034198803
000250 01 7e b5 bd fd 91 a3 bc a5 ac 08 bd b8 f8 ac 3e
       -0.08861924 -0.019967074 -0.03336777 0.33783507
000260 54 52 45 3e d3 c5 c8 3d b8 db 07 bd a4 77 44 3e
       0.19269687 0.09803357 -0.033168525 0.19186264
000270 6c fc 1b 3e bf 50 e2 3c df 61 bc bb 9c 42 f7 bd
       0.1523301 0.027626393 -0.005748972 -0.120732516
000280 62 d5 44 be 3d 86 f6 bd c6 69 1f 3d 66 6c 51 3e
       -0.19222024 -0.12037323 0.038919233 0.20451507
000290 30 50 7f bc 19 ef 9f 3e 32 53 5b 3d dc 55 22 bd
       -0.015583083 0.31237105 0.053546138 -0.039632663
0002a0 22 c2 2a 3e 43 11 4f 3c 10 a0 f6 bc a2 8d ba 3e
       0.16675618 0.012638393 -0.03010562 0.36436182
0002b0 cc 43 34 3d 33 64 a3 bd 5c 73 97 bd fe 89 f6 3b
       0.04400997 -0.07978096 -0.0739505 0.007523774
0002c0 a1 b7 c1 bd 95 f8 45 3e c6 fb 11 3d 90 79 0e bd
       -0.094588526 0.19333108 0.0356405 -0.0347839
0002d0 e8 92 8a 3d c1 aa 47 3e 27 32 d7 bd 0c 2f 9a bd
       0.067663014 0.19498731 -0.10507613 -0.07528505
0002e0 30 13 8e 3e 12 04 72 bd 6b 0b b3 bd 93 0f 8b bc
       0.27749014 -0.059085913 -0.08742412 -0.0169752
0002f0 81 73 2b be d3 6d 07 3e 98 88 eb bd c5 a1 8e 3e
       -0.1674328 0.13225488 -0.115006626 0.27857795
000300 e6 95 74 be a2 a4 c8 bd f7 1a 31 bd 90 46 01 3e
       -0.23885307 -0.09797026 -0.043238606 0.12624574
000310 69 50 04 be 35 84 6b bd 79 64 b9 be 92 f7 31 3e
       -0.12921299 -0.05749913 -0.36209467 0.17379597
000320 cc f9 2c be ed bd 20 be 90 a2 a4 3e eb e3 97 be
       -0.16892165 -0.15697451 0.32155275 -0.29666075
000330 e0 61 45 3e 54 5b 89 be 73 8e 09 bf 2b 80 13 3f
       0.19275618 -0.2682749 -0.53732985 0.57617444
000340 51 25 93 3d 9a a9 a7 bd f5 dd c9 3d 56 54 8d 3d
       0.07184852 -0.08186646 0.09856788 0.069008514
000350 43 2d 0a 3b 4f 7a 2c 3c 34 f4 8c be 16 0f 3a be
       0.0021084107 0.0105272075 -0.27530062 -0.18169817
000360 34 8e 9c 3e 74 07 92 be 26 d1 00 3f e0 1d db 3d
       0.30577242 -0.2852131 0.50319135 0.106990576
000370 30 7c 94 3c 6a b9 32 be 97 4a 03 be 76 00 82 3d
       0.018125623 -0.17453542 -0.12821423 0.06347744
000380 4d 28 05 be 3b 60 9d bd 59 0b 12 3e fd c8 1f 3e
       -0.13003655 -0.0768437 0.14262141 0.15604015
000390 fe 12 08 be c7 db c2 3d 81 9d 30 be 5d f1 b4 3c
       -0.13288495 0.095145755 -0.17247583 0.022087747
0003a0 9b f4 cb 3d 77 36 93 bd 4f b6 a4 bd ff 87 07 be
       0.09958764 -0.07188123 -0.08042585 -0.13235472
0003b0 d9 bb 1a 3d d9 3f 9a bc 3c c9 08 3f bc 00 56 be
       0.0377768 -0.018829273 0.5343206 -0.20898718
0003c0 e0 e1 6e bc ae b2 4d 3e c0 f0 87 be 17 b9 33 3e
       -0.01458022 0.20087692 -0.26550865 0.17551075
0003d0 24 3b 76 3e bb 48 e0 3d d6 c4 5a bd 09 72 f0 3e
       0.24045998 0.10951372 -0.053410374 0.46962002
0003e0 b7 5d 6c 3e 8c 3f d7 3d 1f a7 91 3e d8 3a cb bc
       0.23082624 0.105101675 0.28447816 -0.024808332
0003f0 3e 14 38 3e b9 06 aa 3e e3 57 41 be a3 87 48 3e
       0.17976472 0.33208254 -0.18881182 0.19582991

critic.seq_model.model.bias_ih_l0 f4 [256]
000000 28 fd 44 3c 51 de 10 3d 47 2f 82 3d e2 eb f9 3c
       0.012023248 0.035368267 0.06356674 0.030507986
000010 34 4d 83 3d f4 dd 8f 3b d1 8d d0 3d dc af 0e 3c
       0.0641121 0.0043904725 0.10183299 0.00870892
000020 0a a4 c7 3c 52 b4 85 3d bc 5a c1 3d 97 6f fb 3d
       0.024370212 0.06528534 0.09441134 0.122771434
000030 d6 60 22 3e ff 8d f5 3c 44 31 3b 3e 17 7f d5 3d
       0.15857252 0.029974936 0.18280512 0.10424631
000040 ad 41 75 3d 35 b0 9b 3d ea 12 03 3c 21 a4 13 3e
       0.059877086 0.07601968 0.008000115 0.14418079
000050 d1 0c 0f 3e c6 03 36 3c 5c 54 94 3b f3 86 27 3e
       0.13969733 0.011109298 0.004526658 0.16360073
000060 e0 75 ca 3c 75 db 17 3e 6e 51 fb 3d bf 55 3a 3c
       0.02471441 0.1482981 0.12271391 0.0113729825
000070 61 20 b0 3d 3c fe 2f 3e ae 65 b6 3c b8 59 26 3c
       0.08599926 0.17186826 0.022265282 0.010153227
000080 ed dc ff 3d 26 85 60 3e 16 92 b4 3c 2c 6d b3 3d
       0.1249331 0.21925792 0.022042315 0.08761057
000090 01 e0 2a 3c 6c 84 3d bc a7 aa 1b 3e 8f 47 b2 3d
       0.010429383 -0.011567216 0.15201817 0.08705055
0000a0 b9 cc 92 bc 27 6f 09 3e 87 14 67 3e 72 ab b8 bb
       -0.017919885 0.13421308 0.22566424 -0.0056356722
0000b0 ad be 4f 3d a9 fd a2 3d 94 ab fc 3d 6d 91 39 3d
       0.050718952 0.07958538 0.123374134 0.045304704
0000c0 3d 51 a0 3d 2d 4b 4c 3c c7 66 aa 3d 26 26 f1 3d
       0.07827995 0.012469095 0.083203845 0.11774854
0000d0 fc cf 21 3d e6 17 ff 3d 8e ce c3 3d 5a 5e d8 bc
       0.03950499 0.1245573 0.095608816 -0.026412178
0000e0 1e a4 0a 3d 46 c5 ec 37 9b 0f 3d bc 76 bf f0 3d
       0.03384792 2.8225255e-05 -0.011539365 0.11755268
0000f0 46 95 43 3e f6 35 24 bd c7 a4 7d 3d 3c be 0a 3d
       0.19099912 -0.040090524 0.061924722 0.033872828
000100 79 b4 61 3d 66 d3 0f 3d 21 51 3b 3d 74 ef 30 3d
       0.055103753 0.035113715 0.045731667 0.04319711
000110 e5 c3 51 bc 41 da 23 3c 1b 03 0e bd 6b bd 2b 3e
       -0.012803053 0.010000766 -0.03467093 0.16771476
000120 2e 1a 48 bd 7d 49 e0 bb b1 a6 15 3c 3d 10 fe bc
       -0.048853092 -0.006844698 0.009133981 -0.031013602
000130 7e b4 b1 3c 6c 6e e7 bc 3c 56 88 3c 42 7d a5 3d
       0.02169251 -0.028250895 0.016642682 0.08080532
000140 fe b5 d5 bc 7d fe bb 3b cc 87 ff 3d 73 01 9f 3c
       -0.026087757 0.0057371245 0.12477073 0.01940987
000150 4e 77 58 3d 0b 6a 81 3d 24 3d 02 3c 34 53 50 3b
       0.052848153 0.06319054 0.007949147 0.0031787874
000160 52 84 24 3d 6e 64 44 bd 27 e3 66 3d 34 fa 86 3d
       0.040165253 -0.04794734 0.056368973 0.06590691
000170 75 e6 85 3d 4a c3 ce bc d7 1e af 3c 53 a7 65 bb
       0.06538097 -0.025239605 0.02137701 -0.003504236
000180 63 1a 25 bd ec 83 1f 3d d1 62 83 3d c3 12 a2 bc
       -0.040308367 0.03894417 0.06415332 -0.019784337
000190 ec 8a 21 bd 66 e1 40 3d 12 05 7a 3d 8b a2 de 3c
       -0.039439127 0.047089957 0.06103999 0.027177116
0001a0 64 1e a2 bd 8d 05 37 bd 26 25 d2 bc 3b e2 4f 3d
       -0.07915953 -0.044683028 -0.02565248 0.05075286
0001b0 37 f9 0a 3d fd 71 e9 3c b9 ae 42 3d 2d fb 9c bc
       0.033929076 0.028496737 0.04752991 -0.019162739
0001c0 13 69 88 3d ef 6f 44 3d 84 19 c4 3c fc 94 12 3d
       0.06660666 0.04795831 0.023937948 0.035786614
0001d0 18 7d a1 3d bb 3a 20 bc bc 2a 19 3d 41 9f 91 3d
       0.07885188 -0.009779627 0.03739427 0.071104534
0001e0 62 ea 5d 3d e2 8d 3b bc 4c 65 a1 3c e5 05 a4 3d
       0.054178603 -0.011447402 0.019701622 0.08008937
0001f0 25 7b 68 3d b7 f9 bd ba 51 eb 7a 3c e1 8d 90 3c
       0.056758065 -0.0014493976 0.015314893 0.017645778
000200 ef 28 5f 3c f1 86 c7 3c 62 63 9c 3a 2c 86 86 bc
       0.013620599 0.024356337 0.0011931474 -0.0164214
000210 24 36 8f bc 5b c7 35 3c e7 1f 15 bd e9 35 c0 bc
       -0.017481871 0.011094893 -0.036407378 -0.023463206
000220 d0 45 52 3c 54 23 ff bb 49 64 f7 bc 4c 96 49 3d
       0.012834027 -0.007786194 -0.030199187 0.0492156
000230 61 bc 3c bb 61 37 5b bd d6 36 a0 3c 61 e8 1b bd
       -0.0028798806 -0.05351961 0.019557398 -0.03806341
000240 e1 c4 8c bc c4 67 3f bd 05 7c ad bc ce 3e 8e bd
       -0.017183723 -0.046729818 -0.021177301 -0.06945573
000250 aa 20 fe bb 07 f0 89 bc 58 a7 8a 3d fd 90 95 bc
       -0.0077553587 -0.016838087 0.067701995 -0.018257612
000260 25 46 e3 bc 30 d2 f1 39 8b 26 83 bd c4 d1 23 bd
       -0.027743408 0.00046123704 -0.06403836 -0.03999497
000270 6c 2c eb bb d6 3f 31 bd f1 a8 e4 3b e9 b0 9b 3b
       -0.0071769264 -0.04327377 0.006978147 0.004751314
000280 d6 e0 2a 3d f2 8e 80 3d 4e e9 31 bb 20 3c 2d 3b
       0.041718327 0.06277265 -0.0027147117 0.0026433542
000290 0b c3 8f 3c 99 44 78 bb ef 9d bb 3d be 35 5f 3c
       0.017549058 -0.0037882684 0.09160983 0.013623653
0002a0 61 fc 20 bd 13 d1 18 3d cb 14 b8 3d ae a1 1a 3b
       -0.039303187 0.037308764 0.08988341 0.0023594904
0002b0 be 84 b5 bc a5 30 e2 bc ea 0c b1 bc 01 6f a5 3c
       -0.022158023 -0.027611086 -0.021612603 0.020194532
0002c0 94 01 5c 3c c0 64 1f bc 2c e7 1b 3d f2 74 64 bd
       0.013428111 -0.0097286105 0.03806226 -0.05577559
0002d0 98 d6 d4 3b 6d ca 02 3d 21 3d 64 ba 31 d8 16 bc
       0.006495308 0.03193133 -0.00087066187 -0.0092068175
0002e0 e3 c9 57 bc 2c 55 cb ba c6 c8 3f bc b2 27 98 3c
       -0.013170692 -0.0015513054 -0.011705583 0.018573616
0002f0 8b f1 f1 bc 08 b0 03 bd a1 aa 08 3d 4a 88 08 3c
       -0.029534122 -0.0321503 0.03336585 0.008333275
000300 ad 8f b9 3d df c1 a6 bc bd 0d 4f 3d 39 08 be 3d
       0.09060607 -0.020356117 0.05055021 0.09278912
000310 2e 28 ad 3d 0b 4f 0a 3d 58 44 1a 3e 49 6c c6 3d
       0.08454929 0.033766787 0.15065134 0.096886225
000320 96 9d 8e 3c d7 01 cb 3d f4 61 bd 3d f6 cb 14 3e
       0.017409127 0.0991246 0.09247199 0.1453093
000330 ea 4d 15 3e 59 d2 5c 3d d7 20 4b 3e 84 51 08 3e
       0.14580503 0.05391154 0.19836746 0.13312346
000340 5b 51 9d 3d 08 55 15 3e 43 ff 03 3e d1 e2 5d 3e
       0.07681533 0.14583218 0.12890343 0.21668555
000350 01 47 8f 3d ba 43 56 3d ab 7d 74 3d d4 dd 37 3e
       0.06995965 0.052310683 0.05969016 0.17955714
000360 c8 80 95 3d a4 e8 f8 3d 97 b5 20 3e cb 22 51 3d
       0.07299954 0.12153748 0.15694271 0.05105857
000370 6e b9 a5 3d 1e e8 fb 3d 8b 19 06 3e 9a b2 47 bc
       0.080920085 0.12300132 0.13095681 -0.012188578
000380 c4 8b 25 3e 29 d0 07 3e 1c 76 12 3b ba eb 96 3d
       0.16166598 0.13263 0.002234823 0.0736918
000390 d0 6d 27 b9 3b 60 cd 3d e2 15 95 3d 4f fb 9a 3d
       -0.0001596727 0.1002812 0.072795644 0.075674646
0003a0 a4 44 f6 3c 69 6b 3d 3e 47 e0 48 3e 50 c8 b4 3d
       0.030062027 0.18498005 0.19616805 0.08827269
0003b0 3a 89 93 3d b2 ae f5 3d 9b df e3 3d 2d 6a 87 bb
       0.07203908 0.11996211 0.11126634 -0.00413253
0003c0 a6 dd 87 3d e6 79 21 3d 28 d6 e5 3d bb fd f5 3c
       0.06634073 0.039422892 0.11222488 0.030028215
0003d0 e6 7f 0a 3d ac f8 80 3e 86 7f d9 3d 32 bc 90 3d
       0.03381338 0.25189722 0.10620026 0.070671454
0003e0 f5 71 01 3c 7c 7e 8b 3d 4a 52 81 3d f5 ba 41 3e
       0.007900705 0.06811234 0.063145235 0.18918975
0003f0 f3 95 3b 3e c0 46 41 3b b2 d4 e5 3d 8d e6 83 3d
       0.1831892 0.0029491633 0.11222209 0.064404584

critic.seq_model.model.bias_hh_l0 f4 [256]
000000 28 fd 44 3c 51 de 10 3d 47 2f 82 3d e2 eb f9 3c
       0.012023248 0.035368267 0.06356674 0.030507986
000010 34 4d 83 3d f4 dd 8f 3b d1 8d d0 3d dc af 0e 3c
       0.0641121 0.0043904725 0.10183299 0.00870892
000020 0a a4 c7 3c 52 b4 85 3d bc 5a c1 3d 97 6f fb 3d
       0.024370212 0.06528534 0.09441134 0.122771434
000030 d6 60 22 3e ff 8d f5 3c 44 31 3b 3e 17 7f d5 3d
       0.15857252 0.029974936 0.18280512 0.10424631
000040 ad 41 75 3d 35 b0 9b 3d ea 12 03 3c 21 a4 13 3e
       0.059877086 0.07601968 0.008000115 0.14418079
000050 d1 0c 0f 3e c6 03 36 3c 5c 54 94 3b f3 86 27 3e
       0.13969733 0.011109298 0.004526658 0.16360073
000060 e0 75 ca 3c 75 db 17 3e 6e 51 fb 3d bf 55 3a 3c
       0.02471441 0.1482981 0.12271391 0.0113729825
000070 61 20 b0 3d 3c fe 2f 3e ae 65 b6 3c b8 59 26 3c
       0.08599926 0.17186826 0.022265282 0.010153227
000080 ed dc ff 3d 26 85 60 3e 16 92 b4 3c 2c 6d b3 3d
       0.1249331 0.21925792 0.022042315 0.08761057
000090 01 e0 2a 3c 6c 84 3d bc a7 aa 1b 3e 8f 47 b2 3d
       0.010429383 -0.011567216 0.15201817 0.08705055
0000a0 b9 cc 92 bc 27 6f 09 3e 87 14 67 3e 72 ab b8 bb
       -0.017919885 0.13421308 0.22566424 -0.0056356722
0000b0 ad be 4f 3d a9 fd a2 3d 94 ab fc 3d 6d 91 39 3d
       0.050718952 0.07958538 0.123374134 0.045304704
0000c0 3d 51 a0 3d 2d 4b 4c 3c c7 66 aa 3d 26 26 f1 3d
       0.07827995 0.012469095 0.083203845 0.11774854
0000d0 fc cf 21 3d e6 17 ff 3d 8e ce c3 3d 5a 5e d8 bc
       0.03950499 0.1245573 0.095608816 -0.026412178
0000e0 1e a4 0a 3d 46 c5 ec 37 9b 0f 3d bc 76 bf f0 3d
       0.03384792 2.8225255e-05 -0.011539365 0.11755268
0000f0 46 95 43 3e f6 35 24 bd c7 a4 7d 3d 3c be 0a 3d
       0.19099912 -0.040090524 0.061924722 0.033872828
000100 79 b4 61 3d 66 d3 0f 3d 21 51 3b 3d 74 ef 30 3d
       0.055103753 0.035113715 0.045731667 0.04319711
000110 e5 c3 51 bc 41 da 23 3c 1b 03 0e bd 6b bd 2b 3e
       -0.012803053 0.010000766 -0.03467093 0.16771476
000120 2e 1a 48 bd 7d 49 e0 bb b1 a6 15 3c 3d 10 fe bc
       -0.048853092 -0.006844698 0.009133981 -0.031013602
000130 7e b4 b1 3c 6c 6e e7 bc 3c 56 88 3c 42 7d a5 3d
       0.02169251 -0.028250895 0.016642682 0.08080532
000140 fe b5 d5 bc 7d fe bb 3b cc 87 ff 3d 73 01 9f 3c
       -0.026087757 0.0057371245 0.12477073 0.01940987
000150 4e 77 58 3d 0b 6a 81 3d 24 3d 02 3c 34 53 50 3b
       0.052848153 0.06319054 0.007949147 0.0031787874
000160 52 84 24 3d 6e 64 44 bd 27 e3 66 3d 34 fa 86 3d
       0.040165253 -0.04794734 0.056368973 0.06590691
000170 75 e6 85 3d 4a c3 ce bc d7 1e af 3c 53 a7 65 bb
       0.06538097 -0.025239605 0.02137701 -0.003504236
000180 63 1a 25 bd ec 83 1f 3d d1 62 83 3d c3 12 a2 bc
       -0.040308367 0.03894417 0.06415332 -0.019784337
000190 ec 8a 21 bd 66 e1 40 3d 12 05 7a 3d 8b a2 de 3c
       -0.039439127 0.047089957 0.06103999 0.027177116
0001a0 64 1e a2 bd 8d 05 37 bd 26 25 d2 bc 3b e2 4f 3d
       -0.07915953 -0.044683028 -0.02565248 0.05075286
0001b0 37 f9 0a 3d fd 71 e9 3c b9 ae 42 3d 2d fb 9c bc
       0.033929076 0.028496737 0.04752991 -0.019162739
0001c0 13 69 88 3d ef 6f 44 3d 84 19 c4 3c fc 94 12 3d
       0.06660666 0.04795831 0.023937948 0.035786614
0001d0 18 7d a1 3d bb 3a 20 bc bc 2a 19 3d 41 9f 91 3d
       0.07885188 -0.009779627 0.03739427 0.071104534
0001e0 62 ea 5d 3d e2 8d 3b bc 4c 65 a1 3c e5 05 a4 3d
       0.054178603 -0.011447402 0.019701622 0.08008937
0001f0 25 7b 68 3d b7 f9 bd ba 51 eb 7a 3c e1 8d 90 3c
       0.056758065 -0.0014493976 0.015314893 0.017645778
000200 ef 28 5f 3c f1 86 c7 3c 62 63 9c 3a 2c 86 86 bc
       0.013620599 0.024356337 0.0011931474 -0.0164214
000210 24 36 8f bc 5b c7 35 3c e7 1f 15 bd e9 35 c0 bc
       -0.017481871 0.011094893 -0.036407378 -0.023463206
000220 d0 45 52 3c 54 23 ff bb 49 64 f7 bc 4c 96 49 3d
       0.012834027 -0.007786194 -0.030199187 0.0492156
000230 61 bc 3c bb 61 37 5b bd d6 36 a0 3c 61 e8 1b bd
       -0.0028798806 -0.05351961 0.019557398 -0.03806341
000240 e1 c4 8c bc c4 67 3f bd 05 7c ad bc ce 3e 8e bd
       -0.017183723 -0.046729818 -0.021177301 -0.06945573
000250 aa 20 fe bb 07 f0 89 bc 58 a7 8a 3d fd 90 95 bc
       -0.0077553587 -0.016838087 0.067701995 -0.018257612
000260 25 46 e3 bc 30 d2 f1 39 8b 26 83 bd c4 d1 23 bd
       -0.027743408 0.00046123704 -0.06403836 -0.03999497
000270 6c 2c eb bb d6 3f 31 bd f1 a8 e4 3b e9 b0 9b 3b
       -0.0071769264 -0.04327377 0.006978147 0.004751314
000280 d6 e0 2a 3d f2 8e 80 3d 4e e9 31 bb 20 3c 2d 3b
       0.041718327 0.06277265 -0.0027147117 0.0026433542
000290 0b c3 8f 3c 99 44 78 bb ef 9d bb 3d be 35 5f 3c
       0.017549058 -0.0037882684 0.09160983 0.013623653
0002a0 61 fc 20 bd 13 d1 18 3d cb 14 b8 3d ae a1 1a 3b
       -0.039303187 0.037308764 0.08988341 0.0023594904
0002b0 be 84 b5 bc a5 30 e2 bc ea 0c b1 bc 01 6f a5 3c
       -0.022158023 -0.027611086 -0.021612603 0.020194532
0002c0 94 01 5c 3c c0 64 1f bc 2c e7 1b 3d f2 74 64 bd
       0.013428111 -0.0097286105 0.03806226 -0.05577559
0002d0 98 d6 d4 3b 6d ca 02 3d 21 3d 64 ba 31 d8 16 bc
       0.006495308 0.03193133 -0.00087066187 -0.0092068175
0002e0 e3 c9 57 bc 2c 55 cb ba c6 c8 3f bc b2 27 98 3c
       -0.013170692 -0.0015513054 -0.011705583 0.018573616
0002f0 8b f1 f1 bc 08 b0 03 bd a1 aa 08 3d 4a 88 08 3c
       -0.029534122 -0.0321503 0.03336585 0.008333275
000300 ad 8f b9 3d df c1 a6 bc bd 0d 4f 3d 39 08 be 3d
       0.09060607 -0.020356117 0.05055021 0.09278912
000310 2e 28 ad 3d 0b 4f 0a 3d 58 44 1a 3e 49 6c c6 3d
       0.08454929 0.033766787 0.15065134 0.096886225
000320 96 9d 8e 3c d7 01 cb 3d f4 61 bd 3d f6 cb 14 3e
       0.017409127 0.0991246 0.09247199 0.1453093
000330 ea 4d 15 3e 59 d2 5c 3d d7 20 4b 3e 84 51 08 3e
       0.14580503 0.05391154 0.19836746 0.13312346
000340 5b 51 9d 3d 08 55 15 3e 43 ff 03 3e d1 e2 5d 3e
       0.07681533 0.14583218 0.12890343 0.21668555
000350 01 47 8f 3d ba 43 56 3d ab 7d 74 3d d4 dd 37 3e
       0.06995965 0.052310683 0.05969016 0.17955714
000360 c8 80 95 3d a4 e8 f8 3d 97 b5 20 3e cb 22 51 3d
       0.07299954 0.12153748 0.15694271 0.05105857
000370 6e b9 a5 3d 1e e8 fb 3d 8b 19 06 3e 9a b2 47 bc
       0.080920085 0.12300132 0.13095681 -0.012188578
000380 c4 8b 25 3e 29 d0 07 3e 1c 76 12 3b ba eb 96 3d
       0.16166598 0.13263 0.002234823 0.0736918
000390 d0 6d 27 b9 3b 60 cd 3d e2 15 95 3d 4f fb 9a 3d
       -0.0001596727 0.1002812 0.072795644 0.075674646
0003a0 a4 44 f6 3c 69 6b 3d 3e 47 e0 48 3e 50 c8 b4 3d
       0.030062027 0.18498005 0.19616805 0.08827269
0003b0 3a 89 93 3d b2 ae f5 3d 9b df e3 3d 2d 6a 87 bb
       0.07203908 0.11996211 0.11126634 -0.00413253
0003c0 a6 dd 87 3d e6 79 21 3d 28 d6 e5 3d bb fd f5 3c
       0.06634073 0.039422892 0.11222488 0.030028215
0003d0 e6 7f 0a 3d ac f8 80 3e 86 7f d9 3d 32 bc 90 3d
       0.03381338 0.25189722 0.10620026 0.070671454
0003e0 f5 71 01 3c 7c 7e 8b 3d 4a 52 81 3d f5 ba 41 3e
       0.007900705 0.06811234 0.063145235 0.18918975
0003f0 f3 95 3b 3e c0 46 41 3b b2 d4 e5 3d 8d e6 83 3d
       0.1831892 0.0029491633 0.11222209 0.064404584

critic.qf.fc0.weight f4 [256, 64]
000000 30 47 6f bd 17 a7 79 3d 4c 94 d3 3d 72 05 a2 3d
       -0.0584175 0.060950365 0.1033102 0.07911195
000010 64 77 5d be 8b 16 40 be b3 c0 1e bd 74 d7 42 3c
       -0.21627575 -0.187586 -0.03875799 0.011892188
000020 97 38 2a 3d 09 83 c8 bd 48 be 10 bd 04 6c 1f be
       0.041557875 -0.09790618 -0.035337716 -0.15568548
000030 68 82 29 be d7 bf 24 3e c5 d7 f2 bd 05 01 d6 be
       -0.16553652 0.16088806 -0.11857561 -0.41797653
000040 7c 15 a3 3e 98 83 a5 3c 3c 04 4b 3e f9 65 cb bd
       0.3185233 0.02020435 0.19825834 -0.09931559
000050 ab 1f 9d 3c e1 f3 09 3e f6 28 5f 3e ea 1a 37 3e
       0.01918014 0.13471939 0.21792969 0.1788136
000060 a4 88 d8 3d 95 3b 1d 3e 21 b8 b9 bc 6c d2 68 bd
       0.10572937 0.1535476 -0.022670807 -0.0568413
000070 5b 50 a2 bd ae f2 09 3e 9b 46 55 3b 41 bb cc bd
       -0.07925483 0.13471481 0.0032543305 -0.09996653
000080 ec b0 a7 3c f1 aa f5 3c 6b 1c 64 3d fa 0a a4 3d
       0.020470105 0.029988738 0.055691164 0.08009906
000090 a5 2c 47 3d 07 09 54 bc 95 e0 a5 bd 6f 81 ac 3d
       0.04862656 -0.012941605 -0.08099476 0.08423125
0000a0 1c a8 06 3e 85 cc 94 3d 2d 29 7a 3e 62 0c b0 3d
       0.13150066 0.072655715 0.2442977 0.08596112
0000b0 2f 49 02 be 1e 7e b4 3c 94 2c 05 be 91 bc e0 bd
       -0.1272323 0.022032794 -0.13005286 -0.10973466
0000c0 32 c8 7b 3c 00 28 1f 3d dd 43 11 3f 3d bd 3d be
       0.0153675545 0.038856506 0.56744176 -0.1852922
0000d0 76 a6 b3 bd 4f 1f ae bd 88 15 54 be a7 08 09 3e
       -0.08771984 -0.085020654 -0.20711339 0.13382207
0000e0 34 b4 8b 3d f1 02 c0 bb 34 bb af bd d4 e5 88 3e
       0.068214804 -0.0058597256 -0.08580628 0.26737845
0000f0 b9 ee a1 3e d2 53 8c bd f9 a8 d2 3c a9 b2 98 bc
       0.31627443 -0.06851925 0.025715338 -0.01863988
000100 d8 da 56 be 1a 1e 6a bd 15 16 94 3d ab 28 6e 3d
       -0.2098192 -0.057157613 0.07230774 0.058144253
000110 05 4d bb 3c c3 cd 9f bd f6 70 5a 3d 93 d7 a6 3d
       0.022863874 -0.07802918 0.053330384 0.08146586
000120 4f 19 7f bc f3 14 8f 3c 2d ad bf bb 57 f3 71 3d
       -0.015569999 0.017466044 -0.0058495016 0.059069958
000130 ce e3 64 bd 75 b1 fb 3c 8b 2b dd 3d 0d 15 01 3e
       -0.055881314 0.030724267 0.10799321 0.12605686
000140 17 62 1a 3e bd de 71 bd 3b 7f da 3d 27 ff 9f bd
       0.15076481 -0.05905031 0.106687985 -0.07812338
000150 a1 f3 ec 3d dc 30 cc bc eb 75 4c be 77 b1 94 bd
       0.11569906 -0.024925642 -0.19966857 -0.07260411
000160 83 d2 80 3d b5 8e 87 bd 9c ce c8 bd 58 30 33 3d
       0.06290152 -0.06619016 -0.098050326 0.043747276
000170 7a d7 a7 bd 95 79 d9 bd a4 d8 0e be ad a9 00 be
       -0.08195396 -0.10618893 -0.1394983 -0.12564726
000180 f8 5e 5e 3c db 0a 08 3e 29 2d b9 3c 1d 14 04 bd
       0.013572447 0.13285391 0.022604542 -0.032245744
000190 1c 68 71 bd e5 61 b7 bd e9 51 a2 3b a6 c8 63 3d
       -0.058937177 -0.08954219 0.004953612 0.055611275
0001a0 45 4a fe 3d 8d 30 3e 3e ba 60 82 bd b5 29 55 be
       0.124165095 0.18573208 -0.063661054 -0.20816691
0001b0 2c e6 df 3c b5 6c ea bd 5a 24 42 ba 5e f5 af bc
       0.027331434 -0.114465155 -0.00074059295 -0.021479305
0001c0 4e 31 03 be 85 81 98 bd e3 8f 9b 3c f1 b8 22 3d
       -0.12811777 -0.07446579 0.018989509 0.039727155
0001d0 0e 71 db 3d e0 c7 0a 3d e8 bc 9f 3d 80 56 14 3c
       0.10714923 0.033882022 0.07799703 0.009053826
0001e0 be e8 b0 bd fb 48 ae 3d df 81 05 3d ee 56 35 bc
       -0.08638142 0.08510014 0.032594558 -0.011068089
0001f0 2e f3 52 be 3b 05 11 3e bf 3d 20 3e 62 35 a4 3c
       -0.20600578 0.14162152 0.15648554 0.020044986
000200 2d 07 d9 3d 25 8a bc 3d 9b 69 3a bd 8d 50 2a 3e
       0.10597072 0.092060365 -0.04551087 0.1663229
000210 a6 b0 61 be 17 c6 95 be 24 97 c7 bd 80 db 1c bd
       -0.22040042 -0.29252693 -0.09745625 -0.03829527
000220 8f 20 11 3d 6a 13 b6 3d d2 c2 14 3d 02 cf 53 be
       0.03543144 0.08890422 0.036318608 -0.20684436
000230 dc 02 e1 bd 18 0c c5 3d 0d ad 7c 3d 49 91 76 3d
       -0.109868735 0.09621447 0.06168847 0.06019715
000240 0f 0a 3c 3b bb 48 a0 be 01 39 25 3b de 17 1c be
       0.0028692519 -0.3130549 0.002521098 -0.1524348
000250 75 3b 2a bd 0b 45 92 bb 09 72 42 3d 58 aa 0f 3e
       -0.04156061 -0.004463797 0.047472034 0.14029825
000260 02 d2 40 be b6 c2 33 3e 63 55 8b be 62 40 c8 bc
       -0.18830112 0.17554745 -0.27213582 -0.024444763
000270 25 03 33 3e a3 ed 05 be 51 65 1a be db bb 7e 3e
       0.17481668 -0.13078932 -0.15077712 0.24876349
000280 cc 33 48 3e 50 cf 35 bd 12 e2 92 bc 66 90 33 3e
       0.19551009 -0.04438716 -0.017930064 0.17535552
000290 d1 e8 5b 3e 23 b1 83 bd 79 c8 26 3e 7c e5 ff bd
       0.21475531 -0.064302705 0.16287412 -0.124949425
0002a0 36 cf e4 3d 5a db e4 3d d6 42 35 3d 31 a8 71 3d
       0.11172335 0.111746505 0.044253193 0.05899829
0002b0 84 80 9b bd 07 82 92 bd e6 01 19 3e 8b d9 c7 bd
       -0.07592872 -0.07153707 0.1494213 -0.0975829
0002c0 8d 1e 16 bb c6 9d 93 bd 1b 05 76 3b da 32 9c bd
       -0.0022906393 -0.07207827 0.0037539664 -0.07626887
0002d0 e0 b8 35 bd d6 e2 b8 3c 09 8b ca bc 4b c5 6b bd
       -0.044365764 0.022569101 -0.0247245 -0.0575612
0002e0 2c 12 ff 3b 3a 59 4a bc c6 64 17 3e 22 50 31 3e
       0.0077841487 -0.012350375 0.14784536 0.17315724
0002f0 43 db 0c 3c db 40 2c 3e 0f 67 4d 3e 84 a8 8b bd
       0.008597198 0.16821615 0.20058845 -0.06819251
000300 b9 14 1a be 48 79 d6 3d f9 80 43 bc 5a 9e 90 3d
       -0.15046968 0.10472351 -0.011932605 0.07061453
000310 7f 0c 63 be 23 7a 5c be 39 6e 15 3d 55 42 f2 3d
       -0.22172736 -0.21530966 0.03648207 0.11829058
000320 57 27 a9 3d 91 08 da bd 42 04 01 3e 0a 94 9e 3d
       0.082594566 -0.10646165 0.1259928 0.0774308
000330 47 38 6d 3e 7a f3 18 3e 54 53 7c bd eb 1e 91 3d
       0.23166 0.14936629 -0.061602905 0.07085975
000340 dc 51 54 3d 45 33 b8 3b 8f b0 4f be 53 c4 5c be
       0.05183588 0.005621346 -0.20282196 -0.21559267
000350 c2 83 31 3e 4e 45 e3 3d 06 88 dc bd 00 be 89 3e
       0.17335418 0.11097203 -0.10768132 0.2690277
000360 1e c3 67 3d 10 76 b3 bb e0 ae c7 3d cd 80 24 3e
       0.056582563 -0.0054767206 0.09750152 0.16064759
000370 59 05 d4 3d b0 6b 20 be 0e 96 36 be e4 f2 87 3b
       0.103525825 -0.1566608 -0.17830679 0.004148828
000380 6d f1 e0 bd bb 0e b3 bd ec 87 1f 3d 9f 31 49 3e
       -0.10983548 -0.08743044 0.038947985 0.19647835
000390 af 31 68 be af 5e 8b 3d 4a f7 91 3d 40 bd 5f be
       -0.22675203 0.06805169 0.07127245 -0.21849537
0003a0 b9 f0 ac 3d 68 f8 8d 3d e3 15 8d 39 e7 04 cf 3d
       0.08444352 0.06932145 0.00026909923 0.10108357
0003b0 00 da 23 3d 69 63 fb bd 80 7d 31 3e e6 97 0a be
       0.040002823 -0.1227482 0.1733303 -0.13534507
0003c0 7b aa 5a 3d 5d 07 8e bc 93 32 48 bd f3 a7 5c 3d
       0.05338524 -0.017337495 -0.048876356 0.053871106
0003d0 c3 3e a9 3d bd c1 18 bd 2e 4f 1c be 55 e1 3e bc
       0.08263924 -0.03729414 -0.1526458 -0.011650403
0003e0 9f e8 3b 3e 0c ee 74 be b7 b8 ab 3c bb 6a 0f be
       0.18350457 -0.23918933 0.020962102 -0.14005558
0003f0 b4 58 2e 3d c3 01 00 be 2f d8 4b 3d 08 9d c8 bc
       0.042565063 -0.12500672 0.049766716 -0.02448894
