final_results/network-defender/param-search/preliminary/mlp-30000/seed-1/save/agent_0025000_perf37.160.pt (torch, 741810 bytes, 20 tensors)

critic.observ_embedder.fc.weight f4 [64, 15]
0	0x3d84ea2d	0.06489978
1	0xbb257e7a	-0.0025252388
2	0xbcffc92f	-0.031223862
3	0xbd73a208	-0.059480697
4	0xbedc85a6	-0.43070716
5	0x3e192bec	0.14958161
6	0xbd2883c7	-0.041141298
7	0xbe0d5ad3	-0.13804178
8	0x3e638675	0.2221926
9	0xbdb25e55	-0.08709399
10	0x3dea75aa	0.11448224
11	0x3dc6163b	0.09672209
12	0xbdd58310	-0.10425389
13	0xbe59f9e6	-0.21286735
14	0x3e6e8975	0.23294623
15	0xbd436943	-0.047707807
16	0x3ec36a59	0.38167074
17	0xbd6daa58	-0.05802378
18	0x3ef95860	0.48700237
19	0x3d3fbb0e	0.04680925
20	0xbde50028	-0.111816704
21	0xbc9456eb	-0.018107852
22	0x3de6f1b7	0.11276572
23	0xbe4510cc	-0.19244689
24	0x3da388ad	0.07985053
25	0x3d99a5b7	0.07502311
26	0x3c1a097f	0.009401678
27	0x3e2a6bd0	0.1664269
28	0xbeed26b8	-0.46318603
29	0x3e3c4501	0.18385698
30	0xbb2d3ca2	-0.0026433845
31	0x3eb2594a	0.34833747
32	0x3dfff46d	0.124977924
33	0xbf09d9d4	-0.53848004
34	0x3df306fb	0.11866566
35	0xbe6866f7	-0.22695528
36	0x3de4a978	0.11165136
37	0xbbf79017	-0.0075550186
38	0x3ebbb9f0	0.36665297
39	0xbeb369e4	-0.35041726
40	0x3ecd9a03	0.40156564
41	0xbebc4732	-0.36773068
42	0x3e53eb1d	0.20695157
43	0xbe12096f	-0.14261411
44	0xbbb91b82	-0.005649031
45	0x3e068d4e	0.13139841
46	0x3e78520c	0.24250048
47	0x3ece5017	0.4029548
48	0xbe847ad2	-0.25874954
49	0xbd34635e	-0.044040076
50	0xbebca889	-0.36847332
51	0xbcaca313	-0.021073854
52	0x3e5a821a	0.21338692
53	0xbe4b21ba	-0.19837084
54	0x3da9f837	0.08299296
55	0x3ea14603	0.31498727
56	0xbe22f1e0	-0.1591258
57	0xbeab151a	-0.33414537
58	0x3e5b6cb3	0.21428184
59	0xbe532ad0	-0.206218
60	0xbdc7023e	-0.097172245
61	0xbdb7dad1	-0.08977283
62	0x3dc49148	0.09598023
63	0x3ec0dbdf	0.37667748
64	0xbe13ec6d	-0.14445658
65	0xbdde380b	-0.10850533
66	0xbd113129	-0.035447273
67	0xbd87f445	-0.066383876
68	0xbea28eaf	-0.31749484
69	0x3cbc8696	0.023013394
70	0x3e133515	0.14375718
71	0xbdbec5ab	-0.09315046
72	0x3e27b418	0.16377294
73	0xbd80f6e7	-0.06297093
74	0xbd18cf84	-0.037307277
75	0x3c152014	0.009101886
76	0xbd3ecacc	-0.04658012
77	0xbd14fbdd	-0.036373008
78	0xbcc564e2	-0.024095956
79	0xbb4c6bb2	-0.003119212
80	0xbd8c6281	-0.06854726
81	0xbdefc866	-0.11708145
82	0xbd47fb83	-0.048823845
83	0xbd8a0999	-0.06740112
84	0xbd7c9287	-0.061663177
85	0x3cc2e12d	0.023789013
86	0xbf3684ec	-0.7129657
87	0xbb81b02b	-0.0039577684
88	0x3acfa030	0.0015840586
89	0x3e0d5f5f	0.13805912
90	0x3e8a4d38	0.27012038
91	0xbd8e8bd8	-0.06960267
92	0x3e6dcdbc	0.23223013
93	0xbc95feb3	-0.018309927
94	0xbdec42c9	-0.11536176
95	0xbcb20801	-0.021732332
96	0x3e17b8da	0.14816609
97	0xbe1ea7ff	-0.15493773
98	0xbd14e58d	-0.03635173
99	0x3d2bdc5f	0.04195821
100	0x3ec47adc	0.38374984
101	0xbe214501	-0.15748979
102	0xbcf152f7	-0.029458506
103	0xbe34ad9c	-0.17644352
104	0xbefbcd63	-0.49180135
105	0xbd281d7f	-0.041043755
106	0x3e868ee0	0.2628088
107	0xbe0ac9de	-0.13553569
108	0x3d3e8406	0.046512626
109	0xbcb5f286	-0.02221037
110	0xbcdaa485	-0.026689777
111	0x3d520709	0.05127624
112	0x3d1754dd	0.036946166
113	0xbdf4d8bc	-0.11955401
114	0x3e587343	0.21137719
115	0x3ebfbbbe	0.37447923
116	0x3e6fd4e0	0.23421049
117	0xbc6fd481	-0.014638067
118	0xbafa11aa	-0.0019078751
119	0xbde4f146	-0.11178832
120	0xbe761965	-0.24033125
121	0xbd68cae5	-0.05683412
122	0x3ed6e97a	0.41975003
123	0xbe89e1c8	-0.2693007
124	0xbdbd1fac	-0.092345566
125	0xbe00e26c	-0.12586373
126	0xbe57336d	-0.21015711
127	0xbbe537de	-0.0069951853
128	0x3e182edb	0.14861624
129	0x3dd3408d	0.103150465
130	0xbd9e10ac	-0.07718024
131	0x3d432997	0.047647085
132	0x3e983485	0.2972757
133	0x3ddc871f	0.1076796
134	0x3e4fd5b0	0.20296359
135	0x3d8ecc05	0.069725074
136	0x3f503799	0.81334835
137	0x3d66232a	0.05618588
138	0xbcd95b0b	-0.02653267
139	0x3d30a33a	0.043124415
140	0x3a882839	0.0010387964
141	0xbc51adc4	-0.012797777
142	0xbbd2d8ba	-0.006434527
143	0xbda46e5a	-0.080288604
144	0x3c9a47d7	0.018833084
145	0x3b7fb2fa	0.003901659
146	0xbd77c9e7	-0.060495283
147	0xbdc50f9c	-0.09622118
148	0xbd33f177	-0.04393145
149	0xbca1cee3	-0.019751972
150	0x3d08b36c	0.033374235
151	0x3e24962e	0.16072914
152	0xbd8ca25d	-0.06866906
153	0x3e3a6167	0.18201219
154	0xbdbbb618	-0.09165591
155	0xbecdbd07	-0.4018328
156	0xbdcbf93c	-0.09959647
157	0x3c8fbd60	0.017546356
158	0x3d0aaa5b	0.03385387
159	0xbe88a44d	-0.26687852
160	0xbdba5804	-0.09098819
161	0x3e56e50b	0.2098581
162	0xbd415bf0	-0.04720682
163	0x3e6c9801	0.2310486
164	0xbe55ba91	-0.2087195
165	0x3d91c750	0.07118094
166	0x3a96361f	0.0011460221
167	0x3d599815	0.053123552
168	0xbdaa3cb3	-0.08312359
169	0xbe9ef866	-0.31048888
170	0xbd598131	-0.053101722
171	0x3cc62058	0.024185345
172	0xbd9dc32f	-0.07703244
173	0xbe0cca8b	-0.13749139
174	0x3e46606d	0.19372721
175	0x3e77be6e	0.24193737
176	0xbd4e0788	-0.05030015
177	0xbdd2ddd2	-0.10296215
178	0xbe5d0670	-0.21584487
179	0x3f19d0dc	0.6008432
180	0xbeb87792	-0.36028725
181	0xbe5c6725	-0.21523722
182	0xbdfaf9ed	-0.12254701
183	0x3d0cf03f	0.034408804
184	0x3e4cd8ac	0.20004529
185	0x3eea9ebd	0.45824233
186	0x3dbe16a1	0.0928166
187	0xbe4a733b	-0.1977052
188	0x3cdeef4b	0.027213713
189	0x3cc132da	0.023583818
190	0x3e371470	0.1787889
191	0xbe4ea205	-0.20178993
192	0xbe7bf25c	-0.24604172
193	0xbe2989ef	-0.16556524
194	0x3e9b46ce	0.30327457
195	0xbda99f33	-0.08282318
196	0x3cedd23f	0.029030917
197	0xbd9c1aba	-0.07622285
198	0x3da08d09	0.078394
199	0xbd653e28	-0.05596748
200	0x3ce55c96	0.02799825
201	0xbdca9934	-0.098925024
202	0x3f0be8da	0.5465218
203	0xbd975cf6	-0.07390778
204	0x3e3d1efa	0.18468848
205	0x3ce323c3	0.027727013
206	0xbdc30c95	-0.09523884
207	0xbe14b503	-0.14522175
208	0x3e8b55da	0.27213937
209	0x3e16af64	0.14715344
210	0xbc92cd6a	-0.017920215
211	0x3d91a9e6	0.07112484
212	0xbc8752dd	-0.016519004
213	0x3d9d6167	0.07684594
214	0x3d5b7bf6	0.053585015
215	0xbce7b1a8	-0.028282955
216	0xbd5942e3	-0.053042304
217	0xbcac3d17	-0.021025224
218	0x3aaa120d	0.001297535
219	0x3f37a6d4	0.71738935
220	0xbc4e4965	-0.012590741
221	0xbd74909b	-0.05970822
222	0xbd3704e1	-0.044682387
223	0xbd36fb6f	-0.04467338
224	0xbcc61b16	-0.024182837
225	0xbe005fe8	-0.12536585
226	0xbcadb095	-0.021202365
227	0xbcd3aeb5	-0.025840143
228	0x3dd456c0	0.10368109
229	0x3f29fecc	0.66404414
230	0xbe5a4c17	-0.21318088
231	0xbe0ad32c	-0.13557118
232	0x3e00a667	0.12563477
233	0xbdd1bf54	-0.10241571
234	0x3b2d7668	0.002646828
235	0xbe4fd4c2	-0.20296004
236	0xbdb2b721	-0.08726335
237	0x3d8ee9f8	0.0697822
238	0x3ec053ae	0.37563843
239	0xbe9c6771	-0.3054767
240	0xbebd03ae	-0.3691687
241	0xbd7698ee	-0.06020444
242	0xbe07819f	-0.1323304
243	0x3d30bb6d	0.043147493
244	0xbea508e5	-0.32233348
245	0xbdcf49c8	-0.101214945
246	0xbeb44cb9	-0.35214785
247	0xbebf0d9e	-0.37315077
248	0xbea5a1e3	-0.32350072
249	0x3ef51243	0.47865495
250	0x3e5f0568	0.21779406
251	0x3dc1f0d7	0.09469765
252	0xbe987cfd	-0.29782858
253	0xbed229eb	-0.41047606
254	0xbe8867c0	-0.26641655
255	0xbcbb5ba7	-0.022870852

critic.observ_embedder.fc.bias f4 [64]
0	0x3da165f1	0.07880772
1	0xbf23c8b6	-0.63978136
2	0xbeeb8a9f	-0.46004197
3	0xbf217294	-0.6306546
4	0x3e09889a	0.13431016
5	0x3f0d07ef	0.5509023
6	0x3ea601fc	0.3242339
7	0xbe756d37	-0.23967443
8	0x3d54e897	0.051979627
9	0xbeabfdf6	-0.33592194
10	0x3eb8b342	0.36074263
11	0xbd05ebb2	-0.03269548
12	0xbe4f07bd	-0.20217796
13	0xbe30b281	-0.17255594
14	0xbe924b42	-0.28573042
15	0xbdb58384	-0.08862975
16	0xbdf5793d	-0.11986015
17	0xbe984cae	-0.29746002
18	0x3c30ce6e	0.010791404
19	0x3f17fd1d	0.59370595
20	0xbe993a53	-0.2992731
21	0x3f07a063	0.52979106
22	0xbe1b82d2	-0.15186623
23	0x3e9f5782	0.3112145
24	0xbeed8a69	-0.4639466
25	0xbe0537ef	-0.13009618
26	0xbe6a3f16	-0.22875628
27	0x3ebbd4b2	0.3668571
28	0xbeedcd0d	-0.46445504
29	0xbe29c947	-0.16580687
30	0xbd3c0b50	-0.045909226
31	0x3d6795a9	0.05653921
32	0x3e1ea53e	0.15492722
33	0xbe77690f	-0.2416117
34	0xbe39e327	-0.18153058
35	0x3f0066b1	0.50156695
36	0xbe84d561	-0.25944045
37	0xbe6274e5	-0.22114904
38	0xbe1ff85f	-0.1562209
39	0xbe82001d	-0.2539071
40	0xbe7f1f50	-0.24914289
41	0xbf334afd	-0.700363
42	0xbed60bff	-0.41806027
43	0xbe5a3da5	-0.21312578
44	0xbdd0186e	-0.101609096
45	0x3d9d5792	0.07682718
46	0x3df20393	0.11817088
47	0xbf1ccd63	-0.61250895
48	0xbf027f0b	-0.509751
49	0xbee19bdf	-0.44064233
50	0x3df39ce3	0.11895158
51	0x3e87d6e2	0.2653113
52	0x3ca9cdb2	0.020727966
53	0xbe23aa30	-0.1598289
54	0xbe12b74c	-0.14327735
55	0xbe9fdd65	-0.31223598
56	0x3ea2ee64	0.31822503
57	0xbe6a7163	-0.22894816
58	0xbea4f5c0	-0.32218742
59	0xbebb0161	-0.3652449
60	0xbed29482	-0.41128927
61	0xbea0a5f1	-0.31376603
62	0xbe66b747	-0.22530852
63	0xbdc58be7	-0.09645825

critic.seq_model.model.0.weight f4 [64, 64]
0	0xbe3574db	-0.17720358
1	0xbd707e0e	-0.058713965
2	0x3ac17aa0	0.0014761277
3	0xbe3a7dce	-0.18212053
4	0x3d4c1ba9	0.049831066
5	0x3e30927d	0.17243381
6	0xbcb8963a	-0.022532571
7	0x3e41707f	0.1889057
8	0xbddfdc29	-0.10930664
9	0x3e2500b7	0.16113554
10	0x3e27b824	0.16378838
11	0xbf0840f4	-0.5322411
12	0xbe2b8292	-0.16749027
13	0x3d30e647	0.04318836
14	0x3ddea68d	0.10871611
15	0xbd2d03de	-0.042240016
16	0x3e9d4292	0.30714852
17	0x3e9f939a	0.311673
18	0x3ddce939	0.10786671
19	0xbdae3861	-0.08506847
20	0x3c9bcc06	0.019018184
21	0xbe4036c9	-0.18770899
22	0xbeccf6ac	-0.40031946
23	0xbe909dfb	-0.2824553
24	0xbf558492	-0.8340541
25	0x3e56aba9	0.2096392
26	0x3df596d6	0.1199166
27	0x3d37f488	0.044910938
28	0x3e86b680	0.2631111
29	0x3d757243	0.05992342
30	0x3d090054	0.03344758
31	0x3cfa0fc4	0.030525096
32	0x3dc8f0e3	0.098115705
33	0xbd9dbabe	-0.07701634
34	0xbdc70170	-0.09717071
35	0x3e3ee927	0.18643628
36	0x3d9837b1	0.07432497
37	0x3d7cce80	0.06172037
38	0xbf048a7a	-0.517738
39	0xbeaab2c0	-0.333395
40	0xbe730e0e	-0.2373583
41	0xbea7d8ea	-0.3278268
42	0xbf5b7278	-0.8572154
43	0xbea8110c	-0.32825506
44	0x3e444849	0.191682
45	0x3eee1614	0.4650122
46	0xbda8e9bf	-0.082477085
47	0x3ec61063	0.38684377
48	0xbe28ec3d	-0.16496368
49	0x3deb6bb8	0.11495155
50	0xbce837d7	-0.028346939
51	0xbdbbfbff	-0.09178924
52	0xbf0c5515	-0.54817325
53	0x3e984499	0.29739836
54	0xbcbe1367	-0.023202611
55	0xbe11874f	-0.14211772
56	0x3e18ee91	0.14934756
57	0xbd3ca90e	-0.04605966
58	0x3e16882f	0.14700387
59	0x3e4f43bb	0.20240681
60	0xbeefdcae	-0.46848053
61	0x3eac7358	0.3368175
62	0xbee6679d	-0.45000926
63	0x3e9bf03d	0.30456725
64	0xbc6e0a7e	-0.014528869
65	0xbea68b80	-0.32528305
66	0x3dfef4d5	0.12449042
67	0x3db7ad4d	0.089686014
68	0xbd3871d9	-0.04503045
69	0xbac6d419	-0.0015169411
70	0xbd79138a	-0.06080965
71	0x3d5059bb	0.050866824
72	0xbcc7cf9e	-0.024390992
73	0x3cfc2d8a	0.030783433
74	0x3d026a82	0.031839855
75	0xbd63e170	-0.055634916
76	0x3da264a9	0.07929356
77	0x3f05bf04	0.5224459
78	0xbd9ea38e	-0.07746039
79	0x3ca7b287	0.02047087
80	0x3dd4c8fb	0.103898965
81	0xbd9be31a	-0.076116756
82	0x3bd6729f	0.0065444256
83	0xbd80ca87	-0.06288629
84	0x3e6138c4	0.2199431
85	0xbc2931a3	-0.010326776
86	0x3ed9a981	0.42512134
87	0xbdb54f97	-0.08853071
88	0xbe6a5bb7	-0.22886549
89	0x3e9392fe	0.28823084
90	0x3db44cae	0.08803688
91	0x3e31436a	0.17310873
92	0xbf6903df	-0.9102153
93	0xbe843be8	-0.25826955
94	0xbe438334	-0.19093019
95	0x3e671b30	0.22568965
96	0x3e6ae557	0.22939049
97	0x3dcf90b2	0.1013502
98	0x3dc5284c	0.09626827
99	0xbd36040a	-0.044437446
100	0xbdedbdc8	-0.116084635
101	0xbcd88480	-0.026430368
102	0x3d576aad	0.05259197
103	0xbd134781	-0.035956863
104	0x3e7e654e	0.24843332
105	0xbdbd3fb6	-0.092406675
106	0xbe3a8663	-0.18215327
107	0x3dd29bd6	0.102836296
108	0xbe1d27ba	-0.15347186
109	0x3e455532	0.1927078
110	0xbe8c758e	-0.27433437
111	0xbe651fba	-0.22375384
112	0x3e274507	0.16334926
113	0xbdaf0461	-0.08545757
114	0x3d89db25	0.067312516
115	0xbe35f2af	-0.17768358
116	0x3d824c0d	0.06362162
117	0x3e95ddbe	0.29270738
118	0x3dea05cb	0.11426886
119	0x3db9b173	0.09067049
120	0xbd43100e	-0.047622733
121	0x3de87398	0.11350173
122	0x3d837e06	0.064205214
123	0x3db45f4f	0.08807241
124	0xbf1675e4	-0.58773637
125	0xbde8fc97	-0.11376303
126	0xbdd1c904	-0.10243419
127	0xbcbc08d9	-0.022953438
128	0xbd5aee3f	-0.053449865
129	0x3cc0f559	0.02355449
130	0xbf473600	-0.7781677
131	0xbe7a552e	-0.24446556
132	0x3e8b65ea	0.27226192
133	0xbd9c4ef4	-0.076322466
134	0xbd108bb7	-0.035289492
135	0x3d9374c4	0.07200006
136	0xbea59518	-0.32340312
137	0xbc7b6312	-0.015343444
138	0x3e9873b3	0.29775771
139	0xbd1e9a54	-0.038721398
140	0xbdd77216	-0.10519807
141	0x3e33f4b5	0.17573817
142	0x3da78252	0.081791535
143	0x3d728c7e	0.059216015
144	0x3db69ca3	0.08916595
145	0x3c11a338	0.008889012
146	0x3d82f39b	0.0639412
147	0xbd7ccead	-0.06172054
148	0x3e18bbdd	0.14915414
149	0x3df5f9be	0.12010525
150	0x3e40c7e6	0.18826255
151	0xbf10d8c2	-0.56580746
152	0x3df9ac6f	0.12191092
153	0xbd45fb56	-0.048335396
154	0x3d0516aa	0.032492317
155	0x3d22f822	0.03978742
156	0x3db380a1	0.087647684
157	0xbd6b9ab8	-0.0575206
158	0x3de926ca	0.113843516
159	0x3e366c54	0.17814761
160	0x3d60c4f9	0.054875348
161	0x3d8074fa	0.062723115
162	0x3d35d100	0.04438877
163	0xbcb04483	-0.021517044
164	0xbe06b302	-0.13154224
165	0x3c913408	0.017725006
166	0x3dac887b	0.08424469
167	0x3e48597a	0.19565383
168	0x3e145d08	0.14488614
169	0xbe197931	-0.14987637
170	0xbc7a9318	-0.015293859
171	0x3d2f5e03	0.042814266
172	0xbd490540	-0.049077272
173	0x3e1533a4	0.1457048
174	0x3da92d5b	0.08260604
175	0xbe980386	-0.29690188
176	0xbde04654	-0.10950914
177	0x3e2b613c	0.1673631
178	0xbdf79372	-0.1208867
179	0x3d9a0d22	0.07522036
180	0x3dce1efa	0.10064502
181	0xbe643ce5	-0.22288854
182	0xbacb2611	-0.0015499016
183	0xbda55a95	-0.08073918
184	0xbd9f3cf1	-0.077752955
185	0x3e5207c5	0.20510776
186	0xbc39b398	-0.011334322
187	0x3d13bddf	0.036069747
188	0x3e33542f	0.17512582
189	0xbde52018	-0.11187762
190	0x3f32c36b	0.69829434
191	0xbd94df38	-0.07269138
192	0x3e2b1b32	0.16709593
193	0xbdc9894a	-0.09840639
194	0x3ec10892	0.3770185
195	0xbea35fee	-0.31909126
196	0x3c1d1d00	0.009589434
197	0xbe0f56fe	-0.13998029
198	0x3dd67008	0.10470587
199	0x3e44a768	0.19204485
200	0x3db6eb85	0.089316405
201	0x3dce201a	0.10064717
202	0xbe124e62	-0.14287713
203	0xbd35327f	-0.04423761
204	0xbd49f3f4	-0.049304917
205	0x3debd742	0.115156665
206	0xbd1142ed	-0.035464216
207	0x3def242c	0.11676821
208	0x3bac70df	0.0052624787
209	0x3e3aad9f	0.18230294
210	0x3e153a77	0.14573084
211	0xbbd80e90	-0.006593533
212	0x3d59baed	0.053156782
213	0xbd48dff1	-0.049041692
214	0xbe9f3451	-0.31094602
215	0x3ce29921	0.027660908
216	0xbe4c38fd	-0.19943614
217	0x3e1861e5	0.14881094
218	0x3e6de010	0.23230004
219	0xbdc24ab5	-0.094869055
220	0x3e007a8a	0.12546745
221	0x3e4b34de	0.19844386
222	0x3e833421	0.2562571
223	0x3e11a0d4	0.14221507
224	0xbef2e6ba	-0.47441655
225	0xbd8bb120	-0.06820893
226	0x3de51dae	0.111873016
227	0xbe6f1642	-0.23348334
228	0x3d5edcb2	0.05440969
229	0xbdc443a0	-0.09583211
230	0x3defb1b2	0.117038146
231	0xbbc8afde	-0.0061244806
232	0xbdd0738a	-0.10178287
233	0x3daaf16a	0.08346827
234	0x3dd70c63	0.105004095
235	0xbd164be7	-0.03669348
236	0xbe9257e7	-0.2858269
237	0xbdbcabfb	-0.0921249
238	0x3e99176a	0.29900676
239	0x3f02f027	0.51147693
240	0x3dd21c21	0.102592714
241	0xbcf5e532	-0.030016515
242	0x3d65e651	0.05612785
243	0xbccd8678	-0.025088534
244	0xbe70438e	-0.2346327
245	0x3d836e83	0.06417563
246	0x3e873dcc	0.26414335
247	0x3dc1b614	0.09458557
248	0x3deae52c	0.11469492
249	0x3dd93053	0.1060492
250	0x3eff35c3	0.49845704
251	0x3e24aaf8	0.16080844
252	0xbd02a3a5	-0.031894345
253	0xbe46a3c4	-0.19398409
254	0x3d5ddb2c	0.054164097
255	0x3d772d7c	0.06034611

critic.seq_model.model.0.bias f4 [64]
0	0xbe8ac6d1	-0.2710481
1	0xbe0d2d83	-0.13786893
2	0xbe021966	-0.12705001
3	0xbf193536	-0.5984682
4	0xbe4e715e	-0.20160434
5	0x3e62ddc1	0.22154905
6	0x3cb62619	0.022234963
7	0xbe585456	-0.21125922
8	0x3ccbc64d	0.02487483
9	0xbd75f00d	-0.060043383
10	0x3dfe1338	0.124060094
11	0x3e2b7cf8	0.1674689
12	0xbe49f9a9	-0.19724144
13	0x3e23dd3f	0.16002367
14	0xbe781a17	-0.24228702
15	0xbdf5e79e	-0.12007068
16	0x3e483222	0.19550374
17	0x3ad878c0	0.0016515478
18	0x3cbcbbbf	0.023038743
19	0xbd7725b0	-0.060338676
20	0x3dad94d2	0.08475651
21	0xbe9b9ecc	-0.3039459
22	0xbd6dc900	-0.058053017
23	0x3ec44b4f	0.38338706
24	0xbe885102	-0.26624304
25	0xbd5a5332	-0.053301997
26	0xbdc2463a	-0.09486051
27	0xbe43b126	-0.19110546
28	0xbe48af2d	-0.19598074
29	0xbb0ffc68	-0.0021970514
30	0xbda15b4f	-0.07878744
31	0xbea12db8	-0.31480193
32	0xbeb92331	-0.3615966
33	0xbd69bac9	-0.057062898
34	0xbb417f3c	-0.00295253
35	0x3e5d9671	0.2163942
36	0xbe8733be	-0.26406664
37	0xbdfee0af	-0.12445199
38	0xbe7e71ab	-0.24848048
39	0x3ecb9d97	0.3976867
40	0xbe47e42c	-0.19520634
41	0xbe87ab45	-0.26497856
42	0xbd2066e9	-0.039160643
43	0xbd063ae7	-0.032771017
44	0xbe96d50c	-0.29459417
45	0xbd8605de	-0.06544088
46	0xbe819c74	-0.25314677
47	0xbe0f2107	-0.13977443
48	0xbe44d1c9	-0.19220652
49	0xbe53ba96	-0.20676646
50	0x3b6049c3	0.0034223653
51	0xbeab7f08	-0.33495355
52	0x3da80447	0.08203941
53	0xbea00f9b	-0.31261906
54	0x3e30aad7	0.1725267
55	0x3c96932e	0.018380728
56	0xbe296a00	-0.16544342
57	0xbdcd0d56	-0.10012309
58	0xbeacf965	-0.33784023
59	0xbda9065d	-0.08253167
60	0x3d9bdf4a	0.076109484
61	0xbdb3b911	-0.08775533
62	0xbb78c7d2	-0.00379609
63	0xbe888a57	-0.26668045

critic.qf.fc0.weight f4 [256, 64]
0	0x3e6d321f	0.23163651
1	0xbdd95b8b	-0.106131636
2	0xbd08b663	-0.033377063
3	0x3e526a51	0.20548369
4	0x3e4328e5	0.19058569
5	0x3d2ae519	0.04172239
6	0x3bcdbc18	0.006278526
7	0x3edec4d7	0.43509552
8	0x3ec511d2	0.38490158
9	0xbdbaf223	-0.09128215
10	0xbe9e5913	-0.30927333
11	0x3ccf1455	0.02527825
12	0x3f20eaf9	0.6285854
13	0xbf03bc5b	-0.5145928
14	0x3c173371	0.009228573
15	0xbe81195d	-0.25214663
16	0xbe309d22	-0.17247441
17	0xbd9cf501	-0.07663918
18	0x3e262dae	0.16228363
19	0x3ef3d2ca	0.47621757
20	0x3dc36e59	0.095425315
21	0x3dc4b5a8	0.09604961
22	0xbd57926c	-0.052629873
23	0xbe3258c5	-0.17416675
24	0x3ea5f2d5	0.3241183
25	0xbe61bd1a	-0.22044793
26	0xbb7d1205	-0.0038615477
27	0xbf0886ce	-0.53330696
28	0xbebc4625	-0.36772266
29	0xbe8013a5	-0.25014988
30	0xbc0a8b8f	-0.008456125
31	0xbd911c2d	-0.07085452
32	0xbf6a0b2b	-0.9142329
33	0x3e2c1c00	0.16807556
34	0xbe0f62c2	-0.14002517
35	0xbe9e86bd	-0.30962172
36	0xbe075e50	-0.13219571
37	0x3f44fa98	0.76944876
38	0x3e7ec455	0.24879582
39	0xbeb48f13	-0.35265407
40	0xbf13066c	-0.57431674
41	0xbc9bad3e	-0.019003507
42	0xbdb4f79c	-0.0883629
43	0x3c9aa2a4	0.018876381
44	0x3c0d2c5d	0.008616534
45	0xbb4a41a7	-0.0030861886
46	0x3dbdd29c	0.09268686
47	0x3d38970b	0.04506592
48	0x3dec44a9	0.115365334
49	0xbe899551	-0.26871732
50	0x3e851ee8	0.26000142
51	0x3dbe9784	0.09306243
52	0xbf3a1ca7	-0.7269997
53	0x3ece7503	0.40323648
54	0xbd551ef8	-0.052031487
55	0xbe147d5c	-0.14500946
56	0xbd8b49bf	-0.06801175
57	0xbdc401d7	-0.095706634
58	0xbcba4bf6	-0.0227413
59	0xbc9ef4c8	-0.01940383
60	0x3dc55436	0.096352026
61	0xbd00cb9c	-0.031444177
62	0x3eaf606d	0.34253255
63	0x3ed54262	0.4165221
64	0xbde0374b	-0.10948046
65	0x3cce8c99	0.025213527
66	0xbd8aa204	-0.06769183
67	0x3e86e234	0.26344454
68	0xbf04cc7f	-0.51874536
69	0x3db042f3	0.086065196
70	0xbe73beda	-0.23803273
71	0xbed4ad31	-0.41538385
72	0x3dae2e6e	0.085049495
73	0xbd99b3ed	-0.07505021
74	0x3c63a205	0.013893609
75	0xbcfc4b53	-0.030797636
76	0x3e624df3	0.22100048
77	0xbe5795b8	-0.21053207
78	0xbc347a57	-0.011015496
79	0x3e31f7eb	0.1737973
80	0xbe6d27b8	-0.23159683
81	0xbe04a86d	-0.12954874
82	0xbf07d954	-0.5306599
83	0xbed5cf9f	-0.41759965
84	0xbc98f85c	-0.018673114
85	0xbf096a7c	-0.5367811
86	0x3b9012eb	0.0043967864
87	0xbe4aedad	-0.19817229
88	0x3f1aaf3c	0.60423636
89	0xbe57d6cb	-0.21078031
90	0xbfbe3046	-1.4858482
91	0x3eeb6b4c	0.459803
92	0x3e16564e	0.1468136
93	0xbe6dbb88	-0.23216069
94	0xbd018a3a	-0.031625964
95	0x3dba8d40	0.091089725
96	0x3ef13289	0.47108868
97	0xbd820ea8	-0.06350452
98	0xbe9fc452	-0.31204468
99	0x3d077283	0.03306819
100	0x3e9526e8	0.29131246
101	0xbe3bc76e	-0.18337795
102	0xbd9e5b61	-0.07732273
103	0x3d34b79f	0.044120427
104	0xbea9c9f0	-0.3316188
105	0x3e21a48b	0.15785424
106	0xbdb7367a	-0.089459375
107	0xbd453eee	-0.048155718
108	0x3b7012a9	0.0036632216
109	0xbf3cbd17	-0.7372603
110	0xbe8bf91a	-0.27338487
111	0x3e1af2a6	0.15131626
112	0x3d4e78b4	0.05040808
113	0xbe3c9700	-0.18416977
114	0x3e052cde	0.13005397
115	0x3e9c7cbe	0.3056392
116	0xbc41dab7	-0.011831931
117	0xbcbfb611	-0.023402246
118	0xbe5653f5	-0.20930465
119	0xbdcd0d90	-0.100123525
120	0xbea1b179	-0.31580713
121	0xbe39180e	-0.18075582
122	0xbde4f55e	-0.111796126
123	0xbe12ef50	-0.14349103
124	0x3d37b768	0.044852644
125	0xbdd14193	-0.102175854
126	0xbe186d6d	-0.14885493
127	0xbdc55bdc	-0.096366614
128	0xbc9aac13	-0.01888088
129	0x3e36207e	0.17785832
130	0x3e9b2544	0.3030187
131	0xbe3c338d	-0.1837904
132	0x3f25da44	0.6478617
133	0x3f361a30	0.7113371
134	0x3e965d42	0.29368025
135	0x3e701fd0	0.23449636
136	0x3d79d712	0.060996123
137	0x3eb8b7f6	0.3607785
138	0x3d843954	0.06456247
139	0xbe29a33e	-0.16566178
140	0xbeb56d72	-0.35435063
141	0xbdfa4e2e	-0.12221943
142	0x3f4357f3	0.76306075
143	0x3dfc3c5b	0.123161994
144	0x3e9664c1	0.29373744
145	0x3e02b400	0.12763977
146	0xbe004506	-0.1252633
147	0xbe3b1f2f	-0.18273614
148	0x3d0c2d9b	0.03422318
149	0x3e4acfc4	0.19805819
150	0xbb7007e6	-0.0036625802
151	0xbce36d93	-0.02776221
152	0xbf0aace1	-0.5417004
153	0x3c6bc08d	0.014389169
154	0x3d607882	0.054802425
155	0x3e042e39	0.12908258
156	0x3e7ef650	0.24898648
157	0x3ed849f5	0.42243925
158	0x3c1817bc	0.0092830025
159	0xbc9a2602	-0.018816952
160	0xbf389376	-0.7210001
161	0x3e52b597	0.20577084
162	0x3edd430a	0.4321521
163	0xbe4325c2	-0.19057372
164	0xbcf87f65	-0.030334184
165	0xbfa469dc	-1.2844806
166	0x3d3d8ea9	0.04627863
167	0xbe8a4c1c	-0.27011192
168	0xbe2e2402	-0.17005923
169	0x3d46503c	0.04841636
170	0x3cae8cf7	0.021307452
171	0xbd3e26aa	-0.04642359
172	0x3e341945	0.17587765
173	0x3e35e4da	0.17763081
174	0xbf1ef1ea	-0.6208788
175	0x3e98cace	0.29842228
176	0xbe85a107	-0.26099417
177	0x3ebd7543	0.37003526
178	0xbd2701a9	-0.040773068
179	0x3ee1b4d1	0.44083264
180	0x3f0cb040	0.54956436
181	0xbec87aee	-0.39156288
182	0x3de53e98	0.111935794
183	0x3f16407f	0.58692163
184	0xbf23c16d	-0.6396702
185	0xbe115c83	-0.14195447
186	0x3ef47079	0.4774206
187	0x3e6f4b4e	0.2336857
188	0xbe031641	-0.12801458
189	0x3cf13136	0.02944241
190	0x3f073d0b	0.5282752
191	0x3d94399e	0.07237552
192	0x3f0c9e17	0.54928726
193	0xbe88e900	-0.26740265
194	0xbe825180	-0.25452805
195	0xbe05f35b	-0.13081114
196	0x3eaaae73	0.3333622
197	0x3d83b999	0.06431884
198	0xc02e6fa0	-2.725563
199	0x3ea066b7	0.31328365
200	0xbf61e375	-0.88237697
201	0x3e9362b3	0.2878624
202	0x3c8c5e80	0.017134905
203	0x3d27d406	0.040973686
204	0xbe7079ae	-0.23483917
205	0xbe837823	-0.25677595
206	0x3f31e71f	0.6949329
207	0xbdd12259	-0.102116294
208	0xbce641a8	-0.02810748
209	0x3ea68d6a	0.32529765
210	0x3e445227	0.19171964
211	0xbe438630	-0.19094157
212	0x3e1da140	0.15393543
213	0xbec29047	-0.380007
214	0xbdb5534b	-0.088537775
215	0x3e0b64b5	0.13612635
216	0xbc3f6e95	-0.01168408
217	0xbde6a0ef	-0.112611644
218	0xbd3537c2	-0.044242628
219	0xbe99745f	-0.29971597
220	0x3f05cd13	0.52266043
221	0xbd16318a	-0.036668338
222	0xbd3c18bf	-0.045922037
223	0xbeeaf39d	-0.45888987
224	0x3d59f360	0.053210616
225	0x3e20efc3	0.15716462
226	0x3ea26f7a	0.31725675
227	0xbe4d022b	-0.20020358
228	0x3ec4b2a2	0.38417536
229	0x3e79bb3f	0.24387835
230	0x3eb86d81	0.36021045
231	0xbc402d78	-0.011729591
232	0x3e111e8d	0.1417181
233	0x3e139cf7	0.14415346
234	0xbec5c029	-0.3862317
235	0x3ca42474	0.020036913
236	0xbe7d7b6c	-0.24754113
237	0x3eb0d761	0.3453932
238	0xbf08c76e	-0.53429306
239	0xbe88276a	-0.2659257
240	0x3f197be9	0.59954697
241	0xbe181ad6	-0.14853987
242	0x3f34c3d8	0.70611334
243	0xbeff82a8	-0.4990437
244	0xbe4b9bf7	-0.19883715
245	0xbe9ce8b2	-0.30646282
246	0xbf073c08	-0.52825975
247	0xbe947f3a	-0.29003316
248	0xbed697dd	-0.41912737
249	0x3e57259d	0.21010442
250	0x3ee0333c	0.4378909
251	0xbf626d53	-0.88448066
252	0x3ecf0b2f	0.4043822
253	0x3d79d2fa	0.06099222
254	0x3ea063bb	0.31326088
255	0x3ec76cff	0.38950345

critic.qf.fc0.bias f4 [256]
0	0xbd963acc	-0.07335433
1	0x3ebfa088	0.37427163
2	0xbedd474d	-0.4321846
3	0xbdea5e38	-0.11443752
4	0xbd99a492	-0.075020924
5	0x3eca1c12	0.3947454
6	0xbec31d06	-0.3810808
7	0xbd9bfdcd	-0.07616768
8	0xbe8b8763	-0.2725173
9	0x3f169859	0.58826214
10	0xbd17f963	-0.037103068
11	0x3eaa7eea	0.33299953
12	0xbe0dbe5a	-0.13842145
13	0xbe6c7250	-0.23090482
14	0xbec0aa34	-0.37629855
15	0xbd536f05	-0.05161955
16	0xbdd484fd	-0.10376928
17	0xbe2a384c	-0.16623038
18	0x3e8cf32d	0.27529278
19	0x3f10a970	0.5650854
20	0xbdc6dfeb	-0.09710678
21	0xbdf1d68c	-0.118085
22	0xbe2712fa	-0.16315833
23	0x3ea6c9e0	0.32575893
24	0x3c9c4ed7	0.019080563
25	0x3f12795f	0.5721645
26	0xbddeb23d	-0.1087384
27	0xbe0348ba	-0.12820712
28	0xbe70fa24	-0.23532921
29	0xbe465e11	-0.19371821
30	0xbebfaf78	-0.3743856
31	0x3cacfb53	0.021115934
32	0x3e6e9f43	0.23302941
33	0xbe851b10	-0.2599721
34	0xbe9f82c7	-0.31154463
35	0x3f21c940	0.6319771
36	0x3cc3eca5	0.023916552
37	0xbe1d0564	-0.15334088
38	0x3f031f65	0.5121978
39	0x3e28965b	0.16463606
40	0xbe2d2086	-0.16906938
41	0xbdf00a0c	-0.11720666
42	0x3f0e89e1	0.55679137
43	0xbdffea6d	-0.12495885
44	0x3c32bb30	0.010908887
45	0xbebdf672	-0.37102085
46	0x3e850212	0.25978142
47	0xbe7576b5	-0.23971064
48	0xbd796bd3	-0.060893845
49	0xbd4a32f0	-0.049364984
50	0xbd26e64e	-0.04074698
51	0xbdc7cde9	-0.09756071
52	0x3c8e964d	0.017405653
53	0xbe2be52a	-0.16786638
54	0x3df29208	0.118442595
55	0xbeb9ac35	-0.36264196
56	0x3e507b1e	0.20359465
57	0x3e48e69a	0.19619218
58	0xbc0795e9	-0.008275487
59	0x3c41860f	0.011811747
60	0xbd9841d9	-0.074344344
61	0xbe603e13	-0.2189868
62	0xbe439225	-0.19098718
63	0xbd931560	-0.07181811
64	0xbe584143	-0.21118645
65	0x3eb4088e	0.35162777
66	0xbe33ab2a	-0.17545763
67	0xbe463ef7	-0.19359957
68	0xbe8ea292	-0.27858406
69	0x3f14d17d	0.58132154
70	0x3e9280c2	0.2861386
71	0xbe19d5f2	-0.1502302
72	0xbdd81ccd	-0.10552368
73	0xbe6d3e91	-0.23168398
74	0xbdcad796	-0.09904401
75	0x3f377830	0.71667767
76	0x3da6f169	0.08151514
77	0x3cf9063d	0.030398482
78	0xbea2a847	-0.3176901
79	0xbdf33455	-0.11875216
80	0xbebcf07a	-0.3690222
81	0x3efffdd8	0.49998355
82	0xbd72fc50	-0.059322655
83	0xbda642e4	-0.08118227
84	0x3f46e5b3	0.77694243
85	0xbe6cc38a	-0.23121467
86	0xbe0770f2	-0.13226679
87	0x3f423189	0.75856835
88	0xbd2b594c	-0.041833207
89	0xbe8c05c0	-0.27348137
90	0x3e3e1bc5	0.1856528
91	0xbe4431b4	-0.19159585
92	0xbbb9f1cf	-0.005674578
93	0xbcfee6ac	-0.031115852
94	0x3ca3714c	0.019951485
95	0xbe317180	-0.17328453
96	0x3d67bd42	0.056576975
97	0xbe7cbea5	-0.246821
98	0xbe53a594	-0.20668632
99	0xbe01c64d	-0.12673302
100	0x3f53158d	0.8245476
101	0xbe674b91	-0.2258742
102	0x3f2431c8	0.6413846
103	0x3ea87fc5	0.3290998
104	0x3e07790a	0.13229766
105	0xbe9e52a9	-0.3092244
106	0xbdf0c81e	-0.11756919
107	0xbe451271	-0.19245316
108	0x3d7a2ed5	0.06107982
109	0xbdef4cae	-0.11684547
110	0x3edcebe1	0.4314871
111	0x3ed4f7f3	0.4159542
112	0xbec276a6	-0.37981147
113	0xbe8f5bd8	-0.2799976
114	0x3c802d58	0.015646622
115	0xbde57b78	-0.112051904
116	0xbe49e06c	-0.19714516
117	0x3e3af3b2	0.18257025
118	0xbcf1be2b	-0.029509624
119	0x3f104ab9	0.5636402
120	0xbea13e57	-0.31492874
121	0xbd75a091	-0.05996758
122	0xbe17503a	-0.14776698
123	0xbe397fd7	-0.18115173
124	0xbea7f221	-0.32801917
125	0xbe5e6d6f	-0.21721433
126	0xbdace9de	-0.08443044
127	0x3d2fdf8b	0.042937797
128	0xbe1befb0	-0.15228152
129	0x3d0a0164	0.033692732
130	0xbda1a1fd	-0.07892225
131	0xbe7d7539	-0.24751748
132	0xbe8442ee	-0.25832313
133	0xbe08da0f	-0.13364433
134	0x3db83108	0.08993727
135	0xbcbe479d	-0.023227507
136	0xbe5bf968	-0.2148186
137	0xbe60f3c5	-0.2196799
138	0xbea11c6b	-0.31466994
139	0xbe091601	-0.133873
140	0xbc81c98e	-0.01584318
141	0xbe050946	-0.12991819
142	0xbe253d9d	-0.16136785
143	0xbea75516	-0.32682103
144	0xbd873f6e	-0.06603895
145	0x3e5ecf08	0.21758664
146	0xbdb10342	-0.086431995
147	0x3e019097	0.12652813
148	0xbe87292c	-0.263986
149	0xbe8b9bad	-0.2726721
150	0x3ed2f29b	0.41200718
151	0xbda506b1	-0.08057917
152	0x3db13aca	0.08653791
153	0x3dd929f5	0.10603706
154	0xbd9296a8	-0.07157642
155	0x3ecea6bd	0.40361586
156	0xbe2dd9eb	-0.1697766
157	0xbda6a922	-0.08137728
158	0xbec78fc1	-0.38976863
159	0xbcf4090d	-0.029789472
160	0xbe6bb671	-0.23018815
161	0xbe10db74	-0.14146215
162	0x3d952d7a	0.072840646
163	0xbe348814	-0.17630035
164	0xbd8d5cc0	-0.06902456
165	0xbea136bd	-0.31487074
166	0x3e84c42a	0.2593091
167	0xbe8ec141	-0.27881816
168	0xbd91a8d6	-0.07112281
169	0xbe0bbdee	-0.13646671
170	0xbe0417a8	-0.12899649
171	0x3f2ec0bd	0.68262845
172	0x3bbb063f	0.0057075317
173	0x3daa7434	0.08322945
174	0xbd729c58	-0.059231132
175	0x3e2f3245	0.1710902
176	0x3f25f733	0.6483032
177	0xbda654f5	-0.08121673
178	0xbd15f244	-0.036607996
179	0x3f16753e	0.5877265
180	0xbe5761b3	-0.21033363
181	0xbe5a2906	-0.21304712
182	0xbeac79d0	-0.33686686
183	0xbea2312e	-0.31678146
184	0x3e9bd83b	0.30438408
185	0xbea3e24e	-0.32008594
186	0xbde40836	-0.111343786
187	0xbd468e93	-0.048475813
188	0x3ec1c139	0.3784273
189	0xbd5610d1	-0.05226213
190	0x3efc44c0	0.49271202
191	0xbd7e24c1	-0.06204677
192	0xbbefd3c4	-0.0073189456
193	0xbda5e4d1	-0.08100284
194	0x3de2a280	0.11066151
195	0xbe0e5d30	-0.13902736
196	0x3e9ab4ab	0.30215964
197	0xbe2fc6c9	-0.17165674
198	0xbe079b23	-0.13242774
199	0xbeb10359	-0.34572867
200	0xbe01f05b	-0.12689345
201	0x3e943897	0.28949425
202	0xbe86043b	-0.26175103
203	0xbd898ac2	-0.06715919
204	0xbcf9616e	-0.030441966
205	0x3e9fd850	0.3121972
206	0xbe6c89b1	-0.230994
207	0xbea2f4cf	-0.318274
208	0xbe1a063e	-0.15041444
209	0xbdb66ea4	-0.08907822
210	0x3cb09a8a	0.021558065
211	0xbe0524ef	-0.1300237
212	0xbd3a9dc8	-0.04556063
213	0xbc9c2c50	-0.019064099
214	0x3cd4a011	0.025955232
215	0xbd76fccf	-0.06029969
216	0xbdc74602	-0.0973015
217	0x3d8c7cbf	0.06859731
218	0x3f1d208b	0.6137778
219	0xbe332da7	-0.17497884
220	0xbdc6c6e4	-0.09705904
221	0xbe5b180c	-0.21395892
222	0x3e9a85dc	0.30180252
223	0xbdc1d8f1	-0.094652064
224	0x3e7c227f	0.24622534
225	0xbe6c0d21	-0.23051883
226	0xbe63a02d	-0.22229071
227	0xbe8478df	-0.25873467
228	0x3e1cf702	0.15328601
229	0xbe6c2472	-0.23060778
230	0xbea18a3f	-0.31550786
231	0xbe89f4d3	-0.269446
232	0xbba7e65a	-0.0051238956
233	0xbac3ed7d	-0.0014948096
234	0xbd062827	-0.032753136
235	0xbe55e0c5	-0.20886524
236	0xbd354b27	-0.044261124
237	0xbc39ecdf	-0.011347978
238	0x3f1f5d7f	0.6225204
239	0xbe7b52ba	-0.24543276
240	0xbdcd6c2e	-0.10030399
241	0xbdbae8ca	-0.09126432
242	0xbe852501	-0.26004794
243	0xbecf1376	-0.40444535
244	0xbd0204e4	-0.031742945
245	0x3ec5baba	0.38619024
246	0xbea1dcce	-0.31613773
247	0xbeb0312e	-0.3441252
248	0x3b1e2c93	0.0024135455
249	0xbeb872a9	-0.3602498
250	0xbe7ca193	-0.2467101
251	0xbbb16732	-0.005413913
252	0xbe8c0303	-0.27346048
253	0xbe09c0a0	-0.13452387
254	0xbd286639	-0.041113112
255	0x3ef2b4ab	0.47403464

critic.qf.fc1.weight f4 [256, 256]
0	0x3f2cd18e	0.67507255
1	0xbae6be22	-0.0017604271
2	0xbec3f3cf	-0.3827195
3	0x3e3b9849	0.18319811
4	0x3ed30ff8	0.4122312
5	0xbf13b0da	-0.5769173
6	0xbfb26758	-1.3937788
7	0xbccf99f9	-0.025341975
8	0xbeb613d1	-0.35561994
9	0xbe2c3f6d	-0.1682107
10	0xbe378410	-0.17921472
11	0xbdf7f234	-0.121067435
12	0x3f22ee10	0.63644505
13	0xbdb689b3	-0.08912983
14	0x3e4c0b8f	0.19926284
15	0xbdf24a5a	-0.11830588
16	0x3cdd1b24	0.02699048
17	0xbe878f6f	-0.2647662
18	0x3e09fb56	0.13474783
19	0xbe1712e5	-0.14753301
20	0x3e038044	0.12841898
21	0x3f60b5eb	0.87777585
22	0xbec71dc5	-0.388899
23	0x3e419049	0.18902697
24	0xbe630029	-0.2216803
25	0x3d8f8f17	0.07009714
26	0xbed63695	-0.41838518
27	0x3e6cda6a	0.23130193
28	0x3f2d78ca	0.67762434
29	0x3ec2230a	0.37917358
30	0x3e0dd17b	0.13849442
31	0x3db8855a	0.0900981
32	0xbdaa264a	-0.08308084
33	0x3da54735	0.08070222
34	0xbfa2c74a	-1.2717068
35	0xbe0a6ce4	-0.13518101
36	0x3f036e23	0.5133993
37	0x3f275a43	0.65372103
38	0x3daa35d7	0.083110504
39	0xbe299530	-0.16560817
40	0xbd9d8848	-0.07692009
41	0x3f108c76	0.56464326
42	0xbe302907	-0.1720315
43	0x3f227379	0.6345745
44	0x3eb53eee	0.35399574
45	0xbe40baf2	-0.18821314
46	0x3de61e3e	0.11236237
47	0x3e5be884	0.21475416
48	0x3f35fabe	0.7108573
49	0x3e13cb9f	0.14433144
50	0x3edb01ea	0.42774898
51	0xbe8b9028	-0.2725842
52	0xbe50e604	-0.20400244
53	0xbf2b5b3b	-0.6693608
54	0xbebb123a	-0.36537343
55	0xbe036209	-0.12830366
56	0x3d4313c5	0.047626276
57	0x3ec28ba5	0.37997165
58	0x3e4c482a	0.19949403
59	0xbd338361	-0.043826465
60	0x3da2147d	0.07914064
61	0x3f39b05a	0.72534716
62	0xbf386813	-0.72033805
63	0x3f0ef84b	0.55847615
64	0xbf2db0de	-0.67848
65	0x3e631cee	0.22179005
66	0xbed731d9	-0.42030218
67	0xbf6843b3	-0.907283
68	0x3e5734d6	0.21016249
69	0xbe2e58b0	-0.17026019
70	0xbc31ac2a	-0.01084427
71	0x3eb18cc6	0.34677714
72	0xbeb7e711	-0.35918477
73	0xbf3466cf	-0.70469373
74	0xbfa359d2	-1.2761786
75	0xbe25fef9	-0.16210546
76	0x3d2b8dfa	0.041883446
77	0x3e8d8ac6	0.27644938
78	0x3f5accc2	0.85468686
79	0xbdd09044	-0.101837665
80	0x3f29a08e	0.6626061
81	0x3ea2cff1	0.31799272
82	0x3ed341da	0.41261178
83	0x3ede90d3	0.43469867
84	0xbdcea5f9	-0.100902505
85	0x3e7a8120	0.2446332
86	0xbdd4cce7	-0.103906445
87	0xbd983c0a	-0.074333265
88	0x3dfbdff8	0.12298578
89	0x3dd3e56e	0.103464946
90	0xbd862f93	-0.06552043
91	0x3cc82bd1	0.024434956
92	0x3ea330ee	0.31873268
93	0xbc636e4a	-0.013881275
94	0x3e8c7c42	0.2743855
95	0x3bc50ef4	0.0060137454
96	0xbe500a58	-0.20316446
97	0xbe207721	-0.15670444
98	0xbe69b101	-0.22821428
99	0x3f196b59	0.59929425
100	0xbdf02b4b	-0.117270075
101	0x3f2703a1	0.6523991
102	0xbe8e4f93	-0.27795085
103	0xbe29cd80	-0.16582298
104	0x3c13591c	0.008993413
105	0xbd080e5a	-0.03321681
106	0x3ea818ac	0.32831323
107	0xbe0553f8	-0.13020313
108	0xbdbdfca0	-0.092767
109	0xbedaf350	-0.42763758
110	0x3eb91453	0.3614832
111	0xbe121305	-0.14265068
112	0xbf0fdc83	-0.5619585
113	0x3e5b7335	0.21430667
114	0xbf7ea246	-0.9946636
115	0xbe7d3ff2	-0.24731424
116	0x3e131779	0.14364423
117	0xbe5ad8db	-0.21371786
118	0x3ef7cc54	0.48398077
119	0xbd9d7e4f	-0.07690107
120	0xbef8ff13	-0.48632106
121	0xbe53b565	-0.20674665
122	0xbbc3077a	-0.005951819
123	0x3f721eee	0.94578445
124	0x3d89fed3	0.06738057
125	0x3f77f4e1	0.9685803
126	0x3e9ae0a1	0.30249503
127	0x3f15a476	0.5845407
128	0x3efd5014	0.49475157
129	0x3ede98db	0.43475994
130	0x3eb6488e	0.3560223
131	0xbe84c665	-0.25932613
132	0x3e9ec7a4	0.3101169
133	0x3f234d48	0.63789797
134	0xbd786c5b	-0.06065021
135	0xbd0d34ce	-0.034474187
136	0x3f244ae1	0.64176756
137	0x3efc9d51	0.49338773
138	0x3f235aef	0.6381063
139	0x3ecd2fd0	0.4007554
140	0x3e033f0a	0.12817016
141	0x3e8d3980	0.27582932
142	0x3ede8f82	0.43468863
143	0xbe6a6d56	-0.22893271
144	0x3f131427	0.57452625
145	0xbd3620e9	-0.04446498
146	0xbf223e9d	-0.6337679
147	0x3b8f5560	0.004374191
148	0x3d821662	0.063519254
149	0x3e5692bf	0.20954417
150	0xbcd06022	-0.025436465
151	0xbed0876f	-0.40728328
152	0x3d67b95c	0.056573257
153	0x3f0ea0fc	0.5571439
154	0xbed68abd	-0.41902724
155	0x3ea8e207	0.32984945
156	0x3f0cd21a	0.5500809
157	0x3e38702e	0.18011543
158	0x3eb741ae	0.35792297
159	0x3dcaf88c	0.09910688
160	0xbeebdf5b	-0.46068844
161	0xbebef349	-0.37294987
162	0xbd30c6e0	-0.043158412
163	0x3f1de6a3	0.6168005
164	0x3e8e9eb2	0.2785545
165	0xbd650af1	-0.055918638
166	0xbdc9a5b8	-0.098460615
167	0xbda5778a	-0.08079441
168	0xbe047e04	-0.12938696
169	0x3e699b7b	0.22813217
170	0xbe0a875a	-0.13528195
171	0xbdf3a1b6	-0.11896078
172	0xbf12edca	-0.5739409
173	0x3d203758	0.03911528
174	0xbdcad294	-0.09903446
175	0xbe882866	-0.26593322
176	0xbd4f2dcc	-0.050580785
177	0x3f2eb155	0.6823934
178	0x3ea722c4	0.32643712
179	0xbdc94fb3	-0.098296545
180	0x3e99c9df	0.30036828
181	0x3f7f2259	0.99661785
182	0x3e84db21	0.25948432
183	0x3f033808	0.5125737
184	0xbeb762fa	-0.358177
185	0x3f554692	0.83310807
186	0xbf0e6c63	-0.55634135
187	0x3e9329e1	0.2874289
188	0x3df6ea46	0.12056403
189	0xbd25ebd1	-0.040508095
190	0xbdf882a9	-0.121342964
191	0x3ea42a2c	0.32063425
192	0x3e26ccf8	0.16289127
193	0x3daf44ed	0.085580684
194	0xbde0e8a4	-0.10981873
195	0x3e1f8d7a	0.15581313
196	0x3e361ed3	0.17785196
197	0x3ee77c65	0.45212093
198	0x3c42dc8c	0.011893403
199	0x3ef6f143	0.48230943
200	0xbf03d715	-0.51500064
201	0xbed72efb	-0.4202803
202	0xbe3748cb	-0.17898862
203	0x3ef74034	0.4829117
204	0x3f186584	0.595299
205	0xbce890a6	-0.028389286
206	0xbf1c74d2	-0.61115754
207	0xbf009805	-0.50231963
208	0xbc1a558f	-0.009419813
209	0xbd94d899	-0.07267875
210	0x3e9a1189	0.30091503
211	0xbe060ea8	-0.13091528
212	0xbdee1015	-0.11624161
213	0x3e5a11b5	0.21295817
214	0xbc371b5e	-0.011175958
215	0xbf5903d1	-0.8477145
216	0xbea736d4	-0.32659018
217	0xbe676669	-0.2259766
218	0xbd862f50	-0.06551993
219	0x3f1885db	0.5957925
220	0xbee77680	-0.45207596
221	0x3ebe5264	0.37172234
222	0xbe4cce69	-0.20000614
223	0x3ee9d70a	0.45671874
224	0x3dc1d307	0.094640784
225	0xbeae2bdd	-0.3401784
226	0x3e042623	0.12905173
227	0x3ede956d	0.43473378
228	0x3db3a429	0.087715454
229	0x3df1a573	0.11799135
230	0x3a883b41	0.0010393636
231	0x3d8da451	0.069161065
232	0xbf310c97	-0.69159836
233	0xbed44daf	-0.41465518
234	0x3e5b2b90	0.21403337
235	0x3eae1cfa	0.34006482
236	0x3de1af1a	0.11019726
237	0xbb8a47d3	-0.004219988
238	0xbe99c28a	-0.30031234
239	0x3ea12337	0.3147218
240	0x3f0dd51e	0.55403316
241	0x3f2282ba	0.6348072
242	0x3d1608ab	0.03662936
243	0xbee8e6a7	-0.45488474
244	0xbcc413d3	-0.023935234
245	0xbefd0fda	-0.49426156
246	0xbe4a2060	-0.19738913
247	0x3edfe007	0.43725607
248	0x3eada8a5	0.33917728
249	0xbecea46d	-0.40359822
250	0xbce501f4	-0.027955033
251	0x3f0c93a1	0.54912764
252	0x3d926802	0.07148744
253	0x3ddd40f3	0.10803404
254	0x3e3643f2	0.17799357
255	0xbe33bdcc	-0.1755287

critic.qf.fc1.bias f4 [256]
0	0xbe70019b	-0.23438112
1	0x3dfc8cbb	0.1233153
2	0x3da63736	0.081159994
3	0xbe7386c5	-0.23781879
4	0x3e1ee285	0.15516098
5	0xbb68514b	-0.0035448845
6	0x3d8e7ab1	0.06956995
7	0x3da5495a	0.08070631
8	0x3eea47f5	0.45758024
9	0xbe07de96	-0.13268504
10	0xbd2ecb09	-0.0426741
11	0x3f53d55a	0.82747424
12	0x3c351a6b	0.011053662
13	0x3eeb859d	0.46000376
14	0x3bc56b24	0.006024735
15	0x3ed59f97	0.4172332
16	0x3ecd9513	0.40152797
17	0xbdac302b	-0.08407625
18	0x3e82cdef	0.2554774
19	0x3e915269	0.28383186
20	0x3efcc575	0.49369398
21	0xba33598c	-0.00068416516
22	0x3e51f61e	0.20504043
23	0x3e69c42c	0.2282874
24	0x3e56b6e5	0.20968206
25	0x3e4752c9	0.19465174
26	0x3c9cdb91	0.019147666
27	0x3daca8a8	0.08430606
28	0x3f0b69af	0.54458135
29	0xbd1edc59	-0.03878436
30	0x3d0166fd	0.031592358
31	0x3ee4be54	0.4467646
32	0x3f6859cd	0.90762025
33	0x3e6c83bd	0.23097129
34	0xbdf46860	-0.119339705
35	0x3ea9c65f	0.33159158
36	0x3f9954d3	1.1979011
37	0xbe4edd39	-0.20201577
38	0x3f53738d	0.8259819
39	0x3e1aeda1	0.1512971
40	0xbe3dded9	-0.18542041
41	0x3eb29fff	0.34887692
42	0xbdda9c80	-0.10674381
43	0x3e93036e	0.28713554
44	0xbe4ffd85	-0.20311554
45	0x3f3c3788	0.73522234
46	0xbd48d427	-0.04903045
47	0x3ca83569	0.02053328
48	0xbd89081c	-0.06691
49	0xbe581c2e	-0.211045
50	0xbdb5eadd	-0.08882687
51	0x3e22b76d	0.15890284
52	0x3decb9ec	0.11558899
53	0x3ef420b7	0.4768121
54	0x3eb27c7c	0.348606
55	0xbd64287a	-0.055702664
56	0x3e2aad8a	0.16667762
57	0x3eea5b2f	0.45772693
58	0x3e51e4a1	0.20497371
59	0x3e07d58d	0.13265057
60	0x3d78ebc3	0.060771715
61	0xbdcc7680	-0.099835396
62	0xbbbdc60d	-0.0057914318
63	0x3ec57fed	0.38574162
64	0x3ec0421d	0.3755044
65	0x3f56fd68	0.8398042
66	0x3f8c0904	1.0940251
67	0xbdb3ff8c	-0.08788976
68	0x3f8cbfa0	1.0995979
69	0xbcb725b3	-0.022356844
70	0x3f79d6d1	0.9759341
71	0x3e0b4b96	0.13603052
72	0x3f9040ed	1.1269814
73	0xbce5b62a	-0.028040964
74	0xbd8f6545	-0.070017375
75	0x3f882553	1.063639
76	0x3ec1dd4c	0.3786415
77	0xbd057cee	-0.032589845
78	0x3f2646ae	0.649516
79	0xbdce65c6	-0.100780055
80	0x3eb706b3	0.357473
81	0xbca4edf3	-0.020132994
82	0xbcfbe8cc	-0.030750655
83	0xbd098a2f	-0.033579048
84	0x3eb5db16	0.35518712
85	0x3e519663	0.20467524
86	0x3ee6507c	0.4498328
87	0xbdc2e340	-0.09516001
88	0x3f5f1948	0.8714795
89	0xbbaccbec	-0.005273333
90	0x3d9d9090	0.07693589
91	0x3ed727d9	0.4202259
92	0x3ef2cb09	0.4742053
93	0x3ea434bc	0.32071483
94	0x3c920ac9	0.017827408
95	0x3ddefe4a	0.108883455
96	0xbe103aa3	-0.14084868
97	0x3ec2c33b	0.38039574
98	0x3f83eb7c	1.0306239
99	0x3f29e45a	0.6636406
100	0x3eaea572	0.341106
101	0xbc2d858e	-0.010590924
102	0xbd11874d	-0.035529424
103	0x3f3e3434	0.74298406
104	0x3d777aa0	0.06041968
105	0xbe58c238	-0.21167839
106	0x3d43036f	0.047610696
107	0x3ea70530	0.32621145
108	0xbd9aa24a	-0.075504854
109	0x3eb45baa	0.35226184
110	0xbe31441c	-0.17311138
111	0x3eb1fb63	0.34762105
112	0xbe8052e2	-0.25063235
113	0x3df95915	0.12175194
114	0xbd9c7851	-0.07640136
115	0x3e981454	0.2970301
116	0x3f5ba80e	0.85803306
117	0xbe784922	-0.24246648
118	0xbe52f984	-0.20602995
119	0x3d82340a	0.06357582
120	0x3e8c1c31	0.27365258
121	0x3e34b773	0.17648105
122	0x3f641a6c	0.89102817
123	0x3f255545	0.64583236
124	0x3f1d8d50	0.6154375
125	0x3e52f921	0.20602848
126	0x3d5ab39d	0.05339395
127	0x3d77ff75	0.060546357
128	0xbe7c0889	-0.24612631
129	0x3d007aa0	0.031366944
130	0x3f7c0471	0.9844428
131	0xbd9b399b	-0.07579347
132	0x3ea49e60	0.3215208
133	0xbca86a1b	-0.020558408
134	0x3eb8d01e	0.3609628
135	0x3f07cd14	0.530473
136	0x3f6700d6	0.9023565
137	0x3ea3f761	0.32024673
138	0x3f87e5c9	1.0617
139	0x3d4aa178	0.049470395
140	0x3f8bd78f	1.0925158
141	0xbddfa000	-0.109191895
142	0x3ea4fc48	0.32223725
143	0x3f5014ef	0.8128194
144	0x3edb56d7	0.4283969
145	0x3dbecddf	0.093166105
146	0xbd9c0c3b	-0.0761952
147	0x3f63e208	0.8901677
148	0xbe37efd1	-0.17962576
149	0x3f17412d	0.59083825
150	0x3f9472bc	1.1597514
151	0x3f2e101c	0.6799333
152	0x3f08c0a6	0.5341896
153	0x3f99ca68	1.2014894
154	0x3ebee663	0.37285146
155	0x3ef55c43	0.47921953
156	0x3f7130cc	0.94215083
157	0x3be292e2	0.0069144825
158	0x3e8f8705	0.280327
159	0xbb3cca2f	-0.0028807034
160	0x3f81485f	1.0100211
161	0xbddee3f3	-0.108833216
162	0x3d5736d1	0.05254251
163	0x3f0038ff	0.5008697
164	0x3edf0c7a	0.43564206
165	0xbe0a15f2	-0.13484934
166	0x3d61d740	0.05513692
167	0xbcc3aae6	-0.023885202
168	0x3f92cd95	1.1468989
169	0x3d707f87	0.05871537
170	0x3cb49553	0.02204386
171	0x3f4d0fd6	0.8010229
172	0x3f6fb7cf	0.93639845
173	0x3eebf132	0.46082455
174	0xbda1f6ec	-0.07908425
175	0x3f116624	0.5679648
176	0xbdac48db	-0.084123336
177	0x3df52e3f	0.11971711
178	0x3e0dab11	0.13834788
179	0x3d4efcd9	0.050534103
180	0x3d32d9d0	0.043664753
181	0xbc837551	-0.016047152
182	0x3e9edabd	0.3102626
183	0x3ebedeb4	0.37279284
184	0x3e589611	0.21150996
185	0xbdc2cdaf	-0.09511887
186	0x3f35063a	0.70712626
187	0xbd87a252	-0.06622757
188	0x3e677cb6	0.22606167
189	0x3ab209a3	0.0013583194
190	0x3f0074ed	0.50178415
191	0x3d9d9375	0.07694141
192	0x3ec4ed73	0.3846241
193	0xbd830bc1	-0.06398726
194	0xbe038d3a	-0.12846842
195	0xbe4c84a4	-0.19972473
196	0x3f00cdb6	0.5031389
197	0x3f814383	1.0098728
198	0x3f17c33c	0.5928228
199	0x3f800848	1.0002527
200	0x3ee2ebe7	0.44320604
201	0xbd651df1	-0.055936757
202	0xbd664bd1	-0.056224648
203	0xbdf8fb92	-0.12157358
204	0xbe835a72	-0.25654942
205	0x3eec15c7	0.46110365
206	0x3e450250	0.19239163
207	0xbe2624e8	-0.16225016
208	0xbd88a943	-0.06672909
209	0xbd1a95e2	-0.037740596
210	0xbe0a6907	-0.13516627
211	0xbe5d9945	-0.21640499
212	0x3d710f0a	0.058852233
213	0xbe8b455e	-0.2720136
214	0x3ec860d3	0.3913637
215	0x3f4d6712	0.802354
216	0xbe1655a5	-0.14681108
217	0xbce01d6a	-0.027357776
218	0x3c89b505	0.01680995
219	0x3f4ce84b	0.8004195
220	0x3dfd9afc	0.123830765
221	0x3d8ad336	0.067785665
222	0xbd602433	-0.054722022
223	0x3edc54b3	0.4303337
224	0x3ecab24a	0.3958915
225	0x3d6cdb27	0.057826187
226	0xbc771d95	-0.0150827365
227	0x3f84616a	1.0342228
228	0x3f06e824	0.5269797
229	0xbe5c6429	-0.21522583
230	0x3e3f6315	0.1869014
231	0x3ef9fa68	0.48823857
232	0x3f088668	0.5333009
233	0x3fa0f217	1.257388
234	0x3e63c8b2	0.22244528
235	0x3ecfc731	0.40581658
236	0x3ed92b12	0.42415673
237	0xbe03817c	-0.12842363
238	0x3dc8402d	0.097778656
239	0x3f0470a0	0.5173435
240	0x3ea9c167	0.33155367
241	0x3e767030	0.24066234
242	0x3dcfa07d	0.101380326
243	0x3f424b60	0.75896263
244	0xbe542c76	-0.20720086
245	0xbd427a09	-0.047479663
246	0xbe01da71	-0.12680985
247	0xbd7e8938	-0.06214258
248	0xbe5819da	-0.21103612
249	0xbcba609c	-0.022751145
250	0x3f708dc0	0.93966293
251	0xbe61b77c	-0.2204265
252	0x3d92085d	0.071305014
253	0xbe6da600	-0.23207855
254	0xbc847519	-0.016169118
255	0xbcca244d	-0.024675513

critic.qf.last_fc.weight f4 [16, 256]
0	0x3f105e29	0.56393677
1	0x3e47ffd0	0.19531178
2	0x3ec05ca8	0.3757069
3	0x3ecc7c95	0.399388
4	0x3efcb797	0.49358818
5	0x3ed7587d	0.420597
6	0x3bf09f2b	0.007343193
7	0x3f455110	0.77076817
8	0x3f6346ac	0.8877971
9	0x3effd0f0	0.49964094
10	0x3ecf05c7	0.40434095
11	0x3f051b57	0.5199484
12	0x3f2db5d6	0.67855585
13	0x3f1f02ce	0.62113655
14	0x3f18e58d	0.59725267
15	0x3f20b152	0.6277057
16	0x3f57be79	0.84275013
17	0x3ed378aa	0.41302997
18	0x3ecdfcaa	0.4023183
19	0x3f2d579e	0.6771182
20	0x3f2c5605	0.67318755
21	0x3e88e8d7	0.26740143
22	0xbe622fc3	-0.22088532
23	0x3f267b8b	0.6503226
24	0x3f03005a	0.5117241
25	0x3f068952	0.52553284
26	0x3ec66f41	0.38756755
27	0x3f190651	0.59775263
28	0x3eae2813	0.3401495
29	0x3f583c24	0.8446677
30	0x3f30842c	0.6895168
31	0x3f3336c1	0.7000542
32	0x3ec65ad9	0.38741186
33	0xbcf5e887	-0.030018104
34	0x3d0b90ff	0.034073826
35	0x3f3badeb	0.7331225
36	0x3edc0a80	0.4297676
37	0xbdd03786	-0.1016684
38	0x3e90f5fa	0.28312665
39	0x3f335ac5	0.7006038
40	0x3f38a980	0.72133636
41	0x3ea56b69	0.3230851
42	0xbe269551	-0.16267897
43	0x3e9c6498	0.30545497
44	0x3ed0b66d	0.4076418
45	0x3ec2db76	0.3805806
46	0x3e3f1648	0.18660843
47	0x3e6a1c6f	0.22862409
48	0x3f437d0e	0.76362693
49	0x3e7fec33	0.24992447
50	0x3f2ff88d	0.68738633
51	0x3e4a4fc7	0.19756995
52	0x3f27f14d	0.6560257
53	0x3f124fbe	0.57152927
54	0x3e46aff5	0.1940306
55	0x3e9de0e5	0.30835643
56	0x3e5b61e9	0.21424069
57	0x3e5d8d28	0.21635878
58	0x3f2956ae	0.6614789
59	0x3f473625	0.77816993
60	0x3d830ee8	0.063993275
61	0x3ea20753	0.31646213
62	0xbc3805b6	-0.01123183
63	0x3f03c7b8	0.5147662
64	0x3ef5dffe	0.48022455
65	0x3edee554	0.43534338
66	0x3e9a7335	0.3016602
67	0x3f256ee2	0.6462232
68	0x3ea325f1	0.31864884
69	0x3e287493	0.1645072
70	0x3f16fb6d	0.58977395
71	0x3e21d3a5	0.15803392
72	0x3e911d52	0.28342682
73	0x3f560be5	0.836119
74	0x3ef2f7ed	0.47454777
75	0x3e9733a2	0.2953158
76	0x3f18709b	0.5954682
77	0x3e99a55d	0.30008975
78	0x3e4529cd	0.19254227
79	0x3f456603	0.7710878
80	0x3e98681f	0.29766938
81	0x3eb890fb	0.3604811
82	0x3efa4e54	0.48887885
83	0xbe1a1e89	-0.1505071
84	0x3f81327f	1.0093535
85	0x3f25153f	0.64485544
86	0x3f0e5c34	0.5560944
87	0x3ec06f7d	0.3758506
88	0x3de01acb	0.1094261
89	0x3f0d29d8	0.55141973
90	0x3e6b6f64	0.22991711
91	0xbe62a1d9	-0.22132052
92	0x3f26e25e	0.6518916
93	0x3f03b81d	0.5145281
94	0x3f18605c	0.5952203
95	0xbe304b35	-0.17216189
96	0x3e871bbf	0.26388356
97	0x3f502ff3	0.81323165
98	0x3e7b40a4	0.24536377
99	0x3f1d1939	0.6136661
100	0x3d2b7210	0.041856825
101	0x3ef0cc92	0.47031075
102	0x3d9460c5	0.0724502
103	0x3f27b5c0	0.65511703
104	0x3f0408a4	0.51575685
105	0x3efa83d1	0.48928693
106	0x3f0f3cc0	0.5595207
107	0x3eeeca03	0.46638498
108	0x3e287e69	0.16454472
109	0x3f1589e8	0.58413553
110	0x3ef14e33	0.47129974
111	0x3f805c82	1.0028231
112	0x3f3e8014	0.7441418
113	0x3e0bead0	0.13663793
114	0x3efe8fa2	0.49718958
115	0x3f1b6602	0.60702527
116	0x3ec6b52d	0.388101
117	0x3f237203	0.63845843
118	0x3f478d36	0.77949846
119	0x3f0bab49	0.54558235
120	0x3e1bb749	0.15206636
121	0x3d4c673a	0.049903132
122	0x3e970bb8	0.29501128
123	0x3f1ca8a8	0.6119485
124	0x3e7a5813	0.2444766
125	0x3f1a5f78	0.60301924
126	0x3f712363	0.9419462
127	0x3ed8e5da	0.42362863
128	0xbe129b3e	-0.14317033
129	0x3eee4be9	0.4654229
130	0x3e4bd386	0.19904909
131	0x3e80f5b6	0.25187463
132	0x3ef401fa	0.47657758
133	0x3f368901	0.713028
134	0x3eeb8060	0.4599638
135	0x3eaf051a	0.3418358
136	0x3ebc4412	0.36770684
137	0x3e5011e4	0.20319325
138	0x3e6906e9	0.22756542
139	0xbb3ebfa8	-0.0029105935
140	0x3ea559d4	0.32295096
141	0x3f2bb340	0.6707039
142	0x3ed1a66a	0.40947276
143	0x3e94ad73	0.2903858
144	0x3e6b2c82	0.22966197
145	0x3ece18c5	0.40253273
146	0xbe8df0c5	-0.27722755
147	0x3e8945d3	0.26811084
148	0xbe6194c1	-0.22029401
149	0x3e6fe589	0.23427404
150	0x3eac8d8b	0.3370174
151	0x3e86f011	0.2635503
152	0x3ea5e43f	0.324007
153	0x3ed015c6	0.40641612
154	0x3f8aa802	1.0832522
155	0x3e2a2b90	0.1661818
156	0x3ee5b387	0.4486353
157	0x3f57e736	0.84337175
158	0x3ebf9bdc	0.374236
159	0x3ed43ac0	0.41451073
160	0x3dfb3266	0.12265472
161	0x3e2e1a33	0.17002182
162	0x3e8b6248	0.2722342
163	0x3f51293c	0.81703544
164	0x3e982c43	0.2972127
165	0x3f3795a0	0.71712685
166	0x3ee1d213	0.44105586
167	0x3f4937d5	0.7860082
168	0x3e90084f	0.2813134
169	0x3ee7be30	0.4526229
170	0x3e9dc75b	0.3081616
171	0x3ef9a411	0.48757985
172	0x3e924820	0.28570652
173	0x3e029c5f	0.12754963
174	0x3eaf8fc3	0.3428937
175	0x3e8d2dbe	0.2757396
176	0x3efafb2e	0.4901976
177	0x3ebcf903	0.3690873
178	0x3c142a74	0.009043325
179	0x3cbe6d13	0.02324537
180	0x3ed92cec	0.42417085
181	0x3e55cf88	0.20879948
182	0x3f09b9c0	0.53799057
183	0x3f53fe12	0.82809556
184	0x3ea4b0bc	0.32166088
185	0x3f2289f0	0.63491726
186	0x3f24f6f5	0.64439327
187	0x3f2957ff	0.66149896
188	0x3f3cbe25	0.7372764
189	0x3f77b9ad	0.96767694
190	0x3e64d444	0.22346598
191	0x3daec3e2	0.085334554
192	0x3e61b117	0.2204021
193	0x3d94c23f	0.07263612
194	0x3f494b3b	0.7863042
195	0x3e630776	0.22170815
196	0xbc1e09a0	-0.0096458495
197	0x3e9e643d	0.3093585
198	0x3eb4f021	0.35339454
199	0x3e96b8c0	0.29437828
200	0x3edb1524	0.42789567
201	0x3e3a060a	0.18166366
202	0x3cc3bbd9	0.023893284
203	0x3f1e683a	0.6187779
204	0x3ebad543	0.3649083
205	0x3f288b58	0.6583762
206	0x3e1917ce	0.14950487
207	0x3f556e46	0.8337139
208	0x3e4be67e	0.19912145
209	0x3e3072e6	0.1723133
210	0x3eb71b1b	0.35762867
211	0x3f05b925	0.52235633
212	0x3f8916ec	1.071012
213	0x3e7e9577	0.24861704
214	0xbd47bf47	-0.0487664
215	0x3e768f85	0.24078186
216	0x3f15942a	0.58429205
217	0x3eb9e930	0.3631072
218	0xbe00add4	-0.1256631
219	0xbe04885f	-0.12942646
220	0x3e7e95a4	0.24861771
221	0x3f3ea92a	0.74476874
222	0x3ed54c0c	0.41659582
223	0x3ef6c8ec	0.48200166
224	0x3f13e82e	0.57776153
225	0x3eb10322	0.34572703
226	0xbe9041d3	-0.2817522
227	0x3eb20ccd	0.3477539
228	0x3f0899aa	0.5335947
229	0x3eda6d8a	0.42661697
230	0x3ea7c2b6	0.3276574
231	0x3f317c7a	0.6933056
232	0x3c086e19	0.008327031
233	0x3e8e5d6a	0.27805644
234	0x3dcd1dfb	0.10015484
235	0x3f29a908	0.66273546
236	0x3e3dfbe8	0.18553126
237	0x3ec73272	0.38905674
238	0x3f04c5c3	0.5186426
239	0x3f04fda5	0.5194953
240	0x3aada8d7	0.0013249171
241	0x3e7ba0b0	0.24573016
242	0x3f01838f	0.5059137
243	0x3e2642c2	0.16236404
244	0x3f210316	0.62895334
245	0x3f407518	0.7517867
246	0x3f5fe063	0.8745176
247	0x3efa1c6c	0.4884981
248	0x3ef050fc	0.46936786
249	0x3fba187c	1.4538722
250	0x3e867b7b	0.26266083
251	0xbe9410e6	-0.28919142
252	0x3f38600a	0.72021544
253	0x3e62c81d	0.2214665
254	0xbdfcf07f	-0.123505585
255	0x3ec906ed	0.39263096
