logs/mini-cage/100/mlp/2025-04-27-11:16:23/seed-1/save/agent_001000_perf0.000.pt (torch, 801762 bytes, 12 tensors)

qf1.fc0.weight f4 [256, 78]
-0.026254736 0.035720803 0.082630284 0.031066 -0.000188675 0.01635231 -0.021198612 -0.05220872
-0.05990676 0.039003078 -0.020810805 -0.049400635 0.00646538 -0.0063304347 0.03766569 -0.02571319
-0.05744867 -0.02369412 0.02919433 0.04867652 -0.042872585 -0.04950528 0.044676207 -0.042332612
0.016494319 -0.023827232 0.0069807055 0.0005864203 -0.059335127 -0.012359115 0.023386272 0.024003189
-0.020105764 -0.057403788 -0.026032345 0.03432651 -0.010863665 0.04098491 -0.04390887 -0.03323158
0.015474615 -0.03243976 0.0048429286 -0.0013376772 -0.020971993 -0.022133954 0.012985905 0.003050372
0.04433719 0.056313008 0.046396222 0.009537838 -0.0060415044 0.0061903778 -0.04830538 -0.027227579
-0.014276363 0.037415832 0.021313414 -0.02513234 0.041488178 -0.019669669 0.015191048 -0.008136099
-0.007608486 0.045862652 0.086731546 0.033922244 0.09905305 -0.031286463 -0.034693718 -0.054100968
0.03861673 0.04743813 0.09648253 -0.0058800713 0.10412373 0.03630448 0.028057687 -0.056573763
0.049828023 0.052442126 0.04758826 0.04904215 0.02421207 -0.021909952 -0.051854137 -0.014457429
0.05558376 -0.034672238 -0.0064343316 0.02028892 -0.019724537 -0.04507436 0.0110235065 0.059510395
0.028084418 0.008764826 0.03568367 -0.037635274 0.057721425 -0.0541875 -0.055503108 -0.008276939
0.0025268588 0.053179108 -0.0008434018 0.053298198 0.060482353 -0.029416122 0.045015357 0.047064073
-0.04692471 0.0012184747 -0.006010968 -0.045201212 0.036192417 0.070969455 0.009671262 0.05651463
0.0653716 0.016761504 -0.0465552 -0.059439763 0.028027244 -0.00082912296 -0.032795906 -0.032508403
0.13923192 -0.010740742 -0.015250176 0.013555871 -0.009366805 0.053864997 0.020083517 0.058993675
0.05263023 -0.007217617 -0.06361309 0.0512631 -0.026042167 -0.03474335 0.052584898 0.067730516
0.047820162 0.11226126 0.09411317 -0.04409489 0.052211754 -0.051679604 0.011279917 0.00074584037
-0.005890863 0.029374152 0.080275096 0.09695973 -0.050237805 0.038571477 0.088115916 -0.026245952
0.062319223 -0.013263918 0.033719752 0.005958587 0.025379125 0.014073097 -0.021028621 0.021332713
-0.06187221 -0.041931983 -0.011437149 0.06547644 -0.04852566 -0.047277413 0.029424636 -0.037699535
-0.060616955 -0.03118129 0.0694237 -0.06219007 0.026586711 0.041307047 0.070922755 0.015748255
0.008551159 0.0254028 0.0124899205 0.007793947 0.027513215 0.02191569 0.05208267 0.042265743
0.023366524 -0.05404436 0.0062006563 0.00015280531 -0.007706626 -0.016434073 0.00014245976 0.01344955
-0.03916237 0.03796389 -0.048284393 0.011235394 0.05767059 0.03835229 0.08377346 -0.049429648
0.060813136 -0.023200346 -0.017388474 0.017936042 -0.0019230098 0.052898414 -0.040995345 0.01454019
-0.053828035 0.014047439 -0.019574681 -0.049481716 -0.032606237 0.076944314 0.062448315 0.06028916
0.09543583 -0.023554027 0.05516018 0.036216646 0.07756059 -0.062279716 -0.014027041 0.015146277
0.10719647 0.0028379739 -0.030865207 -0.025257938 0.069887295 0.017563008 -0.009255886 -0.046383977
0.014222664 -0.058300644 -0.013670604 -0.04835928 0.03676434 -0.040502798 0.059585497 -0.0073476443
0.042239524 -0.008824916 0.056093216 -0.040985487 -0.032913208 -0.05402951 -0.00082190335 -0.024533413
00000000: 2c14 d7bc fa4f 123d 113a a93d 207e fe3c
00000010: 0fd7 45b9 48f5 853c b6a8 adbc d0d8 55bd
00000020: ca60 75bd b1c1 1f3d 6c7b aabc 5258 4abd
00000030: 8adb d33b 896f cfbb 5747 1a3d 78a4 d2bc
00000040: 4c4f 6bbd 2c1a c2bc f328 ef3c 0861 473d
00000050: 2a9b 2fbd 0cc6 4abd 66fe 363d f664 2dbd
00000060: 181f 873c 5431 c3bc 67be e43b 00ba 193a
00000070: 6409 73bd e37d 4abc 9194 bf3c 56a2 c43c
00000080: d8b4 a4bc 3c20 6bbd c941 d5bc f499 0c3d
00000090: 83fd 31bc cbdf 273d cad9 33bd d61d 08bd
000000a0: 3d89 7d3c 8edf 04bd 6eb1 9e3b 0055 afba
000000b0: 75cd abbc 4452 b5bc d5c2 543c c0e8 473b
000000c0: ea9a 353d 78a8 663d f709 3e3d 9844 1c3c
000000d0: d0f7 c5bb a7d8 ca3b dddb 45bd 5f0c dfbc
000000e0: 68e7 69bc 5841 193d 7899 ae3c 56e2 cdbc
000000f0: 82ef 293d 4922 a1bc e0e3 783c 464d 05bc
00000100: 9b50 f9bb 7ada 3b3d 4fa0 b13d 0df2 0a3d
00000110: 53dc ca3d 3c26 00bd 001b 0ebd fa98 5dbd
00000120: 942c 1e3d 7c4e 423d a298 c53d 9dad c0bb
00000130: d23e d53d 02b4 143d 3cd9 e53c e4b9 67bd
00000140: 7818 4c3d 8ecd 563d e8eb 423d 6ce0 483d
00000150: 6458 c63c 807c b3bc 0165 54bd dade 6cbc
00000160: ccab 633d 7a04 0ebd 16d7 d2bb f334 a63c
00000170: 5a95 a1bc e49f 38bd f09b 343c 2cc1 733d
00000180: 4b11 e63c 589a 0f3c 0a29 123d 7227 1abd
00000190: 4d6d 6c3d b6f3 5dbd 3a57 63bd 009c 07bc
000001a0: a899 253b 56d2 593d bd17 5dba 364f 5a3d
000001b0: 58bc 773d 14fa f0bc 0662 383d 42c6 403d
000001c0: 2034 40bd 3ab5 9f3a a7f7 c4bb e824 39bd
000001d0: 803e 143d 6f58 913d 3774 1e3c e27b 673d
000001e0: 8ce1 853d 6c4f 893c aab0 3ebd 1c77 73bd
000001f0: 6499 e53c 8059 59ba 0055 06bd 8827 05bd
00000200: d092 0e3e f0f9 2fbc e0db 79bc 7219 5e3c
00000210: 3a77 19bc 8ba1 5c3d 3086 a43c 5aa3 713d
00000220: cc92 573d c281 ecbb 9447 82bd 42f9 513d
00000230: 6256 d5bc 0b4f 0ebd 4363 573d 4cb6 8a3d
00000240: 13df 433d 3be9 e53d 68be c03d d89c 34bd
00000250: fedb 553d fead 53bd 67cf 383c 8084 433a
00000260: 2408 c1bb 10a2 f03c 4567 a43d d392 c63d
00000270: 28c6 4dbd 20fd 1d3d 1e76 b43d c001 d7bc
00000280: 7142 7f3d e850 59bc b91d 0a3d 4040 c33b
00000290: e2e7 cf3c d992 663c 3744 acbc f1c1 ae3c
000002a0: b76d 7dbd dfc0 2bbd e162 3bbc 8318 863d
000002b0: d8c2 46bd f6a5 41bd ef0b f13c d46a 1abd
000002c0: 7c49 78bd e86f ffbc 032e 8e3d 04bb 7ebd
000002d0: 60cc d93c 9431 293d f33f 913d 7c02 813c
000002e0: 291a 0c3c 8819 d03c 86a2 4c3c 5e64 ff3b
000002f0: 6563 e13c 8888 b33c a354 553d d81e 2d3d
00000300: 276b bf3c 9e5d 5dbd e02e cb3b 5d3a 2039
00000310: dd87 fcbb c0a0 86bc 4061 1539 805b 5c3c
00000320: b968 20bd 0680 1b3d dbc5 45bd a814 383c
00000330: ff37 6c3d 4a17 1d3d 6b91 ab3d be76 4abd
00000340: 3217 793d a70e bebc 4672 8ebc 9bee 923c
00000350: 800d fcba 02ac 583d bcea 27bd fa39 6e3c
00000360: c97a 5cbd 3b27 663c 155b a0bc 57ad 4abd
00000370: 1e8e 05bd fb94 9d3d cec9 7f3d c4f1 763d
00000380: dc73 c33d 60f4 c0bc a4ef 613d e857 143d
00000390: 16d8 9e3d 0419 7fbd add1 65bc 1728 783c
000003a0: d389 db3d 4dfd 393b 08d9 fcbc bce9 cebc
000003b0: 1221 8f3d 4ce0 8f3c 00a6 17bc 20fd 3dbd
000003c0: 2d06 693c a8cc 6ebd abfa 5fbc 6114 46bd
000003d0: 3496 163d 43e6 25bd ec0f 743d 82c4 f0bb
000003e0: 5a03 2d3d 6196 10bc 00c2 653d 66e0 27bd
000003f0: 00d0 06bd 0c4e 5dbd 0075 57ba 4cfa c8bc

qf1.fc0.bias f4 [256]
0.20129332 0.2003292 0.20325218 0.20130569 0.099206135 0.19911003 0.089613184 0.20032462
0.20030464 0.19874653 0.20089981 0.21119235 0.20138215 0.20298913 0.19970144 0.21241301
0.20072533 0.20270431 0.20033544 0.2011151 0.1 0.2000675 0.20012473 0.20082761
0.20552889 0.19514018 0.20253639 0.1993612 0.20004113 0.19938855 0.19914374 0.20048015
0.20053741 0.20052254 0.095710985 0.19893606 0.2024394 0.21311072 0.20179069 0.19970608
0.2010961 0.20103264 0.203273 0.20157424 0.19881645 0.19923666 0.20227948 0.19762409
0.19680527 0.20146537 0.19881292 0.20003578 0.20438616 0.20054524 0.19648942 0.20213738
0.20508234 0.19723105 0.20080598 0.2003578 0.1 0.1988692 0.20625131 0.20109415
0.19795553 0.19968532 0.20639858 0.20143002 0.19942228 0.19992846 0.1 0.09682546
0.19994366 0.1994851 0.20185831 0.20040184 0.08775327 0.19842038 0.20214896 0.19960353
0.20020187 0.16896524 0.20085885 0.19984537 0.20483671 0.20228815 0.19793598 0.20350893
0.21263386 0.1 0.20105152 0.20087926 0.2010385 0.19654861 0.19999675 0.2016859
0.096841924 0.20455314 0.20348457 0.2006642 0.20021644 0.20081958 0.20185612 0.20019278
0.19851363 0.2035941 0.19903809 0.20112872 0.19691865 0.20051159 0.096823685 0.20407218
0.19753285 0.20548026 0.20044942 0.1 0.19995728 0.2016809 0.2044394 0.20198558
0.19978632 0.19802064 0.19877878 0.20072637 0.19816957 0.1 0.2027355 0.21353768
0.09682464 0.20081349 0.20258088 0.20148653 0.19986473 0.19869962 0.20257086 0.20174873
0.20572473 0.2064885 0.09522282 0.20142773 0.19657491 0.20417562 0.20626876 0.20481972
0.20396301 0.20462675 0.20064268 0.20004496 0.20241109 0.20001413 0.2053994 0.19931854
0.19892402 0.19886957 0.20384239 0.1 0.19676882 0.20050819 0.19984666 0.20046367
0.20091075 0.2011348 0.20044944 0.19988105 0.19706348 0.19877851 0.19850023 0.20074299
0.20206706 0.20856397 0.19511293 0.20181632 0.2033231 0.20058295 0.19767979 0.19739011
0.20051686 0.20155321 0.20608129 0.21093735 0.19910672 0.20061824 0.2018911 0.19995958
0.1998271 0.20323479 0.20112483 0.19986585 0.20180899 0.2005991 0.20458123 0.19944791
0.20141572 0.20736109 0.1994215 0.19949254 0.20424928 0.1967275 0.2020242 0.19937839
0.19830036 0.20193024 0.20438325 0.2019502 0.20076528 0.20407975 0.20318362 0.20145223
0.20012085 0.20028621 0.20217429 0.20454042 0.15948656 0.20267335 0.19857785 0.19752204
0.20590623 0.20157787 0.20311446 0.20012541 0.19881319 0.20051816 0.20214282 0.20166345
0.20228091 0.20110312 0.19932161 0.20139387 0.20909545 0.20071816 0.19999437 0.19905882
0.20191786 0.31627092 0.19955623 0.20006266 0.20092472 0.2006941 0.20343582 0.20395544
0.20098576 0.20363775 0.20196034 0.20195171 0.20018682 0.20142035 0.19808844 0.20076218
0.20033672 0.199876 0.1 0.1 0.20046711 0.20216306 0.20078865 0.19845593
00000000: d61f 4e3e 1923 4d3e 5721 503e 1423 4e3e
00000010: 962c cb3d 80e3 4b3e 1e87 b73d e621 4d3e
00000020: a91c 4d3e 3684 4b3e aeb8 4d3e cf42 583e
00000030: 1f37 4e3e 62dc 4f3e 897e 4c3e cc82 593e
00000040: f18a 4d3e b891 4f3e bc24 4d3e 1ef1 4d3e
00000050: cdcc cc3d 7fde 4c3e 7fed 4c3e c1a5 4d3e
00000060: 2a76 523e d4d2 473e b365 4f3e 5825 4c3e
00000070: 95d7 4c3e 832c 4c3e 56ec 4b3e ab4a 4d3e
00000080: ae59 4d3e c855 4d3e 1f04 c43d e5b5 4b3e
00000090: 464c 4f3e b239 5a3e 38a2 4e3e c07f 4c3e
000000a0: 23ec 4d3e 80db 4d3e cc26 503e 7a69 4e3e
000000b0: 8a96 4b3e b204 4c3e 5a22 4f3e f85d 4a3e
000000c0: 5287 493e f04c 4e3e 9d95 4b3e 2ed6 4c3e
000000d0: 9b4a 513e bb5b 4d3e 8634 493e 1afd 4e3e
000000e0: 1b01 523e f0f6 493e 15a0 4d3e 982a 4d3e
000000f0: cdcc cc3d 5ea4 4b3e 8b33 533e a0eb 4d3e
00000100: dbb4 4a3e 4f7a 4c3e 265a 533e ac43 4e3e
00000110: 5b35 4c3e 0cba 4c3e cdcc cc3d 6d4c c63d
00000120: 08be 4c3e d245 4c3e f2b3 4e3e 2436 4d3e
00000130: fdb7 b33d b62e 4b3e 2300 4f3e de64 4c3e
00000140: b801 4d3e 3905 2d3e f1ad 4d3e 44a4 4c3e
00000150: b7c0 513e a024 4f3e bbaf 4a3e a564 503e
00000160: b1bc 593e cdcc cc3d 73e0 4d3e 4bb3 4d3e
00000170: 09dd 4d3e 0a44 493e f3cb 4c3e c086 4e3e
00000180: 0f55 c63d 6176 513e 425e 503e eb7a 4d3e
00000190: 8a05 4d3e a6a3 4d3e 5fb3 4e3e 56ff 4c3e
000001a0: 2847 4b3e f97a 503e a4d0 4b3e b0f4 4d3e
000001b0: 0ba5 493e e952 4d3e 7f4b c63d 4cf8 503e
000001c0: 0d46 4a3e 6b69 523e 9d42 4d3e cdcc cc3d
000001d0: 9ac1 4c3e 7085 4e3e 9058 513e 4fd5 4e3e
000001e0: c994 4c3e ecc5 4a3e aa8c 4b3e 378b 4d3e
000001f0: f7ec 4a3e cdcc cc3d e599 4f3e 9fa9 5a3e
00000200: ff4b c63d 0da2 4d3e 5d71 4f3e 7c52 4e3e
00000210: 57a9 4c3e ea77 4b3e bc6e 4f3e 3897 4e3e
00000220: 81a9 523e b971 533e 2f04 c33d 1243 4e3e
00000230: ef4a 493e 6a13 513e 1e38 533e 43bc 513e
00000240: aedb 503e ad89 513e 4675 4d3e 96d8 4c3e
00000250: da44 4f3e 81d0 4c3e 3854 523e 291a 4c3e
00000260: bdb2 4b3e 77a4 4b3e 0fbc 503e cdcc cc3d
00000270: c47d 493e 0552 4d3e 9aa4 4c3e 5946 4d3e
00000280: 8cbb 4d3e 48f6 4d3e 9e42 4d3e 9ead 4c3e
00000290: 02cb 493e 988c 4b3e a543 4b3e 928f 4d3e
000002a0: abea 4e3e cb91 553e afcb 473e f0a8 4e3e
000002b0: ee33 503e 9e65 4d3e 926c 4a3e a220 4a3e
000002c0: 4b54 4d3e f763 4e3e f906 533e f6ff 573e
000002d0: a2e2 4b3e de6e 4d3e 8abc 4e3e 34c2 4c3e
000002e0: 7a9f 4c3e c81c 503e abf3 4d3e a2a9 4c3e
000002f0: 04a7 4e3e da69 4d3e be7d 513e 133c 4c3e
00000300: ec3f 4e3e 7756 543e 2635 4c3e c647 4c3e
00000310: b926 513e ef72 493e 6fdf 4e3e d929 4c3e
00000320: 400f 4b3e cdc6 4e3e d849 513e 09cc 4e3e
00000330: 6a95 4d3e 48fa 503e 5e0f 503e 7e49 4e3e
00000340: 7bec 4c3e d417 4d3e c706 4f3e 0b73 513e
00000350: 7250 233e 9a89 4f3e fe57 4b3e 3843 4a3e
00000360: 15d9 523e 6e6a 4e3e 3dfd 4f3e aded 4c3e
00000370: af95 4b3e a254 4d3e 87fe 4e3e dd80 4e3e
00000380: ba22 4f3e faed 4d3e f71a 4c3e 323a 4e3e
00000390: 1e1d 563e 1089 4d3e 53cb 4c3e 13d6 4b3e
000003a0: 8ec3 4e3e 43ee a13e 7858 4c3e 3add 4c3e
000003b0: 36bf 4d3e c182 4d3e 7b51 503e b2d9 503e
000003c0: 36cf 4d3e 6a86 503e b1ce 4e3e 6ecc 4e3e
000003d0: c6fd 4c3e 2341 4e3e b2d7 4a3e 9a94 4d3e
000003e0: 1225 4d3e 4bac 4c3e cdcc cc3d cdcc cc3d
000003f0: 4047 4d3e d503 4f3e 8a9b 4d3e 0838 4b3e

qf1.fc1.weight f4 [256, 256]
0.026829213 0.0018772089 0.013958235 0.056020595 -0.0007138118 0.08166463 -0.20200127 -0.004074209
0.029108562 -0.021114971 0.0791062 0.11398366 0.10870193 -0.016815636 -0.020693252 0.1274967
-0.022178534 0.100625776 0.014684043 0.051073108 -0.03565929 0.066417456 0.08990035 0.054437783
0.061983775 0.038451713 0.012115386 0.102124624 0.05835113 -0.010514366 -0.012576379 0.022462025
0.011406606 -0.017254908 0.06671921 0.013305014 0.09246733 0.08726473 0.018257419 -0.014896818
-0.011986552 0.102060385 0.08743486 0.100539014 0.09994944 0.054862987 -0.00439432 0.028569529
0.08561527 0.056486268 0.090822674 0.058894783 0.05189011 0.046675026 0.0969596 -0.00023751627
0.058178518 -0.0042098965 0.085421965 0.051491525 -0.03872455 0.0890629 0.08108086 -0.0077866213
0.08019183 0.013766614 0.08126872 0.094111644 0.05904359 0.014035731 -0.05662681 0.039833453
-0.0009589245 0.0747606 0.10100342 0.05829182 -0.024099778 0.006057536 0.08157792 0.070349246
0.011715231 0.19920942 -0.0014147023 0.058844913 0.09049666 0.055104863 0.031028451 0.030548101
-0.0016584089 -0.030357018 0.045196284 0.07837773 0.05097098 0.06008557 -0.00846882 0.01544656
-0.05223244 0.08187061 0.05014076 0.020831134 0.032946084 0.013386371 0.09117142 0.050145663
0.1004238 0.049790163 0.0039251246 -0.0025913855 0.0034370448 0.068136 0.020903992 0.0100435
-0.0055632084 0.049208254 0.10380836 0.01636105 0.034113158 0.087619394 0.05795966 0.034492064
0.09090402 0.022036282 -0.012147439 0.040579036 0.052626614 0.05089321 0.07796255 0.06387162
0.013570121 0.049533434 0.09076801 0.026769182 0.029340856 0.052648343 -0.001911257 0.012931764
0.03314547 0.04005505 -0.05181398 0.027204124 0.073068365 0.100673355 0.08335647 0.034141224
0.010781806 0.086090975 0.004361282 0.011012472 0.09069618 0.0839327 0.00821991 0.049381033
0.09971968 0.029208923 0.032798354 -0.053613514 0.071527794 0.028838918 0.0861179 0.013216185
0.003391609 0.010650419 0.047163352 0.017058652 0.09410768 0.02169626 0.03656846 -0.02451538
0.051674593 0.029482359 0.078217514 0.009673793 0.049586035 0.08503331 0.052565362 0.085443184
-0.008118418 0.085738376 0.09752567 0.0733396 0.044306975 0.07282195 0.08253681 0.06732178
-0.014756171 -0.0065018767 0.048761543 0.027202956 -0.012246394 0.035474226 0.07148871 -0.01573417
0.096663 0.059478585 0.04513248 0.05848246 0.024107397 0.0028244911 0.028347822 0.07302911
0.078769244 0.0863728 0.068244375 0.015604994 0.073258296 0.07713281 0.03860549 0.07630243
-0.016560627 0.04535564 0.08789058 0.08324313 0.15284318 0.07442181 -0.017868312 0.030575495
0.025799897 0.09383168 0.015548534 0.06847299 0.06820334 0.048316237 0.09479637 -0.012858999
0.10420541 0.06802677 0.05620898 0.09038946 0.056526892 0.07828131 0.07634389 0.0069167446
0.019754326 1.392353 0.09693879 0.052520808 0.046694327 0.027752489 0.023473866 0.07823778
0.035426095 0.02365512 0.0236493 0.10294148 0.088435754 0.067360885 0.092671506 -0.013504816
0.05616818 0.066488266 -0.030426286 0.041689403 0.089677304 0.056095436 0.052557286 -0.016044855
00000000: f0c8 db3c ae0c f63a 15b1 643c da75 653d
00000010: 191f 3bba c93f a73d 6cd9 4ebe f180 85bb
00000020: 1475 ee3c 4ef9 acbc 6e02 a23d 4470 e93d
00000030: 1e9f de3d f2c0 89bc e584 a9bc 7f8e 023e
00000040: c2af b5bc e314 ce3d 5795 703c 0932 513d
00000050: 7a0f 12bd e005 883d ad1d b83d 27fa 5e3d
00000060: b3e2 7d3d 8b7f 1d3d 9d7f 463c b726 d13d
00000070: 9801 6f3d 7344 2cbc 280d 4ebc 4802 b83c
00000080: c6e2 3a3c 2a5a 8dbc 15a4 883d 46fd 593c
00000090: 835f bd3d dab7 b23d 9590 953c c911 74bc
000000a0: 3e63 44bc 0905 d13d 0c11 b33d 66e7 cd3d
000000b0: 4bb2 cc3d 03b8 603d 3afe 8fbb a50a ea3c
000000c0: 0f57 af3d 255e 673d 3d01 ba3d a83b 713d
000000d0: b98a 543d 502e 3f3d c192 c63d ca0d 79b9
000000e0: 994c 6e3d 2cf3 89bb b6f1 ae3d c7e8 523d
000000f0: a29d 1ebd 9c66 b63d b90d a63d ea26 ffbb
00000100: 9d3b a43d 5d8d 613c 3770 a63d 9bbd c03d
00000110: b1d7 713d 1ff6 653c 84f1 67bd 6728 233d
00000120: 5560 7bba 161c 993d e2da ce3d 67c3 6e3d
00000130: e66c c5bc 4c7e c63b 5312 a73d 4413 903d
00000140: 3ef1 3f3c 8efd 4b3e 886d b9ba 5d07 713d
00000150: 5056 b93d a3b5 613d 612f fe3c 0340 fa3c
00000160: f85e d9ba 48af f8bc bd1f 393d 8184 a03d
00000170: f2c6 503d 491c 763d cec0 0abc 9213 7d3c
00000180: aff1 55bd c7ab a73d 6660 4d3d 0ea6 aa3c
00000190: 79f2 063d 8252 5b3c 15b8 ba3d 8a65 4d3d
000001a0: feaa cd3d c5f0 4b3d 559e 803b 3cd4 29bb
000001b0: 0b40 613b e38a 8b3d d93e ab3c 7e8d 243c
000001c0: 934b b6bb 988e 493d 7a99 d43d 9c07 863c
000001d0: 3dba 0b3d cc71 b33d 1c67 6d3d 8d47 0d3d
000001e0: e32b ba3d 6f85 b43c 0d06 47bc 3436 263d
000001f0: 018f 573d 6675 503d d4aa 9f3d 20cf 823d
00000200: 3655 5e3c 92e3 4a3d 94e4 b93d 0b4b db3c
00000210: 3c5c f03c caa5 573d 2583 faba c0df 533c
00000220: 8bc3 073d c410 243d e53a 54bd 2fdb de3c
00000230: dea4 953d d52d ce3d ccb6 aa3d abd7 0b3d
00000240: 2ca6 303c 7750 b03d 16e9 8e3b a86d 343c
00000250: ebbe b93d e8e4 ab3d cdac 063c c443 4a3d
00000260: d539 cc3d 8d47 ef3c 9157 063d d899 5bbd
00000270: 2a7d 923d 983f ec3c 955e b03d b388 583c
00000280: c245 5e3b 187f 2e3c 5c2e 413d 96be 8b3c
00000290: 87bb c03d 5bbc b13c cfc8 153d 7ad4 c8bc
000002a0: bda8 533d fd84 f13c 8130 a03d d47e 1e3c
000002b0: ba1a 4b3d f225 ae3d c74e 573d d6fc ae3d
000002c0: 1d03 05bc 9a97 af3d 8abb c73d 1233 963d
000002d0: 3b7b 353d ad23 953d 0f09 a93d 00e0 893d
000002e0: dec3 71bc b20d d5bb 2fba 473d bcd8 de3c
000002f0: 19a5 48bc 6c4d 113d ac68 923d f2e4 80bc
00000300: 40f7 c53d d19f 733d d6dc 383d 4e8b 6f3d
00000310: e07c c53c 191b 393b b139 e83c 4990 953d
00000320: c551 a13d 39e4 b03d b5c3 8b3d 17ac 7f3c
00000330: 7208 963d cff7 9d3d ca20 1e3d 7344 9c3d
00000340: 27aa 87bc d6c6 393d faff b33d 607b aa3d
00000350: ec82 1c3e 766a 983d 9160 92bc 7679 fa3c
00000360: 4e5a d33c d32a c03d 47bf 7e3c 913b 8c3d
00000370: 31ae 8b3d 3fe7 453d 9924 c23d 8dae 52bc
00000380: a569 d53d 9f51 8b3d 633b 663d 1c1e b93d
00000390: be88 673d f451 a03d 2f5a 9c3d dca5 e23b
000003a0: d3d3 a13c a038 b23f d887 c63d 0f20 573d
000003b0: 8d42 3f3d 3059 e33c 444c c03c 213b a03d
000003c0: f41a 113d 62c8 c13c 2dbc c13c fcd2 d23d
000003d0: ce1d b53d 81f4 893d 8fca bd3d 4e43 5dbc
000003e0: 9b10 663d 002b 883d 8c40 f9bc 82c2 2a3d
000003f0: bca8 b73d 54c4 653d 4f46 573d 8070 83bc

qf1.fc1.bias f4 [256]
0.19474588 0.19372065 0.19483913 0.19556247 0.19429101 0.19615059 0.1 0.19455373
0.1966464 0.19862564 0.19348319 0.19891688 0.19528991 0.19501358 0.19401556 0.19402719
0.19534366 0.19467466 0.1987964 0.19470862 0.19496651 0.19540294 0.19433536 0.19413756
0.19475219 0.19348373 0.19401254 0.1950711 0.09910259 0.1 0.19346716 0.19655128
0.19953209 0.19482239 0.19572192 0.19388157 0.19447163 0.19480354 0.1961262 0.19495194
0.19500428 0.19461668 0.19505154 0.19435024 0.1964982 0.19654593 0.19581114 0.19471112
0.19330317 0.19422776 0.20073257 0.19646178 0.19595204 0.19443342 0.19427925 0.1
0.19422111 0.09831046 0.1952864 0.19605286 0.19352396 0.19583873 0.1 0.20205827
0.19801836 0.20016412 0.19471301 0.19593948 0.19898544 0.19507256 0.19773607 0.19509843
0.098763 0.19420348 0.09958853 0.1951278 0.19515531 0.20209894 0.09951055 0.19463456
0.19861075 0.19428495 0.2061365 0.1 0.19626287 0.19487041 0.19502132 0.1
0.1946256 0.19548601 0.19332029 0.19473268 0.19398938 0.19477832 0.19378608 0.19626442
0.19845952 0.19429341 0.0993424 0.1 0.19440486 0.19523615 0.19275926 0.19359733
0.19478732 0.1932119 0.19372618 0.19443047 0.19652301 0.19903441 0.19455844 0.19756524
0.19313698 0.19767684 0.19574966 0.19459106 0.19598642 0.19354445 0.19327913 0.2060854
0.19584544 0.19371837 0.19618127 0.19448718 0.19434455 0.19513048 0.19794966 0.19896437
0.19500859 0.19404794 0.19463791 0.1 0.19607963 0.19501469 0.19377783 0.20676385
0.1931392 0.19555493 0.19721314 0.19650905 0.09954705 0.1935807 0.09921518 0.19805457
0.19425939 0.19599162 0.19444233 0.1949758 0.19530576 0.19446942 0.2052011 0.09974226
0.19481428 0.19619933 0.19450544 0.19549082 0.19518219 0.19359995 0.19414161 0.19465515
0.1958122 0.19474621 0.20148125 0.19664277 0.19528866 0.19562915 0.19577548 0.09946537
0.19447967 0.19526075 0.19599852 0.19586162 0.1 0.19441302 0.19465537 0.20136379
0.20104896 0.1943226 0.09938242 0.19498956 0.09876202 0.19386826 0.19415306 0.09888638
0.19448419 0.19468272 0.19561093 0.19454536 0.19729574 0.19527324 0.19528118 0.19504954
0.19627866 0.1954757 0.19756268 0.19373737 0.19629785 0.19514208 0.19645609 0.1938286
0.19548862 0.19545677 0.19350095 0.19457272 0.19461992 0.19570798 0.19444221 0.09908072
0.19384877 0.19353443 0.098859385 0.1 0.19466993 0.19502778 0.19373538 0.19535886
0.1944532 0.19531538 0.19585046 0.19384247 0.09878942 0.19535072 0.19499756 0.19526844
0.19602968 0.1 0.19788879 0.19360851 0.19647838 0.19636333 0.19585058 0.20190069
0.19686936 0.19496533 0.19470185 0.19486894 0.19460502 0.19578388 0.20443954 0.19289152
0.19474538 0.19497249 0.19433968 0.19497338 0.19515885 0.19477938 0.19431782 0.1936703
0.19521523 0.20141296 0.19539262 0.19559374 0.19485387 0.19483486 0.19569096 0.19367743
00000000: 776b 473e b55e 463e e983 473e 8741 483e
00000010: 39f4 463e b3db 483e cdcc cc3d 1839 473e
00000020: ad5d 493e 8564 4b3e 7520 463e deb0 4b3e
00000030: 14fa 473e a4b1 473e 04ac 463e 10af 463e
00000040: 2b08 483e cb58 473e 4991 4b3e b261 473e
00000050: 4da5 473e b517 483e d9ff 463e ffcb 463e
00000060: 1e6d 473e 9920 463e 39ab 463e b8c0 473e
00000070: 4cf6 ca3d cdcc cc3d 411c 463e bd44 493e
00000080: 2452 4c3e 857f 473e 546b 483e e488 463e
00000090: 9223 473e 947a 473e 4ed5 483e 7ba1 473e
000000a0: 34af 473e 9849 473e 97bb 473e c003 473e
000000b0: d336 493e 5643 493e b782 483e 5a62 473e
000000c0: 44f1 453e a4e3 463e d78c 4d3e 472d 493e
000000d0: a7a7 483e 8e19 473e 24f1 463e cdcc cc3d
000000e0: e6e1 463e ff56 c93d 28f9 473e 15c2 483e
000000f0: 252b 463e f389 483e cdcc cc3d 5de8 4e3e
00000100: 53c5 4a3e d3f7 4c3e d962 473e 5ca4 483e
00000110: d7c2 4b3e 1ac1 473e 537b 4a3e e2c7 473e
00000120: 4144 ca3d 47dd 463e 12f5 cb3d 95cf 473e
00000130: cbd6 473e 06f3 4e3e 30cc cb3d 484e 473e
00000140: 9e60 4b3e a2f2 463e 7215 533e cdcc cc3d
00000150: 22f9 483e 1c8c 473e abb3 473e cdcc cc3d
00000160: ef4b 473e 7c2d 483e c1f5 453e 0168 473e
00000170: 27a5 463e f873 473e dc6f 463e 8af9 483e
00000180: f938 4b3e daf4 463e 0774 cb3d cdcc cc3d
00000190: 1112 473e fceb 473e af62 453e 613e 463e
000001a0: 5476 473e 57d9 453e 2860 463e c818 473e
000001b0: 543d 493e adcf 4b3e 543a 473e 8b4e 4a3e
000001c0: b3c5 453e cc6b 4a3e 9972 483e e142 473e
000001d0: aab0 483e 8430 463e f7ea 453e 0d08 533e
000001e0: b58b 483e 1c5e 463e bee3 483e a627 473e
000001f0: 4202 473e 49d0 473e 51b3 4a3e 51bd 4b3e
00000200: 55b0 473e 81b4 463e 294f 473e cdcc cc3d
00000210: 19c9 483e eeb1 473e b26d 463e e7b9 533e
00000220: 48c6 453e 8d3f 483e 3ef2 493e ab39 493e
00000230: 53df cb3d 053a 463e 5431 cb3d d1ce 4a3e
00000240: efeb 463e 07b2 483e e41b 473e bca7 473e
00000250: 3cfe 473e fe22 473e 3d20 523e ac45 cc3d
00000260: 657d 473e 7ae8 483e 6f2c 473e bf2e 483e
00000270: d7dd 473e 113f 463e 0fcd 463e ae53 473e
00000280: fe82 483e 8d6b 473e 1a51 4e3e b95c 493e
00000290: c0f9 473e 0253 483e 5e79 483e 80b4 cb3d
000002a0: ae25 473e 6ff2 473e d6b3 483e f38f 483e
000002b0: cdcc cc3d 3514 473e bd53 473e 4f32 4e3e
000002c0: c7df 4d3e 81fc 463e 0389 cb3d 58ab 473e
000002d0: be43 ca3d 6785 463e 0fd0 463e f184 ca3d
000002e0: dd26 473e e85a 473e 3b4e 483e e636 473e
000002f0: e507 4a3e b5f5 473e caf7 473e 11bb 473e
00000300: 46fd 483e c82a 483e df4d 4a3e 1763 463e
00000310: 4e02 493e 53d3 473e c92b 493e 017b 463e
00000320: 2b2e 483e d225 483e 1d25 463e 123e 473e
00000330: 724a 473e ac67 483e dc1b 473e d5ea ca3d
00000340: 4b80 463e e42d 463e ca76 ca3d cdcc cc3d
00000350: 8e57 473e 5db5 473e 9162 463e 270c 483e
00000360: bd1e 473e c100 483e 068d 483e a47e 463e
00000370: 1c52 ca3d 050a 483e 71ad 473e 73f4 473e
00000380: 01bc 483e cdcc cc3d 5ca3 4a3e 4f41 463e
00000390: a131 493e 7813 493e 0e8d 483e 0ebf 4e3e
000003a0: 1f98 493e fea4 473e ec5f 473e b98b 473e
000003b0: 8a46 473e 927b 483e 9958 513e 5b85 453e
000003c0: 556b 473e dea6 473e fb00 473e 1aa7 473e
000003d0: b9d7 473e 3f74 473e 40fb 463e 8251 463e
000003e0: 80e6 473e 333f 4e3e 0115 483e ba49 483e
000003f0: c687 473e ca82 473e 3663 483e 6053 463e

qf1.last_fc.weight f4 [53, 256]
-0.034012105 -0.03398008 -0.036439314 -0.03518639 -0.03577379 -0.040091112 -0.0013167508 -0.036246188
-0.0351713 -0.037757304 -0.03331511 -0.036142178 -0.03451564 -0.03574387 -0.033232156 -0.03559245
-0.037080437 -0.037265405 -0.03603176 -0.03649283 -0.032683194 -0.03542415 -0.034183137 -0.035560537
-0.033171482 -0.033850737 -0.03165461 -0.033887293 -0.0023285896 -0.0014810697 -0.031737268 -0.035171892
-0.037896022 -0.03864567 -0.03491404 -0.03586639 -0.034318365 -0.037933007 -0.039710212 -0.032598663
-0.037692633 -0.036745384 -0.035024114 -0.0342816 -0.03973679 -0.034533285 -0.036693204 -0.034569897
-0.030170098 -0.032119922 -0.03802946 -0.036283176 -0.034763608 -0.03225972 -0.033754103 0.0011265897
-0.037864316 0.00081707514 -0.03577896 -0.035896834 -0.03143587 -0.039636564 -0.000715446 -0.03935735
-0.03809454 -0.038902555 -0.03808475 -0.036869187 -0.038048398 -0.037036616 -0.03975462 -0.03858026
-0.002001642 -0.036313847 -0.000166435 -0.03535439 -0.03734709 -0.034226794 -0.002198402 -0.036491636
-0.0359479 -0.034473937 -0.040694054 -0.0027046062 -0.039378367 -0.035595734 -0.03704307 0.0026391693
-0.033980533 -0.03521869 -0.03383229 -0.037639968 -0.03714689 -0.036318026 -0.03408147 -0.038584776
-0.03615077 -0.03677755 0.00049134315 3.5243513e-05 -0.031530365 -0.03499205 -0.035142433 -0.034658544
-0.038842604 -0.03489534 -0.03329135 -0.032163564 -0.037135255 -0.035064574 -0.03441255 -0.03891834
-0.035817586 -0.038067907 -0.037886087 -0.03766432 -0.039164964 -0.03660647 -0.037303988 -0.0412604
-0.040230934 -0.032448355 -0.039591037 -0.0340858 -0.0333708 -0.03583524 -0.03690319 -0.036902003
-0.03835973 -0.036033656 -0.03428921 -0.0006260973 -0.03539423 -0.03903426 -0.03738647 -0.03923258
-0.033038996 -0.03587587 -0.038861055 -0.034168035 -0.0016398696 -0.034623507 -0.002800629 -0.041258026
-0.034084536 -0.03710783 -0.036596313 -0.037896227 -0.033840757 -0.037695806 -0.041307457 -0.0018659721
-0.03740341 -0.03862454 -0.03751514 -0.034475066 -0.033941526 -0.03170679 -0.036561057 -0.03849047
-0.034991004 -0.03471339 -0.037211835 -0.037462093 -0.036476966 -0.03667377 -0.039177027 -0.002184609
-0.03332874 -0.034941196 -0.03457472 -0.036143504 0.0013747115 -0.03555885 -0.03539465 -0.038414314
-0.039584685 -0.03199789 -0.002009873 -0.037190735 -9.3118804e-05 -0.03636386 -0.036625296 0.00062032876
-0.036858115 -0.033390548 -0.03658503 -0.037128758 -0.03628526 -0.034627415 -0.034365766 -0.03687986
-0.03747563 -0.037070367 -0.040372662 -0.03540517 -0.0348318 -0.034957554 -0.038591914 -0.03666181
-0.03704632 -0.036206707 -0.032016985 -0.03610102 -0.032706484 -0.034199975 -0.037837446 0.00190152
-0.034796894 -0.035032105 0.001393193 0.0023970406 -0.03612634 -0.036416676 -0.03341088 -0.036074907
-0.032817036 -0.036819484 -0.039366677 -0.035455953 -0.0024749811 -0.033764243 -0.037246022 -0.03412371
-0.037637893 0.0029891264 -0.036049746 -0.03431899 -0.034384124 -0.037498843 -0.038947567 -0.039268076
-0.035276845 -0.034297857 -0.032979757 -0.033641208 -0.035372894 -0.03849438 -0.038977567 -0.03311496
-0.033046808 -0.038097296 -0.035281572 -0.038614403 -0.034963697 -0.03500697 -0.036552988 -0.03447966
-0.038753293 -0.038302664 -0.034830008 -0.033077694 -0.036397114 -0.036894646 -0.03674416 -0.032649256
00000000: 4750 0bbd b22e 0bbd 6441 15bd 9b1f 10bd
00000010: 8a87 12bd 9436 24bd d396 acba e276 14bd
00000020: c80f 10bd 67a7 1abd 6d75 08bd d209 14bd
00000030: 4660 0dbd 2a68 12bd 711e 08bd 64c9 11bd
00000040: a8e1 17bd 9ca3 18bd 0a96 13bd 8179 15bd
00000050: d0de 05bd ea18 11bd 9e03 0cbd eda7 11bd
00000060: d2de 07bd 12a7 0abd 44a8 01bd 67cd 0abd
00000070: 409b 18bb 7420 c2ba f0fe 01bd 6710 10bd
00000080: dc38 1bbd ec4a 1ebd 0602 0fbd a3e8 12bd
00000090: 6a91 0cbd a45f 1bbd 2da7 22bd 2d86 05bd
000000a0: 9763 1abd 5482 16bd 7275 0fbd dd6a 0cbd
000000b0: 0bc3 22bd c672 0dbd 9d4b 16bd 2a99 0dbd
000000c0: 4827 f7bc 2e90 03bd c7c4 1bbd ab9d 14bd
000000d0: 4964 0ebd c522 04bd be41 0abd 14aa 933a
000000e0: 9d17 1bbd fc30 563a f58c 12bd 8f08 13bd
000000f0: e6c2 00bd f359 22bd c58c 3bba 2c35 21bd
00000100: 0509 1cbd 4958 1fbd c1fe 1bbd 2504 17bd
00000110: a3d8 1bbd b5b3 17bd bed5 22bd 5606 1ebd
00000120: fb2d 03bb d4bd 14bd 0e85 2eb9 c4cf 10bd
00000130: 43f9 18bd 6531 0cbd 1113 10bb 4178 15bd
00000140: 1b3e 13bd 8b34 0dbd cfae 26bd c33f 31bb
00000150: 364b 21bd d5cc 11bd 79ba 17bd eaf5 2c3b
00000160: 2c2f 0bbd 7941 10bd ba93 0abd 5e2c 1abd
00000170: 5627 18bd 36c2 14bd 0399 0bbd 120b 1ebd
00000180: d412 14bd 0ea4 16bd 7bcd 003a 6fd2 1338
00000190: fc25 01bd d353 0fbd 83f1 0fbd 1ef6 0dbd
000001a0: 6c19 1fbd 6bee 0ebd 835c 08bd f1bd 03bd
000001b0: 231b 18bd df9f 0fbd 2df4 0cbd d668 1fbd
000001c0: 76b5 12bd 18ed 1bbd 712e 1bbd e745 1abd
000001d0: 716b 20bd aaf0 15bd 11cc 18bd aa00 29bd
000001e0: 31c9 24bd 91e8 04bd 362a 22bd 8d9d 0bbd
000001f0: d2af 08bd f9c7 12bd cd27 17bd 8e26 17bd
00000200: 181f 1dbd 0798 13bd d872 0cbd ae20 24ba
00000210: 8af9 10bd 63e2 1fbd 8e22 19bd 58b2 20bd
00000220: e653 07bd 94f2 12bd c52c 1fbd c8f3 0bbd
00000230: e5f0 d6ba 61d1 0dbd c28a 37bb 2dfe 28bd
00000240: 3a9c 0bbd 61fe 17bd 04e6 15bd 1339 1bbd
00000250: 9b9c 0abd eb66 1abd 0232 29bd a293 f4ba
00000260: 5134 19bd c434 1ebd 7aa9 19bd ba35 0dbd
00000270: 4506 0bbd fbde 01bd 0cc1 15bd 2fa8 1dbd
00000280: ba52 0fbd a12f 0ebd 706b 18bd da71 19bd
00000290: df68 15bd 3c37 16bd 1778 20bd a82b 0fbb
000002a0: b883 08bd 801e 0fbd 399e 0dbd 360b 14bd
000002b0: aa2f b43a 28a6 11bd fbf9 10bd 5458 1dbd
000002c0: 8d23 22bd 3810 03bd 13b8 03bb 5055 18bd
000002d0: c748 c3b8 45f2 14bd 6804 16bd 8f9d 223a
000002e0: 89f8 16bd 87c4 08bd 2fda 15bd 5314 18bd
000002f0: da9f 14bd 7ad5 0dbd 1ec3 0cbd 560f 17bd
00000300: 0c80 19bd 19d7 17bd ce5d 25bd 0305 11bd
00000310: caab 0ebd a72f 0fbd 8e12 1ebd b22a 16bd
00000320: e2bd 17bd 7c4d 14bd 3e24 03bd aade 13bd
00000330: 3cf7 05bd 4615 0cbd 70fb 1abd 6c3c f93a
00000340: 3087 0ebd d37d 0fbd cd9b b63a ab17 1d3b
00000350: 37f9 13bd a729 15bd d9d9 08bd 48c3 13bd
00000360: 286b 06bd 07d0 16bd f43e 21bd 433a 11bd
00000370: 4b33 22bb 604c 0abd 498f 18bd 4ec5 0bbd
00000380: 312a 1abd 38e5 433b e6a8 13bd 1292 0cbd
00000390: 5ed6 0cbd 6398 19bd 7c87 1fbd 90d7 20bd
000003a0: 747e 10bd e97b 0cbd c815 07bd 5dcb 09bd
000003b0: 2be3 10bd 48ac 1dbd f1a6 1fbd 8da3 07bd
000003c0: 175c 07bd e90b 1cbd 6983 10bd 232a 1ebd
000003d0: 1836 0fbd 7863 0fbd 96b8 15bd 8b3a 0dbd
000003e0: c6bb 1ebd 41e3 1cbd e9a9 0ebd 7a7c 07bd
000003f0: 2415 15bd d71e 17bd 0b81 16bd 3abb 05bd

qf1.last_fc.bias f4 [53]
-0.0438828 -0.066108055 -0.050962433 -0.053122748 -0.07793242 -0.045617666 -0.056017395 -0.054984722
-0.077484675 -0.03924389 -0.071256906 -0.054440014 -0.045784958 -0.0633139 -0.06495853 -0.088242345
-0.056914706 -0.04440688 -0.05845664 -0.06188878 -0.054342978 -0.083127014 -0.0683683 -0.13661574
-0.075744726 -0.037115164 -0.04055308 -0.06893886 -0.063757196 -0.06782791 -0.052461833 -0.04890943
-0.052121084 -0.08148496 -0.06426331 -0.04981363 -0.051381934 -0.060791623 -0.039028216 -0.06312345
-0.074285164 -0.11058104 -0.08416675 -0.07312944 -0.06515655 -0.04633513 -0.058164462 -0.07377281
-0.06899256 -0.05611671 -0.096583314 -0.11066765 -0.056434475
00000000: 73be 33bd a963 87bd fcbd 50bd 3d97 59bd
00000010: 089b 9fbd 97d9 3abd 7f72 65bd a937 61bd
00000020: 49b0 9ebd 34be 20bd 24ef 91bd 7efc 5ebd
00000030: 0289 3bbd b8aa 81bd fa08 85bd 67b8 b4bd
00000040: 651f 69bd fde3 35bd 3b70 6fbd 177f 7dbd
00000050: be96 5ebd 7f3e aabd ae04 8cbd ffe4 0bbe
00000060: 0d20 9bbd 1206 18bd fd1a 26bd d12f 8dbd
00000070: 2293 82bd 5ce9 8abd 38e2 56bd 4155 48bd
00000080: eb7c 55bd 96e1 a6bd 7b9c 83bd 6009 4cbd
00000090: dd75 52bd a300 79bd 0ddc 1fbd de46 81bd
000000a0: d222 98bd 5078 e2bd 9e5f acbd e3c4 95bd
000000b0: cc70 85bd e8c9 3dbd dc3d 6ebd 3316 97bd
000000c0: f94b 8dbd a3da 65bd 79cd c5bd b9a5 e2bd
000000d0: d627 67bd

qf1_target.fc0.weight f4 [256, 78]
-0.026254736 0.035720803 0.08303456 0.031066 -0.0003633924 0.01635231 -0.021169147 -0.05220872
-0.059663363 0.038424127 -0.020818109 -0.049387164 0.0066705267 -0.0068864985 0.037764523 -0.025628714
-0.05744869 -0.02369412 0.028905598 0.04867652 -0.042872585 -0.04950528 0.0446278 -0.042332612
0.016494319 -0.023827232 0.007079048 0.0005864203 -0.059345536 -0.012463326 0.02372052 0.024039734
-0.020217385 -0.057403788 -0.025700318 0.03481902 -0.010897242 0.04045976 -0.043694373 -0.03313635
0.015942277 -0.03243976 0.005070617 -0.0013376774 -0.02062591 -0.022133954 0.013519902 0.003050372
0.04416896 0.056313008 0.047162026 0.009537838 -0.0060415044 0.0063038464 -0.048229195 -0.027153173
-0.014276363 0.037415832 0.02131343 -0.02508384 0.041509937 -0.019639848 0.015304324 -0.008045657
-0.007599637 0.04590057 0.08676945 0.0339687 0.099108465 -0.031286463 -0.034693718 -0.054100968
0.038665045 0.04743813 0.09656788 -0.0058225645 0.104181305 0.036352012 0.028057704 -0.056573763
0.050235096 0.052442126 0.047410708 0.04904219 0.024242615 -0.021909952 -0.051607016 -0.015040442
0.055579014 -0.034658365 -0.0062293564 0.019735182 -0.019623268 -0.044989225 0.0110235065 0.059510395
0.027797649 0.008764826 0.03568367 -0.037635274 0.057676937 -0.0541875 -0.055503108 -0.008276939
0.0026289627 0.05317913 -0.0008535509 0.053189304 0.060818456 -0.029379057 0.044904012 0.047064073
-0.046587784 0.0017161005 -0.0060425377 -0.045728456 0.036410984 0.071065255 0.010144275 0.05651463
0.065602124 0.016761504 -0.0462033 -0.059439763 0.028567944 -0.00082912296 -0.032962654 -0.032508403
0.14000106 -0.010740742 -0.015250189 0.01367014 -0.009289849 0.053940177 0.020083526 0.058993675
0.05263023 -0.0071684704 -0.063590765 0.05129382 -0.025927898 -0.034652017 0.05259444 0.067769326
0.047859076 0.11230856 0.09416945 -0.04409489 0.052211754 -0.051679604 0.011329324 0.00074584037
-0.005804234 0.029432412 0.08033359 0.09700816 -0.050237805 0.038571507 0.08852387 -0.026245952
0.062143143 -0.013263918 0.033749707 0.005958587 0.025624914 0.01349035 -0.021033969 0.021346124
-0.06166605 -0.042486735 -0.01133556 0.06556109 -0.04852566 -0.047277413 0.02913799 -0.037699535
-0.060616955 -0.03118129 0.06938083 -0.06219007 0.026586711 0.041307047 0.07102412 0.015748255
0.008538816 0.025291247 0.012827158 0.007830661 0.027404556 0.02191569 0.05241923 0.042760354
0.02333467 -0.054571845 0.006419889 0.0002479265 -0.0072341245 -0.016434073 0.00037426836 0.01344955
-0.038812656 0.037963912 -0.047743525 0.011235394 0.057506237 0.03835229 0.08454216 -0.049429648
0.060813136 -0.023086388 -0.01731206 0.018010661 -0.0019230098 0.052898414 -0.040995345 0.014588779
-0.053805873 0.014077759 -0.019460866 -0.049391072 -0.03259708 0.07698271 0.062486794 0.060336113
0.09549167 -0.023554027 0.05516018 0.036216646 0.077609524 -0.062279716 -0.013940616 0.015204134
0.107254684 0.0028858054 -0.030865207 -0.025257958 0.07029533 0.017563008 -0.009430436 -0.046383977
0.014254433 -0.058300663 -0.013422328 -0.048941795 0.036760498 -0.040487897 0.059791956 -0.007899415
0.042342424 -0.008738987 0.056093216 -0.0409855 -0.033198763 -0.05402951 -0.00082190335 -0.024533413
00000000: 2c14 d7bc fa4f 123d 060e aa3d 207e fe3c
00000010: b485 beb9 48f5 853c eb6a adbc d0d8 55bd
00000020: 9261 74bd 9e62 1d3d bd8a aabc 324a 4abd
00000030: 6f94 da3b 23a8 e1bb f9ae 1a3d 4ff3 d1bc
00000040: 514f 6bbd 2c1a c2bc 6fcb ec3c 0861 473d
00000050: 2a9b 2fbd 0cc6 4abd a4cb 363d f664 2dbd
00000060: 181f 873c 5431 c3bc 5cf7 e73b 00ba 193a
00000070: 4e14 73bd fa32 4cbc 8951 c23c faee c43c
00000080: ee9e a5bc 3c20 6bbd 7989 d2bc 649e 0e3d
00000090: 598a 32bc 22b9 253d dff8 32bd fbb9 07bd
000000a0: 6199 823c 8edf 04bd 6b27 a63b 0155 afba
000000b0: abf7 a8bc 4452 b5bc 9482 5d3c c0e8 473b
000000c0: 83ea 343d 78a8 663d f82c 413d 9844 1c3c
000000d0: d0f7 c5bb 7f90 ce3b fa8b 45bd 5570 debc
000000e0: 68e7 69bc 5841 193d 8199 ae3c a07c cdbc
000000f0: 5306 2a3d bfe3 a0bc fdbe 7a3c eed1 03bc
00000100: 6006 f9bb 3c02 3c3d 2eb4 b13d c322 0b3d
00000110: 61f9 ca3d 3c26 00bd 001b 0ebd fa98 5dbd
00000120: 3d5f 1e3d 7c4e 423d 61c5 c53d 36cb bebb
00000130: 025d d53d d9e5 143d 45d9 e53c e4b9 67bd
00000140: 51c3 4d3d 8ecd 563d bb31 423d 77e0 483d
00000150: 7398 c63c 807c b3bc e161 53bd 306c 76bc
00000160: d2a6 633d eef5 0dbd a11f ccbb adab a13c
00000170: fac0 a0bc 9f46 38bd f09b 343c 2cc1 733d
00000180: e5b7 e33c 589a 0f3c 0a29 123d 7227 1abd
00000190: a73e 6c3d b6f3 5dbd 3a57 63bd 009c 07bc
000001a0: ad4a 2c3b 5cd2 593d d5c0 5fba 07dd 593d
000001b0: c61c 793d 59ac f0bc 45ed 373d 42c6 403d
000001c0: d5d2 3ebd c7ee e03a 7b00 c6bb c34d 3bbd
000001d0: af23 153d a98a 913d 2c34 263c e27b 673d
000001e0: 685a 863d 6c4f 893c ac3f 3dbd 1c77 73bd
000001f0: 5207 ea3c 8059 59ba d903 07bd 8827 05bd
00000200: 705c 0f3e f0f9 2fbc eedb 79bc b9f8 5f3c
00000210: 7334 18bc 60f0 5c3d 3586 a43c 5aa3 713d
00000220: cc92 573d 7de5 eabb e03b 82bd 7819 523d
00000230: be66 d4bc 46ef 0dbd 446d 573d a5ca 8a3d
00000240: e107 443d 0802 e63d eadb c03d d89c 34bd
00000250: fedb 553d fead 53bd a19e 393c 8084 433a
00000260: 7231 bebb 3e1c f13c f085 a43d 37ac c63d
00000270: 28c6 4dbd 28fd 1d3d 014c b53d c001 d7bc
00000280: cf89 7e3d e850 59bc 223d 0a3d 4040 c33b
00000290: 57eb d13c a106 5d3c 6e4f acbc 11de ae3c
000002a0: 8a95 7cbd 9206 2ebd c9b8 39bc e544 863d
000002b0: d8c2 46bd f6a5 41bd cbb2 ee3c d46a 1abd
000002c0: 7c49 78bd e86f ffbc 8917 8e3d 04bb 7ebd
000002d0: 60cc d93c 9431 293d 1875 913d 7c02 813c
000002e0: 64e6 0b3c 972f cf3c 0029 523c 2c4c 003c
000002f0: 857f e03c 8888 b33c 8cb5 563d 7b25 2f3d
00000300: 5a28 bf3c ba86 5fbd ef5d d23b 22fc 8139
00000310: 3c0c edbb c0a0 86bc 7339 c439 805b 5c3c
00000320: 05fa 1ebd 0c80 1b3d b78e 43bd a814 383c
00000330: a98b 6b3d 4a17 1d3d 7124 ad3d be76 4abd
00000340: 3217 793d aa1f bdbc 05d2 8dbc 188b 933c
00000350: 800d fcba 02ac 583d bcea 27bd c605 6f3c
00000360: 8c63 5cbd 67a6 663c 656c 9fbc 4b4e 4abd
00000370: 8484 05bd 1ca9 9d3d 27f2 7f3d 0023 773d
00000380: 2391 c33d 60f4 c0bc a4ef 613d e857 143d
00000390: bef1 9e3d 0419 7fbd 2e67 64bc c31a 793c
000003a0: 58a8 db3d c81f 3d3b 08d9 fcbc c7e9 cebc
000003b0: fff6 8f3d 4ce0 8f3c 1e82 1abc 20fd 3dbd
000003c0: 6d8b 693c adcc 6ebd 53e9 5bbc 3177 48bd
000003d0: 2d92 163d a3d6 25bd 69e8 743d 8c6c 01bc
000003e0: 406f 2d3d f82d 0fbc 00c2 653d 69e0 27bd
000003f0: 6dfb 07bd 0c4e 5dbd 0075 57ba 4cfa c8bc

qf1_target.fc0.bias f4 [256]
0.20132552 0.20036222 0.20328493 0.20134015 0.09920643 0.1991444 0.08920227 0.20035774
0.2003389 0.1987803 0.20093529 0.21122438 0.20141587 0.20302227 0.19973503 0.21244417
0.20076014 0.20273745 0.20036884 0.20114942 0.1 0.20010062 0.20015763 0.2008617
0.20556101 0.19517583 0.20257 0.19939569 0.20007488 0.19942212 0.19917862 0.20051508
0.20057234 0.20055766 0.095711365 0.19896923 0.20247234 0.21314241 0.20182453 0.19973934
0.20112933 0.2010658 0.2033064 0.20160688 0.19885099 0.19927189 0.20231453 0.19765949
0.19683924 0.20149957 0.19884686 0.2000697 0.20441873 0.20057878 0.19652304 0.20217131
0.20511739 0.19726445 0.20083933 0.20039311 0.1 0.19890387 0.20628312 0.20112795
0.19799031 0.19971934 0.20643069 0.20146364 0.19945589 0.19996223 0.1 0.09682597
0.19997863 0.19951959 0.2018909 0.20043594 0.08775339 0.19845615 0.20218204 0.19963878
0.20023565 0.16899677 0.20089172 0.199879 0.20486881 0.2023213 0.19796994 0.20354213
0.2126662 0.1 0.20108604 0.20091268 0.20107214 0.1965845 0.20003061 0.20171942
0.09684236 0.20458709 0.20351844 0.20069794 0.20024973 0.20085396 0.20188934 0.20022662
0.1985474 0.20362623 0.19907239 0.20116234 0.19695322 0.2005451 0.09682448 0.20410517
0.19756839 0.2055136 0.20048314 0.1 0.1999903 0.20171387 0.20447342 0.20201926
0.19981919 0.19805637 0.19881247 0.2007613 0.19820315 0.1 0.20276806 0.2135686
0.09682523 0.20084673 0.20261444 0.20152077 0.19989921 0.19873367 0.20260328 0.20178236
0.20575705 0.20652129 0.09522335 0.20146185 0.19661097 0.20420778 0.2063024 0.20485337
0.20399626 0.2046605 0.20067681 0.20007986 0.20244539 0.20004709 0.20543228 0.19935344
0.19895704 0.19890447 0.20387626 0.1 0.19680278 0.20054337 0.19988069 0.20049848
0.2009448 0.2011698 0.20048365 0.19991592 0.19709776 0.19881481 0.19853362 0.20077796
0.20210004 0.20859529 0.1951472 0.20185103 0.20335636 0.20061873 0.19771415 0.19742525
0.20054957 0.20158666 0.20611434 0.21096984 0.19913998 0.2006516 0.2019247 0.19999357
0.19986111 0.20326753 0.20115803 0.19989863 0.2018424 0.20063218 0.20461322 0.19948219
0.2014497 0.2073944 0.19945475 0.19952776 0.20428309 0.19676332 0.20205772 0.19941492
0.19833504 0.20196451 0.20441547 0.20198451 0.20079975 0.20411295 0.20321678 0.2014861
0.20015445 0.20032029 0.20220648 0.204574 0.15943205 0.20270722 0.19861327 0.19755763
0.20593801 0.2016124 0.20314765 0.20015895 0.1988478 0.20055193 0.20217721 0.20169833
0.20231344 0.20113753 0.19935536 0.20142794 0.20912766 0.2007512 0.2000282 0.19909288
0.20195234 0.3162215 0.19959114 0.20009734 0.20095809 0.20072995 0.20346968 0.20398845
0.20101976 0.20367174 0.20199302 0.20198482 0.2002196 0.2014546 0.19812255 0.20079534
0.20037061 0.19990942 0.1 0.1 0.20050168 0.2021969 0.20082155 0.19849129
00000000: 4728 4e3e c12b 4d3e ed29 503e 1d2c 4e3e
00000010: be2c cb3d 82ec 4b3e aeaf b63d 942a 4d3e
00000020: a425 4d3e 108d 4b3e fbc1 4d3e 344b 583e
00000030: f63f 4e3e 12e5 4f3e 5787 4c3e f78a 593e
00000040: 1194 4d3e 689a 4f3e 7d2d 4d3e 1dfa 4d3e
00000050: cdcc cc3d 2de7 4c3e 1ff6 4c3e b1ae 4d3e
00000060: 967e 523e 2cdc 473e 836e 4f3e 622e 4c3e
00000070: 6ee0 4c3e 5035 4c3e 7bf5 4b3e d353 4d3e
00000080: d662 4d3e fd5e 4d3e 5204 c43d 97be 4b3e
00000090: e954 4f3e 0142 5a3e 17ab 4e3e 7888 4c3e
000000a0: d9f4 4d3e 31e4 4d3e 8e2f 503e 0972 4e3e
000000b0: 989f 4b3e ee0d 4c3e 8a2b 4f3e 4067 4a3e
000000c0: 3a90 493e e755 4e3e 839e 4b3e 12df 4c3e
000000d0: 2553 513e 8664 4d3e 563d 493e ff05 4f3e
000000e0: 4b0a 523e b1ff 493e d3a8 4d3e da33 4d3e
000000f0: cdcc cc3d 75ad 4b3e e23b 533e 7cf4 4d3e
00000100: f9bd 4a3e 3a83 4c3e 9162 533e 7c4c 4e3e
00000110: 2a3e 4c3e e6c2 4c3e cdcc cc3d b24c c63d
00000120: 33c7 4c3e dd4e 4c3e 7dbc 4e3e 143f 4d3e
00000130: 0db8 b33d 1738 4b3e cf08 4f3e 1c6e 4c3e
00000140: 930a 4d3e 7d0d 2d3e 8fb6 4d3e 15ad 4c3e
00000150: 21c9 513e 512d 4f3e a2b8 4a3e 596d 503e
00000160: 2bc5 593e cdcc cc3d 80e9 4d3e 0ebc 4d3e
00000170: dbe5 4d3e 724d 493e d3d4 4c3e 898f 4e3e
00000180: 4a55 c63d 477f 513e 2367 503e c383 4d3e
00000190: 440e 4d3e a9ac 4d3e 14bc 4e3e 3508 4d3e
000001a0: 0250 4b3e 6583 503e a2d9 4b3e 80fd 4d3e
000001b0: 1bae 493e b25b 4d3e ea4b c63d f200 513e
000001c0: 5e4f 4a3e 2872 523e 744b 4d3e cdcc cc3d
000001d0: 42ca 4c3e 158e 4e3e 7b61 513e 23de 4e3e
000001e0: 679d 4c3e 4acf 4a3e 7f95 4b3e 5f94 4d3e
000001f0: c4f5 4a3e cdcc cc3d 6ea2 4f3e bab1 5a3e
00000200: 4e4c c63d c4aa 4d3e 297a 4f3e 765b 4e3e
00000210: 61b2 4c3e d780 4b3e 3c77 4f3e 09a0 4e3e
00000220: fab1 523e 517a 533e 7604 c33d 044c 4e3e
00000230: 6354 493e d81b 513e f040 533e 15c5 513e
00000240: 65e4 503e 8692 513e 397e 4d3e bce1 4c3e
00000250: d84d 4f3e 25d9 4c3e d75c 523e 4f23 4c3e
00000260: 65bb 4b3e 9dad 4b3e f0c4 503e cdcc cc3d
00000270: ab86 493e 3e5b 4d3e 86ad 4c3e 794f 4d3e
00000280: 79c4 4d3e 75ff 4d3e 964b 4d3e c2b6 4c3e
00000290: ffd3 493e 1c96 4b3e 664c 4b3e bd98 4d3e
000002a0: 50f3 4e3e 019a 553e abd4 473e 09b2 4e3e
000002b0: a63c 503e ff6e 4d3e 9475 4a3e d829 4a3e
000002c0: de5c 4d3e bc6c 4e3e a30f 533e 7a08 583e
000002d0: 5aeb 4b3e 9d77 4d3e 59c5 4e3e 1dcb 4c3e
000002e0: 64a8 4c3e 5d25 503e 5ffc 4d3e 3ab2 4c3e
000002f0: c6af 4e3e 8672 4d3e 2186 513e 0f45 4c3e
00000300: d548 4e3e 335f 543e de3d 4c3e 0151 4c3e
00000310: 962f 513e 537c 493e 38e8 4e3e 6d33 4c3e
00000320: 5718 4b3e c9cf 4e3e 4a52 513e 07d5 4e3e
00000330: 739e 4d3e fc02 513e 0f18 503e 5f52 4e3e
00000340: 4af5 4c3e c320 4d3e 370f 4f3e d97b 513e
00000350: 2842 233e 7b92 4f3e 4761 4b3e 8c4c 4a3e
00000360: 6ae1 523e 7b73 4e3e f005 503e 78f6 4c3e
00000370: c29e 4b3e 7c5d 4d3e 8b07 4f3e 028a 4e3e
00000380: 412b 4f3e fff6 4d3e d023 4c3e 2043 4e3e
00000390: 9025 563e b991 4d3e 31d4 4c3e 01df 4b3e
000003a0: 98cc 4e3e c9e7 a13e 9f61 4c3e 51e6 4c3e
000003b0: f5c7 4d3e 278c 4d3e 5b5a 503e 59e2 503e
000003c0: 20d8 4d3e 538f 503e 42d7 4e3e 1cd5 4e3e
000003d0: 5e06 4d3e 1d4a 4e3e a3e0 4a3e 4b9d 4d3e
000003e0: f42d 4d3e 0eb5 4c3e cdcc cc3d cdcc cc3d
000003f0: 5050 4d3e b40c 4f3e 2aa4 4d3e 4d41 4b3e
