logs/mini-cage/100/mlp/2025-04-27-11:16:23/seed-1/save/agent_001010_perf0.000.pt (torch, 801762 bytes, 12 tensors)

qf1.fc0.weight f4 [256, 78]
00000000: 2c14 d7bc fa4f 123d 5b9c aa3d 207e fe3c
00000010: dc68 a538 48f5 853c e85c a9bc d0d8 55bd
00000020: f3e9 78bd c4a3 243d bce7 a6bc 6235 49bd
00000030: 36a7 de3b 1e4e e5bb 5218 203d 4906 d1bc
00000040: 4c4f 6bbd 2c1a c2bc bc53 f83c 0861 473d
00000050: 2a9b 2fbd 0cc6 4abd 75e4 413d f664 2dbd
00000060: 181f 873c 5431 c3bc d8ed 0f3c 00ba 193a
00000070: 348d 73bd 79c8 63bc b80e cb3c 3259 c53c
00000080: d99f 9cbc 3c20 6bbd b835 cfbc 472c 103d
00000090: 5d8d 31bc 77f4 1c3d 1753 2ebd 7093 08bd
000000a0: ef21 963c 8edf 04bd 8447 c83b 0055 afba
000000b0: a297 a1bc 4452 b5bc a21b 763c c0e8 473b
000000c0: 1fd5 333d 78a8 663d b6d7 363d 9844 1c3c
000000d0: d0f7 c5bb 81aa cd3b af45 45bd 3de3 dcbc
000000e0: 68e7 69bc 5841 193d 7899 ae3c 99a3 cdbc
000000f0: d881 2a3d f49e 9fbc 1170 7e3c 4909 01bc
00000100: 798b f4bb e594 3c3d 7eec b13d f82e 0b3d
00000110: b0d4 ca3d 3c26 00bd 001b 0ebd fa98 5dbd
00000120: 0f90 1e3d 7c4e 423d c853 c53d 1404 c0bb
00000130: de93 d53d 5a12 153d 3cd9 e53c e4b9 67bd
00000140: 88dc 4e3d 8ecd 563d 29fe 433d 6ce0 483d
00000150: 3cb8 ca3c 807c b3bc fa01 58bd 2a5a 59bc
00000160: e061 653d 5dea 0cbd c068 c8bb 17bd a03c
00000170: eded 95bc bdd3 37bd f09b 343c 2cc1 733d
00000180: ab2c ef3c 589a 0f3c 0a29 123d 7227 1abd
00000190: e249 773d b6f3 5dbd 3a57 63bd 009c 07bc
000001a0: f0ed 8d3b 56d2 593d 7f87 7cba 06fb 533d
000001b0: f173 7d3d ef4e f0bc d25d 3c3d 42c6 403d
000001c0: 2b27 3dbd c812 093b d261 c4bb 2310 44bd
000001d0: 23cb 193d eb1a 913d 840f 4d3c e27b 673d
000001e0: b07c 883d 6c4f 893c c08a 39bd 1c77 73bd
000001f0: 8532 f63c 8059 59ba 3925 08bd 8827 05bd
00000200: 94c6 0c3e f0f9 2fbc e0db 79bc 7a66 5f3c
00000210: db3e 17bc c7af 5d3d 3086 a43c 5aa3 713d
00000220: cc92 573d bcb4 ebbb ca01 82bd 51b3 523d
00000230: 7f9d d2bc b840 0dbd 3cf7 573d 940e 8b3d
00000240: 2f6c 443d 2403 e63d fcb1 c03d d89c 34bd
00000250: fedb 553d fead 53bd 912f 3a3c 8084 433a
00000260: 48c0 c5bb ccbf f03c 65b7 a43d 13bd c63d
00000270: 28c6 4dbd 20fd 1d3d d3da b53d c001 d7bc
00000280: b833 803d e850 59bc 2e4c 0c3d 4040 c33b
00000290: e3bb c83c db5b 7a3c e0c8 a8bc bf03 b13c
000002a0: dc20 7cbd 5a78 2ebd 4536 24bc 0881 863d
000002b0: d8c2 46bd f6a5 41bd 681c fa3c d46a 1abd
000002c0: 7c49 78bd e86f ffbc e19c 933d 04bb 7ebd
000002d0: 60cc d93c 9431 293d f8f3 943d 7c02 813c
000002e0: 183f 0a3c dd7f c33c b87b 633c 4821 013c
000002f0: 1458 e93c 8888 b33c 7e5b 583d 21b9 303d
00000300: fc9f bf3c 6f50 68bd ba55 f73b 344d 2838
00000310: ca28 9fbb c0a0 86bc f443 b83a 805b 5c3c
00000320: 4a41 1bbd 0680 1b3d 4d70 3dbd a814 383c
00000330: 4978 6a3d 4a17 1d3d 58f7 a73d be76 4abd
00000340: 3217 793d 095c bdbc 234a 8dbc 3615 953c
00000350: 800d fcba 02ac 583d bcea 27bd cfb8 6e3c
00000360: 51e9 5bbd 3422 693c 9d96 9dbc 119b 49bd
00000370: 60f3 04bd ceef 9d3d 692e 803d 732a 773d
00000380: 4d6a c33d 60f4 c0bc a4ef 613d e857 143d
00000390: 0207 9f3d 0419 7fbd 5e1f 68bc 2c77 783c
000003a0: 73dc db3d ab9e 3f3b 08d9 fcbc bce9 cebc
000003b0: df7a 903d 4ce0 8f3c 75cc 13bc 20fd 3dbd
000003c0: 1151 713c a8cc 6ebd 2fb8 6ebc fe40 41bd
000003d0: 4e42 183d bed3 24bd 9455 753d 5c88 03bc
000003e0: 5bb8 323d b085 0dbc 00c2 653d 66e0 27bd
000003f0: a656 02bd 0c4e 5dbd 0075 57ba 4cfa c8bc
-0.026254736 0.035720803 0.08330604 0.031066 7.887345e-05 0.01635231 -0.020674184 -0.05220872
-0.060769986 0.04019524 -0.020374171 -0.049123175 0.0067948354 -0.0069978377 0.039085694 -0.025515692
-0.05744867 -0.02369412 0.030313365 0.04867652 -0.042872585 -0.04950528 0.047337014 -0.042332612
0.016494319 -0.023827232 0.008784734 0.0005864203 -0.059460834 -0.013902777 0.024787292 0.024090383
-0.01911919 -0.057403788 -0.02529417 0.035198476 -0.010836926 0.038319077 -0.04255971 -0.033343732
0.018326728 -0.03243976 0.006112041 -0.0013376772 -0.019725624 -0.022133954 0.015021237 0.003050372
0.04390442 0.056313008 0.04463931 0.009537838 -0.0060415044 0.006276429 -0.04816216 -0.026963824
-0.014276363 0.037415832 0.021313414 -0.025102424 0.041627735 -0.019484974 0.015529648 -0.007875749
-0.0074629155 0.046040434 0.086876854 0.03398034 0.09903848 -0.031286463 -0.034693718 -0.054100968
0.038711604 0.04743813 0.09635121 -0.005859861 0.10428594 0.036394455 0.028057687 -0.056573763
0.050503284 0.052442126 0.047849808 0.04904215 0.024746053 -0.021909952 -0.05273626 -0.013266126
0.056001544 -0.034403194 -0.006116003 0.019621415 -0.018301928 -0.044879664 0.0110235065 0.059510395
0.029196104 0.008764826 0.03568367 -0.037635274 0.060373195 -0.0541875 -0.055503108 -0.008276939
0.004331343 0.053179108 -0.00096332276 0.051753066 0.06187815 -0.029334513 0.04598791 0.047064073
-0.04617993 0.0020915736 -0.0059931064 -0.04786695 0.037547242 0.07085212 0.012515906 0.05651463
0.06664407 0.016761504 -0.045298338 -0.059439763 0.030053386 -0.00082912296 -0.033238623 -0.032508403
0.13747627 -0.010740742 -0.015250176 0.013635272 -0.0092312945 0.054122712 0.020083517 0.058993675
0.05263023 -0.007193176 -0.063479975 0.05144054 -0.025709866 -0.03448555 0.052726015 0.0678989
0.047954734 0.11231068 0.09408948 -0.04409489 0.052211754 -0.051679604 0.01136388 0.00074584037
-0.0060348846 0.02938833 0.08042792 0.09704032 -0.050237805 0.038571477 0.08879628 -0.026245952
0.062598646 -0.013263918 0.034252338 0.005958587 0.024503654 0.015280689 -0.020603597 0.021608232
-0.061554775 -0.042595245 -0.0100227045 0.065675795 -0.04852566 -0.047277413 0.030531123 -0.037699535
-0.060616955 -0.03118129 0.07207657 -0.06219007 0.026586711 0.041307047 0.07273096 0.015748255
0.008437894 0.02386468 0.013884477 0.00788147 0.028484382 0.02191569 0.05282163 0.043145303
0.023391716 -0.056717332 0.007548061 4.0126222e-05 -0.0048571574 -0.016434073 0.0014058338 0.01344955
-0.03790406 0.03796389 -0.046249676 0.011235394 0.05724362 0.03835229 0.08201474 -0.049429648
0.060813136 -0.023115175 -0.017247265 0.01819859 -0.0019230098 0.052898414 -0.040995345 0.014570429
-0.053689305 0.014229346 -0.019236857 -0.04922015 -0.032458663 0.07711755 0.06258852 0.060343217
0.0954176 -0.023554027 0.05516018 0.036216646 0.077650085 -0.062279716 -0.014167635 0.015165132
0.10735407 0.002923886 -0.030865207 -0.025257938 0.07054686 0.017563008 -0.009020914 -0.046383977
0.0147288 -0.058300644 -0.01457028 -0.047181122 0.037172608 -0.040240996 0.059896067 -0.008028116
0.043632846 -0.008637831 0.056093216 -0.040985487 -0.031820916 -0.05402951 -0.00082190335 -0.024533413

qf1.fc0.bias f4 [256]
00000000: 466e 4e3e 376f 4d3e b46e 503e 0c6c 4e3e
00000010: 962c cb3d 832c 4c3e 2d64 b43d 076e 4d3e
00000020: 8566 4d3e 19cf 4b3e c2ff 4d3e b291 583e
00000030: 7182 4e3e 2c28 503e b6c9 4c3e e0d3 593e
00000040: 34d3 4d3e 2cde 4f3e bc70 4d3e c23a 4e3e
00000050: cdcc cc3d 042b 4d3e 4a3a 4d3e 36f0 4d3e
00000060: cdc4 523e d718 483e e2b0 4f3e e56e 4c3e
00000070: b322 4d3e fd77 4c3e 7f34 4c3e e092 4d3e
00000080: 86a1 4d3e 169d 4d3e 1f04 c43d 3a02 4c3e
00000090: 3299 4f3e 3e89 5a3e ffec 4e3e c5cb 4c3e
000000a0: 2238 4e3e ec27 4e3e a972 503e f7b6 4e3e
000000b0: eddf 4b3e 9f4b 4c3e c569 4f3e cfa4 4a3e
000000c0: 3cd1 493e 8c96 4e3e 29e0 4b3e 9b20 4d3e
000000d0: 0f98 513e 31a7 4d3e 7b7f 493e 8447 4f3e
000000e0: 9348 523e 8642 4a3e e6eb 4d3e 3972 4d3e
000000f0: cdcc cc3d 24ed 4b3e d282 533e 1c36 4e3e
00000100: 7dfd 4a3e 88c4 4c3e d6a8 533e 1a8f 4e3e
00000110: 7380 4c3e 8804 4d3e cdcc cc3d 6d4c c63d
00000120: c405 4d3e 818e 4c3e 5e01 4f3e 2080 4d3e
00000130: fdb7 b33d 1b75 4b3e e84c 4f3e 52ac 4c3e
00000140: 2c4c 4d3e f369 2d3e ecfa 4d3e 04ef 4c3e
00000150: 640f 523e fa70 4f3e 85fa 4a3e 9cb0 503e
00000160: 980a 5a3e cdcc cc3d cc29 4e3e b2fe 4d3e
00000170: 3228 4e3e 558a 493e 7616 4d3e 52d2 4e3e
00000180: 0f55 c63d 3ac1 513e b1a8 503e 53c5 4d3e
00000190: e551 4d3e 05ed 4d3e d8fe 4e3e 224a 4d3e
000001a0: 7292 4b3e 8dc9 503e 941a 4c3e eb3f 4e3e
000001b0: 5eed 493e 579e 4d3e 7f4b c63d ce44 513e
000001c0: 3b8d 4a3e 07b5 523e a78d 4d3e cdcc cc3d
000001d0: 420e 4d3e dfd1 4e3e e5a2 513e a220 4f3e
000001e0: ede1 4c3e 670c 4b3e 00d8 4b3e 6bd3 4d3e
000001f0: 1038 4b3e cdcc cc3d 73e7 4f3e 02fb 5a3e
00000200: ff4b c63d 0fee 4d3e 4ebc 4f3e fb9b 4e3e
00000210: 53f2 4c3e ecc2 4b3e 98bc 4f3e d9e2 4e3e
00000220: 91f7 523e 71be 533e 2f04 c33d 308d 4e3e
00000230: c690 493e 8761 513e 4d83 533e 6607 523e
00000240: ef27 513e 99d4 513e 1cbf 4d3e cc20 4d3e
00000250: c58e 4f3e 241d 4d3e eaa0 523e 5462 4c3e
00000260: 11ff 4b3e c7ec 4b3e e806 513e cdcc cc3d
00000270: 3ec8 493e 4499 4d3e 04ef 4c3e e48e 4d3e
00000280: 8305 4e3e a33d 4e3e 9c8c 4d3e 86f6 4c3e
00000290: 8214 4a3e b2d1 4b3e 8a8f 4b3e 47d7 4d3e
000002a0: 6237 4f3e 32e2 553e 3215 483e 43f2 4e3e
000002b0: f17f 503e 94ab 4d3e 53b6 4a3e a667 4a3e
000002c0: b5a1 4d3e 75af 4e3e 6053 533e 624d 583e
000002d0: 3e2e 4c3e 43ba 4d3e bc07 4f3e 6a0c 4d3e
000002e0: a4e9 4c3e be69 503e e23f 4e3e 92f6 4c3e
000002f0: 00f3 4e3e d7b5 4d3e b8cc 513e 6f85 4c3e
00000300: f189 4e3e 38a2 543e 1e81 4c3e e38e 4c3e
00000310: 4c71 513e 58b8 493e 022b 4f3e 096e 4c3e
00000320: f657 4b3e a010 4f3e 5598 513e 5915 4f3e
00000330: 84de 4d3e 6346 513e 385b 503e 9894 4e3e
00000340: 2238 4d3e 9161 4d3e 1555 4f3e bbbd 513e
00000350: f199 233e a3d3 4f3e 0a9f 4b3e cb89 4a3e
00000360: a028 533e c2b3 4e3e 7749 503e 9d39 4d3e
00000370: 0edf 4b3e 9c9f 4d3e fc47 4f3e 94c9 4e3e
00000380: 8b70 4f3e 7737 4e3e e365 4c3e 8e83 4e3e
00000390: 7c6b 563e a1d5 4d3e 4316 4d3e 5120 4c3e
000003a0: d80c 4f3e c20a a33e cba0 4c3e eb25 4d3e
000003b0: 1a0b 4e3e 95c8 4d3e 509c 503e 7c26 513e
000003c0: ea19 4e3e d1d0 503e cf1b 4f3e a818 4f3e
000003d0: 294b 4d3e c78a 4e3e c521 4b3e e0e0 4d3e
000003e0: d26f 4d3e 7ff7 4c3e cdcc cc3d cdcc cc3d
000003f0: 3190 4d3e a94e 4f3e 00e9 4d3e 767f 4b3e
0.20159253 0.20061956 0.2035473 0.20158404 0.099206135 0.19938855 0.088081695 0.20061503
0.2005864 0.1990322 0.20117095 0.21149328 0.20166947 0.20327824 0.19998822 0.2127223
0.20100099 0.20299596 0.20062536 0.20139602 0.1 0.2003594 0.20041767 0.20111164
0.20582886 0.19540726 0.20282319 0.19964178 0.20032768 0.19967647 0.199419 0.2007556
0.20081148 0.20079455 0.095710985 0.19922724 0.20273283 0.21341416 0.20207594 0.19999607
0.201386 0.20132416 0.2035624 0.20186983 0.1990964 0.19950722 0.20255192 0.19789432
0.19708723 0.20174617 0.19909729 0.20031969 0.20468162 0.2008331 0.19677536 0.20242125
0.20535497 0.19751939 0.2010952 0.20063104 0.1 0.1991468 0.20655373 0.20137829
0.1982326 0.19996846 0.20669875 0.20171776 0.19970874 0.2002126 0.1 0.09682546
0.2002173 0.19976236 0.20215365 0.20068407 0.08775327 0.19868891 0.20244181 0.1998761
0.20048589 0.16934948 0.2011525 0.20013052 0.20513684 0.20257941 0.19822128 0.20379871
0.21293104 0.1 0.20133132 0.2011669 0.20132521 0.19681676 0.200281 0.20197418
0.096841924 0.20483866 0.2037685 0.20094804 0.20050772 0.20109947 0.20214403 0.2004781
0.19880083 0.20389386 0.19932014 0.2014157 0.19719455 0.20079933 0.096823685 0.20436403
0.19780438 0.20576869 0.20073567 0.1 0.2002497 0.20197247 0.20472296 0.20227292
0.20008059 0.1982895 0.19906616 0.20100181 0.19845605 0.1 0.20303135 0.21384814
0.09682464 0.20110343 0.20286676 0.2017669 0.20014314 0.19898576 0.20286787 0.20203723
0.20602252 0.20678116 0.09522282 0.20171046 0.19684133 0.2044736 0.20655556 0.20510635
0.2042539 0.20491256 0.20092434 0.20032042 0.20269306 0.20030648 0.20569196 0.19959384
0.19921519 0.19914542 0.20412791 0.1 0.19705293 0.20077997 0.20013052 0.2007404
0.2011929 0.201407 0.2007317 0.20015916 0.19734386 0.19904211 0.19878975 0.20101653
0.2023597 0.20887068 0.19539335 0.20209603 0.20361306 0.20084983 0.19796114 0.19766101
0.20081218 0.20184119 0.20637274 0.21123269 0.19939515 0.20090584 0.20217794 0.20024267
0.20011002 0.20352837 0.20141557 0.20015934 0.20209885 0.20088898 0.2048825 0.19972776
0.20169808 0.20765007 0.1997113 0.19976382 0.20453376 0.19699228 0.2023125 0.1996385
0.19857773 0.20221186 0.20468266 0.20222987 0.20104414 0.20437007 0.20347297 0.20173872
0.20040944 0.2005675 0.202473 0.20482533 0.15976693 0.20295577 0.19884887 0.19779126
0.20620966 0.2018576 0.20340525 0.20041509 0.19909307 0.20080417 0.20242304 0.20194083
0.20257775 0.20138346 0.19960742 0.20167372 0.2093944 0.20101024 0.20028023 0.19934203
0.20219743 0.31844145 0.19983213 0.20033996 0.20121422 0.20096047 0.20372128 0.20424837
0.20127073 0.20392157 0.20225452 0.2022425 0.20048203 0.20170127 0.19837101 0.20105314
0.20062187 0.20016287 0.1 0.1 0.20074536 0.2024485 0.20108414 0.19872841

qf1.fc1.weight f4 [256, 256]
00000000: 0f4d dc3c b8e3 013b e0d3 663c 3ce2 653d
00000010: 191f 3bba 1179 a73d fd6b 4ebe d61b 82bb
00000020: 92ca ee3c 0978 acbc a225 a23d 69a5 e93d
00000030: b5d3 de3d eefc 88bc 3fe0 a8bc 3494 023e
00000040: 4fe0 b4bc bf55 ce3d 1a8d 723c aa78 513d
00000050: 7a0f 12bd 6734 883d d33b b83d 5866 5f3d
00000060: f7fe 7d3d e8b4 1d3d 541e 473c a24a d13d
00000070: 9397 6f3d c6a5 2abc 3bf7 4cbc 1dd0 b83c
00000080: 79c8 3b3c 80cd 8cbc 15a4 883d 004e 5c3c
00000090: 3f94 bd3d 2ed1 b23d a5a5 963c c277 72bc
000000a0: 8038 43bc 2732 d13d 373b b33d 0e29 ce3d
000000b0: 70d9 cc3d 8500 613d c7e7 8dbb 1bc7 ea3c
000000c0: 606b af3d 95d5 673d 2323 ba3d a1c0 713d
000000d0: 65c8 543d 5163 3f3d f0bf c63d 1d69 64b9
000000e0: 94b5 6e3d cdf0 87bb fb24 af3d 257f 533d
000000f0: a29d 1ebd 9c94 b63d d734 a63d 3fd9 fcbb
00000100: 6d6e a43d 2380 633c 769b a63d 0012 c13d
00000110: 9f1a 723d d40b 683c 84f1 67bd 6728 233d
00000120: d351 56ba 1338 993d 6009 cf3d 8111 6f3d
00000130: e66c c5bc 808d ca3b aa4b a73d 1741 903d
00000140: 60c5 403c 5588 4c3e 96a1 b5ba 563d 713d
00000150: fc83 b93d 3320 623d 425f ff3c 4569 fa3c
00000160: d20e d5ba 48af f8bc b79c 393d 2a9b a03d
00000170: 7a1b 513d f68d 763d c1cc 08bc 5af0 7d3c
00000180: aff1 55bd 9ec6 a73d c498 4d3d 7f0a ab3c
00000190: 3610 073d 8e08 5c3c 5ce5 ba3d 2ba2 4d3d
000001a0: 70fb cd3d 4c5c 4c3d fb2c 853b 431a 22bb
000001b0: 164c 643b 37c2 8b3d d93e ab3c f23f 253c
000001c0: ac92 b1bb ef08 4a3d 0ac0 d43d 9c07 863c
000001d0: 1c45 0c3d dd90 b33d 63ac 6d3d c0c8 0d3d
000001e0: 6d66 ba3d 9359 b53c 04c6 44bc 78a0 263d
000001f0: 11c6 573d 6675 503d 33df 9f3d 7ef2 823d
00000200: 3655 5e3c 6028 4b3d effd b93d 5721 dc3c
00000210: c952 f13c d801 583d 9866 f2ba 8569 553c
00000220: 62eb 073d bb76 243d e53a 54bd 68f4 df3c
00000230: 5ae6 953d c366 ce3d 13e9 aa3d 0b40 0c3d
00000240: a0e3 303c 057c b03d aa17 923b e15c 363c
00000250: 16ea b93d e70f ac3d 87fe 073c 51cc 4a3d
00000260: ee70 cc3d ebca ef3c 5aaf 063d d899 5bbd
00000270: 07ac 923d 64c7 ec3c 708b b03d 47ce 593c
00000280: bdce 623b 2807 2f3c 9a8d 413d 7992 8c3c
00000290: 65ff c03d 5a71 b23c 3148 163d b81c c8bc
000002a0: 5c0d 543d 622d f23c b462 a03d dbf4 1f3c
000002b0: e175 4b3d f357 ae3d 77b3 573d c30f af3d
000002c0: e6ec 02bc 31d1 af3d ba00 c83d 354d 963d
000002d0: 6aab 353d e534 953d 8441 a93d ee14 8a3d
000002e0: 3bc8 6fbc a04a d4bb 8546 483d 966a df3c
000002f0: 5daa 47bc 398d 113d dd9f 923d 8b10 80bc
00000300: 4f07 c63d 24ff 733d 4457 393d b8aa 6f3d
00000310: 30db c53c e010 413b c0d6 e83c 98c3 953d
00000320: 9990 a13d 960f b13d 06f0 8b3d c468 803c
00000330: 6d4b 963d aa3e 9e3d 4665 1e3d ce6b 9c3d
00000340: 78cf 86bc ac37 3a3d e711 b43d 2578 aa3d
00000350: 1322 1d3e 57aa 983d bea4 91bc ef56 fb3c
00000360: 759b d33c 9754 c03d fc12 7f3c c75d 8c3d
00000370: 7af2 8b3d ec58 463d 715e c23d 03f8 50bc
00000380: c7a8 d53d 7093 8b3d 5c9d 663d 2525 b93d
00000390: 0df0 673d d072 a03d 2685 9c3d 99a6 e53b
000003a0: 9a8f a23c 6e1c b33f 8fb8 c63d 6670 573d
000003b0: ea98 3f3d 5323 e43c 1b01 c13c 3964 a03d
000003c0: 5388 113d d724 c23c 980d c23c 18df d23d
000003d0: fe59 b53d 8423 8a3d b7f2 bd3d cde7 5bbc
000003e0: 7a77 663d b365 883d 8c40 f9bc 82c2 2a3d
000003f0: 13cf b73d 4129 663d 586b 573d 364d 82bc
0.026892213 0.001981957 0.014088601 0.056123957 -0.0007138118 0.081773885 -0.20158382 -0.0039706035
0.029149327 -0.021053331 0.07917334 0.114085026 0.10880224 -0.016722169 -0.020614741 0.12751848
-0.022079615 0.100749485 0.014804149 0.051140465 -0.03565929 0.0665062 0.089957856 0.054540962
0.06201073 0.038502604 0.012153227 0.10219313 0.05849416 -0.0104155 -0.012510116 0.022560174
0.011461371 -0.017187834 0.06671921 0.013446331 0.09256791 0.08731304 0.018389532 -0.01479906
-0.011915326 0.10214644 0.08751529 0.10066424 0.100024104 0.054932136 -0.0043306085 0.028659394
0.08565402 0.056600172 0.09088733 0.059021596 0.051948924 0.046725575 0.09704578 -0.00021782932
0.058278635 -0.0041485787 0.08551975 0.051634926 -0.03872455 0.08915064 0.08115547 -0.0077163274
0.080288745 0.013885531 0.081351206 0.09427261 0.05910742 0.014162976 -0.05662681 0.039833453
-0.0008175645 0.074813984 0.1010921 0.058366302 -0.024099778 0.006181419 0.08168729 0.07043665
0.011765808 0.19973882 -0.001385736 0.058896385 0.09058377 0.05520649 0.031173352 0.030567775
-0.0016255027 -0.030357018 0.04531547 0.07842095 0.051051594 0.06019398 -0.008349598 0.015499199
-0.05223244 0.0819218 0.050194517 0.020879028 0.032974444 0.013429774 0.09125778 0.050203484
0.100577235 0.04989271 0.0040642 -0.0024734891 0.003483539 0.06824153 0.020903992 0.0100860465
-0.005419096 0.049324926 0.10388191 0.01636105 0.034245595 0.08767865 0.05802573 0.03461528
0.091015674 0.022137439 -0.012010101 0.04068038 0.052679125 0.05089321 0.07806244 0.06393908
0.013570121 0.04959905 0.09081637 0.026871366 0.02945842 0.052736133 -0.001849371 0.013025646
0.033183463 0.040152293 -0.05181398 0.027338222 0.07319327 0.10078194 0.08345237 0.034240764
0.0107964575 0.08617405 0.0044583874 0.0111305425 0.090778515 0.08401471 0.00830043 0.049511258
0.09982477 0.029271564 0.032882072 -0.053613514 0.07161718 0.02890367 0.086203456 0.013293809
0.003460809 0.0106828585 0.047254182 0.017159687 0.09423713 0.021782566 0.03668994 -0.024427757
0.051770553 0.029562656 0.07831326 0.009762968 0.049672965 0.08512869 0.052661385 0.08547928
-0.007991051 0.08584822 0.097657636 0.07338945 0.044352926 0.072854795 0.08264449 0.06742273
-0.014635141 -0.0064786226 0.048895378 0.027272504 -0.012186614 0.03553507 0.07159398 -0.015632888
0.09669363 0.059569493 0.04524924 0.05851242 0.024152368 0.0029459521 0.028422713 0.07312697
0.07888908 0.08645551 0.0683289 0.015674956 0.07338605 0.07726796 0.0386708 0.076377496
-0.01645635 0.04546325 0.08792477 0.08323697 0.1534503 0.07454365 -0.01777875 0.030681102
0.025830964 0.09391134 0.015568491 0.06853824 0.06833358 0.048424646 0.094906695 -0.012754443
0.10432582 0.06815231 0.056302413 0.09040288 0.056625415 0.07834399 0.076425835 0.0070083854
0.019843865 1.3993051 0.097031705 0.052597426 0.04677669 0.027848875 0.023560097 0.07831616
0.0355304 0.023699207 0.023688123 0.10296458 0.08855055 0.06745055 0.0927481 -0.013421965
0.056266285 0.066600226 -0.030426286 0.041689403 0.08975043 0.056191687 0.052592605 -0.015905958

qf1.fc1.bias f4 [256]
00000000: d4c8 473e eebb 463e 2ae2 473e 21a1 483e
00000010: 2f51 473e 483c 493e cdcc cc3d 8b95 473e
00000020: 40bc 493e edc3 4b3e 9a7d 463e 040e 4c3e
00000030: 8859 483e 220f 483e ae09 473e af0b 473e
00000040: d165 483e 6ab5 473e b4f0 4b3e a2bf 473e
00000050: f502 483e ef75 483e f45d 473e 4b29 473e
00000060: 0dcb 473e 1c7d 463e 0b08 473e 6d20 483e
00000070: 4cf6 ca3d cdcc cc3d c479 463e 33a4 493e
00000080: 09b1 4c3e 5adc 473e c1ca 483e c9e5 463e
00000090: dd80 473e 26d7 473e 7f34 493e 3800 483e
000000a0: 5e0d 483e fba6 473e 7a19 483e 4160 473e
000000b0: 7495 493e 75a2 493e bde1 483e 08bf 473e
000000c0: 004e 463e 6a41 473e 8eeb 4d3e 4a8c 493e
000000d0: ec06 493e 2277 473e eb4f 473e cdcc cc3d
000000e0: b93d 473e ff56 c93d 1158 483e f421 493e
000000f0: 5887 463e e3e7 483e cdcc cc3d bd48 4f3e
00000100: e624 4b3e e656 4d3e 11c0 473e 3a02 493e
00000110: 2e23 4c3e d01f 483e 60dc 4a3e 7625 483e
00000120: 4144 ca3d 173c 473e 12f5 cb3d 132d 483e
00000130: 3c34 483e 0152 4f3e 30cc cb3d bcaa 473e
00000140: 0dc0 4b3e 964e 473e 7173 533e cdcc cc3d
00000150: 8958 493e 03eb 473e 8c10 483e cdcc cc3d
00000160: c6a9 473e ee89 483e ac51 463e 69c5 473e
00000170: 8201 473e 19d2 473e 03cd 463e 2b58 493e
00000180: 9298 4b3e 9d51 473e 0774 cb3d cdcc cc3d
00000190: 986f 473e 3c4a 483e 6ebf 453e 1c9b 463e
000001a0: a4d3 473e 0135 463e f4bc 463e 0376 473e
000001b0: 399d 493e 412e 4c3e f197 473e 26ad 4a3e
000001c0: 4320 463e 00cb 4a3e dbd0 483e 3fa0 473e
000001d0: 5810 493e d58c 463e 2746 463e 6165 533e
000001e0: 6fea 483e 04bc 463e 1943 493e 1b84 473e
000001f0: 285f 473e f32d 483e da13 4b3e 2f1d 4c3e
00000200: d10c 483e 3c10 473e f0ac 473e cdcc cc3d
00000210: c327 493e 3a0f 483e 21cb 463e 7018 543e
00000220: 6823 463e be9d 483e 5d4e 4a3e 8c99 493e
00000230: 53df cb3d 6795 463e 5431 cb3d 642e 4b3e
00000240: 9548 473e 9010 493e b178 473e 0908 483e
00000250: 285c 483e 3580 473e 777e 523e ac45 cc3d
00000260: 51da 473e d847 493e 548b 473e c48d 483e
00000270: b73b 483e fc9a 463e 9c2a 473e 88b2 473e
00000280: 95e2 483e 62c9 473e c8b0 4e3e a4bc 493e
00000290: ed57 483e 78b2 483e aad7 483e 80b4 cb3d
000002a0: 7d83 473e 9d50 483e 6413 493e cdef 483e
000002b0: cdcc cc3d 4371 473e dfaf 473e c191 4e3e
000002c0: 243e 4e3e 1f59 473e 0389 cb3d 5109 483e
000002d0: be43 ca3d 4fe2 463e a32c 473e f184 ca3d
000002e0: e584 473e cdb8 473e 57ad 483e f993 473e
000002f0: d667 4a3e c353 483e 4156 483e 0d19 483e
00000300: 6a5d 493e ba89 483e 0dad 4a3e b1bf 463e
00000310: 5061 493e b432 483e 338b 493e 93d8 463e
00000320: 308c 483e 0584 483e 1881 463e fb99 473e
00000330: 13a8 473e 51c7 483e 0079 473e d5ea ca3d
00000340: 86dc 463e 658a 463e ca76 ca3d cdcc cc3d
00000350: 60b4 473e 8113 483e b6be 463e 606b 483e
00000360: bb7c 473e fe5f 483e 44eb 483e b3da 463e
00000370: 1c52 ca3d 7967 483e 270b 483e f752 483e
00000380: 311a 493e cdcc cc3d 5903 4b3e ff9d 463e
00000390: fe90 493e cc71 493e 77eb 483e 7f1c 4f3e
000003a0: 31f7 493e 0101 483e 4fbd 473e 22e9 473e
000003b0: a4a4 473e c0da 483e b3b5 513e b9e1 453e
000003c0: 42c7 473e b905 483e d85d 473e 3005 483e
000003d0: 7233 483e b7d2 473e 2a58 473e dead 463e
000003e0: d344 483e 149f 4e3e 6073 483e f9a7 483e
000003f0: 0fe6 473e bddf 473e dec1 483e 9caf 463e
0.19510204 0.19407627 0.19519868 0.19592716 0.19464563 0.19651902 0.1 0.1949064
0.19700718 0.19898959 0.1938385 0.19927222 0.19565403 0.19537023 0.19437286 0.1943805
0.1957009 0.19502798 0.1991604 0.19506696 0.19532378 0.19576238 0.19469434 0.19449346
0.19511051 0.19383663 0.19436662 0.1954362 0.09910259 0.1 0.19382387 0.19691543
0.19989409 0.19517651 0.19608594 0.19423594 0.19482751 0.19515666 0.19648932 0.19531333
0.19536349 0.19497292 0.19540969 0.19470312 0.19685918 0.19690879 0.19617362 0.19506466
0.19365692 0.19458547 0.20109388 0.19682422 0.19631547 0.1947904 0.1946408 0.1
0.19457139 0.09831046 0.19564845 0.19641858 0.19387567 0.19619708 0.1 0.20242591
0.19838294 0.2005268 0.19506861 0.19629756 0.19935295 0.19543386 0.19810629 0.1954554
0.098763 0.19456516 0.09958853 0.19548444 0.19551176 0.20246126 0.09951055 0.19498724
0.1989748 0.19463572 0.20649506 0.1 0.1966268 0.19523244 0.19537562 0.1
0.19498357 0.19583866 0.19367093 0.195089 0.19434169 0.1951374 0.19414143 0.1966254
0.1988242 0.19464727 0.0993424 0.1 0.19476163 0.19559568 0.19311306 0.19395107
0.19514328 0.19356157 0.19408017 0.19478612 0.19688882 0.1993952 0.19491555 0.19792613
0.19348244 0.19804001 0.19610922 0.19494723 0.19635141 0.1938966 0.19362698 0.20644142
0.1962068 0.1940766 0.19654502 0.19483988 0.19469893 0.19548778 0.19831792 0.19933008
0.19536139 0.19439787 0.19499564 0.1 0.19644074 0.19537058 0.19413425 0.20712447
0.19349444 0.19591424 0.19756456 0.1968748 0.09954705 0.1939293 0.09921518 0.19841915
0.19461282 0.19635224 0.19479634 0.19534315 0.19566405 0.19482501 0.20556055 0.09974226
0.19516875 0.19656312 0.19486743 0.1958533 0.1955403 0.1939506 0.19449848 0.19501698
0.19617684 0.19510415 0.20184624 0.19700867 0.19564791 0.1959933 0.1961352 0.09946537
0.19483753 0.19562002 0.19636303 0.19622727 0.1 0.194768 0.19500683 0.20172788
0.20140892 0.19467591 0.09938242 0.19534804 0.09876202 0.19422267 0.19450621 0.09888638
0.19484289 0.1950409 0.19597374 0.19490041 0.19766173 0.19563203 0.19564153 0.19540806
0.19664541 0.19583789 0.19792576 0.19409062 0.19666028 0.19550592 0.19682007 0.19418554
0.19584727 0.19581611 0.19385183 0.19492333 0.19497709 0.19607283 0.19479752 0.09908072
0.1942006 0.19388731 0.098859385 0.1 0.19502401 0.1953869 0.19408688 0.1957221
0.19481175 0.19567868 0.19620997 0.19419365 0.09878942 0.19570722 0.19535504 0.19562899
0.19638897 0.1 0.19825496 0.19396208 0.19684216 0.19672316 0.19621073 0.20225714
0.19723202 0.19531633 0.19505809 0.19522527 0.19496399 0.19614697 0.20479469 0.19324388
0.19509605 0.19533433 0.19469392 0.19533229 0.19550875 0.19513975 0.19467226 0.19402263
0.19557504 0.20177871 0.19575262 0.19595326 0.19521354 0.19518943 0.19605204 0.19402927

qf1.last_fc.weight f4 [53, 256]
00000000: 1c54 0bbd 9422 0bbd 2d3f 15bd 8c0e 10bd
00000010: df8d 12bd af31 24bd d396 acba a572 14bd
00000020: 7010 10bd a8b0 1abd 6377 08bd 191a 14bd
00000030: 935b 0dbd 3568 12bd 3124 08bd 79d3 11bd
00000040: 29e4 17bd cea8 18bd 2898 13bd 2577 15bd
00000050: 90e9 05bd 7c12 11bd 8e0b 0cbd 2ba5 11bd
00000060: d5e0 07bd 4eb1 0abd 55a5 01bd 4ec2 0abd
00000070: 409b 18bb 7420 c2ba 2bf8 01bd f017 10bd
00000080: 0f3f 1bbd fb55 1ebd 0506 0fbd 7fe2 12bd
00000090: 5892 0cbd 5f63 1bbd 98b0 22bd 4787 05bd
000000a0: 4665 1abd 4793 16bd 5182 0fbd eb78 0cbd
000000b0: c3d0 22bd ed6b 0dbd 1a4d 16bd 66a0 0dbd
000000c0: b526 f7bc f08a 03bd bbc2 1bbd 65a4 14bd
000000d0: e76a 0ebd 582b 04bd 643b 0abd 14aa 933a
000000e0: fa1e 1bbd fc30 563a 1a8e 12bd 8805 13bd
000000f0: 05ca 00bd 5663 22bd c58c 3bba d93c 21bd
00000100: 840b 1cbd 7b64 1fbd f405 1cbd b608 17bd
00000110: e3d0 1bbd 10bb 17bd b9cb 22bd e726 1ebd
00000120: fb2d 03bb e0be 14bd 0e85 2eb9 a1e7 10bd
00000130: 29f9 18bd 5131 0cbd 1113 10bb 6e7f 15bd
00000140: 7f49 13bd da34 0dbd 83ba 26bd c33f 31bb
00000150: 8c4e 21bd 6ebe 11bd eebd 17bd eaf5 2c3b
00000160: f727 0bbd 0d3c 10bd a6a6 0abd 273c 1abd
00000170: e139 18bd f0c8 14bd 729c 0bbd 9709 1ebd
00000180: db18 14bd 17ab 16bd 7bcd 003a 6fd2 1338
00000190: 8c1a 01bd ea4e 0fbd b2ee 0fbd 9bf6 0dbd
000001a0: f21a 1fbd 0ef8 0ebd fb63 08bd 32bb 03bd
000001b0: 9d28 18bd 50a6 0fbd 3afc 0cbd 2074 1fbd
000001c0: 44b7 12bd 40ed 1bbd 802f 1bbd a054 1abd
000001d0: 516b 20bd 51f7 15bd 9dda 18bd 470c 29bd
000001e0: 04d0 24bd 8de1 04bd 8b31 22bd 1da3 0bbd
000001f0: 32c4 08bd 32cd 12bd 622a 17bd 8c3b 17bd
00000200: 423e 1dbd 16a0 13bd b678 0cbd ae20 24ba
00000210: d3fa 10bd 38ee 1fbd d323 19bd 03ae 20bd
00000220: 7f5d 07bd 17f7 12bd 8a3b 1fbd 9bed 0bbd
00000230: e5f0 d6ba 07df 0dbd c28a 37bb fefd 28bd
00000240: 0bac 0bbd ccff 17bd 3eea 15bd 8f33 1bbd
00000250: 0a9f 0abd 4968 1abd 3c39 29bd a293 f4ba
00000260: f035 19bd eb3c 1ebd 8a9c 19bd 9336 0dbd
00000270: b419 0bbd 42e2 01bd 2ebf 15bd 7eaf 1dbd
00000280: e652 0fbd 8f34 0ebd 2166 18bd 4576 19bd
00000290: e66d 15bd 8341 16bd bd8e 20bd a82b 0fbb
000002a0: ef89 08bd 1a2c 0fbd ec91 0dbd da0c 14bd
000002b0: aa2f b43a b49d 11bd 85fe 10bd fa5c 1dbd
000002c0: b81e 22bd 1a0e 03bd 13b8 03bb 775a 18bd
000002d0: c748 c3b8 46ec 14bd eb05 16bd 8f9d 223a
000002e0: 26ff 16bd 08cc 08bd 0ad7 15bd f214 18bd
000002f0: 08aa 14bd 42d4 0dbd 75bd 0cbd ce17 17bd
00000300: 3474 19bd 6dd9 17bd 9f69 25bd 4a14 11bd
00000310: cab6 0ebd 1e2a 0fbd d51e 1ebd 862a 16bd
00000320: f4c6 17bd 4e5c 14bd d52d 03bd 2ced 13bd
00000330: 57f7 05bd 7410 0cbd 2401 1bbd 6c3c f93a
00000340: 6a87 0ebd c481 0fbd cd9b b63a ab17 1d3b
00000350: 0a0a 14bd df27 15bd a0ed 08bd 4bc3 13bd
00000360: 7166 06bd 4bd5 16bd f946 21bd 8846 11bd
00000370: 4b33 22bb 8f4d 0abd 7796 18bd f7cc 0bbd
00000380: b13a 1abd 38e5 433b 95aa 13bd d198 0cbd
00000390: 36e7 0cbd c39f 19bd 648b 1fbd efdc 20bd
000003a0: 6d88 10bd 5688 0cbd 7008 07bd b3cf 09bd
000003b0: fed9 10bd 2dac 1dbd 6bbf 1fbd 01ab 07bd
000003c0: bf67 07bd 5908 1cbd 8a94 10bd bf28 1ebd
000003d0: f83b 0fbd da5d 0fbd eac9 15bd 6247 0dbd
000003e0: d5c2 1ebd 36e8 1cbd e6ab 0ebd 6a7c 07bd
000003f0: 360f 15bd bc24 17bd 7f84 16bd 47c0 05bd
-0.03401576 -0.033968523 -0.036437202 -0.035170123 -0.03577983 -0.040086444 -0.0013167508 -0.036242146
-0.035171926 -0.03776613 -0.03331698 -0.0361577 -0.03451116 -0.03574391 -0.03323764 -0.035602067
-0.037082825 -0.03727036 -0.03603378 -0.03649058 -0.032693446 -0.03541802 -0.034190707 -0.035557907
-0.0331734 -0.033860497 -0.031651814 -0.03387671 -0.0023285896 -0.0014810697 -0.031730812 -0.03517908
-0.037901934 -0.038656216 -0.03491785 -0.035860535 -0.03431925 -0.037936565 -0.039719194 -0.032599714
-0.037694238 -0.03676155 -0.03503639 -0.034295004 -0.039749872 -0.034526754 -0.036694624 -0.034576796
-0.030169824 -0.032114923 -0.038027506 -0.03628959 -0.03476992 -0.0322679 -0.033748046 0.0011265897
-0.03787134 0.00081707514 -0.03578005 -0.035893947 -0.03144266 -0.039645515 -0.000715446 -0.03936467
-0.03809692 -0.038914185 -0.038091615 -0.03687354 -0.038041007 -0.03704363 -0.039745066 -0.03861132
-0.002001642 -0.036314845 -0.000166435 -0.03537715 -0.037346993 -0.03422672 -0.002198402 -0.03649848
-0.035958763 -0.03447423 -0.040705215 -0.0027046062 -0.03938155 -0.035582 -0.037046365 0.0026391693
-0.03397366 -0.03521352 -0.033850335 -0.037655022 -0.037164573 -0.03632444 -0.034084745 -0.038583364
-0.036156517 -0.036784258 0.00049134315 3.5243513e-05 -0.031519458 -0.034987368 -0.035139747 -0.03465901
-0.038844056 -0.034904532 -0.033298474 -0.032160945 -0.037148107 -0.035070717 -0.03442023 -0.038929105
-0.035819307 -0.038068056 -0.037887096 -0.03767836 -0.039164845 -0.036612812 -0.03731786 -0.041271474
-0.04023744 -0.032441664 -0.03959803 -0.034091104 -0.03339023 -0.03584022 -0.036905654 -0.036922023
-0.03838945 -0.03604134 -0.034294806 -0.0006260973 -0.035395455 -0.039045542 -0.03738768 -0.03922845
-0.03304815 -0.035880174 -0.03887514 -0.034162145 -0.0016398696 -0.034636524 -0.002800629 -0.04125785
-0.03409962 -0.03710918 -0.036600344 -0.037890967 -0.033843078 -0.03769711 -0.04131435 -0.0018659721
-0.037404954 -0.038632315 -0.037502803 -0.034475874 -0.03396006 -0.031709917 -0.036559276 -0.03849744
-0.034991167 -0.034718093 -0.037206773 -0.037466306 -0.03648176 -0.03668357 -0.039198626 -0.002184609
-0.03333467 -0.034954168 -0.03456299 -0.03614507 0.0013747115 -0.035550788 -0.03539898 -0.038418747
-0.039580077 -0.03199587 -0.002009873 -0.03719565 -9.3118804e-05 -0.03635814 -0.036626738 0.00062032876
-0.036864422 -0.033397704 -0.03658203 -0.03712935 -0.036294967 -0.034626253 -0.034360368 -0.036887936
-0.037464336 -0.037072588 -0.04038393 -0.03541974 -0.03484229 -0.034952275 -0.038603622 -0.036661647
-0.03705497 -0.03622084 -0.03202613 -0.036114857 -0.032706585 -0.03419538 -0.037842885 0.00190152
-0.03479711 -0.035035864 0.001393193 0.0023970406 -0.036142386 -0.036414977 -0.03342974 -0.036074918
-0.03281254 -0.036824506 -0.039374325 -0.035467654 -0.0024749811 -0.033765372 -0.03725287 -0.034131017
-0.03765363 0.0029891264 -0.03605135 -0.034325425 -0.034400187 -0.037505876 -0.038951293 -0.0392732
-0.035286356 -0.034309708 -0.03296703 -0.033645343 -0.035364144 -0.038494278 -0.03900091 -0.033122066
-0.033057924 -0.0380939 -0.035297908 -0.038613077 -0.0349693 -0.035001613 -0.036569513 -0.034491904
-0.038760025 -0.03830739 -0.034831904 -0.033077635 -0.03639146 -0.036900267 -0.036747452 -0.032654073

qf1.last_fc.bias f4 [53]
00000000: 797f 34bd 0cb7 87bd ed29 52bd 35dd 5abd
00000010: 9e6a a0bd d11e 3cbd fb4b 66bd 3659 63bd
00000020: 1f83 9fbd f096 21bd 6de6 92bd 5962 5fbd
00000030: 3d93 3cbd 05ff 81bd 018f 85bd 0fd4 b5bd
00000040: 5e65 6abd b173 38bd 3846 71bd aecb 7ebd
00000050: bce3 5ebd bb02 acbd 31c5 8cbd def8 0cbe
00000060: 1d4d 9cbd 822e 18bd fc0f 26bd aa5a 8ebd
00000070: 6dd5 82bd eabe 8bbd 774c 58bd 3aec 49bd
00000080: bf14 58bd f550 a7bd f8ef 83bd 1f9c 4dbd
00000090: bcc7 53bd 429d 7abd c80c 21bd c4ca 82bd
000000a0: 44fc 98bd b1b1 e3bd eb2b adbd 3596 96bd
000000b0: 7a58 86bd 77c3 3ebd 9e0f 70bd cbba 97bd
000000c0: 4708 8ebd 9a1a 66bd bd0a c7bd 689c e3bd
000000d0: e8e2 67bd
-0.04406688 -0.0662671 -0.051309515 -0.053433616 -0.078328356 -0.045927826 -0.056224804 -0.055505
-0.07788681 -0.039450586 -0.071728565 -0.05453715 -0.046038855 -0.06347469 -0.065214165 -0.088783376
-0.057225578 -0.045032207 -0.058904856 -0.062205963 -0.054416403 -0.08398958 -0.06873549 -0.1376681
-0.07631896 -0.03715373 -0.040542588 -0.069508865 -0.06388364 -0.06823523 -0.052807298 -0.04929755
-0.05275416 -0.08169738 -0.06442255 -0.050197717 -0.051704153 -0.06118513 -0.03931883 -0.06386331
-0.07469991 -0.11117876 -0.08455642 -0.073528685 -0.06559844 -0.04657313 -0.058608644 -0.07408675
-0.069351725 -0.056177713 -0.09718845 -0.111138165 -0.05661288

qf1_target.fc0.weight f4 [256, 78]
00000000: 2c14 d7bc fa4f 123d 3688 aa3d 207e fe3c
00000010: 7513 35b8 48f5 853c 667e a6bc d0d8 55bd
00000020: 0bdc 78bd 08e5 253d 2c46 a8bc 0623 49bd
00000030: 8ca8 e13b 0866 dbbb 6a5f 1f3d b412 d1bc
00000040: 514f 6bbd 2c1a c2bc 0891 f73c 0861 473d
00000050: 2a9b 2fbd 0cc6 4abd 3ea4 403d f664 2dbd
00000060: 181f 873c 5431 c3bc 8fe5 0f3c 00ba 193a
00000070: 5ba6 74bd 1d80 68bc cfa9 ca3c 344c c53c
00000080: a5ca 9cbc 3c20 6bbd 1ab8 cebc 25a3 103d
00000090: 1baf 30bc a23f 1d3d 9705 2fbd 9f8c 08bd
000000a0: ddd9 8d3c 8edf 04bd 315c ca3b 0155 afba
000000b0: 0a96 9cbc 4452 b5bc f309 763c c0e8 473b
000000c0: 7e8e 383d 78a8 663d 1366 373d 9844 1c3c
000000d0: d0f7 c5bb 13b0 cd3b f455 45bd 974a ddbc
000000e0: 68e7 69bc 5841 193d 8199 ae3c f2cf cdbc
000000f0: 1a46 2a3d 91a7 9fbc 4fbc 7e3c b8fa 00bc
00000100: 2285 f5bb e680 3c3d 18e3 b13d 8e2e 0b3d
00000110: 60d8 ca3d 3c26 00bd 001b 0ebd fa98 5dbd
00000120: b684 1e3d 7c4e 423d ec5f c53d 13d6 bfbb
00000130: 9188 d53d 4714 153d 45d9 e53c e4b9 67bd
00000140: 17b4 4e3d 8ecd 563d f67e 433d 77e0 483d
00000150: b294 cd3c 807c b3bc 9ef2 57bd c254 54bc
00000160: 31b3 643d 42d7 0cbd 4861 c5bb 733d a33c
00000170: 4663 97bc d1d9 37bd f09b 343c 2cc1 733d
00000180: 6c67 ee3c 589a 0f3c 0a29 123d 7227 1abd
00000190: 4209 763d b6f3 5dbd 3a57 63bd 009c 07bc
000001a0: 4be2 8d3b 5cd2 593d 52aa a1ba eec9 523d
000001b0: 0740 7d3d ff5a f0bc 9d4c 3c3d 42c6 403d
000001c0: 64ea 3cbd d077 103b 5faa c2bb 9fcb 43bd
000001d0: 8a16 193d 7b1e 913d 0283 3c3c e27b 673d
000001e0: 6a9e 883d 6c4f 893c ba09 37bd 1c77 73bd
000001f0: 8e2a f63c 8059 59ba ce6b 03bd 8827 05bd
00000200: aae9 0c3e f0f9 2fbc eedb 79bc d36b 5f3c
00000210: 727e 17bc 5b7c 5d3d 3586 a43c 5aa3 713d
00000220: cc92 573d 4163 ecbb 681f 82bd 54af 523d
00000230: a976 d2bc fa3c 0dbd 53d8 573d cb04 8b3d
00000240: c559 443d 2803 e63d e6b5 c03d d89c 34bd
00000250: fedb 553d fead 53bd 2804 3a3c 8084 433a
00000260: 6af8 c4bb 62cb f03c 53ac a43d 40be c63d
00000270: 28c6 4dbd 28fd 1d3d 95c6 b53d c001 d7bc
00000280: cee6 7f3d e850 59bc 3db9 0d3d 4040 c33b
00000290: a4dd c83c 6461 7f3c 6a29 aabc 4029 b13c
000002a0: c4bf 7bbd c53a 2dbd 8a1c 27bc fb7d 863d
000002b0: d8c2 46bd f6a5 41bd 1e57 f93c d46a 1abd
000002c0: 7c49 78bd e86f ffbc 8ffc 923d 04bb 7ebd
000002d0: 60cc d93c 9431 293d 38f3 943d 7c02 813c
000002e0: 2fce 053c 161b c13c 41af 623c 9707 013c
000002f0: 4332 e93c 8888 b33c 2299 583d 682f 313d
00000300: ab0c c03c d70b 68bd 95b7 f13b af4e 4338
00000310: 5651 c0bb c0a0 86bc 80af c03a 805b 5c3c
00000320: 00c0 18bd 0c80 1b3d b375 3dbd a814 383c
00000330: 0330 6f3d 4a17 1d3d b63d a83d be76 4abd
00000340: 3217 793d 2e5a bdbc 666a 8dbc 73ad 943c
00000350: 800d fcba 02ac 583d bcea 27bd d65f 6e3c
00000360: 0925 5cbd 0711 693c a270 9dbc 5a97 49bd
00000370: cc12 05bd e0e5 9d3d 1025 803d 452a 773d
00000380: 066e c33d 60f4 c0bc a4ef 613d e857 143d
00000390: 6d01 9f3d 0419 7fbd 05bc 67bc 4f8d 783c
000003a0: 40d1 db3d 7cbe 3f3b 08d9 fcbc c7e9 cebc
000003b0: 3567 903d 4ce0 8f3c 8db6 15bc 20fd 3dbd
000003c0: 8b16 773c adcc 6ebd 1872 6ebc 2900 40bd
000003d0: 3894 173d 23c0 24bd 9db7 753d 1216 fdbb
000003e0: 6100 323d b29c 0dbc 00c2 653d 69e0 27bd
000003f0: 69b7 02bd 0c4e 5dbd 0075 57ba 4cfa c8bc
-0.026254736 0.035720803 0.083267614 0.031066 -4.3171884e-05 0.01635231 -0.020323943 -0.05220872
-0.060756724 0.040501624 -0.020541273 -0.049105667 0.0068865474 -0.0066955127 0.038909353 -0.025521614
-0.05744869 -0.02369412 0.030220523 0.04867652 -0.042872585 -0.04950528 0.047031634 -0.042332612
0.016494319 -0.023827232 0.008782758 0.0005864203 -0.05972896 -0.014190701 0.024739174 0.024084188
-0.019139597 -0.057403788 -0.02523427 0.035311837 -0.010783936 0.038390763 -0.04272994 -0.03333723
0.0173158 -0.03243976 0.006175541 -0.0013376774 -0.019114513 -0.022133954 0.0150170205 0.003050372
0.045057766 0.056313008 0.04477508 0.009537838 -0.0060415044 0.006277093 -0.048177674 -0.027013106
-0.014276363 0.037415832 0.02131343 -0.02512357 0.04157076 -0.019489082 0.015547826 -0.007872276
-0.0074926773 0.046021365 0.08685893 0.033979945 0.099045515 -0.031286463 -0.034693718 -0.054100968
0.03870078 0.04743813 0.09637436 -0.005854377 0.104264386 0.03639629 0.028057704 -0.056573763
0.050464716 0.052442126 0.0477285 0.04904219 0.025095318 -0.021909952 -0.052721612 -0.012959661
0.055834953 -0.034384973 -0.0060235597 0.019926762 -0.018479954 -0.04488546 0.0110235065 0.059510395
0.02910205 0.008764826 0.03568367 -0.037635274 0.060067423 -0.0541875 -0.055503108 -0.008276939
0.0043299547 0.05317913 -0.0012334085 0.051462106 0.06182864 -0.029340265 0.0459715 0.047064073
-0.04612197 0.002204407 -0.00594072 -0.04780161 0.03737501 0.07085892 0.011505844 0.05651463
0.0667084 0.016761504 -0.04468701 -0.059439763 0.030049589 -0.00082912296 -0.032085232 -0.032508403
0.13761011 -0.010740742 -0.015250189 0.013636547 -0.0092464555 0.054073673 0.020083526 0.058993675
0.05263023 -0.0072139804 -0.063536465 0.051436737 -0.025691347 -0.03448198 0.052696537 0.067880236
0.047937173 0.11231071 0.094096944 -0.04409489 0.052211754 -0.051679604 0.01135353 0.00074584037
-0.0060110586 0.029393855 0.08040681 0.09704256 -0.050237805 0.038571507 0.08875767 -0.026245952
0.062475972 -0.013263918 0.034600485 0.005958587 0.024519749 0.015587185 -0.0207717 0.021626115
-0.06146218 -0.042292375 -0.010199675 0.065669976 -0.04852566 -0.047277413 0.030437049 -0.037699535
-0.060616955 -0.03118129 0.07177078 -0.06219007 0.026586711 0.041307047 0.07272953 0.015748255
0.008166834 0.023572486 0.013835729 0.007875345 0.02846635 0.02191569 0.052880414 0.0432581
0.02344354 -0.056651916 0.007376621 4.6564903e-05 -0.005869071 -0.016434073 0.001470074 0.01344955
-0.03729248 0.037963912 -0.046254825 0.011235394 0.058395397 0.03835229 0.082148954 -0.049429648
0.060813136 -0.02311429 -0.017262649 0.018149113 -0.0019230098 0.052898414 -0.040995345 0.014549216
-0.053746257 0.014225251 -0.019218747 -0.049216606 -0.03248863 0.07709861 0.06257069 0.060343046
0.0954247 -0.023554027 0.05516018 0.036216646 0.07763944 -0.062279716 -0.014143948 0.015170409
0.10733271 0.0029257825 -0.030865207 -0.025257958 0.07050935 0.017563008 -0.009137762 -0.046383977
0.015081058 -0.058300663 -0.014553569 -0.046875153 0.037006587 -0.0402223 0.05998956 -0.0077235783
0.043457393 -0.008643316 0.056093216 -0.0409855 -0.031913195 -0.05402951 -0.00082190335 -0.024533413

qf1_target.fc0.bias f4 [256]
00000000: a166 4e3e a667 4d3e 1167 503e b364 4e3e
00000010: be2c cb3d 2f25 4c3e 8db5 b43d 8766 4d3e
00000020: 245f 4d3e afc7 4b3e 90f8 4d3e 0c8a 583e
00000030: f77a 4e3e a820 503e 44c2 4c3e 19cc 593e
00000040: efcb 4d3e a5d6 4f3e 3869 4d3e 6333 4e3e
00000050: cdcc cc3d 7223 4d3e b832 4d3e d0e8 4d3e
00000060: 1dbd 523e aa11 483e 70a9 4f3e 8c67 4c3e
00000070: 341b 4d3e 8470 4c3e 3b2d 4c3e 928b 4d3e
00000080: 4b9a 4d3e d595 4d3e 5204 c43d aafa 4b3e
00000090: 9791 4f3e 8781 5a3e 8de5 4e3e 43c4 4c3e
000000a0: 9b30 4e3e 6420 4e3e 2f6b 503e 5eaf 4e3e
000000b0: 9ad8 4b3e 7444 4c3e 8062 4f3e 9b9d 4a3e
000000c0: d1c9 493e 308f 4e3e c1d8 4b3e 2a19 4d3e
000000d0: 7a90 513e bd9f 4d3e 0378 493e 2340 4f3e
000000e0: 5141 523e 003b 4a3e 67e4 4d3e fb6a 4d3e
000000f0: cdcc cc3d d6e5 4b3e 257b 533e ba2e 4e3e
00000100: 30f6 4a3e 20bd 4c3e 27a1 533e 9e87 4e3e
00000110: 0579 4c3e 18fd 4c3e cdcc cc3d b24c c63d
00000120: 79fe 4c3e 3587 4c3e c2f9 4e3e b878 4d3e
00000130: 0db8 b33d f76d 4b3e 5c45 4f3e 13a5 4c3e
00000140: c244 4d3e 7d58 2d3e 51f3 4d3e 96e7 4c3e
00000150: b907 523e 7169 4f3e 0bf3 4a3e 2da9 503e
00000160: fd02 5a3e cdcc cc3d 7222 4e3e 41f7 4d3e
00000170: b720 4e3e 2783 493e 080f 4d3e e1ca 4e3e
00000180: 4a55 c63d c9b9 513e 4ea1 503e eebd 4d3e
00000190: 5d4a 4d3e a8e5 4d3e 55f7 4e3e ab42 4d3e
000001a0: f48a 4b3e e1c1 503e 3b13 4c3e 7b38 4e3e
000001b0: 1ae6 493e d696 4d3e ea4b c63d 4a3d 513e
000001c0: ff85 4a3e 83ad 523e 3286 4d3e cdcc cc3d
000001d0: b806 4d3e 5cca 4e3e 7d9b 513e 2719 4f3e
000001e0: 5cda 4c3e 3705 4b3e 82d0 4b3e 25cc 4d3e
000001f0: 9830 4b3e cdcc cc3d d6df 4f3e 2ef3 5a3e
00000200: 4e4c c63d 90e6 4d3e e1b4 4f3e a494 4e3e
00000210: fbea 4c3e 88bb 4b3e feb4 4f3e 62db 4e3e
00000220: f5ef 523e e1b6 533e 7604 c33d ce85 4e3e
00000230: a889 493e df59 513e cc7b 533e f6ff 513e
00000240: 6b20 513e 2ecd 513e b7b7 4d3e 7819 4d3e
00000250: 6687 4f3e 9915 4d3e 5a99 523e fe5a 4c3e
00000260: 87f7 4b3e 7fe5 4b3e 76ff 503e cdcc cc3d
00000270: cdc0 493e 1392 4d3e 96e7 4c3e 9287 4d3e
00000280: 22fe 4d3e 6b36 4e3e 3985 4d3e 34ef 4c3e
00000290: 260d 4a3e 8fca 4b3e 0688 4b3e 06d0 4d3e
000002a0: da2f 4f3e 6fda 553e da0d 483e edea 4e3e
000002b0: 7878 503e 79a4 4d3e fbae 4a3e 7260 4a3e
000002c0: 239a 4d3e ffa7 4e3e e04b 533e c845 583e
000002d0: ba26 4c3e ceb2 4d3e 4300 4f3e 0805 4d3e
000002e0: 36e2 4c3e 2a62 503e 5b38 4e3e f8ee 4c3e
000002f0: 83eb 4e3e 51ae 4d3e 00c5 513e 117e 4c3e
00000300: 9582 4e3e b79a 543e 9579 4c3e a787 4c3e
00000310: e569 513e 34b1 493e 8a23 4f3e fc66 4c3e
00000320: a450 4b3e 4809 4f3e b390 513e 000e 4f3e
00000330: 2bd7 4d3e e23e 513e ba53 503e 208d 4e3e
00000340: a430 4d3e 345a 4d3e 774d 4f3e 4ab6 513e
00000350: 9c84 233e 33cc 4f3e d397 4b3e 9682 4a3e
00000360: e920 533e 6fac 4e3e f041 503e 1532 4d3e
00000370: b2d7 4b3e 2e98 4d3e 9c40 4f3e 45c2 4e3e
00000380: ea68 4f3e 1430 4e3e 6c5e 4c3e 2b7c 4e3e
00000390: ca63 563e 21ce 4d3e d50e 4d3e e518 4c3e
000003a0: 8205 4f3e 91e4 a23e 7799 4c3e 911e 4d3e
000003b0: 9803 4e3e 78c1 4d3e d894 503e f71e 513e
000003c0: 7a12 4e3e 73c9 503e 3d14 4f3e 1a11 4f3e
000003d0: 8743 4d3e 6f83 4e3e 631a 4b3e 60d9 4d3e
000003e0: 6a68 4d3e feef 4c3e cdcc cc3d cdcc cc3d
000003f0: d988 4d3e 3847 4f3e 77e1 4d3e 3578 4b3e
0.20156337 0.2005907 0.20351817 0.20155601 0.09920643 0.1993606 0.088236906 0.20058642
0.20055825 0.19900392 0.2011435 0.2114641 0.20164095 0.20324957 0.19995981 0.21269263
0.20097326 0.20296724 0.20059669 0.2013679 0.1 0.20033053 0.20038879 0.20108342
0.20579953 0.19537988 0.20279479 0.19961375 0.20029908 0.19964796 0.19939129 0.20072773
0.2007839 0.20076688 0.095711365 0.1991984 0.20270382 0.21338473 0.20204754 0.19996743
0.20135729 0.20129544 0.20353387 0.20184085 0.19906846 0.19947988 0.20252419 0.19786684
0.19705893 0.20171809 0.19906904 0.2002913 0.2046527 0.20080467 0.19674687 0.2023931
0.20532729 0.19749069 0.2010666 0.20060341 0.1 0.19911894 0.20652445 0.20135012
0.19820476 0.1999402 0.20666943 0.20168921 0.1996804 0.20018423 0.1 0.09682597
0.20018949 0.19973452 0.20212463 0.20065582 0.08775339 0.19866167 0.20241302 0.19984846
0.2004576 0.16928287 0.20112349 0.20010218 0.20510758 0.20255066 0.19819276 0.20377035
0.21290202 0.1 0.20130327 0.20113851 0.20129667 0.19678937 0.20025265 0.2019458
0.09684236 0.20481028 0.20374033 0.20091984 0.20047899 0.20107138 0.20211537 0.20044963
0.19877225 0.20386459 0.19929211 0.20138733 0.19716683 0.2007707 0.09682448 0.20433536
0.19777678 0.20574002 0.20070723 0.1 0.20022094 0.20194381 0.2046947 0.20224439
0.20005172 0.19826208 0.19903758 0.20097406 0.19842756 0.1 0.2030023 0.21381828
0.09682523 0.20107484 0.20283844 0.2017389 0.20011513 0.19895756 0.20283887 0.20200875
0.20599349 0.20675232 0.09522335 0.2016823 0.19681418 0.2044444 0.20652694 0.20507798
0.20422523 0.20488426 0.20089613 0.20029247 0.20266494 0.2002777 0.20566311 0.19956586
0.19918643 0.19911765 0.2040995 0.1 0.19702454 0.20075254 0.20010218 0.20071247
0.20116475 0.20137946 0.20070352 0.20013124 0.19731578 0.19901489 0.19876108 0.20098886
0.20233098 0.20884107 0.19536534 0.20206805 0.20358455 0.20082273 0.19793312 0.19763353
0.2007833 0.20181273 0.20634413 0.2112037 0.19936648 0.2008774 0.20214944 0.2002145
0.20008168 0.20349947 0.20138685 0.20013034 0.20207028 0.20086028 0.20485306 0.19969966
0.20167 0.20762144 0.19968255 0.19973622 0.20450552 0.19696504 0.20228401 0.1996116
0.1985498 0.20218384 0.20465355 0.20220184 0.20101611 0.20434144 0.20344439 0.20171022
0.20038086 0.20053941 0.20244394 0.20479694 0.15968555 0.2029274 0.19882135 0.19776377
0.20618023 0.20182966 0.20337653 0.20038636 0.199065 0.20077583 0.2023949 0.20191295
0.20254865 0.20135528 0.19957894 0.20164554 0.20936504 0.20098163 0.20025189 0.19931372
0.20216945 0.31815007 0.19980417 0.20031191 0.20118558 0.20093334 0.2036928 0.20421968
0.20124236 0.20389347 0.20222564 0.20221367 0.20045291 0.20167325 0.19834284 0.20102453
0.20059362 0.20013425 0.1 0.1 0.20071734 0.20242012 0.2010554 0.19870074
