TFPORL-main/pomdp-discrete/logs_results/network-defender/final/mlp/seed-2/save/agent_0015000_perf34.970.pt (torch, 741810 bytes, 20 tensors)

critic.observ_embedder.fc.weight f4 [64, 15]
0.19318575 -0.073445365 0.08176375 -0.04218783 0.24922465 0.030163974 -0.06666581 -0.20755818
0.16653533 -0.25254264 0.16885416 0.10119939 0.08557506 0.1716192 -0.07122582 0.04782685
0.23313157 -0.1332472 -0.11560504 0.27325028 -0.28039297 0.1262661 -0.088774666 0.1533893
-0.025430452 0.07313474 -0.037636302 -0.07656139 -0.18939182 -0.13270234 -0.22578916 -0.21861602
-0.0024429997 0.40451238 0.16352308 0.013433594 0.16890629 -0.10809801 -0.13239217 -0.111178264
-0.111780286 -0.032227244 0.121863805 0.012727653 0.038716286 0.08006534 -0.010987633 -0.04255696
0.0077394126 0.027177526 0.24109744 0.082792304 0.25405666 0.11648726 -0.13211621 0.06769336
-0.095716804 0.10322264 -0.049062412 0.300979 0.08954477 -0.20521791 -0.0043403 0.30290788
0.27551752 -0.014244949 0.11891967 -0.29660973 -0.11367441 0.2055605 -0.29323003 0.17511347
-0.09141288 0.044152457 -0.06597186 0.02320957 -0.012341138 -0.18204205 0.06393032 -0.10476602
0.50344884 -0.034188703 -0.15862513 0.108225055 0.07375693 -0.17049287 -0.0576556 0.19819683
-0.12197084 -0.028309204 -0.057495277 -0.09974957 0.22044574 0.09732502 0.22841558 0.17168316
-0.20929736 -0.17013791 -0.12186117 -0.0054098554 0.009560582 0.11578006 -0.17845686 0.2046725
0.29246214 0.12222519 0.2646309 0.296735 -0.18215859 0.03146262 0.33519945 -0.2365862
-0.14532538 -0.026271088 -0.17184116 -0.044007078 -0.010828551 0.3655533 -0.05307181 0.1168895
0.29849687 0.1221746 -0.07801232 0.27907297 0.27472466 -0.12783873 -0.094445504 0.30231902
-0.10652205 -0.18251137 -0.17582536 0.0064717093 -0.12475711 -0.25688496 -0.048335873 0.16387185
-0.0103156995 -0.16212568 0.2569774 -0.09709555 -0.17409462 -0.019129245 0.103295095 0.1480435
0.039767943 0.21889815 -0.13271755 0.2607317 0.27044588 -0.2067589 0.04242094 0.1325312
-0.09628766 -0.06341852 -0.039788175 -0.12844901 -0.19804879 0.028999623 0.54044306 -0.019813806
-0.18290071 0.06897761 0.053779215 -0.047381368 0.042936403 0.24438742 0.019777644 -0.20595996
-0.11286984 -0.1186723 -0.19604713 0.15819459 0.12608768 0.0092149405 -0.018965436 -0.031145183
-0.33096072 -0.06535979 0.12833123 0.2532911 -0.15172735 -0.09416465 0.12663414 0.04174328
-0.30705455 -0.10200457 -0.11570335 0.11922439 0.20215991 0.15537299 0.011878999 -0.22731349
0.21183567 0.11129732 -0.08732908 -0.0698493 0.27954963 -0.058543578 0.16667117 0.21703193
-0.18114398 -0.09413392 -0.28555483 -0.20482682 0.008491582 0.16900747 0.0018107332 -0.11862584
0.06789345 -0.078500435 -0.21776018 -0.07167859 0.13523889 -0.24964273 -0.03539952 -0.047134507
0.041324 -0.050450806 0.03156311 0.33730513 0.05475018 -0.14302544 0.31991446 0.37406093
-0.00965625 -0.048213888 -0.13650115 0.21062557 0.1321514 -0.15042602 0.041375097 0.024668993
0.050093614 0.074126974 -0.28273505 -0.042384543 -0.0939992 -0.053759016 -0.157358 -0.23187554
-0.12381526 0.051104307 -0.18121281 -0.07607826 0.49084806 0.080264546 0.08751489 -0.09202021
-0.074430756 -0.19513121 -0.24421747 0.06569459 0.1652204 -0.1289883 -0.08448885 0.21484645
00000000: 7cd2 453e 866a 96bd c173 a73d 25cd 2cbd
00000010: bf34 7f3e 701a f73c 1688 88bd 228a 54be
00000020: 3d88 2a3e 454d 81be 1be8 2c3e a041 cf3d
00000030: fa41 af3d f2bc 2f3e d8de 91bd 16e6 433d
00000040: 0bba 6e3e f471 08be 56c2 ecbd 76e7 8b3e
00000050: ab8f 8fbe e74b 013e 7ecf b5bd 1612 1d3e
00000060: 8653 d0bc abc7 953d 8628 1abd 38cc 9cbd
00000070: eeef 41be 1fe3 07be 4635 67be e1dc 5fbe
00000080: bc1a 20bb 3f1c cf3e 9872 273e 9418 5c3c
00000090: c5f5 2c3e 7d62 ddbd d091 07be 6eb1 e3bd
000000a0: 10ed e4bd b700 04bd bb93 f93d a587 503c
000000b0: f894 1e3d 4cf9 a33d 7905 34bc 3550 2ebd
000000c0: e69a fd3b 67a3 de3c 3fe2 763e 038f a93d
000000d0: b713 823e df90 ee3d 7949 07be d1a2 8a3d
000000e0: 2c07 c4bd 6466 d33d abf5 48bd eb19 9a3e
000000f0: 4063 b73d a524 52be 1339 8ebb be16 9b3e
00000100: a210 8d3e a663 69bc 288c f33d 3bdd 97be
00000110: 21ce e8bd 747e 523e 3f22 96be f250 333e
00000120: ad36 bbbd 35d9 343d 411c 87bd ff21 be3c
00000130: 7c32 4abc 3b69 3abe e6ed 823d 918f d6bd
00000140: 06e2 003f 7409 0cbd a06e 22be 19a5 dd3d
00000150: e00d 973d af95 2ebe 4728 6cbd 1cf4 4a3e
00000160: d9cb f9bd b4e8 e7bc 2b80 6bbd 8149 ccbd
00000170: 87bc 613e 5752 c73d c6e5 693e b6cd 2f3e
00000180: 0c52 56be a238 2ebe 5992 f9bd 2845 b1bb
00000190: fda3 1c3c 191e ed3d 65bd 36be ab95 513e
000001a0: 99bd 953e 3351 fa3d b47d 873e a6ed 973e
000001b0: c887 3abe f3de 003d 439f ab3e a743 72be
000001c0: 2dd0 14be 7736 d7bc 21f7 2fbe c440 34bd
000001d0: 3c6a 31bc cd29 bb3e d461 59bd c363 ef3d
000001e0: 95d4 983e ad36 fa3d ecc4 9fbd a7e2 8e3e
000001f0: b6a8 8c3e 28e8 02be a56c c1bd 8fc9 9a3e
00000200: 3c28 dabd 43e4 3abe 900b 34be a210 d43b
00000210: a880 ffbd 6d86 83be d6fb 45bd 06ce 273e
00000220: 2e03 29bc 4604 26be 8b92 833e 08da c6bd
00000230: dc45 32be efb4 9cbc 618c d33d b798 173e
00000240: b6e3 223d d626 603e 1ce7 07be a07e 853e
00000250: e277 8a3e 9bb8 53be 94c1 2d3d 42b6 073e
00000260: 7732 c5bd 92e1 81bd edf8 22bd 2388 03be
00000270: 4dcd 4abe 9e90 ed3c 7a5a 0a3f 9050 a2bc
00000280: 534a 3bbe 2244 8d3d 9847 5c3d f712 42bd
00000290: 15de 2f3d b240 7a3e ba04 a23c 2be7 52be
000002a0: 4d28 e7bd 760a f3bd 94c0 48be c3fd 213e
000002b0: 211d 013e 43fa 163c 675d 9bbc 2f24 ffbc
000002c0: af73 a9be 5bdb 85bd 4369 033e 5faf 813e
000002d0: 6a5e 1bbe 65d9 c0bd 61ac 013e 00fb 2a3d
000002e0: 4136 9dbe c6e7 d0bd e1f5 ecbd eb2b f43d
000002f0: 0203 4f3e 191a 1f3e 22a0 423c dec4 68be
00000300: 73eb 583e d9ef e33d 97d9 b2bd 260d 8fbd
00000310: 2121 8f3e 64cb 6fbd d9ab 2a3e 9e3d 5e3e
00000320: cf7d 39be 49c9 c0bd 3e34 92be 1fbe 51be
00000330: 4720 0b3c 4b10 2d3e 2056 ed3a 1bf2 f2bd
00000340: b90b 8b3d d6c4 a0bd 86fc 5ebe 39cc 92bd
00000350: 107c 0a3e 58a2 7fbe 16ff 10bd 1d10 41bd
00000360: 5b43 293d 81a5 4ebd 5248 013d 42b3 ac3e
00000370: ba41 603d 4375 12be d4cb a33e ea84 bf3e
00000380: 3f35 1ebc ed7b 45bd f5c6 0bbe 3bae 573e
00000390: b252 073e 4709 1abe ef78 293d a116 ca3c
000003a0: f62e 4d3d e2cf 973d a6c2 90be 6a9b 2dbd
000003b0: a782 c0bd 6a32 5cbd 7522 21be c870 6dbe
000003c0: db92 fdbd c052 513d da8f 39be ebce 9bbd
000003d0: 7050 fb3e bd61 a43d 023b b33d 1875 bcbd
000003e0: 276f 98bd 7ad0 47be 2514 7abe e38a 863d
000003f0: 892f 293e 8215 04be 7d08 adbd b500 5c3e

critic.observ_embedder.fc.bias f4 [64]
-0.07634743 0.3715837 -0.09606616 -0.3668042 0.31793854 -0.10521773 -0.026592517 -0.13762875
-0.05964044 -0.28323245 -0.11855474 0.010062533 0.35758722 -0.054637708 0.06724785 -0.1745968
0.03541852 -0.12596118 -0.05753571 -0.078955956 -0.07682616 0.011297024 0.15458113 -0.015121542
0.30590427 0.37231418 -0.34051952 0.03148231 -0.21882844 0.19914338 -0.15467876 0.06044306
-0.13180608 -0.24793503 0.2879796 -0.24678518 -0.022717902 0.17379504 -0.009277036 -0.27935243
-0.14701095 -0.19285893 -0.14031103 -0.06792471 0.29968524 -0.10234515 0.003570804 -0.16245152
0.15691555 0.6749898 0.009323434 -0.2513723 -0.359091 -0.1059825 0.305624 -0.08003856
-0.24526872 0.073296115 0.03173234 0.27287838 0.22948834 0.14141385 -0.3139248 -0.053558294
00000000: 0b5c 9cbd 3840 be3e 56be c4bd c3cd bbbe
00000010: d7c8 a23e 657c d7bd 8dd8 d9bc 8dee 0cbe
00000020: 8949 74bd d803 91be d4cc f2bd 53dd 243c
00000030: ac15 b73e cacb 5fbd 3eb9 893d 81c9 32be
00000040: 0313 113d f8fb 00be 91aa 6bbd a9b3 a1bd
00000050: 0957 9dbd 2717 393c 844a 1e3e 58c0 77bc
00000060: 7c9f 9c3e f79f be3e 9358 aebe 98f3 003d
00000070: 9014 60be 3eec 4b3e 1c64 1ebe 2493 773d
00000080: 2cf8 06be aee2 7dbe 1072 933e 41b5 7cbe
00000090: e51a babc 54f7 313e b6fe 17bc 4807 8fbe
000000a0: 0a8a 16be d07c 45be b2ad 0fbe 1c1c 8bbd
000000b0: 5870 993e 569a d1bd 2604 6a3b b159 26be
000000c0: 78ae 203e 22cc 2c3f 51c1 183c dfb3 80be
000000d0: c7da b7be 5a0d d9bd c07a 9c3e 42eb a3bd
000000e0: b927 7bbe 461c 963d c5f9 013d b7b6 8b3e
000000f0: fefe 6a3e cbce 103e c0ba a0be f15f 5bbd

critic.seq_model.model.0.weight f4 [64, 64]
0.0752345 0.03047388 -0.08822816 0.0511647 -0.03553228 0.20584548 0.031762615 0.18069948
-0.036101088 -0.034941263 0.124269724 0.18389569 -0.012193564 -0.025174897 0.0023770027 -0.09444008
0.2883429 -0.029200215 0.15989622 0.0193246 -0.1574136 -0.0070677944 -0.10910184 0.042347778
0.08591937 0.01298495 0.015412151 0.14530262 0.0561618 0.13217165 0.1814917 -0.041349668
-0.07038572 0.04072184 0.087588765 -0.12057914 0.046345074 0.13668409 0.04679464 -0.044491544
0.16902675 -0.15347718 0.12374286 -0.058754805 -0.050192244 0.031038243 -0.013763609 0.25454426
-0.12444283 -0.26705116 -0.17127098 -0.28121045 -0.057268895 -0.1964947 0.021608902 -0.14732298
0.17372747 -0.32081348 0.18988359 0.18148948 0.21310085 -0.036283083 -0.06584557 0.17675066
-0.0013683243 0.012089546 0.016670424 -0.1674843 0.25944012 -0.068792135 0.01869967 -0.18710814
0.017699525 -0.014468193 -0.09897752 -0.04173831 -0.06889659 0.0017837086 -0.050005753 -0.103583254
0.04866653 -0.060507234 -0.056522373 0.09818994 -0.18359883 0.093190655 -0.06640009 -0.052059516
-0.051384464 0.26414043 0.1305438 -0.03321324 -0.06812006 0.038040176 0.10633234 -0.077499345
-0.100313865 0.11064149 -0.12609634 -0.049226135 0.06784675 0.1470624 -0.20398617 -0.025338164
-0.1570017 0.03737041 0.0018310547 -0.13346843 0.06201021 -0.0068126097 0.01861797 -0.019932665
0.03820869 0.09762117 0.21703571 -0.11752233 -0.1909612 0.11304652 0.061293233 -0.055781104
0.00498759 0.38863277 -0.0003169027 0.050401278 0.14243057 0.10974146 -0.03413832 0.044211663
0.012720545 0.016934952 0.22464485 -0.0028731858 0.2031224 0.2501282 0.10481445 0.17807879
0.026560793 -0.013849611 0.32780263 0.056454435 -0.033362966 0.048333418 -0.10515952 -0.1378449
0.27867398 0.19686276 -0.043737836 0.14228511 0.18773983 0.06419197 -0.032365214 -0.0025401125
-0.040157154 -0.061596636 -0.013286569 0.304465 0.23714991 0.08420168 -0.0015001143 0.025057472
0.24618159 0.01892385 0.32647339 -0.22846045 -0.13399406 0.015366226 0.105860904 -0.0077450788
0.21385318 -0.03635349 -0.11163589 -0.014603173 -0.07288299 0.18683118 -0.048903387 -0.07157021
0.00832672 0.09180407 -0.18610257 -0.002222041 0.024239281 -0.15125358 -0.051595204 0.17622784
0.051913667 0.36168146 -0.0558771 -0.017374475 -0.0751905 -0.2121103 -0.07626005 0.21217133
-0.06662117 -0.017412812 0.11312464 -0.06907509 -0.10824363 -0.10894509 0.114886105 -0.056173414
0.09195228 -0.02899398 0.020629615 -0.0146193355 -0.11009599 -0.105272755 -0.09269546 0.047080413
-0.100817114 0.10260858 -0.08514704 0.046954557 0.0008074343 0.09773448 -0.0788624 0.0635788
0.03244795 -0.06451805 0.02268508 0.06363879 0.021879211 -0.08952357 0.11028637 -0.0042495877
-0.048529983 0.1154021 0.04769376 -0.047813967 -0.09548333 0.11350143 0.06316498 -0.05606948
0.031511724 0.079609826 0.019047052 0.019303694 -0.097841054 -0.11964479 -0.006707534 -0.089339286
-0.1137158 -0.0032053739 -0.059552565 0.07285109 -0.10242851 -0.058560133 -0.089652196 0.006184593
0.0647382 0.07658635 0.040751234 -0.1194686 -0.0687564 -0.041898355 0.0063310117 -0.034783423
00000000: 8c14 9a3d 5ca4 f93c f7b0 b4bd 1492 513d
00000010: 4c8a 11bd 28c9 523e 8419 023d 4909 393e
00000020: bcde 13bd 921e 0fbd 2081 fe3d 274f 3c3e
00000030: 84c7 47bc 963b cebc 7dc7 1b3b cd69 c1bd
00000040: aea1 933e 4a35 efbc d6bb 233e a04e 9e3c
00000050: 0831 21be f598 e7bb c970 dfbd dd74 2d3d
00000060: 7ff6 af3d d4be 543c 3f83 7c3c 36ca 143e
00000070: ea09 663d 0158 073e f6d8 393e 455e 29bd
00000080: 6326 90bd f2cb 263d bd61 b33d 32f2 f6bd
00000090: 55d4 3d3d eaf6 0b3e bdab 3f3d c43c 36bd
000000a0: 5915 2d3e 1f29 1dbe e66c fd3d e1a8 70bd
000000b0: 6296 4dbd ea43 fe3c c380 61bc a053 823e
000000c0: e2db febd eeba 88be a961 2fbe d1fa 8fbe
000000d0: ca92 6abd e835 49be 2705 b13c d6db 16be
000000e0: 9de5 313e aa41 a4be d870 423e 61d8 393e
000000f0: 1c37 5a3e 929d 14bd 0bda 86bd 20fe 343e
00000100: 5859 b3ba 3b13 463c 6a90 883c 0181 2bbe
00000110: 56d5 843e e4e2 8cbd 0d30 993c 4799 3fbe
00000120: 98fe 903c 000c 6dbc bab4 cabd caf5 2abd
00000130: a819 8dbd 54cb e93a d5d2 4cbd 7523 d4bd
00000140: 8e56 473d 6fd6 77bd 0184 67bd cf17 c93d
00000150: 5501 3cbe beda be3d c5fc 87bd 5c3c 55bd
00000160: 8478 52bd 6a3d 873e 46ad 053e 9b0a 08bd
00000170: 8882 8bbd 04d0 1b3d c5c4 d93d fab7 9ebd
00000180: 5b71 cdbd 0198 e23d 661f 01be 58a1 49bd
00000190: 3df3 8a3d 8797 163e c0e1 50be fb91 cfbc
000001a0: 0ec5 20be b711 193d 0000 f03a f3ab 08be
000001b0: 6bfe 7d3d 503c dfbb b784 983c d449 a3bc
000001c0: b780 1c3d 9ced c73d 9c3e 5e3e 8caf f0bd
000001d0: 558b 43be ef84 e73d 9d0e 7b3d ba7a 64bd
000001e0: f06e a33b e0fa c63e f625 a6b9 9271 4e3d
000001f0: 52d9 113e 21c0 e03d 9fd4 0bbd 4a17 353d
00000200: d569 503c 2bbb 8a3c 4d09 663e 0f4c 3cbb
00000210: 52ff 4f3e ce10 803e f5a8 d63d 495a 363e
00000220: 0596 d93c 7be9 62bc bfd5 a73e c43c 673d
00000230: 9ba7 08bd 43f9 453d e05d d7bd 3727 0dbe
00000240: 5bae 8e3e 6496 493e 7226 33bd 30b3 113e
00000250: df3e 403e 1477 833d 6391 04bd 0478 26bb
00000260: d47b 24bd c14c 7cbd e9af 59bc d6e2 9b3e
00000270: 6dd7 723e ee71 ac3d 7c9f c4ba 5445 cd3c
00000280: 0717 7c3e 3106 9b3c 8527 a73e 89f1 69be
00000290: bd35 09be a0c2 7b3c 9acd d83d 6eca fdbb
000002a0: 54fc 5a3e 66e7 14bd 5ca1 e4bd 2642 6fbc
000002b0: ad43 95bd ac50 3f3e eb4e 48bd 6793 92bd
000002c0: cc6c 083c c603 bc3d ac91 3ebe a99f 11bb
000002d0: 7591 c63c 38e2 1abe 7e55 53bd 1275 343e
000002e0: 6da3 543d 502e b93e 63df 64bd ea54 8ebc
000002f0: 7afd 99bd 7133 59be 3b2e 9cbd 7143 593e
00000300: ae70 88bd 50a5 8ebc e4ad e73d 3e77 8dbd
00000310: d6ae ddbd 9a1e dfbd 6849 eb3d 1816 66bd
00000320: 7a51 bc3d c884 edbc 70ff a83c f085 6fbc
00000330: 027a e1bd 3e99 d7bd 1ed7 bdbd 64d7 403d
00000340: 3479 cebd 7224 d23d 9261 aebd 6c53 403d
00000350: 00aa 533a 0429 c83d 9c82 a1bd 9a35 823d
00000360: 24e8 043d 0a22 84bd 10d6 b93c 0e55 823d
00000370: 083c b33c 2258 b7bd d2dd e13d 2040 8bbb
00000380: 60c7 46bd f057 ec3d 885a 433d 94d8 43bd
00000390: c48c c3bd 7073 e83d a45c 813d 1ca9 65bd
000003a0: 7012 013d 7a0a a33d 9008 9c3c c822 9e3c
000003b0: e460 c8bd 5408 f5bd e0ca dbbb 84f7 b6bd
000003c0: d4e3 e8bd 4011 52bb 64ed 73bd f432 953d
000003d0: 0ac6 d1bd c0dc 6fbd 929b b7bd 20a8 ca3b
000003e0: 7695 843d 4ed9 9c3d c4ea 263d f4ab f4bd
000003f0: 28d0 8cbd 9c9d 2bbd 6074 cf3b 1079 0ebd

critic.seq_model.model.0.bias f4 [64]
0.071654655 0.2556896 -0.0021264984 -0.11646719 -0.13570313 -0.07493448 0.14480758 -0.06458468
0.10603396 -0.024812302 -0.1949783 0.08391063 0.024636552 -0.033921856 0.13226978 0.023871992
-0.08792284 0.11926972 0.11701624 0.27313986 -0.1598303 -0.0009301506 0.06492051 -0.21344203
0.052430287 -0.17769572 0.023336357 -0.17858516 -0.00472422 0.032538727 -0.24591225 0.03992726
-0.07718186 0.19272302 -0.019850586 0.19535778 -0.099222675 -0.19059478 0.018507121 0.13003094
-0.060698163 0.112615146 -0.037662458 0.021792488 -0.14104137 0.034827676 0.021598497 0.03018222
0.053323016 -0.12778547 0.20626499 -0.19775434 0.17929748 -0.07452166 -0.08929975 0.05387498
-0.044984207 0.056867328 0.002991706 -0.12928645 0.09287982 -0.16699292 -0.12984647 0.07340085
00000000: adbf 923d bfe9 823e b95c 0bbb 5a86 eebd
00000010: c3f5 0abe 4077 99bd 7048 143e f944 84bd
00000020: 5528 d93d 2b43 cbbc 64a8 47be 56d9 ab3d
00000030: 98d2 c93c a5f1 0abd bb71 073e 328f c33c
00000040: e410 b4bd af43 f43d 36a6 ef3d fdd8 8b3e
00000050: 8eaa 23be 5ad5 73ba 0bf5 843d 8c90 5abe
00000060: 24c1 563d def5 35be e32b bf3c 07df 36be
00000070: a1cd 9abb 5447 053d 6cd0 7bbe c48a 233d
00000080: 8611 9ebd 2f59 453e b29d a2bc df0b 483e
00000090: 4235 cbbd 472b 43be 3f9c 973c d526 053e
000000a0: a39e 78bd c5a2 e63d f343 1abd 2986 b23c
000000b0: 266d 10be 77a7 0e3d 55ef b03c b440 f73c
000000c0: 3c69 5a3d 32da 02be 2137 533e 1d80 4abe
000000d0: c299 373e d09e 98bd cae2 b6bd 03ac 5c3d
000000e0: 5c41 38bd b7ed 683d 7f10 443b ab63 04be
000000f0: c637 be3d 3100 2bbe 79f6 04be 2f53 963d

critic.qf.fc0.weight f4 [256, 64]
-0.008128335 0.107779585 0.0507413 0.025996014 0.068497725 -0.035347015 0.049008586 -0.05453235
0.0043735793 -0.008552349 -0.022976026 -0.024883984 -0.07665237 -6.184297e-05 -0.10132925 0.12543426
0.030707216 0.09036996 0.008982859 0.08910768 0.0031557076 -0.024193734 0.06549941 -0.2354724
-0.17924821 -0.14159885 0.038067654 -0.26742375 -0.013104095 -0.01508007 -0.25619724 0.047786713
-0.032699972 0.16628538 -0.122820534 -0.014365116 -0.015707836 -0.023608461 -0.02331801 0.012557278
0.07743839 0.06797461 -0.048161935 0.063752316 -0.0057034926 0.09401385 0.014269951 0.03011588
0.08668597 0.03284318 0.1298495 -0.07893776 0.047515977 0.019814227 -0.03342258 -0.088204555
-0.05556766 0.051001474 0.024142 -0.11048523 0.100307286 0.033728417 -0.05227532 0.0075544254
0.15343024 -0.09029078 0.07739235 0.04428377 -0.03997016 0.038367167 -0.09705233 0.018590203
-0.02051933 0.03002793 -0.014393744 0.017860148 0.024784526 0.007223363 -0.102180846 0.08034522
0.08601645 -0.004461565 0.13837992 -0.101499416 0.030146163 -0.021963375 -0.0062623788 0.09082136
-0.18021551 -0.05074487 0.03013414 -0.06117348 0.077521354 0.07859441 0.0857779 0.097956486
0.024115013 -0.104644045 0.05315383 0.0064140055 0.054955374 0.026237082 0.05578062 -0.053936098
0.028680196 0.01774204 0.033181667 -0.038591474 0.13450159 0.060406975 0.09441414 0.00018703283
-0.044038974 0.048045292 0.08500818 0.02738093 0.03659817 0.0887638 -0.05934105 0.072364576
0.07968532 -0.05821607 -0.056705303 -0.056112923 -0.022637049 0.014571403 -0.015086969 -0.01402666
-0.07513348 0.047671765 0.09004245 -0.02215577 0.07651108 0.0832156 -0.038706213 -0.09486808
0.15730281 0.10877148 -0.120164596 -0.032873444 -0.24743743 -0.08527917 0.030837718 -0.5107257
0.21793306 -0.0047037285 0.10177536 0.08428801 0.07397386 -0.093371004 0.09334734 -0.14218242
-0.23737802 -0.18611641 0.007848219 -0.041938096 -0.18839604 0.12386662 -0.06121751 -0.02826021
0.06312684 0.021039462 -0.015231905 -0.15963346 0.098805666 0.010112454 -0.0063535655 -0.054927114
-0.008129986 -0.07363486 -0.07929466 0.023228379 -0.015073077 -0.05770425 0.05261455 0.17162605
0.0046127914 -0.11339675 0.014123101 -0.13332908 0.26587436 0.0868117 0.04404989 0.067831784
0.060004517 0.010736694 -0.19933252 -0.022933848 0.0735293 0.015382972 -0.07582115 -0.056407824
0.07280751 -0.055588983 0.10205502 0.036237016 -0.02371769 -0.12216327 0.11401008 -0.15323241
0.035261907 0.10329806 -0.12970303 -0.06297841 0.03808885 0.016709272 0.6102394 -0.15306278
-0.16710608 -0.030078191 0.04948601 -0.038653508 0.09664948 -0.12999617 0.08091464 0.13296957
-0.264343 -0.06360871 -0.13274917 0.15831281 -0.038846254 -0.03933976 0.22134979 0.046370953
-0.025163155 -0.076251924 -0.105426535 0.15437634 0.06795632 0.118460625 -0.066366084 0.022175314
0.23547976 -0.17234685 0.29633805 0.031652205 -0.10703509 -0.09481641 0.39059338 0.072934836
-0.18839641 0.14309692 0.22692448 0.166917 -0.18318063 -0.019726306 -0.0064544603 -0.09679554
0.13479352 -0.27091405 0.018576955 -0.055975236 -0.16620216 0.15154594 -0.20155588 0.10894089
00000000: b52c 05bc 8bbb dc3d 1cd6 4f3d 98f5 d43c
00000010: 8948 8c3d 08c8 10bd 3abd 483d 505d 5fbd
00000020: 3e50 8f3b 271f 0cbc 3838 bcbc 7fd9 cbbc
00000030: ebfb 9cbd b1b1 81b8 b685 cfbd d771 003e
00000040: b38d fb3c e313 b93d d72c 133c 167e b63d
00000050: fdcf 4e3b f031 c6bc 8e24 863d ad1f 71be
00000060: d88c 37be 4aff 10be d4ec 1b3d c4eb 88be
00000070: 8fb2 56bc 6612 77bc 492c 83be 00bc 433d
00000080: 68f0 05bd b746 2a3e 5589 fbbd aa5b 6bbc
00000090: b8ad 80bc 8866 c1bc 6905 bfbc 0bbd 4d3c
000000a0: 0598 9e3d 4636 8b3d 7345 45bd 9390 823d
000000b0: 5de4 babb 558a c03d 83cc 693c 94b5 f63c
000000c0: 6a88 b13d 9286 063d 44f7 043e 1faa a1bd
000000d0: 1da0 423d 7251 a23c 1ee6 08bd 97a4 b4bd
000000e0: ea9a 63bd ece6 503d 72c5 c53c 1546 e2bd
000000f0: e86d cd3d cf26 0a3d a51e 56bd 1d8b f73b
00000100: d11c 1d3e 5fea b8bd e17f 9e3d e662 353d
00000110: c0b7 23bd e426 1d3d 5fc3 c6bd 7b4a 983c
00000120: 2718 a8bc 22fd f53c bdd3 6bbc 724f 923c
00000130: eb08 cb3c f6b1 ec3b 3144 d1bd 098c a43d
00000140: 6429 b03d 5232 92bb 77b3 0d3e edde cfbd
00000150: 16f5 f63c 89ec b3bc a434 cdbb 8d00 ba3d
00000160: 6a8a 38be dad9 4fbd dfdb f63c 0b91 7abd
00000170: 84c3 9e3d 1bf6 a03d 53ac af3d 699d c83d
00000180: d98c c53c 9e4f d6bd d5b7 593d 942c d23b
00000190: e318 613d 26ef d63c 387a 643d 19ec 5cbd
000001a0: bbf2 ea3c c157 913c 80e9 073d 1812 1ebd
000001b0: c9ba 093e 4e6d 773d 335c c13d 3e1e 4439
000001c0: 3662 34bd 24cb 443d c518 ae3d f94d e03c
000001d0: f6e7 153d ccc9 b53d 9a0f 73bd e133 943d
000001e0: 0f32 a33d f973 6ebd d243 68bd aad6 65bd
000001f0: 5571 b9bc e5bc 6e3c 562f 77bc 13d0 65bc
00000200: 95df 99bd 7843 433d 2d68 b83d 0480 b5bc
00000210: d7b1 9c3d f16c aa3d 688a 1ebd 324a c2bd
00000220: fd13 213e 95c3 de3d db18 f6bd 4ea6 06bd
00000230: 3d60 7dbe d8a6 aebd 629f fc3c ebbe 02bf
00000240: d829 5f3e bc21 9abb 9a6f d03d 319f ac3d
00000250: 9b7f 973d 4c39 bfbd e42c bf3d 4598 11be
00000260: 3913 73be 4d95 3ebe d195 003c 48c7 2bbd
00000270: e4ea 40be c8ad fd3d 36bf 7abd f581 e7bc
00000280: a548 813d f35a ac3c 3d8f 79bc f476 23be
00000290: a05a ca3d b5ae 253c 9231 d0bb 41fb 60bd
000002a0: a233 05bc e0cd 96bd 3d65 a2bd 7149 be3c
000002b0: 11f5 76bc 4b5b 6cbd 5b82 573d bdbe 2f3e
000002c0: e626 973b 8e3c e8bd 9464 673c 6b87 08be
000002d0: af20 883e 55ca b13d a86d 343d 64eb 8a3d
000002e0: 4cc7 753d f5e8 2f3c d31d 4cbe c4df bbbc
000002f0: 8896 963d dc08 7c3c 1e48 9bbd e40b 67bd
00000300: 1b1c 953d 46b1 63bd 3902 d13d 446d 143d
00000310: 9a4b c2bc bd30 fabd 1e7e e93d f5e8 1cbe
00000320: ca6e 103d ef8d d33d dfd0 04be d3fa 80bd
00000330: 0e03 1c3d e2e1 883c a638 1c3f 7dbc 1cbe
00000340: db1d 2bbe 8a66 f6bc d8b1 4a3d 2453 1ebd
00000350: 2af0 c53d b71d 05be 93b6 a53d 2d29 083e
00000360: f757 87be 4945 82bd 66ef 07be c11c 223e
00000370: 401d 1fbd ba22 21bd 85a9 623e 78ef 3d3d
00000380: f622 cebc f829 9cbd dee9 d7bd d514 1e3e
00000390: af2c 8b3d 7c9b f23d f1ea 87bd 01a9 b53c
000003a0: 9b21 713e b17b 30be 9fb9 973e bea5 013d
000003b0: 3735 dbbd 1b2f c2bd dbfb c73e dc5e 953d
000003c0: fdea 40be 0088 123e e45e 683e 4aec 2a3e
000003d0: b493 3bbe 1099 a1bc f07f d3bb bd3c c6bd
000003e0: 5007 0a3e 3fb5 8abe b32e 983c 4a46 65bd
000003f0: e630 2abe dc2e 1b3e aa64 4ebe 671c df3d

critic.qf.fc0.bias f4 [256]
0.2302912 0.1193189 0.1570503 0.00084168685 0.27324903 0.23405078 0.08950632 0.20984161
0.19478156 0.051927812 0.14048694 0.26999146 0.21187297 0.13240667 0.10861602 0.21689163
0.18593693 0.06302287 0.146731 0.20123918 0.22481072 0.13490024 0.15019958 0.0943882
0.1349795 0.089570284 0.09032362 0.14396997 0.04433837 0.21617751 0.14699325 0.16591777
0.20596477 0.12400142 0.13134396 0.13491622 0.1837383 -0.0040274095 0.19716756 0.0043405103
-0.077696495 0.05624309 0.1590177 0.1585113 0.08171932 0.1465699 0.08087852 0.14694525
0.18757573 0.1077806 0.18905877 0.13275981 0.17163314 0.20242113 0.13523936 0.19577417
0.16394417 0.2373507 0.17965236 0.11341809 0.11525449 0.09616497 0.12473909 0.045587037
-0.010370379 0.17204624 0.1282064 0.21990551 0.09118588 0.11022354 0.1076544 0.0933326
0.12562238 0.13253765 0.062099632 0.13906932 0.19727166 0.26936 0.07666031 0.09659352
0.14165166 0.13418154 0.10002561 0.03890861 0.065299235 0.04044196 0.1362325 0.2489237
0.18670645 0.04337165 0.17843112 0.17014292 -0.033476874 0.023524996 0.058569398 0.15719628
0.11998092 0.2180554 0.014067873 0.066661045 0.08934748 0.2171603 0.07954004 0.19989455
0.14576179 0.17375356 -0.018399898 0.14093515 0.21912698 0.083751455 0.12544763 0.22701293
0.09461594 0.1629942 0.23494329 0.19939528 0.18610124 0.054100726 0.123891614 0.06323278
0.042359583 0.20157653 0.13999012 0.054455932 0.10191682 0.16884209 0.08024836 0.07013035
0.07948554 0.11544145 -0.011551666 0.21069065 0.021157349 0.09036383 0.16506511 0.13654512
0.20629245 0.053527795 0.11583989 0.013147371 0.21269408 0.08038983 0.07339313 0.15872662
0.10514427 0.11551684 0.117162295 0.15609623 0.18490677 0.1542017 0.14928022 0.08605787
0.121825084 -0.05731856 0.11423079 0.19301139 0.10794072 0.19552426 0.11376487 0.21999915
0.046150666 0.09075369 0.15475465 0.16588534 0.15447849 0.058658358 0.044251807 0.2462602
0.1337838 0.087716356 0.00050445204 0.16560577 0.021605194 0.17973144 0.031678006 0.10695611
0.028116943 -0.010987624 0.13273866 0.07624276 0.04145585 0.097117744 0.019571159 0.19421783
0.20059037 0.020551993 0.088375315 0.079695724 0.20307343 0.11324751 0.04384934 0.18326549
0.09141806 0.17008378 0.1808786 0.18542874 0.013142205 0.07449111 -0.01379873 0.024033139
0.20006892 0.117915034 0.14530174 0.1852655 0.1598636 0.19948703 0.14053667 0.2697581
0.09464242 0.060294673 0.15095976 -0.02136663 0.14170314 0.17595159 0.0747824 0.16706401
0.23103817 0.13501035 0.13326292 0.16816133 0.16143699 0.10207061 0.17481337 -0.039614107
-0.048666153 0.026775543 0.18868184 0.17408584 0.063137196 0.09266046 0.13391197 0.07129808
0.11118783 0.111123115 0.08122403 0.19714135 0.20469503 0.25053903 0.205318 0.15281974
0.1418232 0.16029407 0.11362405 0.14642039 0.14947411 0.17003348 0.16177882 0.14175412
0.09933195 0.21773174 0.20658143 0.18024734 -0.030756317 0.20487678 0.04010535 0.10810435
00000000: 75d1 6b3e 785d f43d cbd1 203e a6a4 5c3a
00000010: 4ce7 8b3e 02ab 6f3e 174f b73d b8e0 563e
00000020: d174 473e 42b2 543d cfdb 0f3e 523c 8a3e
00000030: 3af5 583e 9d95 073e 1372 de3d d718 5e3e
00000040: 4066 3e3e 2212 813d a740 163e a511 4e3e
00000050: c834 663e 4a23 0a3e ebcd 193e 9a4e c13d
00000060: 1138 0a3e a070 b73d 97fb b83d dd6c 133e
00000070: 279c 353d a35d 5d3e 6685 163e 59e6 293e
00000080: 6ee8 523e 75f4 fd3d 087f 063e 7a27 0a3e
00000090: e525 3c3e 5cf8 83bb 4be6 493e d73a 8e3b
000000a0: 571f 9fbd 285f 663d 89d5 223e c950 223e
000000b0: 755c a73d 6b16 163e a3a3 a53d d178 163e
000000c0: da13 403e 13bc dc3d 9f98 413e 30f2 073e
000000d0: 99c0 2f3e 7c47 4f3e 307c 0a3e 0679 483e
000000e0: fbe0 273e 100c 733e caf6 373e be47 e83d
000000f0: 8c0a ec3d 24f2 c43d 3577 ff3d 79b9 3a3d
00000100: 86e8 29bc e42c 303e 8a48 033e e92e 613e
00000110: aabf ba3d e1bc e13d e979 dc3d 2a25 bf3d
00000120: 27a3 003e f3b7 073e 2f5c 7e3d 3068 0e3e
00000130: 9501 4a3e 8ee9 893e 1500 9d3d d3d2 c53d
00000140: 220d 113e e366 093e 3ada cc3d a25e 1f3d
00000150: 9bbb 853d 78a6 253d 8880 0b3e dbe5 7e3e
00000160: fa2f 3f3e 79a6 313d a6b6 363e f239 2e3e
00000170: 0c1f 09bd 7eb7 c03c 77e6 6f3d 10f8 203e
00000180: 8eb8 f53d ea49 5f3e f07c 663c 9685 883d
00000190: d0fb b63d 455f 5e3e e3e5 a23d 28b1 4c3e
000001a0: 9442 153e 74ec 313e 62bb 96bc 4e51 103e
000001b0: d362 603e e285 ab3d 5875 003e 1476 683e
000001c0: 00c6 c13d f4e7 263e f994 703e 472e 4c3e
000001d0: 5391 3e3e b998 5d3d e3ba fd3d 3080 813d
000001e0: 3e81 2d3d 146a 4e3e 9259 0f3e 2f0d 5f3d
000001f0: c4b9 d03d f1e4 2c3e 4159 a43d 80a0 8f3d
00000200: 51c9 a23d 916c ec3d 3343 3dbc 4abf 573e
00000210: 2d52 ad3c ac10 b93d d406 293e 7cd2 0b3e
00000220: 543e 533e f63f 5b3d 773d ed3d 1268 573c
00000230: 7acc 593e 6ca3 a43d 234f 963d 3b89 223e
00000240: e155 d73d 1894 ec3d c9f2 ef3d b1d7 1f3e
00000250: 3358 3d3e 0de7 1d3e eadc 183e 1c3f b03d
00000260: 6e7f f93d dec6 6abd d5f1 e93d c7a4 453e
00000270: 0610 dd3d 8337 483e 8efd e83d 7547 613e
00000280: 7b08 3d3d 12dd b93d 0178 1e3e d9dd 293e
00000290: 9c2f 1e3e bf43 703d 6241 353d a22b 7c3e
000002a0: 9ffe 083e a2a4 b33d 343d 043a 8f94 293e
000002b0: 60fd b03c 850b 383e ccc0 013d ce0b db3d
000002c0: 8155 e63c 6f05 34bc a5ec 073e 2a25 9c3d
000002d0: 9ccd 293d abe5 c63d b253 a03c 0ae1 463e
000002e0: 9067 4d3e a75c a83c 1efe b43d 8337 a33d
000002f0: 7bf2 4f3e 4fee e73d 5e9b 333d f3a9 3b3e
00000300: 6439 bb3d 712a 2e3e 3d38 393e 08e1 3d3e
00000310: 6752 573c cc8e 983d 1214 62bc 25e1 c43c
00000320: dede 4c3e 707d f13d fbc9 143e 3db6 3d3e
00000330: 49b3 233e 5446 4c3e d8e8 0f3e bc1d 8a3e
00000340: e3d3 c13d 8cf7 763d 3295 1a3e 1209 afbc
00000350: a11a 113e a72c 343e 8427 993d d412 2b3e
00000360: 4595 6c3e 2740 0a3e 1376 083e 7c32 2c3e
00000370: bd4f 253e 650a d13d 4702 333e 6742 22bd
00000380: 2956 47bd 6258 db3c d035 413e 8f43 323e
00000390: 134e 813d c4c4 bd3d 3820 093e ba04 923d
000003a0: 72b6 e33d 8494 e33d c958 a63d 6cdf 493e
000003b0: 939b 513e a746 803e e23e 523e c77c 1c3e
000003c0: 1a3a 113e 2124 243e bab3 e83d 3aef 153e
000003d0: be0f 193e 421d 2e3e 59a9 253e fe27 113e
000003e0: 8d6e cb3d 12f5 5e3e 158a 533e c292 383e
000003f0: acf4 fbbc 38cb 513e 8245 243d d065 dd3d

critic.qf.fc1.weight f4 [256, 256]
0.11997187 -0.08488391 0.029132603 -0.06000693 -0.0323958 -0.021297798 0.057846047 -0.12939884
-0.07875717 -0.030362612 0.029606791 0.050019816 0.23835039 -0.17793971 0.1476264 0.012392212
-0.08317325 -0.108199045 -0.18579938 0.01661136 0.020933827 0.017091472 0.033414826 0.016605744
0.0055437237 0.05341696 0.062881246 -0.15255608 -0.006296884 0.2015624 0.30665755 -0.14295822
-0.16784053 -0.08085443 0.040540714 0.15736869 0.1221845 -0.15745085 0.03867727 0.04738848
-0.6366118 -0.17168275 0.097832054 0.030729685 -0.19409136 0.07274976 -0.25590414 -0.08923811
0.011516136 -0.021980917 -0.1545926 0.043924805 0.06152131 0.017751748 0.015579587 0.12804599
-0.03506583 -0.12617415 0.030739177 0.14143705 -0.009836607 0.121550284 -0.110047385 0.076838896
0.102862045 -0.028546896 -0.04560803 0.015698787 -0.020402195 -0.2784732 0.17808186 0.050662484
0.001344777 0.070765615 -0.3253735 -0.15096846 0.023305463 0.07681724 -0.0393307 0.10065285
-0.15371706 0.1068069 -0.19746621 0.19560109 0.1565727 -0.21387681 0.07358472 0.024682702
-0.15869777 -0.0039646574 0.052013576 -0.014289918 0.11686757 -0.018792624 0.07782144 -0.032742165
0.09950922 0.0041669193 -0.20589536 0.10837328 0.16224243 -0.008232542 0.057223607 -0.00013389465
-0.09988394 0.12736563 0.08516464 -0.029509963 0.06730412 -0.03929477 -0.09246327 -0.07441082
-0.18986388 0.06499949 -0.116036154 -0.0016289194 -0.029585255 0.0399524 -0.18562412 0.047375876
0.023758732 0.0106418105 -0.07374257 -0.14681254 -0.03885603 0.06078206 -0.10619025 0.04660569
0.10480728 -0.023486016 0.0037068718 -0.007096345 -0.020421203 -0.12966713 0.05056828 0.08348849
-0.01807454 -0.28762123 -0.28446227 -0.02910418 0.00640157 -0.03990851 0.071436204 -0.020291556
-0.16052435 -0.019115994 -0.10520402 0.016301418 -0.11803776 -0.08681887 -0.11234851 -0.1518641
-0.06350383 -0.016216364 0.020468535 0.115137644 0.15044025 0.17479055 -0.023503404 0.06622552
0.044998452 -0.13748454 -0.07456935 0.043762654 0.13207147 0.13383955 0.058537073 -0.004299506
-0.13517132 -0.017886102 -0.16301154 0.03084315 -0.020014625 -0.04567884 -0.15474817 0.05799495
0.02736172 0.039540168 -0.08500787 -0.003821262 0.052871503 -0.2531376 0.047438383 0.012941896
-0.08833217 0.024099912 0.010324342 0.04476924 0.031796202 0.019481886 -0.0810814 -0.091509126
0.122557744 0.1701222 -0.12492929 -0.0527925 -0.027303636 0.010510974 -0.310776 -0.2873857
0.18134227 0.11117377 -0.03555679 -0.06810383 0.008615308 0.014080811 -0.15107948 0.13722135
-0.06164579 0.09855308 0.02116832 -0.31577188 0.03541551 0.13382311 -0.1255291 0.17382766
0.05807442 -0.064612895 0.0037170276 -0.08276673 0.0892738 -0.01666345 0.010301055 -0.12072196
0.028117226 -0.048632175 -0.14521249 -0.075899616 -0.14703572 0.0088164685 0.01942579 -0.19585474
0.055988476 -0.078018956 -0.0064854166 -0.088468686 0.047437392 0.081477165 0.013111391 -0.007277036
0.019232804 0.12581766 0.1455788 0.033184122 -0.05351775 -0.06371714 -0.012246508 0.04605393
0.10030121 0.021969639 -0.022787124 0.11177572 -0.27140954 0.08471929 0.17336398 -0.024700416
00000000: d0b3 f53d 9ed7 adbd 7fa7 ee3c d4c9 75bd
00000010: 75b1 04bd b878 aebc faef 6c3d 2181 04be
00000020: 704b a1bd 03bb f8bc f189 f23c 94e1 4c3d
00000030: 2012 743e d435 36be 602b 173e b408 4b3c
00000040: bd56 aabd 7697 ddbd 3142 3ebe 8c14 883c
00000050: 6b7d ab3c 6a03 8c3c fcdd 083d c508 883c
00000060: 20a8 b53b becb 5a3d e2c7 803d a937 1cbe
00000070: 1756 cebb 6066 4e3e 3802 9d3e a463 12be
00000080: 63de 2bbe 0297 a5bd 050e 263d 4225 213e
00000090: de3b fa3d cc3a 21be 0f6c 1e3d 6c1a 423d
000000a0: fef8 22bf 9acd 2fbe 2c5c c83d d2bc fb3c
000000b0: e3bf 46be d3fd 943d de05 83be 78c2 b6bd
000000c0: 2dae 3c3c 5311 b4bc 864d 1ebe 7fea 333d
000000d0: c5fd 7b3d 1d6c 913c 8641 7f3c 7d1e 033e
000000e0: 30a1 0fbd cc33 01be bad0 fb3c e0d4 103e
000000f0: b829 21bc 5bef f83d 8660 e1bd b65d 9d3d
00000100: 56a9 d23d 2edb e9bc 7ccf 3abd be9a 803c
00000110: 8122 a7bc 0a94 8ebe 175b 363e 7783 4f3d
00000120: 3a43 b03a 90ed 903d 5b97 a6be 7a97 1abe
00000130: 19eb be3c 5b52 9d3d 3a19 21bd 1523 ce3d
00000140: 0168 1dbe 93bd da3d 9534 4abe a74b 483e
00000150: 9854 203e 8602 5bbe 96b3 963d 6133 ca3c
00000160: ab81 22be f5e9 81bb 300c 553d 4320 6abc
00000170: 4458 ef3d fdf2 99bc d960 9f3d a61c 06bd
00000180: 7dcb cb3d a78a 883b 3cd6 52be cff2 dd3d
00000190: e122 263e c9e1 06bc 4d63 6a3d 1266 0cb9
000001a0: f38f ccbd 236c 023e cc6a ae3d e1be f1bc
000001b0: bed6 893d 8ef3 20bd 625d bdbd b364 98bd
000001c0: ad6b 42be 741e 853d 5da4 edbd 7781 d5ba
000001d0: c75c f2bc 21a5 233d 4014 3ebe 350d 423d
000001e0: aca1 c23c fd5a 2e3c 5806 97bd 0756 16be
000001f0: 8027 1fbd 9cf6 783d 467a d9bd 9ce5 3e3d
00000200: 33a5 d63d bf65 c0bc fdee 723b 7588 e8bb
00000210: 5e4a a7bc 76c7 04be af20 4f3d 03fc aa3d
00000220: 0f11 94bc 1743 93be 0aa5 91be e46b eebc
00000230: 43c4 d13b 1b77 23bd 254d 923d 7a3a a6bc
00000240: 7f60 24be 2599 9cbc 3575 d7bd 8d8a 853c
00000250: c8bd f1bd 17ce b1bd fa16 e6bd 4382 1bbe
00000260: 4c0e 82bd 2ed8 84bc a1ad a73c 49cd eb3d
00000270: 020d 1a3e 4bfc 323e 368a c0bc 3fa1 873d
00000280: 4c50 383d bfc8 0cbe d1b7 98bd 7840 333d
00000290: be3d 073e 3c0d 093e 92c4 6f3d dfe2 8cbb
000002a0: 5a6a 0abe e085 92bc 7fec 26be c6aa fc3c
000002b0: b6f5 a3bc bc19 3bbd 4e76 1ebe 1d8c 6d3d
000002c0: b025 e03c dff4 213d 9b18 aebd 236e 7abb
000002d0: ca8f 583d 409b 81be c04e 423d 3f0a 543c
000002e0: 7fe7 b4bd 2e6d c53c 6e27 293c f35f 373d
000002f0: bc3c 023d 7a98 9f3c 010e a6bd 2369 bbbd
00000300: 8eff fa3d 8434 2e3e edda ffbd f33c 58bd
00000310: e0ab dfbc 3836 2c3c 081e 9fbe 3824 93be
00000320: cab1 393e 13af e33d ffa3 11bd 057a 8bbd
00000330: 3927 0d3c 34b3 663c 94b4 1abe c183 0c3e
00000340: 4c80 7cbd 32d6 c93d 2f69 ad3c daac a1be
00000350: db0f 113d ed08 093e b38a 00be e1ff 313e
00000360: 71df 6d3d c453 84bd 6099 733b 9a81 a9bd
00000370: 2fd5 b63d ca81 88bc c2c5 283c 133d f7bd
00000380: 1956 e63c 8832 47bd 95b2 14be 4271 9bbd
00000390: 8890 16be f372 103c d622 9f3c 258e 48be
000003a0: 2c54 653d 67c8 9fbd 9e83 d4bb 122f b5bd
000003b0: b64d 423d 80dd a63d 29d1 563c 3474 eebb
000003c0: 1d8e 9d3c 58d6 003e 9c12 153e 13ec 073d
000003d0: 6e35 5bbd 227e 82bd 94a5 48bc 0ca3 3c3d
000003e0: b96a cd3d acf9 b33c 10ac babc abea e43d
000003f0: 31f6 8abe 4f81 ad3d 5486 313e 8758 cabc

critic.qf.fc1.bias f4 [256]
0.216237 0.32226992 0.1954678 0.079654984 0.19409871 0.17696947 0.25844878 0.20861869
0.21593834 0.119688176 0.16513294 0.20355067 0.22297098 0.16622753 0.18214898 0.15213269
0.25890023 0.19422977 0.15271518 0.21837954 0.10834338 0.2771524 0.13642779 0.22772956
0.26144767 0.15479283 0.1532677 0.10191761 0.20187564 0.15668297 -0.028923938 0.19565815
0.15212712 0.16825047 0.18527433 0.16230302 0.22866358 0.12861264 0.22816087 0.042028777
0.13984269 0.20139433 0.049541656 0.24482389 0.17838846 0.23542254 0.13270162 0.20950888
0.20625325 0.25666347 0.15771101 0.21051283 0.2063913 0.1779383 0.22102675 0.14085698
0.20288505 0.28279173 0.33875352 0.15946871 0.14475906 0.21931559 0.14649433 0.0461886
0.26314586 0.17130934 0.18546765 0.2436609 0.19747698 0.14171238 0.19639756 0.22879085
0.22654618 0.22432834 0.11380154 0.26108605 0.0029240558 0.2209278 0.17116214 0.27112758
0.1292169 0.15414687 0.17537263 0.19868532 0.16841555 0.08881866 0.09541601 0.1679517
0.17608185 0.17858128 0.15756197 0.20272459 0.19462623 0.18643539 0.022842763 0.19139434
0.12672973 0.22528525 0.17278177 0.075548664 0.23289452 0.1989253 0.20191719 0.06301013
0.08369193 0.19499134 0.13293026 0.35914323 0.16097882 0.14781182 0.16188607 0.10499721
0.16396473 0.15109919 0.2597298 0.18053758 0.18993239 0.19048296 0.18678758 0.07082606
0.22770002 0.13110554 0.12334839 0.15898582 0.15969971 0.19821733 0.21543513 0.22856626
0.24506347 0.19000652 0.07933525 0.28812113 0.09862146 0.10442412 0.2988562 0.21203163
0.20924272 0.14860371 0.23614198 0.1345456 0.18745406 0.22971766 0.10460386 0.2109552
0.1927498 0.20499022 0.3203828 0.20784517 0.17827502 0.21527934 0.09001187 0.1449639
0.27237827 0.2097805 0.26309088 0.25578973 0.26562405 0.35491338 0.086030416 0.1207885
0.2035894 0.034187764 0.19939502 0.38622373 0.24974127 0.16775118 0.20142962 0.028614864
0.21629947 0.23924817 0.20392574 0.25290555 0.25999567 0.1593496 0.13309175 0.2341276
0.20529789 0.21160185 0.30330536 0.16280103 0.20472832 0.18815958 0.09809908 0.1531826
0.21103765 0.18186417 0.15966384 0.07943699 0.17622429 0.17744629 0.18252209 0.06119256
0.2360448 0.17603837 0.21316509 0.24061453 0.2327833 0.19039105 0.17395706 0.28064892
0.23148352 0.20983313 0.17901279 0.08735923 0.25268096 0.22493105 0.23047578 0.23019058
0.0585739 0.19803038 0.115157336 0.24329986 0.16264357 0.18577632 0.04583726 0.23653771
0.18708955 0.0809795 0.15367302 0.24372046 0.21501271 0.2594517 0.1881718 0.03505006
0.26988566 0.16475332 0.20070407 0.15827398 0.2041536 0.1787814 0.23953784 0.101132505
0.21724725 0.17359701 0.1569844 0.17589416 0.20364045 0.21285014 0.19549595 0.16188231
0.09562927 0.1898431 0.09189722 0.14948611 0.16361623 0.26305032 0.17883605 0.13619749
0.17504655 0.19957067 0.23922545 0.21810992 0.20140536 0.15866166 0.070817046 0.09402438
00000000: 3b6d 5d3e 9000 a53e b628 483e 2722 a33d
00000010: d0c1 463e 7c37 353e 6653 843e 23a0 553e
00000020: f11e 5d3e 131f f53d 9c18 293e 966f 503e
00000030: 8152 643e 8d37 2a3e 4385 3a3e acc8 1b3e
00000040: 928e 843e 2be4 463e 5e61 1c3e e39e 5f3e
00000050: 22e3 dd3d ebe6 8d3e bab3 0b3e f031 693e
00000060: 78dc 853e 0382 1e3e 35f2 1c3e 2eba d03d
00000070: 7db8 4e3e 8071 203e e5f1 ecbc 9c5a 483e
00000080: 36c7 1b3e da49 2c3e 8eb8 3d3e c332 263e
00000090: c926 6a3e 08b3 033e 01a3 693e 5e26 2c3d
000000a0: ec32 0f3e 513a 4e3e 31ec 4a3d 1db3 7a3e
000000b0: 77ab 363e 9b12 713e efe2 073e 7f89 563e
000000c0: 0d34 533e 6569 833e ff7e 213e ad90 573e
000000d0: 3e58 533e 7535 363e d654 623e d03c 103e
000000e0: 19c1 4f3e 14ca 903e 1a71 ad3e c44b 233e
000000f0: b83b 143e 4494 603e 9c02 163e 4230 3d3d
00000100: 0ebb 863e b76b 2f3e 3beb 3d3e 3e82 793e
00000110: 6837 4a3e 0d1d 113e 711c 493e 2648 6a3e
00000120: b9fb 673e 54b6 653e c810 e93d 12ad 853e
00000130: 84a1 3f3b e63a 623e 2145 2f3e 3cd1 8a3e
00000140: 6f51 043e add8 1d3e e294 333e 2a74 4b3e
00000150: 2075 2c3e 8fe6 b53d 7869 c33d 88fb 2b3e
00000160: cd4e 343e 03de 363e ed57 213e 0997 4f3e
00000170: 194c 473e ebe8 3e3e bf20 bb3c e1fc 433e
00000180: 70c5 013e 2db1 663e b4ed 303e 42b9 9a3d
00000190: e77b 6e3e 13b3 4b3e 61c3 4e3e 740b 813d
000001a0: ad66 ab3d cfab 473e df1e 083e 9fe1 b73e
000001b0: a2d7 243e fb5b 173e 76c5 253e c708 d73d
000001c0: 5fe6 273e bfb9 1a3e 4efb 843e d8de 383e
000001d0: a37d 423e f70d 433e 3e45 3f3e 410d 913d
000001e0: 322a 693e 8840 063e 159e fc3d 2ecd 223e
000001f0: 5288 233e 7cf9 4a3e 079b 5c3e 460d 6a3e
00000200: ebf1 7a3e 1291 423e 857a a23d 9d84 933e
00000210: 0cfa c93d 50dc d53d ae03 993e d21e 593e
00000220: b943 563e 922b 183e 34cf 713e 52c6 093e
00000230: f5f3 3f3e 1b3b 6b3e 8c3a d63d a404 583e
00000240: 3460 453e f5e8 513e 3709 a43e 5dd5 543e
00000250: ba8d 363e 3072 5c3e 2558 b83d 6b71 143e
00000260: 2a75 8b3e b3d0 563e d9b3 863e dff6 823e
00000270: e0ff 873e 35b7 b53e b730 b03d f65f f73d
00000280: bd79 503e 7808 0c3d 352e 4c3e 1ebf c53e
00000290: 2dbc 7f3e f7c6 2b3e 9143 4e3e b869 ea3c
000002a0: 9c7d 5d3e 79fd 743e e9d1 503e d67c 813e
000002b0: 271e 853e 8b2c 233e 3449 083e 25bf 6f3e
000002c0: 9c39 523e 28ae 583e d74a 9b3e 50b5 263e
000002d0: 4da4 513e e8ac 403e 2ce8 c83d e6db 1c3e
000002e0: 411a 583e 9a3a 3a3e eb7e 233e dcaf a23d
000002f0: 2474 343e 7bb4 353e 12e7 3a3e 0da5 7a3d
00000300: bab5 713e 6743 343e f347 5a3e a863 763e
00000310: bf5e 6e3e dff5 423e cd21 323e 37b1 8f3e
00000320: 040a 6d3e 7fde 563e 214f 373e 65e9 b23d
00000330: 665f 813e 5354 663e d801 6c3e 14b7 6b3e
00000340: 30eb 6f3d 7ac8 4a3e 9cd7 eb3d 9923 793e
00000350: 098c 263e 263c 3e3e dabf 3b3d f136 723e
00000360: 6794 3f3e 95d8 a53d 765c 1d3e db91 793e
00000370: 4b2c 5c3e dad6 843e 1cb0 403e a790 0f3d
00000380: 742e 8a3e 18b5 283e 5e85 4d3e 9312 223e
00000390: a40d 513e 7912 373e 6849 753e 8f1e cf3d
000003a0: 1076 5e3e 6ac3 313e 85c0 203e 991d 343e
000003b0: 1f87 503e 63f5 593e 1730 483e 7ac4 253e
000003c0: 47d9 c33d 3b66 423e 9c34 bc3d e312 193e
000003d0: 038b 273e 88ae 863e cc20 373e 5b77 0b3e
000003e0: 673f 333e 415c 4c3e 84f7 743e 3558 5f3e
000003f0: 353d 4e3e 3478 223e 8708 913d db8f c03d

critic.qf.last_fc.weight f4 [16, 256]
0.09445919 0.076884106 0.002640351 -0.0058307257 0.07288836 -0.12245606 0.056605436 0.13165306
0.12185572 0.12900175 0.003639236 0.47680843 0.084963635 0.11549081 0.028367497 -0.067215
0.030175233 0.089949064 -0.06734152 0.062012028 -0.17433536 0.07453124 -0.2829934 0.08304543
0.074128985 -0.080278635 0.1643828 0.032868538 0.11626958 0.14712082 -0.14533359 0.12172786
0.034515467 0.18788978 0.124694906 0.03658521 -0.030858872 0.08352009 0.046219815 -0.08617122
0.052698717 0.09370573 -0.12956586 0.073042 0.038736157 0.088787116 -0.1119594 0.1462444
0.091463506 0.071363986 0.06893321 0.053254917 -0.10090146 0.02870914 -0.45196676 0.22068836
0.03546249 0.017384797 0.08334258 0.06713344 0.086379975 0.0941107 0.05577822 0.20724408
0.062571466 0.061805297 0.09517988 0.049076233 0.110597424 0.006774664 -0.024827544 0.09500451
0.05662636 0.13105436 0.38163602 0.009836536 -0.00296779 0.19485642 -0.017673803 0.0860147
0.17211784 0.056302696 -0.084008284 -0.012197442 0.060720075 -0.009539983 -0.08707921 0.07520596
0.14448066 0.047499746 0.00935712 0.12754591 0.049387537 -0.0038074153 -0.2764757 -0.00035964654
-0.03406613 0.06278204 0.10795903 -0.025840698 0.034962196 0.106286235 -0.04254374 -0.06395324
-0.13228706 0.017594222 -0.040057067 0.04319053 -0.013584044 0.112055264 0.060024444 0.083433986
0.08096135 0.062490027 0.057263818 0.27632624 0.0020992546 0.10086815 0.013025305 -0.011772734
0.054834113 -0.0426662 -0.16758086 0.30791518 0.07996059 0.08184982 0.3194041 0.11454655
0.04177809 0.114208385 0.1494327 0.14810672 0.02477567 0.057435997 0.07921511 0.105023615
-0.0016709062 0.08583547 0.092019096 -0.03675834 0.041983537 0.11215865 -0.16910866 0.09499482
0.031880148 -0.0014271274 0.07648131 0.049372192 0.10216023 0.18063818 0.0029667886 0.037855107
0.010791311 0.059373043 0.011489038 0.075117506 0.07285558 0.08801572 0.019234864 0.03776095
0.015014852 -0.1327038 0.04707277 0.040422287 0.13257958 0.025584562 0.32203662 -0.16439244
0.07150896 0.053270128 0.048522335 0.06651448 0.06538175 0.16511473 0.21733095 0.21492028
0.038346194 0.03148328 0.08681753 0.026087679 0.019798221 0.025377762 0.005243249 0.41574657
-0.044722255 0.03891398 0.13873495 0.0037015288 -0.07726618 0.29531443 0.026253738 -0.11772097
0.06875353 0.1160062 0.007860843 0.0894797 0.084835894 0.1970304 0.15948114 0.10437576
0.02575385 0.03575837 0.23526946 -0.057795726 0.057652246 0.08726246 0.13935035 0.05071136
0.3034899 0.059985902 0.12747651 0.08218794 -0.025169907 0.07687811 0.006063217 0.077092305
0.12076444 -0.21633191 0.0011571049 0.116886474 0.03619206 0.04330164 0.13405684 -0.11589776
0.10294548 0.20257604 0.12664412 0.20466167 0.070765994 0.1474953 0.095604286 -0.068331555
0.015065381 0.24844092 0.00042157952 0.003932181 -0.036542032 0.12584724 -0.0011730794 -0.01828599
-0.0025926454 0.39164457 -0.0030692623 0.047769867 0.033986356 0.07580557 0.39376566 0.049949717
0.04980189 0.04397278 0.038615692 0.073637284 0.053015854 0.15344752 0.07691455 0.0017087219
00000000: d273 c13d 6a75 9d3d bd09 2d3b ac0f bfbb
00000010: 7e46 953d 3eca fabd 1adb 673d 0fd0 063e
00000020: 7e8f f93d 0919 043e 4080 6e3b 3c20 f43e
00000030: 6a01 ae3d 7286 ec3d f462 e83c 05a8 89bd
00000040: 0d32 f73c 3737 b83d 5aea 89bd 5300 7e3d
00000050: f884 32be d6a3 983d 83e4 90be b913 aa3d
00000060: f0d0 973d 2069 a4bd f753 283e 29a1 063d
00000070: bf1e ee3d d7a6 163e 54d2 14be 754c f93d
00000080: 1760 0d3d 2e66 403e 0b60 ff3d 60da 153d
00000090: bfcb fcbc 950c ab3d fd50 3d3d 897a b0bd
000000a0: 9cda 573d cae8 bf3d eaac 04be 0b97 953d
000000b0: cea9 1e3d 05d6 b53d f84a e5bd 18c1 153e
000000c0: 3851 bb3d 4827 923d db2c 8d3d d421 5a3d
000000d0: 6da5 cebd 6e2f eb3c 3068 e7be 21fc 613e
000000e0: 1e41 113d 906a 8e3c 84af aa3d 427d 893d
000000f0: fce7 b03d 1cbd c03d b477 643d cb37 543e
00000100: 7825 803d 8d27 7d3d abed c23d 2904 493d
00000110: e780 e23d 00fe dd3b 2263 cbbc b991 c23d
00000120: 0bf1 673d 1d33 063e cc65 c33e 6c29 213c
00000130: 417f 42bb 7188 473e a7c8 90bc 7a28 b03d
00000140: a93f 303e a89d 663d 890c acbd c8d7 47bc
00000150: 9db5 783d 974d 1cbc 9656 b2bd 9505 9a3d
00000160: bdf2 133e 188f 423d 9b4e 193c 659b 023e
00000170: 964a 4a3d d485 79bb 398e 8dbe f18e bcb9
00000180: ed88 0bbd df93 803d a019 dd3d dfaf d3bc
00000190: 8534 0f3d 99ac d93d 5842 2ebd ebf9 82bd
000001a0: 4276 07be c221 903c e112 24bd 8ee8 303d
000001b0: 9c8f 5ebc 3b7d e53d 31dc 753d 70df aa3d
000001c0: 10cf a53d 8bf5 7f3d 778d 6a3d a27a 8d3e
000001d0: a693 093b f693 ce3d 1768 553c 6de2 40bc
000001e0: bc99 603d c1c2 2ebd 519a 2bbe 0fa7 9d3e
000001f0: 61c2 a33d e1a0 a73d ef88 a33e 6297 ea3d
00000200: 811f 2b3d 16e6 e93d e304 193e 4aa9 173e
00000210: 59f6 ca3c 0242 6b3d 883b a23d 9f16 d73d
00000220: 4f02 dbba 82ca af3d 8274 bc3d ea8f 16bd
00000230: eef6 2b3d 6fb3 e53d d22a 2dbe a58c c23d
00000240: c294 023d 730e bbba 3ca2 9c3d 7f3a 4a3d
00000250: 6239 d13d 37f9 383e 746e 423b f50d 1b3d
00000260: 0ace 303c 2631 733d 853c 3c3c 35d7 993d
00000270: 4e35 953d 9641 b43d 6f92 9d3c 3aab 1a3d
00000280: db00 763c 81e3 07be 60cf 403d d791 253d
00000290: f1c2 073e b796 d13c fce1 a43e 7e56 28be
000002a0: 4a73 923d c731 5a3d 5bbf 463d be38 883d
000002b0: dee6 853d d613 293e 018c 5e3e 1014 5c3e
000002c0: e610 1d3d 9df4 003d 64cd b13d d4b5 d53c
000002d0: e12f a23c 06e5 cf3c 8fcf ab3b bcdc d43e
000002e0: af2e 37bd 4464 1f3d 8910 0e3e 5995 723b
000002f0: bb3d 9ebd 7433 973e 1412 d73c b117 f1bd
00000300: a7ce 8c3d a994 ed3d c4ca 003c 2241 b73d
00000310: 71be ad3d 56c2 493e 064f 233e f5c2 d53d
00000320: bdf9 d23c 5e77 123d 7aea 703e 36bb 6cbd
00000330: c324 6c3d a9b6 b23d dcb1 0e3e b7b6 4f3d
00000340: 0763 9b3e c7b3 753d 3489 023e 2752 a83d
00000350: 1f31 cebc 4572 9d3d f3ad c63b 92e2 9d3d
00000360: 5953 f73d 1d86 5dbe ffa9 973a 2d62 ef3d
00000370: 203e 143d 0f5d 313d 3246 093e ce5b edbd
00000380: 14d5 d23d 1870 4f3e ffae 013e d492 513e
00000390: c3ed 903d 0209 173e 2ecc c33d 6af1 8bbd
000003a0: cad4 763c 4c67 7e3e 7207 dd39 86d9 803b
000003b0: 19ad 15bd 19de 003e 03c2 99ba 80cc 95bc
000003c0: 5fe9 29bb a385 c83e ad25 49bb 56aa 433d
000003d0: 4735 0b3d f33f 9b3d a79b c93e 1398 4c3d
000003e0: 11fd 4b3d cd1c 343d 7d2b 1e3d 25cf 963d
000003f0: 2727 593d 5921 1d3e 6085 9d3d 31f7 df3a

critic.qf.last_fc.bias f4 [16]
0.1004484 0.08377448 0.14176159 0.13359757 0.16033635 0.1191403 0.09302344 0.11468612
0.113013536 0.13584112 0.12740095 0.111757606 0.12934728 0.064586364 0.10149826 0.12458742
00000000: e4b7 cd3d f491 ab3d f329 113e cdcd 083e
00000010: 362f 243e d4ff f33d 1383 be3d 8ee0 ea3d
00000020: a473 e73d ef19 0b3e 6575 023e 2ce1 e43d
00000030: 9d73 043e db45 843d 52de cf3d b027 ff3d
