logs_results/mini-cage/final/preliminary/mlp/seed-3/save/agent_0009500_perf-16.500.pt (torch, 850122 bytes, 20 tensors)

critic.observ_embedder.fc.weight f4 [64, 78]
00000000: 992d 30bc e7ed b6bd 21b1 87bd a363 dbbd
00000010: f272 cabc 0650 113c d9e4 5fbd ccb2 e4bd
00000020: 9abe a3bc d48a 37bd 408c a0be 07db ac3d
00000030: 5358 df3c 1290 42bd 1cdb 1cbd 7bc6 9abc
00000040: b172 96bd 8452 d03d eaf6 343d e0d9 ad3d
00000050: 2891 093d 334a 84bd 3f43 0b3e 4a46 e2bd
00000060: c300 94bd e8d4 90bd 7aac 323d 08f4 b83c
00000070: 2c7e 37bd 8252 e73c cbed 80bd 2ede 303d
00000080: baea 8abc 48fb cfbd 64eb a0be 7f9a 213d
00000090: 85b7 68bd e79c 74bc c9b1 733d 90a3 333e
000000a0: a143 99bb 5bb1 5bbd 126c 98bc 1828 82bd
000000b0: 3b9f 0f3d f818 e6bc 63e8 88be 2b6c 9cbe
000000c0: 88ad 00bd b33d af3c d9cd 383e 0d5d 88bd
000000d0: 8b8b 543e 412e 003c 4e4a 20bd 1e45 993b
000000e0: a05d 26bd 5af3 c03d 9cb2 463d 978c 9bbc
000000f0: ef1e 4ebd 26bf 57bc 0dd8 8c3a 10dd e4bc
00000100: 2f5b 7ebc cabd 8abd e860 ad3d ea0a 11be
00000110: 2d68 99bc fa69 4f3d 0e87 c73c dc11 bf3d
00000120: 057f 88bd f94f dd3a 62da 973d 84f4 2a3d
00000130: 86a0 993d f822 7a3e 25a0 993e e605 9c3d
00000140: 752f 16be 87d2 c7bd ccd0 2cbd 180d ab3d
00000150: dd19 0bbd 5527 933b c8f3 ff3c 8e28 243d
00000160: 052e 0fbc 57e7 4abe 1358 923c aa12 ebbd
00000170: dd7f 31be e840 943d 6339 873c ddad 213d
00000180: 1fc5 2ebe 40f1 7f3d 7794 d8bc 11c0 66bd
00000190: 0123 e53d fe04 413d ef75 443c 4e42 22bd
000001a0: 34bc 843e ea72 33bd 9b8f 26be 555c a8bd
000001b0: 8417 c73c 3ace 18bd c4b3 20bd 6862 703d
000001c0: 6fdc 9fbd 6312 c4bd f9ae cbbc 70ae 423d
000001d0: aa83 a23e d9ef 843d ca68 c1bd 2bff 8a3d
000001e0: b8ed b8bc 2bbd 2bbe efb6 61bc ac53 163e
000001f0: 4d8a 223d 20e6 113e 2b88 ea3b ae23 debc
00000200: 8709 6abb f46f 5f3b 1d70 8a3e 9321 083d
00000210: 4b4f e53c 7f85 0abd e1f5 adbd 9c70 b53c
00000220: 7396 553d 62f3 b73d 5f66 07bd 7601 bc3c
00000230: 4d39 7abc 836d 0f3b e718 16bd 4dc4 16bd
00000240: 47b1 0ebd e448 043e bcea 403e 989d e0bd
00000250: c71c 643d d228 e03d 0d33 6dbd d922 e23d
00000260: 5c7c 493d 4568 973d 8f7e 1f3d 368e 23be
00000270: ae02 163b 19d8 7d3b 619c ce3d 7c4c 28bd
00000280: 5e61 0c3d 7c99 9bbc 5d60 0ebd 41d3 78bd
00000290: 76ac e5bc 22f4 d1bc fbee 083c f9ba 84bd
000002a0: 515e 8bbd 055f e8bc 2f6a 81bd 6322 bc3c
000002b0: 7328 d6bd 9a0e 2b3d 2837 883e c724 563d
000002c0: ef84 6fbd 19c1 a83d bd36 00be 63ea 68bd
000002d0: 0c0a cb3d 99c0 6e3c 44fe 0dbd aac9 d23d
000002e0: d291 37bd 6c80 a5bd d324 b8bb 6e7d 09be
000002f0: 2024 c8bd 9faa 3a3a d636 8d3d 04de 8fbe
00000300: 95f4 8cbc dd9b 463d 2ebd 593d d8a0 fa3d
00000310: 7723 14bd d601 2bbd 4e92 c33d 3135 513e
00000320: d77c 6ebd 7549 bc3d ffae 1e3d dfe4 65bd
00000330: c05c 57bc 8438 a9bb cf11 3e3d 96da 93be
00000340: b490 7abe c902 00bd 2904 5cbd 283a 76ba
00000350: 9a9c e13d 9a08 093d 809a a1bd 6d0e f3bd
00000360: aeb9 d4bc 4512 54bc 6d4e 38bd 6965 823c
00000370: 2f58 cdbc 435e 22be 1fbf 683d 7750 b9bd
00000380: b9a5 523e 91cc d4ba 996c f7bc d2dd 133d
00000390: f9a9 f33c bbbf c7bd 8400 92bc 1757 f83d
000003a0: a6db c53c 0fed af3e c979 d8bd 2afa e43d
000003b0: 3890 bbbc 9a8a af3c 427d 10bc ae11 b23d
000003c0: 8bc4 653d 64e6 5a3e bf66 62bd 8c53 9b3c
000003d0: 8bbf d33c 0699 8c3e 7a02 13bd ddca 953c
000003e0: e1b6 77bd 4fb2 6bbd 9b91 d93d 21a6 9a3d
000003f0: 6e88 083e 07fb c8bd 4904 c8ba 7386 c9bd
-0.010753059 -0.08932095 -0.066255815 -0.107123636 -0.024713013 0.008869177 -0.054661606 -0.11166915
-0.019988347 -0.04481013 -0.31357002 0.08440214 0.027263796 -0.047500677 -0.038294896 -0.018893471
-0.073460944 0.101719886 0.044180788 0.08488822 0.033585697 -0.06459465 0.13599871 -0.11048563
-0.07226708 -0.07071859 0.043621518 0.0225773 -0.04479806 0.028237585 -0.062953554 0.043180637
-0.01695763 -0.1015535 -0.3142959 0.03945398 -0.056815643 -0.014929987 0.05949572 0.17542863
-0.0046772514 -0.053635936 -0.01860622 -0.063553035 0.035063963 -0.028088078 -0.26739797 -0.30551276
-0.031415492 0.021391725 0.18047275 -0.06658373 0.20756356 0.007823528 -0.039133362 0.004677429
-0.04061663 0.094214156 0.04851018 -0.018987937 -0.05032247 -0.013168132 0.001074554 -0.027937442
-0.01552467 -0.06774481 0.08465749 -0.1416432 -0.018726433 0.050638177 0.024356391 0.09329578
-0.06664852 0.0016884796 0.074147 0.041737095 0.075013205 0.24427402 0.30004993 0.076183125
-0.14666541 -0.09756952 -0.04219131 0.08352107 -0.033960212 0.0044907727 0.031244174 0.04007774
-0.008738999 -0.19814812 0.017864263 -0.11478169 -0.17333932 0.072389424 0.016506856 0.03947245
-0.17067383 0.062485933 -0.026437981 -0.056335513 0.11188317 0.0471239 0.011991008 -0.039614014
0.25924838 -0.043810762 -0.16265719 -0.08220736 0.024303205 -0.037306048 -0.039233938 0.058687598
-0.07805716 -0.095738195 -0.024863707 0.047529638 0.31741077 0.0649106 -0.09443815 0.06786951
-0.02257429 -0.1677138 -0.013776525 0.14680356 0.039682675 0.14247942 0.007157346 -0.027116623
-0.0035711245 0.003409383 0.2703866 0.033235144 0.027991911 -0.033818718 -0.08494163 0.022148423
0.052145433 0.089819685 -0.033056613 0.022949915 -0.015272451 0.0021885342 -0.036644842 -0.0368083
-0.034837034 0.1291843 0.18839544 -0.109675586 0.055691507 0.10945286 -0.057910014 0.11041803
0.049190864 0.07392935 0.038939055 -0.15972218 0.002288978 0.003873354 0.10088421 -0.041088566
0.034272544 -0.018994085 -0.034759868 -0.060748342 -0.028036337 -0.025629107 0.008357759 -0.06480975
-0.06805099 -0.028365621 -0.06319081 0.022965616 -0.10456934 0.041761972 0.2660458 0.052281167
-0.058476385 0.082399555 -0.12520881 -0.056864154 0.09914026 0.014572286 -0.034666315 0.102923706
-0.0448168 -0.08081135 -0.005619624 -0.13426754 -0.09772515 0.00071207614 0.06895225 -0.28099072
-0.01720647 0.048488487 0.05315893 0.1223771 -0.036166634 -0.041749798 0.0954939 0.20430447
-0.058224525 0.09193698 0.038741108 -0.05612647 -0.013144672 -0.005164208 0.046403702 -0.28877705
-0.24469262 -0.031252656 -0.053714905 -0.0009392821 0.110161975 0.03345547 -0.07890797 -0.11867986
-0.025967445 -0.012943809 -0.044996668 0.015917497 -0.025066463 -0.1585627 0.056822892 -0.090485506
0.2057103 -0.0016235282 -0.03020315 0.036100216 0.029744135 -0.097533666 -0.017822511 0.12125986
0.024152588 0.3436055 -0.10570104 0.111805275 -0.022895917 0.021428395 -0.008818926 0.086947784
0.05609564 0.2137695 -0.055273768 0.018960737 0.02584817 0.27460498 -0.035891034 0.01828521
-0.06047714 -0.057543095 0.10623475 0.07551218 0.13333294 -0.09813505 -0.0015260066 -0.09840097

critic.observ_embedder.fc.bias f4 [64]
00000000: 7cc3 aabb 6665 d6bc a7e8 45bd 1941 343d
00000010: a2cf 343c 25dd cf3b 0887 91bc e91e 21bd
00000020: 9d22 1d3e 14f0 c0bb 334a f8bc 97b8 203e
00000030: 78fc ca3a 327d adbc c669 c5bd 24a7 a63c
00000040: 9ffd 933e 9871 23bd b7c6 bdbc a02d fa3d
00000050: 3e41 3c3d 193d 19be f483 aabd 6a74 0d3e
00000060: 28da 09bb 6ce5 59bd cb6d 11bb 3e57 6dbd
00000070: 7a6f d83d 0d98 c43d ac2f ac3d 6889 1abd
00000080: 9659 19be a8e2 1dbe 98ab ae3d 915c e93d
00000090: e747 b43c da46 803c df9c 49bd fede 55bd
000000a0: 32f2 bf3e fb4d 5cbd dd9a 2dbd abfb 78bd
000000b0: 2f8b 0c3e 8b93 0a3e d3ba ef3d d37f 70be
000000c0: 1cd2 773e fbcd e7bd 011f 453d 1479 833e
000000d0: 3328 fd3c b0aa 0ebe 67b3 7c3d c01c 633d
000000e0: 81fd a8bd ab8c b53d 13ef 943d 9e3b 9b3d
000000f0: 6953 36bd 06e3 693d d26c 00be 63eb 023e
-0.005211292 -0.026171397 -0.048317578 0.044007394 0.011035832 0.006343501 -0.017764583 -0.03933612
0.15345235 -0.0058879945 -0.030308818 0.15695415 0.0015486619 -0.021177862 -0.09639315 0.02034337
0.28904435 -0.039903253 -0.023166044 0.122157335 0.045960657 -0.14964713 -0.08325949 0.1381394
-0.0021034572 -0.05319731 -0.0022190686 -0.05794453 0.105681375 0.09599314 0.0840753 -0.037728697
-0.1497558 -0.15418494 0.08528823 0.11394609 0.022006942 0.015658785 -0.04922187 -0.052214615
0.37489468 -0.053785305 -0.042384017 -0.060786884 0.1372497 0.13532846 0.11705556 -0.23486261
0.24201244 -0.113185845 0.04812527 0.25678313 0.030902958 -0.139323 0.06169453 0.05544734
-0.08251477 0.08864721 0.07272162 0.075797305 -0.04451314 0.057101272 -0.12541512 0.12785105

critic.seq_model.model.0.weight f4 [64, 64]
00000000: ba15 c3bd 52a4 f93d dead 3d3e 344e aebc
00000010: b165 99be 8822 e3bd 5bbf ca3c 6e8a 95bc
00000020: 69a1 5fbd 7509 c4bd efc8 633c bfff 30be
00000030: c0cb 173f 94f0 9fbd 316c f7bd 973f 1bbe
00000040: 4d8a 1dbe 1ba8 3ebe 7f97 56bd a82d 7e3e
00000050: 026c 7fbd ffff dbbc cc84 c03d 353f 04bc
00000060: dee8 893d 9a56 a03c 3242 b6bc c30a c5bd
00000070: 0308 38be de6e ca3d a0ad 953d 4262 9b3e
00000080: e900 cb3d 56eb b53e fa16 a4be c36d 06be
00000090: e8fe a13d 2d0d 7f3d e123 fc3d 8341 d0bd
000000a0: 78c6 e9be 0f5a b4bd 07b6 193e a8f6 2b3e
000000b0: 5293 623d 8b23 873d 947b acbd 9658 9bbc
000000c0: d3eb e93d 4c9d d53d dc60 44be 9dec 003e
000000d0: 73ac 45bd 770b 7f3d 9f9d a0bd c03d 0cbd
000000e0: 2f4d 81bd 982c fd3c 63a3 673e b18a 8ebd
000000f0: f425 d73d d532 6c3c 6f5c e0bd 85c9 1ebe
00000100: f8e9 093d 7097 ce3d d7ec b4bd b615 a9bd
00000110: 3af4 133e 31e0 5c3d 1801 0fb9 5968 eb3d
00000120: a86b 31bd 9a91 f83c aa03 173c 22a9 eb3d
00000130: d328 503d 29b5 093d b405 be3d 75c3 0dbe
00000140: 5c8e 9bbe 2700 abbd 18a1 803d f1fe a3bd
00000150: 5b4b 57bd a49a 083d eb7b 9cbd 6e4f 51bd
00000160: d3b3 e5bd 7269 653d fbd2 a8bd 6367 6d3e
00000170: 2fbf 11bd d5d7 19bc 8be0 423d d34c a73d
00000180: 6cb8 9bbd 6e05 663c 10aa 343e a692 b53d
00000190: d596 cdbc 06dd 4a3c a900 313d 93e7 bebd
000001a0: a77e 3abf 9652 953d 145c 6fbd 7a89 393e
000001b0: fabf a1bd eb84 c83d 698c a43d ebae 6a3d
000001c0: e4dc 2b3d 92c3 ad3d 7b9f 08bc d24d 1c3e
000001d0: 8cce 433c 0cca 59bd 3709 16be 1664 d23d
000001e0: 0899 073e d6dd 84be d550 29bd bad1 013c
000001f0: c9b9 b2bc a99d 52bc cf5c 09be 7295 4ebd
00000200: 07e1 143e 5c25 bb3c fe84 ebbc 7d74 a0bd
00000210: f4e7 86bd 4f3d ccbd e68a ca3d 57c4 a6bd
00000220: 6573 803d fa1a 873c 0cab 25bc c8ea b3bd
00000230: 097f 5f3d 04dc 3b3d 5354 8e3d d89c d53c
00000240: b3cc 8d3c 9c91 4fbd d63b 01be 5df8 94be
00000250: f2f5 a13c a3ca 56bc b8ca f5bd 224e 133e
00000260: 94a8 da3d abb1 bc3d f868 ac3c 8f9b febc
00000270: 7b63 153e c325 56bd 5da7 9f3d 713c 5ebd
00000280: d1ec 29bd 1936 de3d 5664 d73d f856 fb3d
00000290: 8a23 363e 0f96 03be 9a7b 4abd 3b2b ee3d
000002a0: 1ed0 ebbe 6db2 2c3e df45 363e d27d 433e
000002b0: 8b7b 8fbd 2a53 183d 5a11 9b3d f261 1b3e
000002c0: 0490 c0bd 0868 7ebd e92c aabd 6973 7b3d
000002d0: 31c4 acbd 1f92 90bd c750 3d3d 36b1 293e
000002e0: 385a bb3d a5a7 51be eba3 d93d 7be4 06bd
000002f0: 953a f03d c73e eabc 3f79 d9bd 8a54 623c
00000300: a3d5 0b3e edcb 4fbe 594c 713b 8bf5 0abe
00000310: 3a46 d6bc dce9 d13d f552 fe3d 9453 063e
00000320: c559 7b3d f2dc 8ebd c46b 00be bc4e 9a3c
00000330: 5eb1 d4bd 3060 0d3e 614d ca3d 5a04 a8bb
00000340: 1fae cdbe d032 1dbe 4156 843d 77eb 31be
00000350: 9d76 233c 4305 163d 7348 c73d b846 083e
00000360: 6e58 b7bd e4d2 02be 9ab1 6fbe cf6f d6bb
00000370: 61c4 8a3d 6768 0a3d 730c 3e3d d700 a4bd
00000380: 085f b4bd a3a7 56bc f24b f5bc 09aa 15bd
00000390: 3e72 813e cd35 ae3b 1d90 a0bd 5c07 e53d
000003a0: 1070 07c0 c8b2 e83d 77d3 7bba d396 543e
000003b0: 2948 6ebe cc65 51bd 48c2 c1bc d989 9b3d
000003c0: b199 d7bd 5cf2 f13d a480 d33d 1de1 8c3d
000003d0: 3ed7 2a3e 3900 61bd 59e1 663e 6e6f f9b8
000003e0: 8e94 c53d 0777 efbd d5c5 2e3e 7ea3 1d3d
000003f0: d926 f83d 10d6 3e3d 5b2a c53d 058c 163e
-0.095256284 0.12189545 0.18523356 -0.021277525 -0.29960397 -0.11090571 0.024749449 -0.018254485
-0.054597292 -0.09572116 0.013902887 -0.1728506 0.5929527 -0.078095585 -0.12081183 -0.15160976
-0.15384789 -0.18618815 -0.05239057 0.24822104 -0.062358864 -0.026855467 0.09400329 -0.00807171
0.06733869 0.019572545 -0.022248361 -0.09621193 -0.17971806 0.098844275 0.07308507 0.30348402
0.09912283 0.3553111 -0.3204878 -0.13127808 0.07909948 0.062268425 0.12311531 -0.10168745
-0.45659232 -0.0880624 0.15010844 0.1679331 0.055316277 0.06598576 -0.08422008 -0.01896314
0.11421933 0.104303926 -0.19177574 0.12590261 -0.048260164 0.062266793 -0.07842564 -0.034238577
-0.0631355 0.030905053 0.22620921 -0.06960047 0.10505286 0.014416416 -0.1095513 -0.15506561
0.033670396 0.10087478 -0.08834236 -0.08256094 0.14448634 0.053924743 -0.0001363795 0.11494512
-0.04331556 0.030342866 0.009217182 0.11506869 0.050820183 0.033620033 0.092784315 -0.13844092
-0.3038205 -0.083496384 0.06280726 -0.080076106 -0.0525621 0.0333506 -0.07640823 -0.05110114
-0.112159394 0.056008764 -0.08243366 0.2318397 -0.035582718 -0.009389837 0.047577422 0.0816895
-0.07603535 0.0140393805 0.17642999 0.088658616 -0.025096336 0.012381798 0.04321352 -0.09321513
-0.72849506 0.07291143 -0.058437422 0.1811885 -0.07897945 0.09790977 0.080345936 0.05729572
0.041958705 0.08484568 -0.008338804 0.15264061 0.0119511 -0.053171203 -0.14651953 0.10272996
0.1324197 -0.25950497 -0.041336853 0.007923538 -0.021817105 -0.012854972 -0.1341431 -0.05043549
0.14538966 0.022844963 -0.028749939 -0.078347184 -0.0658721 -0.09972631 0.09889774 -0.081429176
0.0627201 0.016492356 -0.0101115815 -0.08785015 0.05456451 0.04586412 0.06949677 0.026075765
0.017309522 -0.050675973 -0.12620482 -0.29095736 0.019770596 -0.013109836 -0.12001556 0.14385274
0.10676685 0.09213575 0.021046147 -0.031080035 0.1458873 -0.052282106 0.07795594 -0.05425686
-0.04148561 0.10850162 0.105171844 0.12272447 0.17786995 -0.12850212 -0.049434282 0.11629339
-0.46057218 0.16864939 0.17800091 0.19090965 -0.07005986 0.037188686 0.07571669 0.15174082
-0.09402469 -0.06211093 -0.08309347 0.06138936 -0.08435858 -0.070591204 0.046219613 0.16571507
0.09148067 -0.20474108 0.10626968 -0.03293274 0.11729924 -0.028594388 -0.10618829 0.013814101
0.13655715 -0.20292635 0.0036819188 -0.1357023 -0.026156534 0.10249683 0.124181665 0.1311782
0.061364908 -0.06975736 -0.1254111 0.018836372 -0.103853926 0.13806224 0.0987804 -0.005127472
-0.40171906 -0.15351415 0.06461764 -0.17374979 0.00997701 0.03662611 0.097306155 0.13308227
-0.089524135 -0.12775761 -0.23407593 -0.0065440903 0.067757376 0.033790972 0.04639859 -0.08007973
-0.08807188 -0.013101491 -0.02994344 -0.03653911 0.25282472 0.005316472 -0.078399874 0.11183044
-2.1162148 0.11362225 -0.0009606401 0.2076066 -0.23269714 -0.05112247 -0.02365221 0.07594652
-0.10527361 0.118138045 0.103272706 0.068788745 0.16683671 -0.054931853 0.22546901 -0.000118940006
0.09647475 -0.116926245 0.17067654 0.038485996 0.121167846 0.046590865 0.09627219 0.1470185

critic.seq_model.model.0.bias f4 [64]
00000000: ad3b fbbd ce6a 263e 12cf 793d ffa2 943d
00000010: 4d9c ba3d 591a d93c 1798 393e 3446 343e
00000020: 8355 1f3e c2c1 d93d 498c 3e3d 8f9f 9abd
00000030: 15a2 20bd a63d 4a3c 9eaa 9cbd d2ff 16bd
00000040: 8787 b6bc 89c7 003e 1c0d ed3c 50d3 39be
00000050: cf76 3cbe 6ceb 9c3d 099a 5b3c 8e5d 5cbd
00000060: 6a72 b83d c756 0ebe 9662 efbd 987e 1a3e
00000070: 86ef 893c 93e7 13bd 0676 24bd 8016 2a3d
00000080: 2975 463d 9c19 b7bd c7a1 de3d 68d0 12be
00000090: a34a 9a3d b1cb 843d d821 413d ea47 aebd
000000a0: 389c 543d 021c ccbd 7248 e4ba 3e32 a5bc
000000b0: 9a23 93bd f07c 1d3d 69ca ef3d 2e63 e3bc
000000c0: 6af5 ac3d 19b9 1a3d 42f1 37bd 95b9 9d3d
000000d0: ed69 823c 20f4 ef3c e63b cbbc 4726 3cbd
000000e0: a65a f43d 41d2 823d d3ad 2a3e 3940 0fba
000000f0: a651 ebbd 776c cebc 6d2f 9f3b 05bf d03d
-0.122672416 0.1625168 0.060988493 0.072576515 0.09111843 0.026501821 0.18124424 0.17604905
0.15559964 0.106326595 0.046520505 -0.07549965 -0.039217073 0.0123438 -0.0764973 -0.036865063
-0.022281421 0.12576117 0.028936915 -0.18147016 -0.18404697 0.07662091 0.013403424 -0.05380016
0.09006198 -0.1390029 -0.11688726 0.15087354 0.016837846 -0.03610952 -0.04015162 0.041525364
0.048451576 -0.089404315 0.108707 -0.14337313 0.07533767 0.064841636 0.047151417 -0.0850981
0.051906794 -0.099662796 -0.001741661 -0.020165559 -0.07184525 0.038449228 0.117085285 -0.027757253
0.084452465 0.03777418 -0.044907816 0.077014126 0.01591965 0.029291213 -0.024808835 -0.04593494
0.11931352 0.06387759 0.16667871 -0.0005464587 -0.114901826 -0.025198204 0.0048579485 0.10192684

critic.qf.fc0.weight f4 [256, 64]
00000000: 0742 03be f4bc 39bd db6d a73d 23b8 de3d
00000010: 6cb3 07b7 b526 69be e056 87be 0884 193e
00000020: 3900 9c3b d0c1 083d 1b5b 31be b1f3 e4bd
00000030: 2013 f53c 7341 08bd f905 cbbc 2e5b c03c
00000040: 1792 4b3e 074c adbd cc3f afbe b7ab 89be
00000050: 9169 8fbd 5a43 2fbb 245c d2bd 3fca 643d
00000060: 8793 7f39 975b 0bbd 3e72 32bd d684 1dbd
00000070: 26f8 9abe 4ca8 fb3d b45f 11be a0a6 ee3d
00000080: 5975 8a3e 6995 b5bc a27e 98bd 36cd 743d
00000090: 99f3 0fbf 21bb ad3d f009 dc3e 44a6 3f3d
000000a0: 406c 643c e620 2bbd 71eb 43bd 8447 62bf
000000b0: eda8 9cbd a63f 803e 5582 553d 96ac 153e
000000c0: aff7 50bd 950e 003f 62f7 57bd 7e8a e0be
000000d0: 74e0 26bd da35 93be 0821 6a3e 70d4 093e
000000e0: 3992 d83d 1cda e0bd c37f 3f3e ca37 7a39
000000f0: adf1 03be 1ea0 b23c 05c8 483c f8d8 153d
00000100: bb59 e5bd bbfe d3bd f828 183d 1f53 42bb
00000110: 53f6 7a3b 4d37 91be f363 37bd dfb7 f03d
00000120: 0376 493c 47c9 e4bb 608b 36be 7fe2 1f3e
00000130: 9d40 3a3d 5437 943c 849e e7bd e1b6 56bc
00000140: 1387 573e b2ab e13b a9bd 0fbf 3790 a8be
00000150: 955f 87be 4f75 a03d f664 1d3c d143 32be
00000160: 07fb 2c3d c19d 56be 9878 44bd 0b45 0a3c
00000170: 5070 66be c4d6 ff3d 6817 94bd b9d1 8e3d
00000180: fd70 4f3e 6614 49bc ce19 03bd 5526 adbd
00000190: 0541 e3be 5efa 053e d161 a83e 83e1 023e
000001a0: d0d6 8bbc d6c7 93bd 7657 adbc 7a5e 50bf
000001b0: 5e58 ecbd 3cb1 633e 9acb 083d a8c0 533e
000001c0: b614 07be f082 623e 46b1 38bd 19f5 1cbe
000001d0: 20a3 1d3a 49ce dabe c33d 3f3e 10a0 b53c
000001e0: ae97 883b 90dc e3bd b0c4 4b3e 3772 d0bc
000001f0: 7390 f5bc db62 1a3e 1265 a43e 7f50 423e
00000200: 1818 92be 0805 9e3d 85c1 14bd 993b 2f3d
00000210: 4612 0e3d 4069 93bd 3b57 7bbd b15c 903d
00000220: e270 52bc d7a1 ef3d 67e8 df3c 35db 6ebd
00000230: 893b fb3b 6f3c 513d 0494 30bd 9055 303c
00000240: 8a3d 973d b64b 503d f360 413d 2ca4 90bd
00000250: a222 c2bd 36da 45bd 6c83 ebbc 4868 9cbc
00000260: 0d14 aebb aafe 2dbd 4f1c 673b 5fd6 913d
00000270: 322d 0dbc 5393 50bd 37ca cd3c 63ba 3abd
00000280: 7a5d 043b bdf3 10bd 4104 0f3d de9b cdbd
00000290: 04d5 78bd f030 6dbd 43a4 53bc 1e77 a1bc
000002a0: b00b c53d 2d30 af3d 5a43 98bd 9f8b c1bd
000002b0: c52c a3bc 6a62 b43d 45e2 553c 41db a1bb
000002c0: 3d99 bb3d fd71 c2bc b893 9ebc 3136 57be
000002d0: 96b6 49bd 383e d5bc 3268 a03d 657e 333d
000002e0: a06a b13d 96e0 253d 5cd4 b53b e96a d13d
000002f0: e358 e93d 9012 793d fc63 683b bd07 d03d
00000300: bb10 cd3d 2c9f ccbc a8c0 e9bc da34 f1ba
00000310: 26e0 283d 9690 88be 1172 1fbe cd20 3c3e
00000320: df2c c43d b89c 85bc fbca 93bd 3018 113e
00000330: cfcb 69bd 970d 43bd 8db8 a7bd 2d85 293d
00000340: 5607 ed3d 851f a1bd 16b0 09bf 59aa 8ebe
00000350: eaf5 0abe 0b6a 83bd f51b a1bd 923f a7bc
00000360: 6d0f 533c 5908 22be 71f2 69bd 1a9d afbd
00000370: a608 dabd bd62 803d 5051 a2bd d30d ae3d
00000380: 7763 6b3d cc27 703d f45e cdbd a9af a33c
00000390: bc76 3fbf ff95 1b3e a3da 8ebd 2a1b 4abe
000003a0: 0751 48bd 1ae6 00be 8d27 893d aeb5 0cbf
000003b0: 9f7e 86be 0ee6 3f3e df0e 4f3d 859e 173e
000003c0: 0f84 bfbd 6a3a 4b3e 6058 943d 4691 72be
000003d0: bba5 ae3d 815b bcbe 44fa 4c3e be6b 173e
000003e0: 2543 223d 9e22 7f3c 8a8e 393e 4f7a 663d
000003f0: 0a44 82be 3d52 143e e349 803e 967d 923e
-0.12818156 -0.045346215 0.0817525 0.10874965 -8.088402e-06 -0.22768672 -0.26433468 0.14991772
0.0047607687 0.03338796 -0.1731991 -0.11179293 0.029916346 -0.033265542 -0.024783121 0.023480978
0.19879948 -0.08461767 -0.3422836 -0.2688882 -0.07002557 -0.0026743026 -0.10271481 0.05585694
0.00024373653 -0.034022894 -0.04356598 -0.03845676 -0.30267447 0.122879595 -0.14196664 0.11652875
0.27042654 -0.02216597 -0.07446028 0.059766017 -0.56231076 0.08482958 0.42976332 0.046789423
0.013941824 -0.04177942 -0.047831956 -0.88390374 -0.076494075 0.2504856 0.052126247 0.14616618
-0.05101746 0.5002225 -0.052726157 -0.4385566 -0.0407414 -0.28752023 0.22864163 0.13459945
0.10574765 -0.10979101 0.18701081 0.00023862641 -0.1288516 0.021804865 0.01225472 0.03658387
-0.11198755 -0.1035132 0.037148446 -0.0029651595 0.0038293793 -0.28362504 -0.044773053 0.11753821
0.012296203 -0.006982002 -0.17826605 0.15613745 0.045471776 0.018092789 -0.11309531 -0.013105125
0.2104762 0.0068869228 -0.56148773 -0.32922527 -0.2644011 0.07834875 0.0096065905 -0.17408682
0.042231586 -0.20958616 -0.04796657 0.008439313 -0.22503781 0.12492135 -0.07231027 0.06973595
0.20257945 -0.01227293 -0.03200703 -0.08454577 -0.44385543 0.13083789 0.32887128 0.12781338
-0.017070204 -0.0721585 -0.021159869 -0.8139416 -0.11540292 0.22235578 0.033397295 0.20678961
-0.13191494 0.22120261 -0.045090936 -0.15327872 0.0006013382 -0.42735508 0.18675904 0.02217105
0.0041684723 -0.11126053 0.19899249 -0.025445087 -0.029976105 0.15076773 0.3210836 0.1897602
-0.28534007 0.077158034 -0.036317367 0.042781446 0.034685396 -0.07197809 -0.061362486 0.070489295
-0.012844296 0.117007904 0.027332498 -0.05831452 0.0076670093 0.051083025 -0.04310991 0.010762587
0.073847845 0.050853454 0.0472116 -0.07062563 -0.09479262 -0.048303805 -0.02874919 -0.019092694
-0.005312449 -0.042479195 0.0035264676 0.07120966 -0.008616732 -0.05092175 0.025120838 -0.04558791
0.0020197318 -0.035388697 0.034916166 -0.10039495 -0.060750023 -0.057908 -0.012917581 -0.01971012
0.0962137 0.08554111 -0.07434721 -0.09450459 -0.019918809 0.088078335 0.013054435 -0.004939467
0.09160087 -0.023735994 -0.019357547 -0.21016766 -0.049246393 -0.026030645 0.07832374 0.04382171
0.08662915 0.040497385 0.005548997 0.102254696 0.11393907 0.06080872 0.0035459986 0.10157726
0.10012957 -0.024978243 -0.028534248 -0.0018402592 0.04122939 -0.2667281 -0.15570857 0.18371888
0.09578871 -0.01631008 -0.0721645 0.14169383 -0.057079133 -0.047620382 -0.08189497 0.041386772
0.11573665 -0.0786734 -0.5378431 -0.2786434 -0.13570371 -0.064167105 -0.078666605 -0.020416055
0.012882096 -0.15823497 -0.057115976 -0.085748866 -0.10646181 0.06268833 -0.079256654 0.084987305
0.057467904 0.058631703 -0.100278765 0.019981222 -0.7479055 0.15193938 -0.069752954 -0.19736925
-0.0489054 -0.12587777 0.06696997 -0.5496472 -0.2626848 0.18740103 0.05055129 0.14806564
-0.0935136 0.19846502 0.07243419 -0.2368823 0.08527704 -0.36788562 0.20017344 0.14787194
0.039614815 0.015572218 0.1812078 0.056268986 -0.25442535 0.14484496 0.2505637 0.2861144

critic.qf.fc0.bias f4 [256]
00000000: 1082 c43d c505 ad3d dbee 3e3e 9e0e ee3d
00000010: 0021 913d c219 483e aa1b 4d3e beb4 f43d
00000020: b09a 903e d7d4 0d3e 3edf 623e 2e3d 573e
00000030: e037 343e 0fba 343e 5cbd 283e 07cb 613e
00000040: 15ed 373e c23c 343e 9bbc d63d 574c 3b3e
00000050: 6a99 433e 2d46 0a3e 36eb 393e 3df8 1e3e
00000060: 193c d73d bf15 5e3e 6dc7 5e3e ca0c 523e
00000070: 8816 5f3e 135e 4a3e 29c4 2e3e 06ba c93d
00000080: 0a16 123e d0cf 443e aa07 a43d 0eec a83e
00000090: 35eb 403e d604 393e 49da 323e 1f33 dc3d
000000a0: 94ca bf3d 197e 4d3e 6aeb 213e c246 b93d
000000b0: ddf1 793d 0a89 f13d 988d dc3d 714d 3f3e
000000c0: b8d7 3f3e d8b0 883d 036c 4a3e f657 9e3d
000000d0: 0b1c e83d 99c4 a43e cdf9 d23d 39ed 383e
000000e0: 7681 623e e3c9 413e 89f5 e53d 5df7 263e
000000f0: 834a 2e3e bbd3 423e 325f 893d 9e0b 3f3e
00000100: 1fd2 173e 8cc4 573e 76a7 423e 8d41 353e
00000110: 85c6 683e 2ae3 0a3e a48a 263e 8e51 443e
00000120: b4db 443e 4bd8 2e3e d902 253e 47d2 3a3e
00000130: 54f8 b33e 1bb4 1b3e 2efc 5d3e 5559 3e3e
00000140: 26fb d33d bb78 463e 8749 3b3e 711c 4d3e
00000150: eb05 523e 8366 473e 3b92 403e 1d28 4b3e
00000160: c7b9 c43d 7336 363e 2aa0 bf3d a7f3 a93d
00000170: f422 4d3d 7f0e d93d 642a ab3d ebfb 423e
00000180: fdd3 363e 031d a93d 9fb7 553e ad3e a93d
00000190: 9be2 243e 5c16 e13d 85c2 593e 15c9 3e3e
000001a0: eeea 153e 0328 453e 7566 b93d b9df ed3d
000001b0: 4bc4 2c3e d6e0 d63d 9140 6f3d ebc5 543e
000001c0: 119c 423d 958b 483e f407 383e 6a11 513e
000001d0: a1d3 3d3e f4c1 ab3d 3c63 fd3d 2efb 1e3e
000001e0: 7ce9 083e 0ff9 443e de01 473e 2673 513e
000001f0: 20e7 953d 8412 c93d 559f 3d3e b289 443e
00000200: 03df 083e 9eb5 2f3e 5998 393e b8a9 363e
00000210: 7f75 4b3e fb9a 3e3e 4872 b43c ce11 293e
00000220: 93db 663e b06c 4a3e 12bc 443d 2b8d 483e
00000230: 60a5 053e c556 3c3e c12d 493e 58c7 473e
00000240: 9b1a 323e 8e48 4d3e c51f b93d c058 933d
00000250: fee4 503e e88f 353e 1fe0 5a3e 1de3 563e
00000260: e85b 8a3d 0839 4b3e c538 4a3e ff09 f13d
00000270: 18a2 293e e63b cf3d b88c 463e 9779 313e
00000280: ef7d 873e 1e00 3a3e cdb9 093e 17b9 cf3d
00000290: 094b 5a3e d94e fa3d a54f 4f3e e47b 2d3e
000002a0: 3672 3b3e fbfc 0e3e 53af 4b3e da31 473e
000002b0: b504 ec3d 8aba 443e 1b1b d23d a637 4f3e
000002c0: 0c7b 6b3e 6b4b 703e 8382 bb3d c464 393e
000002d0: 4afe 793d 2ba7 8a3e a9a8 633e 50ad fb3d
000002e0: 41de e73d 70b4 653e da79 4b3e 9f75 373e
000002f0: 2b13 553e ffa3 193e f3be 3b3e fa5a 523e
00000300: 7313 6f3e 0ca1 3f3e a7a9 273e e657 4a3e
00000310: f954 573e 5fbd 5c3e ca4c 443e c3bb bb3d
00000320: 1b5b 583e 637f ce3d 7c45 4d3e 0015 4a3e
00000330: 3a54 523e cf3c cf3d 7bf7 3f3e d0ff 393e
00000340: e3ed 883d 986f 803d afe3 6f3e 4c57 423e
00000350: 42fe 463e 1dec 3c3e f56d 1f3e 8081 253e
00000360: 0971 c53d 5ba4 6f3e 81ef 723e f4a0 463e
00000370: 34ab 423e 593d c83d 5714 df3d fef8 293e
00000380: a46d 563e eb04 4f3e 778f 123e 3904 dd3d
00000390: 8843 d23d 90bb 2c3e f939 a03d 5c53 4e3e
000003a0: de09 0b3e d756 233e 5747 063d cf8d 3a3e
000003b0: 33c7 2c3e 2994 883e 979b a93d 2883 993d
000003c0: b6a3 a23e 8111 693e 9eff 5b3e d62c 3a3e
000003d0: c78d 633e 6aca e33d 364f 403e 3564 5e3e
000003e0: dff5 c73d 8c68 523e 4eff 813d 637a 033e
000003f0: c29c c93d 9961 5f3e 2082 4b3e 3cc1 373e
0.0959512 0.08448366 0.18645804 0.11623882 0.070863724 0.19541076 0.20030084 0.11948536
0.28243017 0.13850723 0.22155473 0.21019432 0.1759944 0.176491 0.16478485 0.22050105
0.17961533 0.17601302 0.104851924 0.1829084 0.19101492 0.13503332 0.18156132 0.15524383
0.105095096 0.21687983 0.21755762 0.20512691 0.21785939 0.19762449 0.17067017 0.09849934
0.1426622 0.19219899 0.08009274 0.32992595 0.18839724 0.18068251 0.17466082 0.10751938
0.093648106 0.20067634 0.1581246 0.09046699 0.061021674 0.11793716 0.10769194 0.18681885
0.18734634 0.06674355 0.19767766 0.07731621 0.11333474 0.32181242 0.10301552 0.18059243
0.22119698 0.1892467 0.11228473 0.16305299 0.17020611 0.19026081 0.0670761 0.18656775
0.14826249 0.2107107 0.19009194 0.17700787 0.22731979 0.13563219 0.16263825 0.19171736
0.19224435 0.17074697 0.16114368 0.18244277 0.35150397 0.15205424 0.2167823 0.18588765
0.10350637 0.19381993 0.18289767 0.20030381 0.2051007 0.19472699 0.18805782 0.19839521
0.09605747 0.17794208 0.09356721 0.08298426 0.050082162 0.10598468 0.08357695 0.19041412
0.17854305 0.08257487 0.20870827 0.082639076 0.16102068 0.10990593 0.2126561 0.18631394
0.146404 0.19253545 0.09052745 0.11614937 0.16871755 0.10492103 0.058411185 0.20778625
0.047512118 0.19584496 0.17971784 0.20416799 0.18537761 0.08386603 0.12372443 0.15525505
0.13370317 0.19235633 0.19434306 0.20454082 0.07319474 0.09817985 0.18517812 0.19193152
0.13366322 0.17159125 0.18124522 0.1783818 0.1986904 0.18613808 0.02202715 0.16510698
0.22544698 0.19768023 0.04803092 0.19585101 0.13051367 0.18392475 0.1964636 0.19509637
0.17392962 0.20047209 0.09039263 0.07194662 0.20399854 0.17730677 0.21374558 0.20985074
0.06755811 0.19845974 0.19748218 0.11769485 0.1656574 0.101188466 0.19389617 0.17331539
0.26463267 0.18164107 0.13449784 0.10142725 0.21317686 0.1222207 0.20245226 0.16941792
0.18305287 0.13963692 0.198911 0.1945261 0.11524335 0.19211784 0.10259076 0.20236072
0.22996157 0.2346627 0.091557525 0.18104845 0.061033525 0.27080664 0.22232307 0.12288916
0.113216884 0.22432113 0.19870701 0.17915963 0.20808093 0.15003966 0.1833456 0.20542517
0.23347263 0.18713778 0.16373311 0.19760093 0.21028508 0.21556614 0.19169918 0.09166672
0.21128504 0.10082891 0.20046037 0.19734573 0.20539942 0.1011902 0.1874675 0.18163991
0.06685998 0.06271285 0.23426698 0.18978614 0.19432929 0.18449445 0.15569289 0.16162682
0.096407 0.2340254 0.23724176 0.19397336 0.19010621 0.09777326 0.108925514 0.16598889
0.20940262 0.2021672 0.1431254 0.10791821 0.10266787 0.16868424 0.078235574 0.20148987
0.13577983 0.15951096 0.03278288 0.18218158 0.16872863 0.26675537 0.082816295 0.07495719
0.31765527 0.22760583 0.21484229 0.18181166 0.22222053 0.11122592 0.18780217 0.21717913
0.09763693 0.20547694 0.06347524 0.12839656 0.09844352 0.21814574 0.19873857 0.17944807

critic.qf.fc1.weight f4 [256, 256]
00000000: aaa3 5f3d 0f57 97bd b840 73bc 5687 8b3e
00000010: 87a8 403e 2521 fc3d 8673 4d3d df52 a93d
00000020: d2db 11be a40c 4c3d 5ecf 793d c169 243f
00000030: 424f b5bc a42a 083f f427 bdba 928b 483d
00000040: 7266 e13d 122f 463d b65e 353f 0b4b 993d
00000050: 52d7 dd3b 01f4 b13b fb4b 2cbc 77b8 ec3c
00000060: 51d6 b43e 05a0 bd3e 1713 df3e 5d03 c73d
00000070: ba6e d73e 263a f8bc 0ddc 7e3d 9370 92bd
00000080: 34c3 7abd 6655 2b3d 700c 03be 423a c73c
00000090: 1561 6c3d dc46 7e3d 0d31 fcbc 1876 163d
000000a0: d00b 343d eb93 6e3d 24b3 7fbd 5a3e 9dbd
000000b0: a60a 04bf 7b43 973d ad90 15be 96bd 57bd
000000c0: 6182 6c3c 420f 4f3e 1648 153e e10b 863f
000000d0: 9362 6a3b 5e0d 513d c8e4 a93c 46ba 3bbd
000000e0: 3209 a93d a331 143b ff04 09be ea7f 8cbb
000000f0: 510a cb3c 11ca 763d 55ac 8bbe 0fed a8bc
00000100: 5c77 b8bd ca7e ed3d 0a9f 9d3e 6b64 6fbd
00000110: d2bc 06bd f4ca 98bd d194 53bb 6964 5d3d
00000120: 4712 b53d c3a7 013e 7de8 833c 82a3 1c3d
00000130: 8021 b03d 329b 873e 98d4 a93d bf31 8d3e
00000140: 8f28 273f 3b9e c4be ae60 12bd a95d 823d
00000150: 624f a93d ffda 5d3d e280 2b3d cfbd e83d
00000160: 27db 22be 3e90 213d fec6 023d a62e 093e
00000170: 0131 f9bb 3c6b 0d3e 5789 8d3f c397 4fbd
00000180: 0253 29bd b702 55bd db51 983d 9189 693f
00000190: c0d0 153e 0de1 6d3c 153a 4c3d abc9 4bbd
000001a0: dea8 fb3e 8519 ab3c dddd 393f da08 f13d
000001b0: d428 fb3e ca83 e23c a063 6d3c 379d 3a3d
000001c0: e281 06bf 8c74 10bb bbdc e0be 747e cb3d
000001d0: fb3c 153d 1344 e93c ef26 9a3d c3c0 3a3d
000001e0: 2fc7 d23e 9fdb 1d3d 272d 723d addf 093e
000001f0: 719e 85bc d54e 8cbe c719 a13d c287 86bd
00000200: 628d 3d3e 7977 69bd c802 4d3d 73b1 fd38
00000210: e540 b7bc 6566 853d c2de a53c d8f5 b23b
00000220: 607b e33d 5213 213c 925e 053e 6fb9 77bd
00000230: 48ae 97bc 1036 af3d 37f5 eb3e 0b45 f4be
00000240: cd16 b33c 272f bc3b 2bff a1be 26ef 253d
00000250: 7b89 1f3d 368a 4ebd 0509 b43d 59ca 4dbc
00000260: a4f0 5ebd 9ef2 003e a68a 653e 998c 5c3d
00000270: 8412 c3bc 1afb cebd 6a37 763c 58db 123d
00000280: c799 c63d bb2f 02bd 298b d4bc d151 a1bd
00000290: 28cb 1abd bded e1bd c43e 833d 3cbd 02bc
000002a0: 7f44 633e b861 99bd 251e 5c3d f35a a5be
000002b0: 832a e83d 4494 a93d 452d 75bb 4ecc e0bc
000002c0: a7bf e73d f482 253e a819 093e d883 183e
000002d0: 4c3c 2a3e 9456 c43d 0132 083f f732 db3c
000002e0: 7b1d 993f e94c a53d fc57 b1ba 2c61 503d
000002f0: 3690 c23d 9a31 583d 0a25 a4be fc11 d03c
00000300: 8a83 323d f2cb 593d ac51 943d 02bc 923d
00000310: 39df e93b fc39 a13d e689 753b 16f1 3f3e
00000320: 41d5 9cbe 5cd4 1a3d d68e 233e 837c 9a3a
00000330: e073 9b3d becf 373e 61ac 7e3e e922 213c
00000340: 1e00 5e3f a9b8 e63b 0972 373f 7b41 d8bc
00000350: af99 1b3c feb8 193d 84c6 393c ce1e c43e
00000360: 4bf0 ad3c 8515 843e 8f1d 2b3e cf62 423c
00000370: 5018 f53d ac7d 16bd 6ae6 c03d c576 4d3d
00000380: 727d 043e a454 a63d 6384 3ebd 5760 cebe
00000390: 7e4c d6be 95bd 03ba 75c2 9e3c 00f8 ae3d
000003a0: 0f4a b5bd e2fe 69bd be9d 1ebf ae4a aa3d
000003b0: edf0 c1bd 04a5 ad3d f867 6b3e 015d e8bc
000003c0: 9402 8bbd 8ac5 b43d feaf 2d3d 54d6 cd3e
000003d0: efba 3f3d 9278 cd3e ea82 813d 06fb 9239
000003e0: 69e0 12bd fd21 df3d bcbe 15bd 3efc 89bc
000003f0: 093e d53d 3106 153e 7e43 103e 7edd 8d3d
0.05459944 -0.07389652 -0.014846973 0.2725169 0.18814288 0.12311009 0.050159 0.082677595
-0.14244011 0.049816743 0.060988776 0.6422387 -0.02213252 0.53190064 -0.0014431463 0.04896123
0.11005868 0.048384733 0.7084764 0.074850164 0.006770053 0.005430699 -0.010516162 0.028896553
0.3531976 0.37036148 0.43569252 0.09717438 0.42076665 -0.030301165 0.062221576 -0.07150378
-0.061221316 0.04182949 -0.12797713 0.024319772 0.057709772 0.062079296 -0.030785108 0.036733717
0.043956578 0.058246534 -0.0624267 -0.07677908 -0.5157875 0.07385918 -0.1460597 -0.052671038
0.014435382 0.20220664 0.1457828 1.0472375 0.0035764321 0.05103814 0.020738974 -0.04583194
0.08253707 0.0022612594 -0.13380812 -0.0042877095 0.024785193 0.0602513 -0.27279916 -0.02062085
-0.09007141 0.11596449 0.307854 -0.058445375 -0.032894917 -0.07460585 -0.0032284746 0.054050837
0.08841377 0.12661652 0.01610207 0.03824187 0.086001396 0.26485592 0.08292502 0.27577016
0.6529626 -0.3840197 -0.035736732 0.063655205 0.08267094 0.05416393 0.04187096 0.11364328
-0.15903912 0.0394442 0.031928055 0.13396701 -0.0076047187 0.13810438 1.1057538 -0.05068184
-0.041338928 -0.052004542 0.07437488 0.91225535 0.14630413 0.014518988 0.04986008 -0.049752872
0.49152273 0.020886192 0.7260416 0.117692664 0.49054587 0.027650733 0.0144890845 0.045560088
-0.52541935 -0.0022042124 -0.43918404 0.099362284 0.03643511 0.028474843 0.07526957 0.04559399
0.4116759 0.038539525 0.059125092 0.13464232 -0.016310902 -0.27403894 0.07866245 -0.065688625
0.18510965 -0.056998704 0.05005148 0.000120970326 -0.022369811 0.06513671 0.02024782 0.0054614358
0.11107516 0.0098312665 0.13024357 -0.060479578 -0.018515721 0.085552335 0.46085522 -0.47708926
0.021861458 0.0057429257 -0.3163999 0.040511273 0.03894947 -0.050424777 0.08790783 -0.0125604505
-0.05442871 0.12592551 0.22416171 0.053845022 -0.02381254 -0.101064876 0.01502786 0.035853714
0.096972995 -0.0317838 -0.025945263 -0.07876933 -0.0377914 -0.11031673 0.06408456 -0.007979687
0.22194098 -0.074893415 0.053739686 -0.3229595 0.113362335 0.082802325 -0.0037411016 -0.02744117
0.11315852 0.16163236 0.13388693 0.14894044 0.16624564 0.09586826 0.532013 0.0267577
1.1962122 0.0807131 -0.001353025 0.05087392 0.09500162 0.05278168 -0.3205951 0.0253992
0.043582477 0.053173013 0.0724214 0.07164766 0.007137206 0.07872388 0.0037466227 0.1874431
-0.3063145 0.037800178 0.15972456 0.0011786375 0.07590461 0.17950341 0.24870445 0.009834983
0.8671893 0.007041056 0.7165838 -0.026398411 0.00949709 0.037529938 0.011338834 0.38304752
0.021232745 0.25797668 0.16710494 0.011864378 0.11967528 -0.036740944 0.09418948 0.050162096
0.12938479 0.08121613 -0.046512973 -0.40307876 -0.41855234 -0.00050255033 0.019379834 0.08543396
-0.08852016 -0.05712784 -0.61959445 0.08315025 -0.09469781 0.0847874 0.2298888 -0.02836466
-0.06787601 0.0882674 0.042404167 0.40202582 0.046809133 0.4013105 0.06323798 0.00028034317
-0.035858545 0.108951546 -0.03655885 -0.016843911 0.10412223 0.14553143 0.14088246 0.06927012

critic.qf.fc1.bias f4 [256]
00000000: 7367 623e ce2c 313e 7350 673e 69f2 493e
00000010: 90ab 553e 3f5f 333e 7ea0 8f3e afdd 493e
00000020: cdba 6e3e 0875 773e ee30 853e f6a1 463e
00000030: 424f a43e af97 193e ee45 4b3e 16db 723e
00000040: 9533 8d3e 6609 7a3e b915 613e 3f85 543e
00000050: 88e2 a03e 82af 603e 5387 6c3e fd5b 573e
00000060: c52e 603e 812a 403e 2c9c 273e becd 3a3e
00000070: 2ea0 543e 47ba 623e 2cb5 813e e77e 363e
00000080: 0245 aa3e 6e26 683e b9cc 4f3e 496c 533e
00000090: 2825 803e 78be 483e 6c58 7c3e 3521 683e
000000a0: 16cf 5b3e dc2e 5e3e 03e3 603e cffe 723e
000000b0: 17fe 393e 6fd4 2b3e ae4d 483e 9750 933e
000000c0: 714c 673e 5fce 443e a612 493e cc7f 613e
000000d0: d524 633e 42eb 3c3e b4b7 4b3e 9756 5f3e
000000e0: 553c 6d3e 5406 603e efae 443e 3af2 4f3e
000000f0: f805 923e c148 953e 6f76 913e 349e 343e
00000100: 620f 693e 2220 2f3e 15f7 8a3e 0c89 773e
00000110: ea12 5e3e ff05 623e 8f22 443e 5ee0 aa3e
00000120: 3b13 243e 5daf 503e d963 343e d2c7 753e
00000130: 9eb8 813e ecac 2d3e 412f 5a3e d586 443e
00000140: 37d0 a93e 6184 853e 312c 4e3e 524b 263e
00000150: d45b 493e c55f 523e b077 a73e 7ec6 683e
00000160: 13c4 803e b473 383e a1aa 463e 636b 923e
00000170: 2eb9 833e 4e0f 453e 6464 5b3e 7311 683e
00000180: 46df 4a3e e5b3 603e d087 543e 3966 2c3e
00000190: c5e9 8d3e f32f 873e d93a 2c3e d7a4 373e
000001a0: 4215 d73e 4671 713e 34bb 4a3e 2639 443e
000001b0: 3bdb 823e 753e 5c3e 7a11 493e 36be 6f3e
000001c0: 6ebb 3f3e ade7 523e d562 803e f726 843e
000001d0: dc0d 383e cdf4 3f3e 2cd5 603e 4c74 a43e
000001e0: 8b82 7c3e ae8e 503e 3f44 483e 429a ad3e
000001f0: 965f 273e 2b77 303e 56ac 663e 6126 3b3e
00000200: 820d 883e 71a4 573e e67e 673e 7280 1c3e
00000210: 5e15 973e 0bea 3e3e a6e3 4c3e e882 653e
00000220: f618 663e 40d4 2a3e 7bad a73e f13f 293e
00000230: ce5a 803e dca9 643e af76 223e 2485 363e
00000240: 38de 6e3e f93f 453e eae1 233e 5196 893e
00000250: d7ce 4f3e f9d1 583e d511 603e d5e8 563e
00000260: dd4f 373e cb64 563e 8525 493e aa42 853e
00000270: 5ccb 4c3e 37da 463e f4f4 543e 9e90 453e
00000280: 48c4 633e 09e4 6b3e c00a 443e e53f 523e
00000290: 25b4 723e c25b 683e be83 683e 30f6 2c3e
000002a0: a585 443e e4fd 463e 50cb 223e 2090 543e
000002b0: ca07 943e edd7 483e 53ad 653e 3931 4c3e
000002c0: ccc1 1b3e 668c 953e 30f2 8a3e 6974 723e
000002d0: 2880 723e b248 323e f0df 913e c48c 7e3e
000002e0: 8ab2 213e 20cb 623e 39b6 4f3e 9d90 583e
000002f0: b274 443e b01f 353e 34fb 8f3e 1c1d 6e3e
00000300: 33df 9a3e e6d2 573e 0c5c 5d3e b493 6e3e
00000310: 6ec1 273e b559 393e 015a 383e 9372 4a3e
00000320: 6eed 433e b6ab 523e 42ba ab3e 6526 513e
00000330: c259 5a3e e237 a73e f7f3 4e3e 1ad5 9c3e
00000340: b2b1 403e 7c27 4e3e 9584 493e 5678 403e
00000350: 480b 763e 2486 7b3e 2a55 263e 871b 403e
00000360: aaf6 2f3e 1fff 7c3e d414 593e 9aad 673e
00000370: 70ba 9f3e 0aaf a63e 1920 583e eb94 673e
00000380: 1aae 353e 5a2f a03e 127e 503e dad2 263e
00000390: 46e9 473e fe2b 593e 2879 4e3e 0c60 803e
000003a0: 2df0 7a3e 6fbe 723e ee51 3d3e 28f0 5b3e
000003b0: c5b0 583e aed2 6a3e 30e0 673e 0a46 5e3e
000003c0: d292 343e 9956 3d3e 7702 383e 9fc9 833e
000003d0: a214 593e 8064 323e 104a a03e 3729 3f3e
000003e0: 468e 333e bb9a 3d3e 3a27 483e a490 623e
000003f0: e1bb 3d3e 1b73 6d3e f026 8d3e c7a7 713e
0.22109775 0.17302248 0.22589283 0.19721378 0.20866227 0.17516802 0.28052133 0.19713472
0.23313446 0.24165738 0.26013893 0.1939772 0.3209172 0.14999269 0.19850895 0.23716387
0.27578416 0.24417648 0.21980943 0.20753954 0.3142283 0.21941951 0.23098497 0.21031184
0.21892841 0.18766214 0.16368169 0.18242547 0.20764229 0.22141372 0.25333536 0.17821847
0.33255774 0.2267091 0.20292939 0.20646776 0.25028348 0.19603908 0.24643105 0.22668917
0.21465716 0.21697563 0.21961598 0.23730014 0.18163334 0.16780256 0.19560882 0.28772423
0.22587754 0.1921935 0.1963602 0.22021407 0.22182019 0.18449119 0.19894296 0.21810375
0.23167546 0.21877414 0.19207357 0.20307246 0.2852018 0.2915707 0.2841067 0.17638475
0.22759774 0.17102101 0.27141634 0.24173373 0.21686903 0.220726 0.19153808 0.33374304
0.16022961 0.20379396 0.17616214 0.24002007 0.25336164 0.16960496 0.21307088 0.1919206
0.33166668 0.2607756 0.20134045 0.1623967 0.19663936 0.20544346 0.32708502 0.22731969
0.25149593 0.18012887 0.19401027 0.28597555 0.25727218 0.1924412 0.21425015 0.22662906
0.19811735 0.21943624 0.20754933 0.1683587 0.27717414 0.2640377 0.16819324 0.17933975
0.42008406 0.23578367 0.19797975 0.19162425 0.25557885 0.215082 0.19635573 0.23412403
0.18723843 0.2059619 0.25075403 0.25810978 0.17974037 0.18745728 0.21956319 0.32119977
0.24659173 0.20366928 0.19557284 0.33906752 0.16345057 0.17232959 0.22526678 0.18276359
0.26572806 0.21058823 0.22607002 0.15283373 0.2950849 0.18643968 0.20008716 0.22413218
0.2247046 0.1668253 0.32749543 0.16528298 0.25069278 0.22330421 0.15865587 0.17824227
0.23326957 0.19262685 0.16004148 0.26872495 0.20293747 0.21173848 0.21881802 0.20987256
0.17901559 0.20936887 0.19643219 0.26027423 0.1999945 0.1941918 0.20796567 0.19293448
0.22242844 0.23036207 0.19144726 0.20532186 0.23701532 0.22691253 0.22706506 0.16890788
0.19191606 0.19432789 0.1589787 0.20758104 0.28912193 0.19613619 0.22429399 0.19940652
0.15210646 0.29208678 0.271379 0.2367722 0.236817 0.17410544 0.28491163 0.24858385
0.15790763 0.22147799 0.20284356 0.21148916 0.1918514 0.17687869 0.2812134 0.23253292
0.30248412 0.21076545 0.21617144 0.23298532 0.16382381 0.18100627 0.18003084 0.19770269
0.19133541 0.20573315 0.3354054 0.20424803 0.21323302 0.32659823 0.20210253 0.30631334
0.18817785 0.2013225 0.19679482 0.18795905 0.24027741 0.2456289 0.16243425 0.18760501
0.17183939 0.24706696 0.21199352 0.22624817 0.31196928 0.3255542 0.21105994 0.22615401
0.17742196 0.31286126 0.20360592 0.16291371 0.1952258 0.21208188 0.20163405 0.25073278
0.24505682 0.23705457 0.18488285 0.21478331 0.21161182 0.2293193 0.22644114 0.21706405
0.17634133 0.18490066 0.1796969 0.25739762 0.21199277 0.1742115 0.31306505 0.18668066
0.17534742 0.18516056 0.19546214 0.22125489 0.18528701 0.2318844 0.2756877 0.23599158

critic.qf.last_fc.weight f4 [53, 256]
00000000: 6584 86bd f1f1 a0bd e478 98bd f270 b4bd
00000010: fa9f a8bd 527a c3bd 7f78 6fbd 403b b3bd
00000020: dea6 34bd ea97 a5bd 40ef a8bd 8d22 adbd
00000030: f826 8cbd d81d aabd 3c12 75bd 5e5d 95bd
00000040: d437 9fbd 86b9 75bd 23ca 49bd 6def 7abd
00000050: 5eb0 8abd 0f95 99bd 8ed4 9dbd 3f8d 81bd
00000060: 7432 a0bd 62f4 97bd 0eca 87bd 0ec0 acbd
00000070: 5353 abbd f41a 5dbd e623 94bd 0039 b1bd
00000080: 965c 273e 0847 93bd 9eb2 8fbd 60ec 9fbd
00000090: 948a 76bd 0ad7 a3bd 1aed 66bd 307f acbd
000000a0: a20a 96bd 6e0c b1bd 0f07 a0bd 10f4 9cbd
000000b0: a047 94bd 5dca aebd eb2d adbd 6368 90bd
000000c0: ebbb 9fbd 9d71 90bd e422 8ebd cbfa a6bd
000000d0: 6370 86bd ed80 5bbd 1f00 a8bd b1f5 96bd
000000e0: c757 87bd 68e2 a3bd 4f43 a4bd acbc 9fbd
000000f0: 8c25 83bd c85f 9bbd 723a 8cbd edd2 aabd
00000100: bbba 90bd 72a0 98bd da8f a7bd 5d72 90bd
00000110: 6ef0 3fbd f9eb 87bd 0b7f 9cbd 3b5d 63bd
00000120: a06a a3bd efb4 853e 66f0 a3bd 2760 97bd
00000130: 7731 90bd 5041 03bd 5625 9cbd 432a a1bd
00000140: aa5a 8abd ed25 8ebd 3472 69bd 3f8b 3b3e
00000150: a1af 81bd d997 adbd 384a 2b3e 1f28 8ebd
00000160: 5e1e 97bd 37fd acbd 188b 99bd 13f8 ff3d
00000170: 9f80 89bd 92f1 72bd 0388 9cbd 30f7 9ebd
00000180: bbcb 84bd 8434 84bd 2e06 9ebd 2d0d 6abe
00000190: dd1e 58bd 855d 7ebd ce8d 9cbd 791f 9ebd
000001a0: e0a4 89bd 1ce7 73bd 6842 7abd cb31 abbd
000001b0: 3616 7abd 31c2 a0bd 588b b3bd 094e a2bd
000001c0: 9e0b 2cbd 67ab 50bd 11d0 99bd efa9 8bbd
000001d0: d378 7ebd 7562 94bd c993 9cbd 141d 86bd
000001e0: c2ee 96bd fa93 7bbd 24cd b4bd e96c 81bd
000001f0: 7efd 9bbd afa1 89bd 00cf 90bd 1d12 afbd
00000200: d197 88bd 010d 9cbd f954 85bd af02 c6bd
00000210: 8df5 92bd cb31 69be 1462 6fbd c356 63bd
00000220: 0eeb 66bd 56f7 9dbd ba98 373e 9fcb 88bd
00000230: 4229 9bbd a663 abbd 7ba3 87bd 09bd 99bd
00000240: f77b a5bd fcea a1bd 1286 25bd 6f05 7ebd
00000250: 5e72 90bd 19ee acbd 35ef adbd f5f8 57bd
00000260: 730e 87bd 3c02 a4bd e0fb 93bd ad2b 64bd
00000270: e620 9cbd d17f b8bd 8fd6 b2bd 9812 87bd
00000280: 5285 6ebd 80b6 80bd 1a36 a7bd ac5e 8cbd
00000290: ac5d 8ebd 72c5 acbd f0b7 73bd 3091 b7bd
000002a0: 6316 9cbd 8983 31bd 8137 64be 69dd 70bd
000002b0: 188d 82bd 03fe a7bd 46f5 60bd d55b adbd
000002c0: 74c7 4cbd 2968 98bd 368e 7ebd 37b2 9fbd
000002d0: 22f5 7fbd b2cc a0bd 9e86 2fbd c769 99bd
000002e0: 6c3b 61bd 60a1 74bd 021a 5fbd e64d a73d
000002f0: 1fba cebd 7c86 88bd d990 56bd e24e 66bd
00000300: 9ba8 8dbd bb4c b3bd 6932 82bd 972e 8dbd
00000310: 64e5 61be 39f2 9ebd b18c 9fbd dca0 bbbd
00000320: afdb aebd 57c1 99bd 00b9 1c3e 66fa 193e
00000330: 9c50 b5bd 272f 373e 30a7 a7bd fd27 92bd
00000340: 5944 8fbd b1c1 4dbd 3345 aebd 213e 66bd
00000350: f98d 7fbd 94dc 81bd ae50 aabd 95ee a9bd
00000360: 1e0f a1bd 02ab b6bd aa94 b2bd dd62 adbd
00000370: 94cb 7bbd aeaa 84bd d36e aebd 59a3 afbd
00000380: 9e06 9bbd 7f99 84bd d2a3 b4bd 5743 113e
00000390: 2dca a8bd 345c 97bd 0c47 92bd 3b11 79bd
000003a0: 6828 72bd 8fa2 65bd b394 9ebd ba87 a0bd
000003b0: 79c8 7dbd e6f4 6bbd 95a6 a2bd 77a8 a4bd
000003c0: 0c01 b3bd e530 aebd 8b6f aabd 2af1 8cbd
000003d0: d89d aebd 2235 95bd 2cf4 87bd 0dca 9fbd
000003e0: 4d09 9bbd cb8f 87bd 1086 9dbd bba4 b3bd
000003f0: 7308 7abd 9dc8 8abd 6a92 86bd 9097 85bd
-0.06568221 -0.07858647 -0.07444933 -0.08810605 -0.08233638 -0.09544815 -0.058464523 -0.087515354
-0.04410445 -0.08085616 -0.08248758 -0.08453856 -0.0684337 -0.083064735 -0.059831843 -0.07293199
-0.0777432 -0.059991382 -0.04926504 -0.06126349 -0.067719206 -0.07499134 -0.07706557 -0.06325769
-0.07822123 -0.07419659 -0.06630336 -0.08435069 -0.08365502 -0.053980783 -0.072334096 -0.0865345
0.16343912 -0.071912825 -0.070164904 -0.07808757 -0.060190752 -0.08 -0.05637846 -0.084226966
-0.07326247 -0.08644949 -0.07813846 -0.07663739 -0.07240224 -0.085346915 -0.08456024 -0.0705116
-0.077995144 -0.0705292 -0.069402486 -0.08153304 -0.06564405 -0.05358975 -0.08203148 -0.07371081
-0.06608539 -0.08002168 -0.080206506 -0.07799658 -0.06403646 -0.07586628 -0.06847085 -0.08341012
-0.07066866 -0.074524775 -0.081817344 -0.07053063 -0.04686015 -0.06636805 -0.07641419 -0.055508833
-0.079793215 0.26114604 -0.08004837 -0.073913865 -0.07040685 -0.03204471 -0.07624309 -0.07869389
-0.06755574 -0.069408275 -0.05699368 0.18314837 -0.06332327 -0.08476228 0.16727531 -0.06941246
-0.07378839 -0.084467344 -0.07497233 0.12498488 -0.06713986 -0.05931241 -0.0764313 -0.07761991
-0.06484171 -0.06455329 -0.077160224 -0.22856589 -0.05276381 -0.062100906 -0.076442346 -0.07720847
-0.067209005 -0.059546575 -0.061098486 -0.08359107 -0.06105634 -0.07849539 -0.08766812 -0.0792504
-0.042003267 -0.050944712 -0.07510389 -0.06819522 -0.062126946 -0.07245342 -0.07645375 -0.06548515
-0.07369758 -0.06142042 -0.0882819 -0.06319601 -0.07616709 -0.06720292 -0.07070732 -0.08548377
-0.06669582 -0.07619668 -0.06510348 -0.096684806 -0.07175741 -0.22772901 -0.058443144 -0.055502664
-0.05637651 -0.07713191 0.17929354 -0.06679463 -0.07576229 -0.08368616 -0.06622978 -0.07506759
-0.08080285 -0.07906148 -0.040411063 -0.0620169 -0.07053064 -0.08443851 -0.08492891 -0.05272766
-0.06594553 -0.08008239 -0.07225776 -0.055705715 -0.076234624 -0.09008754 -0.0873233 -0.06595343
-0.058232613 -0.06284809 -0.08164616 -0.06853995 -0.0695146 -0.08436097 -0.05950159 -0.08963239
-0.076214574 -0.043338332 -0.22286798 -0.058804903 -0.06374568 -0.08202746 -0.05492141 -0.08464781
-0.0499949 -0.07441742 -0.06214734 -0.07797664 -0.062489636 -0.078515425 -0.04285299 -0.074908786
-0.05498831 -0.05972421 -0.054468162 0.08169155 -0.100940935 -0.06666276 -0.05238423 -0.056227572
-0.069169246 -0.087548696 -0.06357271 -0.06893652 -0.22060162 -0.07761044 -0.07790507 -0.09161541
-0.08537995 -0.0750758 0.15304947 0.15036926 -0.08853266 0.17889081 -0.08186185 -0.071365334
-0.06995458 -0.050233547 -0.085092925 -0.056211594 -0.062391255 -0.063409 -0.0831617 -0.08297459
-0.078642115 -0.08919336 -0.08719762 -0.08466122 -0.061473444 -0.06477867 -0.08517232 -0.08576078
-0.075696215 -0.064745896 -0.08820309 0.14185844 -0.08241687 -0.07390633 -0.07142457 -0.060807448
-0.059120566 -0.05606323 -0.07743206 -0.07838388 -0.061958764 -0.0576066 -0.07941929 -0.080399446
-0.08740434 -0.0850542 -0.083220564 -0.06881936 -0.085262 -0.07285525 -0.06638369 -0.0780221
-0.07570133 -0.06619223 -0.07691586 -0.08771654 -0.061043214 -0.06776545 -0.06570895 -0.06523049

critic.qf.last_fc.bias f4 [53]
00000000: 4ffb 93bc 39bc e8bc d3e7 a4bc 5fc4 21be
00000010: 0197 b6bd 417c f6bc a592 323d 3c2d c3bc
00000020: 2b58 b9bc b03b bf3d 7a2f 59bc 5188 903d
00000030: 4d00 42bc c1ea a2bd 234a f73c 7361 613d
00000040: d4c1 f83c 9298 5d3d be4d 813b 6423 963d
00000050: e200 f6bb 83c3 363d 8608 28bd c8af e8bc
00000060: 77d1 24bd cbbe 7cbd 716e b53d 9015 b6bd
00000070: a7ed 61bd e5bc 24be 05a0 f13d 4853 22bd
00000080: 6247 4c3d 6bda 9f3d 093c 713d 7389 aa3d
00000090: 32a1 0bbe 93a8 1abe 084a 0cbd bc01 973c
000000a0: 2cca 9dbe a092 b4be 76da 8bbe 3eac 82be
000000b0: 8ebe 3cbe 4eb6 58be d4d2 a6be 75fb 533e
000000c0: 0324 7ebd 220b d9bd fd8a 8fbe afa8 d0be
000000d0: 4706 b6be
-0.01806417 -0.028410064 -0.020130074 -0.15797566 -0.089155205 -0.030088546 0.043596882 -0.02382528
-0.02262505 0.09337556 -0.013255948 0.0705725 -0.011840892 -0.07954932 0.030186718 0.055024575
0.030365862 0.05410058 0.003946035 0.07330969 -0.0075074295 0.04462005 -0.041023754 -0.028404132
-0.040238824 -0.06170539 0.08858956 -0.088908315 -0.055158284 -0.16087683 0.117980994 -0.039630204
0.049872763 0.07805332 0.058895145 0.083269976 -0.1363571 -0.15103368 -0.03425029 0.018433444
-0.30818307 -0.35268116 -0.2731511 -0.25522035 -0.18432066 -0.21163294 -0.32582724 0.20701392
-0.062046062 -0.105978265 -0.28035727 -0.40753695 -0.35551664
