TFPORL-main/pomdp-discrete/logs_results/network-defender/final/lstm/seed-1/save/agent_0015000_perf30.060.pt (torch, 941646 bytes, 28 tensors)

critic.observ_embedder.fc.weight f4 [32, 15]
0.26597762 -0.16395548 -0.033957146 0.25741085 -0.3280468 0.29976377 -0.07291093 0.17672968
0.1876412 -0.13666816 -0.08165092 0.023336723 0.11697539 -0.22718263 0.049258057 0.18567395
0.02208515 0.072587065 0.30646393 0.1258842 -0.079294026 -0.23798564 -0.21050519 -0.059231363
-0.061184883 0.047243018 0.4584906 0.32904607 -0.18230192 0.1323171 0.116696805 0.53382206
0.1759543 -0.21662098 -0.34271082 -0.061165027 0.18067324 0.082800746 0.14812467 0.04059337
0.13439773 -0.15718938 0.20784053 -0.102600984 -0.25346377 0.29789463 -0.12517053 0.09816549
-0.01586021 0.014605524 -0.35065073 -0.11999986 0.11336803 -0.0137210265 0.26896155 0.33932695
0.08997437 -0.31135443 0.25781 0.083508365 -0.23369645 0.14237292 0.24147072 0.34928757
-0.22603096 -0.114432566 0.10203045 0.082341656 -0.22263606 -0.30857784 0.15017389 -0.038985908
0.12034218 0.09796165 0.1932297 0.2566674 0.14227307 0.1812392 -0.2501058 0.33308342
-0.13941163 -0.050571825 0.15113555 -0.124753244 0.2667081 -0.13230483 -0.28484666 0.23145926
-0.06331535 0.29884088 0.27062315 -0.27119553 0.21766184 0.08354886 -0.24265808 0.03240705
0.37573203 0.1320941 -0.2197274 -0.04622291 0.14492725 -0.0059853764 0.17493649 0.1937916
-0.24416502 -0.26134786 0.34220484 -0.10009407 0.042597577 0.052159917 0.14304893 0.2132197
0.33030626 -0.26350334 -0.05159205 0.17100401 0.17761111 0.08467565 -0.3188075 -0.2403069
-0.23886105 -0.11877743 0.2360135 -0.22685525 0.13947167 -0.21631384 -0.2835889 -0.042052675
0.23016827 0.09205035 -0.12617287 0.050741196 0.40231955 0.33411402 0.45029312 0.31699988
0.23695475 0.1080458 -0.12400769 -0.36264122 -0.15479393 0.008610779 -0.2057592 -0.008698528
0.09361424 -0.18423021 0.19437438 0.0073798653 0.2155509 0.16392641 -0.17546822 0.55059516
-0.0053735147 -0.044874717 -0.35224938 -0.10111028 -0.10000183 -0.008537136 0.120995805 -0.024520796
-0.14034681 0.1411033 -0.050756108 0.066986024 -0.10564392 0.02909032 -0.10976823 -0.13047723
-0.19651002 -0.1263257 -0.01300099 0.3302309 0.15441239 0.18129593 0.19990422 0.43864748
0.087919205 -0.0104565 -0.19619398 0.45358056 -0.109730944 0.12110968 -0.2576009 -0.1586594
-0.26355767 0.38424864 -0.19943698 -0.025936527 0.11197133 -0.11179715 0.1265052 -0.020792784
-0.10230469 0.00636313 0.19363618 -0.13946444 0.20275061 0.24763727 0.40600762 -0.19610438
-0.028290015 -0.10922417 0.33931407 -0.12569797 0.27755058 0.07122763 -0.0760186 -0.07453897
0.052708533 0.24684677 0.098057255 0.020268312 -0.15193167 0.3359635 0.3607437 0.26921546
0.22901757 -0.19422022 -0.18184814 0.32467598 -0.27543908 0.22160795 -0.24690881 -0.25391185
0.09770292 -0.18536605 0.0040048417 0.062802106 0.23257217 0.4162396 -0.07803712 -0.2593983
0.48350802 -0.036421508 -0.106878504 0.043118875 -0.24711613 0.2164253 0.36083743 -0.24313533
-0.18348335 -0.0024328195 0.20391507 -0.044593327 -0.15203576 0.19494043 -0.1628251 -0.27692333
-0.23423326 0.24016707 0.3336959 -0.14078914 0.0046238024 0.11070283 0.11672129 -0.13806607
00000000: 382e 883e f2e3 27be a616 0bbd 5bcb 833e
00000010: c0f5 a7be a37a 993e 5352 95bd a0f8 343e
00000020: 0425 403e bdf2 0bbe 9938 a7bd a82c bf3c
00000030: cb90 ef3d 90a2 68be d1c2 493d 5021 3e3e
00000040: ebeb b43c 87a8 943d d7e8 9c3e cae7 003e
00000050: e864 a2bd 82b2 73be ac8e 57be 969c 72bd
00000060: 009d 7abd e581 413d 48bf ea3e ba78 a83e
00000070: 5bad 3abe 227e 073e bcfe ee3d 90a8 083f
00000080: 5d2d 343e e4d1 5dbe cb77 afbe 2e88 7abd
00000090: 6802 393e 7093 a93d fead 173e 3c45 263d
000000a0: 8f9f 093e 41f6 20be 26d4 543e 7720 d2bd
000000b0: 01c6 81be a585 983e b42c 00be fd0a c93d
000000c0: 45ed 81bc 024c 6f3c 7e88 b3be 7dc2 f5bd
000000d0: 7f2d e83d 28ce 60bc 54b5 893e 43bc ad3e
000000e0: 7c44 b83d d969 9fbe acff 833e 6f06 ab3d
000000f0: 1f4e 6fbe 35ca 113e 1a44 773e d2d5 b23e
00000100: a974 67be 9f5b eabd 57f5 d03d bea2 a83d
00000110: b5fa 63be eafd 9dbe 2fc7 193e b0af 1fbd
00000120: f675 f63d 1ea0 c83d 02de 453e e969 833e
00000130: 08b0 113e c596 393e de0d 80be e989 aa3e
00000140: ecc1 0ebe 6724 4fbd 47c3 1a3e a17e ffbd
00000150: f78d 883e eb7a 07be 6cd7 91be a803 6d3e
00000160: 7aab 81bd ac01 993e 1e8f 8a3e 24da 8abe
00000170: bfe2 5e3e aa1b ab3d 5c7b 78be 41bd 043d
00000180: f35f c03e ad43 073e 3800 61be 3c54 3dbd
00000190: cf67 143e fa20 c4bb 8d22 333e 4e71 463e
000001a0: 6506 7abe 63cf 85be 7935 af3e 1ffe ccbd
000001b0: cc7a 2e3d a3a5 553d 6b7b 123e 4456 5a3e
000001c0: e71d a93e e9e9 86be 2f52 53bd ad1b 2f3e
000001d0: b0df 353e 6d6a ad3d bd3a a3be 0313 76be
000001e0: fe97 74be 9541 f3bd 86ad 713e be4c 68be
000001f0: a9d1 0e3e 6081 5dbe 9032 91be 6d3f 2cbd
00000200: 3bb1 6b3e e584 bc3d 7633 01be 00d6 4f3d
00000210: d4fc cd3e fe10 ab3e d28c e63e cf4d a23e
00000220: 44a4 723e 1e47 dd3d bef7 fdbd 1cac b9be
00000230: 4d82 1ebe 3a14 0d3c 8ab2 52be 4584 0ebc
00000240: d3b8 bf3d d8a6 3cbe 140a 473e ccd2 f13b
00000250: 60b9 5c3e 53dc 273e f1ad 33be cef3 0c3f
00000260: 4f14 b0bb 8dce 37bd 085a b4be e812 cfbd
00000270: c2cd ccbd 58df 0bbc a6cc f73d d6df c8bc
00000280: 13b7 0fbe 627d 103e a3e5 4fbd f82f 893d
00000290: d75b d8bd d34e ee3c 2ace e0bd d39b 05be
000002a0: ec39 49be 865b 01be 1b02 55bc 0614 a93e
000002b0: 481e 1e3e a4a5 393e b1b3 4c3e 6796 e03e
000002c0: fc0e b43d bd51 2bbc 13e7 48be b63b e83e
000002d0: 9eba e0bd 5a08 f83d 44e4 83be 9c77 22be
000002e0: 08f1 86be 3dbc c43e 3539 4cbe d778 d4bc
000002f0: 3a51 e53d e7f5 e4bd 948a 013e a155 aabc
00000300: 1f85 d1bd ce81 d03b 9048 463e c4cf 0ebe
00000310: db9d 4f3e a094 7d3e 3be0 cf3e 96cf 48be
00000320: 76c0 e7bc ecb0 dfbd 93ba ad3e f8b6 00be
00000330: 1c1b 8e3e cbdf 913d a4af 9bbd e3a7 98bd
00000340: e7e4 573d 66c5 7c3e 3ed2 c83d bb09 a63c
00000350: fa93 1bbe 6803 ac3e 66b3 b83e 9cd6 893e
00000360: 9583 6a3e aae1 46be 6636 3abe ee3b a63e
00000370: 5a06 8dbe 32ed 623e aad5 7cbe bc00 82be
00000380: 7818 c83d 99d0 3dbe 0c3b 833b 649e 803d
00000390: 6627 6e3e 5b1d d53e edd1 9fbd dbcf 84be
000003a0: 5d8e f73e b82e 15bd 1ee3 dabd 6b9d 303d
000003b0: 030c 7dbe 989e 5d3e afbf b83e 78f8 78be
000003c0: 0fe3 3bbe f06f 1fbb 1dcf 503e 7ea7 36bd
000003d0: 43af 1bbe 779e 473e 9fbb 26be e5c8 8dbe
000003e0: d8da 6fbe 5bee 753e 30da aa3e 072b 10be
000003f0: 4483 973b 2ab8 e23d 920b ef3d 3161 0dbe

critic.observ_embedder.fc.bias f4 [32]
0.19315036 -0.10853801 0.108386666 0.08154037 0.19322665 -0.017672818 -0.03777199 0.19605362
0.007853635 0.1897603 0.14726833 -0.17556976 0.24878398 -0.27243498 0.019224588 0.12008723
0.30404788 -0.16706282 -0.08962912 0.3618126 -0.05339353 -0.40974286 -0.29309812 -0.11876027
0.117696576 -0.115795545 -0.26392654 -0.16124415 0.19246893 0.01307566 -0.20892183 0.05716519
00000000: 35c9 453e 2d49 debd d4f9 dd3d a3fe a63d
00000010: 35dd 453e 96c6 90bc cdb6 1abd 48c2 483e
00000020: 88ac 003c 8650 423e 82cd 163e 8fc8 33be
00000030: 3ac1 7e3e 997c 8bbe e27c 9d3c 4bf0 f53d
00000040: 2aac 9b3e 8412 2bbe 798f b7bd 803f b93e
00000050: 2db3 5abd d1c9 d1be f510 96be 9638 f3bd
00000060: e70a f13d 3726 edbd 6121 87be 301d 25be
00000070: 9316 453e 4b3b 563c 9bef 55be 0c26 6a3d

critic.action_embedder.fc.weight f4 [16, 16]
-0.18692699 0.12866017 0.6117971 -0.24567789 -0.19623652 -0.16484413 -0.16073178 -0.10891362
-0.2472142 -0.18534172 0.25090998 -0.15888888 -0.07297323 -0.20682031 0.25062853 -0.16100003
-0.17506137 -0.15338883 0.2519553 0.023423221 0.27315605 -0.17348649 -0.17492679 -0.19352716
0.3430767 -0.08691205 -0.17249386 0.57134795 0.1543696 -0.19648236 -0.17326514 -0.16333412
-0.14432082 -0.024413217 -0.17834857 0.6250943 -0.10333359 -0.049138963 -0.09392053 -0.10994777
-0.013690404 -0.1907584 -0.13227049 -0.09592027 0.8206873 -0.10711384 -0.1522327 -0.15960395
-0.1831671 0.6486768 -0.18332106 -0.18434484 0.27501017 0.32767355 -0.18189603 -0.18150651
-0.18401165 -0.028100312 -0.17410797 -0.10589077 -0.20252544 -0.18490312 0.33361942 0.040568054
0.028530657 -0.056067616 0.09224403 -0.083145946 0.18348849 0.057421863 -0.07685894 0.2228002
0.06382349 -0.1698975 -0.1391359 0.15675375 0.11418024 0.19519854 -0.019203931 0.17485514
-0.16344957 -0.0041016755 -0.1642855 0.4535197 0.34677857 -0.16370663 -0.1652916 0.6443566
0.19116008 -0.16657025 0.42906478 -0.10834753 -0.015138079 -0.22751725 0.20767015 0.11675775
-0.06286638 -0.11201252 -0.06365792 0.0045609805 -0.3164859 0.097631335 0.2878877 0.070682615
-0.07275297 0.1547645 0.006147589 0.36661792 0.009664567 0.41987303 0.414886 -0.036271688
0.58214974 0.60945195 -0.1167162 0.6841286 -0.11678952 -0.114898846 0.26139382 -0.11603643
-0.11710375 -0.11785073 -0.11698486 -0.005026367 -0.11601761 -0.1155213 -0.23599958 -0.15120685
-0.15878522 -0.15710492 0.50141424 -0.13152733 0.21782473 0.3179657 -0.19819087 0.5916494
-0.22030252 -0.047479365 -0.17595387 -0.1574849 -0.20802888 -0.1588535 -0.15880287 -0.15684795
-0.11670464 0.1650383 -0.06473164 -0.09644532 -0.248171 0.6329839 -0.09311188 -0.22943595
0.7290953 -0.09529034 0.28844333 -0.16980803 -0.23210815 -0.18781343 -0.09311793 -0.093987964
-0.23160481 -0.054423157 -0.05463806 -0.04147372 -0.12717 -0.17847213 0.18238583 -0.120300174
0.51915175 0.67436355 -0.17483321 -0.115260065 -0.054320723 -0.23571652 0.28573662 -0.104165494
-0.11084443 -0.19326669 0.076011464 -0.15931177 -0.19982547 -0.06574389 -0.13917547 -0.24304947
-0.014790756 -0.09511644 -0.014636996 -0.012963147 -0.15944266 -0.14574313 -0.088739246 0.5561832
0.033066545 -0.10395731 0.09312727 -0.10657576 0.40549225 -0.19117638 -0.10399854 -0.09360954
0.13662004 -0.12930208 -0.14328256 -0.103925616 -0.10561882 0.7915839 -0.10474173 -0.1492633
0.73812175 -0.030096918 -0.11744962 -0.22628108 0.4962507 0.23098311 -0.13540746 -0.13530947
-0.13571557 -0.1362159 0.00064011087 0.17167729 0.07732063 -0.16819936 0.45612362 0.17948996
-0.010079763 -0.18811321 -0.049063697 -0.106687576 -0.21973816 -0.17456922 -0.047025055 0.5702178
-0.21941671 0.42154193 0.5291155 0.41432673 -0.04866304 -0.04654271 0.051351704 0.27446464
-0.06839037 -0.17981258 -0.16185698 0.6738794 0.4774629 0.5335472 -0.16203009 -0.16186857
-0.18625239 -0.16223039 0.36262274 -0.20519471 -0.16348797 0.0028959764 -0.16390257 -0.07521557
00000000: ca69 3fbe 7ebf 033e bc9e 1c3f fc92 7bbe
00000010: 3af2 48be e6cc 28be df96 24be 1b0e dfbd
00000020: b825 7dbe 38ca 3dbe 4677 803e c4b3 22be
00000030: fd72 95bd b4c8 53be 6252 803e 31dd 24be
00000040: 4a43 33be f611 1dbe 4900 813e 0ee2 bf3c
00000050: 1cdb 8b3e 71a6 31be 0220 33be fc2b 46be
00000060: c0a7 af3e f2fe b1bd 3ba2 30be dc43 123f
00000070: 1013 1e3e ac32 49be 6b6c 31be 0f41 27be
00000080: d6c8 13be 3afe c7bc 02a1 36be 2e06 203f
00000090: 90a0 d3bd f045 49bd 6859 c0bd 4c2c e1bd
000000a0: b74d 60bc 2c56 43be ea71 07be d971 c4bd
000000b0: 9018 523f 805e dbbd e4e2 1bbe 386f 23be
000000c0: 2890 3bbe af0f 263f 84b8 3bbe e5c4 3cbe
000000d0: 22ce 8c3e d4c4 a73e f442 3abe d8dc 39be
000000e0: 8d6d 3cbe a032 e6bc 5c49 32be 43dd d8bd
000000f0: d462 4fbe 3e57 3dbe 2ad0 aa3e b02a 263d
00000100: 20b9 e93c 28a7 65bd 70ea bc3d 6c48 aabd
00000110: 68e4 3b3e 3033 6b3d 3868 9dbd bc25 643e
00000120: e4b5 823d 9cf9 2dbe a479 0ebe 0e84 203e
00000130: 54d7 e93d 20e2 473e 9051 9dbc 3a0d 333e
00000140: 535f 27be 5967 86bb 753a 28be bc33 e83e
00000150: f68c b13e b6a2 27be 3442 29be 8ef4 243f
00000160: 78bf 433e 6491 2abe 61ae db3e 4fe5 ddbd
00000170: b505 78bc 48fa 68be 7ca7 543e b01e ef3d
00000180: 17c0 80bd d266 e5bd 155f 82bd 4774 953b
00000190: 710a a2be f0f2 c73d 0466 933e 0cc2 903d
000001a0: 82ff 94bd 967a 1e3e b771 c93b 58b5 bb3e
000001b0: 2258 1e3c 99f9 d63e f06b d43e 9f91 14bd
000001c0: c407 153f 0b05 1c3f e708 efbd 0d23 2f3f
000001d0: 582f efbd 1650 ebbd 69d5 853e 82a4 edbd
000001e0: 17d4 efbd b95b f1bd c295 efbd 39b4 a4bb
000001f0: a49a edbd 6e96 ecbd e0a9 71be f8d5 1abe
00000200: 9898 22be 1de0 20be af5c 003f 1aaf 06be
00000210: 720d 5f3e 66cc a23e 8cf2 4abe 5676 173f
00000220: fc96 61be b979 42bd 402d 34be b943 21be
00000230: 8605 55be 7eaa 22be 389d 22be c09c 20be
00000240: d802 efbd cdff 283e 0692 84bd 2085 c5bd
00000250: 8a20 7ebe 3c0b 223f 71b1 bebd 42f1 6abe
00000260: fda5 3a3f 9527 c3bd d8ae 933e 28e2 2dbe
00000270: c2ad 6dbe 2a52 40be 9db4 bebd c37c c0bd
00000280: d029 6dbe d1ea 5ebd 29cc 5fbd 59e0 29bd
00000290: da38 02be 66c1 36be 5ac3 3a3e f05f f6bd
000002a0: 21e7 043f 17a3 2c3f 7a07 33be 780d ecbd
000002b0: 687f 5ebd ac5f 71be 124c 923e b854 d5bd
000002c0: 6802 e3bd b4e7 45be e6ab 9b3d a022 23be
000002d0: 0c9f 4cbe bca4 86bd 0484 0ebe f6e1 78be
000002e0: ed54 72bc 68cc c2bd 03d0 6fbc 6163 54bc
000002f0: f044 23be b03d 15be ecbc b5bd 0662 0e3f
00000300: c970 073d 92e7 d4bd 83b9 be3d 6444 dabd
00000310: ae9c cf3e bec3 43be 30fd d4bd 5cb6 bfbd
00000320: 20e6 0b3e c467 04be aab8 12be f4d6 d4bd
00000330: ae4e d8bd 3ea5 4a3f d582 d6bd 7ad8 18be
00000340: 8cf5 3c3f d08d f6bc 6d89 f0bd 3ab6 67be
00000350: 9214 fe3e d686 6c3e 41a8 0abe 918e 0abe
00000360: 06f9 0abe 2e7c 0bbe 1dcd 273a 2ccc 2f3e
00000370: 475a 9e3d 743c 2cbe 0989 e93e 37cc 373e
00000380: 9725 25bc c0a0 40be 04f7 48bd 047f dabd
00000390: 0a03 61be 46c2 32be 589d 40bd cbf9 113f
000003a0: c6ae 60be 58d4 d73e 1d74 073f a222 d43e
000003b0: e552 47bd 92a3 3ebd 2a56 523d a186 8c3e
000003c0: 4010 8cbd ca20 38be d6bd 25be 5c83 2c3f
000003d0: 0476 f43e 8d96 083f 37eb 25be e0c0 25be
000003e0: f2b8 3ebe b91f 26be b0a9 b93e 901e 52be
000003f0: 6469 27be 6cca 3d3b 13d6 27be 9f0a 9abd

critic.action_embedder.fc.bias f4 [16]
0.15698998 0.17086685 0.093134835 0.16983119 -0.22793132 0.16069315 0.31575337 0.11369625
0.15674978 0.09255822 0.04998989 0.010689626 0.10345729 0.13455705 0.04596439 0.16136299
00000000: fbc1 203e b8f7 2e3e 7abd be3d 3ae8 2d3e
00000010: d466 69be bf8c 243e 6daa a13e 94d9 e83d
00000020: 0483 203e 2a8f bd3d 33c2 4c3d 8b23 2f3c
00000030: 6ae1 d33d 53c9 093e 2845 3c3d 573c 253e

critic.seq_model.model.weight_ih_l0 f4 [256, 48]
-0.08674262 0.39504004 0.4066095 -0.03386313 0.05770616 0.26094157 0.047902226 -0.03600746
0.48295063 -0.16680044 -0.23019244 -0.34086263 0.37993246 -0.046486426 -0.19610754 -0.06909693
-0.13150425 0.05111453 -0.15003859 -0.046043433 -0.040869106 0.1990666 -0.063914336 0.024765166
-0.06537367 -0.06820576 -0.35542488 -0.13217013 0.10045235 -0.338705 0.17066309 0.038755108
-0.0007339562 0.036981285 -0.13723531 0.2940641 0.1524231 -1.2045691 -0.19082604 -0.16596049
0.07130798 0.14040986 0.11459491 1.0775998 -0.009321843 0.022260638 0.100267164 -0.19385742
0.017756226 -0.14049673 -0.13041402 0.14146629 0.045720965 -0.03148353 0.12653865 0.0068619037
-0.22119108 0.4357186 0.1763289 -0.19599603 -0.2714044 0.025030944 -0.085010305 -0.5925252
0.1817946 0.19598821 0.15889739 -0.13976651 0.15990257 -0.21440914 0.18669088 0.17298035
0.104360856 0.11122544 0.49612164 -0.10204627 -0.23710847 -0.14067325 0.044440914 -0.09950786
0.26227096 0.12224392 0.0009165583 0.4149462 -0.14224538 -1.4130803 0.1922196 0.3633983
0.4134441 0.0230734 -0.04191749 -0.43703377 0.13282256 0.3540009 -0.07636214 -0.16422196
-0.023682168 0.012668365 -0.001502906 0.05600928 0.07955532 -0.1035562 0.14038321 -0.08090353
-0.17099866 -0.51386446 0.18126729 0.24543425 -0.088576004 0.24867155 -0.057118002 -0.23551823
-0.09757883 0.043388832 0.12922007 -0.020330226 0.18937026 -0.030658 0.00797133 0.23649661
0.055308107 -0.094264954 0.07477004 -0.009468934 0.21603279 0.010549144 -0.025152631 0.110645205
-0.012211649 0.113765106 0.23788598 -0.00758865 0.4768805 -1.0675819 0.15397313 0.14675559
0.35033166 -0.15355843 0.06920487 -0.08249177 0.09962428 -0.06244655 0.05080774 -0.013313077
-0.037215747 0.009556988 -0.10809707 -0.26674935 0.0020847109 -0.0018432986 0.13144217 -0.26524544
0.0053755837 0.04709281 0.19445285 -0.4122403 0.064878635 -0.17677426 -0.005262776 -0.017390592
0.15539673 -0.16973446 0.016778842 0.035420712 0.014925253 -0.12258883 -0.12870741 -0.10601221
-0.0342479 -0.075597964 0.07255613 -0.06144052 0.111386634 0.0067066695 0.06559995 -0.11377669
-0.006993808 -0.012044687 -0.010437565 -0.06417155 -0.07816283 0.53676313 0.23557554 0.002047604
0.11571442 -0.030727694 -0.19328617 0.20061919 -0.048245948 -0.033633374 -0.12917998 -0.022239527
-0.007378729 -0.1585576 0.29440936 0.020603908 0.009296955 -0.5324785 0.035825342 0.8378283
-0.24191384 0.06926456 0.12667535 -0.20938699 -0.19810411 -0.04978098 -0.11050385 -0.13570265
0.09162801 0.1344208 0.3144121 -0.14857304 0.2235672 0.1529381 0.07685185 0.16090856
-0.056863204 0.18658467 0.36585468 0.29032922 -0.13764246 0.18998525 0.10284079 -0.09069637
0.079064906 -0.05571296 -0.5400189 -0.09025311 0.5803713 0.830607 -0.9699222 -0.027597226
-0.024785288 0.15288873 -0.006592942 -0.22200152 0.008157209 -0.117937505 0.0833423 -0.10990666
0.24688165 -0.09813937 0.11760776 -0.19917063 -0.06298411 0.11807902 -0.067099884 0.07427212
-0.263453 0.053612716 0.48325336 0.20550151 -0.021403858 0.17767908 -0.058775537 0.046529084
00000000: 1da6 b1bd b042 ca3e 1f2f d03e 11b4 0abd
00000010: 4b5d 6c3d 229a 853e 2035 443d 8f7c 13bd
00000020: 4e45 f73e bccd 2abe 91b7 6bbe 8c85 aebe
00000030: 8286 c23e 8d68 3ebd 6ad0 48be b182 8dbd
00000040: 0da9 06be 785d 513d b7a3 19be 0a98 3cbd
00000050: 5d66 27bd 1dd8 4b3e 85e5 82bd 51e0 ca3c
00000060: a1e2 85bd 76af 8bbd 40fa b5be 9b57 07be
00000070: f6b9 cd3d be6a adbe 4ec2 2e3e adbd 1e3d
00000080: f866 40ba b079 173d 6a87 0cbe 928f 963e
00000090: cd14 1c3e 522f 9abf e767 43be 8cf1 29be
000000a0: eb09 923d 9ac7 0f3e bcb0 ea3d caee 893f
000000b0: a5ba 18bc f15b b63c df58 cd3d 8f82 46be
000000c0: 8175 913c 60de 0fbe 418b 05be 8adc 103e
000000d0: e845 3b3d e0f4 00bd 5993 013e d2d9 e03b
000000e0: ea7f 62be 8216 df3e 908f 343e 2fb3 48be
000000f0: 84f5 8abe b20d cd3c e219 aebd bbaf 17bf
00000100: 5d28 3a3e 22b1 483e ffb5 223e f41e 0fbe
00000110: 80bd 233e 128e 5bbe e52b 3f3e c321 313e
00000120: 25bb d53d 2aca e33d a803 fe3e a3fd d0bd
00000130: 90cc 72be a60c 10be ad07 363d c7ca cbbd
00000140: 6148 863e 055b fa3d 3045 703a d473 d43e
00000150: c6a8 11be d1df b4bf 37d5 443e 580f ba3e
00000160: f2ae d33e 6d04 bd3c adb1 2bbd e4c2 dfbe
00000170: a302 083e 9b3f b53e c163 9cbd cd29 28be
00000180: 1b01 c2bc f98e 4f3c 28fd c4ba fd69 653d
00000190: e6ed a23d 4615 d4bd 9ec0 0f3e c0b0 a5bd
000001a0: 461a 2fbe 9f8c 03bf 229e 393e 1e53 7b3e
000001b0: 5667 b5bd c1a3 7e3e 91f4 69bd b12b 71be
000001c0: 69d7 c7bd 7db8 313d 4452 043e 938b a6bc
000001d0: 47ea 413e 7c26 fbbc 2e9a 023c 2b2c 723e
000001e0: c18a 623d fc0d c1bd 0921 993d 9623 1bbc
000001f0: b337 5d3e 51d6 2c3c e40c cebc f499 e23d
00000200: 5e13 48bc aefd e83d 6298 733e 36aa f8bb
00000210: ae29 f43e 86a6 88bf 22ab 1d3e 1947 163e
00000220: ac5e b33e 6c3e 1dbe 48bb 8d3d 72f1 a8bd
00000230: d107 cc3d f4c7 7fbd c71b 503d 181f 5abc
00000240: 8a6f 18bd ea94 1c3c ff61 ddbd 5f93 88be
00000250: a59f 083b d69a f1ba c798 063e 40ce 87be
00000260: aa25 b03b 64e4 403d a61e 473e 2911 d3be
00000270: 17df 843d 5004 35be 5d73 acbb b776 8ebc
00000280: 5220 1f3e dfce 2dbe c873 893c 4f15 113d
00000290: 0c89 743c da0f fbbd e0cb 03be ee1c d9bd
000002a0: 8747 0cbd 1bd3 9abd 4f98 943d 0ea9 7bbd
000002b0: ad1e e43d 9fc3 db3b 4459 863d c103 e9bd
000002c0: 502c e5bb 1457 45bc 5202 2bbc 606c 83bd
000002d0: d513 a0bd 4f69 093f b73a 713e 1831 063b
000002e0: affb ec3d a5b8 fbbc cfec 45be 1e6f 4d3e
000002f0: 8b9d 45bd 26c3 09bd c247 04be ab2f b6bc
00000300: 44c9 f1bb ec5c 22be d3bc 963e 87c9 a83c
00000310: 4152 183c 8350 08bf 98bd 123d ea7b 563f
00000320: 43b8 77be 94da 8d3d 2fb7 013e 8b69 56be
00000330: cedb 4abe 24e7 4bbd d84f e2bd a3f5 0abe
00000340: 77a7 bb3d 9ba5 093e 9ffa a03e 8823 18be
00000350: cdee 643e ce9b 1c3e 8164 9d3d 37c5 243e
00000360: 64e9 68bd 0d10 3f3e 4e51 bb3e 08a6 943e
00000370: 25f2 0cbe 7e8b 423e 319e d23d 05bf b9bd
00000380: c8ec a13d 4633 64bd ae3e 0abf 9fd6 b8bd
00000390: 3793 143f a9a2 543f d24c 78bf 9413 e2bc
000003a0: 840a cbbc dd8e 1c3e 9b09 d8bb 5e54 63be
000003b0: d0a5 053c 3889 f1bd 5eaf aa3d be16 e1bd
000003c0: 8bce 7c3e 4bfd c8bd 56dc f03d 63f3 4bbe
000003d0: d0fd 80bd 6ad3 f13d aa6b 89bd fb1b 983d
000003e0: 50e3 86be 0299 5b3d fc6c f73e fd6e 523e
000003f0: 2557 afbc 81f1 353e 9ebe 70bd 4895 3e3d

critic.seq_model.model.weight_hh_l0 f4 [256, 64]
-0.12934318 0.18781345 -0.16307287 0.11132711 0.17422958 -0.12669133 -0.058196235 0.013440702
-0.42575273 0.38440016 0.006330758 0.41877794 0.141512 -0.18049361 0.24721521 -0.124923915
-0.18296199 0.29919457 -0.09836763 0.45398575 0.07828052 0.09090823 0.2327468 0.14077407
-0.08346478 -0.07054997 0.15562542 -0.054978803 0.05344407 0.05877882 0.18473877 -0.08136577
-0.13287242 -0.044246957 -0.5883178 -0.0060171457 -0.097052865 -0.25174424 -0.31099027 -0.20572454
0.01822933 -0.10489658 0.1384513 0.0010774292 0.14505495 0.039056227 0.07689172 0.115240104
0.05342871 -0.22418584 0.23061627 -0.20701568 -0.19844875 0.40578255 -0.08185394 -0.121820696
0.052986063 0.1777561 -0.16645776 0.25344586 0.18574564 -0.3160095 -0.13263114 -0.045396104
0.005920227 -0.21183267 -0.6140944 -0.13384053 -0.05172458 -0.029766412 0.09173347 -0.10352628
0.5534612 -0.16698346 0.2635359 -0.18056096 0.33379522 0.23111059 0.038626313 -0.20572084
0.19998887 0.17931928 0.0776818 0.20678377 -0.008912421 0.26888683 0.074473105 -0.27281392
0.1919942 0.4159673 -0.16647774 -0.6632072 -0.15922363 -0.018092414 -0.065349154 0.0008313018
-0.34088278 0.04862577 0.49884132 0.12640524 -0.0035525595 0.027686356 -0.10655356 -0.5122502
-0.18860799 0.71985495 -0.052103035 -0.28531858 -0.28116643 0.114446975 0.15307444 -0.2431732
-0.25153655 -0.22964956 -0.2349666 -0.5538741 0.058338277 -0.26545998 -0.2581057 -0.24643765
0.0033160986 -0.09289298 0.5196333 -0.3575825 -0.0044899643 -0.20368254 0.17434189 0.3694279
-0.5294937 0.07543679 -0.20148759 0.013768263 -0.28372735 0.49392426 0.09690515 0.2584601
-0.17037691 -0.12764987 -0.14093174 -0.118743986 0.45790225 0.25586465 -0.05217123 -0.25398153
0.5204759 0.09735975 -0.1425667 -0.022686936 0.1226043 0.086443804 0.041120686 -0.45911828
0.05371784 0.02814882 0.018048448 0.02046299 0.12674803 0.027809054 -0.15657511 0.0046006986
0.010362837 0.15163676 0.012787468 0.30928284 0.21486062 0.24986885 0.07450621 -0.00546585
0.13647072 -0.0013320202 -0.1555653 0.3241259 -0.4830412 -0.011353503 0.28692117 0.2709014
0.30612195 -0.21582735 0.041061576 -0.31572354 0.009177666 -0.07270893 -0.13368817 0.028398931
0.41892955 0.2689356 0.54623985 0.30797952 -0.04458417 0.017319027 -0.0134623535 0.20925789
0.09612034 0.14350708 0.1041054 -0.060811732 -0.04505728 -0.050145693 0.12116178 -0.29825437
-0.095635936 -0.09336541 -0.03190846 0.2960999 0.03680521 0.1367771 0.056606445 0.06354589
0.17058913 0.050394952 0.09458221 0.061205324 0.12434556 -0.14321975 -0.07839816 -0.076723404
0.0034584855 -0.12078412 0.10366258 -0.0055206777 -0.08193223 0.120022275 0.033701785 0.046137538
-0.07411913 -0.035529178 0.067149326 0.20164114 -0.027045263 0.05502984 -0.13346694 -0.13901137
-0.06657197 0.08226725 0.047012676 -0.23487887 -0.18381265 -0.02645266 -0.042044956 -0.28306106
-0.21624185 0.18598822 0.03761383 0.04186419 -0.22952534 0.03768969 -0.11590029 0.05604173
0.02069868 0.06515814 -0.14219247 0.17497265 0.13104142 0.03454827 -0.20904149 -0.089687265
00000000: 8a72 04be 2b52 403e 93fc 26be 78ff e33d
00000010: 3d69 323e 5fbb 01be 2d5f 6ebd 6436 5c3c
00000020: 43fc d9be 19d0 c43e 3f72 cf3b 106a d63e
00000030: 86e8 103e 51d3 38be fc25 7d3e 1cd8 ffbd
00000040: 635a 3bbe 0830 993e f874 c9bd d270 e83e
00000050: 8a51 a03d 182e ba3d 2d55 6e3e 1427 103e
00000060: 95ef aabd 817c 90bd 455c 1f3e 7431 61bd
00000070: 2be8 5a3d 0fc2 703d 292c 3d3e 19a3 a6bd
00000080: b50f 08be 4c3c 35bd ff9b 16bf 7a2b c5bb
00000090: a7c3 c6bd 9fe4 80be 1e3a 9fbe 74a9 52be
000000a0: ad55 953c 05d4 d6bd 2dc6 0d3e 8638 8d3a
000000b0: 4989 143e 6cf9 1f3d 6879 9d3d 0103 ec3d
000000c0: 10d8 5a3d f990 65be ac26 6c3e ebfb 53be
000000d0: 2636 4bbe bbc2 cf3e 0aa3 a7bd 217d f9bd
000000e0: ea07 593d b205 363e e773 2abe a8c3 813e
000000f0: 1b34 3e3e ffcb a1be 75d0 07be 44f1 39bd
00000100: 77fe c13b aaea 58be 4a35 1dbf 7e0d 09be
00000110: 27dd 53bd b1d8 f3bc c2de bb3d 9605 d4bd
00000120: a2af 0d3f b6fd 2abe 2dee 863e f9e4 38be
00000130: 35e7 aa3e 41a8 6c3e a036 1e3d 7ca8 52be
00000140: e2c9 4c3e 799f 373e a317 9f3d 20bf 533e
00000150: 6705 12bc 89ab 893e 5b85 983d 44ae 8bbe
00000160: 219a 443e aaf9 d43e 2479 2abe f2c7 29bf
00000170: 850b 23be 8b36 94bc c7d5 85bd b8eb 593a
00000180: 3088 aebe d12b 473d 2168 ff3e 6070 013e
00000190: 0fd2 68bb 7fce e23c c138 dabd d422 03bf
000001a0: 7422 41be 6a48 383f fe69 55bd 4715 92be
000001b0: 0cf5 8fbe 2d63 ea3d 8cbf 1c3e 6502 79be
000001c0: 66c9 80be 4129 6bbe 169b 70be b1ca 0dbf
000001d0: 1ef4 6e3d 5fea 87be 6e26 84be 275a 7cbe
000001e0: e752 593b ad3e bebd b006 053f 0e15 b7be
000001f0: 8d20 93bb 2892 50be ae86 323e a725 bd3e
00000200: e68c 07bf 9b7e 9a3d c352 4ebe 4894 613c
00000210: b644 91be a4e3 fc3e 3576 c63d e254 843e
00000220: 4977 2ebe a6b6 02be 6950 10be 0c30 f3bd
00000230: 2a72 ea3e b100 833e 80b1 55bd de09 82be
00000240: e93d 053f 8c64 c73d 01fd 11be f4d9 b9bc
00000250: f717 fb3d 7309 b13d 2a6e 283d 8d11 ebbe
00000260: 3d07 5c3d 5b98 e63c 57da 933c 00a2 a73c
00000270: 3cca 013e d0cf e33c 3a55 20be 75c1 963b
00000280: e4c8 293c ab46 1b3e 8782 513c 525a 9e3e
00000290: 6c04 5c3e 9fdd 7f3e b696 983d df1a b3bb
000002a0: fbbe 0b3e 2e97 aeba 834c 1fbe d4f3 a53e
000002b0: 2d51 f7be 0b04 3abc 55e7 923e 97b3 8a3e
000002c0: 04bc 9c3e d801 5dbe 2f30 283d 84a6 a1be
000002d0: ec5d 163c 6be8 94bd 8de5 08be e0a4 e83c
000002e0: ef7d d63e edb1 893e 60d6 0b3f 7eaf 9d3e
000002f0: e49d 36bd a2e0 8d3c 3491 5cbc b347 563e
00000300: beda c43d 85f3 123e 3635 d53d b915 79bd
00000310: fc8d 38bd 9265 4dbd ab23 f83d ccb4 98be
00000320: c6dc c3bd 5d36 bfbd 72b2 02bd 689a 973e
00000330: 0fc1 163d 4c0f 0c3e 29dc 673d 5924 823d
00000340: ebae 2e3e f06a 4e3d 51b4 c13d 6fb2 7a3d
00000350: e3a8 fe3d 33a8 12be 378f a0bd 2921 9dbd
00000360: c2a7 623b aa5d f7bd 0c4d d43d cde6 b4bb
00000370: 16cc a7bd 3dce f53d e20a 0a3d b7fa 3c3d
00000380: c5cb 97bd 0b87 11bd 9685 893d 047b 4e3e
00000390: 078e ddbc f866 613d 8fab 08be ff58 0ebe
000003a0: e356 88bd bb7b a83d 5d90 403d 1684 70be
000003b0: 6239 3cbe 40b3 d8bc 5537 2cbd 61ed 90be
000003c0: 816e 5dbe b273 3e3e f610 1a3d c979 2b3d
000003d0: b108 6bbe 8160 1a3d 225d edbd 038c 653d
000003e0: 4790 a93c a271 853d e79a 11be 082c 333e
000003f0: b92f 063e 7d82 0d3d f90e 56be f5ad b7bd

critic.seq_model.model.bias_ih_l0 f4 [256]
0.011362138 0.118548274 0.092141956 -0.060006417 -0.03244837 0.056239612 0.050095163 0.03146795
0.1910714 0.47233477 -0.026297148 0.060490593 0.141865 0.08010386 0.025882684 0.14930293
0.15386117 0.08441043 0.048080713 0.090483025 0.015029999 0.046240695 0.06461869 0.235963
0.083235145 0.06614441 0.021808423 0.052634485 -0.0003540366 -0.07669548 0.08509033 0.03443189
0.3083028 -0.059870947 0.018206028 0.0013749677 0.0313391 0.14673772 -0.085619934 -0.03257689
0.08827764 -0.008219353 -0.18960384 0.062247254 0.079987615 -0.03976339 0.09580411 -0.04730635
0.09172909 0.062127475 0.09556252 -0.06459294 0.14539838 0.061942432 0.17134067 -0.04225834
0.024148038 0.031477664 -0.021186698 0.1248351 -0.0029509328 0.054037467 -0.040011853 0.092979535
0.07981067 0.05430288 0.07332431 0.11764616 0.006143388 0.07649603 0.06118897 -0.04972494
0.033100914 0.009916446 0.12779516 0.042559247 -0.027832322 0.07350015 -0.009685286 0.08520192
-0.03978203 0.04357297 0.0954547 0.095513396 -0.0107720215 0.059389524 0.09145126 0.05962953
0.047662523 0.015625969 0.14305316 0.08079276 0.021785636 0.13842729 -0.003786928 0.103927724
0.017532075 -0.08097924 -0.015103353 0.067136616 0.03816606 0.088094935 0.16358031 0.045955896
-0.04871963 -0.06682009 0.21822454 0.05725567 0.11579437 -0.038171932 0.097134806 0.05196641
-0.017278133 0.001199138 0.07322834 0.2157726 0.027234038 0.084447436 0.06289986 0.13935961
0.05196927 0.10292911 0.04129769 0.031678878 0.08268467 0.100366004 0.006221299 0.10434754
0.0028234764 -0.019594353 -0.044046074 -0.037470754 -0.012298104 -0.0006202019 0.032211058 0.052349176
-0.058020387 -0.081412755 -0.007971521 -0.034509312 -0.0050942968 -0.009454136 -0.08695401 -0.01343324
0.08074343 0.017591065 -0.03113012 0.028179765 0.007094843 0.004963211 -0.025105728 -0.096822284
-0.039061267 -0.026077334 -0.05027752 -0.04199 -0.020781215 0.025923459 0.0066317213 -0.029672572
-0.052885167 -0.030824948 -0.024465809 -0.021051638 0.086158924 0.03491399 0.009841398 -0.022297561
-0.08290827 -0.022419117 0.039253753 0.056403603 -0.0019366248 -0.039817777 0.06679973 -0.04231899
-0.17138372 0.063251406 -0.027604027 0.016781466 0.059036776 -0.03320924 0.04792757 -0.005737894
-0.04835924 0.058646265 0.023217304 -0.05693968 0.016753528 0.012213981 0.06846055 -0.07501606
0.03764969 0.13929491 0.2786335 0.04386089 0.04902802 0.104387835 0.07043816 0.030207599
0.19888848 0.35758117 0.06659399 0.17313969 0.13724248 0.09147107 0.039024632 0.22345228
0.072422855 0.07877694 0.06600156 0.091036454 0.009746944 0.15711185 0.19857462 0.23539217
0.12168559 0.004935739 0.071152374 0.04343792 0.053341515 0.068768516 0.20378193 0.07025578
0.2875647 -0.03781325 0.050176576 0.14820132 0.08574471 0.15706128 0.092261694 0.012312843
0.17846964 -0.06435902 0.11101567 0.074964345 0.1882441 -0.031651437 -0.00039057733 -0.00071625086
-0.04184494 0.09237628 0.1442711 0.13210009 0.20594148 0.07868605 0.13344777 0.04623727
0.0032343818 0.02988089 0.03980698 0.008205576 0.03201766 0.097812034 0.007783467 0.13536356
00000000: 4328 3a3c 70c9 f23d ecb4 bc3d 4ac9 75bd
00000010: 95e8 04bd 825b 663d 9630 4d3d 8ae4 003d
00000020: 39a8 433e ddd5 f13e 1e6d d7bc fcc4 773d
00000030: 0f45 113e 7e0d a43d ec07 d43c dee2 183e
00000040: c88d 1d3e 60df ac3d 48f0 443d 2a4f b93d
00000050: 6340 763c e266 3d3d ce56 843d 49a0 713e
00000060: 3077 aa3d b876 873d 94a7 b23c 4297 573d
00000070: fd9d b9b9 8512 9dbd d743 ae3d 7408 0d3d
00000080: ddd9 9d3e 3d3b 75bd cf24 953c 4338 b43a
00000090: 6e5d 003d 6a42 163e 8159 afbd 586f 05bd
000000a0: e8ca b43d 77aa 06bc 8227 42be faf6 7e3d
000000b0: 8cd0 a33d f0de 22bd f234 c43d 4ec4 41bd
000000c0: 76dc bb3d 6179 7e3d 48b6 c33d 4e49 84bd
000000d0: 50e3 143e 59b7 7d3d ee73 2f3e 1517 2dbd
000000e0: 1bd2 c53c b9ee 003d ba8f adbc 8ba9 ff3d
000000f0: 7064 41bb 6456 5d3d 78e3 23bd 0e6c be3d
00000100: c773 a33d b26c 5e3d 0e2b 963d 78f0 f03d
00000110: 794e c93b f3a9 9c3d 49a1 7a3d 61ac 4bbd
00000120: d394 073d 9778 223c bcdc 023e 9b52 2e3d
00000130: 9c00 e4bc 3f87 963d 09af 1ebc 587e ae3d
00000140: 7bf2 22bd 9279 323d c17d c33d 879c c33d
00000150: 227d 30bc 6e42 733d cc4a bb3d 183e 743d
00000160: c739 433d 0802 803c 877c 123e ad76 a53d
00000170: ca77 b23c e2bf 0d3e 1c2e 78bb 0fd8 d43d
00000180: 6d9f 8f3c 72d8 a5bd 0e74 77bc ec7e 893d
00000190: 0454 1c3d 1e6b b43d 9981 273e 403c 3c3d
000001a0: 3c8e 47bd f9d8 88bd 4176 5f3e ec84 6a3d
000001b0: 9925 ed3d 2c5a 1cbd 9dee c63d bbda 543d
000001c0: df8a 8dbc 652c 9d3a bdf8 953d 7ef3 5c3e
000001d0: eb19 df3c c7f2 ac3d a4d1 803d 49b4 0e3e
000001e0: bbdd 543d 7fcc d23d c427 293d b6c1 013d
000001f0: 9556 a93d b18c cd3d 0adc cb3b 2ab4 d53d
00000200: 130a 393b 5684 a0bc a869 34bd ef7a 19bd
00000210: fd7d 49bc 0c95 22ba beef 033d 176c 563d
00000220: c9a6 6dbd bbbb a6bd fb9a 02bc a359 0dbd
00000230: 0fee a6bb 85e5 1abc f214 b2bd 1817 5cbc
00000240: d05c a53d 231b 903c 9804 ffbc 40d9 e63c
00000250: db7b e83b 6ea2 a23b 87aa cdbc c34a c6bd
00000260: b5fe 1fbd 22a0 d5bc cdef 4dbd b5fd 2bbd
00000270: 5e3d aabc 6f5d d43c e94e d93b e513 f3bc
00000280: 1e9e 58bd 9a84 fcbc 856c c8bc 7c74 acbc
00000290: 1774 b03d f901 0f3d d13d 213c 60a9 b6bc
000002a0: d0cb a9bd 4ca8 b7bc 8bc8 203d 7707 673d
000002b0: 58d6 fdba f717 23bd 4cce 883d ad56 2dbd
000002c0: 377f 2fbe f489 813d d721 e2bc 4979 893c
000002d0: 8cd0 713d 6906 08bd b34f 443d f204 bcbb
000002e0: 5714 46bd 1137 703d 3732 be3c 9539 69bd
000002f0: b23e 893c 261d 483c 0b35 8c3d 05a2 99bd
00000300: 9036 1a3d 53a3 0e3e 0da9 8e3e 7aa7 333d
00000310: 9bd1 483d 4ac9 d53d e241 903d ed75 f73c
00000320: 6ca9 4b3e e114 b73e 6e62 883d 884b 313e
00000330: 4b89 0c3e 2f55 bb3d 4bd8 1f3d add0 643e
00000340: 6f52 943d ce55 a13d d32b 873d 5271 ba3d
00000350: a5b1 1f3c eee1 203e 2557 4b3e a50a 713e
00000360: 4b36 f93d fbbb a13b 56b8 913d f6eb 313d
00000370: a27c 5a3d 82d6 8c3d 36ac 503e 43e2 8f3d
00000380: ae3b 933e 11e2 1abd f485 4d3d 16c2 173e
00000390: ec9a af3d acd4 203e b3f3 bc3d cfbb 493c
000003a0: bfc0 363e a9ce 83bd 2f5c e33d e886 993d
000003b0: 10c3 403e f0a4 01bd 67c6 ccb9 c8c2 3bba
000003c0: 9a65 2bbd c62f bd3d cebb 133e 3f45 073e
000003d0: 53e2 523e 2726 a13d 88a6 083e 4b63 3d3d
000003e0: ecf7 533b c5c8 f43c a50c 233d ae70 063c
000003f0: f324 033d ad51 c83d 740c ff3b bf9c 0a3e

critic.seq_model.model.bias_hh_l0 f4 [256]
0.011362138 0.118548274 0.092141956 -0.060006417 -0.03244837 0.056239612 0.050095163 0.03146795
0.1910714 0.47233477 -0.026297148 0.060490593 0.141865 0.08010386 0.025882684 0.14930293
0.15386117 0.08441043 0.048080713 0.090483025 0.015029999 0.046240695 0.06461869 0.235963
0.083235145 0.06614441 0.021808423 0.052634485 -0.0003540366 -0.07669548 0.08509033 0.03443189
0.3083028 -0.059870947 0.018206028 0.0013749677 0.0313391 0.14673772 -0.085619934 -0.03257689
0.08827764 -0.008219353 -0.18960384 0.062247254 0.079987615 -0.03976339 0.09580411 -0.04730635
0.09172909 0.062127475 0.09556252 -0.06459294 0.14539838 0.061942432 0.17134067 -0.04225834
0.024148038 0.031477664 -0.021186698 0.1248351 -0.0029509328 0.054037467 -0.040011853 0.092979535
0.07981067 0.05430288 0.07332431 0.11764616 0.006143388 0.07649603 0.06118897 -0.04972494
0.033100914 0.009916446 0.12779516 0.042559247 -0.027832322 0.07350015 -0.009685286 0.08520192
-0.03978203 0.04357297 0.0954547 0.095513396 -0.0107720215 0.059389524 0.09145126 0.05962953
0.047662523 0.015625969 0.14305316 0.08079276 0.021785636 0.13842729 -0.003786928 0.103927724
0.017532075 -0.08097924 -0.015103353 0.067136616 0.03816606 0.088094935 0.16358031 0.045955896
-0.04871963 -0.06682009 0.21822454 0.05725567 0.11579437 -0.038171932 0.097134806 0.05196641
-0.017278133 0.001199138 0.07322834 0.2157726 0.027234038 0.084447436 0.06289986 0.13935961
0.05196927 0.10292911 0.04129769 0.031678878 0.08268467 0.100366004 0.006221299 0.10434754
0.0028234764 -0.019594353 -0.044046074 -0.037470754 -0.012298104 -0.0006202019 0.032211058 0.052349176
-0.058020387 -0.081412755 -0.007971521 -0.034509312 -0.0050942968 -0.009454136 -0.08695401 -0.01343324
0.08074343 0.017591065 -0.03113012 0.028179765 0.007094843 0.004963211 -0.025105728 -0.096822284
-0.039061267 -0.026077334 -0.05027752 -0.04199 -0.020781215 0.025923459 0.0066317213 -0.029672572
-0.052885167 -0.030824948 -0.024465809 -0.021051638 0.086158924 0.03491399 0.009841398 -0.022297561
-0.08290827 -0.022419117 0.039253753 0.056403603 -0.0019366248 -0.039817777 0.06679973 -0.04231899
-0.17138372 0.063251406 -0.027604027 0.016781466 0.059036776 -0.03320924 0.04792757 -0.005737894
-0.04835924 0.058646265 0.023217304 -0.05693968 0.016753528 0.012213981 0.06846055 -0.07501606
0.03764969 0.13929491 0.2786335 0.04386089 0.04902802 0.104387835 0.07043816 0.030207599
0.19888848 0.35758117 0.06659399 0.17313969 0.13724248 0.09147107 0.039024632 0.22345228
0.072422855 0.07877694 0.06600156 0.091036454 0.009746944 0.15711185 0.19857462 0.23539217
0.12168559 0.004935739 0.071152374 0.04343792 0.053341515 0.068768516 0.20378193 0.07025578
0.2875647 -0.03781325 0.050176576 0.14820132 0.08574471 0.15706128 0.092261694 0.012312843
0.17846964 -0.06435902 0.11101567 0.074964345 0.1882441 -0.031651437 -0.00039057733 -0.00071625086
-0.04184494 0.09237628 0.1442711 0.13210009 0.20594148 0.07868605 0.13344777 0.04623727
0.0032343818 0.02988089 0.03980698 0.008205576 0.03201766 0.097812034 0.007783467 0.13536356
00000000: 4328 3a3c 70c9 f23d ecb4 bc3d 4ac9 75bd
00000010: 95e8 04bd 825b 663d 9630 4d3d 8ae4 003d
00000020: 39a8 433e ddd5 f13e 1e6d d7bc fcc4 773d
00000030: 0f45 113e 7e0d a43d ec07 d43c dee2 183e
00000040: c88d 1d3e 60df ac3d 48f0 443d 2a4f b93d
00000050: 6340 763c e266 3d3d ce56 843d 49a0 713e
00000060: 3077 aa3d b876 873d 94a7 b23c 4297 573d
00000070: fd9d b9b9 8512 9dbd d743 ae3d 7408 0d3d
00000080: ddd9 9d3e 3d3b 75bd cf24 953c 4338 b43a
00000090: 6e5d 003d 6a42 163e 8159 afbd 586f 05bd
000000a0: e8ca b43d 77aa 06bc 8227 42be faf6 7e3d
000000b0: 8cd0 a33d f0de 22bd f234 c43d 4ec4 41bd
000000c0: 76dc bb3d 6179 7e3d 48b6 c33d 4e49 84bd
000000d0: 50e3 143e 59b7 7d3d ee73 2f3e 1517 2dbd
000000e0: 1bd2 c53c b9ee 003d ba8f adbc 8ba9 ff3d
000000f0: 7064 41bb 6456 5d3d 78e3 23bd 0e6c be3d
00000100: c773 a33d b26c 5e3d 0e2b 963d 78f0 f03d
00000110: 794e c93b f3a9 9c3d 49a1 7a3d 61ac 4bbd
00000120: d394 073d 9778 223c bcdc 023e 9b52 2e3d
00000130: 9c00 e4bc 3f87 963d 09af 1ebc 587e ae3d
00000140: 7bf2 22bd 9279 323d c17d c33d 879c c33d
00000150: 227d 30bc 6e42 733d cc4a bb3d 183e 743d
00000160: c739 433d 0802 803c 877c 123e ad76 a53d
00000170: ca77 b23c e2bf 0d3e 1c2e 78bb 0fd8 d43d
00000180: 6d9f 8f3c 72d8 a5bd 0e74 77bc ec7e 893d
00000190: 0454 1c3d 1e6b b43d 9981 273e 403c 3c3d
000001a0: 3c8e 47bd f9d8 88bd 4176 5f3e ec84 6a3d
000001b0: 9925 ed3d 2c5a 1cbd 9dee c63d bbda 543d
000001c0: df8a 8dbc 652c 9d3a bdf8 953d 7ef3 5c3e
000001d0: eb19 df3c c7f2 ac3d a4d1 803d 49b4 0e3e
000001e0: bbdd 543d 7fcc d23d c427 293d b6c1 013d
000001f0: 9556 a93d b18c cd3d 0adc cb3b 2ab4 d53d
00000200: 130a 393b 5684 a0bc a869 34bd ef7a 19bd
00000210: fd7d 49bc 0c95 22ba beef 033d 176c 563d
00000220: c9a6 6dbd bbbb a6bd fb9a 02bc a359 0dbd
00000230: 0fee a6bb 85e5 1abc f214 b2bd 1817 5cbc
00000240: d05c a53d 231b 903c 9804 ffbc 40d9 e63c
00000250: db7b e83b 6ea2 a23b 87aa cdbc c34a c6bd
00000260: b5fe 1fbd 22a0 d5bc cdef 4dbd b5fd 2bbd
00000270: 5e3d aabc 6f5d d43c e94e d93b e513 f3bc
00000280: 1e9e 58bd 9a84 fcbc 856c c8bc 7c74 acbc
00000290: 1774 b03d f901 0f3d d13d 213c 60a9 b6bc
000002a0: d0cb a9bd 4ca8 b7bc 8bc8 203d 7707 673d
000002b0: 58d6 fdba f717 23bd 4cce 883d ad56 2dbd
000002c0: 377f 2fbe f489 813d d721 e2bc 4979 893c
000002d0: 8cd0 713d 6906 08bd b34f 443d f204 bcbb
000002e0: 5714 46bd 1137 703d 3732 be3c 9539 69bd
000002f0: b23e 893c 261d 483c 0b35 8c3d 05a2 99bd
00000300: 9036 1a3d 53a3 0e3e 0da9 8e3e 7aa7 333d
00000310: 9bd1 483d 4ac9 d53d e241 903d ed75 f73c
00000320: 6ca9 4b3e e114 b73e 6e62 883d 884b 313e
00000330: 4b89 0c3e 2f55 bb3d 4bd8 1f3d add0 643e
00000340: 6f52 943d ce55 a13d d32b 873d 5271 ba3d
00000350: a5b1 1f3c eee1 203e 2557 4b3e a50a 713e
00000360: 4b36 f93d fbbb a13b 56b8 913d f6eb 313d
00000370: a27c 5a3d 82d6 8c3d 36ac 503e 43e2 8f3d
00000380: ae3b 933e 11e2 1abd f485 4d3d 16c2 173e
00000390: ec9a af3d acd4 203e b3f3 bc3d cfbb 493c
000003a0: bfc0 363e a9ce 83bd 2f5c e33d e886 993d
000003b0: 10c3 403e f0a4 01bd 67c6 ccb9 c8c2 3bba
000003c0: 9a65 2bbd c62f bd3d cebb 133e 3f45 073e
000003d0: 53e2 523e 2726 a13d 88a6 083e 4b63 3d3d
000003e0: ecf7 533b c5c8 f43c a50c 233d ae70 063c
000003f0: f324 033d ad51 c83d 740c ff3b bf9c 0a3e

critic.qf.fc0.weight f4 [256, 64]
-0.12914336 -0.13896565 -0.06738687 0.046119567 0.11505444 0.023199165 0.32004866 0.32255659
-0.19551669 0.4237633 0.11981336 -0.047273163 0.27612898 0.05566227 -0.13795486 -0.02759233
0.2179961 0.106302746 0.03715658 -0.1900323 -0.20220064 0.022969514 -0.006797615 0.08555412
-0.07679483 0.030675791 0.024270149 -0.16914716 -0.03461003 -0.07616358 -0.04375173 -0.17755191
0.1627527 0.031257402 0.1825859 -0.016420515 -0.030287297 0.2440643 -0.1001634 -0.20200896
-0.33805817 0.106659696 0.18647201 0.00076545094 -0.12624048 0.23295084 0.069708094 0.24842489
0.36168265 -0.038899466 0.010002764 -0.016150933 -0.40033594 -0.023079902 -0.09849071 0.21567982
0.07627762 0.09933364 0.19372995 -0.19830813 -0.11767506 0.03458428 0.00076090754 -0.21472879
-0.018177226 0.007454263 -0.24313629 0.02423617 -0.014098373 0.18105538 0.06563653 -0.0921707
0.10875083 -0.1995189 0.027997443 -0.16067307 0.07617797 0.04250746 0.12505096 0.12540437
-0.051267806 -0.03068309 -0.1515255 -0.16393536 -0.14472988 -0.008086137 0.055125143 0.09842613
-0.016117888 -0.021684887 0.11701589 -0.0025741244 0.08755053 0.012917123 0.028481012 -0.039295007
-0.05078247 -0.12885727 0.2109766 -0.04467713 0.070314005 -0.27607673 -0.017551206 -0.09971763
-0.09432634 0.014399236 -0.12632914 0.030929603 -0.027381735 -0.24464537 -0.010304763 0.078984946
-0.06628214 0.114679135 -0.05160643 -0.07603555 0.040345687 0.0014269742 -0.10493797 0.12493124
-0.007851378 -0.05504552 0.11907291 -0.18443236 -0.06448152 -0.034075975 0.048089404 -0.20658068
-0.06925575 -0.23205896 -0.09804116 0.022139655 -0.09019445 0.019414408 0.01534458 -0.05286406
-0.3354601 -0.10403954 -0.04964051 -0.21528123 0.23491135 -0.064586654 0.27568388 -0.05777287
0.11921492 -0.048257913 0.0040302565 0.0046092276 -0.0134233115 -0.025837187 0.15365256 -0.07309422
0.061656304 -0.078106865 0.0750568 0.22036071 0.1438447 0.11587237 -0.17354448 0.03667451
0.15755619 0.024118619 0.07007244 0.04305831 0.12937938 0.1362275 0.050477147 0.0016462366
0.011174085 0.06188179 0.10616361 0.09458384 -0.17059726 -0.12381261 0.012133784 -0.1432211
0.17866543 -0.049297936 0.080115326 0.01066382 -0.09328035 0.012404575 0.036959805 -0.017368611
-0.30323726 0.13752167 0.006790577 -0.39990073 -0.12948626 0.1634849 -0.09678052 -0.12661353
0.0019791785 -0.28008142 -0.11721993 0.057194088 -0.14129888 -0.07885676 -0.04944516 0.11139219
-0.100592636 -0.48996606 0.08606506 -0.19716835 0.016463298 0.20844942 -0.037439086 -0.020520356
0.020554483 -0.004777363 0.087601505 0.082634434 0.11540039 -0.113356665 -0.06661358 0.18358609
-0.04357645 0.08948575 0.02734977 -0.19688094 0.010518631 0.030246796 0.0038456449 0.052642442
-0.24936855 -0.013050007 0.0074001118 0.118207805 0.11553691 0.13453628 -0.12069821 0.023780221
0.048797145 0.028018005 -0.0736864 0.13627587 -0.08696983 -0.16723315 0.16632727 -0.042612296
-0.0686934 0.0037175326 0.09891342 0.0278426 -0.04811955 -0.054130543 0.25974402 -0.2270209
-0.14002995 0.0030858181 0.040751718 -0.058956638 0.08867612 0.043803647 0.05978149 -0.110640906
00000000: 283e 04be 034d 0ebe 2102 8abd dfe7 3c3d
00000010: aaa1 eb3d 2d0c be3c 6bdd a33e 2326 a53e
00000020: 8735 48be 81f7 d83e b560 f53d 81a1 41bd
00000030: c760 8d3e 1ffe 633d 0a44 0dbe 4f09 e2bc
00000040: 5f3a 5f3e 41b5 d93d 7f31 183d d497 42be
00000050: af0d 4fbe 902a bc3c 87be debb 0037 af3d
00000060: 9c46 9dbd cc4b fb3c 31d2 c63c ea34 2dbe
00000070: 3fc3 0dbd a7fb 9bbd 0435 33bd 2bd0 35be
00000080: a5a8 263e c307 003d ccf7 3a3e 5184 86bc
00000090: 111d f8bc feeb 793e 7822 cdbd 70db 4ebe
000000a0: f615 adbe 6670 da3d 85f2 3e3e 8ba8 483a
000000b0: 2f45 01be aa8a 6e3e 1ec3 8e3d 1863 7e3e
000000c0: 782e b93e 0c55 1fbd a2e2 233c f64e 84bc
000000d0: d5f8 ccbe 1012 bdbc 7fb5 c9bd 2cdb 5c3e
000000e0: 7137 9c3d 6f6f cb3d 2561 463e 4911 4bbe
000000f0: 9fff f0bd 3fa8 0d3d a477 473a dde1 5bbe
00000100: 68e8 94bc e442 f43b b8f8 78be ef8a c63c
00000110: ddfc 66bc 9566 393e 726c 863d fec3 bcbd
00000120: c1b8 de3d af4e 4cbe e55a e53c 7b87 24be
00000130: 3203 9c3d 4d1c 2e3d 5c0d 003e 016a 003e
00000140: 31fe 51bd 1b5b fbbc 8029 1bbe acde 27be
00000150: 1234 14be b77b 04bc e7ca 613d a493 c93d
00000160: a909 84bc 81a4 b1bc 07a6 ef3d a4b2 28bb
00000170: b14d b33d 57a2 533c 0351 e93c cdf3 20bd
00000180: 4701 50bd 29f3 03be 400a 583e 5eff 36bd
00000190: ca00 903d ee59 8dbe 8cc7 8fbc c238 ccbd
000001a0: 2b2e c1bd c6ea 6b3c 6d5c 01be 1460 fd3c
000001b0: a94f e0bc 5184 7abe 4fd5 28bc dcc2 a13d
000001c0: eebe 87bd e5dc ea3d 4461 53bd 87b8 9bbd
000001d0: 8541 253d 4f09 bb3a b8e9 d6bd f3db ff3d
000001e0: 11a3 00bc 6977 61bd 7fdc f33d d6db 3cbe
000001f0: e30e 84bd 4093 0bbd 65f9 443d e389 53be
00000200: f5d5 8dbd dda0 6dbe cec9 c8bd 395e b53c
00000210: deb7 b8bd f70a 9f3c d567 7b3c fc87 58bd
00000220: 6dc1 abbe af12 d5bd d953 4bbd af72 5cbe
00000230: 9a8c 703e 0246 84bd 7026 8d3e 3fa3 6cbd
00000240: f426 f43d 17aa 45bd 3e10 843b 0109 973b
00000250: 73ed 5bbc 82a8 d3bc 1957 1d3e 6cb2 95bd
00000260: 528b 7c3d 7ef6 9fbd 61b7 993d 3da6 613e
00000270: 064c 133e 7e4e ed3d a5b5 31be 0338 163d
00000280: 6956 213e 6994 c53c 2482 8f3d e95d 303d
00000290: 077c 043e 397f 0b3e 20c1 4e3d 89c6 d73a
000002a0: 8213 373c c377 7d3d 4f6c d93d 2cb5 c13d
000002b0: 0cb1 2ebe 7791 fdbd c7cc 463c 8da8 12be
000002c0: 12f4 363e a2ec 49bd 8113 a43d 4eb7 2e3c
000002d0: c509 bfbd 8f3c 4b3c 2a63 173d 9e48 8ebc
000002e0: ea41 9bbe 7bd2 0c3e 7d83 de3b cabf ccbe
000002f0: 0c98 04be 9668 273e de34 c6bd faa6 01be
00000300: 1bb5 013b d566 8fbe 0111 f0bd 5944 6a3d
00000310: a7b0 10be a77f a1bd 0287 4abd 9721 e43d
00000320: 8303 cebd d5dc fabe e142 b03d 80e6 49be
00000330: 0ade 863c c473 553e ba59 19bd 4e1a a8bc
00000340: e061 a83c 6d8b 9cbb 6b68 b33d 3e3c a93d
00000350: 0a57 ec3d 8a27 e8bd b36c 88bd fefd 3b3e
00000360: 387d 32bd 4e44 b73d a00c e03c 289b 49be
00000370: 5656 2c3c 21c8 f73c 3707 7c3b 9a9f 573d
00000380: 785a 7fbe b2cf 55bc a37c f23b ef16 f23d
00000390: 9e9e ec3d e1c3 093e a030 f7bd bdce c23c
000003a0: 84df 473d 0486 e53c e5e8 96bd e78b 0b3e
000003b0: 3d1d b2bd 2b3f 2bbe b251 2a3e 3b8a 2ebd
000003c0: 20af 8cbd d9a1 733b 1f93 ca3d 2a16 e43c
000003d0: 0119 45bd fdb7 5dbd 2bfd 843e 2b78 68be
000003e0: 0364 0fbe 703b 4a3b 46eb 263d 847c 71bd
000003f0: d39b b53d 746b 333d 70dd 743d b397 e2bd
