TFPORL-main/pomdp-discrete/logs_results/network-defender/final/lstm/seed-1/save/agent_0015010_perf30.060.pt (torch, 941646 bytes, 28 tensors)

critic.observ_embedder.fc.weight f4 [32, 15]
000000 6c 00 88 3e d1 b5 27 be a8 42 0b bd dd a3 83 3e
       0.26562822 -0.16377951 -0.033999115 0.25710955
000010 ec fb a7 be e8 85 99 3e f2 d4 94 bd c0 eb 34 3e
       -0.3280939 0.29984975 -0.072671786 0.17668056
000020 d0 40 40 3e 56 cd 0b be a0 d7 a7 bd 50 d1 c3 3c
       0.18774724 -0.13652548 -0.08195424 0.023903519
000030 e1 df ee 3d 53 f4 68 be 5d 33 48 3d 3f a2 3e 3e
       0.11663795 -0.22749452 0.04887711 0.1861658
000040 a0 96 bb 3c db 11 95 3d 62 f2 9c 3e f1 36 01 3e
       0.022898972 0.07278796 0.30653673 0.12618615
000050 d1 3e a1 bd a1 d1 73 be 35 07 58 be 7e 37 72 bd
       -0.078733094 -0.23810436 -0.210965 -0.059134953
000060 54 f8 79 bd 7b 60 42 3d 08 c6 ea 3e ab 80 a8 3e
       -0.06102784 0.047455292 0.4585421 0.32910666
000070 0c fc 3a be 67 6c 07 3e e6 b3 ef 3d 85 aa 08 3f
       -0.18260211 0.13224946 0.11704235 0.5338519
000080 bd 07 34 3e b8 74 5d be 39 45 af be 53 12 79 bd
       0.17581077 -0.21626556 -0.342325 -0.06080849
000090 7e f6 38 3e d8 27 aa 3d 88 7b 18 3e f3 e8 24 3d
       0.1806278 0.08308381 0.14890873 0.04026122
0000a0 dc da 09 3e a8 c7 20 be 02 7c 54 3e 64 68 d2 bd
       0.13462394 -0.15701163 0.2075043 -0.10273817
0000b0 8c 36 81 be 13 85 98 3e ff b9 ff bd 65 4f c9 3d
       -0.25236928 0.29789028 -0.12486648 0.098295964
0000c0 a1 f1 81 bc 6b 9a 6a 3c 09 a4 b3 be 07 3b f6 bd
       -0.015862288 0.014319043 -0.35086086 -0.12022977
0000d0 91 74 e7 3d 6a 25 62 bc f9 b8 89 3e df b7 ad 3e
       0.1130153 -0.0138028655 0.26898935 0.33929345
0000e0 09 ed b7 3d 73 72 9f be 1b e9 83 3e 5f 64 aa 3d
       0.08980758 -0.31142005 0.25763783 0.083199255
0000f0 d0 c8 6f be 04 c2 11 3e c6 f8 76 3e e3 d4 b2 3e
       -0.23416448 0.14234167 0.24118337 0.34928045
000100 cd f8 67 be fb e7 ea bd 5c 96 d0 3d db e4 a7 3d
       -0.22653504 -0.11470028 0.10184929 0.081979476
000110 2a 19 64 be b0 02 9e be 07 fd 19 3e 27 07 23 bd
       -0.22275224 -0.30861425 0.15037929 -0.039801743
000120 10 e7 f5 3d 88 b4 c8 3d 49 77 45 3e 60 82 83 3e
       0.12006962 0.098000586 0.19283785 0.25685406
000130 d3 b2 11 3e 2a bf 39 3e 46 26 80 be 5b 71 aa 3e
       0.14228372 0.1813933 -0.250292 0.33289608
000140 ea de 0e be c1 b4 4f bd 7a 9d 1a 3e 10 68 ff bd
       -0.13952222 -0.05070949 0.15099135 -0.1247102
000150 3b 7a 88 3e 1d af 07 be 6b e4 91 be 90 b1 6c 3e
       0.26655754 -0.13250394 -0.28494582 0.2311461
000160 aa 8d 82 bd 55 0c 99 3e 06 97 8a 3e 1a fe 8a be
       -0.063746765 0.2989222 0.27068347 -0.2714699
000170 2b ef 5e 3e f3 b3 ab 3d 99 f0 78 be 5b 99 03 3d
       0.21770923 0.08383932 -0.2431053 0.032128673
000180 90 75 c0 3e ca 2d 07 3e 55 af 60 be 4d 79 3f bd
       0.37589693 0.13201061 -0.21941884 -0.04674654
000190 72 bd 14 3e 14 91 cd bb 50 ea 32 3e d9 65 46 3e
       0.14525393 -0.006273398 0.17472196 0.1937479
0001a0 3b 54 7a be ee b6 85 be ba 4f af 3e a4 1c cd bd
       -0.24446194 -0.26116127 0.34240514 -0.100152284
0001b0 81 9d 2e 3d 32 9b 55 3d d4 4e 12 3e f0 63 5a 3e
       0.042630676 0.05214996 0.14287883 0.21327186
0001c0 8c 27 a9 3e cf d7 86 be 2b 7e 53 bd 74 e1 2e 3e
       0.33037984 -0.26336524 -0.051633995 0.17078191
0001d0 95 04 36 3e ed 55 ad 3d 11 4a a3 be e0 25 76 be
       0.17775185 0.08463655 -0.31892446 -0.24037886
0001e0 60 aa 74 be 26 8a f3 bd 80 fe 71 3e 97 fa 67 be
       -0.23893118 -0.11891584 0.2363224 -0.22654186
0001f0 fa 19 0f 3e 6e cc 5d be 21 ec 90 be 0c a0 2b bd
       0.13974753 -0.21660015 -0.28305152 -0.04190068
000200 40 0e 6c 3e 13 56 bc 3d 92 a5 00 be be 7b 4e 3d
       0.23052311 0.09196105 -0.1256316 0.05041098
000210 b6 19 ce 3e 92 63 ab 3e 0a c4 e6 3e 82 39 a2 3e
       0.4025399 0.33474404 0.4507144 0.316845
000220 fa 9b 72 3e 06 f2 dc 3d ea 07 fe bd b4 a9 b9 be
       0.23692313 0.1078835 -0.12403853 -0.36262286
000230 61 60 1e be 51 b7 0a 3c e1 dc 52 be 3d ee 0d bc
       -0.15466453 0.008466558 -0.20592071 -0.008662757
000240 01 eb bf 3d a2 92 3c be 4e f9 46 3e 83 32 eb 3b
       0.09370995 -0.18415311 0.1943104 0.0071776523
000250 92 ab 5c 3e 2b c8 27 3e 60 5a 33 be 80 08 0d 3f
       0.21549824 0.16384952 -0.17514944 0.55091095
000260 0f f4 c0 bb 8f 5f 39 bd da 6c b4 be 27 b3 cf bd
       -0.005888469 -0.045257147 -0.35239297 -0.101415925
000270 3b 03 cd bd dd 95 14 bc d1 7b f7 3d 9c 7e c3 bc
       -0.10010382 -0.009068933 0.12084163 -0.023864083
000280 01 96 0f be cb 47 10 3e 40 d4 50 bd 75 db 87 3d
       -0.14022066 0.14089887 -0.050983667 0.06633655
000290 a5 97 d8 bd 10 24 ec 3c 10 2a e1 bd 09 97 05 be
       -0.10575799 0.02882579 -0.10994351 -0.13045897
0002a0 dd 60 49 be c6 5c 01 be 7e fa 59 bc 19 2f a9 3e
       -0.19665857 -0.12633047 -0.013304351 0.33043745
0002b0 be 25 1e 3e a7 a5 39 3e b3 a6 4c 3e 8d 82 e0 3e
       0.15444085 0.18129598 0.19985466 0.43849602
0002c0 32 b2 b3 3d 25 c8 2c bc e4 dc 48 be e9 41 e8 3e
       0.087742224 -0.010545765 -0.19615513 0.45362785
0002d0 48 87 e0 bd 78 90 f8 3d d2 c0 83 be c2 73 22 be
       -0.10963303 0.1213693 -0.25733048 -0.1586447
0002e0 a7 b7 86 be c0 c2 c4 3e ba c4 4b be a3 2e cf bc
       -0.2631199 0.38429832 -0.19899264 -0.025290793
0002f0 b2 df e4 3d a4 1d e4 bd 72 c2 01 3e 4a 01 aa bc
       0.11175479 -0.11138466 0.12671831 -0.020752568
000300 0b 98 d1 bd 88 d1 c0 3b d4 8e 46 3e a0 e5 0e be
       -0.10234078 0.005884353 0.19390422 -0.13954782
000310 a2 82 4f 3e 10 03 7e 3e 9e e1 cf 3e 4d 5b 49 be
       0.20264676 0.24805856 0.4060182 -0.19663735
000320 29 09 ea bc 12 9f df bd ba 94 ad 3e f1 d1 00 be
       -0.028568821 -0.10919012 0.33902532 -0.12580086
000330 43 22 8e 3e 76 ba 92 3d 51 74 9c bd af bc 98 bd
       0.27760515 0.07164471 -0.07639373 -0.074578635
000340 8e 30 58 3d 28 9f 7c 3e 46 fe c8 3d 9b 43 a6 3c
       0.05278068 0.24670088 0.09814124 0.020295909
000350 53 93 1b be c6 de ab 3e 1a 87 b8 3e 6a c0 89 3e
       -0.15192918 0.335684 0.36040574 0.26904613
000360 c7 8b 6a 3e a5 80 47 be 1c 99 3a be e2 2b a6 3e
       0.22904883 -0.19482668 -0.18222469 0.32455355
000370 88 2b 8d be 85 d7 62 3e ff d9 7c be c4 5c 82 be
       -0.27572274 0.22152527 -0.24692534 -0.254614
000380 7c e0 c6 3d 9f d3 3d be aa 0f 88 3b e0 30 81 3d
       0.09710786 -0.18537758 0.004152258 0.0630815
000390 85 f8 6d 3e 4d f2 d4 3e 33 db a0 bd 2c db 84 be
       0.23239334 0.4159111 -0.07854309 -0.25948465
0003a0 14 5a f7 3e 54 59 16 bd 4c 22 db bd 2a 44 31 3d
       0.48310912 -0.036706284 -0.10699901 0.043277897
0003b0 3b 6e 7d be 00 a2 5d 3e 05 ad b8 3e 16 e9 78 be
       -0.24749081 0.2164383 0.36069503 -0.24307665
0003c0 a3 9c 3b be c4 d1 22 bb 4e 9d 50 3e c4 1b 36 bd
       -0.18321471 -0.0024844268 0.20372507 -0.044460073
0003d0 7d 8b 1b be a0 d8 47 3e c1 cb 26 be 16 89 8d be
       -0.1518993 0.1951623 -0.16288663 -0.2764365
0003e0 2f d6 6f be a1 32 76 3e 23 bc aa 3e ab ec 0f be
       -0.23421548 0.24042751 0.33346662 -0.14055125
0003f0 56 11 93 3b a9 e7 e2 3d f3 d9 ee 3d 02 17 0d be
       0.0044881506 0.11079342 0.11662664 -0.13778308

critic.observ_embedder.fc.bias f4 [32]
000000 cb d2 45 3e b8 09 de bd 70 45 de 3d 5e b8 a6 3d
       0.19318692 -0.108416975 0.10853088 0.08140634
000010 b3 b6 45 3e 31 2f 91 bc a2 0b 1b bd 98 c3 48 3e
       0.19307975 -0.017722698 -0.03785289 0.19605863
000020 55 23 04 3c 94 62 42 3e b1 ce 16 3e f3 d8 33 be
       0.008065064 0.18982917 0.14727284 -0.17563228
000030 e5 fa 7e 3e 58 8d 8b be 00 49 9b 3c 58 ba f5 3d
       0.24900396 -0.27256274 0.018955708 0.11998433
000040 bc b1 9b 3e 06 fb 2a be 21 b9 b7 bd 19 4b b9 3e
       0.30409038 -0.1669732 -0.089708574 0.36190107
000050 d4 5a 5a bd a5 10 d2 be 83 ef 95 be ce d7 f2 bd
       -0.053309277 -0.41028324 -0.29284295 -0.11857568
000060 72 95 f0 3d 8f 77 ed bd fc 19 87 be 26 ae 25 be
       0.117472544 -0.115950696 -0.26387012 -0.16179714
000070 20 12 45 3e 7f e3 54 3c d3 1d 56 be 90 b3 6a 3d
       0.19245195 0.012993692 -0.20909815 0.05730015

critic.action_embedder.fc.weight f4 [16, 16]
000000 ca 69 3f be 06 5b 05 3e 4c 9e 1c 3f fc 92 7b be
       -0.18692699 0.13023004 0.6117904 -0.24567789
000010 3a f2 48 be e6 cc 28 be df 96 24 be 9b 2e e4 bd
       -0.19623652 -0.16484413 -0.16073178 -0.11141702
000020 b8 25 7d be 38 ca 3d be f0 70 80 3e c4 b3 22 be
       -0.2472142 -0.18534172 0.25086164 -0.15888888
000030 0c 2f 95 bd b4 c8 53 be e6 03 7e 3e 31 dd 24 be
       -0.07284364 -0.20682031 0.24806175 -0.16100003
000040 4a 43 33 be 89 4b 1d be 88 c0 80 3e 33 d4 ce 3c
       -0.17506137 -0.15360846 0.2514689 0.025247669
000050 cc a2 8b 3e 71 a6 31 be 02 20 33 be fc 2b 46 be
       0.27272642 -0.17348649 -0.17492679 -0.19352716
000060 3d 8f af 3e 51 00 b2 bd 3b a2 30 be 47 f3 11 3f
       0.3428897 -0.086914666 -0.17249386 0.57011837
000070 5a e1 1e 3e ac 32 49 be 6b 6c 31 be 8f 65 27 be
       0.15515652 -0.19648236 -0.17326514 -0.16347335
000080 d6 c8 13 be 52 bd ca bc 02 a1 36 be 0e 14 20 3f
       -0.14432082 -0.024748478 -0.17834857 0.625306
000090 90 a0 d3 bd 03 a5 45 bd 68 59 c0 bd 4c 2c e1 bd
       -0.10333359 -0.04825307 -0.09392053 -0.10994777
0000a0 0d 28 65 bc 2c 56 43 be ea 71 07 be d9 71 c4 bd
       -0.0139866 -0.1907584 -0.13227049 -0.09592027
0000b0 a2 64 52 3f 80 5e db bd e4 e2 1b be 38 6f 23 be
       0.82184803 -0.10711384 -0.1522327 -0.15960395
0000c0 28 90 3b be 56 14 26 3f 84 b8 3b be e5 c4 3c be
       -0.1831671 0.6487478 -0.18332106 -0.18434484
0000d0 87 6c 8c 3e e6 5a a8 3e f4 42 3a be d8 dc 39 be
       0.2742655 0.3288185 -0.18189603 -0.18150651
0000e0 8d 6d 3c be 1c ef e5 bc 5c 49 32 be 04 e9 d7 bd
       -0.18401165 -0.028068118 -0.17410797 -0.10542491
0000f0 d4 62 4f be 3e 57 3d be 62 b8 aa 3e f4 1b 25 3d
       -0.20252544 -0.18490312 0.33343798 0.04030986
000100 20 b9 e9 3c 28 a7 65 bd 70 ea bc 3d 6c 48 aa bd
       0.028530657 -0.056067616 0.09224403 -0.083145946
000110 68 e4 3b 3e 30 33 6b 3d 38 68 9d bd bc 25 64 3e
       0.18348849 0.057421863 -0.07685894 0.2228002
000120 e4 b5 82 3d 9c f9 2d be a4 79 0e be 0e 84 20 3e
       0.06382349 -0.1698975 -0.1391359 0.15675375
000130 54 d7 e9 3d 20 e2 47 3e 90 51 9d bc 3a 0d 33 3e
       0.11418024 0.19519854 -0.019203931 0.17485514
000140 53 5f 27 be c9 bf 6a bb 75 3a 28 be 9c b3 e8 3e
       -0.16344957 -0.003581988 -0.1642855 0.4544953
000150 9e 1a b1 3e b6 a2 27 be 34 42 29 be 6d 2c 25 3f
       0.3459062 -0.16370663 -0.1652916 0.64520913
000160 93 34 43 3e 64 91 2a be 67 3c dc 3e b4 ef de bd
       0.19063024 -0.16657025 0.43014833 -0.108855635
000170 85 1a 61 bc 48 fa 68 be 2f 83 55 3e 73 04 ee 3d
       -0.013739233 -0.22751725 0.20850824 0.11621942
000180 68 0a 7f bd a3 c9 e5 bd e1 0d 81 bd 90 a2 ab 3b
       -0.062265784 -0.112201 -0.06301475 0.005237885
000190 71 0a a2 be c9 d5 c8 3d 02 5c 94 3e d1 d6 91 3d
       -0.3164859 0.09806401 0.28976446 0.07121051
0001a0 85 0e 98 bd ab f6 1d 3e ed e5 8c 3b f4 45 bc 3e
       -0.074246444 0.15426128 0.00429987 0.3677212
0001b0 20 92 10 3c 57 dd d6 3e 82 a6 d3 3e e1 f1 15 bd
       0.008823901 0.41965744 0.41337973 -0.036607627
0001c0 8f 2a 15 3f 10 6c 1b 3f e7 08 ef bd 10 b2 2f 3f
       0.58268064 0.60711765 -0.1167162 0.68631077
0001d0 58 2f ef bd 16 50 eb bd b7 cb 85 3e 82 a4 ed bd
       -0.11678952 -0.114898846 0.26131985 -0.11603643
0001e0 17 d4 ef bd b9 5b f1 bd c2 95 ef bd 49 f8 b3 bb
       -0.11710375 -0.11785073 -0.11698486 -0.0054922444
0001f0 a4 9a ed bd 6e 96 ec bd e0 a9 71 be f8 d5 1a be
       -0.11601761 -0.1155213 -0.23599958 -0.15120685
000200 98 98 22 be 1d e0 20 be 9b 60 00 3f d3 ec 06 be
       -0.15878522 -0.15710492 0.5014741 -0.13176279
000210 75 28 5f 3e 17 01 a3 3e 8c f2 4a be 53 0d 17 3f
       0.21792777 0.3183677 -0.19819087 0.59004706
000220 fc 96 61 be 3f 92 43 bd 40 2d 34 be b9 43 21 be
       -0.22030252 -0.047746893 -0.17595387 -0.1574849
000230 86 05 55 be 7e aa 22 be 38 9d 22 be c0 9c 20 be
       -0.20802888 -0.1588535 -0.15880287 -0.15684795
000240 d8 02 ef bd 16 5c 28 3e b1 fe 83 bd 20 85 c5 bd
       -0.11670464 0.16441378 -0.06445063 -0.09644532
000250 8a 20 7e be d1 28 22 3f 71 b1 be bd 42 f1 6a be
       -0.248171 0.6334353 -0.09311188 -0.22943595
000260 7f 6a 3a 3f 95 27 c3 bd 31 94 93 3e 28 e2 2d be
       0.7281875 -0.09529034 0.28824 -0.16980803
000270 c2 ad 6d be 2a 52 40 be 9d b4 be bd c3 7c c0 bd
       -0.23210815 -0.18781343 -0.09311793 -0.093987964
000280 d0 29 6d be d1 ea 5e bd 29 cc 5f bd 66 ac 29 bd
       -0.23160481 -0.054423157 -0.05463806 -0.041424178
000290 da 38 02 be 66 c1 36 be d8 46 3c 3e f0 5f f6 bd
       -0.12717 -0.17847213 0.183864 -0.120300174
0002a0 6a 42 05 3f be 9d 2c 3f 7a 07 33 be 78 0d ec bd
       0.52054465 0.67428195 -0.17483321 -0.115260065
0002b0 68 7f 5e bd ac 5f 71 be 97 25 93 3e b8 54 d5 bd
       -0.054320723 -0.23571652 0.28739616 -0.104165494
0002c0 68 02 e3 bd b4 e7 45 be 3d 1a 9c 3d a0 22 23 be
       -0.11084443 -0.19326669 0.07622192 -0.15931177
0002d0 0c 9f 4c be bc a4 86 bd 04 84 0e be f6 e1 78 be
       -0.19982547 -0.06574389 -0.13917547 -0.24304947
0002e0 ed 54 72 bc 68 cc c2 bd 03 d0 6f bc 61 63 54 bc
       -0.014790756 -0.09511644 -0.014636996 -0.012963147
0002f0 f0 44 23 be b0 3d 15 be ec bc b5 bd 0d 78 0e 3f
       -0.15944266 -0.14574313 -0.088739246 0.5565193
000300 67 f8 02 3d 92 e7 d4 bd 76 fb bf 3d 64 44 da bd
       0.031975176 -0.10395731 0.09374134 -0.10657576
000310 5c 9b cf 3e be c3 43 be 30 fd d4 bd 3c 93 c0 bd
       0.40548217 -0.19117638 -0.10399854 -0.09403083
000320 ea 64 0c 3e c4 67 04 be aa b8 12 be f4 d6 d4 bd
       0.1371037 -0.12930208 -0.14328256 -0.103925616
000330 ae 4e d8 bd f0 cb 4a 3f d5 82 d6 bd 7a d8 18 be
       -0.10561882 0.79217434 -0.10474173 -0.1492633
000340 f9 10 3d 3f 6b ae f5 bc 93 c7 ef bd 3a b6 67 be
       0.73854023 -0.029990396 -0.11707988 -0.22628108
000350 59 eb fd 3e c8 fb 6b 3e 41 a8 0a be 91 8e 0a be
       0.4959362 0.23045266 -0.13540746 -0.13530947
000360 06 f9 0a be 2e 7c 0b be 67 db 10 3a 86 2c 2f 3e
       -0.13571557 -0.1362159 0.00055258576 0.17106828
000370 91 14 9e 3d 74 3c 2c be 48 3c e9 3e 27 bb 37 3e
       0.077187665 -0.16819936 0.45553803 0.17942487
000380 2b 56 0f bc c0 a0 40 be 04 f7 48 bd 04 7f da bd
       -0.008748571 -0.18811321 -0.049063697 -0.106687576
000390 0a 03 61 be 46 c2 32 be 58 9d 40 bd 48 be 11 3f
       -0.21973816 -0.17456922 -0.047025055 0.5693097
0003a0 c6 ae 60 be 18 29 d7 3e 2e ef 06 3f e9 10 d4 3e
       -0.21941671 0.4202354 0.5270871 0.4141915
0003b0 e5 52 47 bd 92 a3 3e bd d2 f1 52 3d 97 a9 8c 3e
       -0.04866304 -0.04654271 0.05150015 0.27473137
0003c0 fd 87 8f bd ca 20 38 be d6 bd 25 be 44 60 2c 3f
       -0.070083596 -0.17981258 -0.16185698 0.6733439
0003d0 63 76 f4 3e 7f 57 08 3f 37 eb 25 be e0 c0 25 be
       0.47746572 0.5325851 -0.16203009 -0.16186857
0003e0 f2 b8 3e be b9 1f 26 be 5c 89 b9 3e 90 1e 52 be
       -0.18625239 -0.16223039 0.3623761 -0.20519471
0003f0 64 69 27 be 45 d9 7e 3b 13 d6 27 be d6 43 9a bd
       -0.16348797 0.0038886827 -0.16390257 -0.0753247

critic.action_embedder.fc.bias f4 [16]
000000 1d 0f 20 3e 28 d5 2e 3e cb c1 bf 3d ea c3 2d 3e
       0.15630765 0.170735 0.09363135 0.16969267
000010 d4 66 69 be 63 6f 24 3e 7f a7 a1 3e 16 6d e8 3d
       -0.22793132 0.16058116 0.31573102 0.113489315
000020 08 31 20 3e 87 08 bd 3d d5 70 50 3d 08 74 34 3c
       0.15643704 0.09230142 0.050888855 0.011013992
000030 11 f9 d3 3d 9e b0 09 3e ff de 3b 3d 41 04 25 3e
       0.1035024 0.1344628 0.045866963 0.16114904

critic.seq_model.model.weight_ih_l0 f4 [256, 48]
000000 90 19 b2 bd 93 37 ca 3e 2a bc ce 3e ca 62 0b bd
       -0.08696282 0.39495525 0.40377933 -0.03402976
000010 4b 5d 6c 3d 63 b1 85 3e 84 63 44 3d e3 10 15 bd
       0.05770616 0.26111898 0.047946468 -0.036393058
000020 0b 13 f8 3e 60 1a 2b be e1 2a 6d be a7 2a ae be
       0.4845203 -0.1670928 -0.23160888 -0.34016916
000030 59 1a c2 3e aa 0c 3c bd 25 76 48 be f4 76 8f bd
       0.37910727 -0.045910515 -0.19576319 -0.070051104
000040 f2 00 06 be 47 20 52 3d 2f 8f 19 be ce d4 3e bd
       -0.13086298 0.051300313 -0.14996026 -0.046589665
000050 24 50 29 bd d8 6a 4b 3e e3 de 83 bd 5c 0d cc 3c
       -0.041336194 0.19864976 -0.06438997 0.024908714
000060 91 df 87 bd f7 ff 8c bd 50 1e b6 be 2a 26 08 be
       -0.06634439 -0.06884759 -0.35570002 -0.13295808
000070 d2 71 cd 3d a3 dd ad be e5 ac 2e 3e 16 74 1f 3d
       0.10031475 -0.33958158 0.17058142 0.038929068
000080 87 ce b8 ba e5 08 16 3d 07 3f 0c be 4d a5 96 3e
       -0.0014099636 0.036629576 -0.13695918 0.2942299
000090 cb 9e 1d 3e 3a 5f 9a bf da 6c 43 be dc d2 2a be
       0.15392606 -1.2060311 -0.19084492 -0.16681999
0000a0 85 87 90 3d 50 56 10 3e e7 99 ea 3d 6e 42 8a 3f
       0.07057098 0.14095426 0.11455136 1.0801523
0000b0 f4 7c 19 bc 0b 11 b7 3c 37 12 ce 3d 06 54 46 be
       -0.00936817 0.022346994 0.10062068 -0.1936799
0000c0 50 b8 a0 3c 2f 2e 11 be 97 40 05 be dd e7 10 3e
       0.019619137 -0.14177774 -0.1301292 0.14150949
0000d0 e8 45 3b 3d d9 a4 01 bd 8f 32 01 3e ce cf e5 3b
       0.045720965 -0.03165135 0.12616943 0.0070132976
0000e0 58 59 61 be ee 64 de 3e 99 e0 34 3e 9f 56 48 be
       -0.22006738 0.43436378 0.17663802 -0.19564293
0000f0 d0 33 8b be f0 49 c7 3c a7 76 ad bd de ec 17 bf
       -0.27187967 0.024327248 -0.08469897 -0.59345806
000100 f1 68 3a 3e 5f d5 48 3e 67 bd 22 3e d0 25 0f be
       0.18204094 0.19612645 0.15892564 -0.13979268
000110 cd 6d 23 3e 0d 87 5b be 7b 35 3f 3e f8 eb 30 3e
       0.15959854 -0.21438237 0.18672745 0.17277515
000120 6e 59 d5 3d 8d 74 e3 3d 2b 9a fd 3e cf b3 d1 bd
       0.10417448 0.11106215 0.49531683 -0.10239374
000130 a7 c1 72 be d7 f6 0f be bd 80 36 3d 54 e1 cb bd
       -0.23706685 -0.14059006 0.04455637 -0.09955087
000140 1f 87 86 3e 95 c8 f9 3d e9 66 b5 3a 37 bb d4 3e
       0.26274964 0.12196461 0.0013839874 0.41549084
000150 3c 87 11 be d0 a7 b4 bf 6a e1 43 3e 2e 31 ba 3e
       -0.14211744 -1.4113712 0.19128957 0.36365646
000160 20 e4 d4 3e b1 61 ba 3c c2 2a 2d bd e9 b8 df be
       0.41580296 0.022751661 -0.042277105 -0.43695763
000170 c8 46 08 3e b7 5a b5 3e fd 41 9c bd 27 a4 27 be
       0.13308251 0.35420772 -0.07629774 -0.16371213
000180 b5 3e c3 bc 71 69 58 3c 39 ae a3 ba bb 7d 63 3d
       -0.023833612 0.013208733 -0.0012487835 0.055539828
000190 e6 ed a2 3d 38 db d3 bd f1 fc 0f 3e 22 e6 a6 bd
       0.07955532 -0.10344547 0.14061333 -0.08149363
0001a0 91 40 2e be 61 68 03 bf da 57 3a 3e c5 14 7b 3e
       -0.17016818 -0.51331145 0.18197575 0.24519642
0001b0 48 c8 b4 bd a5 8f 7e 3e 75 ec 67 bd 95 1c 71 be
       -0.08827263 0.24859484 -0.056621987 -0.2354606
0001c0 b6 37 c8 bd d6 88 32 3d 4e 22 04 3e b7 12 a5 bc
       -0.09776251 0.04358753 0.12903711 -0.020150525
0001d0 e6 f8 41 3e 6a 64 fc bc 4f dd f9 3b de 4c 72 3e
       0.18942603 -0.0308096 0.007625259 0.23662135
0001e0 ab ad 63 3d 01 15 c1 bd 15 18 99 3d 51 e1 16 bc
       0.055585545 -0.09427834 0.074752964 -0.009208993
0001f0 9b 6d 5d 3e eb d4 27 3c 86 5f cd bc 01 d5 e2 3d
       0.21623842 0.010243635 -0.025069963 0.110757835
000200 66 cd 45 bc ea 2b e9 3d d5 37 73 3e 3f f6 fd bb
       -0.012072897 0.11385329 0.23751767 -0.007750302
000210 c5 7e f3 3e 45 0f 89 bf 9d 8d 1d 3e 3d 81 16 3e
       0.47557655 -1.0707785 0.15386052 0.14697738
000220 53 2e b3 3e 0a fb 1c be 0c af 8e 3d c1 14 ae bd
       0.3499628 -0.15330139 0.06966981 -0.08500052
000230 8e 4a cc 3d 11 bf 7e bd 05 b8 4f 3d da 88 5b bc
       0.09975158 -0.062193934 0.050712604 -0.013399327
000240 fb 8d 17 bd 1c 25 1f 3c 7b ad dd bd 18 9c 88 be
       -0.037000638 0.009713437 -0.108241044 -0.2668159
000250 a5 9f 08 3b 3a 52 f7 ba b0 d9 06 3e 65 fd 87 be
       0.0020847109 -0.001886911 0.13168979 -0.26560512
000260 70 d1 ab 3b be 44 40 3d ba d2 46 3e c8 03 d3 be
       0.0052434728 0.046940558 0.19416323 -0.41213822
000270 dd 4d 85 3d 60 39 35 be b3 b1 a8 bb 83 7a 90 bc
       0.06508992 -0.17697668 -0.0051481365 -0.017636543
000280 f1 44 1f 3e de e0 2d be 72 68 88 3c 82 9a 11 3d
       0.15553643 -0.16980311 0.016651366 0.03554774
000290 e9 c4 75 3c af 95 fb bd 32 96 03 be 1f 6c d9 bd
       0.01500056 -0.12284409 -0.12850264 -0.106163256
0002a0 85 d6 0c bd 32 c1 9a bd d2 03 94 3d 1d f4 7a bd
       -0.03438427 -0.0755638 0.07227291 -0.06126796
0002b0 9a 74 e4 3d 86 b9 df 3b b6 66 86 3d 13 4f e9 bd
       0.111550525 0.006827536 0.06562559 -0.11392035
0002c0 42 7a e5 bb 04 e4 43 bc af b4 39 bc 3d 9c 83 bd
       -0.0070030997 -0.011956219 -0.011334582 -0.064262845
0002d0 b6 47 a0 bd ce 2b 09 3f e6 a1 71 3e a8 b7 04 3b
       -0.07826178 0.53582466 0.23596916 0.002025107
0002e0 3d 43 ec 3d 7a 53 fb bc 8d 1e 46 be 54 c2 4d 3e
       0.11536262 -0.030679453 -0.19347592 0.20093662
0002f0 7c a0 45 bd 9f a9 09 bd a4 61 04 be 40 af b5 bc
       -0.048248753 -0.03360903 -0.12927872 -0.022178292
000300 dc e6 e3 bb 61 0f 21 be a5 03 97 3e e9 b4 ad 3c
       -0.006955011 -0.15728523 0.29494968 0.021204429
000310 41 52 18 3c 0b 57 08 bf b4 f6 13 3d 7a ff 56 3f
       0.009296955 -0.5325782 0.036123946 0.83983576
000320 91 c4 77 be 8a 72 8e 3d 94 b4 02 3e 4b 2a 58 be
       -0.24196078 0.0695544 0.12764198 -0.21109883
000330 f5 e0 49 be 40 cf 46 bd 8c 44 e3 bd 38 77 0a be
       -0.1971472 -0.048537493 -0.11097059 -0.13522041
000340 6b 31 bc 3d e5 6f 0a 3e a1 49 a1 3e 5e 33 17 be
       0.09189113 0.13519247 0.31501487 -0.14765689
000350 c9 6c 65 3e fd 8e 1d 3e 2a 6b 9e 3d 7e 33 25 3e
       0.2240478 0.15386577 0.07735284 0.16132924
000360 5e d6 64 bd ce b3 3f 3e bd 6e bb 3e 84 73 95 3e
       -0.0558685 0.18720934 0.36607924 0.29189694
000370 61 47 0d be d3 b3 43 3e 70 ba d3 3d 43 1f b9 bd
       -0.1379676 0.19111566 0.103382945 -0.09039166
000380 60 64 a2 3d 63 f4 60 bd 13 25 0a bf f4 cc b7 bd
       0.07929301 -0.054920565 -0.5396282 -0.089746386
000390 2c e4 14 3f ce 4d 55 3f 18 2d 78 bf 95 76 dc bc
       0.5816066 0.83321846 -0.9694381 -0.026912013
0003a0 4f 50 c7 bc 55 94 1d 3e 0f b9 97 bb da 5b 63 be
       -0.024330286 0.15388615 -0.004630215 -0.22203007
0003b0 86 1d 07 3c ed e8 ef bd 23 29 ac 3d 03 1e e0 bd
       0.008246785 -0.11714349 0.08406284 -0.10943224
0003c0 5c 24 7c 3e b1 22 c9 bd 81 04 ee 3d 48 36 4c be
       0.24623245 -0.0982107 0.11621953 -0.19942582
0003d0 d0 fd 80 bd 48 72 f2 3d 06 27 8a bd a4 16 96 3d
       -0.06298411 0.11838204 -0.067457244 0.07328537
0003e0 12 f8 86 be b6 5d 58 3d bd a2 f7 3e 29 b7 52 3e
       -0.26361138 0.052823745 0.48366347 0.20577683
0003f0 9f 58 b4 bc 23 f2 35 3e 93 fa 6f bd b7 53 3d 3d
       -0.022014914 0.17768149 -0.058588576 0.046222415

critic.seq_model.model.weight_hh_l0 f4 [256, 64]
000000 c7 c2 03 be 10 95 40 3e f0 42 26 be 05 44 e3 3d
       -0.1286727 0.18806863 -0.16236472 0.11096958
000010 93 0b 33 3e 41 72 01 be be 6b 6f bd 36 d5 75 3c
       0.17484884 -0.1264124 -0.05845236 0.015004447
000020 d1 7d da be 9f 94 c4 3e c9 52 d9 3b 03 c8 d6 3e
       -0.42674115 0.3839464 0.006632183 0.41949472
000030 8e d6 10 3e e4 04 39 be 42 59 7c 3e 91 a5 01 be
       0.14144346 -0.18068272 0.24643424 -0.12660815
000040 3c 6e 3b be 46 75 99 3e 87 ae c8 bd fe 8b e7 3e
       -0.1830377 0.29972285 -0.097989134 0.45223993
000050 e2 79 a0 3d d9 16 b8 3d 53 2e 6e 3e bc a1 0f 3e
       0.07835747 0.08988733 0.23259859 0.1402654
000060 c4 ff a9 bd 8f 87 90 bd 8b ca 1e 3e 9b 32 61 bd
       -0.083007365 -0.07057106 0.15506952 -0.0549799
000070 42 c8 5d 3d 4f 49 71 3d 42 d4 3b 3e 8c 6a a7 bd
       0.05414606 0.058907803 0.18342689 -0.08174619
000080 ad 98 06 be ab a7 31 bd 22 97 16 bf eb f4 e0 bb
       -0.13144179 -0.04337279 -0.5882436 -0.006865134
000090 5a 23 c7 bd 32 4c 81 be 7a e8 9e be 4d b4 4f be
       -0.0972354 -0.25253445 -0.3103674 -0.20283623
0000a0 ea 57 8a 3c 1d b9 d8 bd 97 8d 0d 3e 47 18 c9 3a
       0.016887624 -0.105821826 0.13823543 0.0015342318
0000b0 23 55 16 3e 5e a4 22 3d a0 9c 9e 3d 91 f4 ea 3d
       0.14680915 0.039707534 0.077447176 0.114724286
0000c0 20 0b 53 3d da e0 63 be 53 58 6b 3e 6b 74 53 be
       0.05152428 -0.22253743 0.22982912 -0.20649879
0000d0 8a 2e 4b be 2d 82 cf 3e 53 d8 a4 bd 3b d1 fb bd
       -0.19841972 0.40529004 -0.08049073 -0.12295767
0000e0 5d ac 59 3d 07 63 36 3e aa 37 2a be 59 1a 82 3e
       0.053142894 0.17811213 -0.16622797 0.25410727
0000f0 17 ae 3c 3e ea 96 a1 be b5 71 08 be 57 ee 39 bd
       0.18425785 -0.3156045 -0.13324626 -0.045393314
000100 a1 1e e3 3b 35 ba 58 be c0 2f 1d bf d7 f2 08 be
       0.0069311415 -0.21164782 -0.61400986 -0.13373886
000110 e9 e4 56 bd c0 f2 ec bc cd 25 bc 3d 2f ae d3 bd
       -0.0524644 -0.028924346 0.091868974 -0.10335957
000120 d1 0a 0e 3f 40 4f 2d be 3f f3 86 3e 18 00 39 be
       0.55485255 -0.16924763 0.26357457 -0.18066442
000130 5c 11 ac 3e 37 c4 6d 3e 85 c0 1e 3d 2c c2 52 be
       0.33606994 0.23219381 0.03875782 -0.20581883
000140 c7 f5 4d 3e ac 84 37 3e 9b 2f 9f 3d f9 3a 54 3e
       0.20113288 0.17921704 0.07772752 0.20725621
000150 59 1a 0d bc 71 93 89 3e 22 75 9b 3d 41 90 8b be
       -0.008612239 0.268703 0.07590701 -0.27258494
000160 23 d8 44 3e 27 b8 d4 3e 0c ae 2b be af a2 29 bf
       0.19223075 0.41546747 -0.16765612 -0.6626386
000170 e9 03 23 be 7a 05 92 bc 81 6b 88 bd ba 69 5f 3a
       -0.1591946 -0.017824877 -0.0666113 0.00085225294
000180 32 60 ae be 2f 16 44 3d d4 1c ff 3e 94 68 01 3e
       -0.34057766 0.04787272 0.49826682 0.1263755
000190 6d 0e 7b bb 3b e3 e1 3c 80 a6 da bd 1f 43 03 bf
       -0.003830816 0.027574172 -0.106762886 -0.51274294
0001a0 46 59 43 be 73 6e 38 3f 17 80 54 bd 9a 00 92 be
       -0.19077024 0.7204353 -0.05187997 -0.28516084
0001b0 e9 9d 8f be 12 3b e8 3d 7f 3e 1d 3e 6e 93 78 be
       -0.28050163 0.11339392 0.15355872 -0.2427499
0001c0 d1 c2 7f be 42 bf 6a be cd 5f 71 be 68 e3 0d bf
       -0.2497666 -0.22924522 -0.23571701 -0.5542512
0001d0 cd 9c 6a 3d 34 e7 87 be 5b 15 84 be d9 23 7d be
       0.057278443 -0.2654358 -0.25797543 -0.24720706
0001e0 f6 82 4c 3b 6a 04 be bd d1 ea 04 3f f9 27 b7 be
       0.0031205988 -0.09278186 0.519208 -0.35772684
0001f0 3b 67 94 bb da 1a 50 be 90 92 32 3e f3 c3 bb 3e
       -0.0045289076 -0.20322743 0.17438722 0.36672935
000200 34 84 07 bf e1 eb 99 3d 93 ea 4e be b2 14 5e 3c
       -0.529361 0.075156935 -0.2020667 0.013554739
000210 c8 01 91 be 0e dd fc 3e 0d c1 c5 3d 9a 58 84 3e
       -0.2832167 0.493874 0.09655962 0.25848848
000220 46 6f 2e be 94 7a 03 be 97 35 10 be cb 75 f6 bd
       -0.17034635 -0.12839729 -0.14082943 -0.12034186
000230 be fe ea 3e 0f ee 82 3e 27 e6 57 bd 04 8d 81 be
       0.45897478 0.2557225 -0.052709725 -0.253029
000240 f3 4a 05 3f 97 54 c7 3d d3 f8 11 be 44 cb b7 bc
       0.5206749 0.09732931 -0.14255075 -0.022435792
000250 0a 94 fa 3d ba 0f b0 3d cb b1 25 3d 22 e6 ea be
       0.122352675 0.085967496 0.04045276 -0.45878702
000260 2e 14 5a 3d c1 2b e6 3c ac 38 89 3c 87 81 a4 3c
       0.0532419 0.028097035 0.016750656 0.020081295
000270 fe b6 01 3e 6f b1 ee 3c 2b 71 1f be 46 89 92 3b
       0.12667462 0.029137341 -0.15570514 0.0044719307
000280 87 f2 32 3c 45 09 1c 3e 38 d5 5c 3c b2 62 9e 3e
       0.010922081 0.15237911 0.01347857 0.30934674
000290 f9 3f 5c 3e 0f 11 80 3e 69 31 99 3d f5 7f 91 bb
       0.21508779 0.25013015 0.07480127 -0.0044403025
0002a0 d9 fb 0a 3e 57 0d ea ba 65 41 1f be 0c 55 a6 3e
       0.13572635 -0.0017856759 -0.1555229 0.3248676
0002b0 b8 cb f7 be 24 89 2e bc 60 1e 93 3e b5 5e 8a 3e
       -0.48397613 -0.010652814 0.28734112 0.2702538
0002c0 2a c9 9c 3e f4 6b 5d be 93 c2 28 3d 4c 97 a1 be
       0.30622226 -0.21623212 0.041201185 -0.31560743
0002d0 77 3f 05 3c ef 22 94 bd 2e bf 08 be 05 1a e8 3c
       0.008132807 -0.072332256 -0.1335418 0.02833272
0002e0 65 62 d6 3e 8e df 89 3e 34 ee 0b 3f 5b ca 9d 3e
       0.41871944 0.2692837 0.54660344 0.30818447
0002f0 cc 47 36 bd 0f ff 9c 3c 0d 0d 5c bc 84 4c 55 3e
       -0.044502065 0.01916459 -0.013430846 0.2082997
000300 64 2a c2 3d 8e cb 12 3e 8f b8 d4 3d 59 a7 78 bd
       0.094807416 0.14335462 0.10386764 -0.06070647
000310 dd 18 38 bd ae ff 4d bd bb 30 f8 3d 7f a6 98 be
       -0.044945586 -0.050292663 0.121186696 -0.29814526
000320 a8 ca c4 bd 48 eb be bd 51 3d 02 bd 24 c1 97 3e
       -0.09608966 -0.0932222 -0.031796757 0.29639542
000330 6c 64 16 3d 7a 2c 0c 3e 14 0e 68 3d 53 e0 82 3d
       0.036716864 0.13688841 0.05665405 0.06390443
000340 e7 10 2f 3e 1a 79 4d 3d 28 5d c1 3d 23 e6 7b 3d
       0.17096291 0.05016432 0.09441596 0.061498772
000350 30 da fe 3d 90 c4 12 be 3b 3d a0 bd 33 d0 9e bd
       0.1244396 -0.14332795 -0.07824179 -0.077545546
000360 72 1a 61 3b fb e3 f6 bd 37 47 d4 3d f9 e6 cf bb
       0.0034348038 -0.120552026 0.10365146 -0.0063446728
000370 2f b9 a7 bd 7f f4 f4 3d 3a c6 0c 3d 90 48 3d 3d
       -0.08189618 0.119606964 0.03436873 0.04621178
000380 1a 52 98 bd 67 c0 0f bd 73 ea 89 3d ed b3 4e 3e
       -0.07437535 -0.0350956 0.06734171 0.20185824
000390 06 5a dd bc 6e 9d 61 3d a7 ea 08 be 86 ae 0f be
       -0.027020466 0.055081777 -0.13370763 -0.14031419
0003a0 dc c9 86 bd bd 4d a9 3d 00 28 3b 3d 8b ca 70 be
       -0.0658147 0.082667805 0.045692444 -0.23514764
0003b0 0d 44 3c be 8d 1d dd bc 20 59 2c bd d8 d8 90 be
       -0.18385334 -0.02699163 -0.042077184 -0.2829044
0003c0 9d a8 5e be ad f7 3e 3e 64 54 17 3d 47 67 2b 3d
       -0.21744008 0.18649168 0.036945716 0.04184654
0003d0 19 aa 6a be f3 10 16 3d da 09 ee bd 4b d5 66 3d
       -0.2291645 0.036637258 -0.11622973 0.056355756
0003e0 77 d1 a9 3c ac 75 85 3d 8b b9 11 be ce 21 33 3e
       0.020729763 0.06516585 -0.14230935 0.17493364
0003f0 09 93 06 3e d0 51 09 3d d9 02 56 be 18 b9 b7 bd
       0.13142027 0.033525288 -0.20899524 -0.08970851

critic.seq_model.model.bias_ih_l0 f4 [256]
000000 bd 7b 39 3c 00 d3 f2 3d 7e f8 bc 3d f7 e4 75 bd
       0.011321005 0.11856651 0.092270836 -0.06003281
000010 69 b7 03 bd 74 ba 65 3d e5 51 4d 3d 17 8a 01 3d
       -0.032157335 0.05608602 0.05012693 0.031625833
000020 0d e6 42 3e 89 54 f1 3e 20 09 d8 bc d6 e0 75 3d
       0.1903307 0.47134808 -0.026371539 0.060028873
000030 d0 63 10 3e c9 10 a3 3d b1 60 d2 3c e8 f0 18 3e
       0.14100575 0.07962186 0.025680872 0.14935648
000040 28 3b 1d 3e ed 1c ad 3d 3c b7 44 3d 29 90 b9 3d
       0.15354598 0.08452783 0.04802631 0.090606995
000050 b6 0a 7b 3c 36 6e 3e 3d ee 4b 83 3d 12 ce 71 3e
       0.015322378 0.046491824 0.06410967 0.23613766
000060 36 74 aa 3d b8 b0 86 3d 96 50 b2 3c ab e2 58 3d
       0.08322947 0.06576675 0.021766942 0.052950542
000070 41 24 14 39 1c a5 9e bd 22 89 ae 3d 28 ba 0c 3d
       0.00014127886 -0.07746336 0.0852225 0.03435722
000080 1b 3f 9e 3e 5e 62 72 bd f8 b6 94 3c 39 ab a8 3a
       0.3090752 -0.05917584 0.018153653 0.0012868411
000090 6f 9b 00 3d a1 e4 16 3e bb af af bd e2 72 08 bd
       0.031398233 0.14735653 -0.0857844 -0.033312686
0000a0 98 70 b3 3d b6 a7 1e bc 42 30 42 be 11 25 80 3d
       0.0876171 -0.00968354 -0.18963721 0.0625707
0000b0 dc 59 a3 3d 04 8d 21 bd 7e 83 c4 3d 08 89 42 bd
       0.07976124 -0.039441124 0.09595393 -0.047493964
0000c0 b3 b9 bb 3d b6 d9 7f 3d 4d e3 c3 3d 1c 2f 84 bd
       0.09166279 0.062463485 0.095648386 -0.06454298
0000d0 84 21 15 3e 07 12 7c 3d cb d2 2f 3e a4 c8 2c bd
       0.14563566 0.06154063 0.17170255 -0.042183533
0000e0 df ce c4 3c e1 32 00 3d 55 39 ae bc 2d 19 00 3e
       0.024024425 0.031298522 -0.021267572 0.12509604
0000f0 8f 7e 3d bb 62 4c 5e 3d 16 56 23 bd ce f0 bd 3d
       -0.0028914546 0.054272063 -0.03987702 0.092744455
000100 d0 89 a4 3d c3 aa 5e 3d eb 33 96 3d 37 d7 f0 3d
       0.08034098 0.05436207 0.07334121 0.11759799
000110 79 c9 d7 3b ee 1d 9c 3d 2b cb 7a 3d f7 d3 4a bd
       0.0065852967 0.07622896 0.061228912 -0.04951855
000120 e9 54 07 3d c1 3b 2b 3c 9f bb 02 3e f6 04 2b 3d
       0.03303996 0.010451258 0.12766884 0.041752778
000130 fb 3b e5 bc 32 2c 97 3d 92 21 1d bc 8c 1d af 3d
       -0.027982702 0.073814765 -0.009590523 0.085505575
000140 e5 d7 26 bd 09 12 34 3d 85 07 c3 3d 3c c0 c3 3d
       -0.040733237 0.043962512 0.095229186 0.0955815
000150 39 40 2f bc 94 d7 71 3d 15 98 ba 3d 99 3b 76 3d
       -0.010696464 0.059043482 0.091110386 0.06011543
000160 93 ed 43 3d 11 44 79 3c 10 42 12 3e ef 05 a7 3d
       0.04783399 0.015213982 0.14283013 0.081554286
000170 81 16 b6 3c e9 17 0d 3e 26 bd 82 bb 6e ac d4 3d
       0.022227528 0.13778652 -0.0039898334 0.10384451
000180 27 2d 8f 3c df 9e a5 bd ad ed 71 bc 67 7b 89 3d
       0.017477585 -0.08086943 -0.014766139 0.0671299
000190 6c 4a 1c 3d 96 3b b4 3d bb 66 27 3e a0 44 3c 3d
       0.03815691 0.088004276 0.16347782 0.045963883
0001a0 ed e9 43 bd 11 30 89 bd c8 68 5f 3e 4c 02 6b 3d
       -0.04783051 -0.06698621 0.21817315 0.057375237
0001b0 a7 72 ed 3d 34 3f 1b bd 6e a8 c7 3d 5a 52 55 3d
       0.11594134 -0.037902072 0.09748922 0.05208049
0001c0 bf 04 97 bc 80 ac c3 3a 74 fb 95 3d 3b f9 5d 3e
       -0.01843488 0.0014928728 0.073233515 0.21677105
0001d0 76 a5 df 3c 05 65 ac 3d 91 c8 80 3d e6 65 0f 3e
       0.027300578 0.084177054 0.06288255 0.14003715
0001e0 74 18 55 3d da c5 d1 3d f2 32 28 3d 2f af 00 3d
       0.052025273 0.10242815 0.04106421 0.031417068
0001f0 68 de a9 3d 3c 21 ce 3d 76 b6 c6 3b 1a 69 d6 3d
       0.08294374 0.10064933 0.0060642315 0.10469265
000200 be 39 38 3b 26 60 a0 bc d9 11 34 bd 5a 73 19 bd
       0.002811059 -0.019577097 -0.043962333 -0.037463523
000210 d3 1e 4b bc e9 4a 35 ba d1 0f 04 3d 62 b7 56 3d
       -0.012397486 -0.00069157645 0.032241646 0.05242098
000220 95 a6 6d bd 32 8d a6 bd fd 16 03 bc 3a 2a 0e bd
       -0.058020193 -0.081323996 -0.008001086 -0.03470824
000230 b0 a5 a5 bb cd 7a 1a bc 03 53 b2 bd 50 01 5e bc
       -0.005055152 -0.009428692 -0.087072395 -0.013550118
000240 14 2e a5 3d c5 56 8f 3c cc 40 ff bc bb e7 e6 3c
       0.08065429 0.01749743 -0.031158827 0.02818667
000250 ba be e8 3b 63 75 aa 3b 07 d0 ca bc a3 29 c6 bd
       0.0071028145 0.005201982 -0.024757398 -0.0967591
000260 10 3b 1f bd 1e 5c d5 bc 83 e9 4d bd ec 0e 2c bd
       -0.038874686 -0.026044901 -0.050271522 -0.042006418
000270 3b 91 a9 bc 50 8e d4 3c ee 74 d1 3b a4 52 f2 bc
       -0.020699134 0.025946766 0.006392113 -0.029580422
000280 1c 15 59 bd ee 41 fc bc a5 03 ca bc 17 45 ac bc
       -0.052998647 -0.030793156 -0.024659941 -0.021029038
000290 d2 98 b0 3d 63 ab 0e 3d 44 00 20 3c d3 7c b8 bc
       0.08622898 0.034831416 0.009765688 -0.022520458
0002a0 4d f1 a9 bd e7 ce b8 bc c4 e5 20 3d c8 72 67 3d
       -0.082979776 -0.022559596 0.03928162 0.05650595
0002b0 1f 6c 00 bb 3a 18 23 bd fa 36 89 3d 45 65 2c bd
       -0.0019595695 -0.039818026 0.06699939 -0.042088766
0002c0 9e 78 2f be 51 e6 81 3d a9 be e3 bc 5f fe 8a 3c
       -0.17135856 0.063427575 -0.027800875 0.016966997
0002d0 ec 3e 72 3d 9d df 07 bd 6b 3a 44 3d 44 25 b6 bb
       0.05914204 -0.03317224 0.047907274 -0.0055586416
0002e0 e5 e5 44 bd cd 76 70 3d 09 54 bd 3c af 15 69 bd
       -0.048070807 0.058707047 0.02311136 -0.056905445
0002f0 fa 3b 89 3c 81 1d 48 3c 82 ea 8b 3d 85 ba 99 bd
       0.016752232 0.0122140655 0.06831838 -0.07506279
000300 07 d3 17 3d e4 c4 0e 3e 5b ad 8e 3e ac b9 33 3d
       0.037066486 0.13942295 0.27866635 0.043878242
000310 8c 53 4a 3d 74 94 d5 3d bb 66 90 3d f9 1a f8 3c
       0.049396083 0.10428706 0.07050844 0.030286299
000320 d5 8e 4b 3e e5 a3 b6 3e 29 27 88 3d 52 15 31 3e
       0.19878705 0.35671917 0.06648094 0.1729329
000330 af 51 0b 3e aa 4c ba 3d 6e bb 1e 3d dc 55 65 3e
       0.13605379 0.09096654 0.038752966 0.22396034
000340 66 91 92 3d e0 86 a2 3d eb a4 86 3d ed dd bc 3d
       0.07156639 0.079358816 0.06574424 0.092220165
000350 33 44 22 3c 08 a6 20 3e 4c 20 4a 3e f2 3e 71 3e
       0.009903955 0.15688336 0.19738883 0.23559168
000360 bf 25 f9 3d e6 25 ad 3b 6a 3a 91 3d f7 3c 34 3d
       0.121654026 0.005284059 0.0709122 0.044003453
000370 4c 87 5c 3d 46 f9 8d 3d 70 88 50 3e d5 f2 8f 3d
       0.053839967 0.06932311 0.20364547 0.070287384
000380 f9 77 93 3e 74 5c 1c bd 3e 6b 4d 3d 5e 82 17 3e
       0.2880247 -0.038174108 0.050151102 0.14795825
000390 d2 b0 af 3d 60 f6 20 3e 7b ce bc 3d b1 25 4f 3c
       0.08578648 0.15718985 0.092190705 0.012643264
0003a0 a3 80 36 3e d9 c6 82 bd 84 71 e3 3d e2 c9 99 3d
       0.17822509 -0.063855834 0.11105636 0.07509209
0003b0 6f b2 40 3e cb ba 00 bd bb c0 af 38 3d 9d 2c ba
       0.18818067 -0.03142814 8.380549e-05 -0.00065847096
0003c0 2f 29 29 bd 1e 73 bd 3d b1 53 14 3e e7 88 07 3e
       -0.04129904 0.092504725 0.1448505 0.13235818
0003d0 db a6 52 3e 23 7a a0 3d bf 32 09 3e a9 1e 3d 3d
       0.20571463 0.07835796 0.13398264 0.046171818
0003e0 50 0d 4b 3b cf da f4 3c 9d 8e 21 3d 3d 1e 0d 3c
       0.0030983277 0.029889492 0.039442647 0.008613166
0003f0 76 c3 01 3d a7 8a c7 3d 09 d2 06 3c 21 e7 0a 3e
       0.031680547 0.09743243 0.008228787 0.13564731

critic.seq_model.model.bias_hh_l0 f4 [256]
000000 bd 7b 39 3c 00 d3 f2 3d 7e f8 bc 3d f7 e4 75 bd
       0.011321005 0.11856651 0.092270836 -0.06003281
000010 69 b7 03 bd 74 ba 65 3d e5 51 4d 3d 17 8a 01 3d
       -0.032157335 0.05608602 0.05012693 0.031625833
000020 0d e6 42 3e 89 54 f1 3e 20 09 d8 bc d6 e0 75 3d
       0.1903307 0.47134808 -0.026371539 0.060028873
000030 d0 63 10 3e c9 10 a3 3d b1 60 d2 3c e8 f0 18 3e
       0.14100575 0.07962186 0.025680872 0.14935648
000040 28 3b 1d 3e ed 1c ad 3d 3c b7 44 3d 29 90 b9 3d
       0.15354598 0.08452783 0.04802631 0.090606995
000050 b6 0a 7b 3c 36 6e 3e 3d ee 4b 83 3d 12 ce 71 3e
       0.015322378 0.046491824 0.06410967 0.23613766
000060 36 74 aa 3d b8 b0 86 3d 96 50 b2 3c ab e2 58 3d
       0.08322947 0.06576675 0.021766942 0.052950542
000070 41 24 14 39 1c a5 9e bd 22 89 ae 3d 28 ba 0c 3d
       0.00014127886 -0.07746336 0.0852225 0.03435722
000080 1b 3f 9e 3e 5e 62 72 bd f8 b6 94 3c 39 ab a8 3a
       0.3090752 -0.05917584 0.018153653 0.0012868411
000090 6f 9b 00 3d a1 e4 16 3e bb af af bd e2 72 08 bd
       0.031398233 0.14735653 -0.0857844 -0.033312686
0000a0 98 70 b3 3d b6 a7 1e bc 42 30 42 be 11 25 80 3d
       0.0876171 -0.00968354 -0.18963721 0.0625707
0000b0 dc 59 a3 3d 04 8d 21 bd 7e 83 c4 3d 08 89 42 bd
       0.07976124 -0.039441124 0.09595393 -0.047493964
0000c0 b3 b9 bb 3d b6 d9 7f 3d 4d e3 c3 3d 1c 2f 84 bd
       0.09166279 0.062463485 0.095648386 -0.06454298
0000d0 84 21 15 3e 07 12 7c 3d cb d2 2f 3e a4 c8 2c bd
       0.14563566 0.06154063 0.17170255 -0.042183533
0000e0 df ce c4 3c e1 32 00 3d 55 39 ae bc 2d 19 00 3e
       0.024024425 0.031298522 -0.021267572 0.12509604
0000f0 8f 7e 3d bb 62 4c 5e 3d 16 56 23 bd ce f0 bd 3d
       -0.0028914546 0.054272063 -0.03987702 0.092744455
000100 d0 89 a4 3d c3 aa 5e 3d eb 33 96 3d 37 d7 f0 3d
       0.08034098 0.05436207 0.07334121 0.11759799
000110 79 c9 d7 3b ee 1d 9c 3d 2b cb 7a 3d f7 d3 4a bd
       0.0065852967 0.07622896 0.061228912 -0.04951855
000120 e9 54 07 3d c1 3b 2b 3c 9f bb 02 3e f6 04 2b 3d
       0.03303996 0.010451258 0.12766884 0.041752778
000130 fb 3b e5 bc 32 2c 97 3d 92 21 1d bc 8c 1d af 3d
       -0.027982702 0.073814765 -0.009590523 0.085505575
000140 e5 d7 26 bd 09 12 34 3d 85 07 c3 3d 3c c0 c3 3d
       -0.040733237 0.043962512 0.095229186 0.0955815
000150 39 40 2f bc 94 d7 71 3d 15 98 ba 3d 99 3b 76 3d
       -0.010696464 0.059043482 0.091110386 0.06011543
000160 93 ed 43 3d 11 44 79 3c 10 42 12 3e ef 05 a7 3d
       0.04783399 0.015213982 0.14283013 0.081554286
000170 81 16 b6 3c e9 17 0d 3e 26 bd 82 bb 6e ac d4 3d
       0.022227528 0.13778652 -0.0039898334 0.10384451
000180 27 2d 8f 3c df 9e a5 bd ad ed 71 bc 67 7b 89 3d
       0.017477585 -0.08086943 -0.014766139 0.0671299
000190 6c 4a 1c 3d 96 3b b4 3d bb 66 27 3e a0 44 3c 3d
       0.03815691 0.088004276 0.16347782 0.045963883
0001a0 ed e9 43 bd 11 30 89 bd c8 68 5f 3e 4c 02 6b 3d
       -0.04783051 -0.06698621 0.21817315 0.057375237
0001b0 a7 72 ed 3d 34 3f 1b bd 6e a8 c7 3d 5a 52 55 3d
       0.11594134 -0.037902072 0.09748922 0.05208049
0001c0 bf 04 97 bc 80 ac c3 3a 74 fb 95 3d 3b f9 5d 3e
       -0.01843488 0.0014928728 0.073233515 0.21677105
0001d0 76 a5 df 3c 05 65 ac 3d 91 c8 80 3d e6 65 0f 3e
       0.027300578 0.084177054 0.06288255 0.14003715
0001e0 74 18 55 3d da c5 d1 3d f2 32 28 3d 2f af 00 3d
       0.052025273 0.10242815 0.04106421 0.031417068
0001f0 68 de a9 3d 3c 21 ce 3d 76 b6 c6 3b 1a 69 d6 3d
       0.08294374 0.10064933 0.0060642315 0.10469265
000200 be 39 38 3b 26 60 a0 bc d9 11 34 bd 5a 73 19 bd
       0.002811059 -0.019577097 -0.043962333 -0.037463523
000210 d3 1e 4b bc e9 4a 35 ba d1 0f 04 3d 62 b7 56 3d
       -0.012397486 -0.00069157645 0.032241646 0.05242098
000220 95 a6 6d bd 32 8d a6 bd fd 16 03 bc 3a 2a 0e bd
       -0.058020193 -0.081323996 -0.008001086 -0.03470824
000230 b0 a5 a5 bb cd 7a 1a bc 03 53 b2 bd 50 01 5e bc
       -0.005055152 -0.009428692 -0.087072395 -0.013550118
000240 14 2e a5 3d c5 56 8f 3c cc 40 ff bc bb e7 e6 3c
       0.08065429 0.01749743 -0.031158827 0.02818667
000250 ba be e8 3b 63 75 aa 3b 07 d0 ca bc a3 29 c6 bd
       0.0071028145 0.005201982 -0.024757398 -0.0967591
000260 10 3b 1f bd 1e 5c d5 bc 83 e9 4d bd ec 0e 2c bd
       -0.038874686 -0.026044901 -0.050271522 -0.042006418
000270 3b 91 a9 bc 50 8e d4 3c ee 74 d1 3b a4 52 f2 bc
       -0.020699134 0.025946766 0.006392113 -0.029580422
000280 1c 15 59 bd ee 41 fc bc a5 03 ca bc 17 45 ac bc
       -0.052998647 -0.030793156 -0.024659941 -0.021029038
000290 d2 98 b0 3d 63 ab 0e 3d 44 00 20 3c d3 7c b8 bc
       0.08622898 0.034831416 0.009765688 -0.022520458
0002a0 4d f1 a9 bd e7 ce b8 bc c4 e5 20 3d c8 72 67 3d
       -0.082979776 -0.022559596 0.03928162 0.05650595
0002b0 1f 6c 00 bb 3a 18 23 bd fa 36 89 3d 45 65 2c bd
       -0.0019595695 -0.039818026 0.06699939 -0.042088766
0002c0 9e 78 2f be 51 e6 81 3d a9 be e3 bc 5f fe 8a 3c
       -0.17135856 0.063427575 -0.027800875 0.016966997
0002d0 ec 3e 72 3d 9d df 07 bd 6b 3a 44 3d 44 25 b6 bb
       0.05914204 -0.03317224 0.047907274 -0.0055586416
0002e0 e5 e5 44 bd cd 76 70 3d 09 54 bd 3c af 15 69 bd
       -0.048070807 0.058707047 0.02311136 -0.056905445
0002f0 fa 3b 89 3c 81 1d 48 3c 82 ea 8b 3d 85 ba 99 bd
       0.016752232 0.0122140655 0.06831838 -0.07506279
000300 07 d3 17 3d e4 c4 0e 3e 5b ad 8e 3e ac b9 33 3d
       0.037066486 0.13942295 0.27866635 0.043878242
000310 8c 53 4a 3d 74 94 d5 3d bb 66 90 3d f9 1a f8 3c
       0.049396083 0.10428706 0.07050844 0.030286299
000320 d5 8e 4b 3e e5 a3 b6 3e 29 27 88 3d 52 15 31 3e
       0.19878705 0.35671917 0.06648094 0.1729329
000330 af 51 0b 3e aa 4c ba 3d 6e bb 1e 3d dc 55 65 3e
       0.13605379 0.09096654 0.038752966 0.22396034
000340 66 91 92 3d e0 86 a2 3d eb a4 86 3d ed dd bc 3d
       0.07156639 0.079358816 0.06574424 0.092220165
000350 33 44 22 3c 08 a6 20 3e 4c 20 4a 3e f2 3e 71 3e
       0.009903955 0.15688336 0.19738883 0.23559168
000360 bf 25 f9 3d e6 25 ad 3b 6a 3a 91 3d f7 3c 34 3d
       0.121654026 0.005284059 0.0709122 0.044003453
000370 4c 87 5c 3d 46 f9 8d 3d 70 88 50 3e d5 f2 8f 3d
       0.053839967 0.06932311 0.20364547 0.070287384
000380 f9 77 93 3e 74 5c 1c bd 3e 6b 4d 3d 5e 82 17 3e
       0.2880247 -0.038174108 0.050151102 0.14795825
000390 d2 b0 af 3d 60 f6 20 3e 7b ce bc 3d b1 25 4f 3c
       0.08578648 0.15718985 0.092190705 0.012643264
0003a0 a3 80 36 3e d9 c6 82 bd 84 71 e3 3d e2 c9 99 3d
       0.17822509 -0.063855834 0.11105636 0.07509209
0003b0 6f b2 40 3e cb ba 00 bd bb c0 af 38 3d 9d 2c ba
       0.18818067 -0.03142814 8.380549e-05 -0.00065847096
0003c0 2f 29 29 bd 1e 73 bd 3d b1 53 14 3e e7 88 07 3e
       -0.04129904 0.092504725 0.1448505 0.13235818
0003d0 db a6 52 3e 23 7a a0 3d bf 32 09 3e a9 1e 3d 3d
       0.20571463 0.07835796 0.13398264 0.046171818
0003e0 50 0d 4b 3b cf da f4 3c 9d 8e 21 3d 3d 1e 0d 3c
       0.0030983277 0.029889492 0.039442647 0.008613166
0003f0 76 c3 01 3d a7 8a c7 3d 09 d2 06 3c 21 e7 0a 3e
       0.031680547 0.09743243 0.008228787 0.13564731
