TFPORL-main/pomdp-discrete/logs_results/network-defender/param-search/discount-exploration/discount095_se03/seed-1/save/agent_0010000_perf38.960.pt (torch, 941646 bytes, 28 tensors)

critic.observ_embedder.fc.weight f4 [32, 15]
000000 bc b9 5c 3e 21 4e 4a be b1 fd 30 bd cf b1 2b 3e
       0.21555227 -0.19756366 -0.04321069 0.16767047
000010 4b 93 c7 be 41 e7 c2 3e e3 c9 0b bd ca 4c 18 3e
       -0.38979563 0.38067058 -0.03412808 0.14873043
000020 d6 e4 1a 3d 99 60 01 be f0 3b 42 3d 03 dc 98 3d
       0.03781589 -0.12634505 0.047420442 0.07463839
000030 e7 a7 25 3e 54 46 cb bd 70 73 0c 3d 1f 9a 91 3c
       0.16177331 -0.099255234 0.034289777 0.017773686
000040 fc 18 bc 3d e6 5c fe bc ec f1 f6 3e 98 fd 43 3e
       0.09184453 -0.031050157 0.48231447 0.19139707
000050 e7 4a 30 be 7a 66 ca bd 7d 42 b0 bc 01 4a af 3c
       -0.17216073 -0.09882827 -0.02151608 0.021397592
000060 3e ac 19 bd f7 88 2e 3d 2d 92 56 3e 48 9b 71 3e
       -0.03751778 0.04261109 0.20954199 0.23594391
000070 98 77 98 be ca 16 85 3e dc 2f 83 3d ff 9d d1 3e
       -0.29778743 0.2599395 0.06405613 0.40940854
000080 22 1f b6 3e a0 9c 66 be ff 9f d5 be 9c a9 7f 3b
       0.35570627 -0.22520685 -0.4172363 0.0039011007
000090 b7 39 cc 3e 1f 6d 81 bd 4e 18 5f 3e c4 27 8a bd
       0.39887783 -0.06319641 0.21786615 -0.06745866
0000a0 e6 f7 a0 3e 83 a6 86 be 7a 21 94 3e b6 fa 8f bd
       0.31439131 -0.26298913 0.2893179 -0.07030241
0000b0 d0 3c 10 be 2a 76 94 3e 1b 2c 02 be e5 6c d0 3d
       -0.14085698 0.28996402 -0.12712137 0.1017702
0000c0 ff bb 8a bd 3b 42 2a 3d 0b fe a1 be a1 03 14 be
       -0.06774139 0.04156707 -0.31639132 -0.1445451
0000d0 70 c2 f8 3d c8 93 8d bd 80 f3 ae 3e 28 b2 6b 3e
       0.12146461 -0.06912953 0.3417015 0.2301718
0000e0 58 f8 bb bb 86 e6 83 be 1a 6f 5c 3e 02 17 4a 3d
       -0.005736392 -0.25761813 0.21526757 0.04933835
0000f0 46 b2 6d be e3 93 3c 3e d4 56 50 3e a5 86 8f 3e
       -0.23212537 0.1841579 0.20345622 0.28032413
000100 9c 7e 44 be 50 6e e5 3c 56 7d 60 3d 69 82 3b 3d
       -0.19188923 0.028006703 0.05480703 0.045778666
000110 0d 17 82 be fc b1 a2 be 12 46 1a 3e 69 52 cc bc
       -0.2540821 -0.31776416 0.15065792 -0.02494164
000120 76 27 41 3e ee 24 8e bb 39 76 5c 3e ae 9b 68 3d
       0.1886271 -0.0043378985 0.21529473 0.056789093
000130 4e e5 7d 3e d8 2b 3f 3d 11 22 ca be 5b bc 8f 3e
       0.24794504 0.046672672 -0.39479116 0.2807339
000140 87 4f 01 3c 5f 41 6a be eb a2 02 3e 6e 46 1b be
       0.007892496 -0.228765 0.12757461 -0.15163586
000150 14 7a 47 3e 97 c3 71 be 33 70 14 be 9a 99 8f 3e
       0.19480163 -0.23609768 -0.14495926 0.28046876
000160 85 a6 c5 bd 66 21 74 3e 09 1a e5 3d 05 d0 8b be
       -0.09650902 0.23840865 0.111866064 -0.27307144
000170 f7 2b 95 bb 0f 2c 55 3e 57 54 6a be 69 53 cc bd
       -0.00455236 0.20817588 -0.22883736 -0.09976847
000180 46 a6 4a 3e ac cc e1 3c 03 0a 12 3d 0f e0 8c bc
       0.19789991 0.027563415 0.03565408 -0.017196683
000190 11 33 af 3e 66 6f a2 ba f4 ba f3 3d 9e 33 7b 3e
       0.34218648 -0.0012392818 0.11900893 0.24531409
0001a0 0b 9f a2 bd dd 6c bc be 00 58 81 3e 45 96 4f bd
       -0.07940491 -0.36801806 0.2526245 -0.050680418
0001b0 8e 68 66 bc 1f d3 bb 3d 64 45 0b bb 47 1a a3 3e
       -0.014063014 0.091711275 -0.0021251077 0.31855986
0001c0 59 15 a7 3e af d6 cf be a1 30 af 3c 3f 17 4e 3e
       0.32633474 -0.40593478 0.021385493 0.20126055
0001d0 8a 50 64 3e 14 61 37 3e 45 60 50 be 9c da ac be
       0.22296348 0.17908126 -0.20349224 -0.33760536
0001e0 90 78 30 be 81 5b 01 be 75 3f 78 3e c9 0d 09 be
       -0.17233491 -0.12632562 0.24242957 -0.13384165
0001f0 77 c0 a0 3e 4d c3 83 be 4a 5c 80 be d3 43 46 bd
       0.3139684 -0.2573494 -0.2507041 -0.048404526
000200 ae 0e 67 3e 83 a7 8b 3e 92 6f 98 be 94 58 c0 3d
       0.22564194 0.2727624 -0.2977262 0.09391895
000210 ac 85 c8 3e 6a fc b5 3e ba 23 4d 3e cf 70 8e 3e
       0.39164484 0.3554414 0.2003316 0.2782044
000220 9a 61 5e 3e f9 38 e4 3d e0 e1 ab be 79 97 5b be
       0.2171692 0.11143679 -0.33570766 -0.21444501
000230 cf 5b 2b be 9e 24 4b 3d 61 e7 6d be f3 42 98 bc
       -0.16734241 0.049595468 -0.23232795 -0.018586611
000240 28 12 ac bc 89 42 23 bd 29 e4 6d 3d 52 34 88 3d
       -0.021004751 -0.039858375 0.05807892 0.06650604
000250 00 cd cd 3e 73 dd ca 3e d3 84 2a 3c 52 68 bc 3e
       0.40195465 0.39622077 0.010407644 0.3679834
000260 22 dc 68 be f7 ff de bc 7e 4f 19 be 40 14 d9 3b
       -0.22740224 -0.027221663 -0.1497173 0.0066247284
000270 f9 25 8c be 88 f6 b6 3d 89 5e 4d 3e b5 d7 bd bd
       -0.2737272 0.08933741 0.20055594 -0.092696585
000280 e3 ca 27 be f3 78 b1 3e 96 fd 96 3d fd f6 6d 3e
       -0.16385989 0.3466259 0.073725864 0.2323875
000290 22 78 4f be bb 4c 87 bc be 7d fd 3c 0b 4f 5c be
       -0.20260671 -0.01651608 0.030943748 -0.21514527
0002a0 4a aa 76 be 0a 65 85 bd a4 16 3f bd 41 bd 08 3e
       -0.24088398 -0.06513412 -0.04665245 0.13353445
0002b0 da be 81 3e a3 d3 65 3e f0 aa 00 3e e7 76 e9 3e
       0.2534092 0.22444014 0.12565207 0.45598528
0002c0 0b a3 82 3e 03 97 1c be a9 39 37 be 40 ba e1 3e
       0.25515017 -0.15291981 -0.1789309 0.4408741
0002d0 d9 70 32 be 2b 85 17 be 49 f5 81 be fc 77 00 be
       -0.1742586 -0.14796893 -0.2538245 -0.1254577
0002e0 93 db e1 be 73 5f e4 3d a4 10 b8 be 61 b1 b3 be
       -0.44112834 0.11151018 -0.35950196 -0.35096267
0002f0 35 ca 52 be 4b 24 c5 be 43 07 62 be 34 bc 16 be
       -0.20584948 -0.38504252 -0.22073083 -0.14720231
000300 cb b4 0a be 90 01 99 3d 97 15 d1 3c e0 ee 0f be
       -0.1354553 0.07471001 0.02552299 -0.14055967
000310 10 cf f5 3d 62 d8 71 3e ab 0c 99 3e a1 e3 2c be
       0.12002385 0.236177 0.29892477 -0.16883709
000320 35 a1 99 3e a6 1f e2 3b fa 50 08 3f 0d 43 7f be
       0.30005804 0.0069007454 0.5324856 -0.24927922
000330 75 fc b0 3e 84 ff 09 be b8 da aa bd a2 f2 c1 bd
       0.3456761 -0.13476378 -0.083424985 -0.09470107
000340 36 0f 89 3e ad b8 f0 3d f5 dc 18 3e af 77 c5 3d
       0.26769418 0.11753974 0.14928038 0.096419685
000350 99 33 c6 be f0 1a ca 3e 7a 61 9c 3e 68 3c d3 3e
       -0.3871124 0.39473677 0.3054312 0.41257024
000360 1f 56 9b 3e e7 a7 64 be 3a 9f 5e be dd bf 2d 3e
       0.30339143 -0.22329675 -0.21740428 0.16967721
000370 d9 fa 4f be c7 ea b8 3e ba c2 74 be d1 bb 84 be
       -0.20310535 0.3611662 -0.23902407 -0.25924543
000380 49 cd 4c 3e aa bb f8 bd cc 30 27 bc 5e 2e d8 bd
       0.20000185 -0.12145169 -0.010204505 -0.10555719
000390 c0 82 87 3e d1 7f ef 3e d6 dd 6d 3c f9 71 98 be
       0.26466942 0.46777204 0.014518222 -0.29774454
0003a0 8e 13 c6 3e c7 d0 08 3e b3 39 8f be 6e 14 42 3e
       0.38686794 0.13360892 -0.2797371 0.18953106
0003b0 08 1d 8f be 0a 94 14 3d d0 9d dd 3e a4 48 84 be
       -0.27951837 0.036273994 0.43284464 -0.2583667
0003c0 f9 ad 86 be 59 1f fc 3d 61 0b 13 3e 03 cb 9f 3d
       -0.26304606 0.123106666 0.1435981 0.07802393
0003d0 05 cb 26 be a3 2e 47 3d 8b 76 89 be 42 fc 81 be
       -0.16288383 0.04862846 -0.26848254 -0.2538777
0003e0 31 3e 3f be 7b cf e7 3e ea 75 b8 3e 15 01 0f 3d
       -0.18676068 0.45275483 0.3602746 0.03491314
0003f0 7b a6 a1 3b 1b 8f 99 3d 0b 94 b8 bd a1 db 57 be
       0.004933176 0.07497998 -0.09012612 -0.21079876

critic.observ_embedder.fc.bias f4 [32]
000000 1e 87 d1 3d 3b 41 27 be dc 6e 65 bc 56 23 d1 3d
       0.1023085 -0.16333477 -0.014003482 0.10211818
000010 9c df 73 3e 29 01 17 3d 43 2e 4b be a4 48 86 3e
       0.23815769 0.03686634 -0.19841866 0.26227295
000020 c5 01 c3 bb a9 f7 0a 3d 1e fe 6f 3e 7c fc 47 be
       -0.0059511387 0.033927593 0.23436782 -0.19529909
000030 9b 21 52 3f e3 aa a2 be fc 9e 61 3d a5 39 87 3d
       0.8208253 -0.31771 0.05508326 0.06602792
000040 f6 32 a8 3e ef 69 a7 bd e3 1f 23 be 87 6f 5e 3e
       0.3285138 -0.08174502 -0.15930133 0.21722232
000050 92 31 21 be 1d 52 97 be 11 ab 48 be e8 54 d8 bd
       -0.15741566 -0.29554835 -0.19596507 -0.105630696
000060 84 40 80 3d fb be 10 be 55 a7 21 be 25 e0 86 be
       0.062623054 -0.14135353 -0.15786488 -0.26342884
000070 2e f0 38 3e cf dc 76 3d 8d 93 66 be 01 e1 08 3d
       0.18060371 0.060269173 -0.22517224 0.033417705

critic.action_embedder.fc.weight f4 [16, 16]
000000 ca 69 3f be 63 10 85 3e 99 6c a3 3e fc 92 7b be
       -0.18692699 0.25989065 0.3191879 -0.24567789
000010 3a f2 48 be e6 cc 28 be ae 94 0a be 6f e4 01 be
       -0.19623652 -0.16484413 -0.1353328 -0.12684797
000020 b8 25 7d be 38 ca 3d be 1d ec b5 3e 93 5a 00 be
       -0.2472142 -0.18534172 0.35531703 -0.12534551
000030 3a 03 03 be b4 c8 53 be 1e c5 df bd 00 76 02 be
       -0.127942 -0.20682031 -0.10926269 -0.12740326
000040 eb b0 55 be 3f 89 58 be 8f f3 14 3d de 43 31 3d
       -0.2086827 -0.21146105 0.036365088 0.043277614
000050 aa 72 37 3e fb b6 de 3d 1c 48 c9 3d 3f 6f 56 be
       0.17914835 0.108747445 0.09828207 -0.20940875
000060 32 9b 5e 3d 00 c7 55 be 3e 04 57 be 69 ad 25 3e
       0.054347225 -0.20876694 -0.20997712 0.16179432
000070 98 be c3 3e 29 35 56 be da 0f 57 be 27 ac 93 3e
       0.3823135 -0.20918716 -0.2100214 0.2884228
000080 d6 c8 13 be 18 b7 8c 3d 02 a1 36 be f5 77 40 3f
       -0.14432082 0.0687086 -0.17834857 0.7518304
000090 90 a0 d3 bd 29 f9 c1 3b b0 e4 ae 3b 4c 2c e1 bd
       -0.10333359 0.005919595 0.0053373203 -0.10994777
0000a0 1d d0 58 3d 2c 56 43 be ea 71 07 be e4 c1 82 3b
       0.052932847 -0.1907584 -0.13227049 0.0039903987
0000b0 40 bd 7e 3b 80 5e db bd e4 e2 1b be 38 6f 23 be
       0.0038870126 -0.10711384 -0.1522327 -0.15960395
0000c0 36 5e 11 be b7 6c 12 be a2 c7 13 be 82 a2 11 be
       -0.14196095 -0.14299284 -0.14431623 -0.14222148
0000d0 c6 ac f9 3e 50 3a 13 be 24 43 27 be 4a 31 12 be
       0.48764628 -0.14377713 -0.16334206 -0.14276615
0000e0 d8 9a 14 be 06 89 d3 3d 11 52 1b 3e 45 66 92 3d
       -0.14512193 0.103288695 0.15168025 0.071484126
0000f0 d4 62 4f be 3e 57 3d be 6e 80 e6 bd d2 37 14 be
       -0.20252544 -0.18490312 -0.11254965 -0.14474419
000100 20 b9 e9 3c 28 a7 65 bd 70 ea bc 3d 6c 48 aa bd
       0.028530657 -0.056067616 0.09224403 -0.083145946
000110 68 e4 3b 3e 30 33 6b 3d 38 68 9d bd bc 25 64 3e
       0.18348849 0.057421863 -0.07685894 0.2228002
000120 e4 b5 82 3d 9c f9 2d be a4 79 0e be 0e 84 20 3e
       0.06382349 -0.1698975 -0.1391359 0.15675375
000130 54 d7 e9 3d 20 e2 47 3e 90 51 9d bc 3a 0d 33 3e
       0.11418024 0.19519854 -0.019203931 0.17485514
000140 d3 53 13 be ea 7a 83 3c 5a c1 37 be d5 6f 7b 3e
       -0.14387445 0.01604982 -0.17944852 0.2455438
000150 83 27 80 3e bc 07 37 be c2 c8 12 3e 8c 44 4c 3f
       0.25030145 -0.17874044 0.14334396 0.79792094
000160 7d c9 35 3e 87 bc 37 be a5 33 a1 3e f9 6b 8a bd
       0.17752643 -0.17943011 0.31484714 -0.067588754
000170 d9 b2 32 3d 48 fa 68 be f8 ab ee bd 3d f6 53 3e
       0.043627594 -0.22751725 -0.11653894 0.20699401
000180 f2 e2 72 bd 7f f2 1d bc dd a6 97 3e 5f 7c 36 3d
       -0.059298463 -0.009640335 0.29619494 0.044552203
000190 b8 5a 06 be f2 37 86 3d 1e 03 5d be c7 ad 5d 3e
       -0.13120544 0.065536395 -0.2158322 0.21648322
0001a0 e2 21 de 3d 0f 8c 82 3e 28 3f 07 3e 9f da 98 bd
       0.108463064 0.2549748 0.13207686 -0.07463574
0001b0 f2 ac 97 3e 08 a3 51 3e d7 c8 da 3e e3 a6 81 3c
       0.29624134 0.20472348 0.42731354 0.015826648
0001c0 99 82 7e 3e b0 88 36 3e c3 0b a0 bd bf 01 6d bc
       0.24854507 0.1782558 -0.07814743 -0.014465748
0001d0 c4 b3 9d bd 9c 32 82 3e a3 35 1c 3f e0 84 b7 bd
       -0.07700303 0.25429237 0.61019343 -0.08960891
0001e0 b4 13 a0 bd 2c 98 df bd b4 13 cf bd fb dc a2 bd
       -0.07816258 -0.10917696 -0.1011118 -0.07952305
0001f0 7e 5e 24 3e cc 7a b2 bd e0 a9 71 be f8 d5 1a be
       0.16051671 -0.08714828 -0.23599958 -0.15120685
000200 6b 2b d3 3e 05 5b 30 be 83 90 9e 3e 4f dc d0 3c
       0.41244063 -0.17222221 0.3096963 0.025495676
000210 94 56 b5 3e c2 af 09 3c 8c f2 4a be 16 fc 81 3e
       0.35417616 0.00840372 -0.19819087 0.2538764
000220 fc 96 61 be 19 65 4c 3e 40 2d 34 be a8 73 85 3d
       -0.22030252 0.1996044 -0.17595387 0.065162
000230 86 05 55 be d9 b8 2e be 9e d7 2f be d3 00 30 be
       -0.20802888 -0.17062701 -0.17172095 -0.17187814
000240 d8 02 ef bd e6 7b 05 3f e0 46 a7 bc 95 74 3e bb
       -0.11670464 0.5214218 -0.020419538 -0.0029061188
000250 8a 20 7e be fd 20 19 3e 80 fb 5e bd 42 f1 6a be
       -0.248171 0.1495399 -0.054439068 -0.22943595
000260 86 02 09 3f 10 71 8a bd e4 17 3a 3e 28 e2 2d be
       0.53519475 -0.06759846 0.18173176 -0.16980803
000270 c2 ad 6d be 2a 52 40 be d6 1e 5b 3d 40 ad e5 bc
       -0.23210815 -0.18781343 0.053496204 -0.028036714
000280 d0 29 6d be a5 19 98 bd 7e 41 b2 3d b0 89 97 bd
       -0.23160481 -0.07426766 0.08703898 -0.07399309
000290 da 38 02 be 66 c1 36 be 8f a0 c2 3e f0 5f f6 bd
       -0.12717 -0.17847213 0.3801312 -0.120300174
0002a0 f2 fa 16 3f d8 31 3c 3e 7a 07 33 be 78 0d ec bd
       0.5897666 0.18378389 -0.17483321 -0.115260065
0002b0 b6 12 99 bd ac 5f 71 be 55 9a 98 bd b8 54 d5 bd
       -0.07474272 -0.23571652 -0.074513115 -0.104165494
0002c0 68 02 e3 bd b4 e7 45 be f7 82 08 bc a0 22 23 be
       -0.11084443 -0.19326669 -0.008332006 -0.15931177
0002d0 0c 9f 4c be bc a4 86 bd 04 84 0e be f6 e1 78 be
       -0.19982547 -0.06574389 -0.13917547 -0.24304947
0002e0 c3 bd 04 3c 68 cc c2 bd c4 bf 4a 3e c1 ed 1d 3f
       0.008101883 -0.09511644 0.19799715 0.6169091
0002f0 f0 44 23 be b0 3d 15 be ec bc b5 bd d6 63 b2 3d
       -0.15944266 -0.14574313 -0.088739246 0.087104484
000300 76 05 79 3d c8 e8 b6 bd 51 9e 42 bd 1b a9 47 3e
       0.060796224 -0.08931118 -0.047514264 0.19498102
000310 23 dd 46 bd be c3 43 be 28 af 54 bd 68 6a 44 bd
       -0.048550736 -0.19117638 -0.051924855 -0.04795304
000320 9e 1d 9a 3e c4 67 04 be aa b8 12 be 04 6e 40 bd
       0.3010072 -0.12930208 -0.14328256 -0.04697992
000330 b8 df 6d bd 0b c9 43 3f 40 7b 44 bd 7a d8 18 be
       -0.058074683 0.7647864 -0.047969103 -0.1492633
000340 7c 16 40 3e d2 24 01 3e 36 3b 9a bd 3a b6 67 be
       0.18758577 0.12611702 -0.07530825 -0.22628108
000350 0e b8 a5 3e 2a 4e 9d bd 16 59 0c 3e 00 e9 c5 bd
       0.32366985 -0.07680924 0.13705859 -0.09663582
000360 12 26 9a bd 8c b0 c4 bd 59 3d 7c 3e 98 f1 18 3e
       -0.075267926 -0.09603986 0.24632777 0.1493591
000370 23 9d 77 3d 74 3c 2c be e2 16 cb 3e a5 87 8e 3e
       0.06045259 -0.16819936 0.39665896 0.27837864
000380 9d 87 4d bc c0 a0 40 be 47 b7 42 bc 04 7f da bd
       -0.01254454 -0.18811321 -0.011884517 -0.106687576
000390 0a 03 61 be 46 c2 32 be 38 65 95 ba 6f 5f 5d bc
       -0.21973816 -0.17456922 -0.0011397963 -0.013511523
0003a0 c6 ae 60 be 15 cd f8 3e e1 49 8c 3e f8 78 36 3e
       -0.21941671 0.48593965 0.27400115 0.17819583
0003b0 9b f0 04 3f 18 bf 20 bd f6 a3 00 bc 23 d5 f2 3d
       0.51929635 -0.03924474 -0.007851591 0.11857059
0003c0 1f 9a 05 3f ca 20 38 be 10 b1 b2 bd fc 98 ce 3d
       0.52188295 -0.17981258 -0.08725178 0.10087773
0003d0 0b 51 08 bd 3c ce 1d 3e e4 fe d5 bd 4d ed 85 bd
       -0.033280414 0.15410703 -0.10449007 -0.06539402
0003e0 f2 b8 3e be 08 e5 11 be 38 eb ff 3e 90 1e 52 be
       -0.18625239 -0.14247525 0.49984145 -0.20519471
0003f0 46 08 85 bd 2b 2c 85 bd 68 9a 19 be f2 6c 12 3b
       -0.06495719 -0.06502565 -0.15000308 0.0022342768

critic.action_embedder.fc.bias f4 [16]
000000 ac c3 ff 3d 28 2b 55 3e 77 00 13 bc 1d d2 07 3e
       0.12488493 0.20817244 -0.008972279 0.13263746
000010 d4 66 69 be ef a3 32 3e 7f 19 9f 3e c4 a7 9a 3d
       -0.22793132 0.17445348 0.3107414 0.0755153
000020 d7 7e 22 3e 6e c0 98 b9 4b 57 90 3d 8f 1a 12 bc
       0.15868698 -0.0002913507 0.070479 -0.008917465
000030 e6 b0 3c 3d 1d a7 90 3d d7 cc ab 3b 54 12 80 3d
       0.04606714 0.07063124 0.0052429247 0.06253496

critic.seq_model.model.weight_ih_l0 f4 [256, 48]
000000 e1 51 07 3e fc 60 24 3e 01 93 07 be 1c ef e6 be
       0.13214828 0.16052622 -0.13239671 -0.451043
000010 4b 5d 6c 3d 28 76 30 3d 08 aa 65 3e 97 18 a1 be
       0.05770616 0.043081433 0.22428143 -0.31464073
000020 c9 e8 b7 be d9 0f d8 bd 45 fc 81 be 65 31 c7 3c
       -0.35919788 -0.10549898 -0.2538778 0.024315545
000030 c6 6f 4b be 09 de 83 3e 2b c9 4f bc f6 e8 b9 be
       -0.19866857 0.25755337 -0.0126822395 -0.36310548
000040 dc a4 3e bd 1f 0f 8e 3d a1 d6 4a 3d e0 29 85 3d
       -0.04654394 0.06936478 0.049521092 0.06502128
000050 a8 2f 80 bc 8e 6a 11 3d 0a d5 65 3e 7b 9d 87 3e
       -0.015647724 0.03550201 0.22444549 0.26487336
000060 a5 cd 8b bd 97 83 a4 3d 05 59 f2 3d e3 29 e3 3d
       -0.06826333 0.08032911 0.118333854 0.11091974
000070 dd e1 98 3f a9 65 6c bd 07 62 15 3e fe e4 2f be
       1.1943928 -0.05771414 0.14588176 -0.17177197
000080 22 3f 85 3e 00 fa 5e bb 33 a9 3e 3e 0f aa 11 3a
       0.2602473 -0.0034023523 0.18619232 0.0005556652
000090 cf d6 9d bd 6c 9c 30 be 46 16 0a be 93 0a 6f 3e
       -0.07706987 -0.1724717 -0.13485059 0.23343877
0000a0 d5 c9 48 be ca 07 ff bc 0b 04 83 3d b7 73 ea 3e
       -0.19608243 -0.031131644 0.063972555 0.45791408
0000b0 77 a8 e1 bc dc 48 b9 3c ce 03 36 be 85 5c b8 3c
       -0.02754615 0.02261775 -0.17774889 0.022505054
0000c0 9b 0d c2 3d c4 48 20 bd 54 20 34 bd 9a 7b a9 3c
       0.09475251 -0.039131895 -0.043976143 0.02068882
0000d0 e8 45 3b 3d 48 7f f0 3d 93 e8 63 3e c7 98 a2 3d
       0.045720965 0.11743027 0.22256689 0.07939296
0000e0 52 6b ac bc 12 e9 62 be 08 f8 0a bf 62 dc ac bd
       -0.021047268 -0.22159222 -0.54284716 -0.08440472
0000f0 5f 50 9c 3d 1b 7f 3a 3e 5d bb 88 be 63 41 55 3e
       0.07632517 0.1821255 -0.26705447 0.20825724
000100 5b aa 8a 3e 66 28 ec 3e 75 4c c9 bd 0f b4 dd bd
       0.27083096 0.46124572 -0.09829036 -0.10825359
000110 ef a4 f7 3d 07 74 f4 bd d7 36 02 3f 65 6b ff 3d
       0.120920055 -0.11936193 0.5086493 0.12471656
000120 94 fa f7 bc bb 21 79 3d 0b fd ad 3e 5b 2f 9a 3e
       -0.030270852 0.060823184 0.3398212 0.30114254
000130 e0 fb 1d 3f 5a 7d c1 bc 9f 34 8b 3e 6a 19 a7 3d
       0.61712456 -0.023619343 0.27188584 0.08159144
000140 f2 19 53 3d 26 42 42 3f 6b 28 09 3f f7 b9 67 3d
       0.051538415 0.75882185 0.535773 0.056573834
000150 10 b3 ea 3d a0 70 65 3f 20 14 ea bf c9 34 a9 3d
       0.11459935 0.8962498 -1.8287392 0.08262021
000160 0d 4a 1d be bd 5a a2 3e 36 08 4f 3e 9e 06 0f bf
       -0.1536028 0.31709853 0.20217976 -0.5586947
000170 72 f2 d7 3e 73 8c 55 3f 63 2c bc bd 54 65 7e 3d
       0.4217716 0.83417434 -0.091881536 0.062108353
000180 ae f4 b9 be 62 ac 2a 3c 74 33 26 bf 07 c5 16 3f
       -0.36319488 0.010417076 -0.6492226 0.5889439
000190 e6 ed a2 3d e2 10 ae bd bb ed 11 3d e6 10 61 3c
       0.07955532 -0.08499314 0.035627108 0.013736939
0001a0 e4 bd 06 3d 69 f1 6d 3e 6e 10 22 3d c7 a0 66 3e
       0.032895938 0.23236622 0.03956645 0.22522269
0001b0 08 eb 1d 3d 30 c9 8d bc fe 8e 50 3e 05 2b 9f bd
       0.03855422 -0.017307848 0.20367047 -0.07771877
0001c0 21 5e e5 bd d4 13 fa 3d 20 36 47 bd 28 9b bd 3d
       -0.11199594 0.12210813 -0.048635602 0.09258109
0001d0 13 4c 89 3d 8b f9 89 bc de d6 25 3d 86 fe da 3d
       0.06703963 -0.016842624 0.040488116 0.10693078
0001e0 06 f6 c1 3c d4 67 e8 bd f2 38 6c 3d 61 05 6d be
       0.023676883 -0.11347929 0.057671495 -0.23146583
0001f0 4f c0 88 bd e9 98 1c be 7d c4 22 be f1 7c a0 3e
       -0.06677305 -0.15292706 -0.15895267 0.31345323
000200 b5 03 63 3a 42 d5 98 3c 8c 00 2d 3e 3b 98 42 3d
       0.0008659915 0.018656377 0.1689474 0.04750846
000210 cf 0c 5d 3e 70 ab 82 be a8 51 32 3f 18 b6 87 3e
       0.21586917 -0.2552142 0.6965585 0.26506114
000220 f8 31 11 3f 03 29 dd 3e cd 55 db bd a6 02 a4 be
       0.5671687 0.43195352 -0.107097246 -0.3203327
000230 d8 5e 55 bd 07 59 4c bd 29 f2 c4 3d b3 bc 17 be
       -0.052092403 -0.04988959 0.09616501 -0.14818077
000240 2b cf 6a 3e 2a 83 33 3d 0d 6d ba be bd bd 62 be
       0.22930591 0.04382626 -0.36411324 -0.22142692
000250 a5 9f 08 3b 67 76 c0 bb 27 e3 32 3e 12 0a 7e 3e
       0.0020847109 -0.0058734897 0.17469464 0.24808529
000260 3e ae 4b bc 16 80 f2 bd c3 2e 73 3e ed cd 3c be
       -0.012431679 -0.11840837 0.23748307 -0.1843793
000270 24 83 e4 bd 8e 8c e3 3c be 64 bc 3e 0e 0a ae 3d
       -0.111578256 0.027776983 0.3679561 0.084980115
000280 46 52 a1 3d 15 4f e4 bd e0 56 e9 bb 3e 80 db 3d
       0.078770205 -0.11147896 -0.007120952 0.1071782
000290 2c 58 29 3d fe f9 4c bd 14 5a b5 be 8e e3 67 3d
       0.041343853 -0.0500431 -0.35420287 0.056613497
0002a0 e4 ff a3 3d e6 2f cd bc 7a fb 09 3e 83 e2 eb bc
       0.08007792 -0.025047254 0.13474837 -0.028794533
0002b0 41 a3 00 3f 12 fd 9b bd 71 59 24 3e 03 96 8b 3d
       0.50249106 -0.07616629 0.16049744 0.06815722
0002c0 01 7a 9b bd 0c 24 fa bd a7 3b 32 be 89 b5 82 bd
       -0.0759163 -0.12213907 -0.17405568 -0.06382281
0002d0 50 62 08 be 45 a3 eb 3d 93 1d bd 3e f3 21 98 bc
       -0.13318753 0.115057506 0.36936626 -0.018570876
0002e0 e5 18 10 be ec 97 f0 bd 41 58 ab bd e0 0f a6 be
       -0.14071997 -0.11747727 -0.083664425 -0.32433987
0002f0 96 ad dd bd f9 cf 0f 3d ff 50 c8 bd 18 bb d1 bc
       -0.108241245 0.035110448 -0.09781074 -0.025601909
000300 ff f5 d8 3d 15 c5 52 be ae 71 3a 3d 9e d4 f4 3d
       0.10593795 -0.20582993 0.04551857 0.11954616
000310 41 52 18 3c c4 dd b0 bd e8 93 c9 bd f8 c7 16 be
       0.009296955 -0.086360484 -0.09842664 -0.1472472
000320 31 96 1a 3e c0 95 b8 3e 69 07 51 bd f4 57 57 3e
       0.15096356 0.3605175 -0.051032458 0.21029645
000330 9c 00 d2 3d 4b 6b 02 bd a7 a0 83 bd 36 99 96 3d
       0.102540225 -0.031840604 -0.064271264 0.073534414
000340 9e cb ea 3d f5 21 dc 3d e8 0b 7a 3e d9 4c 64 be
       0.11464618 0.10748664 0.24418604 -0.2229494
000350 cb 85 0a 3e 5e 7d 41 be 72 08 f8 3d 30 31 92 3d
       0.135276 -0.1889548 0.12110986 0.07138288
000360 05 be 96 bd ee 8c 09 3e 51 db 95 bd a2 bf c0 3d
       -0.07360462 0.13432667 -0.07317222 0.09411551
000370 8e fd 8d 3f 55 a4 b4 bc 30 ac 92 3d 64 0f a2 bd
       1.1093004 -0.022051016 0.071617484 -0.07913092
000380 ee 25 84 3d 2d b7 43 3e 9d a9 fd 3d 46 0b 83 bd
       0.06452547 0.19112845 0.12385867 -0.063986346
000390 35 8b 17 be 2d 6b 55 be 22 9f 10 3f f1 3b 65 3e
       -0.14799197 -0.20841666 0.5649282 0.22386147
0003a0 1d 79 5b 3e 59 f3 22 3d b7 20 c8 3c 16 03 36 3f
       0.2143292 0.039782856 0.024429662 0.7109846
0003b0 ae 44 f1 3d 93 42 08 3f fd bb 90 3d e8 bc 98 3c
       0.11780678 0.53226584 0.07067106 0.018644765
0003c0 fb b2 57 3c 17 a7 90 3e f4 dc 10 be 18 01 d6 3e
       0.013165231 0.2825248 -0.14146787 0.4179771
0003d0 d0 fd 80 bd 09 26 6f 3e 31 d2 47 be ad d8 46 be
       -0.06298411 0.23354353 -0.19513775 -0.19418593
0003e0 64 59 c2 bd 33 86 2e 3f 40 69 0e 3f 4f 44 31 3e
       -0.09489706 0.6817352 0.5562935 0.17311214
0003f0 31 6b 23 be 6f 73 d9 3e 70 ea 0d bd f5 c0 e6 3d
       -0.15958859 0.4247088 -0.034647405 0.112672724

critic.seq_model.model.weight_hh_l0 f4 [256, 64]
000000 b8 89 00 be 3f b7 d9 be 07 64 d7 bd c2 67 4a be
       -0.12552536 -0.42522618 -0.105171256 -0.19766143
000010 ce ac 1e 3c 70 06 8d bd 05 4d c2 3d bd ec 03 3e
       0.009684755 -0.068859935 0.094873466 0.12883277
000020 8e c4 f5 bd 07 38 93 bc 1f 89 7b be 68 e9 17 be
       -0.120003805 -0.017971052 -0.24564026 -0.14835131
000030 71 e8 88 3e d1 7e 2b be da 78 2c 3e 37 c5 13 3d
       0.2673984 -0.16747595 0.16842976 0.03607675
000040 7f 92 4e be a7 8d f0 3c df 21 fb bc 46 f7 e1 bd
       -0.20173071 0.02936442 -0.0306558 -0.11033492
000050 08 42 4f be 91 ab eb be 3b 5d 70 bd 05 f0 14 be
       -0.20240033 -0.46029332 -0.05868266 -0.14544685
000060 72 26 46 be c1 f0 03 be c5 be 5e 3e c9 1f fa 3c
       -0.19350603 -0.12884809 0.2175246 0.030532734
000070 bb 6c da 3d 73 73 ce bd 6a 97 f2 3d 2c fc 41 be
       0.1066527 -0.10080614 0.11845286 -0.18943852
000080 1e b9 0e 3e 12 42 be bd 1b 3a 60 3d d4 e8 ba 3c
       0.13937804 -0.09289946 0.054742914 0.0228161
000090 58 fa 70 3e 22 4a 1d 3d 1a c8 ca 3e ff 13 00 3e
       0.23532999 0.038400777 0.3960579 0.12507628
0000a0 e3 42 46 bf df ec 9f bd 5a 5f 62 bd 1d ce bf 3d
       -0.7744581 -0.078088515 -0.055266716 0.09365485
0000b0 39 45 d9 3a 37 77 86 bd 0c 6c 10 bd 65 4b a1 be
       0.0016576416 -0.06565707 -0.03525929 -0.31502834
0000c0 38 b8 ad bd 38 2b f6 bc 5d 02 ea 3d 5a 2b ff bd
       -0.084824026 -0.030049905 0.11426232 -0.124594405
0000d0 b9 d0 39 be 6b 34 0a 3e b8 30 b8 bd 7b 91 99 3e
       -0.18146028 0.13496558 -0.08993667 0.29993805
0000e0 0a 83 d3 bd f0 5b 49 bd 01 0c a6 be ec d8 8b 3d
       -0.10327728 -0.049159944 -0.32431033 0.06828484
0000f0 07 2f 16 3e 20 63 25 be 6d 0f 82 be b4 db 48 3e
       0.14666377 -0.16151094 -0.25402394 0.1961506
000100 39 d7 41 bd b9 7a a9 bd 72 7c b4 3d 6e 87 c7 be
       -0.047324393 -0.082753606 0.088127986 -0.38970512
000110 e3 bd ea 3e 19 77 95 bd b5 14 df 3e 61 bd 16 be
       0.45847997 -0.07298107 0.43570486 -0.1472068
000120 80 92 11 3e 43 45 4f 3d 26 94 b7 3e 39 5d 4d bd
       0.14216042 0.050603162 0.35855216 -0.050137732
000130 0c 75 fd 3e 34 57 72 3d db d4 15 be a8 15 85 3b
       0.49503362 0.059165195 -0.14631979 0.0040614195
000140 8e ff 8c 3e 9b 6a 09 3e af f8 a7 be 7d 69 cb be
       0.27538723 0.13419573 -0.32806918 -0.3972892
000150 8a de 6e 3b ba 2b e2 be 9e c0 0a bf 87 1e 5c bc
       0.0036448562 -0.44173986 -0.5420016 -0.013435013
000160 a8 38 5e be 52 c2 a3 be 0f d7 a1 3e 6c 13 02 3e
       -0.217013 -0.31984192 0.3160939 0.12702721
000170 f0 7f ed 3d b2 7a b2 bd 86 b3 58 be 37 55 43 3f
       0.11596668 -0.087148085 -0.21162233 0.763019
000180 7a 2b cb be a5 b8 9f bc 9a 48 8e 3e 65 f2 ce 3e
       -0.39681607 -0.019497225 0.27789766 0.40419307
000190 9a 1a eb bd 7a 39 0e be ed 1f 73 3e f6 c9 ba 3d
       -0.11479683 -0.13889113 0.23742647 0.09120552
0001a0 0c 59 68 3d 5f 01 14 be 6c e0 d6 be 53 b9 45 bf
       0.056725547 -0.14453648 -0.41968095 -0.7723591
0001b0 e0 84 e2 3d 47 c9 69 be de 2a 0b 3b 98 b0 62 3e
       0.110605 -0.22830687 0.0021235268 0.22137678
0001c0 f0 cb 9f 3d a0 45 f5 be b8 ed 77 3f 44 9b 0a 3e
       0.0780257 -0.47904682 0.96847105 0.13535792
0001d0 f4 32 d2 3d bd ea 36 be 66 19 7d be a7 74 07 3f
       0.10263625 -0.17862983 -0.2471672 0.5291237
0001e0 68 01 a0 3e a1 76 be bd 57 3a 6a 3e 0b 6d 30 3f
       0.31251073 -0.092999704 0.22873817 0.68916386
0001f0 52 00 81 be 50 1a 44 bd 08 cd a2 bd c2 22 e5 3e
       -0.25195557 -0.047876656 -0.07949263 0.4475308
000200 7b 58 e4 be 98 5d 86 3e 95 12 1e 3d 89 b8 70 3e
       -0.44598755 0.2624328 0.03859194 0.23507895
000210 dd 50 c1 be 75 3b 0b 3e f5 7d 8b be 95 01 9e 3d
       -0.37757006 0.135969 -0.27244535 0.077151455
000220 ab 77 ef be 25 64 69 bd 66 35 04 3f f5 ca 35 3f
       -0.46770987 -0.05698027 0.5164398 0.7101281
000230 72 54 ad 3d e6 1b 45 be 6d 5f 05 3d 42 7b 23 3d
       0.08463372 -0.19248924 0.03256171 0.03991247
000240 04 39 c7 3e 8e 73 73 3d 5c cf e7 bd e4 35 0f be
       0.38910687 0.059436373 -0.113188475 -0.13985401
000250 2d ef 30 be 3d 55 74 3e b6 70 a4 3d e2 dc 77 be
       -0.17278738 0.23860641 0.080293104 -0.24205354
000260 3a b8 69 be 29 74 90 bc 64 78 e6 3d 2b be d9 3e
       -0.22824183 -0.017633514 0.112534314 0.425279
000270 d4 a3 0c 3e a3 ee 20 3e d7 89 b9 3e e7 90 d1 be
       0.1373437 0.15716033 0.36237976 -0.40930864
000280 76 c4 a8 bc f6 a8 93 bc d2 0b 4d 3e c5 79 50 3e
       -0.020601492 -0.018024903 0.2002404 0.20358951
000290 f7 9d 2a be c6 e2 ec 3e 0b 22 3b 3e e2 86 05 be
       -0.16661821 0.46266764 0.18274705 -0.13039735
0002a0 82 97 ab bd 57 af 47 3e 2b 1c 93 bc b9 19 a2 bd
       -0.08378507 0.1950048 -0.017957767 -0.079150625
0002b0 5b ee 4b 3e 58 9c dc be 22 39 93 3e af 8b 27 be
       0.19915144 -0.4308803 0.28754526 -0.16361879
0002c0 2c 65 86 3d cb 78 9f bd f6 bc db bc 9b 86 26 3e
       0.06562266 -0.07786711 -0.026823502 0.16262285
0002d0 e0 cc 32 be c6 52 77 3e ff 35 14 be 74 25 93 bd
       -0.17460966 0.2415267 -0.14473723 -0.07184878
0002e0 b8 03 17 bd e6 4f ab bc bd f4 bf bd 03 11 0d be
       -0.03686878 -0.020912122 -0.09372852 -0.1377602
0002f0 c6 8a 94 3d e1 e4 42 be 2a c3 10 be f0 c5 f5 bd
       0.072530314 -0.19032623 -0.14136949 -0.12000644
000300 e3 28 b2 bc 0c 7e 83 be ff b8 be 3d 49 37 0c be
       -0.021748012 -0.25682104 0.09312629 -0.13692965
000310 c8 99 bd 3d 0f b0 1f bd e6 7c 08 3e 5e 21 5b be
       0.09257847 -0.038986262 0.13328895 -0.21399447
000320 be 4f 56 be 58 61 b8 3c b0 69 c8 bb 59 ec 4e 3d
       -0.20928857 0.022507355 -0.0061161146 0.050518367
000330 fc 3b e4 3d 2d ee 44 bc d5 50 0f 3d 41 7f 80 bd
       0.111442536 -0.012019676 0.034989197 -0.06274272
000340 a6 a6 0d be 5d dc 16 3c c5 27 9e 3d fe 39 98 3d
       -0.13833103 0.009207812 0.07722429 0.07432936
000350 e8 ac 94 3d 33 9f 9a 3d ec ae 17 bd 9f 5d 16 be
       0.07259542 0.07549896 -0.037032053 -0.14684151
000360 0d bc f2 3c c9 13 52 bb a5 43 f1 bd ae 12 0b be
       0.029630685 -0.003205525 -0.1178048 -0.13581344
000370 ea 92 e7 bd 16 b4 51 3e b7 c0 1c be f1 a9 4d 3c
       -0.113073185 0.20478854 -0.1530789 0.012552724
000380 90 12 09 3e 6c cd 21 3d 94 52 04 be 52 22 0d bd
       0.13385987 0.039502546 -0.12922126 -0.03445656
000390 4b 62 1b be d1 b1 c4 bd 1e a8 19 3d 43 fa 29 be
       -0.15174215 -0.09604228 0.037513845 -0.16599374
0003a0 02 52 63 3e 0c cc 09 3c 2a 7b d0 bc 84 9d 2f bd
       0.22199252 0.008410465 -0.025449354 -0.042874828
0003b0 75 89 47 be a1 e6 c0 3d c1 70 01 be 8b 5c 70 bd
       -0.1948603 0.09418989 -0.12640668 -0.058682006
0003c0 4f e2 f7 bd c8 7e 0f be 62 56 c0 3d 6b 43 97 bd
       -0.12103712 -0.14013207 0.09391476 -0.07385906
0003d0 e9 03 99 3d d4 d0 07 bd 21 30 fb 3c b9 8e 21 3d
       0.07471449 -0.03315814 0.030662598 0.03944275
0003e0 52 e7 95 bd c8 0d 4d bd d6 12 b9 bd 1b 8a 20 3e
       -0.073195115 -0.05006197 -0.09036796 0.15677683
0003f0 21 67 84 3c 9f db 1e 3e e9 76 6c be b4 01 cf 3d
       0.016162457 0.15513466 -0.23092236 0.10107747

critic.seq_model.model.bias_ih_l0 f4 [256]
000000 22 80 08 3c 52 ac b3 3d 6f 4d 0d bd 76 9e 1b 3d
       0.0083313305 0.08773102 -0.034497675 0.037992917
000010 ea 2b cc 3a 26 a7 d3 3c fd ab de 3d 8e 27 f5 bc
       0.0015577052 0.025836539 0.10872648 -0.029926088
000020 f1 6f 60 3d 27 dd ab bb 97 96 27 bd aa 15 98 3e
       0.054794256 -0.0052448693 -0.040915098 0.29704028
000030 ab b8 4a 3c c4 90 86 3d 5b 2e 1d 3d 7b 02 01 bd
       0.01237313 0.065705806 0.038374286 -0.031496506
000040 43 5b c6 3d b6 3d 16 3d e3 99 00 bd 6a ba b2 3d
       0.096853755 0.036679946 -0.031396758 0.08726962
000050 f5 10 8c 3c e4 15 db 3c 6d 92 8d 3e a1 f9 75 3d
       0.01709793 0.026743837 0.27650777 0.060052518
000060 bb c2 0a 3d 10 0b 1e 3c 74 c7 a2 3c 68 23 c3 3d
       0.033877116 0.009646192 0.019870497 0.095282376
000070 61 3c 91 3a 17 9c 90 bd ef 80 29 3e ae d6 fe bb
       0.0011080616 -0.07061022 0.1655309 -0.0077770567
000080 1e 22 02 3d a2 83 cc bc 43 63 cc bd 36 aa 81 3d
       0.031770818 -0.024965111 -0.0997987 0.06331293
000090 db 21 33 3e 19 a2 1a 3e 42 e4 c1 3d dd 67 d4 3d
       0.17493384 0.15100898 0.09467365 0.10371373
0000a0 dd a8 a7 3d 6f d7 c7 3d 4a 6c 6f 3d 65 6c 68 3d
       0.08186505 0.097578876 0.058452882 0.056743998
0000b0 9f bd b8 3d d6 0c 75 3d 20 3f ac 3d be 03 ad 3d
       0.09020542 0.059826694 0.08410478 0.084479794
0000c0 62 4d 33 3d 72 ab f6 bc 43 44 99 bd 86 fb 51 3d
       0.04377497 -0.030111048 -0.07483723 0.051265262
0000d0 b4 0a 8b 3d 50 fe d5 3d cf a6 4b 3e 23 57 3d 3d
       0.06789151 0.10448897 0.19887851 0.04622568
0000e0 ca d3 0a 3e a1 40 0f 3c 69 78 51 3c 12 ad 86 bd
       0.13557354 0.008743436 0.012785056 -0.06575979
0000f0 2c 3d 08 3e 12 19 88 bd e2 fe 17 bc 34 a2 a4 3c
       0.13304585 -0.06645407 -0.009277077 0.020096876
000100 9f bc 3b 3d 9c a9 ae 3c 7f 94 4a 3d c3 48 05 3e
       0.04583418 0.02132111 0.049458023 0.13016038
000110 c0 02 3e 3d 33 13 7c 3d bf 40 18 bd c9 b3 70 bd
       0.04638934 0.061541747 -0.03717112 -0.058765206
000120 25 ec 8c 3d a3 f9 6d 3d f1 a6 f7 3d 23 96 a3 3d
       0.068809785 0.0580994 0.120923884 0.07987621
000130 58 fd 5a 3d 0b fb 13 3d e7 d9 48 3d 6e 8d 4f 3d
       0.053464264 0.036128085 0.049035933 0.050671987
000140 99 60 0d 3e 1f 49 8c 3d d8 4c dc bc 71 97 b9 3d
       0.1380638 0.06849884 -0.02689211 0.09062088
000150 7b a1 89 3b b4 66 8e bc 6c 48 88 3d c5 c4 a4 3d
       0.004200158 -0.017382957 0.066544384 0.08045343
000160 43 e6 97 3d 31 30 c7 3d 68 50 87 bc 41 5d c5 bc
       0.07416966 0.09725989 -0.016517833 -0.024092318
000170 35 d2 25 3d 81 cd 14 3d c3 f1 a5 3d 6a 44 62 3d
       0.040483672 0.036328796 0.08102753 0.055241026
000180 31 74 d3 39 6f 9e 1d 3d eb ac 87 3e 8c 91 24 3d
       0.00040331625 0.038481172 0.26499113 0.040177867
000190 41 cf 32 3d 31 b6 4c 3d cd ba 16 be 8b 4a a1 3d
       0.043654684 0.04997844 -0.14719696 0.07875546
0001a0 8d a8 f6 bb 7f 6d eb 3d a1 3b 83 3d 6e 4b a8 3d
       -0.007527417 0.11495494 0.06407858 0.08217512
0001b0 24 02 18 3e 9b 31 9d 3c 66 3f 97 3d ac b7 91 3d
       0.14844567 0.019188693 0.07385139 0.07115111
0001c0 4f cf 28 bc aa 9d 5b bd 23 c9 e6 3c b5 b0 98 3d
       -0.0103033325 -0.053617157 0.028172081 0.07455579
0001d0 bd 79 d0 3d d2 33 89 3d 34 66 72 3d 34 5d 5b 3c
       0.1017947 0.06699337 0.0591795 0.013388921
0001e0 49 4f 88 3c 4a 1c d2 bc 3d 74 4a 3c bf e5 88 bb
       0.016639369 -0.025648255 0.012356815 -0.0041777785
0001f0 f9 73 33 bd dc 04 3f 3e a3 85 9e 3d 62 8c 92 bb
       -0.043811772 0.18654197 0.07740333 -0.0044723013
000200 74 02 d4 3c b2 0d 59 bd b5 af cd bc fa e0 04 3d
       0.025880076 -0.052991576 -0.025108198 0.032441117
000210 da 47 08 3d 41 f5 37 bc ad 76 41 bd de 1c 10 bd
       0.033271648 -0.011227907 -0.04723232 -0.03518378
000220 e5 1b 8b bc 9d 15 f5 bc a5 7a 4a 3c fa 8e 98 bd
       -0.016981075 -0.029917533 0.012358342 -0.074491456
000230 e1 d0 c6 bc 65 47 d3 bc 24 aa 0b bd d7 30 5d bc
       -0.024269523 -0.02579088 -0.034097806 -0.013500414
000240 1a a4 84 3a cc 3c 34 3d d9 6b 36 3d 37 f4 8a bd
       0.0010119707 0.044003293 0.044536445 -0.067848615
000250 a1 39 2b 3c 9a 22 10 bd 45 f7 a3 3d 00 fe de bc
       0.0104507515 -0.03518925 0.08006147 -0.027220726
000260 d0 fa c4 3c 92 9e 90 bc 2a 2d 23 bd e5 c5 5c bd
       0.024045378 -0.017653737 -0.039837994 -0.053899664
000270 cc 07 d1 3b fc 0c c0 3c 77 01 3f bc 69 22 2d 3d
       0.0063791033 0.023443691 -0.011658064 0.042269144
000280 1f 34 94 ba 25 9a 46 3d 21 8d ee b9 bf 7a 44 ba
       -0.0011307037 0.048486847 -0.00045500047 -0.0007495097
000290 9c 04 42 3c 76 2d 3b bb 89 45 0d bd b8 c2 cc bc
       0.011841919 -0.0028561032 -0.034490142 -0.024995193
0002a0 64 e6 7a bc 5a a4 6c bb a3 fb e4 3b 31 e5 de 3b
       -0.0153137185 -0.0036108703 0.0069880052 0.006802224
0002b0 a2 3e 5d bd 8e 1b 85 3d 70 2e 1b bc ba 7f 54 3d
       -0.05401481 0.06499396 -0.009471521 0.051879622
0002c0 a9 44 f0 bc 6f 90 b1 3d 1c fc 86 bb 6c 11 55 bc
       -0.029329615 0.08670127 -0.0041194092 -0.013004642
0002d0 c7 b6 2f bb 77 c2 2c bd 23 f4 24 3d 4e 20 19 bd
       -0.0026811825 -0.042177644 0.04027189 -0.037384324
0002e0 f7 31 c7 bc c2 de e7 3d 8e 9f 7d 3c 42 60 0d 3b
       -0.024315817 0.113217846 0.015479935 0.0021572267
0002f0 d6 3d 4b 3c 76 c3 6b 3d 09 dd 3d 3c 81 31 02 bd
       0.01240488 0.057559453 0.011588343 -0.03178549
000300 10 d2 de ba 0b ad 1a 3e fe 91 04 3c d8 16 a8 3d
       -0.0016999859 0.15105073 0.008091448 0.08207482
000310 f1 62 ad 3d 29 7f 97 3d 68 6e 1e 3e 41 02 97 b8
       0.08466137 0.07397301 0.15471804 -7.200661e-05
000320 d7 00 b5 3d 80 e5 9e ba a3 43 61 3d c4 84 7e 3e
       0.08838051 -0.001212284 0.054996144 0.24855334
000330 b9 62 13 3e c8 87 ca 3d 9d a4 a8 3d 77 51 3b 3d
       0.14393128 0.098891795 0.082345225 0.045731988
000340 e6 f2 7d 3e d9 58 88 3d 48 ba f6 3c 48 fb 45 3e
       0.2479969 0.06657571 0.030118123 0.19334137
000350 c3 ab 1d 3e 7d d7 c9 bc cb eb 8e 3e 57 3b 3d 3d
       0.15397553 -0.024638886 0.2791427 0.04619917
000360 67 5f ac 3d aa f0 99 3d bb f4 22 3d 83 73 ba 3d
       0.08416634 0.07516606 0.039784174 0.09104063
000370 61 1f 12 3d 42 1e 60 3d 3e 6b 4e 3d ac 1f 4e b9
       0.035674457 0.054716356 0.050395243 -0.0001965749
000380 52 6b d1 3d 07 d4 8e 3d 63 83 03 3e bd 43 9f 3d
       0.10225548 0.06974035 0.12843089 0.07776592
000390 83 14 5b 3e ba ef f9 3d 3a b7 0b 3d b9 a2 fb 3d
       0.21394543 0.12203927 0.034110285 0.12286896
0003a0 7b a8 ca 3d c4 3c a2 3d b8 87 9a 3d 90 0c c7 3d
       0.09895416 0.079217464 0.075454175 0.09719193
0003b0 10 cb 12 3e fb 0d 90 3d a4 88 a0 3d 2d c0 b0 3d
       0.14335275 0.070339166 0.07838562 0.086304046
0003c0 57 40 96 3d 0f f3 a2 bd c1 82 9b 3c 28 47 1a 3e
       0.073364906 -0.07956516 0.018983247 0.15066206
0003d0 2c 9a 15 3e d6 f8 e0 3d 5d 28 37 3e dd b4 16 3e
       0.14609593 0.10984962 0.17886491 0.14717431
0003e0 60 22 31 3e 5e 0d 59 3d d7 16 ab 3d 7c fe 39 3d
       0.1729827 0.052991264 0.08353966 0.04540871
0003f0 68 56 5e 3e b0 fa 3e 3e 0b 7c 03 3e f8 f7 96 3d
       0.21712649 0.18650317 0.12840287 0.07371515

critic.seq_model.model.bias_hh_l0 f4 [256]
000000 22 80 08 3c 52 ac b3 3d 6f 4d 0d bd 76 9e 1b 3d
       0.0083313305 0.08773102 -0.034497675 0.037992917
000010 ea 2b cc 3a 26 a7 d3 3c fd ab de 3d 8e 27 f5 bc
       0.0015577052 0.025836539 0.10872648 -0.029926088
000020 f1 6f 60 3d 27 dd ab bb 97 96 27 bd aa 15 98 3e
       0.054794256 -0.0052448693 -0.040915098 0.29704028
000030 ab b8 4a 3c c4 90 86 3d 5b 2e 1d 3d 7b 02 01 bd
       0.01237313 0.065705806 0.038374286 -0.031496506
000040 43 5b c6 3d b6 3d 16 3d e3 99 00 bd 6a ba b2 3d
       0.096853755 0.036679946 -0.031396758 0.08726962
000050 f5 10 8c 3c e4 15 db 3c 6d 92 8d 3e a1 f9 75 3d
       0.01709793 0.026743837 0.27650777 0.060052518
000060 bb c2 0a 3d 10 0b 1e 3c 74 c7 a2 3c 68 23 c3 3d
       0.033877116 0.009646192 0.019870497 0.095282376
000070 61 3c 91 3a 17 9c 90 bd ef 80 29 3e ae d6 fe bb
       0.0011080616 -0.07061022 0.1655309 -0.0077770567
000080 1e 22 02 3d a2 83 cc bc 43 63 cc bd 36 aa 81 3d
       0.031770818 -0.024965111 -0.0997987 0.06331293
000090 db 21 33 3e 19 a2 1a 3e 42 e4 c1 3d dd 67 d4 3d
       0.17493384 0.15100898 0.09467365 0.10371373
0000a0 dd a8 a7 3d 6f d7 c7 3d 4a 6c 6f 3d 65 6c 68 3d
       0.08186505 0.097578876 0.058452882 0.056743998
0000b0 9f bd b8 3d d6 0c 75 3d 20 3f ac 3d be 03 ad 3d
       0.09020542 0.059826694 0.08410478 0.084479794
0000c0 62 4d 33 3d 72 ab f6 bc 43 44 99 bd 86 fb 51 3d
       0.04377497 -0.030111048 -0.07483723 0.051265262
0000d0 b4 0a 8b 3d 50 fe d5 3d cf a6 4b 3e 23 57 3d 3d
       0.06789151 0.10448897 0.19887851 0.04622568
0000e0 ca d3 0a 3e a1 40 0f 3c 69 78 51 3c 12 ad 86 bd
       0.13557354 0.008743436 0.012785056 -0.06575979
0000f0 2c 3d 08 3e 12 19 88 bd e2 fe 17 bc 34 a2 a4 3c
       0.13304585 -0.06645407 -0.009277077 0.020096876
000100 9f bc 3b 3d 9c a9 ae 3c 7f 94 4a 3d c3 48 05 3e
       0.04583418 0.02132111 0.049458023 0.13016038
000110 c0 02 3e 3d 33 13 7c 3d bf 40 18 bd c9 b3 70 bd
       0.04638934 0.061541747 -0.03717112 -0.058765206
000120 25 ec 8c 3d a3 f9 6d 3d f1 a6 f7 3d 23 96 a3 3d
       0.068809785 0.0580994 0.120923884 0.07987621
000130 58 fd 5a 3d 0b fb 13 3d e7 d9 48 3d 6e 8d 4f 3d
       0.053464264 0.036128085 0.049035933 0.050671987
000140 99 60 0d 3e 1f 49 8c 3d d8 4c dc bc 71 97 b9 3d
       0.1380638 0.06849884 -0.02689211 0.09062088
000150 7b a1 89 3b b4 66 8e bc 6c 48 88 3d c5 c4 a4 3d
       0.004200158 -0.017382957 0.066544384 0.08045343
000160 43 e6 97 3d 31 30 c7 3d 68 50 87 bc 41 5d c5 bc
       0.07416966 0.09725989 -0.016517833 -0.024092318
000170 35 d2 25 3d 81 cd 14 3d c3 f1 a5 3d 6a 44 62 3d
       0.040483672 0.036328796 0.08102753 0.055241026
000180 31 74 d3 39 6f 9e 1d 3d eb ac 87 3e 8c 91 24 3d
       0.00040331625 0.038481172 0.26499113 0.040177867
000190 41 cf 32 3d 31 b6 4c 3d cd ba 16 be 8b 4a a1 3d
       0.043654684 0.04997844 -0.14719696 0.07875546
0001a0 8d a8 f6 bb 7f 6d eb 3d a1 3b 83 3d 6e 4b a8 3d
       -0.007527417 0.11495494 0.06407858 0.08217512
0001b0 24 02 18 3e 9b 31 9d 3c 66 3f 97 3d ac b7 91 3d
       0.14844567 0.019188693 0.07385139 0.07115111
0001c0 4f cf 28 bc aa 9d 5b bd 23 c9 e6 3c b5 b0 98 3d
       -0.0103033325 -0.053617157 0.028172081 0.07455579
0001d0 bd 79 d0 3d d2 33 89 3d 34 66 72 3d 34 5d 5b 3c
       0.1017947 0.06699337 0.0591795 0.013388921
0001e0 49 4f 88 3c 4a 1c d2 bc 3d 74 4a 3c bf e5 88 bb
       0.016639369 -0.025648255 0.012356815 -0.0041777785
0001f0 f9 73 33 bd dc 04 3f 3e a3 85 9e 3d 62 8c 92 bb
       -0.043811772 0.18654197 0.07740333 -0.0044723013
000200 74 02 d4 3c b2 0d 59 bd b5 af cd bc fa e0 04 3d
       0.025880076 -0.052991576 -0.025108198 0.032441117
000210 da 47 08 3d 41 f5 37 bc ad 76 41 bd de 1c 10 bd
       0.033271648 -0.011227907 -0.04723232 -0.03518378
000220 e5 1b 8b bc 9d 15 f5 bc a5 7a 4a 3c fa 8e 98 bd
       -0.016981075 -0.029917533 0.012358342 -0.074491456
000230 e1 d0 c6 bc 65 47 d3 bc 24 aa 0b bd d7 30 5d bc
       -0.024269523 -0.02579088 -0.034097806 -0.013500414
000240 1a a4 84 3a cc 3c 34 3d d9 6b 36 3d 37 f4 8a bd
       0.0010119707 0.044003293 0.044536445 -0.067848615
000250 a1 39 2b 3c 9a 22 10 bd 45 f7 a3 3d 00 fe de bc
       0.0104507515 -0.03518925 0.08006147 -0.027220726
000260 d0 fa c4 3c 92 9e 90 bc 2a 2d 23 bd e5 c5 5c bd
       0.024045378 -0.017653737 -0.039837994 -0.053899664
000270 cc 07 d1 3b fc 0c c0 3c 77 01 3f bc 69 22 2d 3d
       0.0063791033 0.023443691 -0.011658064 0.042269144
000280 1f 34 94 ba 25 9a 46 3d 21 8d ee b9 bf 7a 44 ba
       -0.0011307037 0.048486847 -0.00045500047 -0.0007495097
000290 9c 04 42 3c 76 2d 3b bb 89 45 0d bd b8 c2 cc bc
       0.011841919 -0.0028561032 -0.034490142 -0.024995193
0002a0 64 e6 7a bc 5a a4 6c bb a3 fb e4 3b 31 e5 de 3b
       -0.0153137185 -0.0036108703 0.0069880052 0.006802224
0002b0 a2 3e 5d bd 8e 1b 85 3d 70 2e 1b bc ba 7f 54 3d
       -0.05401481 0.06499396 -0.009471521 0.051879622
0002c0 a9 44 f0 bc 6f 90 b1 3d 1c fc 86 bb 6c 11 55 bc
       -0.029329615 0.08670127 -0.0041194092 -0.013004642
0002d0 c7 b6 2f bb 77 c2 2c bd 23 f4 24 3d 4e 20 19 bd
       -0.0026811825 -0.042177644 0.04027189 -0.037384324
0002e0 f7 31 c7 bc c2 de e7 3d 8e 9f 7d 3c 42 60 0d 3b
       -0.024315817 0.113217846 0.015479935 0.0021572267
0002f0 d6 3d 4b 3c 76 c3 6b 3d 09 dd 3d 3c 81 31 02 bd
       0.01240488 0.057559453 0.011588343 -0.03178549
000300 10 d2 de ba 0b ad 1a 3e fe 91 04 3c d8 16 a8 3d
       -0.0016999859 0.15105073 0.008091448 0.08207482
000310 f1 62 ad 3d 29 7f 97 3d 68 6e 1e 3e 41 02 97 b8
       0.08466137 0.07397301 0.15471804 -7.200661e-05
000320 d7 00 b5 3d 80 e5 9e ba a3 43 61 3d c4 84 7e 3e
       0.08838051 -0.001212284 0.054996144 0.24855334
000330 b9 62 13 3e c8 87 ca 3d 9d a4 a8 3d 77 51 3b 3d
       0.14393128 0.098891795 0.082345225 0.045731988
000340 e6 f2 7d 3e d9 58 88 3d 48 ba f6 3c 48 fb 45 3e
       0.2479969 0.06657571 0.030118123 0.19334137
000350 c3 ab 1d 3e 7d d7 c9 bc cb eb 8e 3e 57 3b 3d 3d
       0.15397553 -0.024638886 0.2791427 0.04619917
000360 67 5f ac 3d aa f0 99 3d bb f4 22 3d 83 73 ba 3d
       0.08416634 0.07516606 0.039784174 0.09104063
000370 61 1f 12 3d 42 1e 60 3d 3e 6b 4e 3d ac 1f 4e b9
       0.035674457 0.054716356 0.050395243 -0.0001965749
000380 52 6b d1 3d 07 d4 8e 3d 63 83 03 3e bd 43 9f 3d
       0.10225548 0.06974035 0.12843089 0.07776592
000390 83 14 5b 3e ba ef f9 3d 3a b7 0b 3d b9 a2 fb 3d
       0.21394543 0.12203927 0.034110285 0.12286896
0003a0 7b a8 ca 3d c4 3c a2 3d b8 87 9a 3d 90 0c c7 3d
       0.09895416 0.079217464 0.075454175 0.09719193
0003b0 10 cb 12 3e fb 0d 90 3d a4 88 a0 3d 2d c0 b0 3d
       0.14335275 0.070339166 0.07838562 0.086304046
0003c0 57 40 96 3d 0f f3 a2 bd c1 82 9b 3c 28 47 1a 3e
       0.073364906 -0.07956516 0.018983247 0.15066206
0003d0 2c 9a 15 3e d6 f8 e0 3d 5d 28 37 3e dd b4 16 3e
       0.14609593 0.10984962 0.17886491 0.14717431
0003e0 60 22 31 3e 5e 0d 59 3d d7 16 ab 3d 7c fe 39 3d
       0.1729827 0.052991264 0.08353966 0.04540871
0003f0 68 56 5e 3e b0 fa 3e 3e 0b 7c 03 3e f8 f7 96 3d
       0.21712649 0.18650317 0.12840287 0.07371515
