logs/mini-cage/100/mlp/2025-04-27-11:19:34/seed-1/save/agent_002500_perf-206.283.pt (torch, 801810 bytes, 12 tensors)

qf1.fc0.weight f4 [256, 78]
-0.026254736 0.035720803 0.05425531 0.031066 0.0014582173 0.01635231 -0.014809156 -0.05220872
-0.05681472 0.04044455 -0.023387564 -0.050730616 0.00786466 -0.007291526 0.032733683 -0.028438961
-0.05744867 -0.02369412 0.026982415 0.04867652 -0.042872585 -0.04950528 0.03975137 -0.042332612
0.016494319 -0.023827232 -0.003369763 0.0005864203 -0.05039203 -0.021200465 0.016303487 0.031053776
-0.017683478 -0.057403788 -0.02514019 0.030365186 -0.01008221 0.045430515 -0.050521575 -0.037912715
0.017905008 -0.03243976 -0.012168573 -0.0013376772 -0.017411077 -0.022133954 0.01470558 0.003050372
0.046643354 0.056313008 -0.00403815 0.009537838 -0.0060415044 0.007046138 -0.046264824 -0.025557248
-0.014276363 0.037415832 0.021313414 -0.026372485 0.0430739 -0.017514 0.016603393 -0.0066185957
-0.0055824155 0.05007395 0.09217193 0.027106604 0.09339278 -0.031286463 -0.034693718 -0.054100968
0.04091392 0.04743813 0.073687896 -0.01796922 0.102850944 0.034696303 0.028057687 -0.056573763
0.019998543 0.052442126 0.046416976 0.04904215 0.029450241 -0.021909952 -0.051312596 -0.01412281
0.0499636 -0.03686663 -0.005408149 0.020814708 -0.026459781 -0.048770636 0.0110235065 0.059510395
0.023582987 0.008764826 0.03568367 -0.037635274 0.050800983 -0.0541875 -0.055503108 -0.008276939
-0.0087434985 0.053179108 0.007308102 0.044011056 0.051477056 -0.02327312 0.044622246 0.047064073
-0.04801636 -0.0041401763 -0.00665803 -0.043155357 0.027933042 0.06535832 0.009786699 0.05651463
0.045965742 0.016761504 -0.04551082 -0.059439763 0.02710252 -0.00082912296 -0.03227526 -0.032508403
0.08773895 -0.010740742 -0.015250176 0.013394808 -0.008427218 0.054657903 0.020083517 0.058993675
0.05263023 -0.009422586 -0.06302751 0.052298952 -0.025539346 -0.034247547 0.053691007 0.07038579
0.05160106 0.10409694 0.08700426 -0.04409489 0.052211754 -0.051679604 0.0118356785 0.00074584037
-0.030671753 0.016084028 0.07739158 0.093900025 -0.050237805 0.038571477 0.05882002 -0.026245952
0.061958242 -0.013263918 0.03947604 0.005958587 0.027629483 0.015507447 -0.025295816 0.02058836
-0.0598695 -0.040218543 -0.017604958 0.063263535 -0.04852566 -0.047277413 0.025137546 -0.037699535
-0.060616955 -0.03118129 0.062946424 -0.06219007 0.026586711 0.041307047 0.060504656 0.015748255
0.01839139 0.017465437 0.003832356 0.015440694 0.027958535 0.02191569 0.05128089 0.03805652
0.02324735 -0.05243854 -0.0019186315 -0.004064269 -0.0077054272 -0.016434073 -0.019661415 0.01344955
-0.037540615 0.03796389 -0.049291346 0.011235394 0.05916596 0.03835229 0.03298585 -0.049429648
0.060813136 -0.021975579 -0.01498276 0.020138005 -0.0019230098 0.052898414 -0.040995345 0.013861109
-0.05184938 0.016320663 -0.017710282 -0.04762142 -0.030092461 0.08084219 0.06756037 0.053295538
0.08960743 -0.023554027 0.05516018 0.036216646 0.07947397 -0.062279716 -0.037785098 0.0031446943
0.105569065 0.0010655789 -0.030865207 -0.025257938 0.036435448 0.017563008 -0.012954246 -0.046383977
0.0151260365 -0.058300644 -0.015672695 -0.050624076 0.028697338 -0.04509925 0.0576695 -0.008945163
0.031530913 -0.014914068 0.056093216 -0.040985487 -0.041121628 -0.05402951 -0.00082190335 -0.024533413
00000000: 2c14 d7bc fa4f 123d d13a 5e3d 207e fe3c
00000010: a721 bf3a 48f5 853c 1aa2 72bc d0d8 55bd
00000020: 8db6 68bd 2fa9 253d 4797 bfbc e8ca 4fbd
00000030: c6da 003c c1ed eebb c113 063d d3f8 e8bc
00000040: 4c4f 6bbd 2c1a c2bc 3a0a dd3c 0861 473d
00000050: 2a9b 2fbd 0cc6 4abd 55d2 223d f664 2dbd
00000060: 181f 873c 5431 c3bc 3ed7 5cbb 00ba 193a
00000070: e067 4ebd 99ac adbc e48e 853c 7d64 fe3c
00000080: f1dc 90bc 3c20 6bbd cdf2 cdbc 69c0 f83c
00000090: db2f 25bc 5915 3a3d b6ef 4ebd 5d4a 1bbd
000000a0: 86ad 923c 8edf 04bd b25e 47bc 0055 afba
000000b0: ada1 8ebc 4452 b5bc acef 703c c0e8 473b
000000c0: 1a0d 3f3d 78a8 663d 7552 84bb 9844 1c3c
000000d0: d0f7 c5bb 4ae3 e63b 2f80 3dbd 6f5d d1bc
000000e0: 68e7 69bc 5841 193d 7899 ae3c 1c0b d8bc
000000f0: 426e 303d 8579 8fbc d703 883c cee0 d8bb
00000100: b2ec b6bb 581a 4d3d a3c4 bc3d ab0e de3c
00000110: b744 bf3d 3c26 00bd 001b 0ebd fa98 5dbd
00000120: 5b95 273d 7c4e 423d aee9 963d 3034 93bc
00000130: 84a3 d23d b61d 0e3d 3cd9 e53c e4b9 67bd
00000140: fcd3 a33c 8ecd 563d ba1f 3e3d 6ce0 483d
00000150: a241 f13c 807c b3bc 282d 52bd 5c63 67bc
00000160: a2a6 4c3d 7701 17bd d836 b1bb 9b83 aa3c
00000170: 2fc2 d8bc b8c3 47bd f09b 343c 2cc1 733d
00000180: 1c31 c13c 589a 0f3c 0a29 123d 7227 1abd
00000190: b114 503d b6f3 5dbd 3a57 63bd 009c 07bc
000001a0: e440 0fbc 56d2 593d ce78 ef3b f044 343d
000001b0: 9bd9 523d 45a7 bebc d1c5 363d 42c6 403d
000001c0: cdac 44bd 51aa 87bb 9b2b dabb acc3 30bd
000001d0: d6d3 e43c 95da 853d 6458 203c e27b 673d
000001e0: 9346 3c3d 6c4f 893c 8e69 3abd 1c77 73bd
000001f0: 1b06 de3c 8059 59ba 1033 04bd 8827 05bd
00000200: 7bb0 b33d f0f9 2fbc e0db 79bc e675 5b3c
00000210: 5012 0abc f7e0 5f3d 3086 a43c 5aa3 713d
00000220: cc92 573d 3161 1abc 9114 81bd 6d37 563d
00000230: e437 d1bc 2847 0cbd 1aeb 5b3d 6d26 903d
00000240: a25b 533d c730 d53d 4a2f b23d d89c 34bd
00000250: fedb 553d fead 53bd 6fea 413c 8084 433a
00000260: 5443 fbbc a7c2 833c 7a7f 9e3d a84e c03d
00000270: 28c6 4dbd 20fd 1d3d 43ed 703d c001 d7bc
00000280: edc7 7d3d e850 59bc a1b1 213d 4040 c33b
00000290: 3a57 e23c f212 7e3c 2c39 cfbc eca8 a83c
000002a0: b939 75bd 33bc 24bd 4638 90bc 5090 813d
000002b0: d8c2 46bd f6a5 41bd 41ed cd3c d46a 1abd
000002c0: 7c49 78bd e86f ffbc 0eea 803d 04bb 7ebd
000002d0: 60cc d93c 9431 293d bbd3 773d 7c02 813c
000002e0: 8aa9 963c ad13 8f3c 4428 7b3b f7fa 7c3c
000002f0: 4c09 e53c 8888 b33c e90b 523d 27e1 1b3d
00000300: 3a71 be3c cbc9 56bd 977a fbba 8f2d 85bb
00000310: cf7d fcbb c0a0 86bc fa10 a1bc 805b 5c3c
00000320: 30c4 19bd 0680 1b3d b9e5 49bd a814 383c
00000330: 0158 723d 4a17 1d3d 2c1c 073d be76 4abd
00000340: 3217 793d 2106 b4bc 407a 75bc 75f8 a43c
00000350: 800d fcba 02ac 583d bcea 27bd b419 633c
00000360: 0460 54bd e9b2 853c 2715 91bc ae0e 43bd
00000370: 7784 f6bc 9790 a53d 175d 8a3d 6c4c 5a3d
00000380: 1a84 b73d 60f4 c0bc a4ef 613d e857 143d
00000390: 40c3 a23d 0419 7fbd 8cc4 1abd 3717 4e3b
000003a0: 9834 d83d e5aa 8b3a 08d9 fcbc bce9 cebc
000003b0: 563d 153d 4ce0 8f3c 0c3e 54bc 20fd 3dbd
000003c0: 32d3 773c a8cc 6ebd 0664 80bc 315b 4fbd
000003d0: ae16 eb3c feb9 38bd db36 6c3d bc8e 12bc
000003e0: 8f26 013d 235a 74bc 00c2 653d 66e0 27bd
000003f0: 276f 28bd 0c4e 5dbd 0075 57ba 4cfa c8bc

qf1.fc0.bias f4 [256]
0.22223629 0.2197816 0.22396545 0.21785179 0.099206135 0.2164752 0.07552354 0.21967652
0.21698332 0.21691279 0.21585985 0.23287882 0.22022681 0.22242461 0.21817394 0.23497428
0.21751049 0.22299314 0.22010194 0.21813917 0.1 0.21973611 0.21981399 0.21945015
0.22658902 0.20890073 0.21994735 0.21673986 0.219415 0.21872787 0.21530661 0.21712388
0.21432987 0.21534519 0.09254979 0.21922353 0.22250219 0.2345373 0.22094496 0.2192174
0.22005051 0.22065338 0.2224769 0.22252545 0.21609008 0.21312088 0.21567836 0.2132812
0.21362986 0.21839023 0.21684074 0.21879762 0.22465296 0.21903706 0.21491744 0.21856762
0.21938889 0.21585634 0.22044078 0.21747693 0.1 0.21531683 0.22792688 0.21910734
0.21499708 0.21800952 0.22782801 0.221249 0.21783306 0.21873602 0.1 0.09682546
0.21696259 0.21487696 0.22254008 0.21803468 0.084601484 0.21408594 0.22234553 0.21579197
0.21763408 0.1845648 0.2201539 0.21754043 0.22621953 0.2219164 0.21673718 0.22161219
0.23278905 0.096823774 0.2188136 0.21898283 0.2197641 0.21219745 0.21854559 0.22046974
0.096841924 0.22261022 0.22100478 0.21776362 0.21900085 0.21720101 0.22085612 0.21848184
0.2181536 0.22495042 0.21730803 0.2200892 0.21228154 0.21986859 0.096823685 0.22333132
0.21418023 0.22472423 0.21918745 0.1 0.22004731 0.221078 0.22159508 0.2215309
0.22042355 0.21391466 0.2181163 0.21706739 0.21641427 0.1 0.22354864 0.23674306
0.12131195 0.21989456 0.22030357 0.21938701 0.21607709 0.21744539 0.22330467 0.22108728
0.22544837 0.22634059 0.21082598 0.21981187 0.21214172 0.2249853 0.22481027 0.22354208
0.22257906 0.22254375 0.21867481 0.21706614 0.22015975 0.21958259 0.22490484 0.2163294
0.21861236 0.21436681 0.22219956 0.1 0.21513881 0.21612166 0.21756901 0.21691857
0.21821746 0.21526171 0.21865086 0.21741231 0.21513818 0.21252672 0.21824795 0.21540079
0.2218518 0.23124927 0.21274507 0.21946922 0.22266352 0.21430355 0.21540968 0.21068175
0.22126459 0.22100371 0.2261417 0.23096552 0.21615623 0.21843061 0.22114412 0.21815397
0.21823587 0.22264597 0.2209116 0.21946253 0.22060199 0.21971902 0.22610159 0.2172868
0.21769728 0.226296 0.21893436 0.2117124 0.22126594 0.2115896 0.2208529 0.21186641
0.21537076 0.21990544 0.22565392 0.21907982 0.21844439 0.22412837 0.22175415 0.2201435
0.21960151 0.21780881 0.22287364 0.22110432 0.18080014 0.22067139 0.21397455 0.21265827
0.22711767 0.21902797 0.2218999 0.21930891 0.21682057 0.2195978 0.22030176 0.21823575
0.22321744 0.21892056 0.21771264 0.2165662 0.23002046 0.22037224 0.21875066 0.21703424
0.21917786 0.47701684 0.21628253 0.21670543 0.21992084 0.21382533 0.2222687 0.22379443
0.21970186 0.22132331 0.22123498 0.22057372 0.2211622 0.21893485 0.21554875 0.22012037
0.2188955 0.21866594 0.12950408 0.1 0.217274 0.22053523 0.22061722 0.21513432
00000000: e991 633e 6e0e 613e 3357 653e 8a14 5f3e
00000010: 962c cb3d adab 5d3e 16ac 9a3d e2f2 603e
00000020: e030 5e3e 631e 5e3e 5d0a 5d3e c977 6e3e
00000030: 2383 613e 47c3 633e fd68 5f3e 199d 703e
00000040: 12bb 5e3e 5058 643e 6762 613e e05f 5f3e
00000050: cdcc cc3d 8102 613e eb16 613e 8ab7 603e
00000060: f406 683e 13ea 553e e139 613e 0ef1 5d3e
00000070: 53ae 603e 33fa 5f3e 5679 5c3e b955 5e3e
00000080: 4a79 5b3e 7383 5c3e bf8a bd3d 227c 603e
00000090: 9dd7 633e 8c2a 703e 653f 623e 877a 603e
000000a0: ec54 613e f6f2 613e fcd0 633e b6dd 633e
000000b0: b846 5d3e 5c3c 5a3e cada 5c3e 6366 5a3e
000000c0: c9c1 5a3e b0a1 5f3e 800b 5e3e 7c0c 603e
000000d0: 6d0b 663e 404b 603e 5113 5c3e 31d0 5f3e
000000e0: 7ba7 603e 7209 5d3e 3abb 613e 46b2 5e3e
000000f0: cdcc cc3d 047c 5c3e aa65 693e ad5d 603e
00000100: 3228 5c3e e33d 5f3e bf4b 693e 198f 623e
00000110: a10f 5f3e 56fc 5f3e cdcc cc3d 6d4c c63d
00000120: 712b 5e3e b508 5c3e 8ce1 633e 7c44 5f3e
00000130: 8b43 ad3d 5839 5b3e 8cae 633e 92f8 5c3e
00000140: 78db 5e3e 8efe 3c3e 0670 613e ebc2 5e3e
00000150: 18a6 673e 0e3e 633e 5af0 5d3e 4eee 623e
00000160: 4160 6e3e 8b4b c63d ac10 603e 093d 603e
00000170: d709 613e 4a4a 593e 6aca 5f3e d2c2 613e
00000180: 0f55 c63d eff3 633e 144f 623e 6dfd 5e3e
00000190: c241 603e f169 5e3e 1b28 623e b4b9 5f3e
000001a0: a863 5f3e 6759 663e ff85 5e3e 105f 613e
000001b0: 5560 593e 3b25 613e 7f4b c63d f7b0 643e
000001c0: 1052 5b3e 1c1e 663e ad72 603e cdcc cc3d
000001d0: 1554 613e 4562 623e d2e9 623e ffd8 623e
000001e0: b6b6 613e 720c 5b3e e159 5f3e ea46 5e3e
000001f0: b49b 5d3e cdcc cc3d efe9 643e c66c 723e
00000200: 6672 f83d 0a2c 613e 4297 613e fda6 603e
00000210: 5043 5d3e 01aa 5e3e fba9 643e b464 623e
00000220: f0db 663e d4c5 673e c4e2 573e 5d16 613e
00000230: ae3b 593e 8c62 663e aa34 663e 37e8 643e
00000240: c4eb 633e 82e2 633e 4aec 5f3e 9646 5e3e
00000250: 8f71 613e 42da 603e 744d 663e 7485 5d3e
00000260: ebdb 5f3e f982 5b3e 4888 633e cdcc cc3d
00000270: 594d 5c3e ff4e 5d3e 69ca 5e3e e71f 5e3e
00000280: 6674 5f3e 916d 5c3e 03e6 5f3e 55a1 5e3e
00000290: 2f4d 5c3e 9ba0 593e 647c 5f3e 0692 5c3e
000002a0: 1e2d 633e 9ccc 6c3e d8d9 593e 8abc 603e
000002b0: e801 643e 6472 5b3e 5b94 5c3e f5bc 573e
000002c0: 2f93 623e cc4e 623e b191 673e 3a82 6c3e
000002d0: 0f58 5d3e 46ac 5f3e 9b73 623e c163 5f3e
000002e0: 3979 5f3e 4efd 633e a736 623e c9ba 603e
000002f0: 7de5 613e 06fe 603e 2d87 673e 6e80 5e3e
00000300: 09ec 5e3e 23ba 673e 5430 603e 23cb 583e
00000310: 8a93 623e f2aa 583e 4327 623e 82f3 583e
00000320: 278a 5c3e e42e 613e d211 673e 7656 603e
00000330: e3af 5f3e e881 653e 8513 633e 4c6d 613e
00000340: 38df 603e 4609 5f3e fd38 643e 2c69 623e
00000350: ac23 393e aef7 613e 251c 5b3e 17c3 593e
00000360: 8991 683e de48 603e ba39 633e 8492 603e
00000370: 3606 5e3e 3fde 603e c996 613e 3179 5f3e
00000380: 1d93 643e b62c 603e 10f0 5e3e 88c3 5d3e
00000390: 7c8a 6b3e 43a9 613e 2c00 603e 393e 5e3e
000003a0: 2970 603e 8d3b f43e 2b79 5d3e 07e8 5d3e
000003b0: ee32 613e 07f5 5a3e 689a 633e 5e2a 653e
000003c0: 86f9 603e 94a2 623e 6c8b 623e 14de 613e
000003d0: 5878 623e 7530 603e d0b8 5c3e 3c67 613e
000003e0: 2426 603e f7e9 5f3e b89c 043e cdcc cc3d
000003f0: 137d 5e3e fdd3 613e 7be9 613e 2c4c 5c3e

qf1.fc1.weight f4 [256, 256]
0.021281196 -0.0017056933 0.014207744 0.04961269 -0.0007138118 0.08025456 -0.27992982 -0.008582497
0.019689463 -0.026526822 0.072979115 0.11366013 0.10575039 -0.017833035 -0.026098633 0.11692881
-0.024228556 0.10294464 0.015007471 0.04516801 -0.03565929 0.06354172 0.08471268 0.054184664
0.05683014 0.030518249 0.0014721886 0.09812837 0.060504925 -0.011390183 -0.017742189 0.020041378
-0.002633416 -0.025609221 0.069798365 0.016384669 0.08996322 0.07788436 0.019790197 -0.01654457
-0.017894298 0.098597445 0.08381347 0.10230876 0.09638258 0.04406165 -0.01726734 0.025860367
0.076570205 0.050042305 0.08622583 0.059956364 0.047980394 0.040778194 0.09345889 -0.013902922
0.046508685 -0.010499105 0.085186616 0.0545657 -0.03872455 0.0836973 0.07724029 -0.012565904
0.07798534 0.01272581 0.079682596 0.09796715 0.05399775 0.015032355 -0.05662681 0.039833453
0.0007665424 0.06399907 0.10122911 0.053415027 -0.021842068 0.0044957804 0.081062205 0.06823782
0.0034911106 0.3325623 -0.0107471505 0.051108003 0.089013375 0.051931635 0.03059922 0.019305537
-0.0107000135 -0.033522412 0.04375922 0.06989303 0.04705239 0.05939809 -0.009478633 0.01040126
-0.05223244 0.07537556 0.04280745 0.010927588 0.024088392 0.005095345 0.088622734 0.046261694
0.10393854 0.04750862 0.003110655 -0.004716914 -0.006266378 0.06801734 0.020903992 0.002448543
-0.003644101 0.04666782 0.1017419 0.01636105 0.033864982 0.0824822 0.049339138 0.0364677
0.091918655 0.022323413 -0.01118289 0.03660325 0.046898115 0.05089321 0.07786211 0.05961673
0.16008942 0.04439113 0.08223349 0.025510695 0.02082455 0.04957852 -0.005584463 0.012100774
0.019980054 0.036449376 0.7049597 0.027304968 0.07315034 0.09655031 0.07787179 0.029977852
0.0014081658 0.078966916 0.0025857387 0.011145047 0.08709497 0.07958662 0.0023048457 0.049158838
0.09799873 0.02060201 0.028828217 -0.053613514 0.06885294 0.024466958 0.07949156 0.008614613
-0.003238657 0.00018257443 0.04593727 0.016599484 0.094327234 0.017099477 0.03688766 -0.034428786
0.046482764 0.027490398 0.075909704 0.008346097 0.046350975 0.077178165 0.049014177 0.07255639
-0.008205322 0.08603558 0.0961653 0.06702486 0.029929236 0.061884332 0.08273341 0.065068685
-0.01466515 -0.015138522 0.047900934 0.020746315 -0.019401316 0.03032303 0.068787076 -0.015955072
0.08346102 0.054974116 0.044145007 0.04143897 0.012624683 0.0006904749 0.023274615 0.06577906
0.076448314 0.084885456 0.06578095 0.010910087 0.07302224 0.07971031 0.030850159 0.073196284
-0.016356172 0.042123053 0.08113619 0.06996821 0.27863398 0.07227646 -0.022137722 0.027042788
0.015130266 0.091669634 0.006268308 0.06504113 0.069680616 0.048527054 0.09575438 -0.017011603
0.10411078 0.06671227 0.05256643 0.07632899 0.051831845 0.07405813 0.07508354 0.0038614536
0.015963517 1.9529325 0.09459793 0.047815215 0.04193721 0.016647704 0.022911252 0.07468142
0.03453636 0.01602491 0.012451158 0.09356094 0.09137344 0.063275054 0.08781577 -0.017871901
0.053672895 0.06419248 0.04871103 0.041689403 0.08511565 0.05261534 0.043628264 -0.015054903
00000000: e755 ae3c 9291 dfba 99c7 683c ad36 4b3d
00000010: 191f 3bba 815c a43d f652 8fbe 9a9d 0cbc
00000020: cc4b a13c c74e d9bc 1376 953d a4c6 e83d
00000030: a993 d83d 9616 92bc cdcc d5bc 5f78 ef3d
00000040: f77a c6bc a4d4 d23d e5e1 753c 1702 393d
00000050: 7a0f 12bd 2922 823d d77d ad3d bdf0 5d3d
00000060: b9c6 683d 6801 fa3c 74f6 c03a 87f7 c83d
00000070: 03d4 773d e49d 3abc 1158 91bc d12d a43c
00000080: 6495 2cbb 6eca d1bc 72f2 8e3d 2439 863c
00000090: a33e b83d d681 9f3d 0d1f a23c 7a88 87bc
000000a0: 1097 92bc 75ed c93d 66a6 ab3d 4187 d13d
000000b0: 3b64 c53d fd79 343d 3d74 8dbc 1fd9 d33c
000000c0: d7d0 9c3d 29f9 4c3d 2b97 b03d ce94 753d
000000d0: 1787 443d 0907 273d 6067 bf3d 15c9 63bc
000000e0: e47f 3e3d 7004 2cbc 5276 ae3d 4980 5f3d
000000f0: a29d 1ebd 7d69 ab3d 2830 9e3d 39e1 4dbc
00000100: c7b6 9f3d ea7f 503c a130 a33d 00a3 c83d
00000110: bf2c 5d3d 444a 763c 84f1 67bd 6728 233d
00000120: caf1 483a f211 833d 3551 cf3d b7c9 5a3d
00000130: 23ee b2bc 5751 933b f103 a63d 45c0 8b3d
00000140: 1ecb 643b 9b45 aa3e d114 30bc a056 513d
00000150: a54c b63d 44b6 543d 37ab fa3c a526 9e3c
00000160: 1c4f 2fbc cc4e 09bd de3c 333d 1424 8f3d
00000170: 02ba 403d 694b 733d 454c 1bbc 0c6a 2a3c
00000180: aff1 55bd 805e 9a3d dd56 2f3d a009 333c
00000190: 0555 c53c daf6 a63b d67f b53d e77c 3d3d
000001a0: bbdd d43d 6698 423d 21dc 4b3b 5890 9abb
000001b0: 3056 cdbb ad4c 8b3d d93e ab3c bc77 203b
000001c0: dfd1 6ebb c226 3f3d 0f5e d03d 9c07 863c
000001d0: 02b6 0a3d 6dec a83d d617 4a3d 285f 153d
000001e0: d93f bc3d 97df b63c 7138 37bc 4aed 153d
000001f0: 3d18 403d 6675 503d 2c76 9f3d ac30 743d
00000200: 7bee 233e 79d3 353d 086a a83d cefb d03c
00000210: 3f98 aa3c d912 4b3d dffd b6bb 5342 463c
00000220: 36ad a33c f14b 153d 3d78 343f abae df3c
00000230: d8cf 953d 2bbc c53d 3f7b 9f3d 1d94 f53c
00000240: 3492 b83a 68b9 a13d 7f75 293b b799 363c
00000250: d95e b23d 4ffe a23d e50c 173b c75a 493d
00000260: 8fb3 c83d 8cc5 a83c 2729 ec3c d899 5bbd
00000270: c502 8d3d ee6e c83c 79cc a23d 4e24 0d3c
00000280: a63f 54bb 7371 3f39 b828 3c3d a4fb 873c
00000290: a32e c13d 3414 8c3c 8417 173d 3305 0dbd
000002a0: b664 3e3d 8b33 e13c 8c76 9b3d 11be 083c
000002b0: 85da 3d3d 960f 9e3d 17c3 483d 7298 943d
000002c0: 9d6f 06bc 6c33 b03d 50f2 c43d 5444 893d
000002d0: 282e f53c 6d7a 7d3d 2270 a93d bb42 853d
000002e0: 1946 70bc 9007 78bc c533 443d 2df4 a93c
000002f0: 82ef 9ebc 0168 f83c 3de0 8c3d 36b4 82bc
00000300: 9ced aa3d 8a2c 613d 65d1 343d e9bb 293d
00000310: c2d7 4e3c fc00 353a 68aa be3c 2cb7 863d
00000320: ef90 9c3d 6dd8 ad3d 2ab8 863d 39c0 323c
00000330: af8c 953d 293f a33d 79b9 fc3c efe7 953d
00000340: 61fd 85bc 3989 2c3d bb2a a63d 7e4b 8f3d
00000350: 1da9 8e3e ae05 943d 2b5a b5bc d688 dd3c
00000360: efe4 773c 4abd bb3d 6166 cd3b 4934 853d
00000370: b6b4 8e3d 4ec4 463d df1a c43d eb5b 8bbc
00000380: 0838 d53d 71a0 883d e64f 573d 6052 9c3d
00000390: a14d 543d caab 973d 66c5 993d 7110 7d3b
000003a0: ecc5 823c b1f9 f93f 8fbc c13d e3d9 433d
000003b0: 5ac6 2b3d c460 883c 61b0 bb3c 93f2 983d
000003c0: 0076 0d3d ac46 833c f1ff 4b3c e19c bf3d
000003d0: 0022 bb3d 5a96 813d c1d8 b33d 1868 92bc
000003e0: 1cd8 5b3d 5977 833d 3885 473d 82c2 2a3d
000003f0: 1d51 ae3d 2f83 573d 8db3 323d d7a8 76bc

qf1.fc1.bias f4 [256]
0.22643134 0.22511107 0.22707035 0.22806373 0.22578757 0.2290724 0.1 0.22610784
0.22904126 0.23133397 0.2249196 0.2313118 0.22748367 0.22689006 0.22568457 0.22551987
0.22699831 0.22625221 0.23167507 0.22684443 0.22667003 0.22733432 0.2262301 0.22572502
0.22679886 0.22505821 0.22551364 0.22768629 0.09910259 0.1 0.22497287 0.22927196
0.23229346 0.22682698 0.2281925 0.22535816 0.22650996 0.22658464 0.22875825 0.22730955
0.22704956 0.22653773 0.22736289 0.22565563 0.22902101 0.22879551 0.22827885 0.22620413
0.22469777 0.22621787 0.23349793 0.22886279 0.22844142 0.22630405 0.22625752 0.1
0.22553891 0.09831046 0.22765002 0.22871932 0.22465426 0.22814484 0.1 0.23512517
0.23141183 0.23286508 0.22673418 0.22805987 0.2319484 0.22717789 0.23110677 0.22715619
0.098763 0.22590467 0.09958853 0.22716074 0.22705893 0.23460868 0.09951055 0.22625062
0.23151256 0.22575586 0.23807608 0.1 0.22920588 0.22728561 0.22672157 0.1
0.22674339 0.22755179 0.22403382 0.22703001 0.22546059 0.22709927 0.22551765 0.22863223
0.23128791 0.22579852 0.0993424 0.1 0.2258956 0.22770727 0.22399078 0.22549418
0.22696716 0.22406137 0.22508311 0.2264006 0.22922826 0.23153807 0.22648036 0.2300312
0.223847 0.23037848 0.22783628 0.22665606 0.22869545 0.22502935 0.22434099 0.23807986
0.22872825 0.22580734 0.22894625 0.22626421 0.22599283 0.2272009 0.23105979 0.231821
0.22690983 0.22521947 0.2267149 0.1 0.22873959 0.22699693 0.22577143 0.23915412
0.22451335 0.22770782 0.22905535 0.2292828 0.09954705 0.22475894 0.09921518 0.23086193
0.22564507 0.22841215 0.22586785 0.22785355 0.22694516 0.22602545 0.23751116 0.09974226
0.22651555 0.2287233 0.22654141 0.22794062 0.22761582 0.2242584 0.2258023 0.227104
0.22845808 0.22658202 0.23460019 0.22966397 0.22734627 0.22840086 0.22820707 0.09946537
0.22625557 0.2275162 0.22869875 0.22839427 0.1 0.225928 0.22605918 0.23400587
0.23343474 0.22566243 0.09938242 0.2268405 0.09876202 0.22527628 0.22578785 0.09888638
0.22654322 0.22645685 0.22813039 0.22635365 0.23022819 0.22698168 0.22732325 0.22707312
0.2293034 0.22754118 0.23044866 0.22501317 0.22918081 0.22744 0.22925396 0.22578523
0.2279535 0.22778678 0.2247404 0.2260511 0.22669569 0.228325 0.22629991 0.09908072
0.22486284 0.225052 0.095703095 0.1 0.22628936 0.2270507 0.22518004 0.22811168
0.22635241 0.22744337 0.2279339 0.2251711 0.09878942 0.22758137 0.22719726 0.22771835
0.2285201 0.1 0.2308236 0.22499454 0.22912379 0.22910255 0.22856073 0.23416589
0.22987373 0.2267946 0.22664483 0.22632703 0.22654359 0.22856 0.23670746 0.22383414
0.22605248 0.22751413 0.22563402 0.22718666 0.22651644 0.22704595 0.22593871 0.22495972
0.22757675 0.23424853 0.22757365 0.22800803 0.2269864 0.22686327 0.22810769 0.22515753
00000000: 9edd 673e 8483 663e 2185 683e 8a89 693e
00000010: db34 673e f591 6a3e cdcc cc3d d088 673e
00000020: cb89 6a3e d0e2 6c3e 5351 663e 00dd 6c3e
00000030: 7bf1 683e de55 683e db19 673e aeee 663e
00000040: 3f72 683e a9ae 673e 3b3c 6d3e e849 683e
00000050: 301c 683e 54ca 683e dda8 673e 7624 673e
00000060: f63d 683e a975 663e 0ced 663e 9826 693e
00000070: 4cf6 ca3d cdcc cc3d 4a5f 663e 45c6 6a3e
00000080: 56de 6d3e 5545 683e 4bab 693e 4ac4 663e
00000090: 3af2 673e ce05 683e 9a3f 6a3e d6c3 683e
000000a0: ae7f 683e 82f9 673e d1d1 683e 4512 673e
000000b0: 7c84 6a3e 5f49 6a3e eec1 693e 0ea2 673e
000000c0: 2c17 663e a8a5 673e 151a 6f3e 025b 6a3e
000000d0: 8cec 693e 40bc 673e 0db0 673e cdcc cc3d
000000e0: acf3 663e ff56 c93d 161d 693e 6635 6a3e
000000f0: c40b 663e cd9e 693e cdcc cc3d a7c4 703e
00000100: 39f7 6c3e 2f74 6e3e 012d 683e 8788 693e
00000110: e283 6d3e 52a1 683e 41a7 6c3e a29b 683e
00000120: 4144 ca3d 8e53 673e 12f5 cb3d d39c 683e
00000130: 2382 683e 423d 703e 30cc cb3d 3eae 673e
00000140: a111 6d3e 8b2c 673e 37ca 733e cdcc cc3d
00000150: f2b4 6a3e 8fbd 683e b329 683e cdcc cc3d
00000160: 6b2f 683e 5603 693e 1f69 653e 8e7a 683e
00000170: 24df 663e b68c 683e 19ee 663e 911e 6a3e
00000180: bdd6 6c3e ba37 673e 0774 cb3d cdcc cc3d
00000190: 2d51 673e 182c 693e d75d 653e f2e7 663e
000001a0: 146a 683e 5870 653e 307c 663e 8fd5 673e
000001b0: d0ba 6a3e 5118 6d3e 78ea 673e 4d8d 6b3e
000001c0: 2638 653e 56e8 6b3e ea4d 693e 8718 683e
000001d0: 242f 6a3e 186e 663e a5b9 653e 35cb 733e
000001e0: bd37 6a3e 0a3a 673e e370 6a3e ceb1 673e
000001f0: aa6a 673e 5aa7 683e f09a 6c3e 7c62 6d3e
00000200: 0d5b 683e ef9f 663e f327 683e cdcc cc3d
00000210: b63a 6a3e e271 683e a030 673e d1e4 743e
00000220: d4e6 653e 3d2c 693e 7c8d 6a3e 1cc9 6a3e
00000230: 53df cb3d 3527 663e 5431 cb3d 1267 6c3e
00000240: 800f 673e e0e4 693e e749 673e 7152 693e
00000250: 5064 683e 3773 673e 2036 733e ac45 cc3d
00000260: b1f3 673e 7136 6a3e 79fa 673e 4469 693e
00000270: 1f14 693e fea3 653e b838 673e f38d 683e
00000280: eaf0 693e 1e05 683e 083b 703e 082d 6b3e
00000290: 76cd 683e eae1 693e 1daf 693e 80b4 cb3d
000002a0: 8aaf 673e 02fa 683e 0130 6a3e 30e0 693e
000002b0: cdcc cc3d ab59 673e 0f7c 673e 3c9f 6f3e
000002c0: 8409 6f3e 0d14 673e 0389 cb3d e048 683e
000002d0: be43 ca3d d3ae 663e ee34 673e f184 ca3d
000002e0: f2fa 673e 4ee4 673e 039b 693e 40c9 673e
000002f0: f0c0 6b3e e36d 683e 6dc7 683e db85 683e
00000300: 83ce 6a3e 8e00 693e bcfa 6b3e da69 663e
00000310: 60ae 6a3e 08e6 683e 8dc1 6a3e 3e34 673e
00000320: a46c 693e f040 693e 5922 663e f179 673e
00000330: ea22 683e 07ce 693e 2abb 673e d5ea ca3d
00000340: 7242 663e 0874 663e fcff c33d cdcc cc3d
00000350: 66b8 673e fb7f 683e 9995 663e 1c96 693e
00000360: edc8 673e eae6 683e 8167 693e 4193 663e
00000370: 1c52 ca3d 170b 693e 66a6 683e 002f 693e
00000380: 2c01 6a3e cdcc cc3d 065d 6c3e f864 663e
00000390: 6d9f 6a3e dc99 6a3e d30b 6a3e 2fc9 6f3e
000003a0: 0564 6b3e d83c 683e 9515 683e 46c2 673e
000003b0: 0bfb 673e a20b 6a3e 7163 723e c734 653e
000003c0: 4d7a 673e 77f9 683e 9b0c 673e 9fa3 683e
000003d0: edf3 673e bc7e 683e 7a5c 673e d75b 663e
000003e0: e109 693e d9de 6f3e 1109 693e f07a 693e
000003f0: 1f6f 683e d84e 683e 1095 693e b28f 663e

qf1.last_fc.weight f4 [53, 256]
-0.041217435 -0.04103074 -0.043676607 -0.042090323 -0.043290727 -0.046913598 -0.0013167508 -0.042951085
-0.042445134 -0.045616988 -0.04084098 -0.0434994 -0.04186103 -0.042609148 -0.04078478 -0.042833827
-0.044250958 -0.044466108 -0.043376356 -0.04349503 -0.040201694 -0.04269517 -0.041543238 -0.042707603
-0.040234007 -0.041400317 -0.039009597 -0.040915582 -0.0023285896 -0.0014810697 -0.039253443 -0.04227811
-0.044789825 -0.045846414 -0.042365856 -0.043412063 -0.04204227 -0.04485623 -0.047404956 -0.040463835
-0.04567304 -0.04394499 -0.04248791 -0.041761197 -0.04700893 -0.04146973 -0.043850474 -0.041923612
-0.037442792 -0.039323747 -0.04479657 -0.04304177 -0.042305842 -0.039727584 -0.04102552 0.0011265897
-0.045590222 0.00081707514 -0.04269951 -0.04304824 -0.039015748 -0.046938732 -0.000715446 -0.046442416
-0.044783052 -0.046263676 -0.04571618 -0.04443305 -0.04508098 -0.04399317 -0.046468154 -0.046468012
-0.002001642 -0.04343109 -0.000166435 -0.04301886 -0.04402333 -0.04109115 -0.002198402 -0.04415319
-0.04323251 -0.041956834 -0.04823756 -0.0027046062 -0.046572246 -0.042191558 -0.044655092 0.0026391693
-0.04091354 -0.04241019 -0.0419018 -0.045069776 -0.044998027 -0.04360654 -0.04164392 -0.045830246
-0.04346589 -0.044114128 0.00049134315 3.5243513e-05 -0.038942564 -0.041875053 -0.04228317 -0.041658506
-0.045999065 -0.04215416 -0.040564734 -0.03985223 -0.044723224 -0.041957516 -0.041848805 -0.046621885
-0.043456495 -0.0448674 -0.04523174 -0.045024037 -0.04649224 -0.04378479 -0.04500619 -0.048830617
-0.047356546 -0.039354254 -0.046611983 -0.04191706 -0.041296754 -0.042986132 -0.044215627 -0.043973844
-0.04575114 -0.043542463 -0.041670997 -0.0006260973 -0.042501613 -0.046737984 -0.044690676 -0.046436753
-0.040527824 -0.04332714 -0.046302088 -0.041348033 -0.0016398696 -0.04171664 -0.002800629 -0.04792129
-0.041797828 -0.044434957 -0.0442135 -0.04462153 -0.041017193 -0.045364 -0.048413526 -0.0018659721
-0.04459695 -0.046250314 -0.044524755 -0.041560028 -0.041362196 -0.039310437 -0.044290993 -0.04595184
-0.042353444 -0.041933794 -0.04408365 -0.04441455 -0.043999817 -0.043485858 -0.046579447 -0.002184609
-0.040884197 -0.04279384 -0.041331824 -0.04295275 0.0013747115 -0.04273908 -0.042842314 -0.04602948
-0.04661181 -0.039266538 -0.002009873 -0.04479366 -9.3118804e-05 -0.04415628 -0.043618254 0.00062032876
-0.04397587 -0.040805135 -0.043517206 -0.044715352 -0.04335009 -0.041676793 -0.04130795 -0.044057094
-0.04432141 -0.044303864 -0.04773755 -0.043133613 -0.042199098 -0.041970763 -0.04600283 -0.044080596
-0.044867236 -0.044013456 -0.039369218 -0.043705754 -0.040134307 -0.041349083 -0.045079283 0.00190152
-0.04215719 -0.042788394 0.001393193 0.0023970406 -0.043620724 -0.043636777 -0.040956724 -0.043184772
-0.03975956 -0.044022027 -0.04627092 -0.043540347 -0.0024749811 -0.04098036 -0.044722237 -0.04146384
-0.04479898 0.0029891264 -0.04306179 -0.041607536 -0.042180296 -0.044897113 -0.04623287 -0.046149533
-0.042322922 -0.041547626 -0.039648343 -0.040987913 -0.042529363 -0.04563253 -0.04682003 -0.040763214
-0.04105253 -0.044947 -0.04275282 -0.045639902 -0.0424436 -0.04172796 -0.04460477 -0.042022843
-0.046310447 -0.045663126 -0.041961633 -0.03996621 -0.043673627 -0.0443385 -0.044240385 -0.040378302
00000000: 9dd3 28bd d90f 28bd 3ee6 32bd e766 2cbd
00000010: 9e51 31bd 7928 40bd d396 acba 7aed 2fbd
00000020: f3da 2dbd e1d8 3abd df48 27bd 6d2c 32bd
00000030: 7976 2bbd ee86 2ebd f10d 27bd 8672 2fbd
00000040: 7e40 35bd 1822 36bd 68ab 31bd d827 32bd
00000050: 88aa 24bd 21e1 2ebd 3e29 2abd 2bee 2ebd
00000060: 6acc 24bd 6193 29bd 87c8 1fbd 1997 27bd
00000070: 409b 18bb 7420 c2ba 38c8 20bd d02b 2dbd
00000080: 8975 37bd 73c9 3bbd d287 2dbd d9d0 31bd
00000090: 8434 2cbd 2bbb 37bd b32b 42bd 68bd 25bd
000000a0: a713 3bbd a9ff 33bd cd07 2ebd ca0d 2bbd
000000b0: 708c 40bd 2adc 29bd 8e9c 33bd 18b8 2bbd
000000c0: 9d5d 19bd f011 21bd 9c7c 37bd 914c 30bd
000000d0: e448 2dbd 64b9 22bd 600a 28bd 14aa 933a
000000e0: d0bc 3abd fc30 563a aee5 2ebd 5a53 30bd
000000f0: face 1fbd d442 40bd c58c 3bba 673a 3ebd
00000100: 6f6e 37bd fb7e 3dbd e440 3bbd 6eff 35bd
00000110: d5a6 38bd 2f32 34bd 6455 3ebd 3e55 3ebd
00000120: fb2d 03bb cce4 31bd 0e85 2eb9 8b34 30bd
00000130: cf51 34bd 324f 28bd 1113 10bb fad9 34bd
00000140: 9314 31bd eeda 2bbd bf94 45bd c33f 31bb
00000150: 8ac2 3ebd 0ed1 2cbd 42e8 36bd eaf5 2c3b
00000160: f594 27bd 4fb6 2dbd 39a1 2bbd 169b 38bd
00000170: da4f 38bd c59c 32bd d192 2abd 7fb8 3bbd
00000180: 4a09 32bd 04b1 34bd 7bcd 003a 6fd2 1338
00000190: 3d82 1fbd 2d85 2bbd 1e31 2dbd 1ca2 2abd
000001a0: 8469 3cbd d7a9 2cbd 3527 26bd 183c 23bd
000001b0: b32f 37bd a5db 2bbd a769 2bbd 97f6 3ebd
000001c0: 70ff 31bd e1c6 37bd eb44 39bd 206b 38bd
000001d0: a66e 3ebd ae57 33bd 6958 38bd 9d02 48bd
000001e0: f0f8 41bd ed31 21bd 35ec 3ebd 39b1 2bbd
000001f0: c926 29bd 3a12 30bd 721b 35bd eb1d 34bd
00000200: 8c65 3bbd 9559 32bd 35af 2abd ae20 24ba
00000210: 2c16 2ebd 5470 3fbd 920d 37bd 7734 3ebd
00000220: 8100 26bd cd77 31bd 42a7 3dbd 8e5c 29bd
00000230: e5f0 d6ba 11df 2abd c28a 37bb 1d49 44bd
00000240: 3334 2bbd 6e01 36bd 3719 35bd 11c5 36bd
00000250: a501 28bd 9acf 39bd 434d 46bd a293 f4ba
00000260: 4bab 36bd f870 3dbd 975f 36bd d93a 2abd
00000270: 686b 29bd fb03 21bd 796a 35bd ff37 3cbd
00000280: ce7a 2dbd c5c2 2bbd 0f91 34bd 08ec 35bd
00000290: 2739 34bd 3a1e 32bd 17ca 3ebd a82b 0fbb
000002a0: 3076 27bd 9848 2fbd 8f4b 29bd 39ef 2fbd
000002b0: aa2f b43a 2c0f 2fbd 6c7b 2fbd 6889 3cbd
000002c0: 06ec 3ebd f3d5 20bd 13b8 03bb 8f79 37bd
000002d0: c748 c3b8 37dd 34bd 0ea9 32bd 8f9d 223a
000002e0: 0b20 34bd 4923 27bd 193f 32bd 7227 37bd
000002f0: dd8f 31bd 49b5 2abd 8632 29bd 3675 34bd
00000300: 5e8a 35bd f877 35bd 7388 43bd dfac 30bd
00000310: f6d8 2cbd 89e9 2bbd 776d 3cbd db8d 34bd
00000320: b5c6 37bd 7447 34bd 9e41 21bd ce04 33bd
00000330: df63 24bd a85d 29bd 0ea5 38bd 6c3c f93a
00000340: 05ad 2cbd e242 2fbd cd9b b63a ab17 1d3b
00000350: a5ab 32bd 7abc 32bd 3dc2 27bd 84e2 30bd
00000360: ecda 22bd 7150 34bd 9486 3dbd 5d57 32bd
00000370: 4b33 22bb 06db 27bd aa2e 37bd fdd5 29bd
00000380: 237f 37bd 38e5 433b 8f61 30bd aa6c 2abd
00000390: 3fc5 2cbd 09e6 37bd ae5e 3dbd 4b07 3dbd
000003a0: cd5a 2dbd d82d 2abd 4d66 22bd f1e2 27bd
000003b0: 4533 2ebd 2de9 3abd 5cc6 3fbd 54f7 26bd
000003c0: b326 28bd 581a 38bd 951d 2fbd e8f0 3abd
000003d0: 57d9 2dbd f0ea 2abd 7eb3 36bd 2520 2cbd
000003e0: 06b0 3dbd 4209 3bbd f6df 2bbd 9cb3 23bd
000003f0: 1ee3 32bd 499c 35bd 6835 35bd b863 25bd

qf1.last_fc.bias f4 [53]
-0.07707175 -0.10025054 -0.08332488 -0.0915079 -0.12295689 -0.075981244 -0.08796266 -0.08850842
-0.11567355 -0.07355349 -0.111461155 -0.08403319 -0.07714755 -0.095840484 -0.106673725 -0.13460542
-0.10555649 -0.0850382 -0.092126496 -0.098092236 -0.087718785 -0.16716963 -0.10303589 -0.20012799
-0.12473326 -0.09333393 -0.074097715 -0.1087746 -0.1051262 -0.11173914 -0.090828806 -0.09154935
-0.09122362 -0.12921447 -0.10018851 -0.09006522 -0.09000945 -0.09289175 -0.070010535 -0.10645866
-0.11257645 -0.1527074 -0.12933886 -0.10856784 -0.09835858 -0.07487296 -0.089867674 -0.11264006
-0.10266677 -0.09071082 -0.14064711 -0.1577603 -0.09280667
00000000: cbd7 9dbd 2850 cdbd 3ca6 aabd 7e68 bbbd
00000010: d2d0 fbbd 0e9c 9bbd c425 b4bd e743 b5bd
00000020: 41e6 ecbd 36a3 96bd bf45 e4bd 9819 acbd
00000030: 89ff 9dbd 0448 c4bd c177 dabd 01d6 09be
00000040: 002e d8bd 8228 aebd d1ac bcbd 95e4 c8bd
00000050: e8a5 b3bd 842e 2bbe 7b04 d3bd 5aee 4cbe
00000060: 2774 ffbd dc25 bfbd 8bc0 97bd 38c5 debd
00000070: 684c d7bd 7dd7 e4bd 7404 babd 3a7e bbbd
00000080: 73d3 babd cc50 04be a22f cdbd 1d74 b8bd
00000090: e056 b8bd 083e bebd af61 8fbd ff06 dabd
000000a0: 7b8e e6bd 545f 1cbe 6871 04be d158 debd
000000b0: 3970 c9bd ff56 99bd 8b0c b8bd d5af e6bd
000000c0: f542 d2bd 98c6 b9bd cc05 10be eb8b 21be
000000d0: 6c11 bebd

qf1_target.fc0.weight f4 [256, 78]
-0.026254736 0.035720803 0.05430438 0.031066 0.0019091867 0.01635231 -0.014894086 -0.05220872
-0.057105195 0.040225845 -0.023203544 -0.050718624 0.007821034 -0.007301599 0.032618627 -0.028429188
-0.05744869 -0.02369412 0.026877526 0.04867652 -0.042872585 -0.04950528 0.039805006 -0.042332612
0.016494319 -0.023827232 -0.0037352922 0.0005864203 -0.050558317 -0.022207083 0.016403913 0.031041501
-0.01736492 -0.057403788 -0.025090188 0.030237282 -0.009903741 0.045641672 -0.050242264 -0.037899684
0.017767042 -0.03243976 -0.012095715 -0.0013376774 -0.017512182 -0.022133954 0.014336666 0.003050372
0.04635543 0.056313008 -0.004250207 0.009537838 -0.0060415044 0.0070784357 -0.046213612 -0.025515588
-0.014276363 0.037415832 0.02131343 -0.0263744 0.043054774 -0.017451586 0.016644783 -0.0065958546
-0.0056515215 0.050127875 0.09220211 0.027147692 0.09343289 -0.031286463 -0.034693718 -0.054100968
0.040946525 0.04743813 0.0737338 -0.017924933 0.10289539 0.034733046 0.028057704 -0.056573763
0.020050257 0.052442126 0.046875175 0.04904219 0.029367307 -0.021909952 -0.05160036 -0.014341742
0.0501484 -0.036853816 -0.005453854 0.020799391 -0.026573744 -0.048760086 0.0110235065 0.059510395
0.02348313 0.008764826 0.03568367 -0.037635274 0.050857175 -0.0541875 -0.055503108 -0.008276939
-0.009109567 0.05317913 0.007139342 0.043005 0.05157874 -0.023284767 0.04494424 0.047064073
-0.047962885 -0.004268953 -0.006479415 -0.042944252 0.02821617 0.06537165 0.009656176 0.05651463
0.046043888 0.016761504 -0.04561284 -0.059439763 0.02673353 -0.00082912296 -0.032559887 -0.032508403
0.087529846 -0.010740742 -0.015250189 0.01342799 -0.008375277 0.054699816 0.020083526 0.058993675
0.05263023 -0.009424178 -0.06304568 0.052362185 -0.025497133 -0.034224395 0.05362284 0.07044105
0.05163263 0.1041393 0.08704566 -0.04409489 0.052211754 -0.051679604 0.011869643 0.00074584037
-0.030624535 0.016129684 0.07743751 0.093937986 -0.050237805 0.038571507 0.058871496 -0.026245952
0.06241738 -0.013263918 0.03939236 0.005958587 0.027339447 0.0152875865 -0.025112025 0.020599954
-0.05991645 -0.0402346 -0.017719192 0.063272625 -0.04852566 -0.047277413 0.02503789 -0.037699535
-0.060616955 -0.03118129 0.06300147 -0.06219007 0.026586711 0.041307047 0.06013662 0.015748255
0.018220948 0.01645877 0.003932839 0.015427651 0.028280323 0.02191569 0.051335186 0.03792767
0.023424555 -0.05222719 -0.0016354634 -0.004052622 -0.0078352215 -0.016434073 -0.019582942 0.01344955
-0.037644405 0.037963912 -0.049663153 0.011235394 0.058880217 0.03835229 0.032776307 -0.049429648
0.060813136 -0.021943804 -0.014932189 0.020178337 -0.0019230098 0.052898414 -0.040995345 0.013857965
-0.051868714 0.016382385 -0.017669024 -0.047599524 -0.030162254 0.08089594 0.06759036 0.05333629
0.08964731 -0.023554027 0.05516018 0.036216646 0.0795064 -0.062279716 -0.037739467 0.0031887167
0.10561344 0.0011018338 -0.030865207 -0.025257958 0.036491297 0.017563008 -0.012494694 -0.046383977
0.015046725 -0.058300663 -0.015958449 -0.050838664 0.02888567 -0.04508324 0.05762799 -0.008957332
0.031419903 -0.014899635 0.056093216 -0.0409855 -0.04121493 -0.05402951 -0.00082190335 -0.024533413
00000000: 2c14 d7bc fa4f 123d 456e 5e3d 207e fe3c
00000010: ad3d fa3a 48f5 853c 5306 74bc d0d8 55bd
00000020: 23e7 69bd dbc3 243d 5c15 bebc 55be 4fbd
00000030: cb23 003c 4042 efbb 1c9b 053d 54e4 e8bc
00000040: 514f 6bbd 2c1a c2bc 422e dc3c 0861 473d
00000050: 2a9b 2fbd 0cc6 4abd 930a 233d f664 2dbd
00000060: 181f 873c 5431 c3bc cecb 74bb 00ba 193a
00000070: 3d16 4fbd a1eb b5bc 8061 863c bf4a fe3c
00000080: e040 8ebc 3c20 6bbd f089 cdbc 2db4 f73c
00000090: 4d43 22bc c3f2 3a3d d5ca 4dbd b33c 1bbd
000000a0: 308c 913c 8edf 04bd 1b2d 46bc 0155 afba
000000b0: b575 8fbc 4452 b5bc 56e4 6a3c c0e8 473b
000000c0: 31df 3d3d 78a8 663d 5245 8bbb 9844 1c3c
000000d0: d0f7 c5bb 39f2 e73b 7c4a 3dbd 1106 d1bc
000000e0: 68e7 69bc 5841 193d 8199 ae3c 200f d8bc
000000f0: 345a 303d a1f6 8ebc a45a 883c 0a22 d8bb
00000100: 6630 b9bb e352 4d3d 76d4 bc3d d664 de3c
00000110: be59 bf3d 3c26 00bd 001b 0ebd fa98 5dbd
00000120: 8bb7 273d 7c4e 423d bf01 973d 4fd7 92bc
00000130: d1ba d23d 3d44 0e3d 45d9 e53c e4b9 67bd
00000140: 7040 a43c 8ecd 563d 2f00 403d 77e0 483d
00000150: b593 f03c 807c b3bc e65a 53bd a0f9 6abc
00000160: 6968 4d3d 07f4 16bd 3eb6 b2bb 7c63 aa3c
00000170: 2eb1 d9bc a8b8 47bd f09b 343c 2cc1 733d
00000180: b15f c03c 589a 0f3c 0a29 123d 7227 1abd
00000190: 9d4f 503d b6f3 5dbd 3a57 63bd 009c 07bc
000001a0: 4b40 15bc 5cd2 593d 24f1 e93b 0326 303d
000001b0: 3b44 533d b2bf bebc 7417 383d 42c6 403d
000001c0: bb74 44bd 93e2 8bbb 4651 d4bb 50e6 2fbd
000001d0: 9925 e73c 92e1 853d f034 1e3c e27b 673d
000001e0: 8498 3c3d 6c4f 893c 88d4 3abd 1c77 73bd
000001f0: 4700 db3c 8059 59ba 845d 05bd 8827 05bd
00000200: d942 b33d f0f9 2fbc eedb 79bc 1201 5c3c
00000210: 7538 09bc ea0c 603d 3586 a43c 5aa3 713d
00000220: cc92 573d de67 1abc 181e 81bd bb79 563d
00000230: 5ddf d0bc e12e 0cbd a0a3 5b3d 6643 903d
00000240: bd7c 533d fc46 d53d ff44 b23d d89c 34bd
00000250: fedb 553d fead 53bd e478 423c 8084 433a
00000260: 4ee0 fabc 6622 843c 8f97 9e3d 8f62 c03d
00000270: 28c6 4dbd 28fd 1d3d 3d23 713d c001 d7bc
00000280: 5ea9 7f3d e850 59bc e259 213d 4040 c33b
00000290: faf6 df3c c978 7a3c bcb7 cdbc 3cc1 a83c
000002a0: f46a 75bd 09cd 24bd d727 91bc 1495 813d
000002b0: d8c2 46bd f6a5 41bd 431c cd3c d46a 1abd
000002c0: 7c49 78bd e86f ffbc ea06 813d 04bb 7ebd
000002d0: 60cc d93c 9431 293d d151 763d 7c02 813c
000002e0: 1944 953c 8bd4 863c 0bdf 803b 42c4 7c3c
000002f0: 23ac e73c 8888 b33c d844 523d 0b5a 1b3d
00000300: dae4 bf3c 2eec 55bd 0c5d d6ba dbcb 84bb
00000310: 4d5f 00bc c0a0 86bc 686c a0bc 805b 5c3c
00000320: 0531 1abd 0c80 1b3d 976b 4bbd a814 383c
00000330: 622c 713d 4a17 1d3d 7340 063d be76 4abd
00000340: 3217 793d 7ec3 b3bc 24a6 74bc 0a4d a53c
00000350: 800d fcba 02ac 583d bcea 27bd 850c 633c
00000360: 4a74 54bd 5a34 863c a1be 90bc b8f7 42bd
00000370: d516 f7bc c5ac a53d d16c 8a3d 2777 5a3d
00000380: 0299 b73d 60f4 c0bc a4ef 613d e857 143d
00000390: 40d4 a23d 0419 7fbd b394 1abd caf9 503b
000003a0: dc4b d83d 686b 903a 08d9 fcbc c7e9 cebc
000003b0: e677 153d 4ce0 8f3c 8cb6 4cbc 20fd 3dbd
000003c0: 8a86 763c adcc 6ebd 4bbb 82bc 343c 50bd
000003d0: a4a1 ec3c 34a9 38bd 540b 6c3d c6c1 12bc
000003e0: 28b2 003d 991d 74bc 00c2 653d 69e0 27bd
000003f0: fdd0 28bd 0c4e 5dbd 0075 57ba 4cfa c8bc

qf1_target.fc0.bias f4 [256]
0.22226058 0.21980713 0.2239894 0.21788059 0.09920643 0.21650214 0.075523995 0.21970221
0.21701248 0.21693951 0.21589026 0.23290202 0.220253 0.22244994 0.21820025 0.23499721
0.21753825 0.22301716 0.22012669 0.21816729 0.1 0.21976136 0.21983953 0.2194759
0.22661312 0.20893277 0.21997589 0.21676746 0.21943992 0.21875317 0.21533558 0.21715179
0.21436408 0.21537635 0.09255008 0.2192477 0.22252719 0.23456153 0.22097014 0.21924256
0.22007667 0.22067861 0.22250256 0.2225491 0.2161178 0.2131542 0.21571234 0.21331029
0.21365906 0.21841884 0.21686772 0.21882331 0.2246777 0.21906379 0.21494387 0.21859835
0.21942206 0.21588299 0.22046567 0.21750353 0.1 0.21534532 0.22795014 0.21913435
0.2150246 0.21803558 0.22785144 0.2212734 0.21785992 0.21876164 0.1 0.09682597
0.21698974 0.21490791 0.22256407 0.21806186 0.08460179 0.21411462 0.22237003 0.21582012
0.21766238 0.18471602 0.2201801 0.21756816 0.22624329 0.2219418 0.21676303 0.22163998
0.23281434 0.09682448 0.21884045 0.2190104 0.21979022 0.2122259 0.21857151 0.22049598
0.09684236 0.22263753 0.22103252 0.21779251 0.21902768 0.21723074 0.2208818 0.2185084
0.21817812 0.22497393 0.2173345 0.22011499 0.21231273 0.21989384 0.09682448 0.22335745
0.21420752 0.22474965 0.21921328 0.1 0.22007176 0.22110368 0.22162366 0.22155587
0.22044751 0.21394305 0.21814138 0.21709616 0.21644114 0.1 0.22357254 0.23676519
0.121040456 0.21992047 0.22033148 0.2194136 0.21610671 0.21747118 0.2233289 0.22111267
0.22547476 0.22636573 0.21048886 0.21983781 0.21217008 0.22500968 0.224837 0.22356828
0.22260617 0.22257122 0.21870144 0.2170934 0.22018693 0.21960805 0.22493055 0.21635692
0.21863757 0.21439745 0.22222625 0.1 0.21516515 0.2161508 0.2175966 0.21694702
0.21824539 0.21529433 0.21867718 0.2174389 0.21516466 0.21255794 0.2182728 0.21543226
0.22187726 0.23127152 0.21277186 0.21949595 0.22268917 0.21433598 0.21543692 0.21071668
0.22128852 0.22102869 0.22616655 0.23099089 0.2161864 0.21845873 0.22116949 0.2181805
0.21826197 0.22267199 0.22093669 0.21948834 0.22062851 0.21974514 0.22612523 0.2173132
0.21772793 0.22632201 0.21895951 0.21174985 0.22129509 0.2116191 0.2208792 0.21189995
0.2153982 0.21993227 0.2256776 0.21910764 0.21847123 0.22415265 0.22178091 0.22016956
0.21962635 0.21783613 0.22289832 0.22113457 0.1808028 0.2206978 0.21400394 0.21268809
0.22714216 0.21905522 0.22192687 0.21933457 0.21684662 0.21962316 0.22032776 0.21826397
0.22324114 0.21894716 0.21773916 0.21659872 0.23004484 0.22039777 0.2187764 0.217061
0.2192055 0.47678855 0.2163104 0.21673347 0.21994694 0.2138597 0.22229426 0.2238194
0.21972746 0.22135104 0.22126135 0.22060071 0.2211857 0.21896242 0.21557616 0.22014603
0.2189218 0.21869183 0.1289957 0.1 0.2173023 0.22056164 0.22064303 0.21516152
00000000: 4798 633e 1f15 613e 7a5d 653e 171c 5f3e
00000010: be2c cb3d bdb2 5d3e 53ac 9a3d 9ef9 603e
00000020: 8538 5e3e 6425 5e3e 5612 5d3e de7d 6e3e
00000030: 018a 613e ebc9 633e e36f 5f3e 1ca3 703e
00000040: 59c2 5e3e 9c5e 643e e468 613e 3f67 5f3e
00000050: cdcc cc3d 1f09 613e 9d1d 613e 4abe 603e
00000060: 450d 683e 79f2 553e 5c41 613e 4af8 5d3e
00000070: dcb4 603e d500 603e ee80 5c3e 0a5d 5e3e
00000080: 4282 5b3e 9e8b 5c3e e58a bd3d 7882 603e
00000090: 2bde 633e e630 703e ff45 623e 1f81 603e
000000a0: c75b 613e 93f9 613e b6d7 633e e9e3 633e
000000b0: fc4d 5d3e 1845 5a3e b2e3 5c3e 036e 5a3e
000000c0: 71c9 5a3e 30a9 5f3e 9212 5e3e 3813 603e
000000d0: e911 663e 4252 603e 3f1a 5c3e 3fd8 5f3e
000000e0: 2db0 603e 6e10 5d3e c1c1 613e 3fb9 5e3e
000000f0: cdcc cc3d 7c83 5c3e c36b 693e c164 603e
00000100: 692f 5c3e b844 5f3e e351 693e 7f95 623e
00000110: ac16 5f3e 0d03 603e cdcc cc3d b24c c63d
00000120: 8f32 5e3e d210 5c3e d6e7 633e 9c4b 5f3e
00000130: b443 ad3d dd40 5b3e f8b4 633e f3ff 5c3e
00000140: e3e2 5e3e 3226 3d3e e476 613e 30ca 5e3e
00000150: 52ac 673e b644 633e 21f7 5d3e 97f5 623e
00000160: e266 6e3e ea4b c63d b617 603e 4344 603e
00000170: b010 613e bf51 593e 36d1 5f3e b3c9 613e
00000180: 4a55 c63d 18fb 633e 5956 623e 0005 5f3e
00000190: cb48 603e bc71 5e3e d72e 623e aac0 5f3e
000001a0: 166a 5f3e 915f 663e ef8c 5e3e d365 613e
000001b0: 8268 593e da2b 613e ea4b c63d d1b7 643e
000001c0: 3759 5b3e c624 663e 7279 603e cdcc cc3d
000001d0: 7e5a 613e 0169 623e 50f1 623e 8bdf 623e
000001e0: febc 613e e313 5b3e 7460 5f3e 754e 5e3e
000001f0: bfa2 5d3e cdcc cc3d 33f0 643e 9372 723e
00000200: 0fe4 f73d d532 613e 939e 613e f5ad 603e
00000210: 144b 5d3e c4b0 5e3e 55b0 643e 5c6b 623e
00000220: dbe2 663e 6bcc 673e 648a 573e 2a1d 613e
00000230: 1d43 593e f068 663e ac3b 663e 15ef 643e
00000240: dff2 633e b6e9 633e 45f3 5f3e bb4d 5e3e
00000250: af78 613e efe0 603e 3254 663e ab8c 5d3e
00000260: 87e2 5f3e 018b 5b3e 478f 633e cdcc cc3d
00000270: 4154 5c3e a356 5d3e a5d1 5e3e 5c27 5e3e
00000280: b87b 5f3e 1e76 5c3e e9ec 5f3e 4ea8 5e3e
00000290: 2054 5c3e caa8 593e e882 5f3e 469a 5c3e
000002a0: cb33 633e 71d2 6c3e dee0 593e 8cc3 603e
000002b0: a108 643e e47a 5b3e 7f9b 5c3e 1dc6 573e
000002c0: 7599 623e 5855 623e 3498 673e e088 6c3e
000002d0: f85f 5d3e a5b3 5f3e 417a 623e b66a 5f3e
000002e0: 1180 5f3e 2004 643e 3a3d 623e 8dc1 603e
000002f0: 71ec 613e df04 613e 5f8d 673e 5a87 5e3e
00000300: 12f4 5e3e f5c0 673e ec36 603e f4d4 583e
00000310: 2e9b 623e adb2 583e 282e 623e 4dfc 583e
00000320: 5991 5c3e ed35 613e 0718 673e c15d 603e
00000330: ecb6 5f3e 4688 653e 891a 633e 2174 613e
00000340: bbe5 603e 6f10 5f3e 753f 643e 1a71 623e
00000350: 5f24 393e 9bfe 613e d923 5b3e e8ca 593e
00000360: f497 683e 0350 603e cc40 633e 3e99 603e
00000370: 0a0d 5e3e e5e4 603e 9a9d 613e 9780 5f3e
00000380: 5399 643e af33 603e 04f7 5e3e 0ecc 5d3e
00000390: e090 6b3e f4af 613e ec06 603e 3d45 5e3e
000003a0: 6877 603e a11d f43e 7980 5d3e 61ef 5d3e
000003b0: c539 613e 0afe 5a3e 1ba1 633e ea30 653e
000003c0: 3c00 613e d9a9 623e 5692 623e 27e5 613e
000003d0: 817e 623e af37 603e ffbf 5c3e f66d 613e
000003e0: 092d 603e c0f0 5f3e 7317 043e cdcc cc3d
000003f0: 7e84 5e3e e9da 613e 3ff0 613e 4d53 5c3e
