TFPORL-main/pomdp-discrete/logs_results/network-defender/final/mlp/seed-3/save/agent_0015000_perf32.650.pt (torch, 741810 bytes, 20 tensors)

critic.observ_embedder.fc.weight f4 [64, 15]
0	0xbe61f337	-0.22065435
1	0xbd14a854	-0.036293343
2	0x3d571d8d	0.052518416
3	0xbe38a239	-0.18030633
4	0xbcd8517a	-0.026406039
5	0xbe626d1b	-0.22111933
6	0x3cafde94	0.021468438
7	0x3f070ed0	0.5275698
8	0xbd83c1c7	-0.064334445
9	0x3de6a53a	0.11261983
10	0x3c695096	0.014240405
11	0xbcd54b24	-0.026036806
12	0xbe526205	-0.20545204
13	0x3d7288d2	0.059212513
14	0xbdb1da44	-0.08684209
15	0xbdc5d67c	-0.0966005
16	0xbd19e218	-0.037569135
17	0x3e7d7422	0.24751332
18	0x3eb5ee39	0.35533312
19	0x3e600d41	0.21880056
20	0xbc9a76bf	-0.01885545
21	0xbd968a4b	-0.07350596
22	0x3ec478f5	0.38373533
23	0xbe312450	-0.17299008
24	0xbdd76c7c	-0.105187386
25	0xbd74a2e2	-0.05972565
26	0xbd4e289a	-0.05033169
27	0x3d0f606e	0.035004072
28	0xbe187317	-0.14887653
29	0xbdd99d0a	-0.10625656
30	0xbd660acb	-0.056162637
31	0x3db2e55a	0.087351516
32	0x3b315c06	0.0027062907
33	0xbe3fff8b	-0.18749826
34	0xbc061eb7	-0.008186034
35	0xbd59f4f1	-0.05321211
36	0xbd650b97	-0.055919256
37	0xbef5d95e	-0.480174
38	0xbc879fba	-0.016555656
39	0x3d5891da	0.05287347
40	0x39ecbccf	0.000451541
41	0xbd8f63b4	-0.07001439
42	0x3d013af8	0.031550378
43	0x3ab2af0b	0.0013632489
44	0x3e022661	0.12709953
45	0xbd9455ec	-0.07242951
46	0xbe7f7c6f	-0.24949811
47	0xbdcf1ed0	-0.10113299
48	0xbe0201cf	-0.12696002
49	0x3e44db36	0.19224247
50	0x3dd5ffb0	0.10449159
51	0xbe3cbdb0	-0.18431735
52	0xbd97e07b	-0.07415863
53	0x3e8e1f0a	0.27758056
54	0x3e2659da	0.16245213
55	0x3bf7c4e4	0.007561313
56	0xbdd7cb65	-0.10536841
57	0x3e20b8b9	0.15695466
58	0x3dd31dfd	0.10308454
59	0xbe2b69b0	-0.16739535
60	0x3e8fe880	0.2810707
61	0x3d929ed4	0.071592
62	0xbe4330bf	-0.19061564
63	0xbdf0e5f3	-0.11762609
64	0xbde6af71	-0.112639315
65	0xbdaded2f	-0.08492505
66	0x3d2491fb	0.04017828
67	0xbe80b70c	-0.25139654
68	0x3e4f540f	0.2024691
69	0x3e617eb6	0.22020993
70	0x3d76cd50	0.060254395
71	0x3d416d9b	0.04722367
72	0xbdf35c87	-0.118828826
73	0x3d310fa6	0.043227814
74	0x3ea75109	0.32679012
75	0x3db8d27b	0.09024521
76	0x3ccce9a7	0.025013758
77	0x3e80dcee	0.25168556
78	0x3e757517	0.23970447
79	0x3e8e83d2	0.27834946
80	0xbe049f14	-0.12951308
81	0xbf24c7a3	-0.6436712
82	0xbe82a3ef	-0.25515696
83	0xbcb2faab	-0.021848043
84	0x3e734d69	0.23759998
85	0xbe27b472	-0.16377428
86	0x3d0c1a5c	0.034204826
87	0xbe097137	-0.13422094
88	0xbce6cf2b	-0.028174957
89	0xbd93b9ec	-0.07213196
90	0x3d0c09e7	0.03418913
91	0x3e3716b6	0.17879757
92	0xbe975108	-0.2955401
93	0x3e878056	0.264651
94	0x3db399bc	0.08769557
95	0xbd10c02b	-0.035339516
96	0xbe73dd25	-0.23814829
97	0x3df39fa6	0.11895685
98	0x3c8d2808	0.017231002
99	0xbdb43507	-0.08799177
100	0x3d4558f1	0.048180524
101	0x3e767461	0.24067833
102	0x3dd50f72	0.104033366
103	0x3bd6ae43	0.0065515353
104	0x3e2322d5	0.15931256
105	0xbde8ac88	-0.11361033
106	0xbe022548	-0.12709534
107	0xbe220ad5	-0.15824445
108	0x3e0fc4bd	0.14039893
109	0xbec40541	-0.38285258
110	0x3e8d189a	0.27557832
111	0x3e3911a5	0.18073137
112	0xbec52b2d	-0.38509503
113	0xbeeba6fe	-0.46025842
114	0xbd7fd746	-0.06246116
115	0xbd84f21c	-0.06491491
116	0x3eafdb70	0.34347105
117	0x3de5ad79	0.11214728
118	0x3ceb1c25	0.028699944
119	0x3e0d03ae	0.13770935
120	0x3d052f94	0.032516077
121	0xbd92c899	-0.07167167
122	0xbe43362b	-0.19063632
123	0x3d126f73	0.035750818
124	0xbe6688bd	-0.22513099
125	0xbde44ca9	-0.11147434
126	0x3e22ec78	0.15910518
127	0x3dfe2267	0.124089055
128	0xbe01b0ca	-0.12665096
129	0x3dd1ece8	0.102502644
130	0x3e921c74	0.28537333
131	0x3e0e34c6	0.13887319
132	0x3e36bf14	0.17846328
133	0x3d76c25b	0.060243946
134	0xbe41c82f	-0.1892402
135	0xbd450299	-0.04809818
136	0x3dfdd502	0.12394144
137	0x3e59b451	0.21260192
138	0xbe10d0f1	-0.14142205
139	0xbd64a44a	-0.05582074
140	0xbd3acd03	-0.04560567
141	0xbd4db2e0	-0.050219417
142	0x3db0021e	0.08594154
143	0x3ec2c35f	0.3803968
144	0xbe5ab29e	-0.213572
145	0xbd24ae74	-0.040205434
146	0xbc1c64e9	-0.009545543
147	0xbe7c7e97	-0.24657665
148	0x3daebf1e	0.085325465
149	0x3df40a40	0.119160175
150	0xbe252c5b	-0.16130202
151	0x3eb2452b	0.34818396
152	0x3da62062	0.08111645
153	0x3e6dd9f0	0.23227668
154	0x3e343deb	0.17601745
155	0xbe8d4942	-0.27594954
156	0x3e1cb8b5	0.15304835
157	0xbc3792cf	-0.0112044355
158	0x3dd2e957	0.10298412
159	0xbe717f80	-0.23583794
160	0xbeaac6a1	-0.33354667
161	0x3cb2fb8a	0.021848459
162	0x3dea002a	0.114258125
163	0x3d9fce42	0.078030124
164	0xbe6506c4	-0.22365862
165	0xbe6fc0f0	-0.23413444
166	0x3e7c2298	0.24622571
167	0xbd81552e	-0.06315075
168	0xbc1b0f8f	-0.009464159
169	0xbe0cf296	-0.13764414
170	0x3c49dfff	0.012321471
171	0x3bd1f55d	0.0064074234
172	0xbe200392	-0.15626362
173	0x3d9ec401	0.077522285
174	0x3d8e44e0	0.069467306
175	0x3e30e837	0.17276083
176	0xbdf8d765	-0.12150458
177	0x3e3fb5ce	0.18721697
178	0x3e05e80d	0.13076802
179	0xbe5eb5bb	-0.21749012
180	0x3e813f40	0.25243568
181	0xbc1782d0	-0.009247497
182	0x3eb300db	0.3496159
183	0x3e21b893	0.15793066
184	0xbd069511	-0.032857005
185	0xbcdaa2a5	-0.026688883
186	0x3e21549f	0.15754937
187	0x3e426846	0.1898509
188	0xbe907a90	-0.28218508
189	0x3c0f2a5a	0.008738125
190	0x3e8fd644	0.2809316
191	0xbe4911af	-0.19635652
192	0xbe698d2e	-0.22807762
193	0xbd3a078a	-0.045417346
194	0x3de32b1d	0.110922076
195	0x3e35f484	0.17769057
196	0x3d25f082	0.04051257
197	0x3d00bcdc	0.03143011
198	0xbe487ad9	-0.19578113
199	0x3e89b3a2	0.2689486
200	0xbea85b57	-0.32882187
201	0x3e7137fd	0.23556514
202	0x3e2bf19c	0.16791385
203	0x3e635a88	0.22202504
204	0x3e84a010	0.25903368
205	0xbdfec4da	-0.1243989
206	0x3e6688cf	0.22513126
207	0xbe36f414	-0.17866546
208	0x3e13df3b	0.14440624
209	0xbdcf47ec	-0.1012114
210	0xbe28269e	-0.16420981
211	0xbe8357e1	-0.25652984
212	0x3e0f36b3	0.1398571
213	0x3db01135	0.08597032
214	0xbd99d11e	-0.07510589
215	0xbdcb1e22	-0.09917857
216	0x3de0a7db	0.10969516
217	0xbd3d488c	-0.046211764
218	0x3e5033f0	0.20332313
219	0x3de711fe	0.112827286
220	0xbdcfd5b2	-0.10148181
221	0xbe075e56	-0.1321958
222	0x3c9afbf6	0.018918972
223	0x3eaa6051	0.3327661
224	0x3e82c36f	0.2553973
225	0xbd3ef256	-0.04661783
226	0xbdb97ca1	-0.09056974
227	0xbc8339eb	-0.016018828
228	0x3dac3187	0.08407884
229	0xbe787506	-0.24263391
230	0xba6ec6dd	-0.00091086124
231	0x3e1bda5a	0.15220013
232	0x3e831fda	0.25610238
233	0x3e3eab9f	0.18620156
234	0x3d14cd32	0.036328502
235	0x3e366259	0.17810954
236	0xbec4100a	-0.38293487
237	0xbe09b21b	-0.13446848
238	0x3cdab597	0.026697917
239	0x3df2fb7f	0.11864375
240	0xbcec5d33	-0.028853035
241	0x3e4f0e47	0.2022029
242	0xbea55def	-0.32298228
243	0xbd47fda0	-0.04882586
244	0x3dc412cb	0.09573897
245	0x3e7c664f	0.24648403
246	0x3c9b6148	0.018967286
247	0x3e1fcec5	0.1560622
248	0xbd9dc3f4	-0.07703391
249	0xbd6d590a	-0.057946242
250	0x3e6a4c36	0.22880635
251	0x3de28855	0.110611595
252	0x3d267042	0.0406344
253	0xbeb26e67	-0.34849855
254	0xbd978d40	-0.07399988
255	0xbe0eac5f	-0.13932942

critic.observ_embedder.fc.bias f4 [64]
0	0x3dcf2fe2	0.10116555
1	0xbe5a8fcb	-0.21343915
2	0x3e9fadc0	0.31187248
3	0x3e9b95bb	0.30387673
4	0xbe11aebc	-0.14226812
5	0xbdc3f758	-0.095686615
6	0xbcbde946	-0.023182523
7	0xbe309448	-0.17244065
8	0x3e2e3435	0.17012103
9	0xbdad6c52	-0.08467926
10	0x3ea6f8f1	0.32611802
11	0x3e83d5fa	0.2574919
12	0xbe111054	-0.14166385
13	0xbd99290f	-0.074785344
14	0xbe46b288	-0.19404042
15	0x3e6b7705	0.22994621
16	0x3e72b4bc	0.23701757
17	0xbd886364	-0.06659582
18	0x3f0124b1	0.5044661
19	0x3e92446b	0.28567824
20	0xbe6da945	-0.23209102
21	0xbe8227e1	-0.2542105
22	0xbe3ac074	-0.18237478
23	0xbdd634ed	-0.104593135
24	0x3e8e13d3	0.277495
25	0xbdf0dd86	-0.11761002
26	0x3e5a6092	0.21325901
27	0xbe1355cd	-0.14388199
28	0xbe83d565	-0.25748745
29	0x3eb334a5	0.35001102
30	0xbd930608	-0.07178885
31	0xbe621cd1	-0.22081305
32	0x3c4b9fe6	0.0124282595
33	0x3eabc13d	0.33545867
34	0xbda56d6d	-0.08077512
35	0x3d8ee33b	0.069769345
36	0x3d749341	0.059710745
37	0xbe36a501	-0.17836381
38	0x3dc233b6	0.09482519
39	0xbe2dafa9	-0.1696154
40	0xbea80697	-0.32817528
41	0xbe8b2317	-0.2717521
42	0xbe47a0bd	-0.1949491
43	0x3e73c779	0.23806562
44	0xbe697de6	-0.22801933
45	0x3b83157d	0.0040003643
46	0x3c7f2ea5	0.015575086
47	0x3e0fc18b	0.14038675
48	0xbca2280e	-0.01979449
49	0x3ea3311b	0.31873402
50	0xbe0ff218	-0.14057195
51	0xbecc5946	-0.3991186
52	0x3e5fdee9	0.21862377
53	0x3e796039	0.24353112
54	0x3dbae03e	0.09124802
55	0xbdecf71f	-0.11570572
56	0xbe1e8ba5	-0.15482958
57	0x3db8d2c3	0.090245746
58	0x3eafa3fc	0.34304798
59	0xbe7d31d6	-0.24726042
60	0xbe57cae7	-0.21073495
61	0xbdd121d8	-0.10211533
62	0x3e79c9a6	0.24393329
63	0xbe9baf02	-0.30406958

critic.seq_model.model.0.weight f4 [64, 64]
0	0x3dd7ce96	0.1053745
1	0x3d03c5aa	0.03217093
2	0x3ccccd7d	0.025000328
3	0xbd3c4e33	-0.045973014
4	0x3e0bc36c	0.13648766
5	0xbe72e919	-0.23721732
6	0x3d556601	0.05209923
7	0x3d50e152	0.050996132
8	0x3d39e487	0.045383956
9	0x3d770b4c	0.060313508
10	0x3dcea238	0.100895345
11	0x3ccc62b1	0.024949403
12	0xbe157b7f	-0.14597891
13	0xbd595fec	-0.053069994
14	0xbcc625e2	-0.024187986
15	0xbe062b76	-0.13102517
16	0x3b9e1585	0.0048243427
17	0xbd67657c	-0.056493267
18	0xbdca4464	-0.09876326
19	0xbd54e453	-0.05197556
20	0xbdb4d768	-0.08830148
21	0xbbcfbd80	-0.006339729
22	0x3d930e1b	0.07180425
23	0x3dbe5f88	0.09295565
24	0xbdcdc221	-0.10046793
25	0xbc5dfbc0	-0.013548791
26	0x3df20dbd	0.118190266
27	0x3d27f843	0.041008245
28	0xbdd36115	-0.10321251
29	0xbe0b5ea6	-0.13610324
30	0xbe209690	-0.15682435
31	0x3e2e3bc2	0.17014983
32	0x3dbaa1e5	0.0911291
33	0xbd7f6fd8	-0.062362522
34	0xbe17f939	-0.14841165
35	0x3e5622cc	0.20911711
36	0x3d8779fb	0.06615063
37	0x3b069385	0.0020534706
38	0x3bf18509	0.0073705954
39	0x3db8032e	0.089849815
40	0x3dff09fd	0.12453077
41	0xbc095741	-0.008382619
42	0x3c7dbf20	0.015487462
43	0x3d584c59	0.052807186
44	0xbd40d6cc	-0.047079846
45	0xbd34bb97	-0.044124212
46	0x3e1a18b0	0.1504848
47	0x3d8a877c	0.06764123
48	0x3e31f9a0	0.1738038
49	0xbc2ceeff	-0.010555028
50	0x3e1dbc58	0.15403879
51	0xbd03a09b	-0.032135587
52	0x3dfb8189	0.12280566
53	0xbd3a1647	-0.0454314
54	0x3d9871d4	0.07443586
55	0x3b9a5a40	0.0047104657
56	0xbe0e109f	-0.13873528
57	0xbba5794d	-0.0050498606
58	0xbc0f4809	-0.008745202
59	0x3d5a6aa2	0.05332435
60	0xbc1ed8eb	-0.009695272
61	0x3d023c4f	0.031795796
62	0xbdd1cd98	-0.10244292
63	0xbe7fafcb	-0.24969403
64	0x3eae72fa	0.34072095
65	0x3ebcf58f	0.36906096
66	0x3ece4ca7	0.40292856
67	0xbd5dacf0	-0.054120004
68	0xbe9beb9b	-0.3045319
69	0xbe3d4484	-0.18483168
70	0x3e758890	0.23977876
71	0xbe06627e	-0.1312351
72	0xbd1d0e66	-0.03834381
73	0x3d6c6b9b	0.057719808
74	0xbcaf4df0	-0.021399468
75	0xbeabd35f	-0.335597
76	0x3e5457d3	0.20736627
77	0x3dc13d5b	0.09435531
78	0xbe1c2848	-0.15249741
79	0x3df2d7a9	0.1185754
80	0x3e54756d	0.2074792
81	0xbdb4b347	-0.08823257
82	0xbea38549	-0.31937626
83	0xbd27055b	-0.04077659
84	0x3ccc55b8	0.024943218
85	0x3e5ff60d	0.21871205
86	0x3e48abaa	0.19596735
87	0x3d9723a2	0.07379843
88	0x3caf8a17	0.021428151
89	0x3cf7d968	0.030255035
90	0x3ddb7d34	0.1071724
91	0x3e81dd2d	0.25364056
92	0x3cc74e44	0.024329312
93	0xbdf549ba	-0.11976953
94	0x3d78dab1	0.060755435
95	0xbde24f6d	-0.110503055
96	0x3dfdf561	0.12400318
97	0x3dd5de42	0.10442783
98	0x3e5ad42b	0.21369998
99	0xbde72631	-0.11286581
100	0x3cc29d3e	0.02375662
101	0xbe685f0a	-0.22692505
102	0x3e869751	0.2628732
103	0x3e4954b6	0.19661221
104	0xbe356398	-0.17713773
105	0x3da19944	0.07890561
106	0xbe9d0346	-0.3066656
107	0x3e3c8c38	0.18412864
108	0xbdcac63c	-0.099010915
109	0xbc03befe	-0.008041142
110	0xbbe2f4bc	-0.0069261473
111	0x3e12897c	0.14310259
112	0x3e5a52d8	0.21320665
113	0xbeae1ee2	-0.34007937
114	0x3e8ac68f	0.27104613
115	0x3e40449d	0.18776174
116	0xbea0dd04	-0.31418622
117	0xbe6da6b3	-0.23208122
118	0x3d8ce78e	0.06880103
119	0xbe30240d	-0.17201252
120	0x3debd2e9	0.11514837
121	0x3e707542	0.2348223
122	0x3e509b85	0.20371826
123	0xbdefe02a	-0.11712678
124	0xbdfb09ce	-0.122577295
125	0x3e20ce80	0.15703773
126	0x3d8811f7	0.066440515
127	0x3e7bc103	0.24585347
128	0x3dfabf4e	0.1224352
129	0x3e7cee86	0.24700364
130	0x3e62c55a	0.22145596
131	0x3e43b74f	0.19112895
132	0xbd8e2e8d	-0.069424726
133	0x3eac0429	0.33596924
134	0x3e39b6ca	0.18136135
135	0x3d159de2	0.036527522
136	0x3d6d085b	0.057869297
137	0xbe0e4980	-0.13895226
138	0xbb0be5b0	-0.0021346621
139	0x3e68de3f	0.2274103
140	0xbe68f61e	-0.22750136
141	0xbe5adf3f	-0.21374224
142	0x3dd73389	0.105078764
143	0x3cd0fdbc	0.025511615
144	0x3d85e23f	0.06537294
145	0x3d591080	0.05299425
146	0x3da1889e	0.07887386
147	0xbdde5f74	-0.1085805
148	0x3d5b2000	0.053497314
149	0xbe336f71	-0.1752298
150	0xbd3b4340	-0.04571843
151	0x3d8534e8	0.06504232
152	0x3df1bc4b	0.11803492
153	0xbdf0f9cc	-0.11766395
154	0xbe009de9	-0.12560238
155	0x3de4f877	0.111802034
156	0xbc725e69	-0.014793017
157	0xbe224f59	-0.15850581
158	0xbd4df35d	-0.050280917
159	0x3db30f98	0.08743209
160	0xbcffab37	-0.031209571
161	0x3d254108	0.04034522
162	0x3dad1dd5	0.08452956
163	0x3d9f5915	0.07780663
164	0xbd56dce7	-0.052456763
165	0x3e110e04	0.14165503
166	0x3db852b7	0.090001516
167	0xbd5aff2d	-0.05346601
168	0x3d1c3b6e	0.038142614
169	0x3e2bee28	0.16790068
170	0xbd005b6d	-0.03133719
171	0x3d6f9f78	0.05850169
172	0xbd9f6e04	-0.07784656
173	0xbc3323ed	-0.010933858
174	0x3d772497	0.06033763
175	0x3dbb11ae	0.091342315
176	0xbdad72aa	-0.08469136
177	0xbe098497	-0.13429485
178	0x3ddab233	0.1067852
179	0xbcdf4ec5	-0.02725924
180	0xbe347573	-0.17622928
181	0xbb767495	-0.003760611
182	0xbda93a55	-0.08263079
183	0x3e852cd4	0.26010764
184	0xbc815839	-0.015789138
185	0x3dc4aaa2	0.09602858
186	0xbd197a38	-0.037470073
187	0x3e2ac2cb	0.1667587
188	0xbe1db693	-0.15401678
189	0x3e8e7279	0.2782171
190	0x3e3427f9	0.17593373
191	0xbd55f0b1	-0.052231494
192	0x3dedde53	0.116146706
193	0xbe2ad436	-0.16682515
194	0x3dbc3016	0.09188859
195	0xbcb88b7b	-0.022527447
196	0xbe0d7077	-0.13812433
197	0xbe07092e	-0.13187096
198	0x3c535297	0.012898109
199	0x3e89dee1	0.26927856
200	0x3e0fc478	0.1403979
201	0x3e7c6969	0.24649586
202	0xbd040f9a	-0.03224144
203	0xbdbd6c10	-0.09249127
204	0x3e09b185	0.13446625
205	0xbdad8e7e	-0.08474444
206	0xbdca548b	-0.098794065
207	0x3d9511c9	0.07278783
208	0x3d2c5b2b	0.042079132
209	0xbe0fd4bc	-0.14045995
210	0xbd7b9c89	-0.06142858
211	0x3dd4e250	0.10394728
212	0xbddec3b2	-0.1087717
213	0x3c5a7599	0.0133337015
214	0xbe0fd82e	-0.1404731
215	0xbbef89a0	-0.0073101074
216	0x3e00d2cb	0.12580411
217	0x3da14df8	0.078761995
218	0x3e55462a	0.20827547
219	0x3e4a163c	0.19735044
220	0x3bb19cbd	0.005420296
221	0xbc8a57d6	-0.016887587
222	0xbe433e80	-0.1906681
223	0x3c2585bf	0.010102688
224	0x3e4beac4	0.19913775
225	0x3e1395d5	0.14412625
226	0xbe701742	-0.23446372
227	0x3b913dd2	0.0044324184
228	0xbdbe13d6	-0.09281127
229	0x3d79296b	0.060830515
230	0xbd9b69f6	-0.0758857
231	0x3ba1e065	0.00494008
232	0xbbdd3742	-0.006750972
233	0x3ce46a04	0.027882583
234	0x3c2766dc	0.010217395
235	0x3d11e0b1	0.035614673
236	0xbdf0face	-0.11766587
237	0xbe1d870f	-0.15383552
238	0xbda8b589	-0.0823775
239	0xbe069ee1	-0.13146545
240	0x3e5145b8	0.20436752
241	0xbccb4dca	-0.024817366
242	0xbcfd473c	-0.030917756
243	0xbda691c8	-0.08133274
244	0x3d24222a	0.040071644
245	0x3e27af56	0.16375479
246	0x3d9d22c5	0.076726474
247	0xbcb54739	-0.022128688
248	0xbe574ecb	-0.21026151
249	0xbd841697	-0.06449621
250	0x3d13741c	0.035999402
251	0xbc8b8f86	-0.01703621
252	0x3e0c9792	0.13729694
253	0xbdeb111f	-0.11477875
254	0xbde37173	-0.11105623
255	0xbd166fd0	-0.036727726

critic.seq_model.model.0.bias f4 [64]
0	0x3d914f46	0.07095198
1	0x3c9d1b4e	0.019178059
2	0xbe2c307a	-0.16815367
3	0x3dbd00a1	0.092286356
4	0xbd80104f	-0.062531106
5	0xbd2d0d37	-0.04224893
6	0x3e2e9a95	0.17051156
7	0x3e1fa5b9	0.15590562
8	0xbe2e9645	-0.17049511
9	0x3d8f7525	0.070047654
10	0xbe6c72f9	-0.23090734
11	0x3e534a47	0.20633803
12	0x3d9781fb	0.07397839
13	0x3e0eeeff	0.13958357
14	0x3c28de97	0.010306976
15	0xbd23eb2a	-0.04001919
16	0xbe375d3f	-0.17906664
17	0x3d23ce60	0.039991736
18	0xbd7358f6	-0.05941101
19	0x3ddf4682	0.1090212
20	0xbdfdd537	-0.12394183
21	0x3def9d57	0.11699932
22	0xbd9fd584	-0.07804397
23	0xbda9f699	-0.08298988
24	0xbdf5591f	-0.11979889
25	0x3b6ec1de	0.0036431472
26	0xbda10b88	-0.078635275
27	0x3e26da4a	0.16294208
28	0xbdb3791f	-0.087633364
29	0xbd9bc717	-0.07606333
30	0x3dac2a4f	0.08406507
31	0xbdb57d99	-0.088618465
32	0xbe60bed8	-0.21947801
33	0xbdb1e3bb	-0.08686014
34	0x3e87774f	0.26458213
35	0xbca67e83	-0.020323997
36	0xbdca6071	-0.09881676
37	0x3de33858	0.11094731
38	0xbd3393db	-0.043842178
39	0xbdfff408	-0.12497717
40	0xbde087dc	-0.10963413
41	0x3e553bc3	0.20823579
42	0xbe4ef19c	-0.20209354
43	0x3e26909b	0.162661
44	0xbdb68054	-0.089111954
45	0x3e73c874	0.23806936
46	0x3de016dd	0.10941861
47	0x3ded02a5	0.1157277
48	0x3d8dd7ac	0.06925902
49	0x3e3d3ee7	0.18481027
50	0xbddce9f8	-0.107868135
51	0x3d11c854	0.03559144
52	0x3d29aaa8	0.041422516
53	0x3d4359f3	0.047693204
54	0xbda14ce5	-0.078759946
55	0x3e112a83	0.14176373
56	0x3df820f5	0.12115661
57	0xbdea30ec	-0.11435112
58	0xbc3b8125	-0.011444365
59	0x3cda1d45	0.026625285
60	0xbe1f7301	-0.15571214
61	0xbe2ecf89	-0.17071356
62	0xbe22a810	-0.15884423
63	0xbdb6217a	-0.08893104

critic.qf.fc0.weight f4 [256, 64]
0	0xbca8875a	-0.020572353
1	0xbdb3171c	-0.08744642
2	0xbd657019	-0.056015108
3	0x3b8cb0b9	0.004293528
4	0xbb8260cd	-0.0039788247
5	0xbc6c1638	-0.014409594
6	0x3dad8eaa	0.08474477
7	0x3e159a02	0.1460953
8	0xbe6f5d2a	-0.23375383
9	0x3e122b87	0.14274417
10	0x3d8708f8	0.065935075
11	0x3e27f3b2	0.16401556
12	0x3cea9b90	0.028638631
13	0xbd9a08e5	-0.07521228
14	0xbc8f0a58	-0.017460987
15	0xbdd952dc	-0.10611507
16	0x3d3931dd	0.04521357
17	0xbca4f4e5	-0.020136306
18	0x3d55ecab	0.052227657
19	0xbc714dd6	-0.01472803
20	0xbf74774e	-0.95494545
21	0xbdef9ab8	-0.11699432
22	0xbe647cbd	-0.22313209
23	0x3c8d23e7	0.017229034
24	0x3bb5ccf3	0.0055481135
25	0x3d7536c4	0.05986668
26	0x3dfd8376	0.1237859
27	0xbd0b4538	-0.03400156
28	0xbea1d7d5	-0.3160998
29	0xbc96495b	-0.018345525
30	0x3d015f3d	0.031584967
31	0x3d876b89	0.066123076
32	0xbdb515db	-0.08842059
33	0xbe719717	-0.23592792
34	0x3eb2ad74	0.3489796
35	0x3e0dee6e	0.13860485
36	0xbd31d690	-0.043417513
37	0x3e5b34c6	0.2140685
38	0xbde5b0eb	-0.11215385
39	0xbd1676da	-0.03673444
40	0x3eccc499	0.39993742
41	0x3dc204af	0.094735496
42	0xbe8c0153	-0.2734476
43	0x3deab715	0.114607014
44	0xbc4d6a38	-0.012537532
45	0x3d0e24a9	0.03470293
46	0xbc8be906	-0.017078888
47	0x3d4056ac	0.046957657
48	0x3e2f1b26	0.171002
49	0xbdd4142e	-0.103554115
50	0xbb1c70a0	-0.002387084
51	0xbda820b1	-0.082093604
52	0xbdfb1c35	-0.122612394
53	0x3c509498	0.01273074
54	0x3e0a3b51	0.1349919
55	0x3e352db0	0.1769321
56	0x3d38fde7	0.045164015
57	0x3d29205f	0.041290637
58	0x3c7f98d4	0.015600402
59	0x3d6a1bdd	0.05715548
60	0xbe77415a	-0.24146023
61	0xbd7d5598	-0.061849207
62	0xbb54a9f7	-0.003244994
63	0xb9223bea	-0.00015471844
64	0xbcd965dd	-0.02653783
65	0x3b7c8667	0.0038532258
66	0xbcf22800	-0.02956009
67	0xbc470240	-0.012146533
68	0x3dd108fe	0.10206793
69	0xbd69a0a7	-0.057037976
70	0x3da3711a	0.07980557
71	0xbd865216	-0.065586254
72	0x3c583221	0.013195545
73	0x3d91923e	0.071079716
74	0x3dc01889	0.0937968
75	0x3daa8031	0.08325232
76	0xbb22d6b4	-0.0024847211
77	0x3c21fc57	0.009886823
78	0xbd6afcc1	-0.05736995
79	0xbdd3d95a	-0.10344191
80	0xbc818736	-0.015811544
81	0x3c98f3c2	0.01867092
82	0xbd170dc8	-0.036878377
83	0x3cbe1511	0.023203405
84	0xbe0cff81	-0.13769342
85	0xbcddfc58	-0.027097866
86	0x3c83f52e	0.016108122
87	0x3da7e6bf	0.08198308
88	0x3cfbe3bf	0.030748246
89	0xbc22d546	-0.009938544
90	0x3d322dda	0.04350076
91	0x3d776bf4	0.060405686
92	0xbc77425f	-0.015091508
93	0x3d06b1c8	0.03288439
94	0x3d468029	0.048462067
95	0x3df52e8a	0.11971767
96	0x3d6f979b	0.05849419
97	0xbb963584	-0.0045840163
98	0x3d8e92b3	0.069615744
99	0x3d383867	0.044975664
100	0xbd8b6cf5	-0.06807891
101	0xbd3c5648	-0.04598072
102	0xbc5b4330	-0.013382718
103	0xbca892b8	-0.020577773
104	0xbe069633	-0.13143234
105	0x3da32bb1	0.07967318
106	0xbd717550	-0.05894977
107	0xbb896df1	-0.0041940142
108	0xbccdd3a8	-0.02512534
109	0xbd6b36c6	-0.057425283
110	0xbdbf2fef	-0.093353145
111	0xbdcaa9ef	-0.098956935
112	0x3c1d6f26	0.009609019
113	0x3c1ee153	0.009697276
114	0x3d57ef86	0.05271866
115	0xbc375d36	-0.011191657
116	0xbcb4ad21	-0.02205521
117	0xbdbf6031	-0.09344519
118	0x3deb7c68	0.11498338
119	0x3cb2d7d8	0.021831438
120	0xbca0b84f	-0.019619135
121	0x3d3f771c	0.04674445
122	0xbc6c04b1	-0.014405415
123	0xbdbd4178	-0.09241003
124	0xbbbbfd00	-0.005736947
125	0x3d52d9b5	0.051477153
126	0xbdfdff27	-0.12402182
127	0xbdb738ac	-0.08946356
128	0x3dde6de9	0.108608074
129	0xbdc0d4f6	-0.09415619
130	0x3e3ec955	0.1863149
131	0x3e4841d5	0.19556363
132	0xbda3eaa9	-0.08003742
133	0xbc99e116	-0.018784087
134	0x3da3199d	0.0796387
135	0xbd2c684a	-0.042091645
136	0xbe61639d	-0.22010656
137	0xbe4d2281	-0.20032693
138	0xbd1e4f84	-0.03865005
139	0xbc89e2cd	-0.01683178
140	0xbc8d6c07	-0.017263426
141	0xbd0fa3f3	-0.035068464
142	0xbebf11d7	-0.37318298
143	0x3d869db4	0.06573048
144	0xbda7ec1b	-0.081993304
145	0x3e0c5a67	0.13706361
146	0xbda92585	-0.082591094
147	0xbcc62351	-0.024186762
148	0x3ecc420c	0.3989414
149	0x3c48aea3	0.012248668
150	0xbe4afb66	-0.19822463
151	0x3dbc3dd0	0.09191477
152	0x3dbf923a	0.093540624
153	0x3dcac8e7	0.099016
154	0xbcf2caea	-0.029637773
155	0x3d210d18	0.039319128
156	0x3e505f13	0.20348768
157	0x3cd6e287	0.026231064
158	0x3de7a286	0.11310296
159	0x3de9b69e	0.114117846
160	0x3d8744c5	0.066049136
161	0x3dabe75f	0.0839374
162	0xbcf325e6	-0.029681157
163	0x3e604233	0.21900253
164	0x3e48dfd0	0.19616628
165	0xbe71a863	-0.2359939
166	0x3eebb5dd	0.46037188
167	0x3d340e5a	0.043959
168	0x3e49b17a	0.19696608
169	0xbdcc00c5	-0.09961084
170	0x3e1dacee	0.15397999
171	0x3d83fbdd	0.064445235
172	0x3ba58520	0.00505127
173	0xbe6b2a1e	-0.22965285
174	0xbe645453	-0.22297792
175	0xbd108016	-0.035278402
176	0x38c416a2	9.350224e-05
177	0x3dedda9f	0.11613964
178	0x3d0d069c	0.03443013
179	0xbc357a49	-0.011076518
180	0x3bde5ef9	0.006786224
181	0xbe37d0d3	-0.17950754
182	0x3e5236ad	0.2052867
183	0xbddcf671	-0.107891925
184	0xbd828936	-0.06373827
185	0x3d546532	0.05185432
186	0x3daebd08	0.085321486
187	0xbde82b45	-0.11336378
188	0x3ea8546a	0.32876903
189	0x3deb90e9	0.11502249
190	0xbec68773	-0.38775215
191	0x3d418d49	0.04725388
192	0x3dd1965d	0.10233758
193	0xbd360e81	-0.044447426
194	0xbe0ffd70	-0.14061522
195	0x3e626576	0.22109017
196	0xbf144026	-0.5791038
197	0xbdcc6ddb	-0.09981891
198	0x3dabdcfb	0.08391758
199	0xbe064cdb	-0.13115256
200	0xbd97cc81	-0.07412053
201	0xbd4a0956	-0.04932531
202	0xbe455421	-0.19270374
203	0x3e07b8c3	0.13254075
204	0xbdae3c05	-0.085075416
205	0x3d3548f6	0.044259034
206	0x3d35d122	0.044388898
207	0xbd9dec7e	-0.07711123
208	0x3c693520	0.014233857
209	0x3df0c79b	0.11756822
210	0xbe81294d	-0.25226822
211	0x3e1d985c	0.15390152
212	0xbe398067	-0.18115388
213	0x3e2a0371	0.16602875
214	0x3de079b6	0.109607145
215	0xbde27d52	-0.11059059
216	0xbe257fca	-0.16162029
217	0xbdba67bd	-0.09101818
218	0x3e1341bf	0.14380549
219	0x3d52c5d6	0.051458202
220	0x3d929c03	0.07158663
221	0x3d0a4d8e	0.03376537
222	0xbd9b5ea8	-0.075864136
223	0xbdc76255	-0.09735552
224	0xbe471afe	-0.1944389
225	0xbcc4b4fe	-0.024012085
226	0x3e68c75f	0.22732304
227	0x3c9c3098	0.01906614
228	0xbccba218	-0.024857566
229	0x3e87353d	0.26407805
230	0x3da03556	0.07822673
231	0x3c699ae8	0.014258124
232	0xbe486aae	-0.19571945
233	0x3db81aef	0.08989512
234	0xbec57c78	-0.38571525
235	0x3cabef03	0.020987993
236	0x3c7e8870	0.015535459
237	0x3bf25d75	0.007396395
238	0x3d98d69f	0.07462811
239	0x3da2ad96	0.07943265
240	0xbde660b3	-0.11248913
241	0x3d912d8e	0.07088767
242	0x3ca882f4	0.020570256
243	0xbd34fda6	-0.04418721
244	0xbe72f695	-0.23726876
245	0xbc959cf2	-0.018263314
246	0x3dccd7a3	0.10002067
247	0x3d8ae14c	0.06781253
248	0xbdfc843e	-0.12329911
249	0x3d311db1	0.043241207
250	0x39c2d649	0.00037162218
251	0xbe133ce4	-0.14378697
252	0xbf38013a	-0.7187687
253	0xbdeb2d0a	-0.114832
254	0xbd8d96a0	-0.06913495
255	0xbda3130b	-0.079626165

critic.qf.fc0.bias f4 [256]
0	0x3dddd26d	0.10831151
1	0x3e371078	0.17877376
2	0xbbad04db	-0.00528012
3	0x3dc54602	0.096324936
4	0x3e511d95	0.20421441
5	0x3e080daf	0.1328647
6	0x3d2e59bb	0.042566042
7	0x3de9c957	0.11415356
8	0xbcbc2c05	-0.022970209
9	0x3e055d47	0.13023864
10	0x3e3a1ca3	0.18174987
11	0x3def8d9e	0.11696933
12	0x3d7dbdae	0.06194847
13	0x3dd9b62e	0.10630451
14	0x3e03f5a6	0.12886676
15	0x3d291b61	0.041285876
16	0x3cba6ce1	0.022756996
17	0x3dfbdee3	0.12298372
18	0x3e4b5429	0.19856323
19	0x3e580cd3	0.21098642
20	0xba8e8757	-0.0010874075
21	0x3dd3dfd5	0.10345427
22	0x3e5a46d3	0.2131608
23	0x3de7f2ea	0.11325629
24	0x3e396e38	0.18108451
25	0x3e2c9f54	0.16857654
26	0x3e4591c4	0.19293886
27	0x3e0e98a9	0.13925423
28	0x3d957047	0.07296806
29	0x3e644f5b	0.22295897
30	0x3e113d26	0.14183483
31	0x3e44f895	0.19235452
32	0x3d70c6d2	0.05878336
33	0x3e032014	0.12805206
34	0x3e3724db	0.17885153
35	0x3ce96dad	0.02849468
36	0x3d5bcaad	0.053660084
37	0x3e41afa1	0.18914653
38	0x3d95e972	0.07319917
39	0x3e5b9ff1	0.21447732
40	0x3d93f923	0.072252534
41	0x3d88e33d	0.06683967
42	0x3df41dcc	0.11919746
43	0x3e113bee	0.14183018
44	0x3de39689	0.11112697
45	0x3e26c360	0.16285467
46	0x3e489e21	0.19591571
47	0x3d72099b	0.05909119
48	0x3ddf1655	0.10892931
49	0x3e5e2bf4	0.21696454
50	0x3dc05f7d	0.09393213
51	0x3e341ba3	0.17588668
52	0x3e19fad5	0.15037091
53	0x3e2927a4	0.16519028
54	0x3e722e30	0.23650432
55	0x3de1ed04	0.11031535
56	0x3daa6189	0.083193846
57	0x3dcf28e0	0.10115218
58	0x3e1695ce	0.14705583
59	0x3db217d6	0.086959526
60	0x3e0bed55	0.13664754
61	0x3db2362f	0.08701741
62	0x3e307573	0.17232303
63	0xbb7fad8f	-0.003901336
64	0x3cc2c975	0.023777703
65	0x3e02d18b	0.12775247
66	0x3da91a7d	0.08257005
67	0x3c571a08	0.013128765
68	0x3d83498c	0.06410512
69	0x3e047d85	0.12938507
70	0x3e0178c5	0.12643726
71	0x3e04c01b	0.12963907
72	0x3e3d15d5	0.1846536
73	0x3e4e3397	0.20136867
74	0x3ddfeebc	0.10934207
75	0x3e21cfa0	0.15801859
76	0x3e5bba27	0.2145773
77	0x3e278ca1	0.1636224
78	0x3e0f41eb	0.1398999
79	0x3dc6fc39	0.097160764
80	0x3e07891c	0.13235897
81	0x3dca7bf3	0.09886923
82	0xbcf581af	-0.029969065
83	0x3d99223c	0.07477233
84	0x3da340e3	0.079713605
85	0x3e13cb9b	0.14433138
86	0x3df068bb	0.11738726
87	0x3e167e91	0.14696719
88	0x3d9eabcb	0.07747611
89	0x3daee9d3	0.08540692
90	0x3e1255cb	0.1429054
91	0x3d7608a9	0.060066853
92	0x3d484c73	0.048901033
93	0x3d474a19	0.04865465
94	0x3e25c16f	0.1618707
95	0x3dd082e6	0.10181217
96	0x3d9ccd03	0.076562904
97	0x3e5c19fe	0.2149429
98	0x3e059dd8	0.13048494
99	0x3da964a3	0.08271148
100	0x3e220fc3	0.15826325
101	0x3e37941f	0.17927597
102	0x3e4be38b	0.1991102
103	0x3dc8eea8	0.09811145
104	0x3dc66288	0.09686762
105	0x3dbb82ed	0.091558315
106	0x3d8cf59a	0.06882782
107	0x3e71cec3	0.2361403
108	0x3d1e96f3	0.038718175
109	0x3e79ebdc	0.2440638
110	0x3ce4775d	0.027888948
111	0x3dff1dac	0.12456831
112	0x3cb545db	0.022128036
113	0x3e78d282	0.24299052
114	0x3dc9ad9a	0.09847565
115	0x3e70abb8	0.23503006
116	0x3e39c813	0.18142729
117	0x3df5fd7a	0.120112374
118	0x3dfee013	0.124450825
119	0x3e3a2389	0.18177618
120	0x3de0ac39	0.10970349
121	0x3e387416	0.18013033
122	0x3e649af7	0.2232474
123	0x3e531aff	0.20615767
124	0x3e14a781	0.14517023
125	0x3dad046e	0.084481105
126	0x3db74d3a	0.08950277
127	0x3d2d96d8	0.042380184
128	0x3e1b3def	0.15160345
129	0x3e161f8f	0.14660476
130	0x3da77169	0.08175928
131	0x3e026417	0.12733494
132	0x3dc2c44c	0.09510097
133	0x3daac44b	0.08338221
134	0x3db55cee	0.088556156
135	0x3e0609bd	0.13089652
136	0x3d992c5b	0.07479163
137	0x3e5073cc	0.20356673
138	0x3e2767fa	0.16348258
139	0x3e1b8fb1	0.15191533
140	0x3e02192d	0.12704916
141	0x3e435375	0.19074805
142	0x3df22bb0	0.11824739
143	0x3d6d0088	0.057861835
144	0x3e15019e	0.14551398
145	0x3e2c61f8	0.16834247
146	0x3de49476	0.11161129
147	0x3e4b84a0	0.19874811
148	0x3e3010cf	0.17193912
149	0x3e03611d	0.12830015
150	0x3de0c9db	0.10976001
151	0x3debce3d	0.11513946
152	0x3d295215	0.041338045
153	0x3df3ced0	0.11904681
154	0x3e0bd759	0.13656367
155	0x3e0fc040	0.14038181
156	0x3e613c6b	0.21995704
157	0x3e3359ee	0.17514774
158	0x3e3ac40a	0.18238845
159	0x3dde5076	0.108551905
160	0x3e4624c8	0.19349968
161	0x3dd50a19	0.104023166
162	0x3e56cae3	0.20975833
163	0x3dcf3d3d	0.10119102
164	0x3dfe504b	0.124176584
165	0x3e3ef97c	0.18649858
166	0x3e03724c	0.1283657
167	0x3e4219f5	0.18955214
168	0x3c6bbbb3	0.014388013
169	0x3e2b677c	0.16738695
170	0x3e464ee7	0.19366036
171	0x3d9fe4a5	0.07807282
172	0x3e366c8a	0.17814842
173	0x3bcad843	0.006190331
174	0x3e1f3c21	0.15550281
175	0x3e068aad	0.13138838
176	0x3dd90593	0.10596766
177	0x3e5c59d3	0.2151864
178	0x3e7714af	0.24128984
179	0x3e073842	0.13205054
180	0x3e40c55d	0.18825288
181	0x3de3e1a4	0.11127022
182	0x3e0b3039	0.13592614
183	0x3de79369	0.11307413
184	0x3e13541b	0.14387552
185	0x3d256ed2	0.04038889
186	0x3dca4b98	0.098776996
187	0x3deafafe	0.11473654
188	0x3e6d3df5	0.23168166
189	0x3e625725	0.22103556
190	0x3e2e7598	0.17037046
191	0x3dbfe98f	0.0937072
192	0x3d89c935	0.0672783
193	0x3e580f19	0.2109951
194	0xbc9452ac	-0.018105827
195	0x3cb71879	0.022350537
196	0x3e157db0	0.14598727
197	0x3d9cb0d6	0.07650916
198	0x3e347bd7	0.17625366
199	0x3dd97a1e	0.10618995
200	0x3e01ddb3	0.12682228
201	0x3de4720b	0.111545645
202	0x3da7dde8	0.08196622
203	0x3e2347e1	0.15945388
204	0x3e135a58	0.14389932
205	0x3bdf403a	0.0068130763
206	0x3e32f061	0.1747451
207	0x3e0b684a	0.13614002
208	0x3d186c5b	0.03721271
209	0x3c86b204	0.016442306
210	0x3e15aa02	0.14615634
211	0x3d67f9b7	0.05663463
212	0x3ca06676	0.019580107
213	0x3d394b64	0.045237914
214	0x3df51aca	0.11968
215	0x3e36c4bb	0.17848484
216	0x3dff8353	0.1247622
217	0x3e291f8e	0.16515943
218	0x3ddaddc5	0.106868304
219	0x3dc18532	0.09449233
220	0x3db62e97	0.08895605
221	0x3e2a11d0	0.16608357
222	0x3e6a2135	0.2286423
223	0x3e302d60	0.17204809
224	0x3e3e7c31	0.18602063
225	0x3dc03450	0.09384978
226	0x3dfd5691	0.12370027
227	0x3e5b8478	0.21437252
228	0x3e20cf3d	0.15704055
229	0x3e1b6e5d	0.15178819
230	0x3e22c074	0.15893728
231	0x3e366b7a	0.17814437
232	0x3e20aad9	0.15690173
233	0x3e19dd0d	0.1502573
234	0x3db60e5e	0.08889459
235	0x3db63612	0.08897032
236	0x3cc1a176	0.02363656
237	0x3e0d6281	0.13807108
238	0x3c4d7e3a	0.012542302
239	0x3e5fdc88	0.2186147
240	0x3dd25364	0.10269812
241	0x3d2bfb2c	0.041987583
242	0x3e179de7	0.14806329
243	0x3e10f5d5	0.14156277
244	0x3e41c977	0.18924509
245	0x3da02110	0.07818806
246	0xbca5fbc4	-0.020261653
247	0x3d68b0fb	0.056809407
248	0x3df9bd79	0.12194342
249	0x3e0070ab	0.1254298
250	0x3e3f9f07	0.18713008
251	0x3e521b37	0.20518194
252	0x3dbba090	0.09161484
253	0x3db215f0	0.086955905
254	0x3e0f6ded	0.14006777
255	0x3e1e663e	0.1546869

critic.qf.fc1.weight f4 [256, 256]
0	0x3db414a9	0.08793003
1	0x3d301f3d	0.04299854
2	0x3cc7e8bf	0.024402974
3	0xbd2ff1f0	-0.04295534
4	0x3e02cc27	0.1277319
5	0x3d394a41	0.04523683
6	0x3c805421	0.015665116
7	0x3e0e730b	0.13911073
8	0x3d0f224d	0.03494482
9	0xbc09e27b	-0.008415814
10	0xbe4ee728	-0.20205367
11	0x3db99dd2	0.09063305
12	0xbc459707	-0.0120599335
13	0x3d26ef70	0.04075569
14	0x3c3c3266	0.011486625
15	0xbd87e7b1	-0.066359885
16	0xbd80e0e9	-0.06292898
17	0xbbf1ba77	-0.0073769647
18	0x3dd3f7fa	0.10350032
19	0xbe0c2b92	-0.13688496
20	0xbde5596d	-0.11198697
21	0xbe06d926	-0.13168773
22	0x3d39f231	0.045396987
23	0xbdf02721	-0.11726213
24	0x3cd21311	0.025643857
25	0xbe625722	-0.22103551
26	0xbdc2ff99	-0.09521408
27	0xbcf766ff	-0.03020048
28	0xbd167856	-0.036735855
29	0x3e200778	0.15627849
30	0x3c80dd9d	0.015730673
31	0xbb4bc7df	-0.0031094474
32	0xbddad0e7	-0.10684376
33	0xbe324326	-0.17408428
34	0x3da346eb	0.07972511
35	0xbdcc17d3	-0.099654816
36	0x3d4086a7	0.047003414
37	0x3bf3b608	0.0074374713
38	0x3c5fc501	0.013657809
39	0x3d69bf6f	0.05706733
40	0xbb4dce9f	-0.0031403673
41	0x3d0df261	0.03465498
42	0x3ceb2731	0.028705211
43	0xbde015bb	-0.10941645
44	0x3c98abf2	0.018636677
45	0xbe1b3073	-0.151552
46	0xbdc0ae69	-0.09408266
47	0xbdf3b1cf	-0.11899149
48	0xbc66e49e	-0.0140925925
49	0xbd1f030f	-0.038821276
50	0xbda8cc51	-0.08242095
51	0xbdc6a9b2	-0.097003356
52	0x3d81447b	0.0631189
53	0x3da1376b	0.07871898
54	0xbcfc2c57	-0.030782862
55	0xbd6c46d5	-0.05768474
56	0x3d957465	0.07297591
57	0x3e05136a	0.12995687
58	0x3d9c7698	0.076398075
59	0xbd6ac009	-0.057312045
60	0x3cb06145	0.021530757
61	0xbce9836a	-0.028505046
62	0x3d7f91d3	0.06239493
63	0x3c21a984	0.009867076
64	0xbd025106	-0.03181555
65	0x3d5aed21	0.0534488
66	0x3e095b49	0.13413729
67	0x3c0589e6	0.008150553
68	0xbd7e3952	-0.062066384
69	0x3cb47ac5	0.022031197
70	0x3da42c68	0.08016282
71	0xbda311f8	-0.07962412
72	0x3d766d6a	0.06016294
73	0x3df416c8	0.11918408
74	0xbdaee790	-0.08540261
75	0x3d3832dd	0.044970382
76	0x3da67df4	0.081294924
77	0xbdbb1469	-0.09134752
78	0xbb9b0db6	-0.004731859
79	0x3c91370d	0.017726446
80	0xbd453083	-0.048141968
81	0xbd58351b	-0.05278502
82	0x3d094922	0.03351701
83	0x3d5f89db	0.05457483
84	0xbd7c66b6	-0.06162139
85	0xbdc89746	-0.09794478
86	0x3e0d46f9	0.13796605
87	0xbdf228cc	-0.11824188
88	0xbe932d56	-0.28745526
89	0x3d8f6b1d	0.07002852
90	0xbdd543fe	-0.10413359
91	0xbdd3ff94	-0.10351482
92	0xbd180852	-0.03711731
93	0xbc1851bc	-0.009296831
94	0xbc935226	-0.017983507
95	0xbe3046ce	-0.1721451
96	0xbd0e7ab0	-0.034784973
97	0xbdf5a010	-0.1199342
98	0xbe2684d9	-0.16261615
99	0xbd0196c8	-0.031637937
100	0x3d81fd5c	0.063471526
101	0xbcb0645b	-0.021532228
102	0x3d00a668	0.031408697
103	0xbd9e51b5	-0.07730428
104	0xbc5c97a8	-0.013463892
105	0xbd6a5739	-0.05721209
106	0x3d9a145e	0.07523416
107	0x3bdaddea	0.0066792862
108	0x3d149908	0.036278754
109	0x3df8d6fc	0.1215038
110	0x3dd50fb2	0.10403384
111	0x3e02fa9e	0.12790915
112	0x3d8f71c6	0.070041224
113	0x3d3b8b78	0.045787305
114	0x3d64d6b8	0.055868834
115	0x3cf8bbf6	0.030363064
116	0x3bf80315	0.007568727
117	0x3dd9900f	0.1062318
118	0xbe529728	-0.20565474
119	0x3e04b8a7	0.12961064
120	0x3c9d4656	0.019198578
121	0xbdd515d0	-0.10404551
122	0xbe236a69	-0.15958561
123	0x3d6c04db	0.057621818
124	0xbc8a1767	-0.016856862
125	0xbd45df48	-0.04830864
126	0xbc2aff73	-0.01043688
127	0xbce2530a	-0.027627487
128	0x3d9c142c	0.07621035
129	0xbcc2e242	-0.023789529
130	0xbdfb4861	-0.122696646
131	0x3cbbeaac	0.022939049
132	0xbd20d444	-0.039264932
133	0x3dc274ef	0.094949596
134	0xbda4c799	-0.08045883
135	0x3d42d971	0.04757065
136	0x3c771bbe	0.015082298
137	0xbd2ec5a9	-0.042668972
138	0x3d2ef378	0.04271266
139	0xbdb68e87	-0.08913904
140	0x3d7917e8	0.060813814
141	0x3d8a4cf9	0.067529626
142	0xbd979466	-0.07401352
143	0x3db96649	0.090527125
144	0xbd87681d	-0.06611655
145	0x3d2bb897	0.041924085
146	0xbc4253e1	-0.011860819
147	0xbdbae617	-0.091259174
148	0xbdfca6eb	-0.123365246
149	0xbe38eae0	-0.18058348
150	0xbd5d2526	-0.053990506
151	0xbd1e378b	-0.03862719
152	0xbd8e7576	-0.06955998
153	0xbe4ed70e	-0.20199224
154	0x3c7462b7	0.014916114
155	0x3df024d0	0.117257714
156	0x3d451400	0.048114777
157	0xbd6926aa	-0.05692164
158	0x3d1aef5d	0.03782593
159	0x3c86ac40	0.016439557
160	0xbdd187d8	-0.10230988
161	0xbe6309ce	-0.22171709
162	0xbd49a8dd	-0.049233306
163	0xbd6ffd51	-0.05859119
164	0xbca4fc59	-0.02013986
165	0xbc866585	-0.01640583
166	0x3d07fa1f	0.03319752
167	0xbdb24ea1	-0.087064035
168	0x3ce6f61c	0.028193526
169	0x3dc351ea	0.09537108
170	0x3cf6a3e7	0.030107452
171	0xbc1567f3	-0.009119022
172	0xbdab49d9	-0.08363695
173	0xbdba2385	-0.09088806
174	0x3d623cc7	0.055233743
175	0x3b04605f	0.0020199043
176	0xbd941275	-0.07230083
177	0x3e0c5efe	0.13708112
178	0x3dd73730	0.10508573
179	0x3ca704a7	0.02038796
180	0x3ddc524f	0.107578866
181	0x3ce21a27	0.027600361
182	0x3dbb8d7b	0.09157845
183	0xbd145605	-0.036214847
184	0x3caf152a	0.021372396
185	0x3cb9c9fd	0.022679323
186	0x3d66ff87	0.056396034
187	0x3d07c9d2	0.033151455
188	0xbd5e57be	-0.054282896
189	0x3dc715eb	0.097209774
190	0x3d3a7e2b	0.04553048
191	0x3db75b98	0.08953017
192	0x3dc157c1	0.09440566
193	0x3de31dcd	0.110896684
194	0x3c4ed810	0.0126247555
195	0xbae2ed51	-0.0017313157
196	0x3d90a633	0.0706295
197	0xbdd55f66	-0.104185864
198	0x3d8567f1	0.06513966
199	0xba9ebf19	-0.0012111395
200	0xbcf48033	-0.029846286
201	0xbd3855ea	-0.04500381
202	0xbd74fd14	-0.059811667
203	0x3d6c7791	0.057731215
204	0xbdb3babe	-0.087758526
205	0xbe5c7bb7	-0.21531568
206	0x3d89d7b6	0.06730597
207	0xbbb0b2f8	-0.0053924285
208	0x3d0bbb27	0.03411403
209	0xbe1d4aae	-0.1536052
210	0xbe3a742e	-0.18208382
211	0xbd11d15b	-0.035600048
212	0x3c8e2fdd	0.017356807
213	0x3e1ab86b	0.15109412
214	0x3de070d4	0.1095902
215	0xbe264c66	-0.16240081
216	0xbddc0827	-0.107437424
217	0xbc9edb22	-0.0193916
218	0xbc8b4f38	-0.017005548
219	0xbdbb6125	-0.09149388
220	0xbd6f78da	-0.058464862
221	0xbe7ebf38	-0.24877632
222	0xbdc3ae2d	-0.09554706
223	0xbd07e51c	-0.03317748
224	0xbd27fcc1	-0.04101253
225	0x3ba5c58c	0.00505895
226	0x3c80e445	0.015733847
227	0x3c2b584b	0.010458062
228	0xbc6aa500	-0.014321566
229	0xbde649d3	-0.112445496
230	0x3cbe31ac	0.023217045
231	0xbdc90c6b	-0.09816822
232	0x3dd9470d	0.10609255
233	0xbd26d541	-0.04073072
234	0xbe04e88a	-0.12979332
235	0x3dacbd79	0.084345765
236	0xbd0a5be8	-0.033779055
237	0xbdfb18f3	-0.12260618
238	0x3d968763	0.07350042
239	0xbe44321f	-0.19159745
240	0x3c8f0d33	0.017462349
241	0x3d48fce6	0.049069308
242	0xbd9e4781	-0.07728482
243	0xbd019c11	-0.031642977
244	0xbdafe945	-0.085894145
245	0x3cccca4c	0.024998806
246	0x3d92a8ae	0.07161079
247	0xbc833980	-0.01601863
248	0x3db0d092	0.08633532
249	0xbe6ba68f	-0.23012756
250	0x3cf6b608	0.030116096
251	0x3cdb682f	0.026783077
252	0xbe7c2353	-0.2462285
253	0x3decc2f9	0.115606256
254	0x3c1faa07	0.0097451275
255	0xbcf8a5b2	-0.030352447

critic.qf.fc1.bias f4 [256]
0	0x3e791c47	0.24327193
1	0x3e2ecac7	0.17069541
2	0x3e34c5b3	0.17653541
3	0x3dac1b33	0.08403625
4	0xbd06d152	-0.032914467
5	0x3e0503ad	0.12989683
6	0x3e1a8e71	0.150934
7	0x3e2fce59	0.17168559
8	0xbd2786c3	-0.040900003
9	0x3e1c6bec	0.15275544
10	0xbbab1aec	-0.005221715
11	0x3e3b74b8	0.18306243
12	0x3dc52973	0.096270464
13	0x3df2d340	0.11856699
14	0x3e920f46	0.28527278
15	0x3e17a261	0.14808036
16	0x3eaa84f2	0.33304554
17	0x3e80c46f	0.25149867
18	0x3e7d4e66	0.24736938
19	0x3e04ed70	0.129812
20	0x3e1e9ddb	0.15489905
21	0x3d01be4e	0.03167563
22	0x3e20d3a7	0.15705739
23	0xbc20deef	-0.0098187765
24	0x3d708657	0.058721866
25	0x3e3b1f42	0.18273643
26	0x3e76768e	0.24068663
27	0x3ddf00b1	0.10888804
28	0x3e076bad	0.13224669
29	0x3e2db5ed	0.1696393
30	0x3e5cea20	0.21573687
31	0x3e96a554	0.2942301
32	0x3e4d195d	0.20029207
33	0x3e4c5755	0.1995519
34	0x3dbb9062	0.09158398
35	0x3e216310	0.15760446
36	0x3e1a9378	0.15095317
37	0x3e4b5d12	0.19859722
38	0x3e808227	0.25099298
39	0x3e37ca30	0.17948222
40	0xbc96e20f	-0.01841834
41	0x3e577ebc	0.21044439
42	0x3e286471	0.16444565
43	0x3d4588fa	0.048226334
44	0x3e4e9e84	0.20177656
45	0x3df80407	0.12110143
46	0x3e6273f8	0.22114551
47	0x3d6b4848	0.05744198
48	0x3e94041c	0.28909385
49	0x3e3eaf35	0.18621524
50	0x3e3b860b	0.18312852
51	0x3dd725b3	0.105052374
52	0x3e895843	0.2682515
53	0x3e1419bb	0.1446294
54	0x3dbfe820	0.09370446
55	0x3e44f3ad	0.1923358
56	0x3e1ccf8f	0.15313552
57	0x3e13d0cc	0.14435118
58	0x3e00115f	0.12506627
59	0x3e5bc8db	0.21463339
60	0x3e0efb77	0.13963114
61	0x3e40e400	0.18836975
62	0x3e2ece83	0.17070965
63	0x3e0b6ec2	0.1361647
64	0x3e4c868a	0.19973198
65	0x3e59aec7	0.21258079
66	0x3e238c05	0.15971382
67	0x3e678dfd	0.22612758
68	0x3dc34335	0.09534303
69	0x3d857e89	0.06518275
70	0x3eca0999	0.39460447
71	0x3e1819c4	0.14853579
72	0x3d8af105	0.06784252
73	0x3e83acc1	0.25717738
74	0x3e96b87c	0.29437625
75	0x3e2d8238	0.16944206
76	0x3e4bbe54	0.19896823
77	0x3e0d8449	0.13819994
78	0x3e2015f6	0.15633377
79	0x3e703d84	0.23460966
80	0x3e510404	0.20411688
81	0x3e74b19f	0.23895882
82	0x3db741b6	0.0894808
83	0x3e829165	0.25501552
84	0x3e13a680	0.14418983
85	0x3e1acb3a	0.15116587
86	0x3e0845a9	0.13307823
87	0x3e48da21	0.1961446
88	0x3c844ec6	0.016150843
89	0x3e69cdad	0.22832365
90	0x3e2683ec	0.16261262
91	0x3e731152	0.23737076
92	0x3e8b81e9	0.2724755
93	0x3e0039ce	0.1252205
94	0x3de072da	0.10959406
95	0x3e6a539b	0.22883455
96	0x3e186380	0.14881706
97	0x3e060c7c	0.130907
98	0x3e719e16	0.23595461
99	0x3e0eb40c	0.1393587
100	0x3e83a418	0.2571113
101	0x3e4659bc	0.19370168
102	0x3ea02857	0.31280777
103	0x3e48ff87	0.19628726
104	0x3e44f9ba	0.19235888
105	0x3dfe0d38	0.12404865
106	0xbcf7c7e0	-0.030246675
107	0x3e3b4687	0.18288623
108	0x3e3c66bf	0.1839857
109	0x3e663b34	0.22483522
110	0x3e752e54	0.23943454
111	0x3e04d83c	0.12973112
112	0x3e4f0ca1	0.20219661
113	0x3e12c643	0.14333443
114	0x3e17f287	0.1483861
115	0x3deade77	0.11468213
116	0x3d0f3383	0.034961235
117	0x3e3203a2	0.17384198
118	0x3e61fb61	0.2206855
119	0x3dafdb6c	0.08586773
120	0x3dc1d546	0.09464507
121	0x3e68e04f	0.22741817
122	0x3e898238	0.26857162
123	0x3e12b099	0.14325179
124	0x3e4671c6	0.19379339
125	0x3d72912f	0.05922049
126	0x3e4908c6	0.19632253
127	0x3e5c6ca9	0.21525826
128	0x3e78f731	0.24313046
129	0x3e3aba8d	0.18235226
130	0x3c8814b8	0.016611442
131	0x3daefe4b	0.08544596
132	0x3e5354c3	0.20637803
133	0x3e8c4f58	0.27404284
134	0x3e17b611	0.14815547
135	0x3e589771	0.2115152
136	0x3e6dfabd	0.2324018
137	0x3e628351	0.22120406
138	0x3da687de	0.08131383
139	0x3e803c07	0.25045797
140	0x3e85666a	0.26054698
141	0x3e239031	0.15972973
142	0x3e9c67d4	0.30547965
143	0x3e939c6c	0.28830278
144	0x3e5308f8	0.2060889
145	0x3e5e2f9e	0.21697852
146	0x3c3f5ef2	0.011680352
147	0x3e8abfc1	0.27099422
148	0x3e54538c	0.20734996
149	0x3dae1b37	0.085012846
150	0x3dfea46f	0.12433707
151	0x3e566115	0.20935471
152	0x3d6b8db2	0.057508178
153	0x3eb7bf3f	0.35888097
154	0x3e5b0248	0.21387589
155	0x3e443654	0.1916135
156	0x3d8cdbae	0.06877838
157	0x3d9f8a56	0.07790057
158	0x3e780d10	0.24223733
159	0x3d98160e	0.074260816
160	0x3e283d4d	0.16429634
161	0x3e38a1f2	0.18030527
162	0x3e1aa7a2	0.1510301
163	0x3e6c12ae	0.23054
164	0x3e55aa43	0.20865731
165	0x3e697bf8	0.22801197
166	0x3de88baa	0.11354764
167	0x3e70e113	0.23523359
168	0x3e76205a	0.24035779
169	0x3e33eb4c	0.17570227
170	0x3e3c1e76	0.18370995
171	0x3e37e06c	0.17956704
172	0x3e8474dd	0.2587041
173	0x3e80f522	0.25187021
174	0x3da2700d	0.07931528
175	0x3dc1526f	0.09439551
176	0x3e2699bd	0.16269584
177	0x3e478b0f	0.1948664
178	0x3e8a9f05	0.27074447
179	0x3db1778b	0.08665379
180	0x3c444734	0.011979867
181	0x3e6ab847	0.22921859
182	0x3e8782b4	0.26466906
183	0x3e570fea	0.21002164
184	0x3de74f1b	0.11294385
185	0x3ddc0f6a	0.107451275
186	0x3e4775fc	0.19478601
187	0x3e221b8e	0.15830824
188	0x3dfec7dd	0.12440465
189	0x3e465c84	0.1937123
190	0x3e0b05ee	0.13576481
191	0x3dba9af8	0.09111589
192	0x3e40f01c	0.18841594
193	0x3e931295	0.28725114
194	0x3e529732	0.20565489
195	0x3c504d31	0.012713716
196	0x3e49bc03	0.19700627
197	0x3e787908	0.2426492
198	0x3e351bf4	0.17686445
199	0x3e8abfb9	0.27099398
200	0x3e289f64	0.16467053
201	0x3e3c8878	0.18411434
202	0xbd98fde1	-0.074702986
203	0x3e3dfcd4	0.18553478
204	0x3e18c5b2	0.14919165
205	0x3eaac0cc	0.33350217
206	0x3e4bfd44	0.19920832
207	0x3ddd9954	0.10820261
208	0x3c21f1a3	0.009884271
209	0x3d73b1c9	0.05949572
210	0x3e51252e	0.20424339
211	0x3df0a3fc	0.117500275
212	0x3cfe85d4	0.031069674
213	0x3e441c8c	0.19151515
214	0x3df7b90a	0.1209584
215	0x3e176192	0.14783314
216	0x3d81bc36	0.063347265
217	0x3e63515c	0.22199005
218	0x3e82c1b6	0.25538415
219	0x3e83084c	0.25592268
220	0x3e34f86c	0.1767289
221	0x3e23a5d2	0.15981224
222	0x3dd4b100	0.103853226
223	0x3e32399f	0.17404793
224	0x3e64b741	0.22335531
225	0x3e69f021	0.22845508
226	0x3e836cca	0.25668937
227	0xbb80f180	-0.003935039
228	0x3dbec2d5	0.09314505
229	0x3e491eb8	0.19640625
230	0x3ea9a1e2	0.3313132
231	0x3db46740	0.08808756
232	0x3d550e4e	0.052015595
233	0x3ea0e969	0.31428078
234	0x3e1aff2f	0.15136407
235	0x3e0d5dbc	0.13805288
236	0x3e187401	0.14888002
237	0x3e304e1c	0.17217296
238	0x3e3d15c2	0.18465331
239	0x3d8c4543	0.06849148
240	0x3db3ad53	0.08773293
241	0x3e37e5c5	0.17958744
242	0x3e441681	0.1914921
243	0x3e89e0af	0.26929232
244	0x3d714cee	0.058911256
245	0x3d8a5306	0.06754117
246	0x3e2aca80	0.1667881
247	0x3e48f17c	0.19623369
248	0x3e40382a	0.18771425
249	0x3e573b37	0.21018682
250	0x3e1b2d9d	0.15154119
251	0x3e426830	0.18985057
252	0x3cb24536	0.021761518
253	0x3e39b169	0.18134083
254	0x3e0edee5	0.13952215
255	0x3e7cfad9	0.24705066
