logs/mini-cage/100/mlp/2025-04-27-11:33:29/seed-1/save/agent_003010_perf-103.583.pt (torch, 801810 bytes, 12 tensors)

qf1.fc0.weight f4 [256, 78]
-0.026254736 0.035720803 0.038177982 0.031066 -0.010953048 0.01635231 -0.032822464 -0.05220872
-0.061867546 0.04504797 -0.05943619 -0.060172897 -0.0015919528 0.009701036 0.007504793 -0.038799934
-0.05744867 -0.02369412 0.0117081385 0.04867652 -0.042872585 -0.04950528 0.027795577 -0.042332612
0.016494319 -0.023827232 -0.024520528 0.0005864203 -0.037598655 0.02090266 0.004602913 0.016450783
-0.030968996 -0.057403788 -0.048999276 0.034006752 -0.012939506 0.04592918 -0.074957654 -0.04485352
0.004322637 -0.03243976 -0.029074227 -0.0013376772 -0.029730888 -0.022133954 0.0049585807 0.003050372
0.035329152 0.056313008 -0.040261548 0.009537838 -0.0060415044 -0.0013469482 -0.05749841 -0.036005605
-0.014276363 0.037415832 0.021313414 -0.03744403 0.033229683 -0.028010916 0.0061936034 -0.01665862
-0.01576433 0.009524686 0.047487844 -0.04460717 0.025482085 -0.031286463 -0.034693718 -0.054100968
-0.007554286 0.04743813 0.06844034 -0.03859421 0.05899096 -0.022229789 0.028057687 -0.056573763
-0.006437889 0.052442126 0.037418745 0.04904215 0.012680291 -0.021909952 -0.05320929 0.010656121
0.0137083875 -0.053387005 -0.0145504875 0.029964086 -0.045873027 -0.06623331 0.0110235065 0.059510395
0.00577302 0.008764826 0.03568367 -0.037635274 0.03585533 -0.0541875 -0.055503108 -0.008276939
-0.034259852 0.053179108 -0.0018405666 0.05304632 0.036178734 -0.04661294 0.03060373 0.047064073
-0.08312419 -0.013272492 -0.008366085 -0.042626534 0.0052901423 0.053049453 -0.0040762774 0.05651463
0.027290964 0.016761504 -0.059509784 -0.059439763 0.021122463 -0.00082912296 -0.041220922 -0.032508403
0.04585083 -0.010740742 -0.015250176 -0.000580837 -0.024076845 0.03896936 0.020083517 0.058993675
0.05263023 -0.027628774 -0.07655955 0.036484823 -0.040922917 -0.049322426 0.03705744 0.028016469
0.00319723 0.029981295 0.017383968 -0.04409489 0.052211754 -0.051679604 -0.041611694 0.00074584037
-0.040524557 -0.006986602 0.03052195 0.033945568 -0.050237805 0.038571477 0.036816746 -0.026245952
0.05129752 -0.013263918 0.017938115 0.005958587 0.022350386 0.025917483 -0.06567772 0.0066137486
-0.07369673 -0.040969137 -0.05214481 0.04755384 -0.04852566 -0.047277413 0.011341805 -0.037699535
-0.060616955 -0.03118129 0.03837722 -0.06219007 0.026586711 0.041307047 0.03110254 0.015748255
0.007413768 0.026797365 -0.008969293 -0.007028182 0.01929164 0.02191569 0.024848826 0.039051592
0.01969687 -0.052895293 -0.02951281 -0.017211704 -0.031091066 -0.016434073 -0.046150237 0.01344955
-0.07470408 0.03796389 -0.067934565 0.011235394 0.04395019 0.03835229 -0.013426775 -0.049429648
0.060813136 -0.0356546 -0.031366 0.0034634557 -0.0019230098 0.052898414 -0.040995345 -0.005887242
-0.06500886 0.0004473887 -0.033390936 -0.064197525 -0.046245243 0.03717564 0.019793835 -0.020822098
0.018136915 -0.023554027 0.05516018 0.036216646 0.028449925 -0.062279716 -0.047774103 -0.018938575
0.059801467 -0.059161354 -0.030865207 -0.025257938 0.035003383 0.017563008 -0.029809084 -0.046383977
0.016209807 -0.058300644 -0.0168469 -0.049449977 0.016247371 -0.07594657 -0.0036670377 0.03557699
0.044359297 -0.02180549 0.056093216 -0.040985487 -0.10581939 -0.05402951 -0.00082190335 -0.024533413
00000000: 2c14 d7bc fa4f 123d 8460 1c3d 207e fe3c
00000010: 6a74 33bc 48f5 853c d970 06bd d0d8 55bd
00000020: d368 7dbd 3884 383d 5d73 73bd db77 76bd
00000030: 12a9 d0ba 18f1 1e3c c4ea f53b aeec 1ebd
00000040: 4c4f 6bbd 2c1a c2bc 7ed3 3f3c 0861 473d
00000050: 2a9b 2fbd 0cc6 4abd 8db3 e33c f664 2dbd
00000060: 181f 873c 5431 c3bc 46df c8bc 00ba 193a
00000070: 0c01 1abd 0e3c ab3c 08d4 963b cbc3 863c
00000080: b1b2 fdbc 3c20 6bbd 77b3 48bd aa4a 0b3d
00000090: 3900 54bc 3c20 3c3d 6683 99bd 53b8 37bd
000000a0: e8a4 8d3b 8edf 04bd 132d eebc 0055 afba
000000b0: 318e f3bc 4452 b5bc 977b a23b c0e8 473b
000000c0: 4db5 103d 78a8 663d 4be9 24bd 9844 1c3c
000000d0: d0f7 c5bb 158c b0ba 7483 6bbd 9d7a 13bd
000000e0: 68e7 69bc 5841 193d 7899 ae3c e95e 19bd
000000f0: d91b 083d 2677 e5bc b6f3 ca3b a977 88bc
00000100: 3224 81bc 6e0d 1c3c 9d82 423d 02b6 36bd
00000110: cebf d03c 3c26 00bd 001b 0ebd fa98 5dbd
00000120: f289 f7bb 7c4e 423d 732a 8c3d f614 1ebd
00000130: 81a0 713d 3f1b b6bc 3cd9 e53c e4b9 67bd
00000140: edf4 d2bb 8ecd 563d 6644 193d 6ce0 483d
00000150: ffc0 4f3c 807c b3bc fcf1 59bd 0397 2e3c
00000160: 2599 603c 55ac 5abd 2b65 6ebc 3e77 f53c
00000170: 5be5 3bbd 54a5 87bd f09b 343c 2cc1 733d
00000180: 9a2b bd3b 589a 0f3c 0a29 123d 7227 1abd
00000190: 0add 123d b6f3 5dbd 3a57 63bd 009c 07bc
000001a0: 0f54 0cbd 56d2 593d 2b3f f1ba 1947 593d
000001b0: 2730 143d 36ed 3ebd acb4 fa3c 42c6 403d
000001c0: 043d aabd de74 59bc e711 09bc 2999 2ebd
000001d0: ee58 ad3b 624a 593d 4b92 85bb e27b 673d
000001e0: 4d91 df3c 6c4f 893c 88c0 73bd 1c77 73bd
000001f0: 0409 ad3c 8059 59ba 45d7 28bd 8827 05bd
00000200: 14ce 3b3d f0f9 2fbc e0db 79bc 5043 18ba
00000210: ce3c c5bc 569e 1f3d 3086 a43c 5aa3 713d
00000220: cc92 573d bd55 e2bc 41cb 9cbd 1c71 153d
00000230: ca9e 27bd 5006 4abd 8bc9 173d cb82 e53c
00000240: 9e88 513b 559b f53c d368 8e3c d89c 34bd
00000250: fedb 553d fead 53bd 0671 2abd 8084 433a
00000260: 14fd 25bd deef e4bb 2b09 fa3c 820a 0b3d
00000270: 28c6 4dbd 20fd 1d3d 28cd 163d c001 d7bc
00000280: 591d 523d e850 59bc f4f2 923c 4040 c33b
00000290: 2818 b73c e750 d43c 0a82 86bd 25b8 d83b
000002a0: 50ee 96bd 41cf 27bd cc95 55bd d1c7 423d
000002b0: d8c2 46bd f6a5 41bd fad2 393c d46a 1abd
000002c0: 7c49 78bd e86f ffbc 6f31 1d3d 04bb 7ebd
000002d0: 60cc d93c 9431 293d c1ca fe3c 7c02 813c
000002e0: 32ef f23b 2686 db3c f1f3 12bc aa4c e6bb
000002f0: 8009 9e3c 8888 b33c c48f cb3c 90f4 1f3d
00000300: 555b a13c bca8 58bd d9c4 f1bc 8fff 8cbc
00000310: b1b2 febc c0a0 86bc 0808 3dbd 805b 5c3c
00000320: 74fe 98bd 0680 1b3d 4721 8bbd a814 383c
00000330: 1d05 343d 4a17 1d3d fafb 5bbc be76 4abd
00000340: 3217 793d 8f0a 12bd a379 00bd 25fb 623b
00000350: 800d fcba 02ac 583d bcea 27bd c4e9 c0bb
00000360: 5d23 85bd 7f8f ea39 efc4 08bd fe79 83bd
00000370: a76b 3dbd 7c45 183d ae26 a23c 1b93 aabc
00000380: de93 943c 60f4 c0bc a4ef 613d e857 143d
00000390: d10f e93c 0419 7fbd c7ae 43bd 1225 9bbc
000003a0: 62f2 743d 2d53 72bd 08d9 fcbc bce9 cebc
000003b0: b55f 0f3d 4ce0 8f3c 2e32 f4bc 20fd 3dbd
000003c0: 6eca 843c a8cc 6ebd 8302 8abc 0f8c 4abd
000003d0: 3519 853c e089 9bbd af52 70bb 2eb9 113d
000003e0: 18b2 353d 6da1 b2bc 00c2 653d 66e0 27bd
000003f0: d6b7 d8bd 0c4e 5dbd 0075 57ba 4cfa c8bc

qf1.fc0.bias f4 [256]
0.43018064 0.42368838 0.4279705 0.43168482 0.49091616 0.41998112 0.08753658 0.43071324
0.42507556 0.42164293 0.42513144 0.4440137 0.43042693 0.42883113 0.42087922 0.44387183
0.42477006 0.42209357 0.42483142 0.42851558 0.50579727 0.4231705 0.42926967 0.41782945
0.43345347 0.4210041 0.43211177 0.41918823 0.4223422 0.42008755 0.42257455 0.42114353
0.4284719 0.4224313 -0.023978814 0.41977862 0.42796302 0.44083995 0.42295465 0.42347482
0.4285258 0.42285487 0.42761797 0.42495748 0.4182581 0.42876634 0.43522012 0.41785255
0.42076373 0.42739722 0.4226478 0.42183182 0.4332566 0.43026912 0.41766158 0.43214914
0.45406455 0.42105117 0.42116708 0.42182544 0.1 0.42363507 0.43599018 0.42350584
0.4205587 0.42326933 0.43698984 0.4236126 0.42498478 0.41976267 0.25717166 0.49926433
0.42415974 0.4272451 0.42630208 0.42368147 0.48551196 0.41970235 0.42863667 0.41841754
0.4304476 0.47608608 0.42956102 0.42529446 0.43300122 0.42095917 0.4242045 0.4302577
0.44187132 0.093028985 0.42132255 0.42953014 0.4256917 0.41768995 0.4265168 0.4320364
0.4037896 0.4309978 0.42904112 0.42660937 0.42521042 0.41485083 0.4262266 0.4204493
0.41986495 0.42853662 0.42753127 0.42426658 0.42219067 0.4210867 0.49469438 0.4311306
0.4167909 0.433212 0.42246297 0.042175576 0.42881757 0.42705822 0.42519894 0.4300893
0.4222287 0.41296285 0.42602125 0.44598436 0.42280263 0.20407893 0.4293086 0.442766
0.47338206 0.43014866 0.42913905 0.4235518 0.42766133 0.41978794 0.42656848 0.42530537
0.43571973 0.43524 0.40656853 0.42931688 0.41891205 0.43178058 0.43374747 0.43247554
0.43312344 0.42631608 0.42580888 0.42109963 0.4230934 0.4301616 0.43612492 0.42253336
0.42548123 0.42694303 0.43350044 0.28479755 0.42416808 0.4219281 0.42607352 0.42291793
0.42384836 0.42714745 0.42056105 0.4193113 0.4237118 0.4199197 0.42176077 0.4217203
0.43279156 0.43874887 0.41606745 0.4173634 0.42792448 0.4267676 0.42208207 0.42875615
0.4266082 0.42215857 0.43403542 0.43784115 0.4429558 0.4261373 0.4215412 0.4227481
0.42132536 0.43620813 0.42642552 0.42821786 0.42949256 0.4232972 0.43067726 0.41572586
0.43172437 0.4347035 0.4241157 0.43080798 0.4361271 0.42014962 0.43129894 0.41724974
0.42361572 0.4218089 0.43074062 0.42499492 0.42241272 0.4328211 0.431781 0.4231037
0.4181681 0.42820558 0.4280847 0.43559542 0.47966358 0.42930615 0.4192402 0.4229375
0.433005 0.42728803 0.4328659 0.42146808 0.42012066 0.42095387 0.4182669 0.42912054
0.42963827 0.42690206 0.4255763 0.4330778 0.4353703 0.4261197 0.42181194 0.42487067
0.42486805 0.4802829 0.4242805 0.42235625 0.42845598 0.43201175 0.42276472 0.43211767
0.41960934 0.42890304 0.42922556 0.43084896 0.4230254 0.42397004 0.42141736 0.4271855
0.42191598 0.4244985 0.47034582 0.44584045 0.42435527 0.4264753 0.42617723 0.41739208
00000000: a340 dc3e afed d83e f31e db3e cb05 dd3e
00000010: 5d59 fb3e c407 d73e 6146 b33d 7286 dc3e
00000020: 81a3 d93e 95e1 d73e d4aa d93e c455 e33e
00000030: eb60 dc3e c18f db3e 7b7d d73e 2b43 e33e
00000040: 767b d93e a61c d83e 8183 d93e 6566 db3e
00000050: ee7b 013f cea9 d83e 3cc9 db3e beed d53e
00000060: 9ded dd3e d98d d73e c13d dd3e d79f d63e
00000070: 3d3d d83e b715 d73e b15b d83e 20a0 d73e
00000080: ab60 db3e ea48 d83e 386f c4bc 39ed d63e
00000090: f81d db3e c6b5 e13e 838d d83e b1d1 d83e
000000a0: bc67 db3e 6f80 d83e bef0 da3e 0794 d93e
000000b0: ed25 d63e 4387 db3e 2cd5 de3e c5f0 d53e
000000c0: 586e d73e cfd3 da3e 4b65 d83e 57fa d73e
000000d0: cfd3 dd3e 3c4c dc3e bdd7 d53e a742 dd3e
000000e0: 267b e83e 0594 d73e 36a3 d73e 81f9 d73e
000000f0: cdcc cc3d b2e6 d83e 1b3a df3e c2d5 d83e
00000100: 7853 d73e c2b6 d83e 22bd df3e c0e3 d83e
00000110: 9b97 d93e 22eb d63e 01ac 833e 939f ff3e
00000120: 772b d93e dfbf da3e 4444 da3e c7ec d83e
00000130: 0695 f83e 3ae3 d63e 4476 db3e d33a d63e
00000140: a163 dc3e 8ec1 f33e 6cef db3e 32c0 d93e
00000150: 56b2 dd3e f687 d73e 5531 d93e bd4a dc3e
00000160: f53c e23e fb85 be3d 97b7 d73e 60eb db3e
00000170: 43f4 d93e 75db d53e 6960 da3e e033 dd3e
00000180: 83bd ce3e beab dc3e 47ab db3e 8b6c da3e
00000190: 2eb5 d93e 5467 d43e 5f3a da3e 2145 d73e
000001a0: 8af8 d63e 2769 db3e 61e5 da3e 7839 d93e
000001b0: 6029 d83e ad98 d73e 9548 fd3e 26bd dc3e
000001c0: 9e65 d53e f7cd dd3e 114d d83e 4cc0 2c3d
000001d0: fa8d db3e 60a7 da3e adb3 d93e aa34 dc3e
000001e0: 5c2e d83e de6f d33e 751f da3e 1058 e43e
000001f0: 9679 d83e 11fa 503e 56ce db3e 3ab2 e23e
00000200: 225f f23e 723c dc3e 1db8 db3e c8db d83e
00000210: 6df6 da3e 72ee d63e 2f67 da3e a0c1 d93e
00000220: a816 df3e c7d7 de3e c029 d03e 6ccf db3e
00000230: a47b d63e 5812 dd3e 2614 de3e 6f6d dd3e
00000240: 5bc2 dd3e 1a46 da3e 9f03 da3e 5f9a d73e
00000250: b39f d83e 243e dc3e c44b df3e 4b56 d83e
00000260: add8 d93e 4798 da3e c5f3 dd3e fcd0 913e
00000270: 8f2c d93e f606 d83e 4f26 da3e b388 d83e
00000280: a702 d93e 12b3 da3e c753 d73e f9af d63e
00000290: c1f0 d83e b7ff d63e 07f1 d73e b9eb d73e
000002a0: db96 dd3e b1a3 e03e cb06 d53e a8b0 d53e
000002b0: eb18 db3e 4881 da3e 241b d83e ed85 db3e
000002c0: 646c da3e 2b25 d83e e439 de3e b72c e03e
000002d0: 1acb e23e ab2e da3e 40d4 d73e 7072 d83e
000002e0: f5b7 d73e ac56 df3e 7254 da3e 5f3f db3e
000002f0: 73e6 db3e 69ba d83e bb81 dc3e 05da d43e
00000300: fa0a dd3e 7591 de3e b125 d93e dd92 dc3e
00000310: 0d4c df3e da1d d73e 37d3 dc3e c2a1 d53e
00000320: 29e4 d83e 56f7 d73e 098a dc3e ef98 d93e
00000330: 7b46 d83e ba9a dd3e 6612 dd3e 0ca1 d83e
00000340: 211a d63e c33d db3e eb2d db3e 5d06 df3e
00000350: 7796 f53e 04ce db3e a7a6 d63e 448b d83e
00000360: d5b2 dd3e 7fc5 da3e 99a0 dd3e aaca d73e
00000370: 0e1a d73e 4487 d73e 1427 d63e b0b5 db3e
00000380: 8cf9 db3e e892 da3e 23e5 d93e 60bc dd3e
00000390: dbe8 de3e 5c2c da3e bcf7 d73e a688 d93e
000003a0: 4e88 d93e a4e7 f53e 4b3b d93e 143f d83e
000003b0: 955e db3e a530 dd3e 9e74 d83e 873e dd3e
000003c0: 09d7 d63e 2e99 db3e 74c3 db3e 3c98 dc3e
000003d0: c996 d83e 9a12 d93e 04c4 d73e 0fb8 da3e
000003e0: 5f05 d83e de57 d93e 2bd1 f03e 3345 e43e
000003f0: 1845 d93e f85a da3e e733 da3e 6ab4 d53e

qf1.fc1.weight f4 [256, 256]
0.053721964 0.004844325 0.027003262 0.13542949 0.41363755 0.085309416 0.0034588978 0.015423721
0.03784343 -0.011351713 0.09173037 0.15195951 0.13056952 -0.0033722008 -0.02143218 0.15062466
-0.008699086 0.1035918 0.028028192 0.06560919 0.29105303 0.078804776 0.112975016 0.05431243
0.0809054 0.04851728 0.03861174 0.104136765 0.064821444 -0.004542383 -0.0040982263 0.023934552
0.022919279 -0.014535709 -0.20103869 0.016541846 0.108773634 0.114785165 0.020876737 -0.00635333
0.0029089605 0.108432196 0.099588595 0.11007304 0.10260762 0.072563104 0.015566998 0.03405651
0.09650065 0.07051233 0.10440468 0.066367 0.081320494 0.068271644 0.1036223 0.02273544
0.18279116 0.0030909076 0.09009553 0.059444405 -0.03872455 0.10380823 0.10874607 0.001204406
0.08775543 0.020282833 0.111486495 0.10143762 0.07678224 0.015477527 0.1901731 0.55461556
0.008030802 0.08907475 0.11699084 0.066486865 0.43006805 0.009277218 0.09496421 0.0717083
0.030715156 0.37021086 0.0137814805 0.07033387 0.13626666 0.05636004 0.04476633 0.048983056
0.0201075 -0.030481014 0.045798033 0.10625052 0.063649625 0.06642461 0.0039936174 0.04067611
0.42002752 0.12488404 0.06567239 0.034935433 0.046518374 0.028506348 0.10229693 0.052185368
0.10614291 0.064785704 0.01865966 0.00499468 0.020361692 0.07163354 0.6389453 0.02777201
-0.0004134115 0.0645558 0.11407997 -0.07977905 0.05702938 0.10025785 0.093952894 0.048492152
0.10008479 0.023718337 0.0047189537 0.23092821 0.069355786 0.19979832 0.094924316 0.09436796
0.51002157 0.068569124 0.10817914 0.034163833 0.04150132 0.054829568 0.0055634375 0.023452137
0.05995846 0.06117545 0.38166383 0.04820758 0.07600662 0.11407711 0.09478316 0.08159931
0.032796673 0.09494383 0.016592907 0.01719784 0.097343646 0.10776346 0.03992981 0.060125314
0.12109918 0.0551252 0.05942643 0.23861821 0.08525717 0.037904564 0.09695968 0.022525733
0.00987607 0.026985666 0.0510239 0.01926214 0.111305065 0.027645024 0.04325226 -0.01623746
0.06802827 0.05104375 0.080635585 0.009129497 0.07315948 0.097401224 0.0629548 0.1102806
0.003694363 0.0907278 0.11337139 0.10439685 0.11690628 0.08194282 0.08353104 0.073264085
-0.008745812 0.025473753 0.08073014 0.051655527 0.0075272154 0.05128283 0.08807485 -0.016673936
0.1138434 0.07867567 0.059692074 0.07483827 0.044865668 0.008881011 0.04661084 0.08571524
0.08881065 0.09526798 0.08692288 0.023692528 0.07854941 0.10358193 0.05836282 0.08201959
-0.016526444 0.062285643 0.11864301 0.12666272 0.43590042 0.08904174 -0.013475867 0.04352924
0.047869854 0.1140402 0.032567516 0.07815313 0.074487165 0.054112684 0.09452371 0.00040820448
0.12613176 0.078083895 0.07452957 0.11872366 0.07451581 0.092637986 0.084529065 0.019053265
0.02914705 0.46075532 0.10929245 0.057492867 0.06518261 0.042314094 0.027185412 0.10392073
0.035017364 0.028706638 0.031447638 0.12424329 0.09831127 0.073847905 0.10566827 0.003661225
0.0611885 0.079578266 0.41265053 0.48364195 0.10393932 0.07072534 0.05856672 -0.012494065
00000000: 900b 5c3d 25bd 9e3b f235 dd3c 07ae 0a3e
00000010: 4dc8 d33e b4b6 ae3d adae 623b c6b3 7c3c
00000020: b601 1b3d 89fc 39bc 22dd bb3d 469b 1b3e
00000030: 04b4 053e 2400 5dbb 8a92 afbc 5a3d 1a3e
00000040: 9c86 0ebc f027 d43d 619b e53c 1c5e 863d
00000050: e704 953e 6664 a13d 725f e73d b676 5e3d
00000060: bbb1 a53d 0eba 463d 5827 1e3d a845 d53d
00000070: 1bc1 843d 45d8 94bb 6a4a 86bb 6512 c43c
00000080: 36c1 bb3c 2f27 6ebc 16dd 4dbe c482 873c
00000090: b6c4 de3d 7c14 eb3d b105 ab3c 982f d0bb
000000a0: 42a4 3e3b b311 de3d 1bf5 cb3d f96d e13d
000000b0: f223 d23d f79b 943d b90c 7f3c d77e 0b3d
000000c0: 22a2 c53d c568 903d 1fd2 d53d 6ceb 873d
000000d0: 5c8b a63d 01d2 8b3d ee37 d43d ac3f ba3c
000000e0: 9b2d 3b3e d390 4a3b 0184 b83d fa7b 733d
000000f0: a29d 1ebd 6999 d43d 42b6 de3d 29dd 9d3a
00000100: 1eb9 b33d 2f28 a63c 0853 e43d 87be cf3d
00000110: 0240 9d3d 7495 7d3c bdbc 423e 49fb 0d3f
00000120: a093 033c d36c b63d e598 ef3d 442a 883d
00000130: e131 dc3e 79ff 173c 997c c23d cddb 923d
00000140: 5a9e fb3c 478c bd3e b8cb 613c 340b 903d
00000150: 7d89 0b3e c9d9 663d e65c 373d 75a2 483d
00000160: 7cb8 a43c 52b3 f9bc b896 3b3d df99 d93d
00000170: bc5a 823d a009 883d e4dc 823b fe9b 263d
00000180: d90d d73e 34c3 ff3d 3f7f 863d 7518 0f3d
00000190: 0d8a 3e3d 2586 e93c 0e81 d13d 53c0 553d
000001a0: 7461 d93d 5eae 843d 25dc 983c 6aaa a33b
000001b0: 90cd a63c 9bb4 923d eb91 233f 2082 e33c
000001c0: 27bf d8b9 d535 843d c2a2 e93d 3363 a3bd
000001d0: a497 693d fd53 cd3d 606a c03d b59f 463d
000001e0: 41f9 cc3d f54c c23c 74a1 9a3b 7278 6c3e
000001f0: 680a 8e3d ee97 4c3e ae67 c23d fd43 c13d
00000200: c690 023f f86d 8c3d 068d dd3d 60ef 0b3d
00000210: 4afd 293d f894 603d 7f4d b63b b21e c03c
00000220: 0197 753d 1c93 7a3d 7169 c33e 5075 453d
00000230: 5ca9 9b3d 43a1 e93d ac1d c23d 8a1d a73d
00000240: ce55 063d e971 c23d d9ed 873c 7ce2 8c3c
00000250: 1b5c c73d 17b3 dc3d 718d 233d f645 763d
00000260: d902 f83d f6ca 613d 2169 733d 5558 743e
00000270: 509b ae3d d141 1b3d cc92 c63d e387 b83c
00000280: 3dcf 213c 0b11 dd3c 70fe 503d a3cb 9d3c
00000290: e9f3 e33d d177 e23c 4829 313d 6c04 85bc
000002a0: 6852 8b3d 4013 513d 4524 a53d e393 153c
000002b0: a3d4 953d 4b7a c73d 72ee 803d ccda e13d
000002c0: 201d 723b 7fcf b93d 422f e83d 04ce d53d
000002d0: 8f6c ef3d a3d1 a73d 5212 ab3d 7b0b 963d
000002e0: 984a 0fbc 55ae d03c d855 a53d bf94 533d
000002f0: dca6 f63b f20d 523d 9660 b43d c797 88bc
00000300: ba26 e93d b620 a13d ad7f 743d cf44 993d
00000310: 10c5 373d a981 113c 02eb 3e3d 798b af3d
00000320: 5ce2 b53d dc1b c33d 9f04 b23d d516 c23c
00000330: 83de a03d c322 d43d da0d 6f3d e3f9 a73d
00000340: 7762 87bc 3b1f 7f3d 1bfb f23d dfb3 013e
00000350: 572e df3e 845b b63d e2c9 5cbc b74b 323d
00000360: 2e13 443d e98d e93d 8465 053d c00e a03d
00000370: ba8c 983d 43a5 5d3d a695 c13d 4704 d639
00000380: af28 013e 73ea 9f3d f6a2 983d 6425 f33d
00000390: bf9b 983d fcb8 bd3d 931d ad3d 9815 9c3c
000003a0: cbc5 ee3c 1fe8 eb3e b8d4 df3d a47d 6b3d
000003b0: 767e 853d 8b51 2d3d f1b3 de3c 64d4 d43d
000003c0: 5e6e 0f3d 2f2a eb3c 3dcf 003d 4473 fe3d
000003d0: 6b57 c93d 923d 973d 9b68 d83d 2af1 6f3b
000003e0: cba0 7a3d eef9 a23d ee46 d33e eb9f f73e
000003f0: 23de d43d 72d8 903d a8e3 6f3d e8b3 4cbc

qf1.fc1.bias f4 [256]
0.42779747 0.42682752 0.42794257 0.42952973 0.42784318 0.43071765 0.09713997 0.42872396
0.43209067 0.4325247 0.42603084 0.43360108 0.4283624 0.42915347 0.42692533 0.4284796
0.42906672 0.42791843 0.43319935 0.4284224 0.42906928 0.42934 0.4286259 0.4272322
0.42799613 0.42632517 0.42764536 0.4284356 0.095954224 0.1 0.4269629 0.43116033
0.4348827 0.42810732 0.43012032 0.4275969 0.42837504 0.42778954 0.43027613 0.42851263
0.4285417 0.42928356 0.4283621 0.42757034 0.43078762 0.4310548 0.43071803 0.42730767
0.42519218 0.4286024 0.43462047 0.43037847 0.43028787 0.42779547 0.4277589 0.09683299
0.42767087 0.09338878 0.42922017 0.43045953 0.42680815 0.43064773 0.1 0.43609476
0.43296263 0.43402803 0.42866203 0.43005854 0.4337052 0.428528 0.4317265 0.4290064
0.09572332 0.4270084 0.09595973 0.42987618 0.42816895 0.43736959 0.094830155 0.42760077
0.43463793 0.42775112 0.44180778 0.09682603 0.4305546 0.42854947 0.42876443 0.09193199
0.42760235 0.4297311 0.42594975 0.42828062 0.42716226 0.42800397 0.42681652 0.43048498
0.4322395 0.4289536 0.0742285 0.0968269 0.42723456 0.4292361 0.42607725 0.4283258
0.4293832 0.42508343 0.42717835 0.42766964 0.42996043 0.43322012 0.42777073 0.43224132
0.4262949 0.43183768 0.42884302 0.4277937 0.42919752 0.42684755 0.42650363 0.44144434
0.43014544 0.42700413 0.42954758 0.4276016 0.42709896 0.42875433 0.4321108 0.43393764
0.42979115 0.4279488 0.42848235 0.09682617 0.42951885 0.42836457 0.4263417 0.44200224
0.42529982 0.4301637 0.4325248 0.43050686 0.09739827 0.42686325 0.09921518 0.43258315
0.4268231 0.42962816 0.4282548 0.42876065 0.42953736 0.427261 0.43952394 0.096568696
0.42869604 0.43034044 0.42690727 0.42945683 0.42918786 0.4258855 0.4256148 0.4281735
0.43041697 0.42889482 0.435552 0.43059328 0.42992848 0.42911696 0.43101835 0.09760753
0.42832634 0.42981267 0.4308341 0.43003273 0.09429841 0.42777023 0.42865697 0.43507418
0.43569472 0.42806992 0.095567755 0.42778662 0.09561846 0.42685312 0.42786124 0.09556427
0.42869127 0.4279146 0.4289841 0.42713904 0.43153465 0.428539 0.42894512 0.42897826
0.4305875 0.4289491 0.43210894 0.427186 0.430265 0.4295837 0.4305317 0.42677128
0.4290973 0.42891306 0.42749274 0.42752013 0.42853925 0.43013373 0.42715472 0.09908072
0.4276698 0.4280366 0.0925784 0.09404119 0.4292838 0.4281804 0.4274811 0.4299824
0.42862403 0.4300932 0.43059123 0.4270061 0.11038079 0.42918587 0.428215 0.428999
0.42943263 0.1 0.43112782 0.4271677 0.43056247 0.4306248 0.42971954 0.43580377
0.43094677 0.42820638 0.42840162 0.42899007 0.4276795 0.42949843 0.43772528 0.42567074
0.42861092 0.42901632 0.4288691 0.42911994 0.42990535 0.42881778 0.42814648 0.42796263
0.42878595 0.43569756 0.42948014 0.4294989 0.42855284 0.42904118 0.42923963 0.42707533
00000000: 4508 db3e 2389 da3e 4a1b db3e 52eb db3e
00000010: 430e db3e 0687 dc3e 52f1 c63d b581 db3e
00000020: fd3a dd3e e173 dd3e b720 da3e f600 de3e
00000030: 5152 db3e 01ba db3e f595 da3e ae61 db3e
00000040: a2ae db3e 2018 db3e 4ecc dd3e 2e5a db3e
00000050: f8ae db3e 74d2 db3e db74 db3e 2ebe da3e
00000060: 4f22 db3e 4b47 da3e 55f4 da3e e95b db3e
00000070: a683 c43d cdcc cc3d e29a da3e 0cc1 dc3e
00000080: f2a8 de3e e230 db3e bb38 dc3e fbed da3e
00000090: f953 db3e 3b07 db3e 274d dc3e 0266 db3e
000000a0: d169 db3e 0ecb db3e 4752 db3e 80ea da3e
000000b0: 3290 dc3e 37b3 dc3e 1387 dc3e 12c8 da3e
000000c0: cab2 d93e c671 db3e 9386 de3e 915a dc3e
000000d0: b14e dc3e 0208 db3e 3703 db3e 6050 c63d
000000e0: adf7 da3e 9e42 bf3d bfc2 db3e 3165 dc3e
000000f0: 9986 da3e dc7d dc3e cdcc cc3d d047 df3e
00000100: 47ad dd3e ec38 de3e 9779 db3e a230 dc3e
00000110: 9c0e de3e 0668 db3e 410b dd3e baa6 db3e
00000120: 970a c43d d8a0 da3e 8986 c43d bb18 dc3e
00000130: f638 db3e e8ee df3e 5036 c23d 7dee da3e
00000140: dd88 de3e 3202 db3e a134 e23e ba4c c63d
00000150: a771 dc3e d66a db3e 0387 db3e d746 bc3d
00000160: b2ee da3e b705 dc3e 1616 da3e 9947 db3e
00000170: 03b5 da3e 5623 db3e b287 da3e 8768 dc3e
00000180: 7f4e dd3e ce9f db3e 1d05 983d 2f4d c63d
00000190: 7dbe da3e d6c4 db3e cc26 da3e 854d db3e
000001a0: 1dd8 db3e 89a4 d93e 1fb7 da3e 84f7 da3e
000001b0: c623 dc3e 07cf dd3e c404 db3e bc4e dd3e
000001c0: 5343 da3e d419 dd3e 5091 db3e c707 db3e
000001d0: c7bf db3e c38b da3e af5e da3e fe04 e23e
000001e0: 063c dc3e 49a0 da3e a9ed db3e 99ee da3e
000001f0: b7ac da3e b085 db3e a03d dd3e 132d de3e
00000200: 960d dc3e 1b1c db3e 0a62 db3e cd4c c63d
00000210: e5e9 db3e 9a52 db3e 7649 da3e 1e4e e23e
00000220: e6c0 d93e 6b3e dc3e e473 dd3e 656b dc3e
00000230: bf78 c73d d28d da3e 5431 cb3d 8a7b dd3e
00000240: 8f88 da3e 39f8 db3e 3744 db3e 8486 db3e
00000250: 52ec db3e f4c1 da3e 4809 e13e cfc5 c53d
00000260: 0c7e db3e 9555 dc3e 9793 da3e c4e1 db3e
00000270: 83be db3e aa0d da3e 2fea d93e 8f39 db3e
00000280: 9d5f dc3e 1a98 db3e ac00 df3e b976 dc3e
00000290: 961f dc3e 38b5 db3e 70ae dc3e 75e6 c73d
000002a0: 974d db3e 6810 dc3e 4a96 dc3e 402d dc3e
000002b0: 861f c13d b304 db3e ed78 db3e 0bc2 de3e
000002c0: 6113 df3e fb2b db3e 07b9 c33d d906 db3e
000002d0: 9cd3 c33d 7e8c da3e a110 db3e 33b7 c33d
000002e0: 6c7d db3e 9f17 db3e cea3 db3e f8b1 da3e
000002f0: 1cf2 dc3e 7769 db3e b29e db3e 0aa3 db3e
00000300: f775 dc3e 379f db3e 623d dd3e 20b8 da3e
00000310: b24b dc3e 65f2 db3e a76e dc3e c481 da3e
00000320: a4b2 db3e 7e9a db3e 54e0 da3e ebe3 da3e
00000330: 7f69 db3e 7d3a dc3e 06b4 da3e d5ea ca3d
00000340: 89f7 da3e 9d27 db3e bf99 bd3d ab98 c03d
00000350: 16cb db3e 763a db3e cede da3e a726 dc3e
00000360: 9c74 db3e 2d35 dc3e 7476 dc3e 8ba0 da3e
00000370: 530f e23d 40be db3e ff3e db3e c2a5 db3e
00000380: 98de db3e cdcc cc3d c9bc dc3e bab5 da3e
00000390: af72 dc3e db7a dc3e 3304 dc3e ac21 df3e
000003a0: 0ea5 dc3e de3d db3e 7557 db3e 96a4 db3e
000003b0: cff8 da3e 38e7 db3e 871d e03e 84f1 d93e
000003c0: e472 db3e 07a8 db3e bb94 db3e 9cb5 db3e
000003d0: 8e1c dc3e 018e db3e 0436 db3e eb1d db3e
000003e0: d589 db3e c013 df3e d2e4 db3e 48e7 db3e
000003f0: 476b db3e 49ab db3e 4cc5 db3e 9ea9 da3e

qf1.last_fc.weight f4 [53, 256]
-0.06426391 -0.058660883 -0.062018353 -0.05751043 -0.06293633 -0.064643964 -0.0013167508 -0.061632104
-0.056885265 -0.06467158 -0.06042671 -0.063835226 -0.063804545 -0.06279107 -0.063633904 -0.059787076
-0.06259213 -0.06345606 -0.059648138 -0.062122222 -0.059427623 -0.061251115 -0.059783958 -0.06104501
-0.057992738 -0.058908343 -0.056779284 -0.060054228 -0.0023285896 -0.0014810697 -0.06043484 -0.058777574
-0.059391554 -0.068206854 -0.05963576 -0.06268163 -0.059697952 -0.067040525 -0.06347191 -0.05705223
-0.06480014 -0.06284596 -0.06341125 -0.060190804 -0.06434691 -0.056382768 -0.05669272 -0.06479463
-0.057613682 -0.05442669 -0.060833644 -0.062890336 -0.057580765 -0.061106518 -0.06035749 0.0011265897
-0.06768248 -0.0022702701 -0.060916502 -0.060622465 -0.058990125 -0.06260887 -0.000715446 -0.061767433
-0.061707206 -0.06726588 -0.06469541 -0.0627407 -0.063134775 -0.06587988 -0.06713523 -0.0631527
-0.002001642 -0.06283915 -0.000166435 -0.057938416 -0.06418694 -0.056532938 -0.002198402 -0.0645148
-0.059240554 -0.06191642 -0.06665298 -0.0027046062 -0.06476837 -0.059287883 -0.062285636 -0.0007153783
-0.061897025 -0.059830934 -0.06491042 -0.06379715 -0.06421825 -0.06353152 -0.06217767 -0.06348642
-0.059866592 -0.06333299 -0.003123542 3.5243513e-05 -0.05847019 -0.06135999 -0.05955002 -0.057928983
-0.06305406 -0.06715878 -0.06187766 -0.05878509 -0.06514192 -0.062848814 -0.061274655 -0.0643228
-0.066478476 -0.060529828 -0.063486315 -0.066021286 -0.064936765 -0.06299615 -0.06451212 -0.069397844
-0.06540978 -0.05929959 -0.0685871 -0.06256119 -0.06099523 -0.061131 -0.06066311 -0.05870379
-0.06437509 -0.06599877 -0.058460157 -0.0006260973 -0.062069308 -0.067790054 -0.065285675 -0.06487789
-0.060972173 -0.061230242 -0.061779924 -0.055331573 -0.0048144995 -0.061849017 -0.002800629 -0.06679925
-0.064458564 -0.06636004 -0.06411996 -0.062091947 -0.05875041 -0.067752145 -0.068120524 -0.0018659721
-0.061095253 -0.06535096 -0.064549714 -0.05925074 -0.058125213 -0.06009543 -0.06680376 -0.062050503
-0.05901371 -0.058839984 -0.06262574 -0.06494338 -0.06009219 -0.05870388 -0.0637098 -6.9956135e-05
-0.059688777 -0.06071702 -0.060121387 -0.05984552 0.0013747115 -0.06452256 -0.06222053 -0.064335585
-0.064123236 -0.057876274 0.0002863194 -0.063385956 -9.3118804e-05 -0.06333878 -0.06302255 0.00062032876
-0.059470486 -0.059307974 -0.0608599 -0.06757818 -0.06268425 -0.058623414 -0.056690414 -0.061902422
-0.0639913 -0.06654859 -0.06340054 -0.064500004 -0.061598107 -0.059985287 -0.063588195 -0.061045703
-0.062604845 -0.061975054 -0.060957033 -0.06337312 -0.05995778 -0.055978622 -0.06654263 0.00190152
-0.05973065 -0.064449064 0.001393193 -0.0007788498 -0.06392547 -0.06402248 -0.05873984 -0.06123163
-0.055256214 -0.0588885 -0.06553156 -0.06096511 0.03127425 -0.061425958 -0.06505201 -0.060572814
-0.065499485 0.0029891264 -0.06367698 -0.06333545 -0.06229186 -0.06415189 -0.06725933 -0.066746436
-0.061207645 -0.06467661 -0.059889607 -0.063759714 -0.061521072 -0.064567365 -0.068167314 -0.059054747
-0.061102338 -0.06121452 -0.060364123 -0.063294314 -0.060450435 -0.06062626 -0.06267779 -0.05863381
-0.064752735 -0.062390048 -0.060130175 -0.059309203 -0.062172063 -0.062068205 -0.06441334 -0.06257038
00000000: cc9c 83bd 6546 70bd f506 7ebd 0f90 6bbd
00000010: c3e4 80bd 0e64 84bd d396 acba f271 7cbd
00000020: 8600 69bd 8972 84bd ff81 77bd 0bbc 82bd
00000030: f5ab 82bd 9b98 80bd 7e52 82bd 4be3 74bd
00000040: 4d30 80bd 40f5 81bd 9b51 74bd df73 7ebd
00000050: 616a 73bd 73e2 7abd 06e0 74bd 550a 7abd
00000060: cb89 6dbd e049 71bd 6591 68bd 6cfb 75bd
00000070: 409b 18bb 7420 c2ba 868a 77bd c1c0 70bd
00000080: 8f44 73bd 09b0 8bbd a044 74bd 3a5f 80bd
00000090: d785 74bd 8b4c 89bd 90fd 81bd 99af 69bd
000000a0: f0b5 84bd 62b5 80bd c2dd 81bd a28a 76bd
000000b0: 50c8 83bd 9ef1 66bd a036 68bd 0cb3 84bd
000000c0: 53fc 6bbd 85ee 5ebd b32c 79bd a6cc 80bd
000000d0: cfd9 6bbd d44a 7abd 6a39 77bd 14aa 933a
000000e0: 1d9d 8abd d0c8 14bb 9583 79bd 434f 78bd
000000f0: a19f 71bd 1439 80bd c58c 3bba d9ff 7cbd
00000100: b2c0 7cbd b2c2 89bd 077f 84bd 327e 80bd
00000110: ce4c 81bd 08ec 86bd 327e 89bd 3456 81bd
00000120: fb2d 03bb d0b1 80bd 0e85 2eb9 d550 6dbd
00000130: 7174 83bd 158f 67bd 1113 10bb 5620 84bd
00000140: 39a6 72bd 129c 7dbd 5c81 88bd c33f 31bb
00000150: 47a5 84bd dad7 72bd 391f 7fbd 3a88 3bba
00000160: bc87 7dbd 4811 75bd c1ef 84bd 15a8 82bd
00000170: dc84 83bd d01c 82bd 03ae 7ebd 2b05 82bd
00000180: ac36 75bd bab4 81bd 57b4 4cbb 6fd2 1338
00000190: 707e 6fbd 9d54 7bbd b9ea 73bd f146 6dbd
000001a0: 7d22 81bd 8b8a 89bd 6e73 7dbd a2c8 70bd
000001b0: 2069 85bd e1b6 80bd 22fb 7abd acbb 83bd
000001c0: de25 88bd 20ee 77bd 1d05 82bd 2b36 87bd
000001d0: 91fd 84bd 2004 81bd ee1e 84bd 7520 8ebd
000001e0: 90f5 85bd 20e4 72bd 6577 8cbd 1520 80bd
000001f0: 22d6 79bd 8064 7abd e279 78bd 6373 70bd
00000200: 16d7 83bd 5d2a 87bd eb73 6fbd ae20 24ba
00000210: 633c 7ebd 83d5 8abd 7fb4 85bd b3de 84bd
00000220: f5bd 79bd 90cc 7abd f20c 7dbd 5ca3 62bd
00000230: f3c2 9dbb 6555 7dbd c28a 37bb 0cce 88bd
00000240: da02 84bd c6e7 87bd 5351 83bd 2054 7ebd
00000250: 45a4 70bd a3c1 8abd c682 8bbd a293 f4ba
00000260: 043f 7abd b9d6 85bd a432 84bd e7b0 72bd
00000270: b414 6ebd a026 76bd 69d0 88bd ab28 7ebd
00000280: 5cb8 71bd 3202 71bd ed41 80bd 0901 85bd
00000290: 3a23 76bd 7b73 70bd 497a 82bd 6ab5 92b8
000002a0: 387c 74bd 69b2 78bd d841 76bd 9320 75bd
000002b0: aa2f b43a 6724 84bd f4da 7ebd 60c2 83bd
000002c0: 0b53 83bd ac0f 6dbd 241d 9639 7fd0 81bd
000002d0: c748 c3b8 c3b7 81bd f711 81bd 8f9d 223a
000002e0: 5397 73bd ebec 72bd 3b48 79bd 6e66 8abd
000002f0: 9a60 80bd 1b1f 70bd 3534 68bd 658d 7dbd
00000300: df0d 83bd a14a 88bd 24d8 81bd 9418 84bd
00000310: 4c4e 7cbd 22b3 75bd 873a 82bd 0f0b 7abd
00000320: f836 80bd 8ed9 7dbd 15ae 79bd c4c9 81bd
00000330: 4a96 75bd d749 65bd 8147 88bd 6c3c f93a
00000340: 20a8 74bd dffd 83bd cd9b b63a ba2b 4cba
00000350: 5beb 82bd 381e 83bd 3099 70bd 05ce 7abd
00000360: 5754 62bd 1135 71bd 6935 86bd 8db6 79bd
00000370: 6e19 003d c999 7bbd fd39 85bd 331b 78bd
00000380: 9824 86bd 38e5 433b 1469 82bd 04b6 81bd
00000390: c025 7fbd 1162 83bd 42bf 89bd 5bb2 88bd
000003a0: deb4 7abd 2c75 84bd ce4e 75bd 7494 82bd
000003b0: 85fd 7bbd e53b 84bd 4e9b 8bbd 64e3 71bd
000003c0: 7246 7abd 14bc 7abd 5f40 77bd 73a0 81bd
000003d0: e09a 77bd 3e53 78bd 375d 80bd 022a 70bd
000003e0: 159d 84bd b58c 7fbd 0f4b 76bd 35ee 72bd
000003f0: 22a8 7ebd 3b3b 7ebd 24eb 83bd e624 80bd

qf1.last_fc.bias f4 [53]
-0.18410605 -0.19639039 -0.1950778 -0.19200908 -0.19680066 -0.18225431 -0.19323573 -0.18339886
-0.21048935 -0.19519389 -0.20218582 -0.17078611 -0.20257859 -0.18508394 -0.23270543 -0.23160917
-0.1899493 -0.21672507 -0.20052382 -0.18757103 -0.18784975 -0.2229538 -0.18383352 -0.2468644
-0.24770199 -0.21310493 -0.18653889 -0.21299674 -0.21710812 -0.19876449 -0.16951253 -0.19178794
-0.18257426 -0.21291716 -0.20720091 -0.20200558 -0.20718147 -0.18292478 -0.1957772 -0.18378669
-0.26291832 -0.2621613 -0.19893762 -0.19893947 -0.19816875 -0.18185425 -0.20269617 -0.25058213
-0.21012816 -0.23197867 -0.25025994 -0.24454851 -0.2121856
00000000: 4c86 3cbe 901a 49be 7ac2 47be 079e 44be
00000010: 1d86 49be e0a0 3abe 96df 45be e9cc 3bbe
00000020: 858a 57be e8e0 47be cd09 4fbe 8ee2 2ebe
00000030: c370 4fbe a586 3dbe 554a 6ebe f42a 6dbe
00000040: 1282 42be 2ded 5dbe 1e56 4dbe 9f12 40be
00000050: af5b 40be 004e 64be db3e 3cbe 05ca 7cbe
00000060: 97a5 7dbe 2e38 5abe 0d04 3fbe d11b 5abe
00000070: 9751 5ebe eb88 4bbe b194 2dbe 0f64 44be
00000080: bff4 3abe f506 5abe 7a2c 54be 8dda 4ebe
00000090: 6127 54be a250 3bbe d179 48be 9432 3cbe
000000a0: 3b9d 86be 023a 86be 4eb6 4bbe cab6 4bbe
000000b0: c0ec 4abe 0038 3abe 968f 4fbe 4d4c 80be
000000c0: d62b 57be d18b 6dbe 1222 80be ed6a 7abe
000000d0: 2f47 59be

qf1_target.fc0.weight f4 [256, 78]
-0.026254736 0.035720803 0.038172822 0.031066 -0.011253119 0.01635231 -0.033062957 -0.05220872
-0.06176756 0.04550531 -0.059346914 -0.060177524 -0.0014487132 0.010036121 0.0076642185 -0.038719907
-0.05744869 -0.02369412 0.011815988 0.04867652 -0.042872585 -0.04950528 0.027834179 -0.042332612
0.016494319 -0.023827232 -0.024444142 0.0005864203 -0.037975833 0.02073663 0.004408537 0.016446628
-0.030771041 -0.057403788 -0.048842147 0.0342886 -0.012793963 0.046424996 -0.07479552 -0.04485165
0.0047421674 -0.03243976 -0.02897994 -0.0013376774 -0.03005859 -0.022133954 0.0052694874 0.003050372
0.035096638 0.056313008 -0.040085897 0.009537838 -0.0060415044 -0.001298748 -0.05748682 -0.03598169
-0.014276363 0.037415832 0.02131343 -0.037454702 0.033288743 -0.02795384 0.006286245 -0.016625637
-0.015746815 0.00960166 0.04755455 -0.044565704 0.025507448 -0.031286463 -0.034693718 -0.054100968
-0.00750921 0.04743813 0.06851997 -0.038521063 0.059022475 -0.022154823 0.028057704 -0.056573763
-0.00649224 0.052442126 0.03707708 0.04904219 0.012442387 -0.021909952 -0.053120237 0.01134728
0.013822715 -0.05341473 -0.014384966 0.030338245 -0.045650344 -0.066166624 0.0110235065 0.059510395
0.0058736196 0.008764826 0.03568367 -0.037635274 0.035817407 -0.0541875 -0.055503108 -0.008276939
-0.034186848 0.05317913 -0.0023367 0.052775353 0.03593873 -0.046631385 0.031050744 0.047064073
-0.083004594 -0.013026568 -0.008206684 -0.04205443 0.0054186564 0.053046327 -0.0036354072 0.05651463
0.027400011 0.016761504 -0.059880443 -0.059439763 0.021297479 -0.00082912296 -0.041501313 -0.032508403
0.046031002 -0.010740742 -0.015250189 -0.0005445509 -0.024078934 0.038988814 0.020083526 0.058993675
0.05263023 -0.027671099 -0.07651371 0.036537815 -0.04084362 -0.04930736 0.037078384 0.028080206
0.003250314 0.029996304 0.017398639 -0.04409489 0.052211754 -0.051679604 -0.041580804 0.00074584037
-0.040456 -0.0069305995 0.03055134 0.034006175 -0.050237805 0.038571507 0.03679051 -0.026245952
0.050958417 -0.013263918 0.017708385 0.005958587 0.022451026 0.026367862 -0.06555994 0.006610579
-0.07356029 -0.040652946 -0.051932488 0.047638647 -0.04852566 -0.047277413 0.011559525 -0.037699535
-0.060616955 -0.03118129 0.03847228 -0.06219007 0.026586711 0.041307047 0.031127911 0.015748255
0.007034181 0.026638111 -0.009165122 -0.0070189554 0.019527629 0.02191569 0.024989074 0.03930952
0.019812822 -0.052525483 -0.029377075 -0.017219516 -0.030734362 -0.016434073 -0.046057094 0.01344955
-0.07492549 0.037963912 -0.06760429 0.011235394 0.04374899 0.03835229 -0.013297311 -0.049429648
0.060813136 -0.03560039 -0.031346478 0.0034922382 -0.0019230098 0.052898414 -0.040995345 -0.0058898795
-0.06494315 0.0005080118 -0.033293266 -0.06415875 -0.046214998 0.03724997 0.019871982 -0.020780334
0.01816721 -0.023554027 0.05516018 0.036216646 0.028498795 -0.062279716 -0.047682073 -0.018861614
0.05984172 -0.059080303 -0.030865207 -0.025257958 0.034651592 0.017563008 -0.028868107 -0.046383977
0.016206147 -0.058300663 -0.016746588 -0.048550986 0.016243588 -0.07586707 -0.0038754009 0.036179937
0.04459112 -0.021613002 0.056093216 -0.0409855 -0.10558904 -0.05402951 -0.00082190335 -0.024533413
00000000: 2c14 d7bc fa4f 123d 1b5b 1c3d 207e fe3c
00000010: 015f 38bc 48f5 853c 066d 07bd d0d8 55bd
00000020: fbff 7cbd c763 3a3d c015 73bd b57c 76bd
00000030: c0e2 bdba 8b6e 243c 2024 fb3b c498 1ebd
00000040: 514f 6bbd 2c1a c2bc d997 413c 0861 473d
00000050: 2a9b 2fbd 0cc6 4abd 8104 e43c f664 2dbd
00000060: 181f 873c 5431 c3bc 153f c8bc 00ba 193a
00000070: 8c8c 1bbd dddf a93c 7d75 903b 14bb 863c
00000080: 8d13 fcbc 3c20 6bbd b40e 48bd 3472 0c3d
00000090: c59d 51bc 2328 3e3d 652e 99bd 5db6 37bd
000000a0: 2f64 9b3b 8edf 04bd 5767 edbc 0155 afba
000000b0: 6f3d f6bc 4452 b5bc aaab ac3b c0e8 473b
000000c0: 7ec1 0f3d 78a8 663d 1c31 24bd 9844 1c3c
000000d0: d0f7 c5bb c03a aaba 4d77 6bbd 8961 13bd
000000e0: 68e7 69bc 5841 193d 8199 ae3c 1a6a 19bd
000000f0: c759 083d 74ff e4bc d8fc cd3b 7d32 88bc
00000100: 77ff 80bc 4850 1d3c 8fc8 423d 878a 36bd
00000110: fff4 d03c 3c26 00bd 001b 0ebd fa98 5dbd
00000120: d20f f6bb 7c4e 423d 3354 8c3d 43c8 1dbd
00000130: 8dc1 713d 087e b5bc 45d9 e53c e4b9 67bd
00000140: dbbc d4bb 8ecd 563d 23de 173d 77e0 483d
00000150: 27db 4b3c 807c b3bc 9b94 59bd f1e9 393c
00000160: ab78 623c 67c9 5abd ecae 6bbc e987 f83c
00000170: dbfb 3abd 5e82 87bd f09b 343c 2cc1 733d
00000180: 7e77 c03b 589a 0f3c 0a29 123d 7227 1abd
00000190: 46b5 123d b6f3 5dbd 3a57 63bd 009c 07bc
000001a0: 8207 0cbd 5cd2 593d 5223 19bb f82a 583d
000001b0: 7d34 133d 8d00 3fbd 215e fe3c 42c6 403d
000001c0: 50fe a9bd 636d 55bc 5475 06bc 4441 2cbd
000001d0: fc8e b13b 1b47 593d 0340 6ebb e27b 673d
000001e0: fd75 e03c 6c4f 893c 3245 75bd 1c77 73bd
000001f0: 0d78 ae3c 8059 59ba 48fd 29bd 8827 05bd
00000200: 018b 3c3d f0f9 2fbc eedb 79bc 31c0 0eba
00000210: 2f41 c5bc bcb2 1f3d 3586 a43c 5aa3 713d
00000220: cc92 573d 80ae e2bc 38b3 9cbd ada8 153d
00000230: a44b 27bd 84f6 49bd 81df 173d 7608 e63c
00000240: 3803 553b cfba f53c 9787 8e3c d89c 34bd
00000250: fedb 553d fead 53bd a250 2abd 8084 433a
00000260: 31b5 25bd 151a e3bb ce46 fa3c 0f4a 0b3d
00000270: 28c6 4dbd 28fd 1d3d a5b1 163d c001 d7bc
00000280: c6b9 503d e850 59bc 2d11 913c 4040 c33b
00000290: 37eb b73c 6a01 d83c 4a44 86bd 8e9d d83b
000002a0: c7a6 96bd b483 26bd 29b7 54bd be20 433d
000002b0: d8c2 46bd f6a5 41bd 2964 3d3c d46a 1abd
000002c0: 7c49 78bd e86f ffbc 1c95 1d3d 04bb 7ebd
000002d0: 60cc d93c 9431 293d f6ff fe3c 7c02 813c
000002e0: fd7e e63b 2b38 da3c 4f29 16bc 44ff e5bb
000002f0: 68f8 9f3c 8888 b33c e3b5 cc3c 0503 213d
00000300: 804e a23c f624 57bd 31a8 f0bc f10f 8dbc
00000310: a1c6 fbbc c0a0 86bc 5da6 3cbd 805b 5c3c
00000320: 8972 99bd 0c80 1b3d 1e74 8abd a814 383c
00000330: 2432 333d 4a17 1d3d f7dc 59bc be76 4abd
00000340: 3217 793d b7d1 11bd 2a65 00bd 09de 643b
00000350: 800d fcba 02ac 583d bcea 27bd e4ff c0bb
00000360: ea00 85bd 182c 053a 855e 08bd aa65 83bd
00000370: f04b 3dbd 6d93 183d 91ca a23c 853b aabc
00000380: 67d3 943c 60f4 c0bc a4ef 613d e857 143d
00000390: 4e76 e93c 0419 7fbd 474e 43bd ac83 9abc
000003a0: 971c 753d 30fe 71bd 08d9 fcbc c7e9 cebc
000003b0: d4ee 0d3d 4ce0 8f3c cf7c ecbc 20fd 3dbd
000003c0: c1c2 843c adcc 6ebd 2430 89bc 66dd 46bd
000003d0: 4611 853c 3260 9bbd 70fa 7dbb 6a31 143d
000003e0: 2ea5 363d c00d b1bc 00c2 653d 69e0 27bd
000003f0: 113f d8bd 0c4e 5dbd 0075 57ba 4cfa c8bc

qf1_target.fc0.bias f4 [256]
0.43022865 0.4237252 0.42802477 0.43172964 0.49081153 0.42002797 0.087537326 0.4307566
0.42511678 0.4216883 0.42516872 0.44405124 0.43046832 0.4288727 0.42092684 0.44391832
0.4248128 0.42213944 0.42487556 0.42856455 0.5057901 0.4232128 0.42930406 0.41787666
0.43349707 0.42105088 0.43215865 0.41923437 0.42238984 0.42013392 0.42261827 0.4211902
0.42851087 0.42247874 -0.023978693 0.41982463 0.42800698 0.44088015 0.4230038 0.42351988
0.42857516 0.42290267 0.4276632 0.4250032 0.41830498 0.4287974 0.43526518 0.41789937
0.42080516 0.42743933 0.42269358 0.42187768 0.4332995 0.4303147 0.41770607 0.43219
0.45413816 0.4210955 0.42121264 0.42186892 0.1 0.42368034 0.43603206 0.42355213
0.4206048 0.42331526 0.4370351 0.4236571 0.42503336 0.41980937 0.25703996 0.49930745
0.4241992 0.42729294 0.42634577 0.42372522 0.48555303 0.41974956 0.4286843 0.41846463
0.43049175 0.4761234 0.42960426 0.4253433 0.43303525 0.42104936 0.4242507 0.43029755
0.44191408 0.09302915 0.42137012 0.42957538 0.42573726 0.41773698 0.42656258 0.4320818
0.4039061 0.43086296 0.42908418 0.42665333 0.42524627 0.41493315 0.42626974 0.42049566
0.4199118 0.4285965 0.42757705 0.42431524 0.42223093 0.42113292 0.49473527 0.43117207
0.41683847 0.43326244 0.42250887 0.042057347 0.4288634 0.42710274 0.42504618 0.43013078
0.42227462 0.41301143 0.42606965 0.4458043 0.42284203 0.20407979 0.4293522 0.44280773
0.47342297 0.4301976 0.42918295 0.42359778 0.42771283 0.4198341 0.42661744 0.425348
0.43575802 0.43528172 0.40660918 0.42935577 0.41895953 0.43182543 0.43379164 0.43251416
0.4331643 0.42636403 0.425855 0.42114595 0.4231402 0.43021056 0.43616706 0.42258045
0.4255262 0.4269867 0.4335426 0.2847281 0.42421478 0.42197493 0.42611864 0.422964
0.42390487 0.4272039 0.42060792 0.4193582 0.42374912 0.41996655 0.4218065 0.42179278
0.43283904 0.43878803 0.4161156 0.4174113 0.4279736 0.42681256 0.42213115 0.42879593
0.42665702 0.42220497 0.43407357 0.4378858 0.44299835 0.42617974 0.42158833 0.42279446
0.42136857 0.43625215 0.42637378 0.42826417 0.42953983 0.42334023 0.43071935 0.41577324
0.4317603 0.4347556 0.42416078 0.43085876 0.43617207 0.42019603 0.4313492 0.41727746
0.42365763 0.42185572 0.43078178 0.42504388 0.42245924 0.43286484 0.43182975 0.42315546
0.4182152 0.4282471 0.42814517 0.4357085 0.47970468 0.42935207 0.41928676 0.422983
0.43304414 0.42733517 0.4329095 0.42151368 0.42016798 0.4210002 0.41831493 0.42915785
0.42968324 0.42694578 0.4256254 0.4331158 0.4354173 0.4261706 0.42185813 0.42491618
0.4249144 0.4803239 0.42432716 0.42240304 0.42850178 0.43202275 0.42281255 0.43216023
0.41965654 0.42894027 0.42927122 0.43089026 0.42306638 0.4240161 0.42146355 0.42722946
0.42196226 0.42452705 0.47036198 0.44588158 0.42440104 0.42652103 0.42621884 0.41743952
00000000: ee46 dc3e 82f2 d83e 1026 db3e ab0b dd3e
00000010: a64b fb3e e80d d73e c546 b33d 218c dc3e
00000020: e8a8 d93e 87e7 d73e b7af d93e af5a e33e
00000030: 5866 dc3e 3495 db3e b983 d73e 4349 e33e
00000040: 1081 d93e a922 d83e 4a89 d93e d06c db3e
00000050: 767b 013f 59af d83e becd db3e eef3 d53e
00000060: 54f3 dd3e fb93 d73e e643 dd3e e3a5 d63e
00000070: 7b43 d83e cb1b d73e 6c61 d83e 3ea6 d73e
00000080: c765 db3e 224f d83e f76e c4bc 41f3 d63e
00000090: bb23 db3e 0bbb e13e f493 d83e 99d7 d83e
000000a0: 346e db3e b386 d83e acf6 da3e 059a d93e
000000b0: 122c d63e 558b db3e 14db de3e e8f6 d53e
000000c0: c673 d73e 54d9 da3e 4b6b d83e 5a00 d83e
000000d0: 6fd9 dd3e 3552 dc3e 92dd d53e 0248 dd3e
000000e0: cc84 e83e d499 d73e 2fa9 d73e 34ff d73e
000000f0: cdcc cc3d a1ec d83e 983f df3e d3db d83e
00000100: 8359 d73e c7bc d83e 11c3 df3e 95e9 d83e
00000110: f99d d93e 41f1 d63e be9a 833e 3aa5 ff3e
00000120: a330 d93e 24c6 da3e fe49 da3e 83f2 d83e
00000130: 689a f83e 6ae9 d63e 827c db3e ff40 d63e
00000140: 6a69 dc3e 72c6 f33e 17f5 db3e 99c6 d93e
00000150: ccb6 dd3e c893 d73e 6337 d93e f64f dc3e
00000160: 9042 e23e 1186 be3d d3bd d73e 4ef1 db3e
00000170: 3cfa d93e 9fe1 d53e 6966 da3e d339 dd3e
00000180: c8cc ce3e 129a dc3e ecb0 db3e 4e72 da3e
00000190: e1b9 d93e 1e72 d43e 0740 da3e 354b d73e
000001a0: aefe d63e 0071 db3e 61eb da3e d93f d93e
000001b0: a72e d83e bc9e d73e f14d fd3e 96c2 dc3e
000001c0: da6b d53e 93d4 dd3e 1553 d83e 5344 2c3d
000001d0: fc93 db3e 36ad da3e a79f d93e 1a3a dc3e
000001e0: 6134 d83e 3c76 d33e cd25 da3e 7640 e43e
000001f0: c07e d83e 4bfa 503e 0dd4 db3e b2b7 e23e
00000200: 7f64 f23e dc42 dc3e debd db3e cfe1 d83e
00000210: 2dfd da3e 7ff4 d63e 9a6d da3e 37c7 d93e
00000220: ad1b df3e 3fdd de3e 142f d03e 85d4 db3e
00000230: dd81 d63e 3918 dd3e f019 de3e 7f72 dd3e
00000240: b6c7 dd3e 634c da3e ab09 da3e 71a0 d73e
00000250: d5a5 d83e 8f44 dc3e 4a51 df3e 775c d83e
00000260: 92de d93e 009e da3e 4cf9 dd3e e2c7 913e
00000270: ae32 d93e 190d d83e 392c da3e bd8e d83e
00000280: 0f0a d93e 78ba da3e ec59 d73e 1eb6 d63e
00000290: a5f5 d83e db05 d73e 06f7 d73e 39f5 d73e
000002a0: 149d dd3e d3a8 e03e 1b0d d53e efb6 d53e
000002b0: 5b1f db3e 2d87 da3e 9321 d83e 248b db3e
000002c0: ca72 da3e 402b d83e e43e de3e 9132 e03e
000002d0: aed0 e23e 3b34 da3e 6dda d73e 8478 d83e
000002e0: 9fbd d73e 715c df3e aa4d da3e 7145 db3e
000002f0: a5ec db3e 0dc0 d83e 3f87 dc3e 3be0 d43e
00000300: b00f dd3e 4998 de3e 9a2b d93e 8599 dc3e
00000310: f251 df3e ef23 d73e cdd9 dc3e 64a5 d53e
00000320: a7e9 d83e 79fd d73e 6e8f dc3e 5a9f d93e
00000330: 944c d83e 76a0 dd3e ca18 dd3e d5a7 d83e
00000340: 4d20 d63e 3443 db3e d835 db3e 2f15 df3e
00000350: da9b f53e 09d4 db3e c1ac d63e 3a91 d83e
00000360: f6b7 dd3e adcb da3e 50a6 dd3e a4d0 d73e
00000370: 4220 d73e 578d d73e 602d d63e 94ba db3e
00000380: 71ff db3e a398 da3e 93eb d93e 5bc1 dd3e
00000390: 04ef de3e 0833 da3e cafd d73e 9d8e d93e
000003a0: 618e d93e 04ed f53e 6941 d93e 3645 d83e
000003b0: 9664 db3e 1632 dd3e e37a d83e 1b44 dd3e
000003c0: 39dd d63e 0f9e db3e 70c9 db3e a69d dc3e
000003d0: 289c d83e a318 d93e 12ca d73e d2bd da3e
000003e0: 700b d83e 9c5b d93e 49d3 f03e 974a e43e
000003f0: 184b d93e f760 da3e 5b39 da3e a2ba d53e
