TFPORL-main/pomdp-discrete/logs_results/network-defender/final/lstm/seed-4/save/agent_0015000_perf38.040.pt (torch, 941646 bytes, 28 tensors)

critic.observ_embedder.fc.weight f4 [32, 15]
0	0x3e4696b2	0.19393423
1	0xbdc75380	-0.09732723
2	0xbe959b4b	-0.29220042
3	0xbd21c384	-0.0394931
4	0xbe6ab8f2	-0.22922114
5	0xbe92572e	-0.28582138
6	0x3f142a2f	0.5787687
7	0x3da5b550	0.08091223
8	0x3e510f7e	0.20416066
9	0x3ec7cc01	0.3902283
10	0xbde3e195	-0.11127011
11	0xbe56d062	-0.20977929
12	0x3e9e7420	0.3094797
13	0x3d0b58f7	0.03402039
14	0x3d824f30	0.0636276
15	0x3ea7b59c	0.32755744
16	0x3ebe1fa3	0.37133512
17	0xbe1521fb	-0.14563744
18	0xbe6b246a	-0.2296311
19	0xbeb49341	-0.35268596
20	0x3d2a4e44	0.041578546
21	0xbe44348c	-0.1916067
22	0xbd00b4a9	-0.03142229
23	0xbda4b9b1	-0.0804323
24	0x3eee5b63	0.46554098
25	0x3e07b782	0.13253596
26	0x3e3af705	0.18258293
27	0x3d1c7c9c	0.038204774
28	0x3ecc4fc1	0.39904597
29	0xbdfc4245	-0.123173274
30	0x3ed941c0	0.42432976
31	0x3e65aef3	0.22430019
32	0xbe4e19ce	-0.20127031
33	0x3e8e9c8d	0.27853814
34	0x3d9de568	0.077097714
35	0xbe0475eb	-0.12935607
36	0xbe9554ae	-0.29166168
37	0x3e74e6e2	0.239162
38	0x3e343f0f	0.1760218
39	0xbd4024ed	-0.046910215
40	0x3e3da49e	0.18519828
41	0x3dfd8796	0.123793766
42	0x3eacebf0	0.33773756
43	0xbe47cf26	-0.19512615
44	0xbdc39b7a	-0.09551139
45	0x3ec044f6	0.37552613
46	0x3e4327dc	0.19058174
47	0x3d20065b	0.03906856
48	0xbe24cf60	-0.16094732
49	0x3ede237d	0.4338645
50	0xbe5bfa3e	-0.21482179
51	0x3ebb40d9	0.36572912
52	0xbd824aa1	-0.063618906
53	0xbe4d0ae8	-0.20023692
54	0xbe996578	-0.29960227
55	0xbc8cf78b	-0.017207881
56	0x3d07549d	0.033039678
57	0x3e5bc999	0.21463622
58	0x3e3fc841	0.18728735
59	0x3ebbcaa9	0.36678055
60	0xbe0b9bd8	-0.13633668
61	0x3e627a4a	0.22116962
62	0xbeb346cd	-0.35014954
63	0x3e8157cb	0.25262293
64	0x3da87e29	0.08227188
65	0x3deec132	0.11657943
66	0x3cfcb1c0	0.030846477
67	0xbe2360d1	-0.15954901
68	0x3b39ad88	0.0028332192
69	0x3d55fdc7	0.052243974
70	0x3d24236a	0.040072836
71	0xbe303cb9	-0.17210664
72	0xbdcc79d5	-0.09984175
73	0xbdade085	-0.08490089
74	0xbe0b7ec3	-0.13622575
75	0x3ec9e592	0.3943296
76	0x3f00d8b8	0.50330687
77	0x3daefbd0	0.08544123
78	0x3d505c5f	0.050869342
79	0xbe92bfad	-0.28661862
80	0x3d99ce7f	0.07510089
81	0x3ed0e3aa	0.40798694
82	0x3e474261	0.19458915
83	0xbe87ea39	-0.26545885
84	0xbd66cf70	-0.05635017
85	0xbdef130d	-0.116735555
86	0x3e813c07	0.2524111
87	0xbd198000	-0.037475586
88	0xbe215f7b	-0.15759079
89	0xbe9d888b	-0.30768237
90	0x3e3e8d73	0.18608646
91	0xbdc1e701	-0.094678886
92	0x3e88cb96	0.26717824
93	0x3da659bb	0.081225835
94	0x3e18362a	0.14864412
95	0xbd6fbb37	-0.05852815
96	0xbe1f7089	-0.15570273
97	0xbd55fbda	-0.052242137
98	0x3f1ffa81	0.62491614
99	0xbe41810e	-0.18896887
100	0xbd0a90b6	-0.033829413
101	0x3e707010	0.23480248
102	0x3d14100b	0.036148112
103	0x3d865ec1	0.065610416
104	0xbdae8452	-0.08521332
105	0x3e178b81	0.1479931
106	0xbeb31607	-0.34977743
107	0xbdd51060	-0.10403514
108	0x3d620316	0.055178724
109	0xbdc822a0	-0.09772229
110	0x3d6a2fb9	0.057174418
111	0xbe02c870	-0.12771773
112	0xbde7cff4	-0.11318961
113	0xbe30c3cd	-0.17262192
114	0x3e76bf94	0.24096519
115	0x3e8e6aca	0.2781585
116	0xbd07d611	-0.033163134
117	0xbd2c8fb9	-0.042129252
118	0x3e183018	0.14862096
119	0x3ea448f6	0.32086915
120	0x3e10792a	0.1410872
121	0xbe83d8a6	-0.25751227
122	0x3eae9ac7	0.3410246
123	0x3d50f4ee	0.051014833
124	0x3e90f671	0.2831302
125	0xbe88e95f	-0.26740548
126	0x3d6d8388	0.057986766
127	0x3eb69536	0.35660714
128	0xbe40f982	-0.1884518
129	0x3eaf7650	0.34269953
130	0xbcd5bf39	-0.026092159
131	0x3ea345d0	0.318892
132	0x3ce5e281	0.028062107
133	0x3d8a5edb	0.067563735
134	0xbcda25f9	-0.026629435
135	0xbd117739	-0.03551409
136	0x3e9cfcc0	0.30661583
137	0xbc57c379	-0.013169163
138	0x3e787ee5	0.24267156
139	0xbe1b1958	-0.15146387
140	0xbb2a75b3	-0.0026010096
141	0x3e132b47	0.14371978
142	0xbee8502e	-0.45373672
143	0xb9ae1d95	-0.00033209907
144	0x3cf426e8	0.029803708
145	0x3d906492	0.07050432
146	0xbd4f408f	-0.050598677
147	0xbdf330c3	-0.11874535
148	0x3e46b352	0.19404343
149	0x3e45c5ac	0.19313687
150	0xbdfebccb	-0.12438353
151	0x3dce6610	0.100780606
152	0xbe626b7b	-0.22111313
153	0x3c2647b4	0.010148931
154	0xbdb5cfce	-0.08877526
155	0xbddd40f6	-0.10803406
156	0xbe566e30	-0.2094047
157	0x3e4fd568	0.20296252
158	0x3cc2d7c4	0.023784526
159	0x3c9176ee	0.017756905
160	0xbd1f3014	-0.03886421
161	0xbddb4b0e	-0.10707675
162	0xbe4c690c	-0.19961947
163	0x3d4974e7	0.049183752
164	0xbe4e423b	-0.20142452
165	0xbe0b5f7d	-0.13610645
166	0x3df05770	0.117354274
167	0x3ef80c9b	0.48447117
168	0xbe2d93de	-0.16950938
169	0xbeb5f8e9	-0.35541466
170	0x3eddba96	0.43306416
171	0x3e726b20	0.23673677
172	0x3e05d895	0.130709
173	0xbdc9e61b	-0.09858342
174	0xbde6846d	-0.11255727
175	0x3c3c5b04	0.011496309
176	0xbd96b808	-0.0735932
177	0x3dd7eb47	0.105429225
178	0xbe21fdef	-0.15819524
179	0x3ea84500	0.32865143
180	0x3de15dbe	0.11004208
181	0x3d43ea10	0.04783064
182	0xbe072bcd	-0.13200302
183	0xbdaa1938	-0.08305591
184	0xbcf73d19	-0.0301805
185	0xbd71beb2	-0.05901975
186	0x3e2eba42	0.17063239
187	0xbd43263e	-0.047643892
188	0x3df5f576	0.120097086
189	0xbe596960	-0.21231604
190	0xbdf491f7	-0.11941903
191	0x3e79de49	0.24401201
192	0x3ec52cdc	0.38510787
193	0xbeb8b49e	-0.360753
194	0x3d3fb868	0.046806723
195	0x3e843021	0.2581797
196	0xbe417a65	-0.18894346
197	0x3e9f5991	0.3112302
198	0x3e2d9559	0.16951503
199	0xbeac82b1	-0.3369346
200	0x3e832ade	0.25618643
201	0xbe6274ea	-0.22114912
202	0x3e47d0d8	0.19513261
203	0x3e0af56d	0.13570185
204	0x3d8b8136	0.068117544
205	0xbdd6c88d	-0.10487471
206	0xbef4423d	-0.47706786
207	0x3e788ace	0.242717
208	0x3e73be6e	0.23803112
209	0x3e24be43	0.16088204
210	0x3f048801	0.51770025
211	0xbcaa18c7	-0.020763768
212	0xbe8068e1	-0.25080016
213	0xbccc7abe	-0.024960872
214	0x3ee7ddc3	0.45286378
215	0x3ee64451	0.44973996
216	0x3e882d4e	0.26597065
217	0xbce2a9d6	-0.027668875
218	0xbc61a44c	-0.013772082
219	0x3ee48f28	0.4464047
220	0x3e5e443b	0.21705715
221	0xbefc65e5	-0.4929649
222	0xbee0a9d9	-0.43879583
223	0xbd1e6958	-0.038674682
224	0xbe0afc9f	-0.1357293
225	0xbcdb17d5	-0.026744762
226	0x3e89caf7	0.26912662
227	0xbe45e91d	-0.19327207
228	0x3c64d7ca	0.013967464
229	0x3d9def3b	0.07711645
230	0x3d2e1dbd	0.04250883
231	0xbe39a702	-0.18130115
232	0x3e45aced	0.19304247
233	0x3efb63e4	0.49099648
234	0x3e0a5a05	0.13510902
235	0x3dd30273	0.103032015
236	0x3d0440e7	0.03228846
237	0xbe4b1864	-0.19833523
238	0xbe4a695c	-0.19766754
239	0x3f09740e	0.5369271
240	0xbe33e2d4	-0.17566997
241	0x3df35275	0.11880962
242	0xbdbd988c	-0.09257612
243	0x3dacc859	0.08436651
244	0x3de4901a	0.11160298
245	0x3e37e395	0.1795791
246	0xbe26cba3	-0.16288619
247	0xbd1087f7	-0.035285916
248	0xbe36ca6f	-0.1785066
249	0x3d4d5d08	0.05013755
250	0xbdffcca1	-0.12490202
251	0x3cb9be56	0.022673767
252	0xbe5b6465	-0.21425016
253	0xbd79e244	-0.0610068
254	0xbe5fc46d	-0.21852274
255	0xbe67dc29	-0.22642578

critic.observ_embedder.fc.bias f4 [32]
0	0x3cc2f7f5	0.023799876
1	0x3d73e06a	0.05954019
2	0xbe2cf983	-0.16892056
3	0xbe4102b1	-0.18848683
4	0x3ea63d56	0.3246867
5	0xbcaf04bb	-0.02136456
6	0xbea7367d	-0.3265876
7	0x3cb20642	0.0217315
8	0xbe6d82e4	-0.23194462
9	0x3e3caeea	0.184261
10	0xbe623179	-0.22089185
11	0xbd765394	-0.0601383
12	0x3e45834f	0.19288372
13	0x3e1a92cf	0.15095066
14	0x3e04f748	0.12984955
15	0xbe62c242	-0.22144416
16	0xbe21c6f6	-0.15798554
17	0xbe121217	-0.14264713
18	0xbe7c8801	-0.24661256
19	0xbe230930	-0.15921474
20	0x3da0cd62	0.07851674
21	0x3ea6c002	0.32568365
22	0xbd902821	-0.07038904
23	0x3e9de5e7	0.30839464
24	0x3d4c342b	0.04985444
25	0x3815f605	3.5753492e-05
26	0xbe1b0fbc	-0.15142721
27	0x3ea70d1f	0.32627198
28	0x3e82e6ec	0.25566804
29	0x3e0e2eab	0.1388499
30	0xbe77822e	-0.24170753
31	0xbd58e681	-0.0529542

critic.action_embedder.fc.weight f4 [16, 16]
0	0xbe070a47	-0.13187514
1	0xbea27041	-0.31726268
2	0xbd37795d	-0.044793475
3	0x3e0b4e33	0.1360405
4	0x3e887cd9	0.2665775
5	0xbea2301c	-0.3167733
6	0x3da2bae6	0.07945804
7	0x3e80a161	0.25123122
8	0xbe36b229	-0.178414
9	0xbea1cb66	-0.31600493
10	0xbea16d0e	-0.31528515
11	0x3eb100e7	0.34571
12	0x3e107a49	0.14109148
13	0x3eabe0bd	0.335699
14	0x3d2e1a5c	0.042505607
15	0x3d41c10d	0.04730325
16	0xbc074680	-0.008256555
17	0x3e0dafd7	0.13836609
18	0xbe7a295a	-0.24429837
19	0xbdc6eda8	-0.09713298
20	0x3c190c70	0.009341344
21	0x3c1c6a6b	0.009546856
22	0x3c0738db	0.0082533015
23	0x3f5571bd	0.83376676
24	0x3dfb276e	0.1226338
25	0x3c0203eb	0.007935504
26	0x3f3a7a51	0.7284289
27	0xbe18dce0	-0.14928007
28	0xbb4f9980	-0.0031677186
29	0x3e810483	0.25198755
30	0x3c257651	0.01009901
31	0x3e9b684a	0.30353004
32	0xbd65ae60	-0.0560745
33	0x3f1f9533	0.62337035
34	0x3dcf7a54	0.10130754
35	0x3e8d6621	0.2761698
36	0xbe8fbc33	-0.28073272
37	0x3bd9c0d6	0.0066453023
38	0x3e7ded92	0.24797657
39	0x3c5f54c0	0.013631046
40	0x3e13b15f	0.1442313
41	0xbe077d89	-0.13231482
42	0xbd12f741	-0.03588033
43	0x3f1058bf	0.56385416
44	0xbce0cb66	-0.027440738
45	0xbe7c14ba	-0.24617282
46	0xbd58c8c1	-0.05292583
47	0x3df21f5f	0.1182239
48	0xbe3fc93e	-0.18729112
49	0xbe0b6bb8	-0.1361531
50	0xbe3182e5	-0.17335089
51	0xbc6bf31a	-0.014401222
52	0xbe32f0a9	-0.17474617
53	0x3f58f3e5	0.84747154
54	0xbe31e385	-0.17371948
55	0xbe206e72	-0.15667132
56	0xbe1e1b48	-0.15440094
57	0xbe327091	-0.17425753
58	0xbe328100	-0.17432022
59	0xbdf1b5a7	-0.118022256
60	0x3ebf7dd6	0.37400693
61	0x3e84a3ea	0.25906307
62	0x3f119dca	0.5688139
63	0xbe3357c6	-0.17513952
64	0xbe4f1d0e	-0.20225927
65	0xbe765436	-0.24055561
66	0xbe4f8d62	-0.20268777
67	0xbe5179e8	-0.2045666
68	0xbe50d560	-0.20393896
69	0xbe50990f	-0.20370887
70	0x3e9a5cf1	0.30149034
71	0xbe508b41	-0.20365621
72	0x3f00609a	0.501474
73	0xbe4f2e2a	-0.20232454
74	0xbe4ee03d	-0.20202728
75	0xbe76156e	-0.24031612
76	0x3f578b93	0.8419735
77	0x3c333f47	0.010940379
78	0xbe4fa984	-0.20279509
79	0x3e8181c4	0.25294316
80	0xbe8392ce	-0.2569794
81	0x3da9b92e	0.08287273
82	0x3e709d84	0.23497587
83	0xbe8936ad	-0.26799527
84	0xbdcd7f0b	-0.10033997
85	0xbe10d0a9	-0.14142098
86	0x3e779bf4	0.24180585
87	0x3a3b5477	0.000714607
88	0xbe8393df	-0.25698754
89	0x3f3972cb	0.72440785
90	0xbe826bf6	-0.25472993
91	0xbe4a07e2	-0.1972957
92	0xbd147da5	-0.036252636
93	0x3f522423	0.8208639
94	0x3d215906	0.03939154
95	0x3c26f8ac	0.010191124
96	0xbe19a788	-0.15005314
97	0xbdcc70ef	-0.09982478
98	0x3f516df5	0.81808406
99	0xbdca1a58	-0.09868306
100	0xbcc2cb6f	-0.023778645
101	0x3f0a8f0c	0.5412452
102	0xbe0730c0	-0.1320219
103	0xbdcaca3f	-0.09901857
104	0xbdcf745b	-0.10129615
105	0xbe4d724a	-0.20063129
106	0xbdcfb360	-0.10141635
107	0xbc835b88	-0.016034856
108	0x3e89e244	0.2693044
109	0xbdca9152	-0.09890999
110	0xbdce5328	-0.100744545
111	0x3dd07d4a	0.10180147
112	0xbe69e6ee	-0.22841999
113	0xbdc28760	-0.09498477
114	0xbe179190	-0.14801621
115	0xbe4138a6	-0.18869266
116	0x3e92dc42	0.28683668
117	0x3e0fc23f	0.14038943
118	0xbe5ad388	-0.21369755
119	0xbe3159d0	-0.17319417
120	0x3eaab5e2	0.3334189
121	0x3df166b9	0.11787171
122	0x3f234857	0.63782257
123	0x3f04f8b2	0.5194198
124	0xbe185bab	-0.14878719
125	0xbccfb2ee	-0.025353875
126	0xbe6d6666	-0.23183593
127	0xbe06c5b2	-0.13161352
128	0x3f2e5338	0.6809573
129	0xbe869bda	-0.2629078
130	0xbe8d18ff	-0.27558133
131	0xbe2d208d	-0.16906948
132	0xbdaee8f4	-0.08540526
133	0xbd3b114f	-0.045670804
134	0xbe8ccf11	-0.2750173
135	0x3bc338ed	0.005957714
136	0xbe8d3367	-0.2757828
137	0xbca337f9	-0.01992415
138	0xbe8cf07f	-0.27527234
139	0xbdabe121	-0.08392549
140	0xbe8cef3d	-0.27526274
141	0xbe65e417	-0.2245029
142	0xbe8c2241	-0.27369884
143	0x3f04a47d	0.5181349
144	0xbdc3896f	-0.09547698
145	0xbdc47781	-0.09593106
146	0xbdbefcec	-0.09325585
147	0xbdeae4b4	-0.11469403
148	0xbd9ab5c5	-0.07554201
149	0x3e052503	0.130024
150	0xbe6d1a26	-0.23154506
151	0x3ef4c34c	0.4780525
152	0x3f719547	0.94368404
153	0x3ef6a8a2	0.48175532
154	0xbdc088ec	-0.09401116
155	0xbdbe2f82	-0.09286405
156	0xbdc286c3	-0.0949836
157	0xbe16a80e	-0.14712545
158	0xbdc24369	-0.09485514
159	0x3cc26adb	0.023732593
160	0xbe3fb64f	-0.18721889
161	0x3e411b72	0.18858126
162	0xbe410da2	-0.18852857
163	0x3ee44341	0.4458256
164	0x3dc06951	0.093950875
165	0x3f2733e4	0.65313554
166	0x3f63f990	0.8905268
167	0xbe51c316	-0.20484576
168	0x3e189d14	0.1490367
169	0xbe3f0cbd	-0.18657203
170	0x3e6b310c	0.22967929
171	0xbe34344a	-0.17598072
172	0xbe6bb998	-0.23020017
173	0x3e212f52	0.15740708
174	0xbddb8728	-0.107191384
175	0x3e555461	0.20832969
176	0x3e88e252	0.2673517
177	0x3df3ded3	0.11907735
178	0x3f02bc35	0.5106843
179	0x3e4f2187	0.20227633
180	0x3e4ef3eb	0.20210235
181	0xbe9663f2	-0.29373127
182	0xbe965dc9	-0.29368427
183	0xbe973adc	-0.29537094
184	0x3ea0df59	0.314204
185	0x3dae696f	0.085162036
186	0x3e4cb960	0.1999259
187	0xbe748874	-0.23880178
188	0xbcc134f4	-0.02358482
189	0x3e9fe608	0.31230187
190	0xbe961e26	-0.29319876
191	0xbe39d0e5	-0.18146093
192	0xbe322947	-0.17398559
193	0x3f460280	0.77347565
194	0xbdcbb5cf	-0.099467866
195	0xbe63e0da	-0.22253743
196	0x3f0fe02e	0.56201446
197	0xbc5202c4	-0.012818042
198	0xbe3138f7	-0.17306887
199	0xbe329661	-0.17440178
200	0xbe33b46f	-0.17549299
201	0xbe32f2ea	-0.17475477
202	0xbe313894	-0.17306739
203	0x3daefc24	0.08544186
204	0xbe336386	-0.17518434
205	0xbe33f3cd	-0.17573471
206	0x3ead5837	0.33856365
207	0xbe5723e2	-0.21009782
208	0xbe6d7e6e	-0.2319276
209	0x3dd4c320	0.1038878
210	0xbd336880	-0.04380083
211	0x3d4262b8	0.047457427
212	0xbaea4f00	-0.0017876327
213	0x3e07e9d6	0.13272795
214	0x3d256f20	0.04038918
215	0xbe34ebd0	-0.1766808
216	0x3d9da6f0	0.076978564
217	0x3db7b388	0.0896979
218	0x3e47402e	0.19458076
219	0x3e2977ee	0.16549656
220	0xbe263346	-0.16230497
221	0xbd118208	-0.035524398
222	0x3d4f4c68	0.050609976
223	0xbd1f6828	-0.03891769
224	0x3f47ac91	0.7799769
225	0xbd091775	-0.033469636
226	0xbdd2bb90	-0.10289681
227	0xbeafab7f	-0.3431053
228	0x3bfe4eda	0.0077608647
229	0xbe05c7a2	-0.13064435
230	0x3eb1bd9d	0.34714976
231	0x3ec776c0	0.38957787
232	0x3e674f44	0.22588831
233	0x3e60c8f1	0.21951653
234	0x3e90fb59	0.28316763
235	0x3cff2b52	0.031148586
236	0x3cc55c11	0.024091752
237	0xbe2f2413	-0.17103605
238	0x3e95e9d0	0.29279947
239	0xbe7e44bc	-0.24830908
240	0xbe77543c	-0.24153227
241	0xbe761a81	-0.24033548
242	0xbe776d9a	-0.24162903
243	0x3eb21567	0.34781954
244	0x3e57bd51	0.21068312
245	0xbe79048a	-0.24318138
246	0xbe74797a	-0.23874465
247	0x3d43e732	0.047827907
248	0xbe765cd9	-0.24058856
249	0x3f58a1c2	0.8462182
250	0xbe75875d	-0.23977418
251	0xbe748614	-0.23879272
252	0x3e2ff265	0.1718231
253	0xbe776fa1	-0.24163677
254	0x3e64402c	0.22290105
255	0xbe776ac8	-0.24161828

critic.action_embedder.fc.bias f4 [16]
0	0x3ea0ee43	0.3143178
1	0xbc3edd27	-0.0116494065
2	0x3e8f05a5	0.27933994
3	0x3e2f9d45	0.17149837
4	0x3e4d0b9a	0.20023957
5	0x3e8046c7	0.25054
6	0x3dc63305	0.096777
7	0x3e159280	0.14606667
8	0x3e8c0199	0.2734497
9	0x3dbaf9f4	0.09129706
10	0x3e3e4f59	0.18584956
11	0x3e95ae0f	0.2923436
12	0x3e302d9e	0.17204902
13	0xbe4cf276	-0.20014367
14	0x3ead51e9	0.33851555
15	0x3e73d4b2	0.23811606

critic.seq_model.model.weight_ih_l0 f4 [256, 48]
0	0x3d7c582a	0.061607517
1	0xbe90d100	-0.28284454
2	0x3e8c34b3	0.27383956
3	0xbe3aee56	-0.1825498
4	0x3eaa462b	0.3325666
5	0xbceb213b	-0.028702369
6	0xbd8303cb	-0.06397208
7	0xbde69938	-0.11259693
8	0x3bb376ea	0.005476822
9	0x3f576cda	0.8415047
10	0x3e08bf55	0.13354237
11	0xbecf5f17	-0.40502235
12	0x3df7f82f	0.12107884
13	0x3d314853	0.043281864
14	0x3e0d1b66	0.13779983
15	0xbe90f588	-0.28312325
16	0xbd57a841	-0.052650694
17	0xbcde160b	-0.02711012
18	0x3e23d891	0.16000582
19	0x3f2c9f78	0.6743083
20	0xbe9364d2	-0.28787857
21	0x3c4b6213	0.012413519
22	0xbd381934	-0.04494591
23	0x3e5386a2	0.20656827
24	0x3e284730	0.16433406
25	0x3dba1c6d	0.09087453
26	0xbcf4efc5	-0.029899487
27	0x3e37f4b8	0.17964447
28	0x3eb2fb17	0.3495719
29	0x3daa3f47	0.083128504
30	0x3e94cebe	0.29063982
31	0xb9aad56b	-0.00032583936
32	0xbd9cd40c	-0.07657632
33	0x3d59be31	0.053159896
34	0xbe4bb3ca	-0.19892803
35	0x3f2a5686	0.66538274
36	0x3e5f1eca	0.21789089
37	0x3e04fdef	0.12987493
38	0x3e8365ed	0.256637
39	0xbe4d2609	-0.2003404
40	0x3e33ea8a	0.17569938
41	0x3ef2fffb	0.47460923
42	0x3e44c0a0	0.19214106
43	0x3dd30341	0.10303355
44	0x3f0b06f1	0.54307467
45	0x3e5712b8	0.21003234
46	0x3bd3c0e5	0.006462204
47	0x3f264731	0.6495238
48	0x3e30e648	0.17275345
49	0x3eb72b79	0.35775355
50	0x3b05c0ff	0.0020409224
51	0x3df8fab3	0.12157192
52	0x3cdb28d9	0.026752876
53	0x3d34f35d	0.0441774
54	0xbec92d51	-0.39292386
55	0xbd98796f	-0.074450366
56	0x3dac6a72	0.0841874
57	0x3d243c44	0.040096536
58	0xbcb6b458	-0.022302791
59	0x3e71b2fd	0.23603435
60	0x3eb75811	0.35809377
61	0x3d5b1bb0	0.0534932
62	0xbca48436	-0.020082574
63	0x3dcd61be	0.100284085
64	0xbe25fa00	-0.16208649
65	0x3e612663	0.219873
66	0x3d79e16a	0.061005987
67	0xba89c7f0	-0.0010511857
68	0x3dbe70c6	0.092988536
69	0x3dc4945c	0.0959861
70	0xbe1d24da	-0.15346089
71	0x3f0483c3	0.5176355
72	0x3d3cf221	0.04612935
73	0x3d75aae3	0.059977423
74	0x3d7a04ab	0.061039608
75	0xbcbe7472	-0.023248885
76	0x3e8ce013	0.27514705
77	0x3d8521ea	0.06500609
78	0x3cf16fcd	0.029472256
79	0x3d4b861a	0.049688436
80	0xbc4ebd50	-0.012618378
81	0xbc977bc3	-0.018491631
82	0x3b9b6cc2	0.0047431896
83	0xbe029f89	-0.1275617
84	0xbe60bc98	-0.21946943
85	0x3d5e1557	0.05421957
86	0x3d18458c	0.0371757
87	0xbe36d704	-0.1785546
88	0xbdc37d8e	-0.09545432
89	0x3d17a397	0.037021246
90	0xbe4131e9	-0.18866695
91	0xbbee0300	-0.007263541
92	0x3e0eb650	0.13936734
93	0x3d09e721	0.033667687
94	0x3def1444	0.11673787
95	0x3ecaa1ef	0.3957667
96	0xbda61b97	-0.08110731
97	0xbe64a5c5	-0.22328861
98	0xbdc2e802	-0.09516908
99	0x3e24964c	0.16072959
100	0xbe90e4a5	-0.28299442
101	0xbe068c52	-0.13139465
102	0xbeb6f73c	-0.357355
103	0xbda1eab3	-0.079060934
104	0xbe900528	-0.28128934
105	0x3f1c738b	0.61113805
106	0xbe3cde21	-0.1844411
107	0x3e038b28	0.12846053
108	0x3f10e3df	0.56597704
109	0x3c7b42eb	0.015335779
110	0x3e2be07e	0.16784856
111	0xbdf5f461	-0.12009502
112	0x3dec9824	0.11552456
113	0x3e5873c6	0.21137914
114	0x3e6311c2	0.22174743
115	0x3d99d58a	0.075114325
116	0x3e3320ea	0.17493024
117	0x3e57ce2c	0.21074742
118	0xba7d6b5b	-0.00096671813
119	0x3e0c0df7	0.13677202
120	0x3e03d139	0.12872781
121	0xbe2a1555	-0.166097
122	0xbd245d11	-0.040127818
123	0x3c8577cc	0.016292475
124	0x3db21b5d	0.086966254
125	0x3e40d5c1	0.1883154
126	0x3bebd78e	0.007197327
127	0xbdc8eda4	-0.09810951
128	0xbd407e84	-0.046995655
129	0xbde45d79	-0.11150641
130	0x3d9f5a5f	0.07780909
131	0xbd839bda	-0.06426211
132	0x3dfd5f0a	0.12371643
133	0x3e27a282	0.16370586
134	0x3e6f5d6d	0.23375483
135	0x3e979c8b	0.2961162
136	0x3dc420a7	0.095765404
137	0x3ea3a90b	0.31964907
138	0x3f482440	0.78180313
139	0x3e8f4b7e	0.27987283
140	0x3e19b988	0.15012181
141	0x3bc64c21	0.0060515557
142	0x3d82ce23	0.06386974
143	0x3deb4c45	0.11489157
144	0x3e72ef52	0.23724106
145	0xbedc3d18	-0.4301536
146	0x3d543fcd	0.051818658
147	0x3e6267f5	0.22109969
148	0xbeba70b5	-0.36414114
149	0xbdd9cca7	-0.106347375
150	0xbdfae153	-0.122500084
151	0xbf0bceb1	-0.5461226
152	0xbe678460	-0.22609091
153	0xbb3df01b	-0.0028982225
154	0x3e87c16e	0.26514763
155	0xbbffd5e9	-0.0078074825
156	0xbed636fd	-0.41838828
157	0x3bd4abb9	0.0064901975
158	0x3e75098a	0.2392942
159	0x3df71c2a	0.12065919
160	0xbdaf3b3b	-0.08556219
161	0xbe0bb422	-0.13642934
162	0xbdfe6cd8	-0.12423104
163	0xbd97c345	-0.074102916
164	0x3dd22d1a	0.10262509
165	0xbe823613	-0.2543188
166	0x3e2580a5	0.16162355
167	0x3e2cffa9	0.16894402
168	0xbd746dd3	-0.05967505
169	0x3ca264b4	0.01982341
170	0xbda04719	-0.07826061
171	0xbe9f8351	-0.31154874
172	0x3def452b	0.116831146
173	0x3e15d650	0.14632535
174	0x3d2ef12f	0.04271048
175	0x3d7f211e	0.062287442
176	0x3d20d4e6	0.039265536
177	0x3e134c54	0.14384586
178	0xbd7e9157	-0.062150326
179	0xbd878b5d	-0.06618378
180	0x3c9fd146	0.019508969
181	0xbd87192c	-0.06596598
182	0xbc918250	-0.017762333
183	0xbae6d8cf	-0.0017612221
184	0xbe7ef288	-0.24897206
185	0xbeedd9e4	-0.464553
186	0x3fa6b1ef	1.3023051
187	0xbd4d9f15	-0.05020054
188	0x3e5aecc0	0.21379375
189	0xbcfeb150	-0.031090409
190	0xbd91c3fc	-0.07117459
191	0xbd8a5a3b	-0.06755491
192	0x3db974da	0.09055491
193	0x3d61fb1f	0.05517113
194	0x3cdc290e	0.026875045
195	0xbe43dd5c	-0.1912741
196	0x3ee9720f	0.45594832
197	0x3f027ac6	0.5096859
198	0x3d458aa5	0.048227925
199	0x3e71a231	0.23597027
200	0x3dc18789	0.094496794
201	0x3da42a3f	0.0801587
202	0xbcb800a7	-0.022461249
203	0x3e3417a2	0.1758714
204	0x3e229a96	0.15879282
205	0x3d893e4c	0.06701335
206	0x3ea42b22	0.32064158
207	0x3ce8029e	0.02832156
208	0xbeba349f	-0.36368272
209	0x3e9ae94e	0.30256122
210	0x3dc58d8e	0.0964614
211	0x3d713a46	0.058893465
212	0x3e5a3b83	0.21311764
213	0x3e28fe33	0.1650322
214	0x3e5ffe02	0.2187424
215	0x3f036061	0.5131894
216	0xbd72f3b0	-0.05931443
217	0x3e850a59	0.25984457
218	0xbda9ce0a	-0.08291252
219	0x3d92946e	0.07157217
220	0xbe1694e7	-0.14705239
221	0x3af0bb31	0.0018366334
222	0x3e85c6e7	0.26128313
223	0x3da94bb3	0.082663916
224	0x3da1b067	0.07894974
225	0xbe753362	-0.23945382
226	0xbe8dbe13	-0.27684078
227	0x3eecbeeb	0.4623941
228	0xbd00f476	-0.031483136
229	0x3e85da9a	0.26143342
230	0x3f22cc1e	0.6359271
231	0x3e5114d5	0.20418103
232	0x3ea5e63c	0.32402217
233	0x3e410c65	0.18852384
234	0x3d834cd6	0.0641114
235	0xbecf6fb7	-0.4051492
236	0x3e093ae3	0.1340137
237	0xbd8b5421	-0.06803156
238	0x3e7b04bc	0.24513525
239	0xbea28d82	-0.31748587
240	0x3e4441b7	0.19165693
241	0x3e686abe	0.22696969
242	0xbe2d9dfa	-0.16954795
243	0x3e820336	0.25393075
244	0xbc190a62	-0.009340854
245	0x3eb2cdc6	0.34922618
246	0x3de0251c	0.10944578
247	0xbcc1d50f	-0.023661165
248	0x3d3382c4	0.04382588
249	0x3ee52f6d	0.44762745
250	0x3e8841bc	0.2661265
251	0x3ed272ac	0.41103113
252	0x3e0cf562	0.13765481
253	0x3c32ce1d	0.010913399
254	0x3cc775a2	0.024348084
255	0x3f2f0c7a	0.6837841

critic.seq_model.model.weight_hh_l0 f4 [256, 64]
0	0x3e114c35	0.14189227
1	0x3f11d049	0.5695844
2	0x3e743133	0.23846893
3	0x3eca554c	0.395182
4	0x3e151a9e	0.14560935
5	0xbdfe2c9e	-0.12410854
6	0x3ed8f4d5	0.42374292
7	0xbe16d6bc	-0.14730352
8	0x3e9e5926	0.3092739
9	0xbb81b057	-0.003957789
10	0x3e5bc2de	0.21461055
11	0xbd8633bd	-0.06552837
12	0x3e8252d7	0.25453827
13	0x3eb1cbd9	0.34725836
14	0xbebdc3d5	-0.3706347
15	0xbdba6c8a	-0.091027334
16	0xbdb6dcaf	-0.08928811
17	0x3e1e3488	0.15449727
18	0x3ddf648d	0.109078504
19	0x3f1d0ca1	0.61347395
20	0xbd95ca4b	-0.07313975
21	0xbcacf178	-0.021111235
22	0x3d83e138	0.064394414
23	0x3e2f0b78	0.17094219
24	0xbe312f75	-0.1730326
25	0xbf03f8cb	-0.515515
26	0x3d8b1d6d	0.06792722
27	0xbd3cdea8	-0.04611078
28	0xbe38c708	-0.18044674
29	0xbe6fe6b7	-0.23427854
30	0x3d62697b	0.055276375
31	0xbe4a62a6	-0.19764194
32	0x3de664e4	0.11249712
33	0x3da93a46	0.08263068
34	0x3e5d7dd0	0.21630025
35	0xbe05f943	-0.13083367
36	0xbdd1d9d9	-0.10246629
37	0x3e9cbe11	0.3061376
38	0x3d98abbe	0.07454632
39	0xbd4838b1	-0.04888219
40	0xbd9a34b9	-0.07529587
41	0xbd8ba488	-0.06818491
42	0x3d95c57e	0.07313059
43	0x3e3c3773	0.18380527
44	0xbe64d125	-0.22345407
45	0xbd1ca875	-0.03824659
46	0xbd92ce5e	-0.07168268
47	0x3e1bacea	0.1520268
48	0x3e8d0de9	0.27549675
49	0xbe4949bd	-0.19657035
50	0x3e70eadb	0.2352709
51	0xbe6e3612	-0.23262814
52	0xbda52a5b	-0.08064719
53	0x3e2c2ebe	0.16814706
54	0xbec384c5	-0.38187233
55	0xbe12a683	-0.14321332
56	0x3c105127	0.008808411
57	0x3e89dc3b	0.26925835
58	0xbdd2203c	-0.102600545
59	0x3e9e96c3	0.30974397
60	0xbead8565	-0.33890834
61	0x3e152b1e	0.14567229
62	0x3dfa9caa	0.122369125
63	0xbe8ceddb	-0.2752522
64	0xbd8fba8d	-0.070180036
65	0x3d73156a	0.059346594
66	0xbdeb2be0	-0.11482978
67	0xbe3f1026	-0.18658504
68	0x3dc05ca6	0.09392671
69	0xbe0df86e	-0.138643
70	0xbe03ccf3	-0.1287115
71	0x3e5bb4b3	0.2145565
72	0x3eb4656c	0.3523363
73	0x3e2d875d	0.16946168
74	0x3d8cdead	0.068784095
75	0x3e30fd92	0.1728423
76	0x3dab5642	0.08366062
77	0x3e1e45c0	0.15456295
78	0xbe685052	-0.2268689
79	0xbcc5eece	-0.024161723
80	0x3e85a1ef	0.26100108
81	0xbeea6243	-0.45778093
82	0xbd3f0d17	-0.046643343
83	0x3ecc701a	0.39929277
84	0xbd6f9861	-0.05849493
85	0x3f05fbce	0.5233735
86	0xbee0b6b4	-0.4388939
87	0xbedeb566	-0.4349777
88	0x3df47e6d	0.11938176
89	0x3ebe9aaf	0.3722739
90	0x3e102c17	0.14079319
91	0xbe820305	-0.2539293
92	0xbe76ee31	-0.241143
93	0xbdab606c	-0.083680004
94	0xbead9832	-0.33905178
95	0xbe6b452b	-0.22975604
96	0xbe0e50c4	-0.13897997
97	0xbf0a5153	-0.5403034
98	0xbe6e659d	-0.2328095
99	0x3d87546d	0.066079
100	0xbd9ce04d	-0.076599695
101	0x3e6979e5	0.22800405
102	0xbf00f996	-0.5038084
103	0xbe8de645	-0.27714744
104	0x3eb29f54	0.34887183
105	0x3de25cc6	0.110528514
106	0xbe3dbb45	-0.18528469
107	0x3e20452d	0.15651388
108	0x3e5b9708	0.21444333
109	0xbd3c0918	-0.04590711
110	0x3e52e028	0.20593321
111	0xbd04aea7	-0.032393124
112	0x3c80c738	0.015719995
113	0xbe5826de	-0.21108577
114	0xbd1883bc	-0.037235007
115	0xbd70ee4f	-0.05882102
116	0xbe6c4f4e	-0.23077127
117	0x3ed17fc1	0.4091778
118	0x3d7b015b	0.06128059
119	0xbe5cf5be	-0.21578118
120	0xbd7c34c7	-0.06157377
121	0x3f11cc77	0.56952614
122	0xbe91b93b	-0.28461632
123	0xbb053b09	-0.0020329377
124	0xbe5dadd5	-0.21648343
125	0x3e3a9a65	0.1822296
126	0xbebe8b65	-0.37215725
127	0x3e25fd9a	0.16210023
128	0x3e2fbde4	0.17162281
129	0x3d842b54	0.06453577
130	0xbce92cc5	-0.02846373
131	0x3e87a2ae	0.26491302
132	0x3e6c9b3f	0.23106097
133	0xbea89146	-0.32923335
134	0x3da133e3	0.07871225
135	0xbe1f9e16	-0.15587649
136	0x3e88a079	0.2668493
137	0x3cd36d02	0.025808815
138	0xbe88cb48	-0.2671759
139	0x3e74ee8e	0.23919126
140	0xbc9c1163	-0.01905126
141	0x3dc63bd0	0.09679377
142	0xbf1a1de2	-0.6020185
143	0xbd5ff35c	-0.054675445
144	0x3d52e035	0.05148335
145	0x3e8926be	0.2678737
146	0x3d5279c5	0.05138566
147	0x3e7589a0	0.23978281
148	0xbe26306c	-0.16229409
149	0x3e8a28ca	0.26984245
150	0x3e62ae0a	0.22136703
151	0x3d49943c	0.049213633
152	0x3e4e79db	0.20163672
153	0x3e3e2f94	0.18572837
154	0xbe8e172f	-0.27752063
155	0x3e1e4592	0.15456226
156	0xbdaeb804	-0.08531192
157	0xbe883c75	-0.26608625
158	0xbe81fca1	-0.25388053
159	0xbe6d0d19	-0.23149528
160	0xbe109c35	-0.14122088
161	0xbd945090	-0.072419286
162	0x3ec086fd	0.37602988
163	0x3ea98f55	0.33117166
164	0xbe66bfb3	-0.22534065
165	0xbda1ab8b	-0.07894047
166	0xbe608006	-0.21923837
167	0xbe51f77f	-0.20504569
168	0x3d8770e9	0.06613333
169	0x3e26cfa5	0.16290148
170	0xbe68125a	-0.2266325
171	0xbd399fb8	-0.045318335
172	0xbd342e57	-0.043989506
173	0xbe9bc2a6	-0.30421942
174	0x3ef24fb7	0.47326443
175	0xbdcfab9a	-0.10140152
176	0x3f010091	0.5039149
177	0x3dc5ae1d	0.0965235
178	0x3eaa693d	0.33283415
179	0xbe918363	-0.28420553
180	0xbf1c1353	-0.60966986
181	0x3e273e85	0.16332443
182	0x3db41621	0.08793283
183	0xbd4b4a77	-0.049631562
184	0x3e83c577	0.2573659
185	0xbd2cf7ed	-0.042228628
186	0x3e18d037	0.14923178
187	0xbe114731	-0.14187314
188	0x3e289d20	0.16466188
189	0xbe3ed4b5	-0.18635829
190	0xbb9cf96c	-0.0047904756
191	0xbe8d1b00	-0.27559662
192	0xbd396bea	-0.04526893
193	0x3ec0ccb9	0.3765619
194	0x3e91a15c	0.2844342
195	0x3dcb55da	0.09928484
196	0xbe335409	-0.17512526
197	0xbd1ff284	-0.03904964
198	0xbf007ffd	-0.50195295
199	0xbe58592b	-0.21127765
200	0x3ea10ead	0.3145651
201	0xbd87f8e4	-0.06639269
202	0xbcfb6c9a	-0.030691434
203	0x3ea8d160	0.3297224
204	0x3eac816a	0.33692485
205	0xbe7f2269	-0.2491547
206	0xbc6bf150	-0.014400795
207	0x3eb7ffe3	0.35937414
208	0x3bf4778c	0.00746054
209	0xbf2bc82e	-0.67102325
210	0x3d94d561	0.07267261
211	0xbe61c4e1	-0.2204776
212	0xbd6228dc	-0.055214748
213	0x3dd6e041	0.10491992
214	0x3df523e7	0.119697385
215	0x3dd735e6	0.10508327
216	0x3e9c1977	0.30488178
217	0x3e45cdea	0.19316831
218	0xbd4b4aeb	-0.049631994
219	0x3e92c812	0.28668267
220	0xbddc85ad	-0.10767684
221	0xbda4b0ef	-0.0804156
222	0x3f06c94d	0.5265091
223	0x3d9eb8e5	0.077501096
224	0x3f09a3df	0.5376567
225	0x3e2f8f9b	0.17144625
226	0xbe984da7	-0.29746744
227	0x3e82feb0	0.25584936
228	0xbd657503	-0.056019794
229	0xbb71fdd2	-0.003692497
230	0xbdc928a5	-0.098222055
231	0x3d00e6be	0.031470053
232	0xbced22e4	-0.028947301
233	0xbad538e8	-0.001626757
234	0x3ce47b1c	0.027890734
235	0xbe01c157	-0.1267141
236	0xbf18c548	-0.5967603
237	0xbca6762f	-0.020320026
238	0xbf0f0a6f	-0.55875295
239	0x3d2305fc	0.03980063
240	0x3edc2fe0	0.43005276
241	0x3d0f1dda	0.034940578
242	0x3e0c5fbb	0.13708393
243	0x3e09fe7f	0.13475989
244	0x3dfa2f49	0.1221605
245	0xbbf926de	-0.0076035103
246	0xbe8aa860	-0.27081585
247	0xbe8e2e54	-0.2776972
248	0x3e38c1f7	0.18042742
249	0xbe37867c	-0.17922395
250	0xbe1907a4	-0.14944321
251	0xbdbf188e	-0.09330855
252	0xbe711ab3	-0.23545341
253	0xbd14b0ed	-0.036301542
254	0x3e250f36	0.16119084
255	0xbef5fa1e	-0.48042387

critic.seq_model.model.bias_ih_l0 f4 [256]
0	0x3d794560	0.060857177
1	0x3d2951c9	0.041337762
2	0xbc8e6e79	-0.017386662
3	0xbc94b309	-0.018151777
4	0x3dbfc9cb	0.09364661
5	0x3e273dea	0.16332212
6	0x3dbd0663	0.09229734
7	0x3dc46279	0.09589095
8	0x3e57d243	0.21076302
9	0x3de2f817	0.11082476
10	0x3ba293c9	0.004961465
11	0x3df984e4	0.1218355
12	0x3d52c969	0.05146161
13	0x3cd367e5	0.025806377
14	0xbb7ff3cc	-0.0039055226
15	0x3cc58802	0.024112705
16	0x3c38f98c	0.011289965
17	0x3d864f55	0.065581
18	0x3be4d61a	0.0069835307
19	0x3da11816	0.07865922
20	0xbd7d35c6	-0.06181886
21	0x3d725d88	0.05917123
22	0x3d15f013	0.036605906
23	0x3dca9284	0.09891227
24	0x39f61c5c	0.00046941906
25	0x3d5df309	0.054186855
26	0xbc0c96cd	-0.008580876
27	0x3dc1a267	0.09454804
28	0x3e04c3ae	0.12965271
29	0x3e175669	0.14779057
30	0x3dfa788a	0.12230022
31	0x3cb39b7e	0.02192473
32	0x3e5ef85c	0.21774429
33	0x3e2efa6e	0.17087719
34	0x3df5308e	0.11972152
35	0xbdbdd6f9	-0.092695184
36	0x3c303e93	0.010757106
37	0xbc0dbfe9	-0.008651712
38	0xbc2b170b	-0.010442506
39	0x3da52ce8	0.08065206
40	0x3d29d2a5	0.041460652
41	0x3c34b403	0.011029246
42	0x3c043978	0.008070342
43	0xbddcd199	-0.10782165
44	0x3df57e77	0.11987012
45	0x3da59a13	0.08086028
46	0x3d7a8e17	0.061170664
47	0xbc182248	-0.009285517
48	0x3e2c83dc	0.16847175
49	0xbacca069	-0.0015611771
50	0x3d9a0648	0.07520729
51	0x3e1a6c7d	0.15080447
52	0xbcaf05f3	-0.021365141
53	0x3e1204ca	0.1425964
54	0x3aff67f3	0.0019485935
55	0x3d99559b	0.07487031
56	0x3cbedc7e	0.023298498
57	0x3dafb7c0	0.085799694
58	0xbd9a07fc	-0.07521054
59	0x3c5244ee	0.012833817
60	0x3d250db6	0.04029628
61	0x3e491cdf	0.1963992
62	0x3d726eea	0.059187807
63	0x3e053ba4	0.13011032
64	0xbaea9a00	-0.0017898679
65	0x3c4dec88	0.0125686005
66	0xbc8accb0	-0.016943306
67	0x3dce36d0	0.100690484
68	0x3d5d7b54	0.054072693
69	0x3df9dab3	0.12199917
70	0xbd0c5c96	-0.034267984
71	0x3c8a5b05	0.016889105
72	0x3c361ae9	0.011114814
73	0x3d760326	0.060061596
74	0x3d130fca	0.03590373
75	0x3c0ce893	0.008600372
76	0x3dcde5af	0.10053574
77	0x3d32ca90	0.04365021
78	0x3ccdca80	0.025120974
79	0x3c736fa9	0.014858165
80	0x3d6a7b97	0.05724677
81	0x3d5c3b85	0.0537677
82	0x3e017bd8	0.12644899
83	0x3d22a2e1	0.039706115
84	0x3d80c927	0.06288367
85	0xbc9e1cd0	-0.019300848
86	0x3d68e80b	0.05686192
87	0x3d45d8bf	0.04830241
88	0x3d9492c9	0.072545595
89	0x3dd499c0	0.10380888
90	0xbbe4e9f6	-0.006985898
91	0x3d57469e	0.05255758
92	0x3dcc9f8a	0.09991367
93	0x3d643064	0.05571021
94	0x3d5edc32	0.054409213
95	0x3d346b38	0.044047564
96	0x3d9c4643	0.07630589
97	0x3d84b322	0.06479479
98	0x3d6383cc	0.055545613
99	0x3e24a233	0.16077499
100	0x3d736008	0.059417754
101	0x3d289e5f	0.04116666
102	0x3e03e2dd	0.1287951
103	0x3c9be749	0.019031184
104	0xbc96016d	-0.018311227
105	0x3db3a08d	0.08770857
106	0x3dd04aa9	0.1017049
107	0x3e5d60fc	0.21619028
108	0x3d619098	0.055069536
109	0x3d81e1f1	0.06341923
110	0x3c22c27f	0.009934067
111	0x3dafcc27	0.08583861
112	0x3da7283a	0.081619695
113	0x3d4b80c4	0.049683347
114	0x3d01f780	0.031730175
115	0x3d4a6bf6	0.049419366
116	0x3c89688e	0.016773488
117	0x3920dfc0	0.00015342142
118	0x3dab66e6	0.08369236
119	0x3e25f30f	0.16206001
120	0x3ccd4472	0.025057051
121	0x3c56b1f3	0.01310395
122	0x3de4e530	0.111765265
123	0x3d833d7d	0.06408212
124	0x3d7b16d5	0.06130107
125	0x3ddb6b5f	0.10713839
126	0x3d3b976f	0.045798715
127	0xb87e52dc	-6.0635488e-05
128	0xbd531bc8	-0.051540166
129	0xbc3454e5	-0.011006569
130	0x3db68789	0.0891257
131	0xbd1d3c54	-0.03838761
132	0xbcbdfc77	-0.023191674
133	0x3daedcfe	0.08538245
134	0x3cf40a55	0.029790083
135	0x3cf3ba74	0.029751994
136	0xbd8755db	-0.066081725
137	0xbbf363df	-0.007427677
138	0x3c9e3706	0.019313347
139	0x3d426c99	0.047466848
140	0xbd812fde	-0.06307958
141	0x3d166ba4	0.036723748
142	0x3c3b9b4f	0.011450603
143	0x3c2fcfaf	0.010730668
144	0x3c38db7f	0.011282801
145	0x3b1dfc23	0.0024106584
146	0x3c9d47f1	0.019199343
147	0x3c9b173a	0.018931974
148	0x3cb743d2	0.022371206
149	0xbaf4a718	-0.001866552
150	0xbc9db6a3	-0.019252127
151	0x3b0c2efd	0.0021390312
152	0xbd77a203	-0.06045724
153	0x3d1194df	0.035542365
154	0xbc06a722	-0.0082185585
155	0xbd2588cb	-0.04041366
156	0x3ceb8dc5	0.028754124
157	0x3cca9dca	0.024733443
158	0x3db62b2d	0.08894954
159	0xb98aa15b	-0.0002644163
160	0x3bcf2608	0.0063216724
161	0x3dcc25d5	0.099681534
162	0xbd2fabe1	-0.042888526
163	0x3c4a9167	0.012363768
164	0xbc28fe28	-0.010314502
165	0xbb90080e	-0.0043954914
166	0x3c3f812d	0.011688513
167	0xbcc179f9	-0.023617731
168	0xbdab659b	-0.08368989
169	0x3bf0f173	0.0073530017
170	0x3bd5ecad	0.006528458
171	0x3d1556c6	0.036459707
172	0xbd15229a	-0.03640995
173	0x3ccd7ffa	0.025085438
174	0x3d881991	0.066455014
175	0xbbde5985	-0.006785574
176	0xbdb52867	-0.08845597
177	0xbd05f208	-0.032701522
178	0xbd4e013b	-0.050294142
179	0x3c6a20c3	0.014290038
180	0xbccb777a	-0.024837244
181	0xbd0f1ad5	-0.0349377
182	0x3cb3cea1	0.021949114
183	0x3cb17c63	0.021665758
184	0xbc22072f	-0.009889408
185	0xbcdab049	-0.026695387
186	0x3d617e40	0.055052042
187	0x3cd4109f	0.025886832
188	0xbc522a7d	-0.012827513
189	0xbdd47dc8	-0.10375553
190	0x3d5ba3f2	0.053623147
191	0x3d875d4d	0.066095926
192	0x3e0edf30	0.13952327
193	0x3dd94871	0.1060952
194	0xbb761249	-0.003754752
195	0x3d84bfa9	0.06481869
196	0x3e2bf33a	0.16792002
197	0x3e055446	0.13020429
198	0x3d2b0bb8	0.041759223
199	0x3e395839	0.1810006
200	0x3e5f9895	0.21835549
201	0x3e1fd965	0.15610273
202	0x3d47ff5f	0.048827525
203	0x3db2d2cf	0.08731615
204	0x3d7f0aa2	0.062266
205	0x3d551b49	0.052027974
206	0xbc9c2870	-0.01906225
207	0x3d6d03bd	0.057864893
208	0x3d0ffd5f	0.035153743
209	0x3de97c3f	0.11400651
210	0x3d6751dd	0.056474555
211	0x3dc45829	0.09587128
212	0x3d2c0e6c	0.04200594
213	0x3d5300b8	0.051514357
214	0x3cc4846b	0.023988923
215	0x3d7c495b	0.061593395
216	0x3cf3ed49	0.029776232
217	0x3e2a242d	0.16615362
218	0x3d0f3d30	0.034970462
219	0x3e21cc8e	0.15800688
220	0x3e5a9fe4	0.21350056
221	0x3e6928cc	0.22769469
222	0x3e481c5b	0.19542067
223	0x3d9fa0c3	0.07794335
224	0x3e64a6b7	0.22329222
225	0x3e7777d4	0.24166805
226	0x3e38c726	0.18044719
227	0x3d718c41	0.058971647
228	0x3c9da262	0.01924247
229	0x3e2131d3	0.15741663
230	0x3e29514e	0.16534922
231	0x3decb5c2	0.11558105
232	0x3ce7732c	0.02825316
233	0x3d337ebf	0.043822046
234	0x3db5b55a	0.08872481
235	0x3e067a0c	0.13132495
236	0x3e3b8f82	0.18316463
237	0x3e2f3ae8	0.17112315
238	0x3d9bf034	0.076141745
239	0x39705198	0.0002291858
240	0x3dd48c5b	0.10378333
241	0x3d5696c0	0.05238986
242	0x3d82fc9f	0.0639584
243	0x3e78434d	0.24244423
244	0x3dc164f0	0.094430804
245	0x3e9c49ea	0.30525142
246	0x3d7813ee	0.06056588
247	0x3db77c0f	0.08959209
248	0x3d98aa26	0.07454328
249	0x3e24832d	0.16065665
250	0x3d9e8d55	0.07741801
251	0x3d3a5cb9	0.045498583
252	0x3e144ac5	0.14481647
253	0x3d07a0d7	0.033112373
254	0x3dd65a97	0.104664974
255	0x3dc8e950	0.09810126

critic.seq_model.model.bias_hh_l0 f4 [256]
0	0x3d794560	0.060857177
1	0x3d2951c9	0.041337762
2	0xbc8e6e79	-0.017386662
3	0xbc94b309	-0.018151777
4	0x3dbfc9cb	0.09364661
5	0x3e273dea	0.16332212
6	0x3dbd0663	0.09229734
7	0x3dc46279	0.09589095
8	0x3e57d243	0.21076302
9	0x3de2f817	0.11082476
10	0x3ba293c9	0.004961465
11	0x3df984e4	0.1218355
12	0x3d52c969	0.05146161
13	0x3cd367e5	0.025806377
14	0xbb7ff3cc	-0.0039055226
15	0x3cc58802	0.024112705
16	0x3c38f98c	0.011289965
17	0x3d864f55	0.065581
18	0x3be4d61a	0.0069835307
19	0x3da11816	0.07865922
20	0xbd7d35c6	-0.06181886
21	0x3d725d88	0.05917123
22	0x3d15f013	0.036605906
23	0x3dca9284	0.09891227
24	0x39f61c5c	0.00046941906
25	0x3d5df309	0.054186855
26	0xbc0c96cd	-0.008580876
27	0x3dc1a267	0.09454804
28	0x3e04c3ae	0.12965271
29	0x3e175669	0.14779057
30	0x3dfa788a	0.12230022
31	0x3cb39b7e	0.02192473
32	0x3e5ef85c	0.21774429
33	0x3e2efa6e	0.17087719
34	0x3df5308e	0.11972152
35	0xbdbdd6f9	-0.092695184
36	0x3c303e93	0.010757106
37	0xbc0dbfe9	-0.008651712
38	0xbc2b170b	-0.010442506
39	0x3da52ce8	0.08065206
40	0x3d29d2a5	0.041460652
41	0x3c34b403	0.011029246
42	0x3c043978	0.008070342
43	0xbddcd199	-0.10782165
44	0x3df57e77	0.11987012
45	0x3da59a13	0.08086028
46	0x3d7a8e17	0.061170664
47	0xbc182248	-0.009285517
48	0x3e2c83dc	0.16847175
49	0xbacca069	-0.0015611771
50	0x3d9a0648	0.07520729
51	0x3e1a6c7d	0.15080447
52	0xbcaf05f3	-0.021365141
53	0x3e1204ca	0.1425964
54	0x3aff67f3	0.0019485935
55	0x3d99559b	0.07487031
56	0x3cbedc7e	0.023298498
57	0x3dafb7c0	0.085799694
58	0xbd9a07fc	-0.07521054
59	0x3c5244ee	0.012833817
60	0x3d250db6	0.04029628
61	0x3e491cdf	0.1963992
62	0x3d726eea	0.059187807
63	0x3e053ba4	0.13011032
64	0xbaea9a00	-0.0017898679
65	0x3c4dec88	0.0125686005
66	0xbc8accb0	-0.016943306
67	0x3dce36d0	0.100690484
68	0x3d5d7b54	0.054072693
69	0x3df9dab3	0.12199917
70	0xbd0c5c96	-0.034267984
71	0x3c8a5b05	0.016889105
72	0x3c361ae9	0.011114814
73	0x3d760326	0.060061596
74	0x3d130fca	0.03590373
75	0x3c0ce893	0.008600372
76	0x3dcde5af	0.10053574
77	0x3d32ca90	0.04365021
78	0x3ccdca80	0.025120974
79	0x3c736fa9	0.014858165
80	0x3d6a7b97	0.05724677
81	0x3d5c3b85	0.0537677
82	0x3e017bd8	0.12644899
83	0x3d22a2e1	0.039706115
84	0x3d80c927	0.06288367
85	0xbc9e1cd0	-0.019300848
86	0x3d68e80b	0.05686192
87	0x3d45d8bf	0.04830241
88	0x3d9492c9	0.072545595
89	0x3dd499c0	0.10380888
90	0xbbe4e9f6	-0.006985898
91	0x3d57469e	0.05255758
92	0x3dcc9f8a	0.09991367
93	0x3d643064	0.05571021
94	0x3d5edc32	0.054409213
95	0x3d346b38	0.044047564
96	0x3d9c4643	0.07630589
97	0x3d84b322	0.06479479
98	0x3d6383cc	0.055545613
99	0x3e24a233	0.16077499
100	0x3d736008	0.059417754
101	0x3d289e5f	0.04116666
102	0x3e03e2dd	0.1287951
103	0x3c9be749	0.019031184
104	0xbc96016d	-0.018311227
105	0x3db3a08d	0.08770857
106	0x3dd04aa9	0.1017049
107	0x3e5d60fc	0.21619028
108	0x3d619098	0.055069536
109	0x3d81e1f1	0.06341923
110	0x3c22c27f	0.009934067
111	0x3dafcc27	0.08583861
112	0x3da7283a	0.081619695
113	0x3d4b80c4	0.049683347
114	0x3d01f780	0.031730175
115	0x3d4a6bf6	0.049419366
116	0x3c89688e	0.016773488
117	0x3920dfc0	0.00015342142
118	0x3dab66e6	0.08369236
119	0x3e25f30f	0.16206001
120	0x3ccd4472	0.025057051
121	0x3c56b1f3	0.01310395
122	0x3de4e530	0.111765265
123	0x3d833d7d	0.06408212
124	0x3d7b16d5	0.06130107
125	0x3ddb6b5f	0.10713839
126	0x3d3b976f	0.045798715
127	0xb87e52dc	-6.0635488e-05
128	0xbd531bc8	-0.051540166
129	0xbc3454e5	-0.011006569
130	0x3db68789	0.0891257
131	0xbd1d3c54	-0.03838761
132	0xbcbdfc77	-0.023191674
133	0x3daedcfe	0.08538245
134	0x3cf40a55	0.029790083
135	0x3cf3ba74	0.029751994
136	0xbd8755db	-0.066081725
137	0xbbf363df	-0.007427677
138	0x3c9e3706	0.019313347
139	0x3d426c99	0.047466848
140	0xbd812fde	-0.06307958
141	0x3d166ba4	0.036723748
142	0x3c3b9b4f	0.011450603
143	0x3c2fcfaf	0.010730668
144	0x3c38db7f	0.011282801
145	0x3b1dfc23	0.0024106584
146	0x3c9d47f1	0.019199343
147	0x3c9b173a	0.018931974
148	0x3cb743d2	0.022371206
149	0xbaf4a718	-0.001866552
150	0xbc9db6a3	-0.019252127
151	0x3b0c2efd	0.0021390312
152	0xbd77a203	-0.06045724
153	0x3d1194df	0.035542365
154	0xbc06a722	-0.0082185585
155	0xbd2588cb	-0.04041366
156	0x3ceb8dc5	0.028754124
157	0x3cca9dca	0.024733443
158	0x3db62b2d	0.08894954
159	0xb98aa15b	-0.0002644163
160	0x3bcf2608	0.0063216724
161	0x3dcc25d5	0.099681534
162	0xbd2fabe1	-0.042888526
163	0x3c4a9167	0.012363768
164	0xbc28fe28	-0.010314502
165	0xbb90080e	-0.0043954914
166	0x3c3f812d	0.011688513
167	0xbcc179f9	-0.023617731
168	0xbdab659b	-0.08368989
169	0x3bf0f173	0.0073530017
170	0x3bd5ecad	0.006528458
171	0x3d1556c6	0.036459707
172	0xbd15229a	-0.03640995
173	0x3ccd7ffa	0.025085438
174	0x3d881991	0.066455014
175	0xbbde5985	-0.006785574
176	0xbdb52867	-0.08845597
177	0xbd05f208	-0.032701522
178	0xbd4e013b	-0.050294142
179	0x3c6a20c3	0.014290038
180	0xbccb777a	-0.024837244
181	0xbd0f1ad5	-0.0349377
182	0x3cb3cea1	0.021949114
183	0x3cb17c63	0.021665758
184	0xbc22072f	-0.009889408
185	0xbcdab049	-0.026695387
186	0x3d617e40	0.055052042
187	0x3cd4109f	0.025886832
188	0xbc522a7d	-0.012827513
189	0xbdd47dc8	-0.10375553
190	0x3d5ba3f2	0.053623147
191	0x3d875d4d	0.066095926
192	0x3e0edf30	0.13952327
193	0x3dd94871	0.1060952
194	0xbb761249	-0.003754752
195	0x3d84bfa9	0.06481869
196	0x3e2bf33a	0.16792002
197	0x3e055446	0.13020429
198	0x3d2b0bb8	0.041759223
199	0x3e395839	0.1810006
200	0x3e5f9895	0.21835549
201	0x3e1fd965	0.15610273
202	0x3d47ff5f	0.048827525
203	0x3db2d2cf	0.08731615
204	0x3d7f0aa2	0.062266
205	0x3d551b49	0.052027974
206	0xbc9c2870	-0.01906225
207	0x3d6d03bd	0.057864893
208	0x3d0ffd5f	0.035153743
209	0x3de97c3f	0.11400651
210	0x3d6751dd	0.056474555
211	0x3dc45829	0.09587128
212	0x3d2c0e6c	0.04200594
213	0x3d5300b8	0.051514357
214	0x3cc4846b	0.023988923
215	0x3d7c495b	0.061593395
216	0x3cf3ed49	0.029776232
217	0x3e2a242d	0.16615362
218	0x3d0f3d30	0.034970462
219	0x3e21cc8e	0.15800688
220	0x3e5a9fe4	0.21350056
221	0x3e6928cc	0.22769469
222	0x3e481c5b	0.19542067
223	0x3d9fa0c3	0.07794335
224	0x3e64a6b7	0.22329222
225	0x3e7777d4	0.24166805
226	0x3e38c726	0.18044719
227	0x3d718c41	0.058971647
228	0x3c9da262	0.01924247
229	0x3e2131d3	0.15741663
230	0x3e29514e	0.16534922
231	0x3decb5c2	0.11558105
232	0x3ce7732c	0.02825316
233	0x3d337ebf	0.043822046
234	0x3db5b55a	0.08872481
235	0x3e067a0c	0.13132495
236	0x3e3b8f82	0.18316463
237	0x3e2f3ae8	0.17112315
238	0x3d9bf034	0.076141745
239	0x39705198	0.0002291858
240	0x3dd48c5b	0.10378333
241	0x3d5696c0	0.05238986
242	0x3d82fc9f	0.0639584
243	0x3e78434d	0.24244423
244	0x3dc164f0	0.094430804
245	0x3e9c49ea	0.30525142
246	0x3d7813ee	0.06056588
247	0x3db77c0f	0.08959209
248	0x3d98aa26	0.07454328
249	0x3e24832d	0.16065665
250	0x3d9e8d55	0.07741801
251	0x3d3a5cb9	0.045498583
252	0x3e144ac5	0.14481647
253	0x3d07a0d7	0.033112373
254	0x3dd65a97	0.104664974
255	0x3dc8e950	0.09810126

critic.qf.fc0.weight f4 [256, 64]
0	0xbe1344c8	-0.14381707
1	0xbd50b2d8	-0.05095181
2	0xbe106d43	-0.1410418
3	0x3d09242a	0.033481754
4	0x3d93f908	0.07225233
5	0x3d936389	0.07196719
6	0xbe2b713e	-0.16742417
7	0xbdac246b	-0.08405384
8	0x3cb058fe	0.02152681
9	0x3e187fd1	0.14892508
10	0x3c9f397e	0.019436594
11	0xbde1f23d	-0.110325314
12	0xbe2d7bda	-0.16941777
13	0xbd925580	-0.07145214
14	0xbd35a2f5	-0.04434486
15	0x3e22bc8a	0.15892234
16	0xbd4b1440	-0.04957986
17	0x3de8f445	0.11374716
18	0x3d47c699	0.04877338
19	0xbbf3fc5f	-0.0074458565
20	0xbd8d0d85	-0.06887344
21	0x3e54998e	0.20761701
22	0xbcb47f0b	-0.022033235
23	0x3cb7553b	0.022379508
24	0x3c21f807	0.0098857945
25	0xbe1160fc	-0.14197153
26	0x3e2fe8c1	0.17178632
27	0x3d2e445f	0.042545673
28	0xbdf4631c	-0.11932966
29	0x3e139a2e	0.14414284
30	0xbda0668f	-0.078320615
31	0xbd4c9844	-0.0499499
32	0xbe15aaff	-0.14616011
33	0x3e823065	0.25427547
34	0xbc6b5777	-0.014364115
35	0x3c704077	0.014663807
36	0x3d3acde7	0.04560652
37	0x3db87a6e	0.090077266
38	0x3de9258e	0.11384116
39	0x3c14a09f	0.009071498
40	0xbd737dd3	-0.059446167
41	0x3cd59d55	0.026075998
42	0xbe0acc02	-0.13554385
43	0xbccedf7b	-0.025253048
44	0x3e77b36b	0.24189536
45	0xbdf14353	-0.11780419
46	0x3e62aebf	0.22136973
47	0x3d687926	0.05675616
48	0xbaaaf3ba	-0.0013042607
49	0xbd910dbe	-0.07082699
50	0xbcd099bb	-0.02546393
51	0x3c05cdf8	0.008166783
52	0xbe104381	-0.1408825
53	0x3cf13ca5	0.029447863
54	0xbd8a9cc2	-0.067681804
55	0x3caabcf8	0.02084206
56	0xbbdb029e	-0.0066836616
57	0x3d20ca14	0.039255217
58	0x3ca679d9	0.020321773
59	0x3b0cb167	0.0021468045
60	0xbc0e87c9	-0.008699366
61	0x3e0aa202	0.13538364
62	0xbd1dd278	-0.038530797
63	0xbde3f801	-0.11131287
64	0xbd9d4a9b	-0.076802455
65	0x3e514fac	0.20440549
66	0xbcbabf6a	-0.022796351
67	0xbe2c7e0f	-0.16844963
68	0xbdfccdcf	-0.123439424
69	0x3db1462c	0.08655962
70	0xbde16272	-0.11005105
71	0xbd99ffea	-0.07519515
72	0xbdce7d32	-0.10082473
73	0x3e2f8acb	0.17142789
74	0x3d831f68	0.06402475
75	0x3dc595f2	0.096477404
76	0xbcca0f82	-0.024665598
77	0xbd6d8268	-0.057985693
78	0x3c0be9b5	0.008539607
79	0xbdcfd2c4	-0.10147622
80	0xbcc239c7	-0.023709191
81	0x3e0e2672	0.13881853
82	0x3d07de71	0.03317112
83	0x3e000522	0.12501958
84	0x3de3ccd8	0.11123055
85	0x3d7e94cf	0.062153634
86	0x3cad3420	0.02114302
87	0x3e02f139	0.12787332
88	0xbdc18efd	-0.09451101
89	0x3da77028	0.08175689
90	0x3e5feef3	0.21868496
91	0xbd06f10c	-0.032944724
92	0x3d4064fc	0.046971306
93	0x3e595c23	0.21226554
94	0x3cc9b866	0.02462406
95	0x3cba0551	0.022707613
96	0xbd2497ef	-0.040183958
97	0x3db012f7	0.08597367
98	0xbe0a7577	-0.13521372
99	0x3e0aaa56	0.1354154
100	0x3b8253e4	0.0039772857
101	0x3e758e86	0.2398015
102	0xbc9697b3	-0.018382883
103	0x3dc7f67c	0.0976381
104	0x3dd22617	0.10261171
105	0x3d9f4fcd	0.07778893
106	0x3ba7e312	0.0051235044
107	0x3d4b93ed	0.04970162
108	0xbdf2af6f	-0.118498676
109	0xbe6c8f18	-0.23101461
110	0x3dd2ad77	0.10286992
111	0x3d945285	0.07242302
112	0xbd26dd24	-0.04073824
113	0xbd13f7c0	-0.036124945
114	0x3d8314af	0.064004295
115	0xbc343058	-0.010997854
116	0x3d0edcb5	0.03487845
117	0xbd0dd8f3	-0.034630727
118	0x3d3654ab	0.04451434
119	0x3d2bee0c	0.041975066
120	0x3ded097e	0.11574076
121	0x3db09a1e	0.086231455
122	0x3e1843c7	0.14869605
123	0x3d2d7f23	0.042357575
124	0x3c62d11b	0.0138438
125	0xbea8ad91	-0.3294492
126	0x3b8a67b2	0.004223787
127	0xbd41fa43	-0.04735781
128	0x3e07922b	0.13239352
129	0x3db27542	0.087137714
130	0x3d756bec	0.059917375
131	0x3def6c88	0.116906226
132	0xbe565d8a	-0.2093412
133	0xbd4fbd94	-0.050717905
134	0x3e2abb0e	0.16672918
135	0x3d3779ab	0.044793766
136	0xbd632cac	-0.055462524
137	0x3db2a65e	0.08723138
138	0xbca0c390	-0.019624501
139	0x3e57e629	0.21083893
140	0xbd80af41	-0.06283427
141	0x3b828514	0.0039831493
142	0x3d6b07f1	0.05738062
143	0x3dc56282	0.096379295
144	0x3d141d41	0.03616071
145	0xbe056e74	-0.13030416
146	0x3cc5c5e3	0.024142211
147	0x3e21fc11	0.15818812
148	0x3de148c7	0.11000209
149	0xbd7c839b	-0.061648946
150	0xbc65d4ce	-0.014027787
151	0x3e8e56c7	0.2780058
152	0xbe3de786	-0.1854535
153	0xbdcb1fba	-0.09918161
154	0x3e277108	0.16351712
155	0x3da1e878	0.07905668
156	0xbcff7ec0	-0.031188369
157	0x3dbe3bad	0.09288726
158	0xbb895de1	-0.0041920994
159	0xbdd9c49d	-0.10633204
160	0x3d149da4	0.03628315
161	0xbda76cd2	-0.08175053
162	0xbd8761dc	-0.06610462
163	0x3dbddaa8	0.09270221
164	0xbcd63296	-0.026147168
165	0x3dc2a09f	0.09503292
166	0x3d2dd415	0.042438585
167	0xbd2175d3	-0.039419007
168	0xbcc868fa	-0.02446412
169	0x3ba66f1d	0.0050791637
170	0xbd2f64e2	-0.04282082
171	0x3dcb5065	0.099274434
172	0xbdb9af0b	-0.0906659
173	0x3d8fc28b	0.07019528
174	0xbceb8eb6	-0.028754573
175	0x3e39445f	0.18092488
176	0x3dccdfef	0.100036494
177	0x3e058dd0	0.13042378
178	0x3dcdcaa5	0.10048417
179	0xbd9ccec2	-0.076566234
180	0xbe82c5bd	-0.25541487
181	0x3c87e8ee	0.016590562
182	0x3c1de68f	0.009637489
183	0x3d9962f6	0.074895784
184	0x3deefb74	0.116690546
185	0x3e210d95	0.15727837
186	0xbbd3c4c2	-0.0064626643
187	0x3d2d0750	0.042243302
188	0xbaeb6956	-0.001796047
189	0x3e22db21	0.15903904
190	0x3e545e02	0.20738986
191	0x3e0bbed2	0.13647011
192	0x3cf51dd4	0.02992145
193	0x3dc2b80b	0.0950776
194	0xbc9979f7	-0.018734915
195	0x3dafb1cb	0.08578833
196	0xbdfc7f9c	-0.12329027
197	0xbd771edd	-0.060332168
198	0x3e67925e	0.22614428
199	0x3db9ae0b	0.09066399
200	0xbeb5eabe	-0.35530657
201	0xbd40ad7e	-0.047040455
202	0xbde6e374	-0.11273852
203	0x3cedd173	0.029030537
204	0x3d343371	0.04399437
205	0x3c1ca831	0.009561584
206	0x3d1ea546	0.038731836
207	0x3ca9a47d	0.020708317
208	0x3e142605	0.14467628
209	0x3bad8d0a	0.005296354
210	0x3ca2e10e	0.019882705
211	0xbc62815e	-0.013824789
212	0xbc8eaec8	-0.017417327
213	0xbe077c77	-0.13231073
214	0xbd047644	-0.03233935
215	0x3c9e3a78	0.01931499
216	0x3e6d24a4	0.23158509
217	0x3d617658	0.055044502
218	0x3e2fbe41	0.1716242
219	0xbe33e8e4	-0.1756931
220	0x3d0c1906	0.03420355
221	0xbdf31280	-0.11868763
222	0x3e50c371	0.20387055
223	0x3e5ae225	0.2137533
224	0x3d1a08c8	0.03760603
225	0xbd9de560	-0.077097654
226	0x3e596c64	0.21232754
227	0x3d9db72b	0.07700952
228	0xbda7d120	-0.08194184
229	0x3e5cfb64	0.21580273
230	0x3df4178f	0.11918556
231	0x3e559ecd	0.20861359
232	0xbe42a544	-0.19008356
233	0xbac62452	-0.0015117025
234	0x3e84de5b	0.25950894
235	0x3d581e5e	0.052763335
236	0xbeb99b06	-0.36251086
237	0xbdb77ad9	-0.08958978
238	0x3e40e323	0.18836646
239	0x3e1c220a	0.1524736
240	0xbbff66e0	-0.007794246
241	0x3d3ef35b	0.0466188
242	0x3e8927bb	0.26788124
243	0x3d2e04ce	0.04248505
244	0xbe0a54b7	-0.13508879
245	0x3c5d09b3	0.013491082
246	0xbd698aa0	-0.05701697
247	0x3d39d82c	0.045372173
248	0x3d0d76b6	0.03453704
249	0x3ddd528c	0.1080676
250	0x3cb2c2c6	0.02182139
251	0x3d33deca	0.04391364
252	0xbd9b764c	-0.07590923
253	0x3cdc0486	0.026857626
254	0x3d88b84e	0.06675778
255	0xbd0f066b	-0.03491823
