logs/network-defender/100/mlp/2025-05-04-17:48:16/seed-42/save/agent_002010_perf-92.700.pt (torch, 596738 bytes, 12 tensors)

qf1.fc0.weight f4 [256, 15]
000000 7e 1b 48 bd c2 0c 4e 3d fa c5 5b 3d 03 b0 5e 3d
       -0.048854344 0.050305136 0.053655602 0.054367077
000010 a7 20 aa bc b4 bd 29 3d fb 3b 54 bd 05 95 1c 3d
       -0.020767523 0.04144068 -0.051815014 0.038228054
000020 bd 3d 74 bb 0e 61 5c bd 79 8e 3e bd 76 10 65 bd
       -0.0037268244 -0.053803496 -0.04652259 -0.0559239
000030 42 d4 2b 3c d0 5a 9a bc d3 dd f2 bc b1 f0 74 3d
       0.010487618 -0.01884213 -0.02964679 0.059799854
000040 7c fe 9b bc cd 1e b1 3c 07 96 de bb 9c 9c 1b 3d
       -0.019042246 0.021621132 -0.006792787 0.03799115
000050 c7 ea a3 3c 8f 64 2a 3d a7 7f bd 3c 5b 3b 3e bc
       0.020009411 0.041599806 0.023132158 -0.011610831
000060 c5 13 61 3d d0 ef 1d ba 37 05 0f bd 1e 64 ae 3c
       0.054950494 -0.00060248096 -0.034917083 0.021287974
000070 ad f2 cc bb 17 ba 38 bd 2a 84 e4 3b f0 ec 6d bc
       -0.006254515 -0.045099344 0.006973763 -0.014521822
000080 6d 53 ff bc 4b 61 eb bc b8 03 f3 bc 96 a4 d9 bc
       -0.03116771 -0.028732916 -0.02966486 -0.026567739
000090 7a c4 27 3c a4 d0 8e 3d d1 0d 20 bd 42 f0 03 bd
       0.010239715 0.06973389 -0.039075676 -0.03221155
0000a0 f8 6a 25 bd bb 9d b1 3a f2 f3 33 3b c4 43 41 bd
       -0.040385216 0.0013551036 0.0027458635 -0.047183767
0000b0 11 90 f6 3c 10 1e 92 bd aa f1 6c 3d 1e f3 bf 3b
       0.030097993 -0.0713464 0.057847656 0.0058578392
0000c0 bb 30 1f bc 4b d5 d6 bc 7c d2 b5 3c be 12 30 3d
       -0.009716208 -0.026224753 0.022195093 0.042986624
0000d0 dd f3 20 bd e4 7a 96 bc b5 f0 17 3d 0c b4 89 bc
       -0.039295066 -0.018369146 0.03709479 -0.016809486
0000e0 a3 14 6c bd bb 33 c9 bc d3 88 ed bb 1f 89 69 bc
       -0.05763687 -0.0245608 -0.0072489767 -0.014253884
0000f0 17 3a 2e bd ca 61 20 bd 1d 24 8c 3c 10 a5 42 3d
       -0.042535868 -0.03915576 0.017107064 0.047520697
000100 5d 02 69 3d 2d 53 c5 bb 83 62 d6 3c 1b ee 2c bd
       0.05688702 -0.006021878 0.02617002 -0.042219263
000110 d5 46 12 3d 14 bb 72 3d 4a d1 14 3d 2e aa b5 bc
       0.035712082 0.059260443 0.036332406 -0.022175875
000120 7b 50 58 3d d5 2b 6d bd 10 41 d6 bb 6f ba 94 bc
       0.052811127 -0.05790313 -0.006538518 -0.018155305
000130 f6 59 7f bd 89 c8 1e bd 60 2c 36 bd db 79 71 3c
       -0.062341653 -0.038765464 -0.044475913 0.014738525
000140 9a 8e 00 bc 25 7e e9 3c 53 15 12 bc 3b 3b 52 3d
       -0.007846499 0.028502533 -0.008916217 0.051326018
000150 41 d8 64 3b 57 54 5d 3d 26 fb 50 3d 4f bc 60 bd
       0.0034918936 0.05403551 0.051020764 -0.054867085
000160 bb 1c 32 bd cb 19 1c 3d 2b a7 46 3d f2 7f 5a bd
       -0.04348443 0.038110536 0.048499268 -0.053344674
000170 a1 67 38 bc 3d d2 fd bc 5d 66 45 3d 02 b9 2d 3d
       -0.011255176 -0.030984038 0.048193324 0.042412765
000180 7c 57 16 3d ee 89 f0 3c e0 6e 80 bc bd e6 3e 3d
       0.036704525 0.029362645 -0.01567787 0.046606768
000190 95 71 1b bd 18 20 c7 bb 62 28 e0 bc e9 90 69 bd
       -0.037950117 -0.006076824 -0.027363006 -0.057022963
0001a0 2e f8 2a bd 98 b3 98 3c 90 b9 b6 bb 08 d0 14 bd
       -0.04174059 0.018640324 -0.00557632 -0.036331207
0001b0 ff 44 b3 39 4c 4c 56 3c 9b 68 1b bd ec 3f 31 3d
       0.00034192947 0.013079714 -0.037941556 0.04327385
0001c0 4a 98 2a bd bb 94 06 3c 5e 15 3e bd 59 c0 43 bd
       -0.04164914 0.008214171 -0.046407096 -0.04779086
0001d0 ff d9 ac b9 9a c3 7e 3d a2 2d 82 3d 53 8c e1 3c
       -0.00032968816 0.06219826 0.0635636 0.027532732
0001e0 67 46 3d 3d 2c f1 0b bd be a3 16 3d 5e 96 28 3d
       0.04620972 -0.034165546 0.03677725 0.041159026
0001f0 46 1b 79 bd f0 1f 47 bd 1a a4 e3 3c ce 3d 55 3c
       -0.060817026 -0.048614442 0.02778821 0.013015224
000200 0e 87 27 bd 53 34 48 bd 68 21 48 3d c6 98 0c 3c
       -0.040900283 -0.048878025 0.048859984 0.008581346
000210 13 a5 6b 3a 7f 2e 74 bd 4c 0a 69 3d a7 6d 18 bd
       0.00089891365 -0.059614655 0.056894585 -0.037213948
000220 0c 24 e4 3c 08 1b 48 bb 2a 71 2b 3c 93 f5 0f 3d
       0.02784922 -0.003053369 0.010463992 0.035146307
000230 86 e3 33 bc 1f ea 39 bc 35 f8 79 3d 70 b8 2b bd
       -0.010979539 -0.011347323 0.061027724 -0.04192394
000240 a4 d2 01 3d 3e 04 05 bc 84 a2 66 bc 94 0f 45 3d
       0.031695023 -0.008118687 -0.014076833 0.04811056
000250 17 df 82 3c 86 e1 58 bd 57 0f 0b 3d 50 0e fe bc
       0.015975518 -0.05294945 0.033950176 -0.031012684
000260 6b f4 fe 3c 61 91 1a bd c6 ed 22 3d f6 e2 25 bb
       0.031122407 -0.0377363 0.03977754 -0.0025312281
000270 87 dd c0 bc 19 20 07 3c cb 6e b6 bc 37 78 58 bd
       -0.023543132 0.008247399 -0.022269627 -0.05284902
000280 40 ea 84 3c 3f d5 a9 3c 1c 86 e7 bc 79 80 1b 3d
       0.01622498 0.020731566 -0.02826219 0.037964318
000290 e3 e3 77 bc a3 47 1f bd cc 81 0b bd 8f 08 32 3d
       -0.015130016 -0.038886677 -0.03405933 0.043465193
0002a0 ac 14 bd bc 8d e4 27 3d a3 6e 8c bd c4 ef 07 3b
       -0.023081146 0.040989447 -0.0685704 0.0020742277
0002b0 52 04 25 bd a3 42 d2 3c bf 6a 48 3d 11 c5 d8 3c
       -0.040287323 0.02566654 0.048929926 0.026461156
0002c0 ae 41 9f bc f7 1c 82 bd c0 51 f2 bc d7 e1 13 bd
       -0.019440498 -0.06353181 -0.029579997 -0.03610405
0002d0 91 2c 67 3d 4a a4 09 bd 39 fb b1 3c 24 40 54 3d
       0.056438986 -0.033603944 0.021726238 0.05181898
0002e0 01 6b 9e 3c db cc 6c bd 34 ca 11 bc fe 5b 6f bc
       0.019338133 -0.057812553 -0.008898307 -0.014609335
0002f0 25 f3 21 3d d2 70 2d bc 96 ea 11 bb b6 0d 5f 3d
       0.03953852 -0.0105859805 -0.0022265068 0.054456435
000300 21 87 4c 3c 40 63 d2 3c b6 b0 b1 bc 24 d1 37 3d
       0.012483389 0.025682092 -0.021690708 0.044877186
000310 58 3b 13 3c 46 18 0d bc 69 11 a3 3c 22 6f 3a bd
       0.008986317 -0.008611744 0.019905763 -0.04551614
000320 d1 55 ee 3b 41 1d 0e 3d ad 4f 43 bd c6 c3 e1 bc
       0.0072734137 0.034695867 -0.047683407 -0.027559172
000330 0d 17 2e 3d 9a c1 10 3c ae 82 87 3b 5e fc 3b 3c
       0.04250245 0.008835221 0.0041354513 0.011473743
000340 7a b0 be bc 92 e0 67 3d 77 47 39 bb 9c 6c ba bc
       -0.02327751 0.05661065 -0.0028271356 -0.022756867
000350 99 cd 18 3d 90 59 39 bd 52 e5 0b bc 14 47 41 3c
       0.03730545 -0.04525143 -0.008538561 0.0117967315
000360 28 06 76 bc 68 1f 37 3d 10 f3 48 bd f4 54 75 bc
       -0.015016116 0.044707686 -0.049059927 -0.014973868
000370 a7 c2 a1 bc 96 8a 84 3d 0b 84 ff 3c 2c c7 2e bd
       -0.019746138 0.06471746 0.031190893 -0.042670414
000380 33 3c ef 3c 53 01 c1 3a 5e 59 6a 3d 43 89 19 3d
       0.02920351 0.0014725126 0.057214133 0.03748442
000390 c4 80 f8 bc 0e 0f 6e 3d b3 17 fe bb 67 da 1f bc
       -0.030334838 0.058119826 -0.00775429 -0.009756661
0003a0 cb 74 e0 3c a5 4b 87 3d 81 40 a9 3c f8 ea 5e bd
       0.027399441 0.06606225 0.02066064 -0.054423302
0003b0 79 70 80 bc 5a 95 7e 3d 6d 94 96 bc d5 92 d6 bc
       -0.015678631 0.06215415 -0.018381322 -0.026193062
0003c0 c7 92 55 bd be 50 0d bd f5 6e 14 bd 97 33 7b 3c
       -0.05214193 -0.03450083 -0.03623863 0.015332124
0003d0 f0 c8 ae 3c 22 0e 6e 3d 39 ed 24 3d c0 e6 9a 3b
       0.021336049 0.058118947 0.040265296 0.0047272146
0003e0 e7 59 04 3d e3 32 01 3d 37 7d 59 bd 7d a3 00 3d
       0.0323123 0.03154267 -0.05309793 0.031405915
0003f0 22 7d 34 bd f1 95 3b 3d 74 a0 f0 bc 49 11 90 3c
       -0.04406465 0.045797292 -0.029373385 0.017586367

qf1.fc0.bias f4 [256]
000000 37 db 1b 3e 22 e1 18 3e 63 8f 19 3e b3 2e 15 3e
       0.15220343 0.14929631 0.14996104 0.14568596
000010 c9 b8 19 3e 51 90 18 3e f6 9d 0f 3e 44 fc 1e 3e
       0.15011896 0.14898802 0.14025101 0.15525919
000020 4d 24 1b 3e c7 81 1d 3e a2 b8 03 3e ea 62 1b 3e
       0.15150566 0.15381537 0.128634 0.15174451
000030 f6 65 16 3e 1f 4c 1c 3e 67 9a 1c 3e 08 e7 1a 3e
       0.14687333 0.15263413 0.15293275 0.15127194
000040 89 84 17 3e ae bb 1e 3e b6 d6 20 3e 39 f9 1b 3e
       0.14796652 0.15501282 0.15706906 0.1523179
000050 94 79 1b 3e 2e fd 1f 3e 4b e3 22 3e 7c ba 19 3e
       0.15183097 0.15623924 0.15907018 0.15012544
000060 52 ee 1b 3e f2 a0 20 3e b5 bf 0d 3e 55 1d 1e 3e
       0.1522763 0.15686396 0.13842662 0.15440877
000070 f8 e6 1f 3e 40 3e 13 3e d1 fd 15 3e 28 4a 18 3e
       0.15615451 0.14379215 0.14647605 0.14872038
000080 4f 86 1c 3e 55 61 1b 3e 28 8c 18 3e be 87 1d 3e
       0.1528561 0.15173848 0.14897215 0.15383813
000090 13 67 17 3e 0d e4 1a 3e 1c 0b 19 3e e9 9c 13 3e
       0.14785413 0.15126057 0.14945644 0.14415325
0000a0 3d 05 16 3e e8 f0 19 3e 3b 8d 19 3e 3e b4 1f 3e
       0.14650436 0.15033305 0.14995281 0.155961
0000b0 69 f7 20 3e bc 7b 1b 3e 94 d0 1e 3e 8b 00 16 3e
       0.1571938 0.1518392 0.15509254 0.14648645
0000c0 9e db 1a 3e 75 08 16 3e 6d d4 1a 3e fd 04 13 3e
       0.1512284 0.14651664 0.15120097 0.14357372
0000d0 4e 7f 15 3e 36 91 15 3e 4c f9 12 3e 2b f7 1c 3e
       0.14599344 0.14606175 0.14352912 0.15328662
0000e0 f6 d5 19 3e a0 65 16 3e a7 b8 19 3e 22 e0 14 3e
       0.15023026 0.14687204 0.15011846 0.14538625
0000f0 74 94 1b 3e 34 0a 17 3e ea 33 12 3e dd 67 0f 3e
       0.15193349 0.14749986 0.14277616 0.14004464
000100 1a 05 1c 3e 6c af 1c 3e b8 48 1d 3e a4 c0 16 3e
       0.15236321 0.15301293 0.15359771 0.14721924
000110 21 6d 1e 3e 96 a0 18 3e f7 81 0d 3e fe 05 1c 3e
       0.15471317 0.14905009 0.13819109 0.15236661
000120 ac 79 1b 3e f4 05 19 3e 8f 41 1c 3e 96 20 21 3e
       0.15183133 0.14943677 0.15259384 0.15735087
000130 51 eb 1c 3e 46 87 18 3e 2a fa 0b 3e 08 20 18 3e
       0.15324141 0.14895353 0.13669649 0.14855969
000140 63 83 17 3e d7 8e 1e 3e c2 cf 17 3e d2 72 17 3e
       0.14796214 0.15484177 0.14825347 0.14789894
000150 12 6d 1d 3e 3f 72 19 3e a9 b3 10 3e 7d 6c 1c 3e
       0.15373638 0.14984988 0.14131035 0.1527576
000160 41 bf 1a 3e c0 4b 1e 3e e3 34 18 3e f3 24 12 3e
       0.1511202 0.15458584 0.14863925 0.14271908
000170 ad fb 16 3e c8 1a 19 3e 9a 58 18 3e e5 81 18 3e
       0.14744444 0.14951622 0.14877549 0.14893301
000180 d8 db 17 3e 68 4b 1d 3e 68 7f 12 3e 55 2f 18 3e
       0.14829957 0.15360796 0.14306414 0.14861806
000190 e6 f7 19 3e 46 34 15 3e f8 3f 19 3e 46 57 1a 3e
       0.15035972 0.14570722 0.14965808 0.15072355
0001a0 06 96 1c 3e bb 0e 19 3e dc 80 17 3e 34 07 1b 3e
       0.15291604 0.14947025 0.1479525 0.15139467
0001b0 bb 88 17 3e 18 09 19 3e 15 e2 19 3e 10 90 1d 3e
       0.14798252 0.14944875 0.1502765 0.15386987
0001c0 33 6d 20 3e a5 2b 1c 3e da 5e 18 3e 3c 31 17 3e
       0.15666656 0.15251024 0.14879933 0.14764875
0001d0 79 e4 16 3e ba 86 20 3e 58 6c 13 3e c2 98 19 3e
       0.14735593 0.15676394 0.14396799 0.14999679
0001e0 b5 49 18 3e ce 2c 1c 3e e0 d3 0b 3e 6a 39 20 3e
       0.14871867 0.15251467 0.13655043 0.15646902
0001f0 73 6a 13 3e d4 83 14 3e 1c f1 2d 3e de 91 17 3e
       0.14396076 0.14503413 0.16986507 0.14801738
000200 63 a6 1c 3e 9e 65 1d 3e 51 48 12 3e c6 c8 16 3e
       0.15297846 0.15370795 0.14285399 0.14725026
000210 4b 2e 15 3e e7 99 1c 3e 52 b1 1a 3e 6c b3 1d 3e
       0.1456844 0.15293084 0.15106705 0.15400475
000220 7f 07 20 3e 37 d7 17 3e 77 e5 16 3e c9 9b 1f 3e
       0.1562786 0.14828192 0.14735971 0.15586771
000230 ab bf 13 3e da fc 1d 3e c2 8d 17 3e b4 b1 1a 3e
       0.14428584 0.15428486 0.1480017 0.15106851
000240 06 57 1c 3e bd a7 18 3e 70 0c 13 3e a2 61 1a 3e
       0.15267572 0.14907737 0.14360213 0.15076306
000250 f6 3e 1e 3e 0d d1 0a 3e 03 6a 20 3e 06 33 1b 3e
       0.15453705 0.13556309 0.1566544 0.15156183
000260 01 34 1a 3e 52 f2 1a 3e ef df 19 3e fb 82 10 3e
       0.150589 0.151315 0.1502683 0.14112465
000270 4b 0e 1c 3e 15 9a 17 3e de 08 10 3e dc a5 13 3e
       0.15239827 0.14804871 0.14065883 0.14418739
000280 82 0c 0c 3e 84 4c 1a 3e 45 53 18 3e 28 87 19 3e
       0.13676646 0.15068251 0.14875515 0.14992964
000290 ba c1 12 3e 02 8b 15 3e a0 cd 0d 3e 65 d4 1b 3e
       0.14331713 0.14603809 0.13847971 0.15217741
0002a0 2c a7 1b 3e 36 02 1b 3e f8 17 1c 3e a3 b1 18 3e
       0.1520049 0.15137562 0.15243518 0.14911513
0002b0 51 29 19 3e fa 19 1b 3e 7c 21 19 3e 56 e2 11 3e
       0.14957167 0.15146628 0.1495418 0.14246497
0002c0 95 0f 17 3e 86 d1 1b 3e 1b 5b 1d 3e e4 97 1e 3e
       0.14752038 0.15216646 0.15366785 0.15487629
0002d0 cd d1 19 3e 8c d2 1d 3e 7d 54 18 3e 18 45 19 3e
       0.15021439 0.15412349 0.1487598 0.14967763
0002e0 ee aa 14 3e 4d af 1e 3e 54 33 1a 3e f3 6c 15 3e
       0.1451833 0.1549656 0.15058643 0.14592342
0002f0 52 65 1a 3e 36 5f 16 3e 8b fa 1a 3e 25 ac 1a 3e
       0.15077713 0.14684758 0.15134637 0.1510473
000300 fd 08 19 3e 08 24 1c 3e db e0 13 3e 18 bd 1c 3e
       0.14944835 0.1524812 0.14441244 0.15306509
000310 80 ac 19 3e ed 09 16 3e f2 87 1b 3e ac 0d 1a 3e
       0.1500721 0.14652224 0.15188578 0.15044278
000320 6d 12 1a 3e b4 17 17 3e 1a 03 1d 3e 39 e9 16 3e
       0.15046091 0.14755136 0.15333214 0.14737405
000330 1f f1 19 3e b4 83 1c 3e 75 d8 16 3e ab c4 1a 3e
       0.15033387 0.15284616 0.1473101 0.15114085
000340 28 c9 25 3e c0 16 1b 3e f3 d6 11 3e d3 23 17 3e
       0.16190016 0.15145397 0.14242153 0.1475976
000350 0a 8e 17 3e 77 fc 19 3e 2d 61 1c 3e 81 3c 14 3e
       0.14800277 0.15037714 0.15271445 0.14476205
000360 b2 32 1b 3e e0 87 28 3e 4a e6 14 3e fc a4 24 3e
       0.15156057 0.16458082 0.14540973 0.16078562
000370 9d c6 18 3e 58 57 1b 3e e0 b7 1e 3e c4 7d 19 3e
       0.14919515 0.15170038 0.1549983 0.14989382
000380 ff c4 18 3e 03 4e 1a 3e 1b ee 15 3e c9 52 18 3e
       0.14918898 0.15068822 0.14641611 0.1487533
000390 8f b0 15 3e 35 fa 1b 3e 39 72 19 3e fb 20 1e 3e
       0.14618133 0.15232165 0.14984979 0.15442269
0003a0 62 e6 1c 3e be 81 20 3e 81 14 1a 3e 6b 99 18 3e
       0.15322259 0.15674493 0.15046884 0.14902274
0003b0 64 01 10 3e 81 89 17 3e b4 fb 12 3e 57 84 10 3e
       0.1406303 0.14798547 0.1435383 0.14112984
0003c0 82 16 1d 3e 86 0a 1a 3e bc c8 1a 3e e7 06 1c 3e
       0.15340617 0.15043077 0.15115637 0.15237008
0003d0 69 24 1d 3e dc a3 22 3e 71 46 13 3e 1a 8e 12 3e
       0.1534592 0.1588282 0.1438234 0.1431202
0003e0 07 b7 20 3e 25 12 18 3e 6e 83 12 3e 7a 3e 19 3e
       0.1569482 0.14850672 0.14307949 0.14965239
0003f0 4b 7a 1b 3e 9d 01 14 3e 31 b1 1f 3e ab 31 19 3e
       0.1518337 0.1445374 0.15594937 0.14960353

qf1.fc1.weight f4 [256, 256]
000000 60 ea ec 3c 73 4d a0 3d 29 3b 78 3d 7d 1a a4 bc
       0.028920352 0.07827272 0.060603295 -0.020032162
000010 e7 b1 79 3c 04 d4 c3 3d 6f 42 e7 bc d2 58 1c 3d
       0.015240169 0.09561923 -0.02822992 0.038170643
000020 12 06 bb 3d 49 ea 6f 3d 81 ac fe bc 18 96 aa 3d
       0.09132017 0.05857304 -0.031088116 0.08329409
000030 66 cf 11 3d b2 d1 de bc d6 51 45 3d 6c 35 bc bc
       0.03559818 -0.0271996 0.048173748 -0.022974692
000040 5c 39 a4 3d 71 e6 49 3d a2 69 59 3c 5d c1 c1 3d
       0.08018753 0.04929203 0.013269814 0.09460709
000050 ee 9b 7f 3d 14 f0 8d 3d 35 c2 a8 3d 4f 80 9d 3a
       0.062404566 0.06930557 0.08240167 0.0012016388
000060 56 44 9f 3d 6f a7 6f bc f6 1e 40 3d f7 80 2d bc
       0.07776706 -0.014627322 0.046904527 -0.01058983
000070 dc 94 06 3d a4 12 0b bc c5 da 85 3c 93 3e c3 3c
       0.032856807 -0.008488331 0.016339669 0.023833549
000080 87 e5 83 bc 57 46 38 3d 2c 33 92 3d bb 32 a0 3d
       -0.016100658 0.044988956 0.071386665 0.07822176
000090 6e 4f f0 3c ea c9 b1 3d f8 a9 79 bc cc f0 cc bb
       0.02933475 0.0868109 -0.015238278 -0.006254291
0000a0 70 4c ba 3c 8d 67 23 3d cf 02 33 3c f4 54 a7 3d
       0.022741526 0.039893676 0.010925963 0.081705004
0000b0 8e 9b 2c bc 6d db 3f 3d 4c 96 af 3d 86 4b b2 3d
       -0.010535134 0.04684012 0.08573589 0.08705811
0000c0 9a 87 08 3d 22 6b 21 bb 28 4d 9f 3d a0 bb a0 bb
       0.033332445 -0.0024630507 0.07778388 -0.004905179
0000d0 64 1a 8a bc a0 12 08 bd 9b 9b 15 3d 05 ae 6f 3d
       -0.016858287 -0.033220887 0.03652535 0.058515567
0000e0 86 b4 9a 3d 7c 2f d5 bc 16 ce 4f 3d bc 72 63 3d
       0.07553963 -0.026023619 0.05073365 0.05552934
0000f0 38 f9 56 3c 6b bc b0 3d 96 ba 32 3d 94 8f a2 bc
       0.013120942 0.08629688 0.043634973 -0.019843854
000100 55 56 1d 3d a6 86 05 3d c0 29 89 bc d5 cb 98 3d
       0.03841241 0.032599114 -0.01674354 0.07460753
000110 cb 1b b4 3d 39 3f d6 3c ee a4 c2 3b 21 ad ec bc
       0.087943636 0.026153194 0.0059400713 -0.028891148
000120 3a 19 47 3d 2b cd 89 bc 43 74 4f 3d ae 5f 29 3d
       0.048608042 -0.016821465 0.050647985 0.041351013
000130 55 31 c1 3d e7 f5 39 3d 33 e8 45 3d 4d 87 2a 3d
       0.094332375 0.045400526 0.048317146 0.04163294
000140 86 1c c0 3d a5 4f aa 3d 24 8b 59 bc 3d 1d 27 3d
       0.093804404 0.08315972 -0.013277803 0.04079937
000150 ba 2c 3a bc d3 b6 ab 3d ee 44 09 3a 29 8a de bb
       -0.011363203 0.0838448 0.00052364066 -0.0067913723
000160 59 b9 8f 3d cf 91 94 3d e1 60 ee bc 34 fc 8b bc
       0.07017774 0.07254373 -0.02909893 -0.017088033
000170 a5 da e6 3c 8c 4b 88 3d 2b 43 ac 3d 6c 1b ac 3d
       0.02818043 0.066550344 0.08411249 0.08403668
000180 a0 7e 4c bc 56 71 82 3d f1 95 82 3d cc 44 89 3c
       -0.012481362 0.06369273 0.06376255 0.016756438
000190 e5 0c 3c 3d 4e 93 ad bc 09 c1 fb bc 2f d8 c5 3b
       0.045910735 -0.021188404 -0.030731695 0.006037734
0001a0 b4 9b 85 3d 82 f7 f0 3a 34 1d 92 3b f2 23 c8 3c
       0.06523839 0.001838431 0.0044590477 0.024431203
0001b0 45 72 c7 bc 85 07 a8 3d 2c 2b a4 bc a2 db b3 3d
       -0.02434648 0.08204559 -0.020040117 0.08782126
0001c0 de 50 b3 3c 60 ee bd 3c a5 d5 05 bd d5 58 68 3d
       0.021889146 0.023184955 -0.03267445 0.05672534
0001d0 1a 4e 9b bc 63 be 24 3d e9 f7 9c bc 30 49 6f 3d
       -0.01895814 0.04022063 -0.019161182 0.058419406
0001e0 07 4f 2b bc f0 32 17 3c d6 b6 38 3d 3f d9 fb 3c
       -0.010455853 0.009228453 0.04509624 0.03074324
0001f0 31 4e ff 3c 4b 1b b3 3d 9c dd 67 3d ed ed 83 3d
       0.031165214 0.0874544 0.056607828 0.06441865
000200 0d cb c6 3c 2c 91 1f 3d a0 cc a3 3d 5b 6c 21 3d
       0.024266744 0.038956806 0.079980135 0.039409976
000210 b9 12 8c ba b2 ca ba 3d d3 5a fc 3c b5 8e 14 bb
       -0.0010686732 0.09120692 0.030805027 -0.0022668068
000220 5f f1 95 3c 2c 75 b0 3d ec 6b 84 3c 87 53 ca 3d
       0.018303571 0.08616099 0.016164742 0.09879213
000230 5c 6f cc 3c ee 9e 9f 3d 6a 62 26 3d 37 51 c2 3d
       0.024955444 0.07793985 0.0406212 0.09488147
000240 ed 2e d4 bc 3e 5a a1 bc e1 07 95 3d 5c b6 62 3b
       -0.025901282 -0.019696351 0.072768934 0.0034593558
000250 26 18 84 3d 22 90 bc 3c ad f1 9a 3d 8b 79 d9 3c
       0.064499184 0.023017947 0.07565627 0.026547214
000260 c0 bd 57 3d c7 a1 8e 3b 8a db 90 3c 1b ba b0 3d
       0.052671194 0.0043527815 0.01768281 0.08629247
000270 73 ff 00 3d 7f dc 07 bd c1 d0 ae 3d 39 74 e3 3c
       0.031493615 -0.033169266 0.085359104 0.02776538
000280 bf 3b bd bc b5 a1 33 3d 39 8b a6 3d fd 3f c4 3a
       -0.023099778 0.043855388 0.08132023 0.0014972683
000290 5a eb ac 3d 10 9c 4b 3d 55 1c 12 bc 9d 01 ab 3d
       0.08443327 0.04970938 -0.008917888 0.08349917
0002a0 c7 75 27 3d e6 16 21 3d 34 39 31 3c 26 6e b3 3d
       0.040883806 0.03932848 0.010816861 0.087612435
0002b0 8b 5a c9 3b 6c fd ae 3d 99 ee 94 3d 95 10 e3 3c
       0.0061448268 0.0854443 0.072720714 0.027717868
0002c0 55 46 0c 3d b8 62 36 3d 71 06 33 3d fc 58 15 bc
       0.03424676 0.04452774 0.043707315 -0.009115454
0002d0 03 53 4b 3d 12 fd 0e bc 09 1b ce bc 18 38 9d 3d
       0.049639713 -0.008727329 -0.025159376 0.07676715
0002e0 9e e3 eb 3c f4 a6 be 3c a1 b5 e7 3c d9 8c 81 bc
       0.02879506 0.023272969 0.02828485 -0.015814232
0002f0 f3 82 9b 3d 9b 8f e8 3b 38 7c a5 bc fa 3f e0 3c
       0.07593336 0.007097197 -0.020200834 0.027374256
000300 60 9a b8 3d 28 2e 82 3c 56 ce 78 3d 83 02 a3 3d
       0.0901382 0.01589115 0.060743652 0.079594634
000310 b1 97 87 3d 20 76 39 3d 4c b4 dc bc f9 db ca bc
       0.0662073 0.04527867 -0.026941441 -0.024763094
000320 71 e1 ca 3a 8e d2 8b bc f2 20 48 3d a6 59 43 3d
       0.0015478564 -0.017068174 0.048859544 0.047692917
000330 b3 1e 2d 3d 4f 63 ad 3d 85 d8 4a 3d 60 0f 50 3c
       0.042265605 0.08466207 0.049522895 0.012698978
000340 8e 68 30 3d a0 4f 92 3d 4a f6 38 bc 51 b2 92 3b
       0.04306846 0.071440935 -0.011289189 0.0044768234
000350 99 4e b4 bc 3e 1b 54 3d c4 5e 9c 3d 9e 6d b8 3d
       -0.022010135 0.051783793 0.076352626 0.09005283
000360 cf 2f 45 3c 12 fd 8a 3d 46 61 88 bc a3 5c b6 3c
       0.012035324 0.067865506 -0.016647946 0.02226097
000370 a4 00 c9 3c a8 72 88 3c e5 78 a7 bb 73 56 8e 3d
       0.024536438 0.016656235 -0.0051108473 0.06950083
000380 3e ba a4 bc cb ca 9d 3d 48 17 8e 3d 33 e7 2a 3d
       -0.020108338 0.07704695 0.06938034 0.041724395
000390 ed 7a d6 3c fa 16 56 3c f6 27 d0 3d 6a fa 4f 3d
       0.026181662 0.0130670015 0.10163872 0.050775923
0003a0 9a 9d 93 3d 84 ec be 3d 28 a6 8b 3d bf 58 54 3d
       0.072077945 0.093224555 0.06818801 0.051842447
0003b0 bb 4d 4d 3d d7 6b 2f 3d a4 98 fa 3c 6d 0c e7 3c
       0.050122958 0.042827453 0.030590363 0.028204167
0003c0 f3 84 b7 3d be 31 13 3d 6f c7 a6 3c 60 88 a3 3d
       0.08960905 0.03593611 0.02035877 0.07984996
0003d0 9b 7b 9f 3d 81 db dc 3d f5 36 2f 3d 1f 0f 1a 3d
       0.07787248 0.107840545 0.04277702 0.037612077
0003e0 e2 3e da 3d f3 40 d3 bc 1d 6f e8 3b 2b 82 c3 3c
       0.10656525 -0.025787806 0.007093324 0.02386578
0003f0 e8 45 54 3d a4 d1 b3 3d 1c 7b 62 3b 03 48 9d 3c
       0.05182448 0.0878022 0.0034558242 0.019199377

qf1.fc1.bias f4 [256]
000000 6c c7 22 3e fb 89 24 3e a9 8f 22 3e d8 c2 22 3e
       0.15896386 0.1606826 0.15875115 0.1589464
000010 22 89 22 3e db 1e 21 3e 24 1a 22 3e a5 df 20 3e
       0.15872625 0.15734427 0.15830284 0.15710314
000020 8b 7a 21 3e 6b c2 21 3e 62 fa 22 3e a2 f5 20 3e
       0.15769403 0.15796821 0.15915826 0.15718701
000030 07 4d 22 3e 54 b0 22 3e 87 43 23 3e 3a 9e 22 3e
       0.15849696 0.15887576 0.15943728 0.15880671
000040 30 04 22 3e 28 cb 20 3e b7 8a 22 3e 76 c1 23 3e
       0.1582191 0.15702498 0.15873228 0.15991768
000050 04 7f 21 3e 14 07 23 3e 1f f3 22 3e d6 2f 23 3e
       0.15771109 0.15920669 0.15913056 0.15936217
000060 71 34 24 3e 5a 9a 22 3e b3 15 23 3e 22 87 23 3e
       0.1603563 0.15879193 0.15926246 0.15969518
000070 90 44 22 3e bb eb 22 3e f3 77 21 3e c6 31 23 3e
       0.15846467 0.15910237 0.15768413 0.15936956
000080 09 49 22 3e 85 a6 22 3e f1 ef 22 3e 96 c4 21 3e
       0.15848173 0.15883835 0.15911843 0.15797648
000090 a5 66 23 3e 1b 09 21 3e bf c5 22 3e 78 e7 22 3e
       0.15957125 0.1572613 0.15895747 0.15908611
0000a0 17 21 23 3e e7 46 22 3e ca 6c 23 3e e0 83 24 3e
       0.15930592 0.1584736 0.15959468 0.16065931
0000b0 72 44 22 3e 71 22 22 3e a9 80 23 3e 56 a8 21 3e
       0.15846422 0.15833451 0.15967049 0.15786871
0000c0 19 15 22 3e 18 ae 22 3e 3d 80 23 3e 05 45 21 3e
       0.1582836 0.15886724 0.15966888 0.15748985
0000d0 60 c3 22 3e d6 51 21 3e af aa 24 3e 19 ca 22 3e
       0.15894842 0.15753874 0.16080736 0.15897407
0000e0 e6 ad 22 3e f5 82 23 3e 1c ca 25 3e 2a 64 21 3e
       0.1588665 0.15967925 0.1619038 0.15760866
0000f0 71 49 22 3e ff bd 24 3e 1a e4 21 3e 09 f5 22 3e
       0.15848328 0.16088103 0.1580967 0.15913786
000100 26 dd 24 3e 1e 8c 21 3e ef 37 22 3e ed 0f 23 3e
       0.16099986 0.15776107 0.1584165 0.15924044
000110 ac 42 23 3e 7d 4d 23 3e ab a2 25 3e 81 72 21 3e
       0.15943402 0.15947528 0.16175334 0.15766336
000120 50 5e 22 3e 35 db 22 3e 44 69 25 3e 75 72 21 3e
       0.1585629 0.15903933 0.16153437 0.15766318
000130 fa 47 24 3e 02 19 23 3e 7e 45 23 3e 61 2b 21 3e
       0.16043082 0.15927508 0.15944478 0.15739204
000140 80 c7 20 3e a6 18 24 3e 7f 35 22 3e 6f 73 22 3e
       0.15701103 0.16025028 0.1584072 0.15864347
000150 57 47 25 3e 79 d9 21 3e ef a6 24 3e af a2 21 3e
       0.16140495 0.15805615 0.16079305 0.15784715
000160 a0 b7 22 3e 10 56 21 3e e5 43 22 3e e9 05 23 3e
       0.1589036 0.15755486 0.15846212 0.15920223
000170 dc 3c 22 3e bc f0 23 3e 46 53 24 3e 95 b7 22 3e
       0.15843529 0.16009802 0.16047391 0.15890343
000180 b4 bf 22 3e 80 c8 25 3e b1 e1 22 3e 02 8f 22 3e
       0.15893441 0.16189766 0.15906407 0.15874866
000190 f1 e7 21 3e 0d 77 21 3e db 81 23 3e 90 fb 21 3e
       0.15811135 0.1576807 0.15967505 0.1581862
0001a0 df 21 23 3e 97 2f 23 3e 34 d9 22 3e 98 f4 22 3e
       0.1593089 0.15936123 0.15903169 0.15913618
0001b0 4f d9 22 3e 94 e9 22 3e 3d 14 22 3e d1 1a 22 3e
       0.15903209 0.15909415 0.15828033 0.15830542
0001c0 87 2e 22 3e 3c f2 22 3e 9c f7 23 3e 37 5d 21 3e
       0.15838061 0.15912718 0.16012424 0.15758215
0001d0 6e 15 22 3e 10 80 25 3e 59 1b 24 3e 17 e9 21 3e
       0.15828487 0.16162133 0.16026057 0.15811573
0001e0 fa 90 22 3e 29 5f 20 3e e3 66 22 3e fa 39 23 3e
       0.15875617 0.156613 0.1585956 0.15940085
0001f0 cd 50 21 3e f7 e3 21 3e 1e 18 23 3e 9e fc 22 3e
       0.1575348 0.15809618 0.15927169 0.15916678
000200 d9 f7 22 3e 0e b5 21 3e ed 03 23 3e fb 92 25 3e
       0.15914859 0.15791723 0.15919466 0.1616935
000210 38 d4 22 3e fd b2 22 3e 7e e7 22 3e 02 28 22 3e
       0.15901268 0.15888591 0.1590862 0.15835574
000220 9e dc 23 3e c1 2c 24 3e ba 48 24 3e a2 54 23 3e
       0.16002128 0.16032697 0.16043368 0.15950254
000230 2c aa 23 3e 08 b5 22 3e 3c aa 23 3e b7 5c 22 3e
       0.15982884 0.1588937 0.15982908 0.1585568
000240 16 cc 20 3e 1d 16 23 3e 4c 5a 22 3e 4f 44 23 3e
       0.15702853 0.15926404 0.15854758 0.15944026
000250 a9 f4 23 3e 21 da 23 3e d8 a1 23 3e e0 59 21 3e
       0.16011299 0.16001178 0.15979707 0.15756941
000260 97 ac 22 3e 84 2e 23 3e cc b9 22 3e c6 aa 21 3e
       0.1588615 0.15935713 0.15891188 0.15787801
000270 11 67 21 3e e7 cf 24 3e d2 89 21 3e 77 9a 20 3e
       0.15761973 0.16094933 0.1577523 0.15683924
000280 28 ea 1e 3e e5 97 23 3e ff e1 22 3e 4b 47 23 3e
       0.15519011 0.15975912 0.15906523 0.15945165
000290 88 5a 24 3e 79 00 22 3e 1e ff 21 3e 60 80 21 3e
       0.1605016 0.15820493 0.15819976 0.15771627
0002a0 cd cc cc 3d cd 80 22 3e 83 91 22 3e 55 bc 21 3e
       0.1 0.15869446 0.15875821 0.15794499
0002b0 5d e8 22 3e a5 b3 22 3e fc ca 22 3e df 57 23 3e
       0.15908952 0.15888841 0.15897745 0.15951489
0002c0 e4 ae 21 3e ce a3 22 3e d3 5a 22 3e 22 22 23 3e
       0.15789372 0.15882799 0.15854959 0.1593099
0002d0 de 42 23 3e ab dd 23 3e ea 96 22 3e f8 12 23 3e
       0.15943477 0.16002528 0.15877882 0.15925205
0002e0 58 27 23 3e 01 62 21 3e df c1 25 3e c3 cc 21 3e
       0.15932977 0.15760042 0.16187237 0.15800767
0002f0 52 ad 22 3e 03 cc 22 3e 2e 42 25 3e 44 d1 22 3e
       0.15886429 0.15898137 0.16138527 0.15900141
000300 86 c8 22 3e 1f 18 23 3e 0b ed 21 3e 9a 60 22 3e
       0.15896806 0.1592717 0.15813081 0.15857163
000310 ef b2 21 3e 67 b5 22 3e f7 b1 24 3e 33 a9 22 3e
       0.15790914 0.15889512 0.16083513 0.15884857
000320 a3 5d 22 3e f3 3a 20 3e 5a a6 22 3e e1 86 21 3e
       0.15856032 0.15647487 0.1588377 0.15774108
000330 99 26 22 3e f8 4b 1f 3e bb 7e 21 3e 0c 76 23 3e
       0.15835036 0.15556324 0.15771 0.15963
000340 5d 97 23 3e 5e 91 23 3e 1a 76 23 3e 6c 16 23 3e
       0.1597571 0.15973422 0.15963021 0.15926522
000350 e6 d4 21 3e e1 e9 22 3e 50 44 22 3e b6 25 23 3e
       0.1580387 0.1590953 0.15846372 0.15932354
000360 8e b9 20 3e da 7b 23 3e a4 08 22 3e a2 a0 22 3e
       0.15695783 0.15965214 0.15823609 0.15881589
000370 69 85 24 3e 04 2c 22 3e a7 7a 22 3e 08 fe 22 3e
       0.16066517 0.15837103 0.158671 0.15917218
000380 47 1c 22 3e c6 42 22 3e 82 28 23 3e 31 d3 22 3e
       0.158311 0.15845785 0.15933421 0.15900876
000390 0c ec 22 3e 04 84 22 3e 50 f9 22 3e 7d 9b 22 3e
       0.15910357 0.15870672 0.15915418 0.15879627
0003a0 d9 37 23 3e 2c 40 22 3e e2 5e 23 3e 52 3f 22 3e
       0.15939273 0.15844792 0.15954164 0.15844467
0003b0 f5 f4 21 3e 4a c9 21 3e 27 90 22 3e 22 1f 26 3e
       0.158161 0.15799442 0.15875302 0.16222814
0003c0 f4 77 21 3e 42 0a 23 3e b7 6a 1f 3e 7f 55 24 3e
       0.15768415 0.15921882 0.15568052 0.16048239
0003d0 95 cd 22 3e 80 c0 26 3e 82 45 24 3e 6a 94 24 3e
       0.15898736 0.1628437 0.1604214 0.1607224
0003e0 d5 e5 21 3e 81 78 22 3e be 6b 23 3e af 7a 25 3e
       0.1581033 0.15866281 0.15959069 0.16160081
0003f0 f6 b6 22 3e 7f 60 21 3e 96 bd 1e 3e 03 45 22 3e
       0.15890107 0.15759467 0.15502009 0.15846638

qf1.last_fc.weight f4 [16, 256]
000000 7d af fc bc 16 aa 11 bd 4d 81 04 bd 6c 9e 0c bd
       -0.030845398 -0.035562597 -0.032349873 -0.03433077
000010 91 c6 06 bd ce fd 02 bd c9 ca fd bc 1d be 0d bd
       -0.03290421 -0.03198033 -0.030980485 -0.034605134
000020 e4 34 0b bd 33 02 0c bd 9e 09 03 bd 59 5c fd bc
       -0.033985987 -0.034181785 -0.031991594 -0.030927824
000030 23 d7 04 bd fc 43 08 bd c6 f2 fb bc d2 1f 05 bd
       -0.032431733 -0.03326796 -0.030755412 -0.03250105
000040 70 bb 02 bd a5 4e fd bc 76 3b fe bc 72 38 12 bd
       -0.031917036 -0.03092129 -0.031034213 -0.03569836
000050 8d 0d 03 bd 26 cb 16 bd 80 29 05 bd 42 f5 13 bd
       -0.031995345 -0.03681483 -0.03251028 -0.036122568
000060 80 eb 0e bd 49 eb 13 bd 99 42 eb bc 5a e5 23 bd
       -0.03489256 -0.036113057 -0.02871828 -0.04001365
000070 ae a6 08 bd 9a 04 e6 bc 72 7e e8 bc f5 ef 09 bd
       -0.033362083 -0.028078366 -0.028380606 -0.033676106
000080 7c 43 02 bd 4e 4b 1c bd 10 85 0c bd 86 64 09 bd
       -0.03180264 -0.038157754 -0.034306586 -0.033543132
000090 2b 5c 1a bd 02 a2 01 bd 63 87 10 bd 97 16 f7 bc
       -0.037685554 -0.031648643 -0.035285365 -0.030162139
0000a0 ab 92 07 bd 8c 02 11 bd 58 8d f7 bc 94 b6 11 bd
       -0.033098858 -0.03540282 -0.030218765 -0.03557451
0000b0 83 8b 17 bd 2d 62 16 bd a5 ba 04 bd 0b f3 f8 bc
       -0.036998283 -0.03671472 -0.03240456 -0.03038933
0000c0 fb bb 10 bd d5 a0 0a bd 2d cb 09 bd 52 84 0c bd
       -0.035335522 -0.033844788 -0.03364103 -0.034305878
0000d0 ba e3 00 bd 02 23 03 bd c3 b7 19 bd 4d 3a 0f bd
       -0.031467177 -0.032015808 -0.037528764 -0.03496771
0000e0 d9 3c 0e bd 67 39 15 bd f8 e6 2d bd 12 67 12 bd
       -0.034725998 -0.036431696 -0.042456597 -0.035742827
0000f0 a9 31 07 bd 6b f2 28 bd bc 86 ea bc 06 b1 06 bd
       -0.033006344 -0.041246813 -0.0286287 -0.032883666
000100 0b f7 1a bd d7 33 05 bd 37 bb 01 bd ff 41 21 bd
       -0.037833255 -0.03252014 -0.031672683 -0.03936958
000110 b1 89 16 bd e1 b9 02 bd a1 17 23 bd 76 ff 13 bd
       -0.036752407 -0.03191555 -0.039817456 -0.0361323
000120 6f 85 10 bd d3 38 13 bd 70 5e 1d bd 33 ec 00 bd
       -0.035283502 -0.035942864 -0.03842014 -0.031475257
000130 12 39 09 bd 31 81 14 bd 6b 4f 0b bd 55 cb 0a bd
       -0.033501692 -0.03625602 -0.034011286 -0.03388532
000140 cd 0c 0b bd 94 0e 04 bd 51 80 0c bd 61 c6 fa bc
       -0.033947755 -0.032240465 -0.03430206 -0.030612173
000150 1e 44 12 bd 68 f4 08 bd 8c 04 13 bd f6 ef 01 bd
       -0.035709493 -0.03343621 -0.035893008 -0.031722985
000160 e6 8f 00 bd f7 e9 07 bd 79 04 0c bd 03 e5 0d bd
       -0.031387232 -0.03318211 -0.034183953 -0.03464223
000170 7c 60 f1 bc c3 3d 1c bd af 71 12 bd b4 97 e6 bc
       -0.029464953 -0.038144838 -0.03575295 -0.02814851
000180 57 7f 1b bd db 7e 23 bd 8b c6 e6 bc 72 22 08 bd
       -0.037963238 -0.0399159 -0.028170845 -0.033235975
000190 d6 55 08 bd 01 51 17 bd 12 8c 12 bd 3a 63 14 bd
       -0.033284985 -0.036942486 -0.035778113 -0.036227442
0001a0 02 be 0a bd f9 7d 11 bd 61 8f fe bc 8b 57 0a bd
       -0.03387261 -0.035520528 -0.031074228 -0.033774894
0001b0 60 89 1d bd 2f 35 fc bc 35 13 0a bd a1 a0 07 bd
       -0.03846109 -0.030787079 -0.033709724 -0.033112172
0001c0 80 05 0b bd 3c 40 0f bd 52 90 14 bd ac b0 00 bd
       -0.033940792 -0.034973368 -0.036270447 -0.031418487
0001d0 00 21 0f bd 7c f3 1f bd 08 ec 15 bd 1d 26 f8 bc
       -0.03494358 -0.039050564 -0.03660205 -0.030291611
0001e0 c4 36 0c bd 13 84 03 bd 7b 42 fa bc c2 3e 1b bd
       -0.034231916 -0.032108378 -0.030549278 -0.037901647
0001f0 0e 8e 02 bd e5 86 0a bd 7f cf 26 bd 38 9e 0d bd
       -0.031873755 -0.03382005 -0.040725227 -0.034574717
000200 28 1c 06 bd eb d1 0c bd 1e 67 11 bd 25 14 24 bd
       -0.032741696 -0.03437988 -0.03549873 -0.040058274
000210 46 b8 03 bd b2 47 0d bd 8d 6e 13 bd 5a 4a 10 bd
       -0.03215816 -0.034492202 -0.0359941 -0.035227157
000220 9d b4 1f bd fa 02 23 bd 0a a5 2a bd d0 c1 1b bd
       -0.038990606 -0.03979776 -0.0416613 -0.03802663
000230 fe 04 25 bd c8 da 0b bd a6 fa 1f bd c7 50 08 bd
       -0.040287964 -0.034144193 -0.039057396 -0.03328016
000240 36 d5 f6 bc 22 fd 03 bd 3b 38 17 bd 0e f6 1c bd
       -0.030130964 -0.032223828 -0.03691886 -0.038320594
000250 8e 0c 1c bd a5 9a 12 bd 0b 74 11 bd a7 e2 0e bd
       -0.03809791 -0.03579201 -0.035511058 -0.03488412
000260 5b bf 08 bd b5 00 0d bd d5 9e 07 bd b3 a2 0c bd
       -0.033385616 -0.034424502 -0.03311046 -0.03433485
000270 ef c5 07 bd 68 3e 15 bd 1f 8c 08 bd c2 4b 11 bd
       -0.03314775 -0.03643647 -0.033336755 -0.03547264
000280 27 8c fb bc 0e 1c 06 bd 1c 32 10 bd 58 6f 07 bd
       -0.030706478 -0.0327416 -0.035204038 -0.03306517
000290 78 92 16 bd 2f 3b 07 bd a2 87 03 bd 65 64 14 bd
       -0.036760777 -0.033015426 -0.03211177 -0.036228556
0002a0 9a ba 7c 3a 35 9f 14 bd 3e f0 0b bd 74 e4 09 bd
       0.0009640843 -0.036284644 -0.03416466 -0.033665136
0002b0 55 01 08 bd 66 9b 01 bd fd f4 0d bd c3 74 13 bd
       -0.033204395 -0.03164234 -0.034657467 -0.036000025
0002c0 b8 ba 01 bd ea 17 0f bd 7f 16 05 bd a1 12 ff bc
       -0.03167221 -0.034934916 -0.032492157 -0.031136813
0002d0 4f ca 06 bd e2 8f 17 bd 34 31 05 bd 7a 4a 17 bd
       -0.03290778 -0.03700245 -0.032517627 -0.03693626
0002e0 9b 9c 12 bd 9a b0 16 bd 82 4b 30 bd 70 5c 0c bd
       -0.035793882 -0.036789514 -0.04304076 -0.034267843
0002f0 cd 5e 0b bd 84 b9 0c bd c8 56 1a bd 1c 33 fe bc
       -0.034025956 -0.03435661 -0.037680417 -0.03103023
000300 ce e0 0d bd a4 3f 09 bd f1 53 05 bd df e9 0b bd
       -0.03463822 -0.033507958 -0.032550756 -0.034158584
000310 35 b4 f8 bc a7 8f 0b bd b9 d0 17 bd 5b e5 0e bd
       -0.030359367 -0.034072544 -0.037064288 -0.0348867
000320 58 27 04 bd 99 06 ea bc c4 b4 0f bd 86 ec 08 bd
       -0.032264084 -0.0285676 -0.0350845 -0.03342869
000330 dc 3a ed bc 9b 0f fb bc d6 87 0e bd 6a 17 12 bd
       -0.02895873 -0.03064709 -0.034797512 -0.03566686
000340 ef 39 1c bd d6 42 0e bd c5 7c 11 bd ef 3e 04 bd
       -0.038141187 -0.03473171 -0.03551938 -0.03228658
000350 e9 de 06 bd 51 10 f5 bc 9d 0e 00 bd 7f 74 13 bd
       -0.032927427 -0.029915007 -0.031263936 -0.03599977
000360 20 e6 01 bd d0 53 13 bd 1a 05 08 bd d5 d5 10 bd
       -0.031713605 -0.0359686 -0.03320799 -0.035360176
000370 9e ad 06 bd ee c5 11 bd 7e 84 07 bd a3 20 07 bd
       -0.032880418 -0.03558915 -0.03308534 -0.03299011
000380 07 fd 02 bd 73 af f5 bc 37 1a 14 bd 84 c0 04 bd
       -0.031979587 -0.029990887 -0.036157813 -0.03241016
000390 be 24 12 bd 43 0b 03 bd 23 12 08 bd 66 92 07 bd
       -0.03567957 -0.031993162 -0.03322042 -0.0330986
0003a0 19 3e 03 bd a3 63 00 bd 63 29 1d bd fd fc 07 bd
       -0.032041643 -0.03134502 -0.038369548 -0.033200253
0003b0 72 f3 18 bd a5 5c ff bc 9a 4f 06 bd 02 5c 22 bd
       -0.037341543 -0.031172106 -0.032790758 -0.039638527
0003c0 d4 78 f0 bc 6c fd 10 bd a3 1f fe bc 01 9f 18 bd
       -0.02935449 -0.035397932 -0.031020945 -0.037261013
0003d0 23 91 ff bc bd 0d 1a bd aa 87 1a bd 43 7f 05 bd
       -0.031197136 -0.037610758 -0.037727036 -0.03259207
0003e0 82 9f 16 bd 18 2d 0b bd 4b 0a 04 bd 1c aa 22 bd
       -0.036773212 -0.03397855 -0.03223638 -0.03971301
0003f0 20 42 10 bd 1c 05 0a bd 07 b1 08 bd 73 06 15 bd
       -0.03521931 -0.03369628 -0.03337195 -0.036383104

qf1.last_fc.bias f4 [16]
000000 dc e9 6d bd cd 5e 5e bd 90 e3 55 bd 6f a4 65 bd
       -0.058084354 -0.054289628 -0.052218974 -0.05606502
000010 59 e7 67 bd 17 b0 5d bd c4 75 60 bd 6f 13 5b bd
       -0.056617115 -0.05412301 -0.05479981 -0.05348533
000020 f5 2d 5b bd f8 00 58 bd 6b b6 60 bd 89 b4 63 bd
       -0.053510625 -0.0527353 -0.054861467 -0.055592094
000030 72 0c 68 bd a7 18 63 bd 9b ae 69 bd 2c bd 60 bd
       -0.056652494 -0.055443432 -0.057051282 -0.05486791

qf1_target.fc0.weight f4 [256, 15]
000000 41 c4 48 bd c2 0c 4e 3d 78 ea 5a 3d 23 fd 5d 3d
       -0.049015287 0.050305136 0.053446263 0.054196488
000010 3a 1c ab bc 3f 61 29 3d e1 dd 54 bd 78 f3 1b 3d
       -0.020887483 0.041352507 -0.051969413 0.038073987
000020 82 cb 7d bb 8c de 5c bd 5a 24 3f bd 36 e6 65 bd
       -0.0038726036 -0.053923175 -0.046665527 -0.05612775
000030 f8 51 29 3c 85 6a 9b bc 42 80 f3 bc d1 a1 74 3d
       0.010334484 -0.01897169 -0.029724244 0.059724633
000040 7c fe 9b bc b5 4c b0 3c 1e 88 e0 bb 93 4a 1b 3d
       -0.019042246 0.021520952 -0.006852164 0.037912916
000050 72 6f a3 3c a9 13 2a 3d 22 82 bc 3c 4d 17 40 bc
       0.019950602 0.041522656 0.02301127 -0.011724305
000060 a1 d0 60 3d 35 d0 28 ba 14 85 0f bd af f8 ad 3c
       0.054886464 -0.00064397167 -0.035039023 0.021236746
000070 3f 87 ce bb 46 b7 38 bd be 53 e1 3b f0 ec 6d bc
       -0.0063027437 -0.04509666 0.006876438 -0.014521822
000080 f2 0d 00 bd 47 e3 eb bc 3c c9 f3 bc 7f c1 d9 bc
       -0.0312633 -0.028794898 -0.029759042 -0.026581524
000090 cc 05 26 3c 10 96 8e 3d ab 76 20 bd 41 20 04 bd
       0.010133218 0.06962216 -0.03917567 -0.032257322
0000a0 f5 6f 25 bd d7 5f 9f 3a ce 5d 31 3b d7 3c 41 bd
       -0.040389974 0.00121593 0.0027063969 -0.047177162
0000b0 ae dc f5 3c 21 95 91 bd aa f1 6c 3d 66 f1 c1 3b
       0.030012455 -0.07108522 0.057847656 0.0059186695
0000c0 fa bb 1b bc e4 57 d6 bc 34 e7 b7 3c 9a ac 30 3d
       -0.009505266 -0.026164956 0.022449113 0.043133356
0000d0 6a 6c 20 bd 00 f7 96 bc 12 80 18 3d e0 d2 87 bc
       -0.03916589 -0.018428326 0.037231512 -0.016580045
0000e0 f7 95 6b bd e4 55 c6 bc 2c 41 e6 bb 4f 59 66 bc
       -0.057516064 -0.024210878 -0.007026812 -0.014059379
0000f0 c7 89 2e bd ca 61 20 bd 89 51 8b 3c e2 65 42 3d
       -0.042611863 -0.03915576 0.017006652 0.047460444
000100 38 b0 68 3d c0 43 c7 bb 0e c0 d5 3c b1 6d 2d bd
       0.05680868 -0.0060810745 0.026092555 -0.042340938
000110 4d cf 11 3d 84 77 72 3d 6e a5 14 3d 55 ab b6 bc
       0.035598088 0.05919601 0.03629058 -0.022298494
000120 a3 1a 58 3d 0f 5f 6d bd f2 2b d6 bb b5 57 95 bc
       0.052759778 -0.057951983 -0.0065360004 -0.018230299
000130 fc 59 7f bd fd 31 1f bd df 69 36 bd 06 2c 70 3c
       -0.062341675 -0.038866032 -0.04453456 0.0146589335
000140 e1 88 01 bc fe d4 e8 3c 2d 14 14 bc ec c2 51 3d
       -0.00790617 0.028421875 -0.009038013 0.051211283
000150 2e bd 60 3b e1 25 5d 3d 7f 78 50 3d ca f0 60 bd
       0.0034292447 0.053991202 0.050896164 -0.054917134
000160 bc 4f 32 bd 63 19 1c 3d 24 5e 46 3d f2 7f 5a bd
       -0.043533072 0.03811015 0.048429623 -0.053344674
000170 d7 e5 39 bc c1 3a fe bc 10 1f 45 3d b2 7e 2d 3d
       -0.011346302 -0.031033875 0.048125327 0.042357154
000180 b4 0e 16 3d 26 9a ef 3c 3f 50 81 bc a0 ab 3e 3d
       0.036635116 0.029248308 -0.015785335 0.046550393
000190 25 92 1b bd 13 d9 ca bb 5d 7b e0 bc 08 b8 69 bd
       -0.03798117 -0.006190428 -0.027402574 -0.05706027
0001a0 c1 ee 2a bd 90 0e 98 3c 90 b9 b6 bb 78 2f 15 bd
       -0.0417316 0.018561631 -0.00557632 -0.036422223
0001b0 0d fd 96 39 50 22 55 3c 4c 98 1b bd 05 eb 30 3d
       0.00028798767 0.013008669 -0.03798704 0.043192882
0001c0 33 0b 2b bd bc dd 04 3c c4 4b 3e bd 7a de 43 bd
       -0.041758727 0.008109506 -0.046458974 -0.047819592
0001d0 49 0e e8 b9 49 8a 7e 3d bf 12 82 3d 39 98 e1 3c
       -0.00044261132 0.062143598 0.06351232 0.027538406
0001e0 56 f3 3c 3d 2c f1 0b bd a3 38 16 3d 86 50 28 3d
       0.0461305 -0.034165546 0.036675107 0.041092418
0001f0 c6 78 79 bd 96 66 47 bd 77 f1 e2 3c 03 07 53 3c
       -0.060906194 -0.048681818 0.02770303 0.01288009
000200 04 08 28 bd 45 82 48 bd ad f2 47 3d ac 82 0a 3c
       -0.04102327 -0.04895236 0.048815418 0.008454006
000210 13 2d 5c 3a 9e 71 74 bd 45 07 69 3d 77 c1 18 bd
       0.00083990506 -0.059678666 0.0568917 -0.037293877
000220 0c 24 e4 3c 9a 00 4f bb 75 5a 2a 3c 80 9d 0f 3d
       0.02784922 -0.0031586052 0.010397543 0.035062313
000230 3e f2 34 bc e7 43 3b bc 63 73 79 3d 99 34 2c bd
       -0.011044083 -0.011429763 0.060901057 -0.04204235
000240 52 89 01 3d 3f c9 05 bc 41 ba 68 bc 7e d3 44 3d
       0.0316251 -0.008165657 -0.014204563 0.048053257
000250 8e 6d 82 3c e0 e3 58 bd af d3 0a 3d 50 0e fe bc
       0.01592138 -0.052951694 0.033893283 -0.031012684
000260 ad 44 fe 3c fc bc 1a bd fb ac 22 3d 67 b5 28 bb
       0.031038607 -0.037777886 0.03971575 -0.002574289
000270 33 59 c1 bc 29 71 05 3c e7 35 b7 bc b6 a7 58 bd
       -0.023602104 0.008144655 -0.02236457 -0.052894317
000280 0f b5 84 3c ea fd a8 3c 21 cb e7 bc 07 5f 1b 3d
       0.016199617 0.020628888 -0.028295102 0.037932422
000290 2a 89 77 bc c6 2f 1f bd cc 81 0b bd 5f b0 31 3d
       -0.015108386 -0.03886392 -0.03405933 0.04338109
0002a0 dd f2 bc bc 01 a0 27 3d 45 5f 8c bd a5 b4 07 3b
       -0.023065025 0.040924076 -0.06854109 0.0020707038
0002b0 87 3b 25 bd 4b 61 d1 3c 0a 5f 48 3d ce 1f d9 3c
       -0.040339973 0.025559088 0.04891876 0.026504423
0002c0 48 b0 9f bc b4 04 82 bd 0c 28 f2 bc b7 62 13 bd
       -0.019493237 -0.06348553 -0.029560111 -0.035982814
0002d0 7c df 66 3d 4a a4 09 bd 7c 2d b1 3c 85 02 54 3d
       0.056365475 -0.033603944 0.021628134 0.051760215
0002e0 be cc 9d 3c a7 08 6d bd 6b 04 13 bc 9c 54 71 bc
       0.019262668 -0.05786958 -0.008973221 -0.014729645
0002f0 92 7d 21 3d 2b 74 2e bc 1e 90 14 bb 68 8f 5e 3d
       0.039426394 -0.010647814 -0.0022668908 0.05433598
000300 6e b7 4b 3c 86 01 d2 3c 00 a6 b1 bc 5e 7b 37 3d
       0.01243387 0.025635492 -0.0216856 0.044795386
000310 58 3b 13 3c 2c d5 0e bc a6 87 a2 3c b6 c7 3a bd
       0.008986317 -0.008717816 0.019840073 -0.045600615
000320 79 35 ec 3b 1c c6 0d 3d fd d4 43 bd 44 bf e2 bc
       0.007208523 0.03461276 -0.047810543 -0.027679093
000330 aa cd 2d 3d 82 f8 0f 3c 1c 4f 83 3b c9 0c 3b 3c
       0.042432465 0.008787276 0.0040072333 0.011416622
000340 bc 23 bf bc 36 dd 67 3d a6 7d 3e bb 9c 6c ba bc
       -0.02333247 0.056607448 -0.0029066592 -0.022756867
000350 a8 5e 18 3d 1d 9f 39 bd 0d 42 0d bc f5 3c 40 3c
       0.037199646 -0.045317758 -0.008621705 0.011733283
000360 8f 63 77 bc 7b 9a 36 3d 57 70 49 bd 3e 78 76 bc
       -0.01509942 0.044580918 -0.0491794 -0.015043316
000370 2a 29 a2 bc 37 47 84 3d a7 07 ff 3c a7 ff 2e bd
       -0.01979502 0.06458896 0.031131579 -0.042724278
000380 56 35 ef 3c d8 b3 b6 3a 6b 59 6a 3d 39 1c 19 3d
       0.029200237 0.0013939096 0.057214182 0.03738043
000390 b4 06 f9 bc e8 b8 6d 3d b4 11 00 bc 1e 2f 21 bc
       -0.030398704 0.05803767 -0.007816721 -0.009837894
0003a0 5b 70 df 3c 5b 0e 87 3d be b2 a8 3c 75 1a 5f bd
       0.027275255 0.06594535 0.020593043 -0.05446859
0003b0 c9 77 81 bc c5 5b 7e 3d 62 01 97 bc f1 94 d6 bc
       -0.015804188 0.062099237 -0.018433277 -0.026194068
0003c0 a5 e2 55 bd be 50 0d bd 30 d8 14 bd f7 38 7a 3c
       -0.0522181 -0.03450083 -0.036338985 0.015272371
0003d0 46 26 ae 3c ac d1 6d 3d 6f 9d 24 3d 7c eb 96 3b
       0.021258485 0.058061287 0.040189203 0.0046057086
0003e0 8c e3 03 3d 54 ef 00 3d 82 aa 59 bd fb 23 00 3d
       0.032199427 0.03147824 -0.053141125 0.031284314
0003f0 63 b3 34 bd 36 63 3b 3d ea 9a f0 bc 62 68 8f 3c
       -0.04411639 0.04574891 -0.029370744 0.017505828

qf1_target.fc0.bias f4 [256]
000000 b0 c4 1b 3e db d2 18 3e 04 8b 19 3e 2d 53 15 3e
       0.15211749 0.14924185 0.14994437 0.1458251
000010 7d aa 19 3e 19 82 18 3e 14 92 0f 3e 3b f0 1e 3e
       0.15006442 0.14893378 0.14020568 0.15521328
000020 f8 13 1b 3e 58 72 1d 3e e8 ae 03 3e 1e 65 1b 3e
       0.15144336 0.1537565 0.1285969 0.15175292
000030 4d 58 16 3e 80 3c 1c 3e e1 8a 1c 3e f9 d7 1a 3e
       0.14682122 0.15257454 0.15287353 0.1512145
000040 68 76 17 3e 69 ac 1e 3e 83 c3 20 3e b5 e8 1b 3e
       0.14791262 0.15495457 0.15699582 0.1522549
000050 9e 6a 1b 3e 02 f6 1f 3e ca c6 22 3e 2a ae 19 3e
       0.1517739 0.15621188 0.15896145 0.15007845
000060 5f df 1b 3e a0 99 20 3e 64 bf 0d 3e 23 17 1e 3e
       0.15221928 0.15683603 0.13842541 0.15438513
000070 36 e9 1f 3e 1c 31 13 3e 5e ec 15 3e 7c 3d 18 3e
       0.15616307 0.14374202 0.14640948 0.14867204
000080 2c 77 1c 3e ec 52 1b 3e 5f 95 18 3e 7c 78 1d 3e
       0.15279835 0.15168351 0.1490073 0.15377992
000090 16 59 17 3e c4 d5 1a 3e 58 fd 18 3e d2 9a 13 3e
       0.14780077 0.15120608 0.14940393 0.14414528
0000a0 6a f7 15 3e bb e2 19 3e ad 7e 19 3e 87 a7 1f 3e
       0.14645162 0.15027897 0.14989729 0.1559125
0000b0 d9 e7 20 3e 8f 6c 1b 3e e3 bf 1e 3e 41 f3 15 3e
       0.15713443 0.1517813 0.15502886 0.14643575
0000c0 e9 cc 1a 3e f6 fa 15 3e fa c5 1a 3e 6d f7 12 3e
       0.1511723 0.14646515 0.15114585 0.14352198
0000d0 64 74 15 3e 5f 83 15 3e 6a e9 12 3e 2f e7 1c 3e
       0.14595181 0.14600895 0.14346853 0.15322565
0000e0 18 c7 19 3e 60 58 16 3e ce a5 19 3e a2 d2 14 3e
       0.15017354 0.1468215 0.15004656 0.14533475
0000f0 55 85 1b 3e 81 fc 16 3e e8 2b 12 3e 86 5b 0f 3e
       0.15187581 0.1474476 0.14274561 0.13999757
000100 f3 f5 1b 3e e5 9f 1c 3e b9 39 1d 3e 58 b3 16 3e
       0.15230541 0.1529537 0.1535405 0.14716852
000110 5a 5e 1e 3e f7 91 18 3e 64 75 0d 3e 39 f5 1b 3e
       0.1546568 0.14899431 0.13814312 0.15230264
000120 76 6a 1b 3e 5c f7 18 3e 79 31 1c 3e df 11 21 3e
       0.1517733 0.1493811 0.15253247 0.15729474
000130 fc db 1c 3e 3e 80 18 3e ac fe 0b 3e 80 11 18 3e
       0.15318292 0.1489267 0.13671368 0.14850426
000140 22 75 17 3e e9 8a 1e 3e ec bf 17 3e 19 65 17 3e
       0.14790776 0.15482678 0.14819306 0.1478466
000150 a2 5d 1d 3e d3 63 19 3e d8 a5 10 3e e9 5d 1c 3e
       0.1536775 0.14979486 0.14125764 0.15270199
000160 7f c1 1a 3e 8d 44 1e 3e ad 26 18 3e d2 25 12 3e
       0.15112875 0.15455838 0.14858504 0.1427224
000170 33 f0 16 3e 42 0c 19 3e ad 4a 18 3e 59 73 18 3e
       0.14740066 0.14946082 0.14872237 0.14887752
000180 8f cd 17 3e 54 3c 1d 3e 60 72 12 3e a2 20 18 3e
       0.14824508 0.15355045 0.14301443 0.14856198
000190 eb e9 19 3e d6 23 15 3e 23 32 19 3e 70 48 1a 3e
       0.15030639 0.14564452 0.14960532 0.15066695
0001a0 b9 84 1c 3e a8 10 19 3e cb 76 17 3e 3a f8 1a 3e
       0.15285005 0.1494776 0.1479141 0.15133753
0001b0 e4 7a 17 3e e6 f9 18 3e ae d3 19 3e 8c 80 1d 3e
       0.14792973 0.14939079 0.15022156 0.15381068
0001c0 43 6d 20 3e dd 1c 1c 3e a2 50 18 3e eb 25 17 3e
       0.1566668 0.15245385 0.14874509 0.14760558
0001d0 71 d7 16 3e 9c 79 20 3e c4 5e 13 3e 9b 8a 19 3e
       0.14730622 0.1567139 0.14391619 0.1499428
0001e0 64 3b 18 3e 88 1d 1c 3e 42 c4 0b 3e 4e 28 20 3e
       0.14866406 0.1524564 0.13649085 0.15640375
0001f0 f0 67 13 3e 3b 76 14 3e 0e de 2d 3e a3 8f 17 3e
       0.14395118 0.14498226 0.16979238 0.14800887
000200 65 a9 1c 3e 0f 59 1d 3e ff 3b 12 3e 46 ba 16 3e
       0.15298994 0.15366004 0.14280699 0.14719495
000210 ee 23 15 3e be 8a 1c 3e e6 a2 1a 3e b8 a3 1d 3e
       0.14564487 0.15287301 0.15101203 0.15394485
000220 36 fa 1f 3e 08 c9 17 3e 6d d7 16 3e 80 8c 1f 3e
       0.15622792 0.14822781 0.14730616 0.1558094
000230 1a 9d 13 3e 60 f8 1d 3e 21 84 17 3e 47 a4 1a 3e
       0.14415398 0.15426779 0.14796497 0.1510173
000240 88 47 1c 3e e1 99 18 3e 4f 01 13 3e 29 53 1a 3e
       0.15261662 0.1490245 0.14355968 0.15070786
000250 22 30 1e 3e 07 c5 0a 3e ee 68 20 3e cb 20 1b 3e
       0.15448049 0.13551722 0.15665027 0.15149228
000260 88 25 1a 3e 35 e3 1a 3e 6a d9 19 3e cb 74 10 3e
       0.1505338 0.15125735 0.15024343 0.14107053
000270 9f ff 1b 3e 11 8c 17 3e 20 fb 0f 3e e6 98 13 3e
       0.1523423 0.14799525 0.1406064 0.14413795
000280 c0 1d 0c 3e bf 3d 1a 3e 96 44 18 3e 39 8c 19 3e
       0.13683224 0.15062617 0.14869913 0.14994897
000290 8b b4 12 3e 33 7d 15 3e 95 d9 0d 3e 5e c5 1b 3e
       0.14326684 0.14598541 0.13852532 0.15212008
0002a0 7d 97 1b 3e 5c f3 1a 3e 44 09 1c 3e 20 a3 18 3e
       0.15194507 0.15131897 0.1523791 0.14905977
0002b0 75 12 19 3e 29 0b 1b 3e ee 12 19 3e 12 ea 11 3e
       0.14948447 0.15140976 0.14948627 0.14249447
0002c0 8e 02 17 3e 96 c2 1b 3e 92 4b 1d 3e 27 88 1e 3e
       0.14747068 0.15210947 0.15360859 0.15481625
0002d0 3e c3 19 3e 5e c4 1d 3e 06 46 18 3e df 37 19 3e
       0.15015885 0.1540694 0.14870462 0.1496272
0002e0 7f 9f 14 3e 0a a1 1e 3e d6 24 1a 3e 35 5c 15 3e
       0.14513968 0.15491119 0.15053114 0.14585955
0002f0 36 56 1a 3e 1c 51 16 3e d6 f0 1a 3e 37 9d 1a 3e
       0.1507195 0.14679378 0.15130934 0.15099035
000300 40 db 18 3e fe 14 1c 3e f6 d2 13 3e 26 b3 1c 3e
       0.14927387 0.15242383 0.14435944 0.15302715
000310 96 a3 19 3e 14 f6 15 3e 37 79 1b 3e c3 ff 19 3e
       0.1500381 0.14644653 0.15182959 0.15038972
000320 23 04 1a 3e 3d 16 17 3e a8 f3 1c 3e 80 e1 16 3e
       0.1504064 0.14754577 0.15327322 0.14734459
000330 7d e4 19 3e b4 74 1c 3e 74 dd 16 3e 9a b6 1a 3e
       0.15028568 0.15278894 0.14732915 0.1510872
000340 ae c6 25 3e 63 08 1b 3e 85 c9 11 3e ff 15 17 3e
       0.16189072 0.15139918 0.1423703 0.14754485
000350 92 7f 17 3e f5 ed 19 3e 04 52 1c 3e 38 42 14 3e
       0.14794758 0.1503218 0.15265661 0.14478385
000360 2a 23 1b 3e 58 7d 28 3e 8c d8 14 3e cd 93 24 3e
       0.15150133 0.16454065 0.14535731 0.16072007
000370 59 b8 18 3e 2f 48 1b 3e 7a a8 1e 3e e5 6f 19 3e
       0.14914073 0.15164255 0.15493956 0.1498409
000380 f9 b6 18 3e 6a 3f 1a 3e 6c db 15 3e fb 44 18 3e
       0.14913549 0.15063253 0.14634484 0.14870064
000390 6f a7 15 3e 3b ea 1b 3e 0c 6c 19 3e 13 11 1e 3e
       0.14614652 0.1522607 0.14982623 0.15436201
0003a0 e2 d3 1c 3e c3 7d 20 3e cb 05 1a 3e 7c 8b 18 3e
       0.15315202 0.15672974 0.15041272 0.14896959
0003b0 81 00 10 3e 4f 7b 17 3e 57 e6 12 3e b0 7f 10 3e
       0.14062692 0.14793132 0.1434568 0.14111209
0003c0 82 06 1d 3e 1b fc 19 3e 03 cc 1a 3e 89 f4 1b 3e
       0.15334514 0.15037577 0.15116887 0.15230002
0003d0 57 15 1d 3e 28 a5 22 3e 23 43 13 3e ab 91 12 3e
       0.15340172 0.15883315 0.1438108 0.1431338
0003e0 39 a7 20 3e 8c 04 18 3e 37 74 12 3e 34 30 19 3e
       0.1568879 0.14845484 0.14302145 0.14959794
0003f0 7c 6e 1b 3e fc f3 13 3e 76 a0 1f 3e 18 29 19 3e
       0.15178865 0.14448541 0.15588555 0.14957082
