final_results/network-defender/param-search/preliminary/lstm-30000/seed-1/save/agent_0026000_perf-41.660.pt (torch, 941672 bytes, 28 tensors)

critic.observ_embedder.fc.weight f4 [32, 15]
00000000: bd7d 313f 1a80 3abe 5ada e9be 8793 71be
00000010: cf8b 5bbf 80f9 3c3f 8c81 2a3e 95ab 383f
00000020: 0dd0 003d 1743 69be 181a d83c a6b8 6b3e
00000030: 9e49 1c3f 544f c13d fbd0 98bd ee7f 94bd
00000040: 21ec 173f cf2b 8cbe fda7 3e3f e74b 493e
00000050: f6c6 7f3d 3770 7abd ba2d 2ebe ef58 85be
00000060: 1462 c2be 8d6f 543d 9c97 42bd 1172 e7bd
00000070: 782f dabe 440d 883f 8bcd 8b3e 9220 363f
00000080: 29f0 1e3f e3bf 17bf 340b 81be b34d 85be
00000090: b3b5 363f 917e 9bbe d5bc b73e 5998 88bd
000000a0: 4922 3c3f aa02 edbe df96 283f 12ed 61be
000000b0: 229d a3be 7a7a 063e 8d9d 0cbe 106a 7b3e
000000c0: c971 083e 9228 463c 2397 81bf 1eac 50bd
000000d0: fda4 fa3e 8cf8 31be 802e 913e 17ba ca3e
000000e0: e3d5 4fbe 9da9 20bf f4b0 f73d 5a3c 56bd
000000f0: d94b a6bd 940d 153e 0f6d 93bd 35f4 1e3e
00000100: bddb b43c ef8a c7bd f66c 8f3d aacd 5c3e
00000110: 26dc 353e 8c45 8bbf 236c b93e cdeb f9bd
00000120: c001 e03d c48b 1b3e b929 203d d1b0 ac3d
00000130: 5671 df3d b582 15be f439 f3be 1d5b 3c3f
00000140: 235c 8abe 9b7a a9be 470c 11bd bf21 d1bd
00000150: 1169 fa3e 4cf4 93bc 9a8c 85be afed d13e
00000160: a2ab 983d 8d38 a23d e6e2 6a3e 54d9 17be
00000170: c2f9 483e 3c78 663f f4b0 863d d530 a8bd
00000180: a9ff 223d d11a 073f 65b5 00bf 161f e83c
00000190: a2b7 253f c92f bc3e 3e0d 15be 3a9b 0c3f
000001a0: c9ab 123e 2b64 a5be 82f6 063f 8e76 883d
000001b0: 555e 61be 52a0 b2bd a027 cabd 706f 3ebb
000001c0: 8169 83be 8f0b 1abe de84 123f fc4a c83e
000001d0: 7658 163f ec1e 113b a35a f2be 3f43 61be
000001e0: c4b3 42be 2e8f 83bd 8507 233f ee8f ecbe
000001f0: 2c37 363f 95fe babd 08c2 48bf c224 d13b
00000200: 1fe8 b0bc 2bce 833f b363 19bf 1853 823e
00000210: e606 483f 276e 3c3f a487 d13e 14ad b73f
00000220: 534c 2fbe a03c 883e c9a3 273b 10af 803e
00000230: 8156 d8be a5c9 5d3e 598b d1bd 67a4 0fbd
00000240: d6eb 143f 7f3e cfbe 9f2a 9e3e cb4e 88bd
00000250: b0a5 42be d1ae 383f b62c d3be 2b20 a63e
00000260: 1c58 76be e4e2 7bbe 6228 d1be 588d 11bf
00000270: cf3e 8a3d 5e70 b03d 47fb 133e d972 04be
00000280: 1fb4 23be 5ebd 093f 0725 973e a106 db3e
00000290: 83a4 a43c 2b74 2d3e 056d d7be fca3 70be
000002a0: 1d7e ddbe 2947 c1bd 7210 cb3d 17f7 ac3e
000002b0: f16d 953e 25dc 5f3f 4170 973e 4168 4c3f
000002c0: 0768 e1bd 2837 083c 4b41 ccbe d763 643f
000002d0: 25c7 cebe 3294 acbe 1d9a aabd 2904 cabe
000002e0: 0955 25bc 7d96 9e3f c17d 82be 6c05 89bd
000002f0: 248f 2abe c247 7d3d 0851 31bc 56a3 81bd
00000300: 15c3 d3bd ede1 183d d2d2 77bd 0f0f 25be
00000310: 05e9 a13e fdd3 6b3e fa80 2b3f 3eaa 993d
00000320: deb1 e43e 4fe2 68be 1ee1 f33e 22a7 d03d
00000330: 4baa cf3e 23d3 e43c 8da5 1e3e 6c1a c6bd
00000340: 488c 873d f5bc e03e 6818 823e bbbb 00bf
00000350: 3f0c cbbe f97f 4d3e 8595 8f3e ccdd 053f
00000360: c55a a13e 85cc 8fbe 4d16 0cbe 49ff 0e3d
00000370: 33f2 83be 40f1 e33e 6762 ecbe c51f 45be
00000380: 4c74 cc3d 240c 91be 0ddd ca3d e175 28bf
00000390: de79 cd3d f8b9 1c3f 6023 483e 1ca3 0abe
000003a0: 866b 7a3f f479 8abd def5 83bc 0a11 a63e
000003b0: e029 24bf 2f2b 833e 728c 633e 50f1 debe
000003c0: 2804 c13c 8ce1 d3bd bec3 663e 4f3c bc3e
000003d0: 5292 46be cfe5 c83d f14b 65be db35 96bd
000003e0: 7dba dcbe a831 583e 4454 183f a860 14be
000003f0: 5c62 4abe 0f38 ac3d 4c4f c93e 9f8a d8be
0.69332486 -0.1821293 -0.45674402 -0.23591433 -0.85760206 0.73818207 0.1665098 0.72136813
0.031448413 -0.22779499 0.02637963 0.23019657 0.6104983 0.09438959 -0.07461735 -0.07250963
0.5934468 -0.27377173 0.7447508 0.1965786 0.062445603 -0.061142173 -0.17009631 -0.26044413
-0.37965453 0.051864196 -0.047507867 -0.11301053 -0.4261434 1.0629048 0.27305254 0.7114345
0.62085205 -0.5927717 -0.2520386 -0.26035842 0.71371 -0.3037 0.35886255 -0.06669683
0.73489815 -0.46291095 0.6585521 -0.22063091 -0.3195582 0.13132659 -0.13731976 0.24552178
0.13324656 0.012094634 -1.0124248 -0.050945394 0.48954 -0.1737997 0.2835579 0.395951
-0.20296435 -0.6275881 0.12094298 -0.05230365 -0.081199355 0.14555961 -0.07198536 0.15522845
0.022077436 -0.09743296 0.070032045 0.2156283 0.17759761 -1.0880599 0.36215314 -0.122031786
0.10937834 0.15190035 0.03910229 0.084321626 0.10910289 -0.14600642 -0.47505152 0.7357653
-0.2702342 -0.33101353 -0.0354121 -0.10211515 0.48908284 -0.018060826 -0.26083833 0.4100165
0.07454611 0.079209425 0.22938117 -0.14828998 0.19626525 0.90027213 0.0657672 -0.08212439
0.039794598 0.52775294 -0.50276786 0.028335135 0.64733326 0.36755207 -0.14555833 0.54924357
0.14323343 -0.32302985 0.5271989 0.066632375 -0.22008641 -0.08721985 -0.09870839 -0.002905812
-0.2566643 -0.15043472 0.5723399 0.3911971 0.5872873 0.0022143675 -0.47334775 -0.21998309
-0.19013888 -0.06423794 0.6368335 -0.4620356 0.71177936 -0.09130589 -0.7842107 0.0063825557
-0.021595059 1.0297292 -0.59917754 0.2545402 0.78135526 0.7360558 0.40923798 1.4349694
-0.17118959 0.26608753 0.0025579801 0.25133562 -0.42253497 0.21658953 -0.102316566 -0.035068896
0.5817236 -0.40477368 0.30891892 -0.066556536 -0.19008517 0.7214175 -0.4124505 0.32446417
-0.24057049 -0.2459827 -0.40851122 -0.568563 0.06750261 0.08615182 0.14451323 -0.12934436
-0.1598668 0.53804576 0.29520437 0.42778495 0.020097977 0.16938846 -0.42075363 -0.23500055
-0.4326028 -0.09437401 0.09915246 0.33782265 0.2918544 0.8744529 0.2957783 0.7984658
-0.1100617 0.0083139315 -0.39893565 0.89214844 -0.4038631 -0.33706814 -0.08330176 -0.394563
-0.010091075 1.2389675 -0.25486568 -0.06690487 -0.16656166 0.06183601 -0.010822542 -0.06329982
-0.10339943 0.037324835 -0.06050379 -0.16119026 0.31623092 0.23030086 0.6699368 0.07503174
0.44666952 -0.2274258 0.47632688 0.10188128 0.4055961 0.02793271 0.1549284 -0.09673008
0.066185534 0.43894163 0.25409245 -0.50286454 -0.3965778 0.20068349 0.28043762 0.5229156
0.31514564 -0.28085724 -0.13680382 0.034911428 -0.2577072 0.44519997 -0.46168825 -0.192504
0.09983119 -0.28329575 0.09905443 -0.6580487 0.1003301 0.61221266 0.19544744 -0.13538784
0.9782032 -0.06761542 -0.01610845 0.32434875 -0.64126396 0.25618884 0.22221544 -0.43543482
0.023561552 -0.10345754 0.22535607 0.36764762 -0.19391754 0.098094575 -0.2239225 -0.07334491
-0.4311103 0.21112692 0.5950358 -0.14489996 -0.19764084 0.0840913 0.3931831 -0.4229326

critic.observ_embedder.fc.bias f4 [32]
00000000: 5b37 44bc 1c91 4dbe 4c4c 76be 0969 bd3d
00000010: f778 033f 41cd 5cbe a47b e1be c8e3 233e
00000020: a1df f9bb b5d5 073e 34e1 dd3d 3a11 f8be
00000030: 0266 1c3d c762 94be fa2d 763e c370 3cbe
00000040: 53a1 ab3e 271f 40be eac7 04bf 0ef6 8ebd
00000050: 5897 97be 127a 02bd 265a c2be e60e 743c
00000060: 479c 853d e123 dbbe 6f01 b9be b019 17bd
00000070: a30b f23d d9a7 b5bb c941 b7be 2f23 983d
-0.011976088 -0.20074886 -0.24052542 0.092485495 0.5135645 -0.21562673 -0.44039643 0.1600486
-0.0076255356 0.13265117 0.1083397 -0.48450643 0.03818322 -0.2898161 0.24040976 -0.1840239
0.33521518 -0.18761884 -0.51867545 -0.06980525 -0.29607654 -0.031854697 -0.37959403 0.01489613
0.06523948 -0.4280081 -0.36133906 -0.036889732 0.11818626 -0.0055436906 -0.35792378 0.07428586

critic.action_embedder.fc.weight f4 [16, 16]
00000000: ff20 883f 877f a23f a828 833e 2187 afbe
00000010: 4d9b 893f cabc 293e eb4e b3be 8838 acbe
00000020: e5ae f8bd 41f2 633f 291f 78ba ddbe 4e3f
00000030: 58ba b2be 0097 e93e d5bf adbe 995e 873f
00000040: 4a2c 063f 81cb 95be aa42 95be 7afb 81be
00000050: 9443 35bd b70a 253f e1f5 383f 6ea4 713e
00000060: c336 ab3e 4e45 b83e 1ad8 93be 25a7 5d3f
00000070: a28a e53e c836 95be c581 373e 8ac8 92be
00000080: 47c9 6ebc 3eb6 373f 4a47 8abd 7ba6 203f
00000090: 6600 d13e e422 e7bd 8205 91bd 9329 7abd
000000a0: 8a82 c43e 7013 7fbe 9300 73be 4a6a 52bc
000000b0: edfa 003f 9d2b 8ebd 9be5 4ebe b945 823e
000000c0: 061f 9abe 50e6 c3be a943 e7bc dfe1 c1be
000000d0: 70fb babd c5ff 99be 72e7 bfbe 24a1 733f
000000e0: f211 083e cddb bfbe c7fa 863e 899b 94be
000000f0: 0c07 c0be 4cbd c4be 759c 843e ae34 32be
00000100: 20b9 e93c 28a7 65bd 70ea bc3d 6c48 aabd
00000110: 68e4 3b3e 3033 6b3d 3868 9dbd bc25 643e
00000120: e4b5 823d 9cf9 2dbe a479 0ebe 0e84 203e
00000130: 54d7 e93d 20e2 473e 9051 9dbc 3a0d 333e
00000140: 4c9f 6bbe 9dbc 84be 0057 6fbd 1294 523e
00000150: 496d 0f3e f74c 2a3e 2e87 2b3f 5d89 c13d
00000160: 2c8e 853e 3d28 85be be3b 87be 00bf 85be
00000170: 416b 7abe 6901 88be 9c95 85be e3b8 063f
00000180: 8d89 afbe 55d7 073e ea0a 5c3d b5c6 d0be
00000190: 117a 6abe 9c18 fc3d 4168 1abf f876 edbe
000001a0: 072a 99bc 3543 a0be 7a18 19bf 8440 19bf
000001b0: c9dc 813e 3ebc 43be dbe7 313e 67cf e0be
000001c0: bbd0 1bbe 7a7b 42be 9bef e6bd e548 84be
000001d0: adbb 84be e136 2c3f 2557 393d 1c5d 103f
000001e0: 6509 543e 3e8f 1f3f cc3a c23e e713 693f
000001f0: d7a0 5fbe a90a 27be ae74 87be f3bc a83e
00000200: 99c4 51be 4cd2 98be 407f 9b3e 74f5 d4bd
00000210: 98a5 cdbd b93e 97be d528 92be b012 1d3f
00000220: 61e8 98be 6835 c63e 0cf3 97be 697d 9abe
00000230: 4365 653e e5eb 95be 5dd5 85be f280 4e3f
00000240: d802 efbd a816 2bbd 4bde dfbd b430 933f
00000250: 8a20 7ebe 79c3 e2bd 3079 c9bd 42f1 6abe
00000260: e8a8 d7bd 77a2 f4bd 6bc8 cfbd 28e2 2dbe
00000270: c2ad 6dbe 2a52 40be 3d92 ccbd 6123 e0bd
00000280: d029 6dbe d628 13be bb95 f5bd 10e4 21be
00000290: 4edf 1ebe 66c1 36be 02c6 d63e 84c4 05be
000002a0: a1a8 a93e 10e5 cf3e 7a07 33be 0276 1bbe
000002b0: a80e 093f ac5f 71be fdbd 06be 7d3e 1cbe
000002c0: 6be5 073e b4e7 45be c516 5d3f a022 23be
000002d0: 0c9f 4cbe 09c3 7e3e 8913 24be f6e1 78be
000002e0: 4ad2 19be 4f3c 18be 99dd 4d3f 10f1 28be
000002f0: f044 23be ce7a 27be c7ad cd3e eb47 17be
00000300: ffbe 92bc c844 75be 905f 75be 83b3 8a3e
00000310: f882 d23c 5972 6cbe 009f 7e3d 15a7 75be
00000320: fcba 2abd 8cca 193e e1d7 0fbd 36b5 6fbe
00000330: fb5f 71be fa53 bc3f a3d1 56be 9115 75be
00000340: 2f92 533f 4d8c b13f d775 39be 3ab6 67be
00000350: 3aec 5b3f b2cf 293e 18cc 39be 953a c93d
00000360: 306a 823e a5b0 37be eeb3 33be 289c 103f
00000370: dfc6 663f 9bfe 35be 9fa9 2dbe 5f3d 3cbd
00000380: 5e4e 1cbe c0a0 40be 976c 23be 13d2 22be
00000390: 0a03 61be 46c2 32be 1a8d 22be 9697 8b3e
000003a0: c6ae 60be f2e5 1cbe 4967 23be 7958 683e
000003b0: 0635 27be 4d8e 24be be59 233f c4e6 2abc
000003c0: 994e 3b3f 6f90 3cbe 2776 5fbe 9f4e d83d
000003d0: 2091 103f a817 a53e bc0b d13e f195 3ebe
000003e0: f418 48be 2c17 5bbe a35b 263e 4d10 bd3e
000003f0: 5b01 3abe 6496 a93f 69e2 3fbe f5ae bf3e
1.063507 1.2695168 0.25616956 -0.34282783 1.0750519 0.16575924 -0.35021147 -0.3363688
-0.121427335 0.89041525 -0.00094650924 0.80759984 -0.34907794 0.45623016 -0.3393542 1.0575744
0.5241133 -0.29256824 -0.29152423 -0.25387174 -0.0442539 0.64469475 0.7225018 0.23597881
0.33440217 0.35990375 -0.2887581 0.8658317 0.4483233 -0.29143357 0.17920597 -0.28668624
-0.014574355 0.71762455 -0.067518786 0.6275403 0.40820616 -0.11285952 -0.07081129 -0.061074805
0.38380843 -0.24909759 -0.23730688 -0.012842724 0.5038288 -0.06941912 -0.20204775 0.2544382
-0.30101794 -0.38261652 -0.028230505 -0.37867638 -0.09129989 -0.3007795 -0.37481266 0.95167756
0.13288096 -0.37472382 0.26363203 -0.29024914 -0.37505376 -0.38425672 0.25900617 -0.17402908
0.028530657 -0.056067616 0.09224403 -0.083145946 0.18348849 0.057421863 -0.07685894 0.2228002
0.06382349 -0.1698975 -0.1391359 0.15675375 0.11418024 0.19519854 -0.019203931 0.17485514
-0.23009986 -0.2592515 -0.05843258 0.20564297 0.14006533 0.16630922 0.6700314 0.09450028
0.2608503 -0.26007262 -0.26412767 -0.26122284 -0.24454977 -0.26563576 -0.26090705 0.52625865
-0.3428463 0.13265736 0.053721346 -0.407766 -0.22898127 0.12309381 -0.6031533 -0.46379828
-0.018696798 -0.31301275 -0.59802973 -0.5986407 0.25363758 -0.19114777 0.17373602 -0.43908235
-0.15216343 -0.18992415 -0.1127617 -0.25836864 -0.25924435 0.6727124 0.045249123 0.56392074
0.20706709 0.62327945 0.37935483 0.91045994 -0.218387 -0.1631266 -0.26456207 0.32956657
-0.20485152 -0.29847944 0.30370522 -0.10398379 -0.1004135 -0.2954004 -0.28546777 0.6135664
-0.2986479 0.3871262 -0.29677618 -0.30173805 0.2240191 -0.29281536 -0.26139346 0.80665505
-0.11670464 -0.041769654 -0.10931071 1.1499238 -0.248171 -0.1107244 -0.09837568 -0.22943595
-0.10530263 -0.1194505 -0.101456486 -0.16980803 -0.23210815 -0.18781343 -0.0998883 -0.10944248
-0.23160481 -0.14371046 -0.119914494 -0.15809655 -0.15514871 -0.17847213 0.41947943 -0.13063246
0.33136466 0.40604448 -0.17483321 -0.15181735 0.5353799 -0.23571652 -0.13158412 -0.15258212
0.1327111 -0.19326669 0.8636287 -0.15931177 -0.19982547 0.24879088 -0.16023077 -0.24304947
-0.15021625 -0.14866756 0.80416256 -0.16498208 -0.15944266 -0.1635544 0.40171644 -0.14773528
-0.01791334 -0.23952019 -0.23962235 0.27090082 0.025697216 -0.23090495 0.062163353 -0.23989518
-0.04168223 0.15018672 -0.035117988 -0.2340897 -0.2357177 1.4713128 -0.20978408 -0.23934008
0.82644933 1.3870941 -0.18111359 -0.22628108 0.8590733 0.16583136 -0.18144262 0.09825627
0.2547164 -0.17938478 -0.17549106 0.56488276 0.90147203 -0.17772906 -0.16959237 -0.045956966
-0.1526427 -0.18811321 -0.15959392 -0.1590045 -0.21973816 -0.17456922 -0.15874138 0.27264088
-0.21941671 -0.15322092 -0.15957369 0.2269 -0.1632882 -0.16069908 0.6380881 -0.010430995
0.73166806 -0.18414472 -0.21822415 0.10561871 0.56471443 0.3224461 0.40829265 -0.18611886
-0.19540769 -0.21395558 0.16245894 0.369265 -0.1816458 1.324902 -0.18738712 0.3743817

critic.action_embedder.fc.bias f4 [16]
00000000: c37a 8e3e 753d 283e 747f 0bbe 2ce2 3d3e
00000010: d466 69be 91ce 263e d28e 053f 4a9a 923d
00000020: fa50 a1be 3678 febc c123 4c3d b30d b83d
00000030: 92cb 153e fcb8 023e 9a3c 2c3d 66fe 243d
0.27828035 0.16429694 -0.13622838 0.18543309 -0.22793132 0.16289736 0.5217105 0.071583346
-0.31507093 -0.03106318 0.049838785 0.08986988 0.14628437 0.12765878 0.04204998 0.040281676

critic.seq_model.model.weight_ih_l0 f4 [256, 48]
00000000: 8d48 a3bd c925 6c3d cd3d 203e 9dce 8b3d
00000010: 4b5d 6c3d 1547 333c bec9 3c3d e7b9 47be
00000020: 815f 75bd e824 c4be e108 0dbe c82e 99be
00000030: b0b8 3d3a 1642 bcbe 52d9 40be d0a9 9dbd
00000040: a13c de3c 13ad 01be 17e1 09be 5b37 773e
00000050: e199 0dbd e78c 9e3e 6032 53bf 8963 3abe
00000060: af09 bbbd c559 303e 6ec4 a93e be79 e4bd
00000070: be7a 983d 056e b8bd 3dc6 0abc ee5b 06bd
00000080: 407b a7bd eb31 5b3e ccae 97be 951a c4be
00000090: e74e 943b 6fa9 163f a570 5c3e fcbc e3be
000000a0: 86be 653e 08ef f13d 2d2c 373f fb85 123f
000000b0: f582 e93e d55f 67be 6187 b23e 6c74 583f
000000c0: 025d 10be ad44 9e3d 549d afbd e73d a93d
000000d0: e845 3b3d 9196 6a3e 8843 933d 4fef bf3d
000000e0: d476 453f 27b5 a0be 6af7 b0be 50c8 adbd
000000f0: 7937 443d ea46 2fbd 15ed 86be 7f93 403d
00000100: 2282 f8bd 9904 0c3f 5487 a43e 9716 ddbc
00000110: 00f1 1bbf 95b1 35bf 4b9b 3a3f da41 0d3f
00000120: d781 80bd bac3 ba3d 1921 ba3e 7511 4c3f
00000130: 5c9f 5c3f b66e 9f3e b482 c23e 157c 663c
00000140: f2e0 4c3d 5931 c03d e98e 173f 413d 313d
00000150: c742 8d3f 3c95 193f 237a 3f3f 36ad 9f3e
00000160: b37f 16bf b5d2 433e 3b15 93bd 57d1 b5bd
00000170: 3092 063e 70a2 1d3e d01a e13d 7d5c 0e3e
00000180: e109 7d3f 21a4 8a3f 91ee 67bf 234e 883f
00000190: e6ed a23d 3ffa e4bd a774 32bf dd92 01bf
000001a0: 4883 33bf a828 05c0 aae3 ef3f f12e ad3f
000001b0: 0a47 f6bf 05db 713e c62d 943e 7308 1a3d
000001c0: da79 083f 5250 0e3e 951f 0d3f 6aa4 29be
000001d0: 9f27 3c3f b867 87be cbf8 583f 3d5b 563e
000001e0: 2fc7 843e f79f 1e3e 5be8 423f 3aa0 c5be
000001f0: f2ab aebe 06ff ff3e 00d1 92bd 059e 813f
00000200: fa66 bcbe a697 233f b089 1cbf e540 013f
00000210: 5e10 9abe f208 083e 50e7 06bf 8576 993e
00000220: ec98 5e3f 9737 513f f193 653f f70a fd3e
00000230: f6a4 9ebb 9865 853e 8821 183f f629 1ebf
00000240: 7199 c53e 84bc 05bd b2ac 943e fac8 443d
00000250: a59f 083b 0839 5a3d 18d9 8c3e 246d 883e
00000260: 1db3 fe3e 08ef 403f 69de 943f 313c 483e
00000270: 17f5 91be 4aee aa3e 8298 bfbe 5ec6 3a3f
00000280: 7f50 5d3e bfc3 8d3e 6e31 51be 53c9 73be
00000290: b688 243e ee05 d23b 7825 45be 5450 58be
000002a0: bcc2 6f3e 22f0 be3d 5ce8 203e f351 963d
000002b0: a420 7dbf 8b86 8ebe 0f2d b03d 181b 493d
000002c0: 41c9 533d 5bfe 1fbe f44e dbbd 24be c7bd
000002d0: 1ce7 06be e78e 833e ac32 e7be f864 8e3e
000002e0: 1cd8 debe f18c af3e e345 fdbd 98d8 97be
000002f0: 361b bfbd bbfd 8cbd 799f 9bbe 03ea 0abf
00000300: 2c65 34bd 12a8 1a3e f8fe 2b3f d7e9 253d
00000310: 4152 183c 11be a83e 5f5d f7bc 0f4d 18bd
00000320: ff95 d93e 785b f73d 73b3 1abe ac17 4b3e
00000330: 7e01 5f3e c819 bbbc c118 933e e234 163e
00000340: b512 873e cd93 163e 860a 7b3e bf44 473f
00000350: 56a1 963e 0ca0 0f3f a9b7 c5be f0ca 083f
00000360: 6332 d6bc 17f0 fc3e 6951 033f 3fa1 233d
00000370: f68a cc3e ee0e e23e c2e5 143f b4e3 a13c
00000380: 128f 88bb f5c2 cc3e 4875 ba3d c284 043f
00000390: 2ebd 643e b95a 773f c093 ba3d eeed 92bd
000003a0: 9773 99bd 3df6 9b3e 0605 243e 2173 bd3d
000003b0: 997a 043f 302e cd3e 63f1 a03e 3f4b f03d
000003c0: c00e 79be efa3 5cbe a2f3 cc3d d080 9cbe
000003d0: d0fd 80bd 50cf 32bf f22c b8bd a599 23be
000003e0: 50d4 7f3d 6ff6 69bf 3464 993e 03a5 7abe
000003f0: baca 143f a647 8d3e 8541 f4bd 2846 07be
-0.07972822 0.057653222 0.15648575 0.06826518 0.05770616 0.01094224 0.046090834 -0.1950451
-0.059905533 -0.38309407 -0.13772918 -0.29918504 0.00072372984 -0.3676917 -0.18832901 -0.07698405
0.02712852 -0.12663679 -0.13464771 0.2414221 -0.03457058 0.30966875 -0.8249874 -0.18202032
-0.091327064 0.17221744 0.33157676 -0.11156033 0.07445286 -0.090053596 -0.008470115 -0.032802515
-0.08177805 0.21405761 -0.29625547 -0.3830153 0.0045260075 0.58852285 0.21527345 -0.4448012
0.2243596 0.1181317 0.7155178 0.5723569 0.45607725 -0.22595151 0.3486891 0.84552646
-0.1409798 0.077279426 -0.0857493 0.0826376 0.045720965 0.22908999 0.07190615 0.09371816
0.7713444 -0.31388208 -0.34563762 -0.08485472 0.047904465 -0.04279224 -0.26352754 0.047015663
-0.12134196 0.54694515 0.32134497 -0.02698831 -0.6091461 -0.70974094 0.7289321 0.55178607
-0.06274765 0.09119363 0.36353377 0.7971414 0.86180663 0.31139153 0.37990344 0.014067669
0.050019212 0.09384412 0.5920244 0.043271307 1.1036004 0.5999334 0.7479574 0.31186837
-0.58788604 0.19123347 -0.07181784 -0.08877819 0.13141704 0.15393996 0.10991442 0.13902469
0.988432 1.0831338 -0.905984 1.0648845 0.07955532 -0.11180543 -0.6970925 -0.5061472
-0.70122194 -2.0806065 1.8741353 1.352995 -1.9240429 0.23618706 0.28941172 0.037605714
0.5331093 0.13897827 0.55126315 -0.16566625 0.73497957 -0.2644632 0.8475463 0.20933242
0.25933215 0.15490709 0.76135796 -0.38598806 -0.3411556 0.49999255 -0.0716877 1.0126349
-0.36797315 0.6390327 -0.61147594 0.50489646 -0.30090612 0.13284662 -0.52696705 0.29973236
0.8695209 0.8172545 0.89678866 0.49422428 -0.004841442 0.26054072 0.59426165 -0.6178278
0.3859363 -0.032650486 0.29038006 0.04804323 0.0020847109 0.053277045 0.2750938 0.26645768
0.49746028 0.7536473 1.1630374 0.19554211 -0.285073 0.33384925 -0.37421042 0.72958934
0.21612738 0.27688405 -0.20429012 -0.23807268 0.16067776 0.0064093983 -0.19252574 -0.21124393
0.23414129 0.093231454 0.15713638 0.07339849 -0.9887793 -0.27837023 0.08602344 0.049098104
0.051705603 -0.15624373 -0.107084185 -0.09753063 -0.13174099 0.25694963 -0.45155847 0.27811408
-0.43524253 0.34287217 -0.123668455 -0.29657435 -0.09331362 -0.06884333 -0.30395105 -0.54263324
-0.044041798 0.15103176 0.67185926 0.04050621 0.009296955 0.3295751 -0.03019589 -0.037182864
0.4249725 0.12077993 -0.15107517 0.19833249 0.21777913 -0.022839442 0.28729823 0.1466861
0.2638146 0.14704819 0.24515733 0.77839273 0.29419965 0.5610359 -0.38616684 0.5343466
-0.026147073 0.49401924 0.512961 0.039948698 0.3994977 0.44152015 0.5816308 0.019761898
-0.004167446 0.3999249 0.09104401 0.5176507 0.22337791 0.96622807 0.09110212 -0.07174288
-0.0749275 0.30461302 0.16017541 0.09250475 0.5174957 0.400743 0.31434163 0.11733102
-0.24322033 -0.2154691 0.10007407 -0.30567026 -0.06298411 -0.69847584 -0.08992948 -0.1597658
0.062458336 -0.9139165 0.2995926 -0.2447701 0.58121836 0.27593726 -0.11926559 -0.13210356

critic.seq_model.model.weight_hh_l0 f4 [256, 64]
00000000: fb0e 4dbd d1aa 31bf bbc9 a83e cef8 233f
00000010: 3020 e0be 416e 92be e43e c3be b9fb 94be
00000020: 6140 9d3e e935 593f f6b0 183e 1cf3 9f3c
00000030: ac68 b73e 5f5f 3fbe c8d4 b63d 4aad 45bf
00000040: fa33 afbe ef55 6dbe 879c c33f 7e83 40be
00000050: 9197 9fbd b3a0 903d be9e e23e 1f7d 16be
00000060: 7a14 e6be 1381 35be 7a11 6dbe 52c6 99be
00000070: 6283 bb3e 84c0 f0bd 0767 10bf f521 ce3e
00000080: ed23 b9bd e238 ad3e e346 ac3f c956 d5be
00000090: f12b 05bf a07c 3c3c 0126 cb3e 8386 983f
000000a0: f993 883f d600 923e 5c6a abbd 7e3a 0d3f
000000b0: e2fb cf3e 9f2c be3e 9e59 f6be edfc 1539
000000c0: 6203 89bc a555 573d c84b 3ebd 2c4c edbe
000000d0: 0e61 9f3c a821 073e 54bc f13e a3ae 62bf
000000e0: bd87 c93e 998c 79be 8ce4 193d 1a62 4dbd
000000f0: 1d65 e43e 811d d2bd ad75 943d 2dc9 c03f
00000100: 0fda f33e 23cc 413d 1fec 8b3e b4c4 abbe
00000110: eda8 9bbe 7749 3e3f bf2f 453f 89e8 9d3e
00000120: 7edb 9abf 0b57 15bf 0e3a 8abe b2a4 fdbd
00000130: 2c59 3d3e a8ff 9bbe cf24 08bf 38ce 053f
00000140: 7977 0a3e 1c0e 813e f12f 34bc 1404 44bf
00000150: 0d51 01bf 0f98 313f 1c08 2c3e a213 06bf
00000160: f660 0f3f b4b3 813f 7998 753d 9c34 053f
00000170: 603c d9bf d0cb 2ebf 7696 073f f28b 72bf
00000180: 7f70 c8be f63d 49be 9cec f8be 5d9c 653f
00000190: 11f8 b9bf 658d 5a3c 23e5 62bf f8fe 96be
000001a0: 4a7c 66bc d285 4e3d db45 9c3e 812b 13bf
000001b0: 5af3 5c3f 7fab b5bf 1e78 f63e b9be 11bf
000001c0: 9951 7d3e 22dc 7bbf 0963 873e 0065 58be
000001d0: 7189 13bf e92b 5f3e 5f67 57bf 31cb ba3f
000001e0: 6d92 c13d 520e fcbe 54a6 88be 6607 36bf
000001f0: 8792 05bf 1e39 76bd a8b3 3abf 7db2 2cbf
00000200: 8fcd 92be 33af 8d3d 02ea 33bd d3e0 113e
00000210: fbc1 3d3f 73e3 85bf ecb9 383f 9af0 743d
00000220: 2270 113f 48b0 79bf 99b7 2b3c afdb 763e
00000230: 5e31 23bc 1a87 e03e 5ab1 93bf 8f29 2f3f
00000240: 1301 cb3e e88c d4be cf3b 80bc 7cfe 143f
00000250: f30e 32bf 1d8e 8cbe 5629 44be 769e 40bf
00000260: dd31 f9bc e076 b23e ac48 a63d e918 98bf
00000270: 16d6 d9be f097 9a3e 310f 90bf 886c ffbf
00000280: c97e 9c3e ba7d cbbe b9ef 42bf 98de bbbf
00000290: 93eb 5cbf 343f 92bf 8dab 853f e275 6dbd
000002a0: b844 6cbf 27e2 083f 0c61 10bf 0dc7 35bd
000002b0: b194 b6bf e77d 653e 14b7 e8bd 57ba 053f
000002c0: e4e4 873f ce45 2dbf f734 ddbe a5ab 26bf
000002d0: 7ce1 523e 1349 00bf 0090 a2bd 80f0 92bf
000002e0: a3b3 623e 0ca5 513f 37fa 41be ba4b d33e
000002f0: b515 fcbe b05f 9cbe a183 6dbf 87d0 1b3f
00000300: 1df3 723e 7fe0 873e 0c1c 2e3f fdb2 1e3f
00000310: 7313 863f 73d1 943e c661 38be 3f8e 4c3f
00000320: 4110 1ebf c604 ef3e 897c d43e ee08 473f
00000330: d3d7 4cbf 8fcb 0f3f c106 1ebe e402 a3be
00000340: 15a6 29bf a29a ecbe eee8 293f 14f9 28be
00000350: 2f22 53bf b46e 4f3f c54a 4cbf e731 a13e
00000360: 7cd6 a43d 1f7d fc3d fd9e 433e 5e75 f4be
00000370: c6b5 853f eca1 b1bd 47e0 cdbe f75c bebc
00000380: 20f5 2ebf 7582 1dbd f873 90bf f5c0 dabd
00000390: 3984 02be 1a36 dfbd 33c2 4bbe 5214 33bf
000003a0: ab99 fdbe e2fb a23e 2ac7 0dbf d485 38bf
000003b0: 2ce3 493e f15f 903e bd92 bb3e 2834 b13e
000003c0: 1d2e 67be 4beb 753e 7ef7 893f f075 263e
000003d0: 6550 b4be 3dc2 833e 40a6 dd3e 99d2 223f
000003e0: 575d 1fbe 61ff 7f3d a5d3 94be 8f4b 59be
000003f0: 81d4 1abf 5eb7 b03d 7833 0e3e 1438 a33e
-0.050063115 -0.6940127 0.32966408 0.6405152 -0.43774557 -0.28599742 -0.3813392 -0.290983
0.3071318 0.84847885 0.14911255 0.019525103 0.35822046 -0.18688725 0.089273036 -0.77217543
-0.34219342 -0.23177312 1.5282143 -0.1880016 -0.07792581 0.07061901 0.44261736 -0.14696167
-0.44937497 -0.17725019 -0.23151198 -0.3003412 0.36623675 -0.117554694 -0.5640721 0.40260282
-0.090400554 0.3383246 1.3459133 -0.41667774 -0.52020174 0.011504322 0.39677432 1.191605
1.0670158 0.28516263 -0.08369896 0.55167377 0.4062186 0.37143418 -0.48115247 0.0001430397
-0.016725246 0.05257191 -0.04645899 -0.46347177 0.019455459 0.13196433 0.47213995 -0.88547724
0.39361373 -0.2437004 0.037571475 -0.050142385 0.44608393 -0.10259534 0.072490074 1.5061394
0.47627303 0.04731382 0.27328584 -0.3354851 -0.30402318 0.7433085 0.7702598 0.30841473
-1.2098234 -0.5833594 -0.26997417 -0.12384929 0.18491048 -0.30468488 -0.53181165 0.5226779
0.13522138 0.25206077 -0.010997758 -0.7656872 -0.505143 0.6937265 0.16799968 -0.5237371
0.56007326 1.0132966 0.059959862 0.520334 -1.697155 -0.68279743 0.5296396 -0.9474479
-0.39148328 -0.19652542 -0.4861802 0.89691716 -1.4528829 0.013339375 -0.88630885 -0.294914
-0.014067719 0.05042059 0.30522045 -0.57488257 0.86308825 -1.4192961 0.48138517 -0.56931645
0.24738158 -0.9838277 0.26442745 -0.21132278 -0.57631594 0.21794094 -0.84142107 1.4593259
0.094517566 -0.49229676 -0.26689398 -0.7110504 -0.5217671 -0.060113065 -0.72930384 -0.6745985
-0.28672454 0.06918182 -0.04392434 0.1424592 0.74124116 -1.0460037 0.72158694 0.059799768
0.56811726 -0.9753461 0.010480785 0.2410724 -0.0099605005 0.43853074 -1.1538498 0.6842279
0.39649257 -0.41513753 -0.015653519 0.5820081 -0.6955406 -0.27452174 -0.19156393 -0.7524179
-0.030419284 0.3485632 0.0811933 -1.1882602 -0.42546147 0.30194044 -1.1254636 -1.9954996
0.3056548 -0.3974436 -0.7614704 -1.4677305 -0.8629696 -1.1425538 1.0442978 -0.05797375
-0.92292356 0.5347008 -0.5639808 -0.044379283 -1.4264127 0.22411309 -0.113630444 0.5223746
1.0616727 -0.6768464 -0.4320447 -0.6510566 0.20593828 -0.501115 -0.07937622 -1.1479645
0.22138838 0.81892467 -0.18943106 0.41268712 -0.4923531 -0.30541754 -0.92778975 0.6086506
0.23725553 0.26538464 0.68011546 0.61991864 1.0474685 0.29066047 -0.18006048 0.7990455
-0.6174355 0.4668333 0.41501263 0.77748 -0.8001682 0.5616998 -0.15432264 -0.31838143
-0.66269046 -0.46211725 0.6637105 -0.16501266 -0.82474035 0.81028295 -0.7980159 0.31483385
0.08048722 0.123285525 0.19103618 -0.47745794 1.0446098 -0.08673462 -0.40210173 -0.023237688
-0.6834278 -0.03845449 -1.1285391 -0.10681335 -0.12745751 -0.10898991 -0.198983 -0.6995288
-0.49531302 0.31832796 -0.55382025 -0.72079206 0.19715565 0.28198197 0.3663539 0.34610105
-0.22576185 0.24015538 1.0778654 0.16255927 -0.35217586 0.2573413 0.432909 0.63602597
-0.1556295 0.062499408 -0.29067722 -0.2122023 -0.60480505 0.086287245 0.13886821 0.31878722

critic.seq_model.model.bias_ih_l0 f4 [256]
00000000: be3a 5cbd 5b0d ffbd 218f 0b3e c6d4 8d3e
00000010: 5a4f 513e 5755 9b3d e4cf f33e d451 a53d
00000020: 1834 f9bc e95a 763d efbc f13d 89c0 7dbd
00000030: 0f5d d43e cd6c 373e 9d86 b73d b294 cb3d
00000040: 790a dd3d 7c65 9f3d b15d 30bd ff8f bf3e
00000050: 5671 b73e 22d1 e43e 1176 2e3e 3c37 6c3e
00000060: 87f2 453d 4fe9 363d 3fc1 bf3d 479c 8a3f
00000070: 6d3d cb3e 965b 833e 13d0 153e a785 89ba
00000080: 6b6c f9bd 4fc5 4abd 9edb f5bc 748d 143e
00000090: 1a64 673e c388 4f3f a592 a0bd 955a d73e
000000a0: eb92 883e 31c8 4fbe 2f16 4f3d 2340 cf3e
000000b0: 9b57 cd3e d5d4 183e 2305 003e 630d 04bd
000000c0: 74b1 243f 8bb1 693e a39c c53e 03a7 e13e
000000d0: 3429 853e 1f18 183f 7d5d 7ebe 3e56 df3d
000000e0: d390 6d3d 1c5b 863d 12b3 0d3e 6aa4 f13d
000000f0: 17f8 95bc a185 1fbe 4edd ff3d 6bfe 9a3e
00000100: d6fc 8bbd 5e90 a9bd a55e 52bd 914b 153e
00000110: c392 e1bd 335a f1bd 24f9 54bd 4626 0b3d
00000120: 92fd 24bc 73f8 1cbe 6981 a8be 626f d3bd
00000130: 0873 5f3e 0d0f e7bd e969 24be 29b2 8fbe
00000140: d3b9 f3bd 53cc 063c 3fb8 a3bd 5fee ed3d
00000150: 92fd 3bbc a76f 013e 1e4e 3bbd edd6 d1bd
00000160: 5699 4cbd b8f7 15be 4729 9bbe fe21 c3bd
00000170: 2035 02bc 5fa9 0a3d 5938 093d e5e9 bdbd
00000180: 9357 05be 520c 82bd dfc5 3dbd c5eb 033d
00000190: 9500 23be 28bf aeb9 5417 49be 4a1b 1b3e
000001a0: e2a0 32be 324a 91bd f184 19be 8bd6 a03c
000001b0: b790 83bd b126 abbd 1893 a9bd 145d a1bd
000001c0: a89d 25bd 1252 efbe 9bce 723d e047 f73b
000001d0: b8b8 b23d 668c bf3e b890 80be 5d40 d83d
000001e0: de34 9a3d 36c1 c0bb 46c6 433d 3b1c 4cbd
000001f0: 54cb 34bd 54a3 ae3d 6344 513e 38e9 bdbc
00000200: 8ff1 f5bc b4e4 243c 0037 d73d 150d 5f3d
00000210: 251f 023d 5a95 193e 18da 883e 413a a03d
00000220: 1941 10ba ccfc e33c 5e20 09be 4c3d ccbe
00000230: 39fe ccbe f353 fd3d 1d3b b1be 6e10 303e
00000240: dbf5 11be 5f2f 25be f009 883c 9eb8 26be
00000250: 00ee dbbd c02a c33e 8e3f 0cbd e351 b0be
00000260: 1ebf 53bd ef94 14bc 4102 0a3e 4737 f9bd
00000270: 46b5 3b3e 24c5 96be 7f8e 91bc 85a8 d03d
00000280: a1cc 0abe 33bf 1e3c 7ccb e4bc 4b0d b73d
00000290: c8cb efbd c212 e8bc 0932 7c3d 72c6 b7bd
000002a0: ad23 18be 1ffd 95bc 95c7 e73c 223b 013e
000002b0: b4bf 72be 8336 cbbd b330 d43d e8c2 d03c
000002c0: 7ecd bcbd 8664 6a3d f729 6ebd 7a1e 23be
000002d0: a6e3 153e 1a3c 123e bffa 293b 06fc e53d
000002e0: 0f2a a63c dd52 49bd 4bb2 8b3c cf66 46bd
000002f0: 9726 70bd 0e11 d13d 5361 d93d d2ad 903d
00000300: 8d80 613e 1e8c be3e 1c5f 793e 7d22 38bd
00000310: 9908 743d 3af6 d23e ce5c 533e a4fd 8d3e
00000320: 4a56 a83e 94b3 493e f344 bc3d b640 4d3e
00000330: 97b0 b23e 0571 8d3e 0d96 473e f607 813e
00000340: 7f9c 0f3e 9666 273e 4ff6 72bd b084 093f
00000350: b672 f03e d1e3 1c3f 4ea7 093f 3c64 c73e
00000360: 919b a83e 7f47 c63e 8e38 793e 79a4 213f
00000370: b85f 323f d930 dc3e 1df3 0a3f a648 063e
00000380: 9ad9 833e e4c1 b3bd 168f 8d3d ba52 db3e
00000390: 8def b83e bc1b dd3e b51a 12be fae4 f63e
000003a0: 26a4 143f 71d4 763e 8690 003f 85ce b73e
000003b0: 93c7 b33d f89d 6d3e 0805 923e 81ca 2fbe
000003c0: 119e 103f 0794 2bbc 08fa ed3d cd9a 263f
000003d0: 0374 da3e f1b3 423f e2a5 453e 0ab7 f83d
000003e0: 6673 bb3d 7651 bc3e c939 04be 0a6e b33e
000003f0: 4713 ac3d 90da 3b3e ce63 9d3e fe27 b7bd
-0.05376696 -0.12453719 0.13628818 0.27701396 0.20440426 0.07584637 0.47619545 0.08072248
-0.030420348 0.060145292 0.11803614 -0.061951194 0.41477248 0.17912598 0.08961222 0.09940471
0.10793013 0.077830285 -0.0430581 0.37414548 0.35828656 0.44690806 0.17037226 0.23067945
0.048326995 0.044656094 0.09363031 1.0828942 0.39695302 0.25655812 0.14630155 -0.0010492102
-0.12178882 -0.049504574 -0.030011948 0.14507085 0.2259678 0.81068057 -0.0784047 0.42061296
0.2667459 -0.2029121 0.050558265 0.4047862 0.401059 0.14924939 0.1250196 -0.03223933
0.6433327 0.22821634 0.38596067 0.44072732 0.26007998 0.59411806 -0.2484035 0.10905121
0.057999443 0.065603465 0.13837841 0.117989376 -0.018306775 -0.15578319 0.124933824 0.3027223
-0.06835334 -0.08279489 -0.05135979 0.14579608 -0.11014321 -0.11784782 -0.05199541 0.033972047
-0.0100702215 -0.15329151 -0.32911232 -0.10323979 0.21821225 -0.112821676 -0.16056027 -0.28065613
-0.119006775 0.008227426 -0.079941265 0.11617731 -0.01147403 0.12640248 -0.045728795 -0.10246072
-0.04995092 -0.14645278 -0.3030493 -0.09527968 -0.007947236 0.03385293 0.033501003 -0.092731275
-0.13021688 -0.06350006 -0.046331283 0.03220727 -0.15918191 -0.0003333029 -0.19637805 0.15147129
-0.17444184 -0.0709423 -0.1499212 0.019633552 -0.064240865 -0.08356989 -0.08280009 -0.07879081
-0.040433556 -0.46742302 0.059279066 0.00754641 0.087266386 0.37411803 -0.25110412 0.10559151
0.07529615 -0.0058824075 0.04779651 -0.04983161 -0.04413922 0.08527246 0.20436244 -0.023182496
-0.03002241 0.010064293 0.10508537 0.054455835 0.031767983 0.1499838 0.26728892 0.07823611
-0.00055028644 0.027830504 -0.13391253 -0.39890516 -0.40037706 0.12369528 -0.34615412 0.17193767
-0.14253943 -0.16131352 0.016606301 -0.16281363 -0.10738754 0.38118553 -0.034240298 -0.34437475
-0.051695935 -0.009068712 0.13477422 -0.121687464 0.18330869 -0.2944728 -0.017768143 0.101883925
-0.13554622 0.00968914 -0.02792906 0.08938082 -0.1170879 -0.028329257 0.061571155 -0.08973397
-0.14857359 -0.018309174 0.02829341 0.12620214 -0.23705941 -0.09922507 0.10360851 0.025483564
-0.09218882 0.057224773 -0.05814549 -0.15929595 0.14637622 0.1428074 0.002593681 0.1122971
0.020283727 -0.04915129 0.01705279 -0.04843789 -0.058630552 0.10208331 0.10614266 0.070644036
0.22021694 0.37216276 0.24352688 -0.044954766 0.059578512 0.4120348 0.20640871 0.27732575
0.32878333 0.1969741 0.091928385 0.20044217 0.34900352 0.2762529 0.19490834 0.25201386
0.14024542 0.16347727 -0.05931693 0.5371809 0.46962517 0.6128512 0.5377091 0.3894366
0.32931188 0.38726422 0.2433798 0.6314159 0.69677305 0.43006018 0.5427721 0.1311365
0.25751954 -0.08777216 0.06912057 0.42836553 0.36120263 0.43185222 -0.14268 0.4822157
0.5806297 0.24104477 0.50220525 0.3589975 0.087783 0.23204792 0.28519464 -0.17167093
0.5649119 -0.010472304 0.11619955 0.6507996 0.42666635 0.7605582 0.1930156 0.12144287
0.0915287 0.367809 -0.12912668 0.3504489 0.08402114 0.18345094 0.30740207 -0.08943175

critic.seq_model.model.bias_hh_l0 f4 [256]
00000000: be3a 5cbd 5b0d ffbd 218f 0b3e c6d4 8d3e
00000010: 5a4f 513e 5755 9b3d e4cf f33e d451 a53d
00000020: 1834 f9bc e95a 763d efbc f13d 89c0 7dbd
00000030: 0f5d d43e cd6c 373e 9d86 b73d b294 cb3d
00000040: 790a dd3d 7c65 9f3d b15d 30bd ff8f bf3e
00000050: 5671 b73e 22d1 e43e 1176 2e3e 3c37 6c3e
00000060: 87f2 453d 4fe9 363d 3fc1 bf3d 479c 8a3f
00000070: 6d3d cb3e 965b 833e 13d0 153e a785 89ba
00000080: 6b6c f9bd 4fc5 4abd 9edb f5bc 748d 143e
00000090: 1a64 673e c388 4f3f a592 a0bd 955a d73e
000000a0: eb92 883e 31c8 4fbe 2f16 4f3d 2340 cf3e
000000b0: 9b57 cd3e d5d4 183e 2305 003e 630d 04bd
000000c0: 74b1 243f 8bb1 693e a39c c53e 03a7 e13e
000000d0: 3429 853e 1f18 183f 7d5d 7ebe 3e56 df3d
000000e0: d390 6d3d 1c5b 863d 12b3 0d3e 6aa4 f13d
000000f0: 17f8 95bc a185 1fbe 4edd ff3d 6bfe 9a3e
00000100: d6fc 8bbd 5e90 a9bd a55e 52bd 914b 153e
00000110: c392 e1bd 335a f1bd 24f9 54bd 4626 0b3d
00000120: 92fd 24bc 73f8 1cbe 6981 a8be 626f d3bd
00000130: 0873 5f3e 0d0f e7bd e969 24be 29b2 8fbe
00000140: d3b9 f3bd 53cc 063c 3fb8 a3bd 5fee ed3d
00000150: 92fd 3bbc a76f 013e 1e4e 3bbd edd6 d1bd
00000160: 5699 4cbd b8f7 15be 4729 9bbe fe21 c3bd
00000170: 2035 02bc 5fa9 0a3d 5938 093d e5e9 bdbd
00000180: 9357 05be 520c 82bd dfc5 3dbd c5eb 033d
00000190: 9500 23be 28bf aeb9 5417 49be 4a1b 1b3e
000001a0: e2a0 32be 324a 91bd f184 19be 8bd6 a03c
000001b0: b790 83bd b126 abbd 1893 a9bd 145d a1bd
000001c0: a89d 25bd 1252 efbe 9bce 723d e047 f73b
000001d0: b8b8 b23d 668c bf3e b890 80be 5d40 d83d
000001e0: de34 9a3d 36c1 c0bb 46c6 433d 3b1c 4cbd
000001f0: 54cb 34bd 54a3 ae3d 6344 513e 38e9 bdbc
00000200: 8ff1 f5bc b4e4 243c 0037 d73d 150d 5f3d
00000210: 251f 023d 5a95 193e 18da 883e 413a a03d
00000220: 1941 10ba ccfc e33c 5e20 09be 4c3d ccbe
00000230: 39fe ccbe f353 fd3d 1d3b b1be 6e10 303e
00000240: dbf5 11be 5f2f 25be f009 883c 9eb8 26be
00000250: 00ee dbbd c02a c33e 8e3f 0cbd e351 b0be
00000260: 1ebf 53bd ef94 14bc 4102 0a3e 4737 f9bd
00000270: 46b5 3b3e 24c5 96be 7f8e 91bc 85a8 d03d
00000280: a1cc 0abe 33bf 1e3c 7ccb e4bc 4b0d b73d
00000290: c8cb efbd c212 e8bc 0932 7c3d 72c6 b7bd
000002a0: ad23 18be 1ffd 95bc 95c7 e73c 223b 013e
000002b0: b4bf 72be 8336 cbbd b330 d43d e8c2 d03c
000002c0: 7ecd bcbd 8664 6a3d f729 6ebd 7a1e 23be
000002d0: a6e3 153e 1a3c 123e bffa 293b 06fc e53d
000002e0: 0f2a a63c dd52 49bd 4bb2 8b3c cf66 46bd
000002f0: 9726 70bd 0e11 d13d 5361 d93d d2ad 903d
00000300: 8d80 613e 1e8c be3e 1c5f 793e 7d22 38bd
00000310: 9908 743d 3af6 d23e ce5c 533e a4fd 8d3e
00000320: 4a56 a83e 94b3 493e f344 bc3d b640 4d3e
00000330: 97b0 b23e 0571 8d3e 0d96 473e f607 813e
00000340: 7f9c 0f3e 9666 273e 4ff6 72bd b084 093f
00000350: b672 f03e d1e3 1c3f 4ea7 093f 3c64 c73e
00000360: 919b a83e 7f47 c63e 8e38 793e 79a4 213f
00000370: b85f 323f d930 dc3e 1df3 0a3f a648 063e
00000380: 9ad9 833e e4c1 b3bd 168f 8d3d ba52 db3e
00000390: 8def b83e bc1b dd3e b51a 12be fae4 f63e
000003a0: 26a4 143f 71d4 763e 8690 003f 85ce b73e
000003b0: 93c7 b33d f89d 6d3e 0805 923e 81ca 2fbe
000003c0: 119e 103f 0794 2bbc 08fa ed3d cd9a 263f
000003d0: 0374 da3e f1b3 423f e2a5 453e 0ab7 f83d
000003e0: 6673 bb3d 7651 bc3e c939 04be 0a6e b33e
000003f0: 4713 ac3d 90da 3b3e ce63 9d3e fe27 b7bd
-0.05376696 -0.12453719 0.13628818 0.27701396 0.20440426 0.07584637 0.47619545 0.08072248
-0.030420348 0.060145292 0.11803614 -0.061951194 0.41477248 0.17912598 0.08961222 0.09940471
0.10793013 0.077830285 -0.0430581 0.37414548 0.35828656 0.44690806 0.17037226 0.23067945
0.048326995 0.044656094 0.09363031 1.0828942 0.39695302 0.25655812 0.14630155 -0.0010492102
-0.12178882 -0.049504574 -0.030011948 0.14507085 0.2259678 0.81068057 -0.0784047 0.42061296
0.2667459 -0.2029121 0.050558265 0.4047862 0.401059 0.14924939 0.1250196 -0.03223933
0.6433327 0.22821634 0.38596067 0.44072732 0.26007998 0.59411806 -0.2484035 0.10905121
0.057999443 0.065603465 0.13837841 0.117989376 -0.018306775 -0.15578319 0.124933824 0.3027223
-0.06835334 -0.08279489 -0.05135979 0.14579608 -0.11014321 -0.11784782 -0.05199541 0.033972047
-0.0100702215 -0.15329151 -0.32911232 -0.10323979 0.21821225 -0.112821676 -0.16056027 -0.28065613
-0.119006775 0.008227426 -0.079941265 0.11617731 -0.01147403 0.12640248 -0.045728795 -0.10246072
-0.04995092 -0.14645278 -0.3030493 -0.09527968 -0.007947236 0.03385293 0.033501003 -0.092731275
-0.13021688 -0.06350006 -0.046331283 0.03220727 -0.15918191 -0.0003333029 -0.19637805 0.15147129
-0.17444184 -0.0709423 -0.1499212 0.019633552 -0.064240865 -0.08356989 -0.08280009 -0.07879081
-0.040433556 -0.46742302 0.059279066 0.00754641 0.087266386 0.37411803 -0.25110412 0.10559151
0.07529615 -0.0058824075 0.04779651 -0.04983161 -0.04413922 0.08527246 0.20436244 -0.023182496
-0.03002241 0.010064293 0.10508537 0.054455835 0.031767983 0.1499838 0.26728892 0.07823611
-0.00055028644 0.027830504 -0.13391253 -0.39890516 -0.40037706 0.12369528 -0.34615412 0.17193767
-0.14253943 -0.16131352 0.016606301 -0.16281363 -0.10738754 0.38118553 -0.034240298 -0.34437475
-0.051695935 -0.009068712 0.13477422 -0.121687464 0.18330869 -0.2944728 -0.017768143 0.101883925
-0.13554622 0.00968914 -0.02792906 0.08938082 -0.1170879 -0.028329257 0.061571155 -0.08973397
-0.14857359 -0.018309174 0.02829341 0.12620214 -0.23705941 -0.09922507 0.10360851 0.025483564
-0.09218882 0.057224773 -0.05814549 -0.15929595 0.14637622 0.1428074 0.002593681 0.1122971
0.020283727 -0.04915129 0.01705279 -0.04843789 -0.058630552 0.10208331 0.10614266 0.070644036
0.22021694 0.37216276 0.24352688 -0.044954766 0.059578512 0.4120348 0.20640871 0.27732575
0.32878333 0.1969741 0.091928385 0.20044217 0.34900352 0.2762529 0.19490834 0.25201386
0.14024542 0.16347727 -0.05931693 0.5371809 0.46962517 0.6128512 0.5377091 0.3894366
0.32931188 0.38726422 0.2433798 0.6314159 0.69677305 0.43006018 0.5427721 0.1311365
0.25751954 -0.08777216 0.06912057 0.42836553 0.36120263 0.43185222 -0.14268 0.4822157
0.5806297 0.24104477 0.50220525 0.3589975 0.087783 0.23204792 0.28519464 -0.17167093
0.5649119 -0.010472304 0.11619955 0.6507996 0.42666635 0.7605582 0.1930156 0.12144287
0.0915287 0.367809 -0.12912668 0.3504489 0.08402114 0.18345094 0.30740207 -0.08943175

critic.qf.fc0.weight f4 [256, 64]
00000000: 04e7 003f e16d 993e 108d 1b3f e2fd 80bf
00000010: 174c 473f 7fba 8f3f c583 67be d89a ae3f
00000020: 15e7 9b3f 48c2 90bf 59d7 f0be 9b22 f8be
00000030: 32b6 cc3f 21c0 0240 33f9 973d b801 ea3f
00000040: d4ca 5ebd 1c81 2cbf e76d d3bf fbdd ae3f
00000050: ad44 b3be 5097 43bf 9f3d 733f ff16 4abf
00000060: 6a9b 87bf 431a 7bbe c136 72bf baa8 2fc0
00000070: 4e4a 1cbe c104 f43f c575 36bf 4982 983f
00000080: 0881 14c0 a0c5 20bf ba26 42bf 5dd6 a4bf
00000090: cc30 5e3f cebe 223f b021 823f 3f8c 743e
000000a0: 4a9e 123f 9300 0abf 5419 633e 4503 f5be
000000b0: 3ba6 263f 8343 64bf e879 f7bf 63ec b03e
000000c0: c4a1 31bf 4baa a5bf a4f5 10bd e487 34bf
000000d0: c3d8 53bd d238 c6bf 95d8 0ac0 8ef4 bb3f
000000e0: 8dc7 973f dbf8 843e bdde 81bf e091 a73f
000000f0: e402 233e bd2b ec3f 04ef bc3d d013 b73f
00000100: 32d9 9c3f 6d47 9d3f e2a9 e0bf cd7c 90bf
00000110: bac4 0340 7729 ec3f 5a84 b4bf a4dc 9e3f
00000120: f11a d63f 6cc3 dcbf 4729 923f 0866 c9bf
00000130: 5a61 5940 554e b8bf 602e d0bf bc80 4b3f
00000140: c6ca 0dc0 df8a b1bf 48a1 b9bf 561c c53f
00000150: 04fd cbbf 061c 06c0 6be2 933f 7836 94bf
00000160: de77 bdbf 4570 8e3f 7f12 11c0 d394 ddbf
00000170: f7cf 15c0 5a9f e33f 5701 2540 687b b8bf
00000180: ef83 ecbf 2f79 06c0 bbfd e1bf d0c5 7fbf
00000190: 5bd8 0340 a9ae c83f 2ae2 903f 825b 913f
000001a0: d10a 833f ad27 803f cebb cd3f a3ed c4bf
000001b0: 83be ce3f 984e eabf 32bd febf 1d22 a13f
000001c0: 84ce e33f d917 14c0 98ab ee3f 5cce fcbf
000001d0: bf2f 1a40 f221 95bf 62d0 a5bf 62b9 e93c
000001e0: 30d8 c03f 04ae e63f 3885 b1bf f4e2 1840
000001f0: f4b6 ad3f 9f96 e83f 031d b03f 5dd2 b23f
00000200: a157 d53f f462 663f a2d9 79bf 8529 94bf
00000210: 156f e53f 5122 e23f a4b7 cbbf a8f6 e83f
00000220: b484 d93f 1143 f1bf 02f3 4e3f 61d5 aebf
00000230: 3d41 be3f 3837 84bf 3efc 95bf 25e3 3f3f
00000240: 3f7e 65bf 958a a4bf 0c35 eebf c2ef f93f
00000250: 7db3 d2bf ecb4 d6bf 1ee6 a93f 5091 c6bf
00000260: a139 aebf 968d 09bf 4c80 9abf 4484 04c0
00000270: 63fc a7bf 9d36 0340 daa9 bd3f 7f2b 97bf
00000280: d19b f9bf 2ccc 91bf f2b0 d4bf d504 cbbf
00000290: 8a15 e73f 3649 d13f dbad a63f c62f f93f
000002a0: 9887 dc3f f8f4 123f c1a5 cc3f b2ba cdbf
000002b0: 7cff da3f baf8 f5bf 9d9c f9bf c019 e03f
000002c0: 8db2 9e3f 523b b7bf f9a8 8e3f 1288 68bf
000002d0: 7d49 bb3f 9210 98bf c6e3 f1bf dbab b93f
000002e0: 76e4 fb3f 078f 733f 0ccd c9bf b8d5 c23f
000002f0: 4c49 b23f 8125 4140 5a2e e33f 7d0e b23f
00000300: 0c6e 0540 e2c9 483f d0c4 efbf c0ff e3bf
00000310: 7fe8 d03f 430c 0240 faad 7fbf 7270 813f
00000320: 68a6 a43f c4d2 09c0 3ef0 c23f 17db adbf
00000330: bcae 1d40 93fa 94bf 723b f2bf c914 f73e
00000340: a0b9 d3bf 5d8a 08c0 0743 8bbf d68a b83f
00000350: d75c 8bbf a1f8 cebf d788 a93f d108 a1bf
00000360: c55f debf 6a3e 0c3f 92d3 1ac0 a882 14c0
00000370: 80ad 0dc0 d6da d73f 9220 0040 f60e 63bf
00000380: d226 b7bf 9cfd efbf 9ace aebf 04cd 94bf
00000390: c0a6 da3f 4f4a dc3f 4682 bd3f beea b23f
000003a0: 00a7 a13f 8513 873f 93b6 1740 39c6 b5bf
000003b0: d808 aa3f d451 debf ca7e f3bf 6b72 e93f
000003c0: 9f51 de3f 6ed1 15c0 9c42 e03f 626f cfbf
000003d0: c421 1340 c232 a4bf 7e08 dfbf b8c9 b93e
000003e0: e70c c73f 2a4c 0240 d16b 97bf 3ca6 f63f
000003f0: 6b48 bf3f 98f6 1040 e011 b73f d425 e43f
0.503525 0.29966643 0.6076212 -1.0077479 0.7785048 1.1228789 -0.2260886 1.3641005
1.2179896 -1.130929 -0.47039297 -0.48463902 1.5993102 2.0429766 0.07420578 1.8281775
-0.05439265 -0.67384505 -1.6517915 1.3661493 -0.35013333 -0.7640276 0.950159 -0.7894134
-1.0594304 -0.24521737 -0.946148 -2.7446733 -0.1526272 1.9063951 -0.7127345 1.191476
-2.3203754 -0.6280155 -0.7584034 -1.2877918 0.8679321 0.63572395 1.0166531 0.23881625
0.5727278 -0.53907126 0.2217763 -0.47854057 0.650974 -0.89165515 -1.9334078 0.3455535
-0.6938746 -1.2942594 -0.03539051 -0.7051985 -0.051720392 -1.548609 -2.169469 1.4684007
1.1857773 0.25971112 -1.0146099 1.3091393 0.15919071 1.8450848 0.09225276 1.4302921
1.2253783 1.2287422 -1.7551844 -1.1288086 2.0588822 1.8450154 -1.410289 1.2411084
1.6726972 -1.7247138 1.1418847 -1.5734262 3.3965669 -1.4398905 -1.6264153 0.7949331
-2.2155013 -1.3870505 -1.4502344 1.5399272 -1.5936589 -2.0954604 1.1553472 -1.1579123
-1.4802206 1.1128012 -2.266754 -1.7311043 -2.3408182 1.7783005 2.5782068 -1.4412661
-1.8477763 -2.1011465 -1.7655557 -0.9991121 2.0600803 1.5678302 1.131902 1.1356051
1.0237676 1.0012108 1.6072938 -1.5385021 1.615189 -1.8305235 -1.9901488 1.2588536
1.7797399 -2.3139555 1.8646116 -1.9750476 2.4091642 -1.1650984 -1.2954218 0.02853078
1.5065975 1.8021855 -1.386878 2.3888521 1.3571458 1.8170966 1.3758854 1.3970448
1.6667367 0.8999474 -0.97597706 -1.1575171 1.7924525 1.7666723 -1.5915418 1.8200274
1.6993623 -1.8848592 0.8083955 -1.3658868 1.4863659 -1.0329351 -1.1717603 0.7495597
-0.8964576 -1.2854792 -1.8609939 1.9526293 -1.6461025 -1.6773963 1.3273351 -1.5513096
-1.3611337 -0.5373167 -1.2070403 -2.0705729 -1.3123897 2.0502083 1.481746 -1.1810149
-1.9500676 -1.1390433 -1.66165 -1.586085 1.8053448 1.6350467 1.3021806 1.9467704
1.722888 0.5740504 1.5988084 -1.60726 1.7109218 -1.921653 -1.950092 1.7507858
1.2398239 -1.4314978 1.1145316 -0.90832627 1.4631802 -1.1880057 -1.8897636 1.4505571
1.9679096 0.9514012 -1.57657 1.5221472 1.3928618 3.017914 1.774852 1.3910671
2.0848417 0.7843305 -1.8731937 -1.7812424 1.6320952 2.0319984 -0.9987484 1.011244
1.2863283 -2.153489 1.5229566 -1.3582486 2.46379 -1.1638969 -1.8924391 0.48258045
-1.6541023 -2.133445 -1.087983 1.4417369 -1.0887707 -1.6169626 1.3244885 -1.2580816
-1.7372977 0.54782736 -2.4191632 -2.3204746 -2.2137146 1.6863658 2.001988 -0.88694704
-1.4308722 -1.874927 -1.36568 -1.1625066 1.7082138 1.7210177 1.4805381 1.3977888
1.2629089 1.0552832 2.3705184 -1.4201118 1.3283949 -1.7368722 -1.9023068 1.8238043
1.7368659 -2.3409076 1.7520328 -1.6205866 2.298936 -1.282799 -1.7424467 0.36286712
1.5550812 2.0358987 -1.1829778 1.9269481 1.4943975 2.265051 1.430233 1.7824044

critic.qf.fc0.bias f4 [256]
00000000: 8ded 4b3f 8ea2 0a40 fbd1 e43f de65 ce3f
00000010: 2bf0 823f fb4f d33f ec84 a83f eec9 823e
00000020: e174 513e 48a3 be3f 57b3 c53f b31c d63f
00000030: b76d d23f 246a b73f 842f d33f b628 923e
00000040: 7fcb ab3f 1f13 0040 c42b c43f 9eae 393f
00000050: 36ef 953f 2926 2f3f 61e4 e03f 5755 553e
00000060: 3053 ba3f 1315 a83f 58b5 ca3f 9de7 3e3f
00000070: d266 ca3f 8cdf f33f 6d6c bf3f 673f e53f
00000080: 0e7c b13f 984f c33f d037 aa3f 61a1 8f3f
00000090: a698 af3f 9952 b63f e5fe 7f3e 149d 4c3f
000000a0: 0d30 c73f 99b5 0540 9295 be3f 15c7 ae3e
000000b0: 50ba c13f e542 473f d0ca a23e 15b6 1d3f
000000c0: 591c c53f 9fab d13f e2b2 b93f aa1f be3f
000000d0: 182d c63f 6658 423f db74 e53f 92dc 0440
000000e0: dd2a c13f 6776 c13f e163 4b3f bdf4 fd3e
000000f0: 24c6 9a3f 509f ae3f 1f8f 593f e4fa 633e
00000100: 9355 c73f 93d3 cdbc 6481 8e3f db3c d73f
00000110: b3ae c53f 5675 bd3f 5f03 c13f bb32 273f
00000120: da0e 863f c3a6 df3f cdc8 0c3f f192 833f
00000130: 6a06 873f d5a5 ef3e b663 d73f fcb6 953e
00000140: 1c11 c83f 7179 8e3f a344 e33e 4b06 083f
00000150: 01e4 c63f b7c0 2d3f 6747 993f c702 473f
00000160: ca57 ad3f b48c 243f 085d 573f 2bae c83f
00000170: abe2 983f 5f66 253f 56ae 883f 615f c43f
00000180: 8f64 cc3f d205 e83f 9f39 c33f 077d bc3f
00000190: e30c 0b3e c03b 513f d06d e03f daf8 43bd
000001a0: fc0c 5b3e b11e 993e ec39 b83f cc3c a2bd
000001b0: 64db 9b3f 573b 0c3f 3d71 03be 0b18 083f
000001c0: b0d0 e93f a47b 9e3f 6d41 c63f b392 c83f
000001d0: 0fb6 ac3f 86ec ce3f dffb 853d f879 b23f
000001e0: fbbf c23f b01a b43f 71da d63f 789e 383f
000001f0: b5f6 be3f 5664 6b3e f0e6 2b3f 812c bb3f
00000200: 2a04 b33f 1994 bf3f b0a4 b93e 5b42 d43f
00000210: 101f 533f db9c c43f 6400 3c40 3c4e bb3f
00000220: 9324 b93d 8a40 4f3e 169c 3840 36f7 303f
00000230: f6d3 863f 5279 b73f c431 d83f dce9 cc3f
00000240: 2f0a c93f c66d b13f a71b 253f 6f3c 223f
00000250: 5a4e 983f f35c e43f 628a c53f 8a5f 873f
00000260: 99dd be3f 974b e73f 62c2 933f 80e8 2240
00000270: 3ad4 933f cd8a 6a3f 9542 bb3f 6f4f 393d
00000280: 3603 2a40 a359 de3f 244b 9f3f a666 a23f
00000290: 3774 fa3e babb a03f 4047 e73f 5b83 a13e
000002a0: eaf1 d43f 042a d33f 2b55 093f dd9e d53f
000002b0: 3315 b53f 8928 d53f 1e72 f23d 8054 f73f
000002c0: 3b87 c23f 3af8 433f 08b3 933d 393f 863f
000002d0: 7ff6 c43f 3f45 a23f 22cd c53f 8a15 8f3f
000002e0: 5496 983f 0b82 a23f b776 d23f 410a b33f
000002f0: 7c3f d93f a593 c73f da58 e63f 6a79 ae3f
00000300: beb4 c13f 0619 183f 8f1a be3f ff5f 8a3f
00000310: 2775 0340 f769 c33f 7dfc c23f afd4 d13f
00000320: e536 573f 61d8 6d3f c837 d63f a815 e93f
00000330: c79d 5c3f dc9f e03f 1311 ac3f f205 bf3e
00000340: c5ba ab3f d380 d63f f2d8 6d3f c7fe a23f
00000350: 40a7 993f 4358 613e 741b a43e 93ce d13f
00000360: 846b be3f 5bc7 073f 013b b23f d519 be3f
00000370: 1232 8e3e 825b 4f3f eaa7 dc3f 24aa d73f
00000380: 7779 bb3f f72d 553f 0d10 cf3f 00ad c33e
00000390: 1bef b83f f8f1 ab3e bd30 01bf 8761 30be
000003a0: bc49 1d3f b8ed 603f b0c4 843f 98c9 503f
000003b0: a891 5a3f 7053 2abd 4aca dc3e 7f29 de3f
000003c0: bb58 a73f 75c8 d43e 1718 333f 3557 d53f
000003d0: ec97 53be a35f b23f e3d9 813f a19e e63f
000003e0: aa36 573f d9b7 413e 7069 0a3f 8f49 0f3f
000003f0: 3496 07be e1b8 d93f 0951 bd3f 5e98 c73f
0.7965935 2.1661716 1.7876581 1.6124837 1.0229543 1.6508783 1.3165565 0.25544685
0.20454742 1.489358 1.5445355 1.6727508 1.6439732 1.4329267 1.6498876 0.28546685
1.3421477 2.001167 1.5325856 0.7253207 1.1713626 0.684176 1.7569696 0.20833336
1.4556637 1.3131431 1.5836592 0.74572164 1.5812628 1.9052596 1.4954964 1.7909974
1.3865983 1.5258665 1.3298283 1.1221124 1.371846 1.4243957 0.24999578 0.7992718
1.5561539 2.0892088 1.4889395 0.34136263 1.5134983 0.7783645 0.3179536 0.6160596
1.5399276 1.63805 1.4507716 1.4853413 1.5482512 0.75916135 1.7926286 2.0759625
1.5091206 1.5114259 0.7944928 0.49600783 1.2091718 1.3642368 0.8498401 0.22263676
1.557299 -0.0251253 1.1133237 1.6815447 1.5443939 1.4801433 1.5079154 0.65311784
1.0473282 1.7472767 0.549939 1.0279218 1.0548832 0.46806207 1.6827304 0.29241168
1.5630221 1.1130811 0.44388303 0.531346 1.5538331 0.67872185 1.1974915 0.7773861
1.3542416 0.64277196 0.8412633 1.5678152 1.1944174 0.6460933 1.0678203 1.5341607
1.5968188 1.8126776 1.525196 1.4725655 0.13579135 0.81731796 1.7533512 -0.047844745
0.21391672 0.29906228 1.4392676 -0.07921752 1.2176328 0.54778045 -0.12836166 0.53161687
1.8266811 1.2381482 1.5488716 1.5669769 1.349306 1.6165931 0.06542181 1.3943472
1.5214838 1.4070644 1.6785413 0.72116804 1.4919039 0.22987494 0.6714926 1.4622957
1.3985646 1.4967071 0.3625846 1.658275 0.8246927 1.5360368 2.9375238 1.463325
0.09040179 0.20239463 2.8845267 0.69127214 1.0533435 1.4333899 1.6890187 1.6008868
1.5706233 1.3861625 0.6449532 0.63373464 1.1898911 1.7840866 1.5432856 1.0576031
1.4911376 1.8069943 1.1543696 2.5454407 1.1549141 0.91618043 1.4629694 0.04524177
2.656446 1.7371105 1.2444806 1.2687576 0.4891679 1.255729 1.8068619 0.3154553
1.6636326 1.6497197 0.5364558 1.6689106 1.4147094 1.6652995 0.118381724 1.9322662
1.5197519 0.7655064 0.07211882 1.0488044 1.5387725 1.2677382 1.5453227 1.1178448
1.1920877 1.2695936 1.6442479 1.3987504 1.6972499 1.5591933 1.7995865 1.3630803
1.5133283 0.5941318 1.4851855 1.0810546 2.0540254 1.5266713 1.5233303 1.6393031
0.8406814 0.92908293 1.6735773 1.8209734 0.8617825 1.7548785 1.3442711 0.37309223
1.3416373 1.6758064 0.9290916 1.2734002 1.2004166 0.22006325 0.32052195 1.6391166
1.4876561 0.5303857 1.3924257 1.4851633 0.27772576 0.80999005 1.7238743 1.6848798
1.4646443 0.8327326 1.6176773 0.38217926 1.4447969 0.33583045 -0.50464994 -0.17224704
0.61440635 0.8786273 1.0372524 0.8155761 0.85378504 -0.04158348 0.43123084 1.7356414
1.3073953 0.41559187 0.69958633 1.6667238 -0.20663422 1.3935436 1.0144619 1.801716
0.84067786 0.18917789 0.54067135 0.55971617 -0.13240892 1.7009546 1.4790355 1.5593374
