TFPORL-main/pomdp-discrete/logs_results/mini-cage/final/standard/mlp/seed-4/save/agent_0008000_perf-24.517.pt (torch, 850122 bytes, 20 tensors)

critic.observ_embedder.fc.weight f4 [64, 78]
00000000: 81a2 15bb 503f 5b3c 5b08 dcbd b37e 86bd
00000010: d74f 2cb9 5760 1d3d 3bc3 523e e20e 233d
00000020: 2fcb 02ba a030 043d 6986 15be 8f08 38be
00000030: 4972 413d 8f25 bfbd 069d 333e 080f cd3d
00000040: e165 743d 75c7 84bd 32de eabc 8e02 d6bd
00000050: 6077 a33b bf45 26bd b78b d43d 609d ac3b
00000060: e9b1 c53d 9ac6 1f3c 2ebc 99bc c858 123d
00000070: a019 233d 9c38 b4bd 0399 f73d ee27 0b3e
00000080: aed7 cdbb a524 8e3d a022 1f3e e19c b83d
00000090: 8881 01bd f07e f8bb 8eb4 273e ac2c a8bb
000000a0: b89b d03c 4670 53bd 0c22 223e e97a 1f3d
000000b0: 56f1 253c d70e acbd 0f26 a7bd 932f 82bd
000000c0: fa82 6b3d 3b19 82bd f7d5 e6bd a8a0 8bbd
000000d0: 5a02 bd3d d005 bdbc 121b 42bd 20a0 583c
000000e0: 318d 633d fe8b cd3d 0ba7 643c a4d3 803e
000000f0: ecec 5bbd b0c4 81bc b095 d33c 271a 54bc
00000100: 4fbc 88bc b4d7 8c3d d1d3 6f3d 632a 843c
00000110: 3222 99bc 2fa6 6a3c 5758 853c 6a08 cbbd
00000120: 2614 72bd 7077 5abd 6b36 33bd bb92 863d
00000130: 8261 9a3b 7c6b 743d c675 7e3d a125 bcbd
00000140: 0d16 c3bd b541 d63d bcd9 a739 b7ab 8dbe
00000150: 8305 e1bc 2bfe 983d 9c98 f5bb c0e5 aabc
00000160: df1e b4bc 4162 06bd 7241 0abd 69b0 48bd
00000170: 6b62 373e 533e d73d a9fc cc3d cb97 41bd
00000180: 9caa 64be 631f 633d 28ae df3d e2e7 a8bd
00000190: bef6 afbc d38b c63d 711d b53d ea6d 31bc
000001a0: 145b 24bd 340c aa3c bbdc fcbd dabf 0ebd
000001b0: 24ea 8a3c 09bc 8c3d 5b7b 703d be04 1d3b
000001c0: 9c06 72be e428 94bd de06 4b3d 003d 01be
000001d0: b5b4 d93d 7091 a3bd 3f23 dcbc b876 3abe
000001e0: 582a acbd 5804 cabe d085 973c bcb3 45be
000001f0: 5fc7 9c3d acf0 9abe 984d a53b d883 6abd
00000200: 50a1 963d 8c9f 103e 9bda dabd 7457 0f3d
00000210: 6b6b 9cbc 81c1 4f3d 59d0 203d b6d8 bbbb
00000220: fda0 b93d 56c6 5f3d be01 fe3c 96c6 653d
00000230: 8879 343d f50e fa3c 882c cf3b 0a8b 493c
00000240: 85b6 b33d 4913 463d b754 98be e79f 3fbc
00000250: c0f5 113d 3868 0c3d 3387 b4bb 0c06 353d
00000260: f3b9 bfbd eb28 df3b 69c2 3e3d 754e 7f3c
00000270: 20a1 8e3d 3b48 b63d 547f 863d 6729 ff3b
00000280: 35b7 c3bd 0577 6d3e af47 12bf b889 863c
00000290: 887b 5cbd 38c6 d23d 3bd3 973d 7ee8 bd3d
000002a0: fee7 473c 4691 ec3c c7ed 933e 4a06 fe3c
000002b0: 2159 a73d 5f2d a9bc 6999 113e d066 353c
000002c0: c502 e33c dfcd 3f3b dffe de3c 1b22 cf3d
000002d0: 1398 583d ca9a 27bc 9176 82be 896a 64bd
000002e0: 62a7 58bd 7074 a03d 156a c1bd 0686 85bd
000002f0: d327 d03c f29e 96bd 2a4f 14be d0cc 243e
00000300: 1fac e1bb bd55 113d 0e64 d43d d920 ab3c
00000310: c282 90bb 5d47 1c3d dd5d d23c 5e43 05be
00000320: 8c17 a33b cc27 e63d 1526 64bd 507d dcbd
00000330: e376 963b dbda 7d3d 06ab a3be 02c9 26be
00000340: eab9 2abe b98d 543c e1e9 203d ab05 813b
00000350: 9906 3ebd f77e bc3d 63f9 083d 9e14 943d
00000360: d1b4 2e3d 795a 0e3d ca9d 0d3d 5015 753c
00000370: 9411 f13c e427 67bc 51d4 09be 9824 d23c
00000380: 9672 083e e7b0 72bd fecb 653d 4d0c d0bd
00000390: 3fa0 31bb 2979 953d ffb2 333d 1189 1ebb
000003a0: 2e58 11bc c125 b03c 1655 b1be 05df 373b
000003b0: d37d 9dbd 4183 c4bd a34d 7f3d 1d2c 2cbe
000003c0: 055e 123e dff9 7e3d d65f c4bb 1c9d 41be
000003d0: caca 63bc 9b3f e03d 4c23 2bbd e604 f3bd
000003e0: 91d0 8fbd a11c db3d 5387 5bbd 785f 373c
000003f0: 8e6d 9dbd 8f5c d1bc 36b6 c1bd b535 c4bd
-0.0022832456 0.013381794 -0.10743781 -0.06567135 -0.00016432941 0.038421955 0.20582287 0.039809115
-0.0004989383 0.032272935 -0.14602055 -0.17972015 0.04722813 -0.093333356 0.17540368 0.100126326
0.05966747 -0.06483356 -0.028670404 -0.10449706 0.004988596 -0.04059386 0.10378211 0.005267784
0.09653074 0.00975194 -0.018766489 0.0357292 0.03981936 -0.0879986 0.120897315 0.1358945
-0.0062818145 0.06940583 0.15540552 0.09014297 -0.03161767 -0.0075834915 0.1637747 -0.0051322784
0.025464877 -0.051620744 0.158333 0.038935576 0.01012834 -0.08401268 -0.08161556 -0.0635673
0.057497956 -0.063524686 -0.11271279 -0.06817752 0.09228964 -0.02307406 -0.047389098 0.0132217705
0.055554572 0.10036467 0.013955842 0.2516147 -0.053692743 -0.015840858 0.025828212 -0.012945688
-0.016691355 0.068770796 0.058551613 0.016133493 -0.018693063 0.014321848 0.016277475 -0.09913714
-0.059101246 -0.05333656 -0.04375307 0.06570955 0.004711331 0.059672818 0.062124036 -0.09186865
-0.0952569 0.10461751 0.00032014947 -0.2767007 -0.027468449 0.07470354 -0.007494999 -0.020861506
-0.021987377 -0.032808546 -0.03375382 -0.048996363 0.17908637 0.10509934 0.100091286 -0.0472639
-0.22330707 0.055449855 0.109218895 -0.08247353 -0.02147996 0.09694638 0.08843506 -0.010829428
-0.04012592 0.020757772 -0.123467885 -0.034850933 0.01695735 0.06871802 0.05871139 0.0023959125
-0.23635334 -0.07234362 0.049567096 -0.12620926 0.1063017 -0.079867244 -0.026872275 -0.1820935
-0.08406514 -0.3945644 0.018496424 -0.19306844 0.076552145 -0.30261743 0.0050446503 -0.057254642
0.07354987 0.14123362 -0.10686227 0.03499551 -0.01909419 0.05072165 0.039261196 -0.005732621
0.09063909 0.054632507 0.03100669 0.05609759 0.044061214 0.03052471 0.006322447 0.012301216
0.08775047 0.048358236 -0.29752132 -0.0116958385 0.035634756 0.03427908 -0.005509281 0.04419522
-0.09361639 0.0068102977 0.046572123 0.01558267 0.06964326 0.089004956 0.06567255 0.007786918
-0.09556428 0.23189934 -0.5714063 0.016423091 -0.053828746 0.102917135 0.07413336 0.0927286
0.012201307 0.028877866 0.28892347 0.031008858 0.08171297 -0.020651517 0.14218678 0.011071876
0.027711282 0.0029266996 0.027221141 0.10113927 0.052879404 -0.010229776 -0.25481084 -0.055765662
-0.052894004 0.07834709 -0.09444062 -0.065197036 0.025409615 -0.07354535 -0.14483324 0.16093755
-0.0068869735 0.035482157 0.103706464 0.020889686 -0.004410119 0.038153995 0.025679523 -0.1301398
0.0049771722 0.112380594 -0.05570038 -0.10766089 0.004591809 0.061976295 -0.31966418 -0.16287616
-0.16672483 0.012973242 0.039285544 0.0039374433 -0.04639301 0.09203904 0.03344096 0.07230495
0.04265291 0.03475425 0.034574308 0.014958695 0.029427327 -0.014108632 -0.13459899 0.025652215
0.13324961 -0.05925074 0.056102745 -0.10158596 -0.002710357 0.072985 0.043871876 -0.0024190585
-0.008871121 0.021502377 -0.34635228 0.0028056514 -0.07690015 -0.09595347 0.0623299 -0.16813703
0.14293678 0.062250014 -0.00599287 -0.18907589 -0.013903329 0.10949632 -0.04178171 -0.11866169
-0.07022203 0.1069882 -0.053595852 0.011192195 -0.076869115 -0.02555683 -0.09458582 -0.09580556

critic.observ_embedder.fc.bias f4 [64]
00000000: f351 15be bdc7 a93d 6b90 c73d 1444 ec3c
00000010: e948 8a3e 7efa 9dbd c6af a9bd f256 27be
00000020: 6bd6 ae3c d8da 8cbd 10e3 d3bc ae65 83bd
00000030: c7ee 093e dbde 67bd c98b 893a 056d 353d
00000040: 9784 0b3d 4336 fcbc c89f b5bd 41dc af3d
00000050: c402 ab3d a367 57bc 0048 2fbe c7db efbd
00000060: 4cc0 b93c 6be4 93bd 3e2e 10be 74df 2bbd
00000070: 11e8 70bc bd6a bdbd e3a5 c9bd 22aa 6e3e
00000080: 3e0e 343e 6af4 913d 10ce de3d 7ba4 c6bd
00000090: e793 0c3d 2d74 383d c943 1abd afa0 e63c
000000a0: 8f7d 1bbc ba14 c43d 1553 db3c 6996 5d3d
000000b0: 19af 1e3e f298 233d 8f33 c73d ead1 313d
000000c0: 63ff 393d a809 323e 093e 193d 4944 8d3b
000000d0: d5c1 423c fba7 bebd 3b1f 12be 0f18 b43c
000000e0: 14ac a7bb bf54 5b3e e741 d0bd d7ea a53d
000000f0: 1611 e6bd 1666 dc3d 243e 96bc 56d8 013e
-0.14582042 0.0829005 0.097443424 0.028841056 0.2700875 -0.07713793 -0.08285479 -0.16341761
0.021342477 -0.06877679 -0.025865108 -0.06415878 0.13469993 -0.056609016 0.001049393 0.044293422
0.034061994 -0.030787593 -0.088683665 0.08586932 0.08350137 -0.0131472675 -0.1711731 -0.11711841
0.022674702 -0.07221302 -0.1408014 -0.04196115 -0.014703766 -0.09248874 -0.098460935 0.23307088
0.17583558 0.071266964 0.10879147 -0.09699341 0.03432074 0.04503267 -0.0376623 0.028152792
-0.009490385 0.09574266 0.026773015 0.05409852 0.15496482 0.039940782 0.09726631 0.04341308
0.04540957 0.17386496 0.037412677 0.0043111187 0.0118870335 -0.093093835 -0.14269726 0.021984128
-0.005116949 0.21419047 -0.1016882 0.08101433 -0.11233728 0.10761659 -0.018340178 0.12680182

critic.seq_model.model.0.weight f4 [64, 64]
00000000: 7251 913d 336b 35be 2895 db3c 0953 0f3e
00000010: 1160 6fbe ef18 62be 267d 06bd b2a5 f63d
00000020: 4e0e 6ebe 32e1 4abe 84c0 7cbd 223d cb3c
00000030: 2403 17be eb5f 373e d216 013e ba86 f7bd
00000040: bff9 2e3d 6122 88be e660 5d3e 3e04 413d
00000050: 8329 473e 2322 29bd b6c1 433d b475 23bd
00000060: eb01 24be c4eb 0b3d e470 563e 7dc2 28bd
00000070: 38ef ba3d 5e98 d73d 94f3 b8bd 4b48 fdbd
00000080: 078f d63d 084e 98be ef05 443d aebb 7ebd
00000090: b46e ba3b fee7 b33c e13e 073d b06a e93b
000000a0: 9ed0 49be e1d8 61bd 6262 da3c 68b1 cf3d
000000b0: 62d5 183d c9f5 cabb 1935 04bd b2c2 91bc
000000c0: 1a6d 47bc 3d0d febd bd74 323d 39b5 a6be
000000d0: a14c d3bb 83d9 d23d 37ec 86bc c2d8 8bbe
000000e0: 8066 88bd 4da2 46be 00de ee39 19cc cdbc
000000f0: 7b53 d0bd 9077 1c3e 9db6 223d f740 93bd
00000100: 2d06 d53d f0da 48bb afde f13d 326b a43d
00000110: bdd5 8b3e de4c 62ba 9818 e13d e393 36bd
00000120: cc17 3ebd 5ba7 4abc 5d2c 84bd 6f0b 0c3c
00000130: 7574 89bd 2484 9f3d b94e 2f3e 78b5 d5be
00000140: 2acb f9bd 89e7 24be 91e2 983b 46af c03d
00000150: e3be 61bd 0a2f 0d3e af99 203e e1d4 1c3c
00000160: 136f 4b3d c1d4 26bc b539 8b3d aff8 9ebd
00000170: eb31 b9bd 54ba d73d 0c42 8b3d 5968 553c
00000180: b7cb a9bd 1a97 9a3d 033d 1c3d f797 aebd
00000190: 189a 00be a02c 053d f5bc a23d 1758 3d3e
000001a0: 981a f5bc b10e e73d d012 85bd bd4a 0bbd
000001b0: 9677 d6bd 09e4 073d 4873 6b3c 6f30 0fbd
000001c0: 51a9 daba dba3 2abf c6b4 573e 2f8b a5be
000001d0: c27e cb3d bc47 51be 713d 513e 4317 84be
000001e0: d0b7 aa3d ea43 e6bd 4247 db3d 44ee 543d
000001f0: e70a 143d d3d8 3cbd e106 8c3d e474 d7bc
00000200: cf0a e23d 2f33 f83d d655 0a3d 6a41 26bd
00000210: 20f0 03bf bdf4 0d3e 6857 65bc b3ed 123d
00000220: a8d5 a63d 7409 2c3e 96b2 a9bc 9584 f7bd
00000230: 6a1c 13bc 2abd 153d f11d 37be 888d 0cbf
00000240: 3385 88bc 761e 42ba 21df 87bd d710 843d
00000250: 2d5a a9bc dfba 233e 864b 943d 081e 77bd
00000260: d3f2 153e 035a ef3d db1a 43be 9984 b63c
00000270: c863 5cbd a604 293d d3ba 023e 747e 18be
00000280: e577 63bd 0409 163d aee0 083e 4a21 833d
00000290: 301a c4be eaf7 f5bd 2eea e23d f6c9 bfbd
000002a0: cf9a 13bd 2854 97be 6a32 0abd 6f59 05be
000002b0: 6ad4 35bd 827d 333d bf62 a53d a043 fd3d
000002c0: 2995 093d b67d 4ebf 9c2f 82bd 18a4 753c
000002d0: 0752 1a3e 867e bb3c 280b 233d 10b0 0cbe
000002e0: c7c4 4abd 498e 0cbd 12b9 003d dce1 8f3d
000002f0: a529 e9bd e29c 4cbe 11af edbd 84f6 1b3e
00000300: d470 093e b679 b4bd ffcb ba3d 3799 c23c
00000310: 083e c5be df68 88bd 2e3a 563d c918 8d3d
00000320: 340e b93d 0173 4abd 9106 89bd ee59 e4bd
00000330: ced6 bc3d 9e3d e43d a5f6 7c3d aba6 0bbe
00000340: e74d cfbb 5b87 04be efb1 31be aa98 d3bd
00000350: f536 313d cbf4 00be 9c3f 4b3e 8050 413d
00000360: 25e4 52bd e109 6f3d 3a26 b73d ec57 983c
00000370: c369 d9bd 0e76 68bd b81f 21bd 0523 67bc
00000380: 2683 df3d 363d 0c3e cd5c 5a3d 1603 d0bd
00000390: fbdf f1bc f197 253e f4f0 bc3d 98fc 153e
000003a0: d261 f6bd 6066 95bc d7c4 97bc 3417 d33d
000003b0: 06df 243e db7b b3bc dd19 9c3b 3c21 a8ba
000003c0: bd9f ed3c 9f7b 9bbd c908 ca3d 5444 e6bd
000003d0: 680c a9bd cf84 8ebc cf30 273e 7486 89bd
000003e0: 546a c43c 54d3 84bc f9f9 7cbd 52f4 8dbd
000003f0: 7aba afb8 3ecc 89bb 794c 013e e521 3a3d
0.070956126 -0.17716675 0.026804522 0.13996519 -0.2337649 -0.22079824 -0.032834195 0.120433226
-0.23247644 -0.19812468 -0.061707035 0.024809424 -0.14747292 0.17907684 0.12606362 -0.12086244
0.042718645 -0.2658873 0.21618995 0.047123186 0.19449429 -0.04129232 0.04779216 -0.039907172
-0.16016357 0.03416039 0.20941502 -0.041201103 0.091276586 0.105271086 -0.09030834 -0.123673044
0.10476499 -0.29747033 0.04785722 -0.062190704 0.0056894664 0.021961208 0.03301895 0.007123314
-0.19708487 -0.055138472 0.02665824 0.101412594 0.037312873 -0.0061938507 -0.0322772 -0.017793033
-0.012172008 -0.12404869 0.04356836 -0.32560137 -0.006448344 0.10295393 -0.016470058 -0.2731381
-0.06660175 -0.1939785 0.000455603 -0.025121735 -0.10172173 0.15279984 0.039724935 -0.071901254
0.104015686 -0.0030648075 0.11810052 0.080282584 0.27311507 -0.000863267 0.10991019 -0.04457463
-0.046409413 -0.012369002 -0.06453774 0.008547648 -0.067116655 0.07788876 0.17119874 -0.41740012
-0.121969536 -0.16103949 0.0046656807 0.09408431 -0.055113684 0.13787475 0.15683626 0.009572239
0.049666476 -0.01018256 0.06798116 -0.077622764 -0.09042724 0.10533586 0.06799707 0.013025367
-0.08290809 0.075483516 0.038144123 -0.08525079 -0.12558782 0.03251326 0.07946197 0.18490635
-0.029919907 0.11282099 -0.06497729 -0.034006823 -0.10472028 0.033176456 0.014370747 -0.0349583
-0.001668254 -0.66656274 0.21065053 -0.3233275 0.099362865 -0.2043752 0.20433594 -0.25798997
0.08335841 -0.11243422 0.10706951 0.05198504 0.03614321 -0.046105217 0.068372495 -0.026300855
0.11037218 0.121191375 0.033773266 -0.040589727 -0.51538277 0.13862891 -0.01399789 0.03587122
0.081462204 0.16800481 -0.02071504 -0.12085835 -0.008978942 0.036557354 -0.17882515 -0.5490346
-0.016665077 -0.0007405052 -0.06634355 0.064485244 -0.020672882 0.15989254 0.072409675 -0.060331374
0.14643411 0.1168709 -0.19053213 0.022280024 -0.053806096 0.0412642 0.1276658 -0.14891988
-0.055534262 0.03662969 0.13366958 0.06402834 -0.3830123 -0.120101765 0.110798225 -0.09364693
-0.03603631 -0.29556394 -0.033739485 -0.13022397 -0.044392027 0.043820865 0.08075475 0.12366414
0.033589516 -0.8066057 -0.06356737 0.014992736 0.15070353 0.02288748 0.03980556 -0.13739038
-0.049504068 -0.03431538 0.031426497 0.07025501 -0.11384896 -0.19981721 -0.11605657 0.15230757
0.13421947 -0.08812277 0.091209404 0.0237547 -0.3852389 -0.066606276 0.05230158 0.06889493
0.09035912 -0.049426083 -0.066907056 -0.11149965 0.09220658 0.11144565 0.061758656 -0.13637798
-0.0063264254 -0.12942259 -0.17353033 -0.10331853 0.0432653 -0.12593381 0.19848484 0.04719591
-0.051487107 0.05835903 0.08942838 0.018596612 -0.106158756 -0.05675321 -0.03933689 -0.01410747
0.109136865 0.13695225 0.053311158 -0.101568386 -0.029525748 0.16171242 0.09225646 0.14647138
-0.120303765 -0.018237293 -0.018526478 0.1030716 0.16100702 -0.021909645 0.0047638253 -0.0012827287
0.029006833 -0.07591938 0.09864957 -0.11243501 -0.082543194 -0.017397312 0.16327213 -0.06715098
0.023976482 -0.01621405 -0.06176183 -0.06931366 -8.379384e-05 -0.004205256 0.12626828 0.04544248

critic.seq_model.model.0.bias f4 [64]
00000000: 1822 32bb f9f7 08bd b30d fbbd 5656 083e
00000010: f7ab 5dbb e733 253d 00fc a83d 3d0f df3b
00000020: 22bc fd3c e2d4 e73d 9f1f 013e 6292 4bbd
00000030: 034f fb3d 97f5 163e 31cb 123e 81de 013e
00000040: 8b4c d6bd ee53 943c c578 9bbd bc4b 42bd
00000050: 37c1 96bd 62ae ed3d d79a 563d 4935 013e
00000060: 7b0c cabc 342f 9a3d 6e8e 05be b335 8b3d
00000070: 5309 1f3e 1ea7 89bd 61bf b6bd bf1e 94bc
00000080: 897a 093e e06a 4c3d 4590 213e e4f7 013d
00000090: 055a 663d 0abb 173e 6c5e 283d 312f eabd
000000a0: f91a f63d 8db3 23be 4f2d cd3d b331 0e3e
000000b0: 9b7e 4f3d a690 64bd e145 b83d 4981 5b3d
000000c0: 7b18 993d c440 123e e16b 2f3e caa8 a03c
000000d0: d1c5 0f3e c4be cb3d 7ae9 243e f8d7 f83d
000000e0: de4c 0bbd f863 d3bc 389f a93d c254 7fbd
000000f0: 98e9 b3bc c06e 3bbd 1012 033e c82f 52bb
-0.0027180966 -0.03343961 -0.12258472 0.13314185 -0.0033824423 0.0403327 0.0825119 0.0068072365
0.030973498 0.11319901 0.12609719 -0.04970015 0.1227093 0.14742123 0.14335324 0.12682535
-0.10463818 0.018106427 -0.07591394 -0.047435507 -0.073610716 0.116055265 0.05239376 0.12617983
-0.024664154 0.075285345 -0.13042614 0.06797352 0.155309 -0.06721328 -0.089232214 -0.018081067
0.1342565 0.04990661 0.1577769 0.031730548 0.056238193 0.14817443 0.041105673 -0.11434782
0.120168634 -0.15986462 0.100184076 0.13886146 0.05065785 -0.05580201 0.08997703 0.053590093
0.074753724 0.14282519 0.17130996 0.019611735 0.14040305 0.09948495 0.16104689 0.12150568
-0.034008853 -0.025804505 0.08282322 -0.06233669 -0.021961972 -0.045759916 0.12799859 -0.0032071937

critic.qf.fc0.weight f4 [256, 64]
00000000: 8ddd b3be c792 743d 34b6 8ebe a76b 94bd
00000010: 3484 adbe 850b d6bd ae62 0b3e 557c 6abf
00000020: ec55 3dbf 1909 d83c 9084 3bbd cc4a 95bd
00000030: 1e99 083e 6460 14bd 1b6a 5a3d b224 febe
00000040: c645 3bbd 31f3 aabd aac5 273d 6e4c 3c3c
00000050: bd27 8d3d 266c 2d3d 11b6 aabe 5ccd 4c3c
00000060: cd43 153d cf06 ae3c aa87 11bd 266b 6c3e
00000070: 10f9 dbbd 649e 383e 3d40 bcbe 1874 d43d
00000080: 75e0 b33d 1c6c ca3d ee30 16bd ee88 65be
00000090: ce6d 283d 6e51 c43e a4e7 f0bd 30f4 223d
000000a0: 57c8 98bd f8eb c3bc f10a 20be 15cc e0bd
000000b0: 9084 8f3d a653 dcbc e45a a13d 7a1e 2abf
000000c0: afdd 0d3e 36a0 113c d351 99be 56ba e7bd
000000d0: 8387 87be 61d4 99bc 4839 e63c ed48 1d3e
000000e0: 24d2 9e3e 9a99 76bd 3e2a 153e 6886 4ebd
000000f0: 267b 03bd a614 23bd 962c c5bd 1609 f93d
00000100: f2ee 543d 06aa 033e 88e5 d2bb 3110 c93d
00000110: aeb7 203d 60cb 15be 5748 d33d f50d b8bd
00000120: b93b 57be 878d 8a3d 5dde 873d 7491 453d
00000130: 989d b63d 02e1 19be eaf8 893c adc7 37be
00000140: 7f0e a2bd 889d 01bd e6d8 fabc f80e 75bc
00000150: 2f4a 753c b51a c43c 3461 46bd d67e e73d
00000160: 7286 a6bd 9f68 91bc 8b52 1f3d 16c3 d2bd
00000170: 7846 8abc 2024 383c 862f 6bbc 47d3 ff3c
00000180: d31f 153d a230 b43d 9500 863c 8af5 4d3e
00000190: 27b3 933d e884 2fbd 55df a8bd f33c 483e
000001a0: 9464 d8bc a1bf 5abd f2e8 1abd 3161 2c3d
000001b0: a98d 51bd f884 863d bfd4 77bc c5fc 003e
000001c0: 6821 18bc b6ff 373b 9415 c7bd d521 04bd
000001d0: 8191 103d 8ac7 e13d 235b 733d 4c76 133d
000001e0: 72e7 36bd 7dcd c5bc 6857 ecbc 7039 ae3c
000001f0: 4505 0b3d bb11 c43d f7c1 db3d 5823 aabc
00000200: cf42 093d 461b b03d 1b49 a9bd 94a9 773b
00000210: a917 083d af73 38be de0e 213d 162e d6bd
00000220: de2d 91be fce4 b73d 5757 1d3b d156 5e3d
00000230: 6a0b 65bd 2351 85bd f125 cb3d 8433 9dbe
00000240: 419d 1dbe a0b0 013e a7a7 763c b59c 2e3d
00000250: 97e2 9bbc b15f ebbc e57f a63d c440 eb3c
00000260: 174a d5bd 0068 df3b 16b4 f83d 06cc 8ebd
00000270: 265f ba3d 2ee6 463d d9d6 ba3b 9160 a4bd
00000280: af60 29bd a07b dfbc 25fe 873a b5de 5d3e
00000290: e9c7 69bb 39d6 7fbe c444 00be b447 253e
000002a0: ed03 c63d 5194 1fbd fd01 a93d 6eb6 93bc
000002b0: d0ab a3bd d50b e53c 08b5 9d3d c2d6 f83d
000002c0: 6d69 1fbd a5bf b23d 74e6 0bbe ab0c e23c
000002d0: 3eb0 c1bd 08ec 6cbc 2616 b13d 61dc ec3c
000002e0: d6f9 8bbd ecbc 1abc b567 24bd ab88 6fbd
000002f0: 060a afbc 8c6b 413d 9929 973d 9ea3 ecbd
00000300: d2ab f13d 3600 bd3c 2de6 a1bd 1148 c23c
00000310: d234 39bd f6ca 71be 1da6 623d 072a 5dbd
00000320: b5a0 a7be fad0 9b3d 141c 0cbd 853e cbbc
00000330: dc7f bc3c db8e 50bd 5c22 b43d df5e 4bbe
00000340: 638a 00be 83b2 553d e149 a6bc 1a3c b33c
00000350: 4213 dc39 4d38 3e3d 9df1 c83c a3d8 74bc
00000360: 4bcc ffbd b64b 953c 3361 033e ffb0 17bd
00000370: 354d 72bc 7674 5ebb 2864 a6bd cbaa 6cbd
00000380: 2fce cf3c 1d53 74bd 9f10 ac3c a049 4e3e
00000390: 3bc3 c1bc 41b2 3fbe fcba 73bd 88d6 b73d
000003a0: 72aa 3e3d 45e5 b4bd 14c3 a43d 3d5d 4e3c
000003b0: ca77 e8bd 9c83 07bd 24b4 923c 679e fd3d
000003c0: bc71 603c 5267 9e3d 7d41 61be f784 b03d
000003d0: 4c84 a2bd 8d3b ab3d 7363 8c3d 90f7 453d
000003e0: 22ce 54bd b075 6ebd c6cf 5f3c f74c 00be
000003f0: b84f 083d b6cc a23d 5fe5 973d 8e16 8dbc
-0.35129967 0.05971029 -0.27873385 -0.072470956 -0.33889925 -0.10451416 0.13611862 -0.91595966
-0.7395923 0.026371526 -0.04578072 -0.07289657 0.1333966 -0.036224738 0.053323846 -0.4963737
-0.045720838 -0.08347166 0.04095999 0.011492832 0.06892345 0.042339467 -0.3334203 0.012500133
0.036441613 0.021243481 -0.03552977 0.23087749 -0.10740864 0.18029171 -0.3676776 0.103737056
0.08783046 0.098839015 -0.036667757 -0.22415516 0.041120343 0.38343376 -0.11762932 0.039783657
-0.07460087 -0.02391623 -0.15629174 -0.109764256 0.07007706 -0.026895355 0.07878664 -0.66452754
0.13854097 0.008888295 -0.2994524 -0.11314838 -0.26470575 -0.018778028 0.028103486 0.1535985
0.310197 -0.06020508 0.14566895 -0.05042115 -0.032099865 -0.039814614 -0.09627645 0.12159936
0.05198569 0.12857828 -0.0064360537 0.098175414 0.03923767 -0.14628363 0.10316532 -0.08987037
-0.21018876 0.067652754 0.06634209 0.048234418 0.08916777 -0.1502724 0.016842324 -0.17947264
-0.07912921 -0.031644374 -0.030621003 -0.014957182 0.0149713 0.023938516 -0.048432544 0.11303489
-0.08131112 -0.017750083 0.03889708 -0.10291116 -0.016879305 0.011239082 -0.014354592 0.031228675
0.036407303 0.087983385 0.0163577 0.20113197 0.07211905 -0.04285136 -0.08245722 0.195545
-0.026415147 -0.053405408 -0.03781981 0.042084876 -0.05116049 0.065683305 -0.015126406 0.12596424
-0.009285308 0.0028076 -0.097209126 -0.032258827 0.035295013 0.11024387 0.059413087 0.03600149
-0.044654317 -0.024145836 -0.028850272 0.021267623 0.033940572 0.09573694 0.10730355 -0.020768806
0.03351098 0.08598952 -0.08265897 0.0037790285 0.03322569 -0.1801288 0.03932082 -0.10458009
-0.28355306 0.08979222 0.0024008357 0.054282013 -0.05591909 -0.06509616 0.09919346 -0.30703366
-0.15392019 0.12665033 0.01505462 0.042629916 -0.019028945 -0.028732153 0.08129863 0.028717406
-0.10414522 0.0068178177 0.12143724 -0.06972508 0.091001794 0.04855936 0.0057018814 -0.08026231
-0.04135197 -0.027280629 0.0010375424 0.21666987 -0.0035672134 -0.24984063 -0.12526232 0.16140634
0.096687175 -0.038959805 0.08252332 -0.018031325 -0.07991755 0.027959744 0.077005446 0.12150337
-0.0389189 0.087279595 -0.1366213 0.027593931 -0.09457444 -0.014460571 0.086468026 0.028913679
-0.06834762 -0.009444457 -0.040137965 -0.058479946 -0.021367084 0.047221705 0.07380981 -0.11554645
0.1180035 0.02307139 -0.07905231 0.023716005 -0.04521639 -0.2361258 0.0553342 -0.05399516
-0.32739797 0.076082185 -0.034206465 -0.024810085 0.023010187 -0.050917488 0.08795616 -0.19860409
-0.1255279 0.052172195 -0.0202989 0.021879245 0.00041976018 0.04644041 0.024529273 -0.014944228
-0.12490138 0.018224578 0.12830047 -0.03703403 -0.014788915 -0.0033943928 -0.08124572 -0.05778007
0.02536687 -0.059649576 0.02100402 0.20145273 -0.023652663 -0.18720342 -0.059504494 0.089764655
0.046549268 -0.08832792 0.08045021 0.012595472 -0.11350973 -0.033084497 0.017908163 0.123837285
0.013698991 0.077345505 -0.21997638 0.08619111 -0.0793539 0.08360968 0.06854906 0.048331797
-0.051954396 -0.058217704 0.013660377 -0.1252936 0.03327915 0.07949202 0.07416796 -0.017222669

critic.qf.fc0.bias f4 [256]
00000000: 8bb6 c53d 3625 543e efc2 503e 415d 453e
00000010: b817 3c3e 82d6 2f3e 54ec 3d3e 9d2a 443e
00000020: c936 2c3e 6513 db3d 8fa6 3c3e 7ce7 4a3e
00000030: 7d1c 373e 214e 333e e168 413e a23b 393e
00000040: b201 453e 16f3 5f3e d6af 483e 3f3e 483e
00000050: 97ea 483e b6b2 3e3e 547d 343e c568 213e
00000060: cc99 493e 94ea 283e 5239 883d 9a2e 413e
00000070: 596b 503e f8ea 2c3e f1bf 303e 9d96 113e
00000080: 9aff 363e 51c9 553e abc9 3a3e 63d0 443e
00000090: f4eb 2a3e 1c88 7a3e 3f89 583e 4d69 3c3e
000000a0: 0eb1 3b3e 9780 223e 4816 543e a9ff a43d
000000b0: 0f9b 493e b7c9 0b3e 98bf 4e3e 5a08 463e
000000c0: c70b 593e 2d2e 113e b543 923d 01e6 3d3e
000000d0: ef9e 3e3e bc1f 503e 68dd 3e3e 84c8 203e
000000e0: 6ce6 543e 27d7 1c3e 57f9 363e 3c1d 8a3e
000000f0: 8f3c 3b3e ff50 4d3e 534f 473e a3de 3d3e
00000100: 6f73 373e 8994 f43c 0182 513e b7f2 483e
00000110: 3af4 513e 87ec 503e fccb 2a3e 741e 1f3e
00000120: 288a 463e d282 4b3e c083 193d a16d 253e
00000130: 6121 e53d 0be8 4b3e 0b8e 453e 2460 2a3e
00000140: c3d9 383e 716d 4f3e 5258 553e 5329 5a3e
00000150: e3cf c73d 9ac9 0f3e b00b 4f3e a6e6 403e
00000160: 4c7d 3f3e 8c6a 3f3e d9a9 493e 621c 403e
00000170: e922 1f3e d0ec 393e bbb6 643e fa0a 443e
00000180: eb6b 443e d663 453e 516f 553e 769c 333e
00000190: 0b7b 4f3e 36f4 3c3e 9de2 4c3e eb51 213e
000001a0: 06fc 433e 80f9 303e b914 653e fb41 523e
000001b0: d884 323e 9d40 3e3e 0fdd 573e 6dfd 373e
000001c0: 24e3 533e 3310 a23d 7a28 413e 2fe5 3e3e
000001d0: feb3 523e 5f90 023e d890 633e 1dd4 4b3e
000001e0: 1a98 463e b871 283e 8402 583e 30be 513e
000001f0: 89de 3f3e 71bf 453e 53f0 413e f321 ef3d
00000200: 0ae5 543e e052 273e 825e 483e cdff d93d
00000210: c143 463e 25a8 2f3e 62e7 2e3e a0f6 403e
00000220: b98b 743e ffcd 133e 5989 4a3e 2217 b13d
00000230: 22ec 353e 9e5a 293e b1d5 3e3e 0cb4 303e
00000240: f4eb 6a3e f664 243e 639c 8a3d 3b3e 4c3e
00000250: e2d4 3d3e e1e5 5a3e 662c 2f3e 6e33 3e3e
00000260: 982f 403e cd82 503e 8f13 7c3d 4a83 213e
00000270: a051 233e 2153 593e 9d5b f33d 9d8f 523e
00000280: 921f 663e af88 0d3e c1c3 3e3e 4557 563e
00000290: 8f8a a23d 9af1 803e 7c17 483e 0d77 263e
000002a0: ae38 373e e9d4 983d 5284 2c3e e01d 613e
000002b0: 4f6a 6b3e 9bd8 193e 5243 143e 3670 413e
000002c0: 2f95 733e 44a2 873e 9d27 373e 22ef 3b3e
000002d0: 87ef d13d 8519 5b3e d6fa 413e 6957 423e
000002e0: 9736 483e a2d7 1c3e e110 e43d 3d3f 3d3e
000002f0: 726b 413e cc0a ee3d 4f57 563e c46e 6c3e
00000300: f228 b33d 6de4 6b3e 28ae e53d 7e65 923e
00000310: e957 2d3e 7619 593e 5b68 4c3e 625d 2b3e
00000320: 5de5 573e e46e 413e 9294 bc3d 11a1 3b3e
00000330: 3e5a 283e 1be0 393e 1dd6 3b3e edaa 393e
00000340: 262e 353e 0075 de3d 7a10 443e 2e0a 2e3e
00000350: 7503 3f3e 4fc6 543e f01c 193e 39f4 603d
00000360: 5b64 4f3e 216c 503e 4d7a 4c3e 6be4 553e
00000370: 347c eb3d feca 503e 5dd1 6c3e 94cd 583e
00000380: de5c 3a3e fe54 1c3e 3eb6 153e 77a2 053e
00000390: 8b29 4d3e fbec 453e bee5 4e3e 88bf 383e
000003a0: b8ba 5d3e 99d5 433e 2c3e 343e 8769 513e
000003b0: bb09 173e 78f2 f73d cdf4 2c3e 0b19 2a3e
000003c0: 5220 3b3e 43e7 b93d 4b52 1b3e 8d12 553e
000003d0: fdd8 493e d933 6e3e e087 6b3e 42f8 583e
000003e0: 944e 2f3e 9265 4c3e fce5 343e 2f46 293e
000003f0: 4a34 1a3e d4db 803e 5717 173e 1375 5a3e
0.09653958 0.2071732 0.20386861 0.19273855 0.18368423 0.17171672 0.18547183 0.1915688
0.16817774 0.106970586 0.18422912 0.19814867 0.17881961 0.17510273 0.18887664 0.18089154
0.19238928 0.21870074 0.19598326 0.19554995 0.19620739 0.1862286 0.17625934 0.15762623
0.19687575 0.16495734 0.06651558 0.18865433 0.2035345 0.16886508 0.1726072 0.1421761
0.17870942 0.20877577 0.18240993 0.19220118 0.16691571 0.24465984 0.21146105 0.18399544
0.1832926 0.15869366 0.20711625 0.08056576 0.19688056 0.13651167 0.20190275 0.19339123
0.21195899 0.14177771 0.0714182 0.18544771 0.18615316 0.20324606 0.18639147 0.1570149
0.20791024 0.15316449 0.17868553 0.2697543 0.1828482 0.20050429 0.19463854 0.1854196
0.17915128 0.029855983 0.20459749 0.19623838 0.20503321 0.20402728 0.16679376 0.1553896
0.1938864 0.19874123 0.037479162 0.16155101 0.11188007 0.19912736 0.19292466 0.16638237
0.1805182 0.20256592 0.20834473 0.21304826 0.09756448 0.14041749 0.20219302 0.18837985
0.1870014 0.18692988 0.19693698 0.18760827 0.15540661 0.18156743 0.22335331 0.19144812
0.19181792 0.19276366 0.20843245 0.17540154 0.20261781 0.18452534 0.20008321 0.15753905
0.19139108 0.17282677 0.22371186 0.20532982 0.17433488 0.18579336 0.21080421 0.17967768
0.20692116 0.07913246 0.18863097 0.18642114 0.20576474 0.12750386 0.22223222 0.19905134
0.1939396 0.1644963 0.2109471 0.20482707 0.18737234 0.1931131 0.18939333 0.11676397
0.20790496 0.16340208 0.19567302 0.10644493 0.19361784 0.17153986 0.17080453 0.1884408
0.23881425 0.1443405 0.19778956 0.0864699 0.17765859 0.16538474 0.18636204 0.17256182
0.22941571 0.16054139 0.0676811 0.19945614 0.1853824 0.21376754 0.1710678 0.18574306
0.18768156 0.20362397 0.06154209 0.15772739 0.15949106 0.21223117 0.11882708 0.20562597
0.2247298 0.13821672 0.18629362 0.20931728 0.07936584 0.25184327 0.19540209 0.16256352
0.17892715 0.074624844 0.16847351 0.21984053 0.22989772 0.15024035 0.14478806 0.18890461
0.23787378 0.26490986 0.17886205 0.1835294 0.10250764 0.21396454 0.18943343 0.18978657
0.19552074 0.15316632 0.11136032 0.18481155 0.18888643 0.11623153 0.20931743 0.23089129
0.08748044 0.23036356 0.11214858 0.28593057 0.16928066 0.21201119 0.19961683 0.16734841
0.21083589 0.18889958 0.09208025 0.1832316 0.16440675 0.18151896 0.18343396 0.1813161
0.17693385 0.1086216 0.1914691 0.1699607 0.18653663 0.20778774 0.14952445 0.05492041
0.20253126 0.20353748 0.19968529 0.20887916 0.11498299 0.20389935 0.23126741 0.21172172
0.18199489 0.15266797 0.14620301 0.13050257 0.20035379 0.19328682 0.20204827 0.18041813
0.21653259 0.1912445 0.17601842 0.20450412 0.14749806 0.12106794 0.16890259 0.16611116
0.18274048 0.09077313 0.15168111 0.20807858 0.1971168 0.23261966 0.23001051 0.21188453
0.17119819 0.19960621 0.17665857 0.16530679 0.15059009 0.25167716 0.14754997 0.21333723

critic.qf.fc1.weight f4 [256, 256]
00000000: 2eb3 563e 8018 81bd 64aa b8bc a344 783d
00000010: f53e bc3d 5a29 94bd 65fa 62bc 02d1 123d
00000020: 5fe4 3a3d 8f76 a83e 494b a33e 31f3 be3d
00000030: 6d76 ea3d 2fe3 923c 1a41 bc3d b598 98bd
00000040: f8ae 7d3d 53d2 32bd 6a8e 103d 8452 64bb
00000050: 6fbf 0bbd 5b5d 7abc 4c46 8abc a8fa dcbd
00000060: 0fd4 843d 7eeb 8b3e 5977 94be c312 863d
00000070: 08cd c93d e412 13bd d799 4bbc 5232 9cbc
00000080: e543 07bc 7313 953d ce03 563d 9b7b 7e3c
00000090: 508c 9e3b dc3f 903e 63b1 bb3d 3da3 38bd
000000a0: 782e 973d 8dd7 7d3c 3b8b 00bd cd33 513e
000000b0: f8a9 35bb fc0c 6b3f 99f6 cd3e 7b89 913d
000000c0: 9d1e 183d 41c2 aebd 9ed7 303d e77f e43d
000000d0: 7172 04bc 8967 393c ecde 323d caa7 56bd
000000e0: 9c04 71bc 5a80 5b3e b747 ccbc 8f7f 4abd
000000f0: 6d0d 653d d53b 38bd 9d62 af3b 8c40 32bc
00000100: 9157 223d 2c33 0ebe 0506 47bc 96f5 b83c
00000110: 1dd2 8f3d c2f6 36bd ebac 58bd 8f76 ba3c
00000120: 67fc 183d b3b5 f33c a32b d3be b9e1 543f
00000130: b380 e83d b527 ac3d 4f95 14bd 12cd 273d
00000140: 0089 793c dfe7 f23d 0449 89bc 6369 c03c
00000150: 4cc4 113e cfac 9ebb cac3 33bc 2c98 aebf
00000160: 4c86 173d b188 b8bb 2825 ca38 ab65 a3bd
00000170: 9496 15bd 459f f8bf 4f6e 0a3f e2d5 da3b
00000180: fedc f93c e89e 003f db79 c93c 8457 c73b
00000190: d976 fe3c 5e6d 4ebc 3275 883d d447 d5bd
000001a0: df59 29bd 2d5f 57bd e4d2 d23d 9010 febb
000001b0: f886 c0bc 5b82 cebf 0f24 c83a 45fd b83c
000001c0: 7790 4b3d a297 6ebd bb3e 81bc ed8f a63d
000001d0: af93 04be 23da a0be 1a57 ac3c e81e 063e
000001e0: eae9 81bc 26ea cd3c 6c82 ba3d 8a9f c9bb
000001f0: c54f 2abd 6018 5c3c 7ac6 023e ad1e 053e
00000200: 9f5e 073e 7ca7 133e f1ec d9bf 3198 97bd
00000210: 1cfa 803d d42b fb3c de30 503d 96b4 463c
00000220: 10ed 95bc 184e bb3d cb10 ef3d f3e1 c53d
00000230: 26fc c23d 1e8a b5bf 3da4 cb3b cece 443d
00000240: c397 fd3d 2e49 933d e6ad 2fbf 09af 7b3c
00000250: ed2f 7f3d 1225 0e3c 4bfc f7bb 343f bc3c
00000260: 82d6 853d 8f00 a53d 2ae7 d63d e6e5 abbd
00000270: e10a 173d 5e9f 463d ef7a 06bd d661 05bd
00000280: 6ada 353d d0d8 88bb 8b1f 233f e158 263d
00000290: 62e7 83bd 8067 b73d 0bcf 283d 040e 9d3d
000002a0: 7a0b dbbc c415 4bbd e6a9 a33c 982f f6bf
000002b0: ed80 c33d 7330 83bd cc5c a53e bc84 f9bf
000002c0: 2202 4f3d 44b1 443f 5a71 393d e5f9 753d
000002d0: 45df 523f d7f3 39bc 8cf8 b43b 82a8 59bd
000002e0: e04f 21bd a3d0 163d f093 dc3e a324 943e
000002f0: a3fb 283a 7df1 303e fd19 c93d c601 0ebc
00000300: 7310 d13d c608 c13d eb98 933e 2c73 873c
00000310: 0f44 03bd e101 df3e 1d63 2f3d 22fe f939
00000320: de98 ed3e 0649 e63c 4986 113d 5b37 0c3e
00000330: 6d3b 28bd 5967 e5bf 02ba 5d3b 45d4 8e3d
00000340: c909 31bd b35b ca3d e58b 0fbd e6b7 233d
00000350: 7c35 553d e9d4 b83e 2339 bcbd cb5c 103e
00000360: ec0d 0d3d 08e1 d63d 19c8 9c3d e700 163c
00000370: 30a0 0fbe 6927 8c3d 90a7 e03c bb41 b73d
00000380: 6797 e63d fd2b b3bd 6f14 f0bc ab35 843d
00000390: ce2c e8bc c121 363d 1542 813d 7adb 163c
000003a0: 8dec 743c db87 eebd 3b35 8f3e 7ce7 0c3a
000003b0: 8724 db3e 064b 7f3e 5407 94bd f8a0 ecbc
000003c0: 3d7a 8f3e fbd0 9f3d b9ec edbc 23f7 f2bf
000003d0: f49f ffbc 5278 103e d9e6 993d cf35 363b
000003e0: 97a1 363c d9a9 bcbc 509c 7e3d f7b5 6c3c
000003f0: cd1b 8fbd 7a41 563e 1e02 743f 5317 833d
0.20966789 -0.06303501 -0.022542186 0.060612332 0.091916956 -0.0723445 -0.013853644 0.035843857
0.045627948 0.32902953 0.31893376 0.09323729 0.11448369 0.017930595 0.09192105 -0.074510016
0.06193444 -0.043657612 0.035292067 -0.0034839222 -0.034118112 -0.015281047 -0.016879223 -0.107899964
0.064857595 0.27328104 -0.28997305 0.06546547 0.0985356 -0.035906687 -0.012426815 -0.019066963
-0.008255933 0.072791 0.052249722 0.0155323995 0.004838504 0.2817372 0.09164693 -0.04507755
0.0738191 0.015493286 -0.03138278 0.20429917 -0.0027719717 0.9181669 0.40227202 0.071063004
0.03713857 -0.08533145 0.04317438 0.11157208 -0.008083926 0.011316189 0.043669626 -0.05240611
-0.014710572 0.21435681 -0.02493654 -0.049438056 0.055921007 -0.044978935 0.005352332 -0.010879647
0.03963429 -0.13886708 -0.012147431 0.022578042 0.07022498 -0.04466892 -0.052899282 0.022761611
0.037350085 0.029749727 -0.4124423 0.83156925 0.113526724 0.08406011 -0.036275204 0.040967055
0.015230417 0.11860632 -0.01675845 0.023487752 0.14235038 -0.0048423777 -0.010971973 -1.3640189
0.03699331 -0.0056315293 9.6390315e-05 -0.07978376 -0.036520556 -1.9423605 0.5407457 0.006678329
0.030500885 0.5024247 0.024594238 0.0060834307 0.03106253 -0.012599317 0.06662978 -0.10414091
-0.041345473 -0.052581 0.102941304 -0.0077534392 -0.023501858 -1.6133531 0.0015269535 0.022581706
0.04969832 -0.058250077 -0.015776983 0.081329204 -0.12946962 -0.31416425 0.021037627 0.13097727
-0.01585861 0.025136065 0.09106907 -0.0061530517 -0.04157998 0.013433546 0.12771025 0.12999983
0.13219689 0.14419359 -1.7025434 -0.07402075 0.062977046 0.030660547 0.050827853 0.012128016
-0.018301517 0.091457546 0.11673125 0.09662237 0.0952075 -1.4182775 0.006214647 0.048048787
0.12382462 0.07191692 -0.6862472 0.015361556 0.062301565 0.00867583 -0.0075679175 0.022979356
0.06535055 0.08056747 0.1049331 -0.08393459 0.03687561 0.04849183 -0.032832082 -0.032564007
0.04439775 -0.0041762367 0.63720006 0.040612105 -0.06440617 0.08955288 0.041213077 0.07668689
-0.02673887 -0.049581304 0.019978475 -1.9233274 0.09546075 -0.06405725 0.3229736 -1.9493632
0.050539143 0.76832986 0.045274116 0.06005277 0.8237193 -0.01134964 0.005522793 -0.053139217
-0.039382815 0.036820065 0.43081617 0.28934202 0.0006446188 0.1727962 0.0981941 -0.008667415
0.102082156 0.094255015 0.28827605 0.01653441 -0.032047328 0.4355612 0.04281913 0.00047682325
0.4640569 0.028110992 0.035528455 0.13692991 -0.041072298 -1.7922164 0.0033832793 0.06974081
-0.043222222 0.098807715 -0.035045523 0.0399703 0.05205296 0.36099938 -0.091905855 0.14097898
0.034437105 0.1049214 0.07655353 0.009155489 -0.1402595 0.068434544 0.02742365 0.08948084
0.112593465 -0.087486245 -0.029306618 0.06455549 -0.028341677 0.044465784 0.06311432 0.009207601
0.014948976 -0.11647006 0.279703 0.000537507 0.42801306 0.24930963 -0.0722796 -0.02888535
0.28022948 0.07803532 -0.029043542 -1.898167 -0.031204201 0.14108399 0.07514734 0.0027803069
0.011146924 -0.023030208 0.06216079 0.014447681 -0.069877245 0.20923415 0.9531573 0.06400933

critic.qf.fc1.bias f4 [256]
00000000: 5c01 883e 930c 403e 2179 5b3e 6597 773e
00000010: d39c 433e daa9 813e 19fb 543e 929e 943e
00000020: 9183 803e 6071 623e a54e 823e f757 fd3d
00000030: c486 e63d f226 763e 9c6a 703e a950 073e
00000040: 6004 623e 6e9c 5b3e b9d0 943e 6c8d 203e
00000050: 802f 7f3e 226f 7a3e b911 7f3e 4d8c 503e
00000060: 9428 223e 05e1 4d3e 4cbf 883e 97f2 603e
00000070: 0bbc 833e 4401 153e 4102 643e 5f84 263e
00000080: f7cc 8a3e d2d7 893e 8790 9c3d cf4a 5e3e
00000090: 2cda 5c3e e65f 213e 700e 983e f5cf cf3d
000000a0: 7961 203e 1331 853e e159 823e 09c7 603e
000000b0: 003d 893e deb9 823e 041f a13d 30e2 c53d
000000c0: 85f2 1a3e a161 5b3e 0c84 563e a346 7c3e
000000d0: 5b51 803e 60c5 7f3e 9888 3d3e c57e 7a3e
000000e0: 1ad8 7a3e d376 7e3e 8a75 313e 35c0 8c3e
000000f0: 3a7b 783e e98f a33e ed3c 273e e38e 4c3e
00000100: 5d94 3b3e 9f2a 853e 5e7e 483e b51b 983e
00000110: d3e3 2d3e 72cb 7b3e a631 833e 856b 783e
00000120: c0f1 2d3e 3734 573e 3bb7 773e 2777 f23d
00000130: ab58 6e3e ad33 8c3e 4af9 553e c2c8 3a3e
00000140: e8e0 e03d 18a8 633e 5e9b 643e a4e3 6c3e
00000150: f78e 813e 865b 743e f06c a33d 94cb 163e
00000160: 3bfa 883e 9419 8b3e 156f 1b3e 0b07 5a3e
00000170: 55f2 1e3e 4764 6e3e 0124 483e 9ad3 6f3e
00000180: 5e21 9b3e 38b0 813e 8531 5a3e dc4f 893e
00000190: 8ada 673e d93e 703e 3b33 733e 17e0 f13d
000001a0: 8fb7 573e 39eb 743e 474f 613e b88c 703e
000001b0: 6779 3c3e 75b5 9e3d 7c17 453e 2b26 a83e
000001c0: 7836 4e3e 712d 743e 3d9f 853e 90b2 453e
000001d0: 1482 863e 3148 ab3e bb4a 6e3e 3935 3b3e
000001e0: 21ee 833e a6cb 513e 1c6a 6c3e 3e3a 743e
000001f0: 638b 873e b40a 8b3e 9b35 dc3d 93f3 663e
00000200: 55ed 433e 7d3e 0c3e d8ff 573e 1a82 853d
00000210: 8128 513e 5730 733e fdfe 953e c588 3b3e
00000220: 2869 5b3e 53e3 e43d 7095 8c3e 5373 5d3e
00000230: a6c3 783e 79b0 153e 9b03 7c3e 7e78 1c3e
00000240: 26a1 ae3e 5ea2 673e ba51 3a3e 43ec 8b3e
00000250: 53a8 c83d 283e 593e ad42 3e3e 15e8 5c3e
00000260: c719 4b3e e53f 943e 6ead 773e 9fb1 c93d
00000270: 7c2f 683e d743 4a3e 2c43 523e 767c 733e
00000280: addb 6c3e 6212 8c3e 0736 293e 2675 6b3e
00000290: 7492 a33e d896 9d3e 99f7 873e f13f 4d3e
000002a0: 1479 0c3e 297b 863e 2df0 843e f6d5 8c3e
000002b0: 2697 873e fa7b 593e 29e1 603e e97c 6f3e
000002c0: 202b 613e 4036 5d3e c97d 5d3e f84b 953e
000002d0: 4097 563e b794 6e3d 2e85 753e 87b1 813e
000002e0: 895b 5e3e e0dd 603e dc0d 533e 95d8 833e
000002f0: afd6 513e 9af1 853e 4e43 6a3e b50b 853e
00000300: d756 0f3e 352c 2c3e 7864 333e aa7d 383e
00000310: 74fe 8a3e e736 8b3e 4fa3 653e bb14 823e
00000320: 6b36 653e beb6 7a3e e657 6a3e b7de 483e
00000330: 453a 673e e4b2 873e 7f1f 593e 5cac 3c3e
00000340: 4d12 673e e840 563e e5d9 483e c845 283e
00000350: 4e93 803e a6c4 423e 856c 503e bcc5 8b3e
00000360: 3733 953e dbf3 5c3e bd9c b03e 307b 513e
00000370: bae0 2c3e 2752 223d be57 8f3e d2ad 823e
00000380: 42de 693e 0656 fa3d 7c65 913e 447c 2e3e
00000390: 1996 983e 17c4 733e 5aaa 613e 0843 663e
000003a0: 9f30 503e 5897 8b3e afbd 563e d6ad 633e
000003b0: 05e6 413e ff15 833e 4b2e 423e d465 583e
000003c0: 5dfc 553e a357 093e 3740 963e b57b 2d3e
000003d0: b2cc 753e dbcb 713e 0863 4b3e e4de 093e
000003e0: d9ce 853e 6c8b 7a3e 4ff7 8b3e c313 8c3e
000003f0: c281 493e 79e4 1b3e d2ef 703e e514 1f3e
0.26563537 0.18754797 0.21432926 0.24178846 0.19102792 0.253249 0.20798911 0.2902723
0.25100377 0.22113562 0.25450626 0.123702936 0.11256173 0.24038294 0.23478168 0.13214363
0.22071981 0.21446392 0.29065493 0.15678948 0.24920464 0.24456456 0.24909104 0.2036602
0.15835792 0.2010537 0.26708448 0.2196754 0.25729403 0.14551264 0.22266485 0.16261433
0.271095 0.2692247 0.07644754 0.21708225 0.21567601 0.15759239 0.29698515 0.101470865
0.15662183 0.26014003 0.25459197 0.21950926 0.26804352 0.2553243 0.07867244 0.096622825
0.15131576 0.21423961 0.2094881 0.24636321 0.2506207 0.24977636 0.18509138 0.24462421
0.24496499 0.24850015 0.17329994 0.27490392 0.24265757 0.31945732 0.16331835 0.19976382
0.18318315 0.2600908 0.19579455 0.2970864 0.1698144 0.24589327 0.25623816 0.24259765
0.16986752 0.21016012 0.2419099 0.11839133 0.23276012 0.27383175 0.20895877 0.18240646
0.109803975 0.22232091 0.22324893 0.23133713 0.25304386 0.23863038 0.079797626 0.14726096
0.2675341 0.27167952 0.15179093 0.21291749 0.1552213 0.2328044 0.19544984 0.23420563
0.30298895 0.25329757 0.21307953 0.2681874 0.2264196 0.23461474 0.23750012 0.1181032
0.21066116 0.23917855 0.22002898 0.2349118 0.18405686 0.07749454 0.1924724 0.3284162
0.20137966 0.2384546 0.26098052 0.19306397 0.26271117 0.33453515 0.23270695 0.18282022
0.25767615 0.20487842 0.23087353 0.23850343 0.2647353 0.27156603 0.10752412 0.22553854
0.19133504 0.13695712 0.2109369 0.065189555 0.20425607 0.23748909 0.29296103 0.18313892
0.21426833 0.11176171 0.27457762 0.21626024 0.24293384 0.146181 0.2461075 0.15280339
0.34107322 0.22620532 0.18195239 0.2732869 0.0979773 0.21215117 0.18580122 0.21572907
0.19834052 0.28954998 0.24187252 0.09848332 0.22674364 0.19752441 0.20533437 0.23777947
0.23130675 0.27357775 0.16524516 0.22993907 0.31947672 0.30779147 0.2655609 0.20043923
0.13718063 0.2626584 0.2596449 0.2750699 0.26482505 0.212387 0.21960892 0.23387493
0.21989107 0.21602726 0.21630014 0.29159522 0.20956135 0.058247294 0.23976585 0.25330755
0.21714605 0.21959639 0.20610756 0.25751176 0.20492052 0.2616089 0.22877237 0.25985494
0.1399797 0.16813739 0.17518795 0.18016687 0.27147257 0.27190325 0.22425579 0.2540644
0.2238404 0.24483773 0.22885093 0.19616209 0.22580822 0.2650367 0.21203421 0.18425125
0.22565575 0.20923197 0.1961437 0.1643287 0.25112385 0.19020328 0.20353897 0.27299297
0.29140636 0.21577398 0.34494582 0.20457149 0.16882601 0.039629128 0.2799663 0.2552324
0.22838691 0.12223439 0.2839774 0.17039591 0.29802015 0.23805271 0.2203764 0.22486508
0.20331047 0.27263904 0.20970796 0.22234282 0.18935402 0.2560272 0.18962972 0.21132594
0.2089705 0.13412337 0.29345867 0.16941722 0.24003866 0.23612921 0.19861996 0.13463932
0.26134375 0.24467248 0.2733712 0.27358827 0.19678405 0.15223874 0.23528984 0.15535314

critic.qf.last_fc.weight f4 [53, 256]
00000000: 3ebd 89be d566 88bd 0e61 a7bd 4134 adbd
00000010: 2efb 93bd d679 a9bd 5b7e 9dbd 8930 9abc
00000020: 2920 4a3d 6aa2 abbd f325 5dbd 19d6 a4bd
00000030: 70e9 16bd 89bb 98bd 081f a3bd 679a 91bd
00000040: 5e34 9bbd f24b 99bd b270 82bd 8483 8bbd
00000050: eb20 a4bd 4a09 9ebd e394 8cbd 5526 8ebd
00000060: 5431 4fbd af95 a5bd 8eef 84bd 60e1 75bd
00000070: c079 95bd dff0 52bd f4f6 96bd d034 9bbd
00000080: ec9c 8fbd 8d21 83bd 4244 a1bd 8faf 8abd
00000090: a347 a8bd 6137 9ebd ec1b 3bbd 0885 34bd
000000a0: 0994 81bd 5368 9cbd e745 6bbd adb6 94bd
000000b0: 7e2c 93bd 867d 623e acfa 85bd 544b 5ebd
000000c0: a240 83bd 5cfe 93bd 60db 9ebd a649 a7bd
000000d0: 9416 8cbd b9ba 96bd 66d4 efbc 5914 9abd
000000e0: e5ce 04bd 9fbe 9dbd a451 89bd e5dd 84bd
000000f0: 1220 a4bd 27da 5bbd 7a3f 83bd 7438 c4bd
00000100: 8e34 89bd 38bf 87bd f896 a3bd 7b5a 12bd
00000110: 6806 a2bd 020a ea3d 1b98 84bd 70d4 233e
00000120: 8b61 a9bd 50b5 b0bd 41dd a1bd e4be 74bd
00000130: 49aa a3bd 1b95 88bd 0d0d b0bd 1090 7dbd
00000140: 58ef a9bd e5b2 78bd e8ed a0bd 706e 3f3e
00000150: 1d31 99bd beb0 be3d 71c7 80bd 3726 9cbd
00000160: 32ab 87bd bfcd 17be d029 99bd 5ece f93d
00000170: 2151 8bbd 72d1 95bd 3b26 67bd e106 47bd
00000180: 8558 6bbd 50f3 7abd 435e a2bd 09d7 64bd
00000190: af37 88bd 119e abbd 466a 92bd 2654 f1bc
000001a0: cd93 9bbd 1aef 8abd b291 b2bd 2ffd 76bd
000001b0: d6cd 91bd 4cca 6cbd 4b9b 9fbd bee4 c5bc
000001c0: 869e b0bd 914e 63bd 8cf3 98bd fde4 6abd
000001d0: 1f15 3f3e e782 57bd bab6 38bd 0ec7 42bd
000001e0: e628 9abd a04b 89bd eaaf 98bd 2679 9fbd
000001f0: fe24 36bd 851a 88be 75ad 3abd 85fe 2e3e
00000200: 32b4 4cbd 00d6 b0bd f127 99bd bd03 68bd
00000210: f8fa 96bd 8627 b9bd 28a6 78bd 1454 4cbd
00000220: a0ac 88bd 86d3 acbd 32b4 8abd caee 66bd
00000230: fb73 a1bd 0a9b 8fbd 2ffd 20bd d6f5 92bd
00000240: 487e b6bc 7399 b1bd c7aa 68bd 21a7 8ebd
00000250: e381 89bd 3c9d 9abd 1bcd a4bd 6411 a2bd
00000260: 7d9b a0bd e625 83bd 29c1 90bd 1aec 84bd
00000270: 901c cc3d 9c51 a2bd 0442 a2bd 2157 8abe
00000280: 248a 8cbd 02ee 8fbd a3a5 9dbd 4faa 90be
00000290: 60c7 85bc 78dc 81bd bcdf 75bd 446d b0bd
000002a0: 676a 6dbd b472 a6bd 56cf 68be 27bc a7bc
000002b0: 7f32 9abd 7023 1a3e 478f adbd 62f8 8abd
000002c0: 7e88 adbd 3d06 5dbd 42e8 9abd ab64 33bd
000002d0: 5eff 92bd 721b 97bd f48a 96bd 4bb1 a4bd
000002e0: 6ccf 88bd a12e 9cbd 249c adbd 79d8 80bd
000002f0: 4975 a2bd c4c5 8cbd 3d24 7dbd 2a0b 84bd
00000300: 2b47 97bd 28b2 86bd db72 99bd 6e9b 73bd
00000310: 4b5c 75bd 6763 a4bd 3855 a0bd 6e6d 79bd
00000320: 30cf 97bd e96d 75bd d9ae 97bd 2b43 9dbd
00000330: 4412 8cbd bd87 84bd 0f1b 49bd e96a c0bd
00000340: 9585 8dbd 7d2b 8cbd 5e39 8cbd 5350 9dbd
00000350: 8009 41bd 5968 a8bd 7ebb 9bbd 0661 51bd
00000360: 0656 85bd ec36 9ebd 07ed 85bd b9ef 87bd
00000370: 755f 87bd 2259 52bd 7398 98bd f37a 67bd
00000380: 7002 b6bd 78b4 8dbd 03e9 8ebd 079c 50bd
00000390: f032 37bd e1e2 8cbd 6704 91bd 3101 85bd
000003a0: dcc7 a5bd e99b 8dbd b844 a6bd d918 9ebd
000003b0: c067 99bd 2fe6 7dbd 7104 91bd 4f4c 9abd
000003c0: 77af 89bd 481e 4ebd d216 56bc bc15 81bd
000003d0: e42b a7bd ba39 83bd 9d0a 96bd b31a 83bd
000003e0: 5e43 a1bd 0e5e 0dbd 4ca4 463e b53a 64bd
000003f0: 9ca5 b3bd 3649 96bd b45e 92bd 4a86 97bd
-0.26902193 -0.06660239 -0.081728086 -0.08457232 -0.07225643 -0.082751915 -0.07690116 -0.018821971
0.049347077 -0.083805874 -0.05399127 -0.080486484 -0.036843717 -0.074576445 -0.07964903 -0.07109528
-0.075783476 -0.074851885 -0.06369151 -0.06812194 -0.08014091 -0.077166155 -0.068643354 -0.06940905
-0.050584152 -0.080851905 -0.06491004 -0.060029387 -0.072986126 -0.051499244 -0.07371321 -0.075784326
-0.07012352 -0.06402884 -0.07874347 -0.067717664 -0.082167886 -0.077254064 -0.045680925 -0.04407218
-0.063270636 -0.07637086 -0.05743971 -0.07261405 -0.071862206 0.22118196 -0.065419525 -0.054271057
-0.06408812 -0.072262496 -0.07756686 -0.08168344 -0.06840244 -0.07359833 -0.029276084 -0.07523412
-0.032423873 -0.07702374 -0.06705025 -0.064876355 -0.080139294 -0.053674843 -0.064085916 -0.0958108
-0.06699477 -0.06628269 -0.079877794 -0.03573082 -0.07911378 0.1142769 -0.06474324 0.15999007
-0.08270558 -0.086283326 -0.07903529 -0.05975236 -0.07991464 -0.066690646 -0.08596239 -0.061904967
-0.08297604 -0.060717482 -0.07857877 0.18694472 -0.07480071 0.09311055 -0.062880404 -0.076244764
-0.0662445 -0.1482458 -0.07478678 0.121975645 -0.068025835 -0.07315339 -0.056432944 -0.048590545
-0.057457466 -0.061267197 -0.07928135 -0.055869136 -0.06651246 -0.08379758 -0.07149176 -0.02945907
-0.0759655 -0.06783886 -0.087191954 -0.06030005 -0.07119338 -0.057810113 -0.07793292 -0.024156924
-0.08623986 -0.05549485 -0.07468328 -0.057347286 0.18660401 -0.052615073 -0.045096137 -0.047553115
-0.07527332 -0.067038774 -0.07455428 -0.07786779 -0.044468872 -0.26582733 -0.045575578 0.17089279
-0.049976535 -0.08634567 -0.07478321 -0.05664419 -0.07372087 -0.090407416 -0.060705334 -0.04988487
-0.066735506 -0.084387824 -0.06772651 -0.05638007 -0.0788345 -0.07011993 -0.039303955 -0.07175796
-0.022277012 -0.08671846 -0.05680349 -0.06965471 -0.06714227 -0.07549521 -0.08046933 -0.07913473
-0.07842157 -0.06403713 -0.070680924 -0.06490345 0.09966385 -0.07925722 -0.07922748 -0.270196
-0.06862286 -0.07027818 -0.07697608 -0.28254935 -0.016330421 -0.06340879 -0.060027823 -0.08614591
-0.0579628 -0.08127347 -0.22735342 -0.02047546 -0.075291626 0.15052581 -0.084745936 -0.067856565
-0.084732994 -0.053961027 -0.07563831 -0.043797176 -0.07177614 -0.07378282 -0.07350722 -0.080416285
-0.066801876 -0.07626081 -0.08477047 -0.06291289 -0.079325266 -0.06873658 -0.061802138 -0.06447442
-0.07386621 -0.06576949 -0.0749261 -0.0594744 -0.05990247 -0.08026772 -0.07828754 -0.060895376
-0.07412565 -0.05991927 -0.074063964 -0.07678827 -0.068394214 -0.064712025 -0.04909807 -0.093953915
-0.069102444 -0.06844232 -0.068468794 -0.07681336 -0.0471282 -0.08223028 -0.07604121 -0.05111792
-0.06510548 -0.07725319 -0.0653935 -0.0663752 -0.06610004 -0.051354535 -0.074509524 -0.056513738
-0.08887184 -0.06919187 -0.06978037 -0.05093005 -0.044726312 -0.06879211 -0.07080918 -0.06494368
-0.08094761 -0.06914503 -0.08118576 -0.07719583 -0.07490492 -0.0619871 -0.07080925 -0.07534086
-0.067229204 -0.050321847 -0.013066964 -0.06302974 -0.08162668 -0.06407495 -0.07326243 -0.06401577
-0.078741774 -0.034513526 0.19398612 -0.05572005 -0.08771822 -0.07338183 -0.071469694 -0.073986605

critic.qf.last_fc.bias f4 [53]
00000000: ea34 0c3d f4a5 7e3c 02ae 05bc 191b 80be
00000010: 17e2 dbbc 3b33 64bb 6483 e6bb 0bc6 bc3d
00000020: 915a b1bd d7ae 75bd 8511 c0bd 9d2d 87bd
00000030: 781a e03c ec5f e5bc 9d84 b1bd 05d8 19bd
00000040: 6c36 b23b 6bfd 2e3d ab7b da3b 7ce5 81bd
00000050: 37d1 bbbd 9ab5 08be 27c5 70bb aa84 cdbd
00000060: 2f76 60bc e06d a8bd 8945 3a3d 33bb 813c
00000070: 555c 04be 40fc 37be 6a87 333d 9a32 83bd
00000080: 9e7a 163d e33a a13b 810d 3dbd d3ab 02be
00000090: c81c efbc 2f9a de3c 447d de3d df86 a1bc
000000a0: 7c4a 67be dd9b f3be 116a 8bbc 60ee 97bd
000000b0: 30d6 fcbd 5986 9cbe d2c9 27be 75da 9c3e
000000c0: 4cd6 4ebe 1503 7a3d 974c b1be 8473 afbe
000000d0: 8e77 37be
0.03423015 0.015542496 -0.0081591625 -0.25020674 -0.026841206 -0.0034820575 -0.007034706 0.09217461
-0.08659852 -0.059981193 -0.093783416 -0.06600497 0.027356371 -0.02799984 -0.08667872 -0.037559528
0.0054386165 0.042722147 0.0066675744 -0.06342599 -0.09170764 -0.13350525 -0.0036738606 -0.10035069
-0.013700052 -0.08224082 0.04547647 0.015836334 -0.12925847 -0.1796732 0.043830313 -0.06406136
0.03673803 0.00492035 -0.046155456 -0.12760858 -0.029188529 0.02717313 0.10863736 -0.019717632
-0.22587007 -0.47579852 -0.01701835 -0.07418513 -0.123455405 -0.3057125 -0.16385582 0.3063542
-0.20198935 0.061038096 -0.34628746 -0.3426782 -0.179167
