logs/minimal-test/100/mlp/2025-04-22-09:32:47/seed-1/save/agent_001000_perf5.159.pt (torch, 707842 bytes, 20 tensors)

critic.observ_embedder.fc.weight f4 [64, 5]
00000000: 6a06 953e b7af 10be 60c7 0bbe ae39 623e
00000010: 5321 e3be 0928 8a3e e403 bbbd 16b1 783e
00000020: 509b 3b3d cfce c2bd f149 5b3e ff42 a93d
00000030: 1e84 013e c9ad 0dbe 2433 75bd 15d2 9abd
00000040: 3a04 323e 96c5 133c 9b24 d13e 2ee5 9a3d
00000050: 53f6 2bbe ed80 8ebe ec1c e1bd c5e6 d0bd
00000060: 44eb 16be cc07 aa3c c92a 0d3e e10f 903e
00000070: 8bf1 03bf 1671 843e 4cc8 353e 7128 c03e
00000080: a33b af3e 8238 d8be bb7c d6be 1ad9 44be
00000090: 2000 e53e 083f e1bc a0b8 393e 6a95 1ebe
000000a0: a892 d33e bf40 88be 40f0 cd3e e327 0a3d
000000b0: 4020 1cbe 2356 8d3e 89d9 2abe 5dda bd3d
000000c0: 2ad5 4bbe 59e6 dcbd 1628 fabe 0b64 38be
000000d0: 335a 4b3e 2406 36be b2da ac3e fb05 c53e
000000e0: a2d5 4abd 8ed0 7dbe ae3f 893e df32 b33d
000000f0: 071d 6ebe 16b9 a03e 6c9e 963e c7a4 cb3e
00000100: 108d 53be a34f cbbd 4695 0ebd dc4e f73d
00000110: c5f9 b1be 22bb d4be eb94 533e ffb4 ecbd
00000120: 49c1 4d3e f137 02be 4c17 013e 1d2d 2b3e
00000130: 6a5b 1d3e ffc5 993e 40a8 cebe d54f 4e3e
00000140: 121c efbe 7e02 99be 32c7 dfbd ee36 15bd
00000150: d092 3b3e 940c 76be 3075 dbbe 263f 973e
00000160: 5f9e 5f3d 9788 a73e 05a1 483e b77f 9cbe
00000170: 9faa d53d 8902 323d 8fbf 4dbe b5ec 4ebe
00000180: d24a 843d 9708 463d be01 82be 16bb 12be
00000190: 7f1a 9a3e eaab aebd 594f 973e bf6a a13e
000001a0: 029b 8fbe 9faa bbbe e60a fa3e 273c 613d
000001b0: 133b 883e 06a8 3d3e 5c53 bc3d c8e4 a33e
000001c0: 223c e23e d130 a6be 07d1 213d 51e5 ab3e
000001d0: 12ce b63e ac79 933e d433 a3be ed7b 96be
000001e0: 1d9d 92be 54d0 2f3c 06e4 f83e 98fb 76be
000001f0: 1c04 4e3e 4b5b 96be 7d2a b9be ce98 c5bd
00000200: 334c 723e ebc2 dd3e 5b48 97be 495f a43d
00000210: e033 ee3e 969c 8c3e 6b99 1f3e dea6 b93e
00000220: 0906 723e b6b1 373e 7b45 c7be a061 a4be
00000230: 4675 31be 14c0 14bd 754d 89be 4c0e 1b3e
00000240: 587e 3b3e d433 2dbe 68b1 ef3d 4d5c db3d
00000250: 99ad 5d3e 3a53 973e 09d9 2abe 0138 f93e
00000260: a5e6 3ebd cc39 89bc 12e4 c2be 4be4 9fbe
00000270: 0c69 6ebe eb67 59be f82f 703e 0ffc 90be
00000280: d57d bfbe c866 b83d 0109 293e 9c44 ae3e
00000290: 6517 8ebe 80f1 8a3d ff01 0fbe 3f7e 0dbe
000002a0: bff4 bbbe 8832 75be 2ca6 14be 5134 133e
000002b0: d22c da3c 3396 1c3e c22f e53e b26b e63e
000002c0: 149b 9e3e 40bc b2bc 3434 a7be 0b76 bd3e
000002d0: 114f 01be f26e 8bbd 65b5 c4be 0885 a7bd
000002e0: 4d8d 98be 3708 c63e c01c b4be 746a d2be
000002f0: 353f d53c ce0f 86be 925d f53d d682 60be
00000300: 8d15 6fbe 6173 613d 5429 813e 7c1b bcbe
00000310: fe82 933e 27f0 a03e e1d2 e23e d167 52be
00000320: 3247 fe3d c510 b8be e65c c43e 21c9 8fbc
00000330: 8b16 b23e c923 5a3c 17aa 0ebd 0bcb 69bc
00000340: 63b2 9b3d d2df 573e 8aa4 943d 3ccd 143e
00000350: bad1 c3be b3f2 903e 79d7 ba3e aca1 d43e
00000360: 1f24 873e 9cca 92be 0bbb 30be cbf2 d53e
00000370: cb22 a4be a574 d33e d293 bdbe bbb2 adbe
00000380: 7f2f 5a3e 878e 86be 972d 05be e5be 8b3e
00000390: 0369 d93e 726c e03e 7192 10bd b3d7 a9be
000003a0: 66ea dc3e 89ff f7bd e0fb 81be db90 153e
000003b0: a7ee b5be 3d5f 893e 87d1 9a3e 2bd4 a1be
000003c0: cea4 dcbe 6ece b0bc 9335 2d3e 3fb5 e83c
000003d0: 17e1 6dbe a122 993d 60e9 ccbe 7953 a7be
000003e0: b6ae a3be 64d8 ae3e e91b e43e 19b0 93be
000003f0: f29c b33c 9886 853e 0bb5 6e3d 480e 49be
0.29106456 -0.1412953 -0.13650274 0.22092316 -0.44361362 0.2698367 -0.091316015 0.24286303
0.045802414 -0.09512102 0.21414925 0.082647316 0.12648055 -0.13835825 -0.059863225 -0.07559601
0.17384425 0.009019276 0.4084824 0.07563244 -0.16793184 -0.27832738 -0.109918445 -0.10200266
-0.14738184 0.020755671 0.13785852 0.28137115 -0.5154044 0.25867528 0.17752188 0.37530854
0.34225187 -0.42230612 -0.41892037 -0.19223443 0.44726658 -0.027495876 0.18136835 -0.15486684
0.41322827 -0.26611897 0.4022236 0.033729445 -0.15246677 0.2760478 -0.16684546 0.09270165
-0.19905534 -0.10786123 -0.48858708 -0.18006913 0.19858627 -0.1777578 0.337606 0.38481125
-0.049520142 -0.24786589 0.26806396 0.08749937 -0.2325326 0.3139121 0.2941774 0.39774153
-0.2065928 -0.09927299 -0.034810327 0.12075588 -0.34760872 -0.4154902 0.20662276 -0.1155796
0.20093264 -0.12716652 0.12606543 0.16716428 0.15366903 0.30033872 -0.4036274 0.20147641
-0.46701103 -0.29884714 -0.10926665 -0.03642934 0.18317723 -0.24028236 -0.42862844 0.29540366
0.054594394 0.32721397 0.19592674 -0.3056619 0.10432934 0.04345945 -0.20092605 -0.20207484
0.06459583 0.048348036 -0.25391954 -0.1432918 0.3009834 -0.08528884 0.29552725 0.31526753
-0.2804795 -0.3665361 0.4883644 0.054989006 0.2660757 0.18521127 0.09195587 0.32010484
0.44186503 -0.3245912 0.039505985 0.33573392 0.35704094 0.28803766 -0.3187548 -0.29391423
-0.28635493 0.010730822 0.48611468 -0.24119413 0.20118755 -0.29366526 -0.36165228 -0.09648286
0.2366188 0.43312773 -0.2954739 0.08025987 0.46523952 0.27463216 0.15585868 0.36260122
0.23635115 0.17938885 -0.38920197 -0.32105732 -0.17329893 -0.036315992 -0.26816908 0.15142173
0.18309915 -0.16914302 0.117037594 0.10710964 0.21648254 0.29555684 -0.16684355 0.4867554
-0.04660668 -0.016751193 -0.3806463 -0.3122886 -0.2328226 -0.21231048 0.23455799 -0.28317305
-0.3740069 0.09003979 0.16507341 0.3403672 -0.27752224 0.06784344 -0.13965605 -0.1381769
-0.36710164 -0.23945057 -0.14516515 0.14375426 0.0266327 0.15291671 0.44763 0.4500404
0.3097769 -0.02181828 -0.32657015 0.37004122 -0.12627818 -0.068082705 -0.38419643 -0.081796706
-0.29795304 0.38678142 -0.35178185 -0.41096842 0.026031116 -0.26183933 0.11980738 -0.2192491
-0.23348065 0.055041675 0.25226843 -0.3673972 0.28810877 0.31433222 0.44301513 -0.20547415
0.12415923 -0.35950294 0.38352126 -0.01755196 0.34782824 0.013314196 -0.03483018 -0.014269601
0.07602384 0.21081474 0.07257946 0.14531416 -0.38245946 0.28310165 0.36492518 0.41529596
0.26394746 -0.28670204 -0.17258851 0.417868 -0.32057795 0.4129993 -0.3702684 -0.33925423
0.21307181 -0.26280615 -0.13005672 0.27294078 0.4246293 0.43832737 -0.035295907 -0.33172378
0.43147582 -0.12109286 -0.25387478 0.14606039 -0.3553364 0.26830474 0.30237982 -0.31607184
-0.43094486 -0.021582808 0.16914968 0.028406737 -0.23230396 0.07477308 -0.400218 -0.32680872
-0.3196923 0.34149468 0.44552544 -0.2884529 0.021925423 0.2607925 0.058278125 -0.19634354

critic.observ_embedder.fc.bias f4 [64]
00000000: a697 64bd 690c 07bb 574e 8bbd 5ea6 20be
00000010: 7676 3c3e 716e dcbd f9ec 7cbe 3863 1c3e
00000020: 6aba a4be a7e2 c8bd 9f5d 853e 16c7 063e
00000030: af9d c03e d83c 5fbe 6e69 5e3c bc1f 2abd
00000040: 48b1 86be b2af 85be 3a4b 013e 199f 8a3d
00000050: c2fc 6cbe 29ac 9dbe 05be cfbe 8e66 d93e
00000060: 5e4c 74bd a8be 2bbe 9df0 fdbd 74d3 1ebe
00000070: b015 e0be 43bb a6be f940 653e 2b58 923d
00000080: ddd3 41be fd07 46be dc18 7f3e f7e6 ae3e
00000090: 8141 d43e 6dcd 073e fe14 723e 13b7 f1bb
000000a0: 108e 6dbe 2e52 e0be 7435 973e af78 9abd
000000b0: 8bb2 353e 564a 3dbc fa20 d7be dce6 4fbe
000000c0: a445 bd3d 4d9e 13be 4df1 c7be 1c77 183e
000000d0: f83c ca3c b95b 22be 3711 5c3e fc0d db3d
000000e0: de8c fdbd 2397 ba3e 460c 2c3e 3c6c 683b
000000f0: 17b2 95bd 7ed6 c6be f743 9e3e 986c 30be
-0.055808686 -0.0020606762 -0.068020515 -0.15688464 0.18404564 -0.107632525 -0.24699773 0.15272224
-0.32173473 -0.098088555 0.2604799 0.13161883 0.37620303 -0.21800554 0.013574941 -0.04153417
-0.2630713 -0.26110607 0.12626353 0.06768627 -0.23143294 -0.3079541 -0.4057466 0.42461056
-0.059643142 -0.16771948 -0.12399409 -0.1551035 -0.43766546 -0.32564744 0.22388066 0.07145723
-0.18928476 -0.19338985 0.24911827 0.34160587 0.41456226 0.13261957 0.2364082 -0.0073765605
-0.23198724 -0.43812698 0.2953297 -0.0754255 0.1774389 -0.011553368 -0.42017347 -0.2030291
0.092417985 -0.14415856 -0.39051285 0.14889187 0.024687275 -0.15855302 0.21490942 0.10696027
-0.12380384 0.36443433 0.16801557 0.0035464903 -0.073093586 -0.3883552 0.30911228 -0.17228925

critic.seq_model.model.0.weight f4 [64, 64]
00000000: 2e3b ebbd 16c3 163d aaea eabb 2c7b 873d
00000010: 2543 c1bc 9723 9fbd eda5 4b3c eec5 c93d
00000020: 508d 35bc f31b 9ebd 90c7 063e 2aeb 01bd
00000030: 86ec e63d 1619 de3d ea36 d33d 748d c03c
00000040: ec5f e1bd 1a75 613d e506 ee3b bb29 97bd
00000050: 3440 45bd 3f41 bdbd f2f6 a1bd 2180 bfbd
00000060: 0729 873d 686a 27bd 3979 7f3c d2cf 683d
00000070: b346 93bd a584 3dbd a27f 873d e10b 2d3d
00000080: d098 cfbd 5fd0 c73d 0243 6abd 1afb afbd
00000090: 3781 f0bd 7c54 a43d 6f1d a53c 453a fa3d
000000a0: ccee 903c ae25 8b3d 73c4 43bd 2a59 aabd
000000b0: 61a4 753c af0c 3c3c 055d a1bd ad83 49bd
000000c0: 9dff f63c cc57 74bc 14db b53d 311e adbd
000000d0: a422 6d3d d2be 9d3c 9e95 af3d 86e3 8e3d
000000e0: 026d c4bd 70bc fd3d 9df3 debd ba4d b93d
000000f0: 3a0d 173c 2662 853d a772 bfbd 1ae6 ba3d
00000100: 2c8c abbd 3bf5 89bd acbb a83d d63e e23d
00000110: 2486 d93d 9e9e f63b 0d4e fb3d e832 733d
00000120: b23c 9abd 082b c8bd 99e3 623d d341 cabd
00000130: 5ed0 853d 1792 e9bd ca46 1a3e 5d1a 903d
00000140: 019d 10be 0e95 0b3d 0ac4 d3bd 83dd dabc
00000150: 62ee a53d 2a7b 0dbe 1ac9 8abd 77dc 10bd
00000160: 5e3e e53d 934b 963d 65c8 0b3e f1cb dc3d
00000170: 065a 94be d594 b0bb 4ad2 1f3d bdaf ccbd
00000180: e12c 6b3d 41a6 06be 4d37 5e3b e171 733d
00000190: f0c8 aa3d 1d0f 1cbe a316 1bbe 5b9e 033e
000001a0: 107c ea3d 30db 783d 924e 3f3c c909 cbbd
000001b0: ecd6 2d3d be65 d3bd d622 5bbd 4ef1 bc3d
000001c0: 29ec 953d 98de 0fbe 6f00 82bd 833b 573d
000001d0: 1f7a a2bd 2772 b5bd 7c0b 84bd c10c f6bd
000001e0: ff66 153d 82c7 9fbd a3c3 e8bc e21d 05be
000001f0: 5b15 143d fd65 133c 0bee e7bd 5976 673d
00000200: be33 d9bd eb72 fe3d a907 b73c 230f c5bd
00000210: 6e8e aebd f9f4 7fbd f2ac 5fbe 7470 023d
00000220: 8b97 ddbd 9356 0cbe be17 8c3d 745f 15bc
00000230: 9732 64bd 931c b7bd 14cc 583d 858e b53c
00000240: 0921 9ebd 4716 c3bc 6dc1 313d a0e3 04ba
00000250: 4a98 b43d 85d1 c73d 8143 02be 81cc cfbd
00000260: 8391 713d d8ff f1bb 3c53 7cbd 4452 153d
00000270: 0376 c2bc ff3f 49bd 53e7 cabd fda1 823d
00000280: 880f 4dbc d30a b03b a1de 30bd 61b4 063e
00000290: f0da 88bc bcd1 5f3d cb1c 0e3d 7188 0b3c
000002a0: 1274 983d 2c56 c3bd a7fb 24bc 7995 cc3c
000002b0: aeb6 143e 4d3f bbbc 1f4e a43d 07d8 423c
000002c0: ee2f 85be 7ae9 97bd 1ef0 5f3d ec20 f6bd
000002d0: fbe5 bd3d 38f6 f3bd 8eb5 59bd 0372 9ebd
000002e0: 04c1 83bd 3a21 91bc 1e5e e53d 27fb e33c
000002f0: 9e3c c0bd a0fb 3bbc de02 68bc 13d4 723c
00000300: 25f4 b43c 693f 54bd 88f6 f93c 75c3 84bd
00000310: ef55 c93d 92bc 713d 2678 92bd b8f2 de3d
00000320: a57f 563b 0c4f a4bd 4d8d 92bd dfbf 7d3d
00000330: 20cc 973c c1fb 393d b849 84bd 8e78 be3d
00000340: 87ab da3d be3c cf3c 2591 84bd 0417 a03d
00000350: 4f96 bb3b 2086 37bd d5de 043c 4cee d33d
00000360: ecc5 cc3d db0e 1a3c c18e c03d 1385 d63c
00000370: ab5e c43c 76f2 f0bd 5a94 3f3d 4597 fb3d
00000380: bb92 d5bd b698 e13d 6843 2bbc efa5 f6bc
00000390: e038 c1bc 8a39 173d a6ed 233d 29a0 603d
000003a0: abed e139 44fd 683d cd66 f83d 8bbf 293d
000003b0: 24ce 683d a171 4dbd bab8 2a3e 5403 803b
000003c0: aa03 333d 68a0 133e 7f95 41bd 06aa 3f3d
000003d0: 51f1 0fbd b639 c13d 4c2a 533d a2df b2bc
000003e0: 75b6 5dbd c1af 97bd 6297 e7bd 13b4 99bc
000003f0: b06b 1ebc f6e5 18be 2fda cdbd f17d dabd
-0.11485897 0.036807142 -0.0071690874 0.0661529 -0.023591587 -0.0777046 0.0124296965 0.09852205
-0.011081055 -0.07720175 0.13162065 -0.03171841 0.11275582 0.108446285 0.103132084 0.02350495
-0.11004624 0.055043317 0.0072640055 -0.07381006 -0.048156932 -0.0924096 -0.07908429 -0.093506105
0.06599622 -0.04087296 0.015592867 0.056838818 -0.07191219 -0.046269078 0.06616141 0.042247657
-0.101365685 0.097565405 -0.05719281 -0.08592816 -0.11743396 0.080239266 0.020155637 0.12218145
0.017691992 0.06794296 -0.04779477 -0.08317788 0.014992804 0.011477633 -0.0787907 -0.04919784
0.030151183 -0.0149135105 0.088796765 -0.08453024 0.057894364 0.01925603 0.08573459 0.069769904
-0.09591104 0.12389457 -0.10886309 0.09048028 0.009219462 0.06512861 -0.0934804 0.0912592
-0.08376345 -0.06736227 0.082389206 0.11047141 0.106212884 0.007526233 0.122707464 0.05937472
-0.07531108 -0.097738326 0.055392835 -0.09875836 0.065338835 -0.114048176 0.15066066 0.070362784
-0.14122392 0.034077697 -0.10340126 -0.026716953 0.081021085 -0.13816515 -0.06776638 -0.0353665
0.11193536 0.073386334 0.13650663 0.10781086 -0.28974932 -0.005388836 0.039018907 -0.09994457
0.057415847 -0.13149358 0.0033907474 0.059434775 0.08339107 -0.1524014 -0.15145354 0.12853377
0.11449444 0.06075591 0.0116764475 -0.09913976 0.042441294 -0.1032214 -0.05350002 0.09225713
0.073204346 -0.14049757 -0.06347739 0.05254699 -0.07933449 -0.088596635 -0.06447503 -0.12014151
0.036475178 -0.07801725 -0.0284136 -0.1299968 0.03615318 0.008996484 -0.113247 0.05650935
-0.10605572 0.124242626 0.02234252 -0.09622028 -0.0852326 -0.062489484 -0.21843317 0.031845525
-0.1081992 -0.137049 0.06840466 -0.009116996 -0.05571231 -0.08940997 0.052929 0.022162685
-0.07721145 -0.023814334 0.043397356 -0.0005069319 0.08818109 0.097567596 -0.12721063 -0.10146428
0.05897666 -0.0073852353 -0.061602816 0.036455408 -0.023737913 -0.049133297 -0.09907403 0.06378553
-0.01251591 0.005372384 -0.043181065 0.13154747 -0.01670596 0.054643378 0.034695428 0.008516417
0.07444014 -0.0953792 -0.010069764 0.024973618 0.14522812 -0.022857333 0.08022713 0.011892325
-0.2601313 -0.07417579 0.054672353 -0.12017998 0.09272381 -0.11912197 -0.05315166 -0.0773659
-0.06433299 -0.017716039 0.11199592 0.02782972 -0.09386562 -0.011473566 -0.01416084 0.01482107
0.022089073 -0.051818285 0.030513063 -0.06482593 0.09830844 0.059017725 -0.07151823 0.10886139
0.003272989 -0.080228895 -0.07155857 0.06195056 0.018529952 0.045406107 -0.06459373 0.09300338
0.106772475 0.025297519 -0.064729966 0.0781689 0.0057247053 -0.044805646 0.008109768 0.10348186
0.09998688 0.009402956 0.09402228 0.026186502 0.023970922 -0.11764996 0.04677234 0.12284712
-0.10428377 0.110154554 -0.010453083 -0.03010842 -0.02358669 0.036920108 0.04002156 0.05484024
0.0004309242 0.056882158 0.12128983 0.041442435 0.056837216 -0.050157193 0.1667203 0.0039066467
0.043704666 0.14416659 -0.04726171 0.046793006 -0.035142247 0.094348356 0.05155401 -0.021835152
-0.054129083 -0.07406569 -0.11308171 -0.018762624 -0.009669229 -0.14931473 -0.10051381 -0.10668553

critic.seq_model.model.0.bias f4 [64]
00000000: 7f71 95bd 4f7f a8bc c000 d7bc 33ee e8bb
00000010: 5e8a 9fbd 575a 953d 4705 d3bd 2507 dfbc
00000020: d80d 453d 1887 773d 4a27 ba3d 69f8 0cbd
00000030: 634f 133c 3ec0 d3bd 59ce a4bc b743 29bb
00000040: 7647 debd 73b7 70bd 3d04 ed3c cc23 d6bd
00000050: 79f3 c73d 629f 09bd f81c 5fbd b01a db3d
00000060: e850 25bd e61e 383d 1a3d ff3d aba9 d43d
00000070: f44e 073e 2d61 d0bd 12ec 0b3e 5225 0f3d
00000080: bac0 b43c 371b 12bd 2b6a 19bd fcbe b9bd
00000090: a7dd 203d 7e76 b4bd a2d5 c2bd da82 c23d
000000a0: b4b1 3ebd 9a4a 8ebd c39a e4bd ab36 423d
000000b0: 0897 85bd dd7a 2bbd 4749 98bd d347 0abd
000000c0: 5570 bf3d 87ce 193e 635a a43d f559 c13c
000000d0: 47a0 003d 2705 a2bd 4c91 02bd c9a9 8b3d
000000e0: a293 b2bd 7725 903d 7606 96bd 19b0 a0bd
000000f0: 68c8 003d 2b58 f33d 8b44 0e3e ee37 babd
-0.07297038 -0.020568518 -0.026245475 -0.0071084737 -0.07790063 0.072926216 -0.10303741 -0.027225086
0.048108906 0.06043157 0.09089525 -0.03441659 0.008991095 -0.10339402 -0.020117925 -0.0025827715
-0.10853474 -0.0587687 0.028932685 -0.104560465 0.097632356 -0.033599265 -0.054470986 0.106984496
-0.04036036 0.044951342 0.12462826 0.10383924 0.13213712 -0.10174785 0.13664272 0.0349477
0.022064555 -0.035670485 -0.037454765 -0.090696305 0.039273884 -0.08811663 -0.095134035 0.09497614
-0.04655619 -0.06947823 -0.11162331 0.047415417 -0.065229475 -0.04186522 -0.074358515 -0.033759903
0.093475975 0.1502019 0.080250524 0.023602465 0.031402852 -0.07911139 -0.031876847 0.06819493
-0.08719565 0.07038396 -0.07325451 -0.07846088 0.031441122 0.11882051 0.13893335 -0.09092699

critic.qf.fc0.weight f4 [256, 64]
00000000: f3d4 5f3d dde1 ad3a e1a6 e83c ec18 5abd
00000010: 0869 ebbc 5a60 1dbd c145 633c 42e1 92bd
00000020: 5e0b d7bc 9be4 66bb 6eee bb3d 0c0f 253d
00000030: c255 89bd 2ff4 94bd 0ac7 113d b110 83bc
00000040: d295 87bd f9e0 0b3d 88e7 843d 02b6 83bd
00000050: 8b48 f33c 6477 61bc b75e 493d c7bf 2f3d
00000060: e14a 193c 30f1 9f3d fbc6 33bd 053c 3fbd
00000070: f505 c23d 39e9 e839 5d44 2b3d c322 00bd
00000080: 6379 9d3c 9e1d b6bd e715 4e3d afd0 fb3a
00000090: bdf3 1dbd b386 053d d9e7 8bbb 200c b6bc
000000a0: f447 a33c 6651 3ebc 3c55 9a3b 0701 d23c
000000b0: 74ae a6bd 4521 483d c7f8 213c 1312 6fbd
000000c0: c2a6 f43c 1dde 3f3d c401 62bd 8a3a bf3c
000000d0: 873e bcba 54ba 51bd 3400 b3bd ee3f fc3b
000000e0: 97e1 9ebb 9f44 933c ae4b 883d 5745 b1b9
000000f0: 3458 36bc feee f1bd b9b5 2cbc f157 d8bd
00000100: 990d d1bd 5d64 9cbd 9e7b 81bd 5f06 233d
00000110: 18ea 22bc 2852 8d3c ccea 383d bc72 2fbd
00000120: 056b 96bd 8df9 533d 0f57 93bd 00fd 80bd
00000130: 7b05 183d eacf a43d b851 07bd 9a5e b63b
00000140: 595b cf3d ec4e 7c3d 31ce 2a3d 3df3 ea3c
00000150: 56f7 023d e344 143d d7ca 43be d55e 1b3d
00000160: 0ab9 86bc 74e7 6dbd 6405 1cbd ac1e 393d
00000170: c034 a9bc 9037 b93d 6247 573d 3d23 8a3c
00000180: 900a ac3d 2143 d93d 3400 de3a 484e 4c3d
00000190: 439b 163d 8f0b 893c ef18 4b3d 736b 40bd
000001a0: 80da 4f3b 1993 1bbd e83d edbd 2a78 383d
000001b0: cc1c 523d 3ba9 87bd b1e1 643d 3e53 e5bc
000001c0: 72a1 9a3d 20f9 003c ab22 7d3d 0739 89bd
000001d0: 6202 79bc d35b 713d b49c 20bd 8e8c 463d
000001e0: a82e 2b3d 50a1 c6bb 8d22 d23c eef1 12bd
000001f0: 09f6 93bd b577 e73b ad41 00bd 5fcd e53d
00000200: 7a46 4abc 009c 94bd 6879 c3bd d0ee 8a3d
00000210: 20c8 27bc f753 93bd 7628 5a3d 768f fcbc
00000220: 34b4 62bc c59f 483d a76c a13c 1d0d c2bd
00000230: 3ce9 90bc f6b7 373d 14f0 47bd 27ad dcbc
00000240: c90c 093e d00d de3c 00d6 903d c431 523b
00000250: 8098 cf3a e7e9 b6bc d144 f9bd cd03 abbc
00000260: 6866 34bd 8c1b d0bc eb23 3e3c 29ed ecbc
00000270: a620 1cbd de21 883c 93a9 903c 4604 23bd
00000280: c6c8 883d f543 c53d 8b11 ac3d 4ff5 a33d
00000290: 99cb 7f3d ffd7 7c3d dbce 7e3d ec7e 6ebd
000002a0: 102b 69bc 4ad8 86bd 26fe 85bd 9094 15bd
000002b0: fe57 2d3d 6428 fbbd 2b28 583d 3dc2 423d
000002c0: 5166 abbc 0b22 ce3c 90ea 7b3d 3c25 583c
000002d0: e808 1cbd 608d 573d c5ff a1bd 78db de3c
000002e0: f398 64bc d491 3cbd 9fb0 70bd 94b1 b4bd
000002f0: 6c1c 113d 26b9 203d 265a 673c ad67 d43d
00000300: 5515 8cbc a3a2 33b9 6ccb f63d 7b50 3a3a
00000310: 34d6 0d3d 4e7a 9a3d 1e93 89bd cb07 81bb
00000320: 2d75 883d eb3b 383d 4fb3 8cbc 481d 243d
00000330: bcbf 5abd 5afd a8bd 2e08 2e3d e798 a13c
00000340: 1e0a 5fbd 16c4 18bd 37a2 a43c 2786 e0bd
00000350: 5acb 2a3d 8e80 153d d0d9 ac3c 9e9f 5c3d
00000360: ed16 1abc 07ca 8b3d 3098 e93b e108 cf3c
00000370: 429d a53d 5c62 bbbd 5ce4 96bd ade9 863d
00000380: eab6 ff3a 6572 a0bc c5cd 043d d520 7abb
00000390: d714 5ebd 2ab5 ffbc 0846 b1bb 5c65 ed3c
000003a0: 7cf6 84bc 5ce3 b03c b6c8 513c 7d2e 2b3d
000003b0: 2a5e 94bd 9f50 fe3c a6bd 073d 3e25 9fbd
000003c0: ec6f ae3c 15f8 dfbc 4a36 a4bd 7c6a 683d
000003d0: ee5e 8cbc edb4 bbbd 5e08 29bd b642 2fbd
000003e0: 2dd1 0cbd dacd 90bc e69e 6a3b 5a0f 653d
000003f0: 7ffa a43d 5d72 b9bd e68f 723d ab32 b0bd
0.054646444 0.0013266165 0.028399887 -0.053246424 -0.028736606 -0.038421966 0.013871611 -0.07171871
-0.026250537 -0.0035231474 0.09176336 0.040297553 -0.0670581 -0.07273137 0.03559021 -0.01599917
-0.06620373 0.034150098 0.064894736 -0.064311996 0.029697677 -0.013761375 0.049162593 0.042907503
0.009356231 0.07809675 -0.043890934 -0.0466881 0.094737925 0.00044424253 0.041813243 -0.03128315
0.01922292 -0.08892368 0.050313856 0.0019211973 -0.038562525 0.032599162 -0.0042695818 -0.022222579
0.01993177 -0.011616087 0.0047098678 0.025635256 -0.08138743 0.048859853 0.009885973 -0.058366846
0.029864673 0.046842683 -0.055177465 0.023343343 -0.0014361896 -0.051203087 -0.08740273 0.0076980507
-0.0048486697 0.017977057 0.0665506 -0.00033811733 -0.011129428 -0.11813162 -0.010541373 -0.105636485
-0.10207672 -0.0763633 -0.06322406 0.039800998 -0.009943508 0.01725109 0.045145795 -0.04283403
-0.07344631 0.051751662 -0.071943395 -0.06298256 0.0371146 0.08047469 -0.033036917 0.0055654766
0.10124845 0.061598703 0.041700546 0.028680438 0.03197416 0.036198508 -0.19120346 0.037932236
-0.016445655 -0.05808206 -0.03809108 0.045195267 -0.020655036 0.09043801 0.05255831 0.016862506
0.08400452 0.10608507 0.0016937316 0.049879342 0.036769163 0.016729144 0.049584325 -0.04697747
0.003171593 -0.03798208 -0.11584073 0.045036472 0.051296994 -0.06624075 0.0558793 -0.027993795
0.075503245 0.007871896 0.06180064 -0.0670033 -0.015198322 0.05892546 -0.039211944 0.048473887
0.04179254 -0.0060617104 0.02565124 -0.035875253 -0.07224662 0.0070638307 -0.031312633 0.11220812
-0.0123459045 -0.07256317 -0.09544641 0.06783831 -0.010240585 -0.071937494 0.053261243 -0.030830126
-0.013836909 0.048980493 0.01970513 -0.094751574 -0.01768934 0.044853173 -0.04881294 -0.026938034
0.13383783 0.027106196 0.07072067 0.003207312 0.0015838295 -0.02232833 -0.12171329 -0.020875836
-0.044042975 -0.02540376 0.011605243 -0.02892168 -0.038117073 0.016617712 0.017658984 -0.039798997
0.066789195 0.096321024 0.084017836 0.08005773 0.062450025 0.061729427 0.06220899 -0.05822651
-0.014231458 -0.065842226 -0.065426156 -0.036518633 0.042320244 -0.12263563 0.052772682 0.04754852
-0.020922812 0.025162717 0.061502993 0.013192471 -0.03809443 0.05262506 -0.07910112 0.02720426
-0.013952482 -0.04603751 -0.05876219 -0.08822933 0.035427496 0.03923907 0.014120614 0.10371337
-0.017100016 -0.00017131357 0.120505184 0.00071073294 0.03462811 0.07542859 -0.067175135 -0.0039376966
0.066629745 0.044979017 -0.017175345 0.040066987 -0.05340551 -0.08251448 0.04248827 0.01972623
-0.054453008 -0.037296377 0.020096881 -0.109630875 0.041697837 0.036499552 0.021099955 0.05386316
-0.00940488 0.06825643 0.007128738 0.025272788 0.08086635 -0.0914962 -0.07367775 0.06587539
0.0019509469 -0.019585798 0.0324228 -0.0038166542 -0.054219093 -0.031214315 -0.0054099597 0.028978996
-0.016230814 0.021592788 0.012804201 0.04179238 -0.07244523 0.031044303 0.033139847 -0.07770775
0.021293603 -0.027339974 -0.08018167 0.056742176 -0.01713511 -0.09165368 -0.041267745 -0.04278823
-0.034379173 -0.017676283 0.0035800277 0.055922844 0.08055591 -0.09055016 0.059219263 -0.08603414

critic.qf.fc0.bias f4 [256]
00000000: 7c8f 043e 23f4 de3d c4d7 ee3d d1c7 ea3d
00000010: 02e1 f43d c424 de3d 458f fa3d 4616 ce3d
00000020: 348c f23d 3bd6 fc3d e2c2 e33d a5bc cc3d
00000030: 2e51 fd3d 5d59 d93d 0823 df3d 08c1 003e
00000040: ddca e73d 2412 fa3d dd19 ed3d f9d7 fe3d
00000050: 5bba 083e 74a9 f53d 6f19 eb3d f632 ef3d
00000060: 8336 023e 17ff c13d 821d 0d3e f37a 023e
00000070: 4d82 0d3e 04fb 013e 66dc ef3d 3519 e73d
00000080: ac4a d73d 519c f93d f603 f23d f48b db3d
00000090: 4f5e 0c3e ce2e ff3d 0d00 e23d 71b9 013e
000000a0: 26fa f63d e6d8 c83d 7b6e 073e 0165 fd3d
000000b0: 8f30 003e 5f1e eb3d a100 dd3d bf92 d53d
000000c0: 1743 003e 7427 ec3d 4998 123e 136e f43d
000000d0: 4a15 003e 23b3 de3d 7784 f93d ef03 f73d
000000e0: e4f5 ff3d 5fc5 d83d f351 f33d 2bbb 093e
000000f0: 19bd e83d e959 fe3d 225d 143e 8620 ef3d
00000100: 21f6 db3d 21eb dd3d 3b0a f43d 9adb 093e
00000110: 8836 143e 10aa f73d b1ee f13d 30a0 ef3d
00000120: ffcc 173e c3db ef3d ecdf b83d e366 e43d
00000130: 47d1 ee3d 3b24 ff3d b994 e63d 21d4 ec3d
00000140: 3158 ed3d e879 e73d bc75 ed3d 77ae 003e
00000150: df4e 013e f839 043e 0086 d63d 272a fc3d
00000160: f724 fe3d d93c dc3d 0526 e53d 15d0 fe3d
00000170: d9c7 e03d abb2 0d3e f951 d23d 7f09 033e
00000180: ad1a f33d 478a f33d 7156 e73d 82ca 033e
00000190: ee7b fa3d a686 e33d 709f c33d bc4b eb3d
000001a0: 4098 db3d cbb5 dc3d ed03 143e 1ce1 0c3e
000001b0: 8fef 053e 4aae e03d 6429 fb3d 0615 013e
000001c0: 454b c03d 05b8 f63d 89f0 e63d bfff eb3d
000001d0: 9a0e 003e c4ce da3d 3d42 e23d d27c db3d
000001e0: 34de fc3d 2584 f93d eb3b ea3d 5df5 f83d
000001f0: 2e2d f63d ab97 f03d fb39 ed3d a453 fd3d
00000200: 9488 d53d c836 e73d aaaf e33d 3ccf d53d
00000210: b7a9 db3d ad52 ea3d 7de1 fa3d 2367 cc3d
00000220: 6c7e f73d ac28 0f3e 3988 063e cb3b e93d
00000230: 90c5 f13d 1702 f43d 26d5 013e a7d7 103e
00000240: 0864 ff3d d7ec cc3d 4d77 b93d d99f 0a3e
00000250: 4422 e63d d5b8 f73d f2a3 083e 3834 de3d
00000260: 33fe df3d 00f5 fd3d 05f0 e93d ab67 f33d
00000270: da14 fc3d 6e33 d83d 01bd 103e 2dc5 fd3d
00000280: 93d2 fe3d 949c 013e b966 f53d 2431 103e
00000290: a8d6 d53d fe1c fa3d 231c d63d 890b 053e
000002a0: 345c fa3d dac6 eb3d ba8f 133e 2fc6 0d3e
000002b0: dfe5 043e 7e4f ff3d 4924 f53d 1a47 fa3d
000002c0: 4268 d43d aec1 d63d 6671 f23d b2e3 c73d
000002d0: 2c47 f83d da1c eb3d e3bd fb3d f8e1 ee3d
000002e0: 1383 f43d 4467 fe3d 36d2 c83d bbd9 f23d
000002f0: 5dd0 053e a719 003e d836 ea3d a990 ec3d
00000300: 829f f63d 6a18 ef3d c51a 053e acdb d93d
00000310: cee3 ff3d 7cb8 fc3d 1a1c fc3d 1de6 003e
00000320: 7c7f fb3d eb09 d73d 12c7 c13d b8cc 043e
00000330: 1155 e73d f2c0 fe3d da83 fa3d eec0 f23d
00000340: 38bf d63d b432 e33d 3ed2 f23d 5855 ce3d
00000350: a74c fb3d 7089 f83d 972d f73d 9765 073e
00000360: 256f 073e 7710 f93d 51cd ce3d 8667 ea3d
00000370: 80e0 dc3d aca7 fa3d fbfc 093e 89d3 f83d
00000380: ad72 e73d 5f0b ff3d 1b6f e73d 49da e03d
00000390: 4544 003e 01b6 e73d cd48 043e 6bb8 e63d
000003a0: 43ae e23d 707f d03d 6a90 c93d b30e df3d
000003b0: a18f f23d b367 0a3e dd3e dd3d e54a e93d
000003c0: 328a 0d3e 0faf 0d3e 5ddf f03d f7f2 fa3d
000003d0: 8cdc b73d a875 053e d9e3 ff3d ed8c 093e
000003e0: c13b fe3d b7a2 e53d 4655 043e ffed f23d
000003f0: 3dcb e93d 4a54 0d3e 8f2f d03d e288 ed3d
0.1294536 0.10886409 0.11662248 0.11463893 0.11956979 0.10846856 0.12234358 0.10062842
0.11843148 0.12345549 0.11121155 0.099969186 0.123689994 0.10612748 0.108953536 0.12573636
0.1131799 0.12210491 0.11577199 0.12443537 0.13352339 0.11995211 0.114794604 0.11679642
0.12716107 0.09472483 0.13780788 0.12742214 0.13819237 0.12693411 0.117119595 0.11284105
0.105122894 0.12188018 0.11817162 0.10720053 0.13707851 0.12460099 0.11035166 0.12668397
0.12059431 0.09806995 0.13225739 0.123727806 0.12518524 0.11480402 0.107911356 0.1042838
0.12525593 0.115309626 0.14315905 0.119350575 0.12508121 0.10874011 0.12183469 0.12061297
0.12498072 0.105845205 0.11880865 0.13450305 0.113641925 0.12419493 0.14488652 0.11676125
0.10740305 0.10835863 0.11916014 0.13462678 0.14473927 0.12092984 0.11813105 0.11700475
0.14824294 0.11711838 0.09027085 0.111524366 0.1166101 0.12458082 0.11258835 0.11563898
0.11589087 0.11302549 0.11594722 0.12566553 0.12627743 0.12912738 0.10474777 0.123127274
0.12409394 0.10753793 0.11188892 0.12442032 0.10975618 0.13837688 0.10269541 0.12796591
0.118703224 0.11891609 0.11295784 0.1287022 0.12230669 0.111096665 0.09551895 0.114890546
0.10722399 0.10776862 0.14454623 0.13757747 0.13079666 0.10970743 0.12263754 0.12605676
0.093893565 0.12046818 0.11276347 0.11523389 0.1250557 0.10683969 0.1104779 0.10717167
0.123470694 0.12183408 0.1143721 0.12156174 0.12020336 0.11747678 0.115833245 0.12369469
0.10426441 0.112897456 0.1111749 0.104399174 0.1072573 0.114415504 0.1225004 0.09980609
0.1208466 0.13980359 0.13137902 0.11388358 0.1180526 0.11914461 0.12678966 0.14144765
0.12470251 0.10006111 0.09055958 0.1353754 0.112370044 0.12095801 0.1334379 0.10849804
0.109371565 0.12400246 0.11422733 0.118850075 0.123086646 0.105566844 0.141346 0.12391124
0.124425076 0.12657386 0.119824834 0.14081246 0.10441333 0.12212561 0.104545854 0.12992682
0.122246176 0.11512537 0.14410296 0.13845132 0.12978314 0.12466334 0.119698115 0.12220593
0.10371448 0.1048616 0.11838035 0.09760226 0.1212295 0.114801124 0.122920774 0.11664194
0.11939063 0.1242204 0.098057196 0.11857935 0.13067766 0.12509786 0.11436242 0.11551029
0.120421425 0.116745785 0.12998493 0.10637602 0.12494622 0.12339875 0.123100474 0.12587781
0.12280175 0.104999386 0.09461798 0.12968719 0.11295522 0.12439145 0.1223218 0.11853205
0.10485691 0.11093655 0.11856507 0.10074872 0.1227048 0.12135589 0.120692424 0.13222347
0.13225992 0.121613435 0.10097755 0.11445527 0.107850075 0.12239012 0.1347541 0.12149722
0.113011695 0.12453341 0.113004886 0.109791346 0.12526043 0.11314011 0.12918396 0.11265644
0.11068394 0.10180557 0.09841998 0.108914755 0.11843801 0.1351612 0.10803006 0.11391238
0.13822249 0.13836311 0.11761353 0.12253373 0.08977613 0.13033164 0.1249463 0.13432665
0.12413741 0.11212676 0.12923154 0.118618004 0.11415718 0.13801685 0.10165321 0.11598374

critic.qf.fc1.weight f4 [256, 256]
00000000: ad6e b83c 1c53 743d b3c4 7ebb 2f87 cabc
00000010: 1e46 ffbc 9227 83bb 0221 1ebd 0b7b 53bc
00000020: 22f8 c8bc 8aec 54bc 4403 b33d d969 713c
00000030: 3efe d73b 2fb2 f73c 36b9 373d 7690 243d
00000040: 2e6f e5bc ff81 3fba f7bf bcbc e59d 97bc
00000050: daf1 883d 993d f23c 5654 e9bc d652 f3bc
00000060: 2446 713b d7b5 5db8 7ed4 943d 85d0 1d3d
00000070: 430f 273d 291d 05bd a531 ac3c d096 9a3d
00000080: 2286 92bc 47e2 213d 0e80 76bd 6ba2 403c
00000090: f7ee e83c c496 e239 5ecd b13d e6a0 9f3d
000000a0: 68b7 093d 424a 803d 72d2 3bbc 2fe1 51bd
000000b0: ae8f 2d3c 3d92 fb3a 2a79 953d 3b24 493d
000000c0: 92a2 2bbd 174c 42bc e0bb bf3c a7c7 0dbd
000000d0: 041c 043d fea0 573d ba55 1dbd 4646 af3d
000000e0: b6b5 d83b a0d6 48bc d782 663d d74e 753c
000000f0: 20c7 31bc 62cd 72bd cc51 833b 987e 41bd
00000100: ed88 ed3c e49d 2a3d d21f a5bc ebac b43c
00000110: 84d9 a13d 5627 01bd 4faf c63c f79b 483d
00000120: 57c1 a03d 9110 07bd ee11 9ebc b058 233d
00000130: f364 49bc 34e8 773d a2f2 c2bc 87b7 4cbd
00000140: 2307 4ebc e984 713c 4b72 7d3d a12b f9bc
00000150: 5c70 20bd bbca cbbc 5fae 963d 1669 d1bb
00000160: 43b0 27bd 24a5 ba3c 029a 86bc 0e88 19bc
00000170: a742 843d f4fe 3fbc 65a0 f23c 72e0 e3bc
00000180: e9cc a7bc 0d74 b93c 5f82 543d c9ce d1bc
00000190: 34bc acbc a766 23bc 8661 573d 8f83 593c
000001a0: f2c1 783c 7c5c aa3d 3a5d 503d 97f3 633d
000001b0: e352 3b3c edb9 8ebb e85b ecbb e6f7 0fbd
000001c0: 32db 433d 7ade 683d 8318 30bc af36 5b3c
000001d0: 0a8e 5d3b 42a1 af3c a1b8 043d fb6d e8bc
000001e0: 36b8 00bd 1a95 47bd 15c9 943c 2fbf edbc
000001f0: ba8b 9a3d 7cce 413d 2919 a03d d3fc c2bc
00000200: 1208 72bc bd17 22bd e1a6 f13c fee4 ab3d
00000210: 50b6 513d b21e 963d ca59 d2bc 05d8 1c3b
00000220: 2fad e3bc 6208 9bbc 81ec b8bc 06c2 fdbc
00000230: b1e3 4d3d 2478 0b3d 35cc 5f3d eb2b 4dbc
00000240: e22d 8abd b076 823c 4563 4c3d db8a 473d
00000250: 73e0 70bc 6bca 3d3c 0008 be3c 30a5 1f3d
00000260: c971 8a3d 9397 193d f6c4 3bbd c013 ddbc
00000270: 1fdf a63d a366 c83c 3504 7c3c 393e ba3c
00000280: deda 7bba 37f4 5a3d e9a8 983d d1cd cbba
00000290: 3a0e 8a3d ef47 413d 155e b53d d6f2 0f3d
000002a0: 8da8 883d aaa8 66bd ade0 993d 7a56 9f3d
000002b0: 5ab3 8f3d 1511 abbb ff2b 7abc f604 213c
000002c0: 7c6c 483d 7373 b3bc df02 0dbc 5fe8 bf3c
000002d0: 68af 07bc bbba e0bb 327a 18bd e5cf 3a3d
000002e0: 02c3 013d e75c 103c 6119 eabb 4be4 6bbd
000002f0: 21e3 7d3d 27ff aa3d 1595 cbbb 6552 c13b
00000300: f215 2d3d 9081 98bb 5e13 51bc d079 8d3d
00000310: 0d31 fcbc 94c3 413d 3ee3 513d 1264 08bd
00000320: 752b d7bc 4870 b4bc ecc1 05bd ddfc 3cb9
00000330: 1945 cfbc 2fc0 65bd e4d6 36bd 0990 703c
00000340: 24df 70bd e505 94bc 9fde 65bc 8a96 bb39
00000350: 9af9 c53b 4f2d 5fbd d8b7 683d 6689 083d
00000360: 6dcf b9bc 62f0 f5bc f752 ac3d 19e2 93bc
00000370: 51e3 68bc 6f49 bbbc e063 a13d 200d 23bd
00000380: 3ff8 163d f375 163d 80b3 f1bb 8244 9d3d
00000390: 5062 e8bc 5b19 c5bb 21d1 c4bc 8ef4 0dbb
000003a0: fb8c 163d 3a77 183d 3b9c a93d 0064 92bb
000003b0: fb28 b0bc c219 893d 43a5 76bc a51f 7d3d
000003c0: fed1 5d3d 65ce a83c 4584 2abd 2aff 0f3d
000003d0: 86b2 673c 200e a9bc 28d5 9fbc 766f b6bc
000003e0: 656e 743c 007a 3f3d a30d 35bd 1ed7 60bd
000003f0: 0918 fe3c 0a29 623d 3347 1abd 393d e3bc
0.022513712 0.05964957 -0.0038874566 -0.024722664 -0.031161364 -0.00400252 -0.038605697 -0.012907754
-0.024532381 -0.012995848 0.08740857 0.014734709 0.0065915873 0.030236332 0.044854365 0.04017683
-0.028007116 -0.00073054427 -0.023040755 -0.018507907 0.066867545 0.029570388 -0.028482597 -0.029702585
0.0036815489 -5.2859858e-05 0.07267092 0.038528938 0.04078604 -0.032498512 0.021019766 0.075482965
-0.017886225 0.039522436 -0.060180716 0.011757473 0.02843426 0.00043218408 0.08681749 0.07794361
0.033622175 0.062641636 -0.011463748 -0.051240142 0.010593338 0.0019193363 0.07298501 0.049106818
-0.041903086 -0.011858962 0.023405015 -0.03461423 0.03225328 0.05264377 -0.038411833 0.085583255
0.0066134585 -0.012258202 0.056277122 0.01497241 -0.010850698 -0.0592779 0.0040075537 -0.04723987
0.028995955 0.041654482 -0.020156775 0.02205511 0.07902816 -0.031531654 0.024253516 0.048976865
0.07849377 -0.032974783 -0.019295659 0.0398795 -0.012292135 0.06052418 -0.023797337 -0.049979713
-0.012574944 0.014741161 0.061876576 -0.030416312 -0.039169654 -0.024876943 0.073574774 -0.006390701
-0.04093958 0.022783823 -0.016430859 -0.009370817 0.064580254 -0.0117185 0.029617498 -0.027816985
-0.020483451 0.022638345 0.051882144 -0.025611298 -0.021085836 -0.009973205 0.05258324 0.013275995
0.015182959 0.08318421 0.050870158 0.055652227 0.011433336 -0.00435566 -0.0072131045 -0.035148524
0.047816463 0.056852795 -0.010748032 0.013379737 0.0033806586 0.021439198 0.03240264 -0.028372755
-0.031425677 -0.04872618 0.01816229 -0.029021828 0.07546182 0.04731606 0.07817299 -0.023802197
-0.014772432 -0.03957342 0.02949852 0.08393286 0.051199257 0.073300734 -0.02567758 0.0023932469
-0.027792541 -0.018924896 -0.022573711 -0.030976307 0.05026597 0.034050122 0.054638106 -0.012522678
-0.06747033 0.015925735 0.04989936 0.048716407 -0.01470195 0.011583905 0.023197174 0.038975894
0.06759984 0.037498068 -0.045842133 -0.026986957 0.08148026 0.024463004 0.015381862 0.022734748
-0.0009607504 0.053455558 0.07454092 -0.0015549009 0.06740995 0.04718774 0.08855835 0.035143696
0.066727735 -0.056313194 0.07513557 0.07780166 0.070166305 -0.005220542 -0.015269279 0.009827843
0.048931584 -0.021905636 -0.008606642 0.023426233 -0.008281566 -0.0068581975 -0.03722591 0.04560842
0.031680115 0.008811212 -0.0071441387 -0.057590764 0.061984185 0.08349448 -0.0062128403 0.005899715
0.042257257 -0.004654117 -0.012760965 0.069079995 -0.030785108 0.04730566 0.051242106 -0.03329856
-0.02626584 -0.022026196 -0.03265564 -0.00018023276 -0.025301503 -0.056091484 -0.04463853 0.014682778
-0.058806553 -0.018069217 -0.014030128 0.0003577958 0.0060417177 -0.05448657 0.056815952 0.03333416
-0.022681916 -0.03002185 0.08414262 -0.018052148 -0.014214353 -0.022862164 0.07880378 -0.03980744
0.03685784 0.03673358 -0.0073761344 0.076790825 -0.028367192 -0.0060149855 -0.024025502 -0.0021660659
0.036755543 0.03722308 0.08281752 -0.0044674873 -0.021503916 0.06694366 -0.01505405 0.061797757
0.054155342 0.02060623 -0.04163005 0.035155453 0.014141684 -0.020636618 -0.01951082 -0.022269946
0.014918898 0.046747208 -0.044202458 -0.05489265 0.03101732 0.05521492 -0.037665557 -0.027739154

critic.qf.fc1.bias f4 [256]
00000000: c1b5 ff3d fb5b 0b3e f065 023e 06ae 053e
00000010: 938c 073e a0b1 073e 3f59 033e e6bd 003e
00000020: 7c3c 133e 5352 023e ac5d 083e f75d 033e
00000030: 5123 fd3d b4db fa3d 29aa 083e 0440 063e
00000040: 52eb 043e fa11 023e 2885 203e 5ed9 023e
00000050: ab4f ef3d 3a3d 063e 4ab9 f03d a62e f53d
00000060: bffc fd3d b732 053e 926a 013e 692e 043e
00000070: 107d 023e 7d4e 0b3e 5d55 fd3d d3c7 033e
00000080: e937 003e 4304 093e 193e 033e 66ae 0d3e
00000090: dd45 f03d 9c95 093e f503 fa3d 1392 cb3d
000000a0: 2d30 0c3e 9178 053e 4d14 033e 82b7 fb3d
000000b0: 4729 f93d 783f 0f3e 010f 0c3e 1617 f53d
000000c0: 1fb6 1c3e 9042 063e 02cf 013e 9f7b 073e
000000d0: e9b7 093e 32fe fc3d b1bf 063e cb5b 103e
000000e0: db7a 0d3e d277 1e3e b53c 093e 4669 003e
000000f0: 4689 023e abb5 013e 34e5 f73d fd64 1b3e
00000100: aa46 083e 6cb0 133e a09e f43d d376 f93d
00000110: c9f0 053e 0dde 063e 8974 0b3e 5c92 123e
00000120: 1bec c83d cdcc cc3d 34d2 053e 111c 073e
00000130: b24b 0b3e 53db 053e f41b 033e e43d 0b3e
00000140: 5248 033e 6789 f13d 73dc 023e a126 0c3e
00000150: 5465 f43d b2e9 fb3d bf59 fb3d 20f3 ff3d
00000160: 59bd 093e c6ad 063e b0c2 013e a9ca 073e
00000170: b38a 023e e1f2 053e b48e c83d 5888 f23d
00000180: 1b3d 013e c510 053e 7fd3 0c3e acd9 f73d
00000190: d479 0b3e 7cff 063e c99c fc3d 4090 073e
000001a0: 64ad fa3d 6d1d f43d 2294 053e a6d5 083e
000001b0: 3bc5 ff3d bca2 033e fa3c ff3d 7cb2 073e
000001c0: bd5d 143e a59b 103e 595a 1a3e 0f24 033e
000001d0: 9861 0f3e 6153 fd3d bb8b f23d 11a3 0e3e
000001e0: 6468 073e c2f8 ff3d 0731 1b3e b3be ff3d
000001f0: 818c 0b3e 32ff 0d3e 2836 fc3d 487e ee3d
00000200: f925 0e3e 5eca f93d 2ee3 1c3e f9e3 013e
00000210: e774 fa3d a2ab f33d 04a1 0d3e bea4 013e
00000220: 1f3e 053e e5a1 ca3d 553e 023e 360d 033e
00000230: 9c99 023e f603 073e c88c 033e 3250 053e
00000240: 566a ea3d 2243 fb3d 2474 ff3d 05a8 073e
00000250: 8f45 0d3e c773 f53d 2ffd 013e 4caa 023e
00000260: 9311 043e cac4 f33d a25e 083e 2acd f83d
00000270: eb42 063e 1b17 0a3e 9b91 093e a64e 0d3e
00000280: e172 f73d 9d4b 0b3e e6de 063e fa39 023e
00000290: 60b6 f43d 42f2 013e 8afa 033e 282e 0b3e
000002a0: d886 f23d 0d9d f33d 6a02 ff3d 7565 063e
000002b0: 9f98 033e 3403 0c3e cbd7 003e 4100 063e
000002c0: 5fc9 113e 8c3f 013e dd0e 023e 98cf 053e
000002d0: 45ba 043e a923 053e e904 f93d 6f67 033e
000002e0: b9dd f53d b680 083e 0b7b 033e cf94 fc3d
000002f0: 84b0 f73d ef8c 003e 29f5 063e 2e01 033e
00000300: 5861 ee3d 067b 043e 8d66 063e dcb2 083e
00000310: 5f4f 113e 3797 ee3d 3c6c 033e 6529 0d3e
00000320: 753b fa3d 676d fa3d ec88 033e 68f0 063e
00000330: ed13 023e 642f 033e 18a8 123e 1ac7 093e
00000340: 8708 043e f824 053e 96d8 fa3d d837 fa3d
00000350: 4e21 033e 007f fe3d 0fe8 133e 7887 0a3e
00000360: 4666 033e e160 043e 3819 033e 71d7 f83d
00000370: 1891 fe3d e560 023e 9f07 fb3d 0720 0b3e
00000380: 51ed 013e 3ee3 053e 36f7 123e 094c f83d
00000390: 1da6 fe3d 45d2 f83d d5f6 f93d 62ef 0a3e
000003a0: e913 043e 79df f83d 74de ed3d cdcc cc3d
000003b0: 3b69 023e 613b 063e d6a6 033e a121 053e
000003c0: a602 fd3d 3e0a 063e a839 043e 1e1d 123e
000003d0: 2188 1d3e 70c8 113e ba91 f33d 0c2b 053e
000003e0: ee08 023e d1a3 023e 11d1 1d3e 0711 023e
000003f0: 4513 083e bc15 ff3d 170d ff3d 4477 043e
0.12485839 0.13609307 0.12734199 0.13054666 0.13237219 0.13251352 0.12827013 0.1257244
0.14378542 0.12726717 0.13316983 0.12828813 0.12360252 0.12248936 0.13346161 0.13110358
0.12980393 0.1270217 0.15675795 0.12778232 0.11685117 0.13109294 0.11754091 0.11971788
0.12401723 0.13007627 0.1263831 0.12908329 0.1274302 0.1360416 0.123697974 0.12869196
0.12521328 0.13380532 0.12816657 0.13836059 0.11732075 0.13435978 0.12207786 0.09939971
0.13690253 0.13034274 0.12800713 0.12290861 0.12166076 0.13989055 0.13677599 0.11967294
0.15303849 0.13111329 0.12676623 0.13230751 0.13449062 0.123531714 0.13159062 0.14097516
0.13816397 0.15475395 0.13402064 0.12540159 0.12747678 0.12666957 0.12104264 0.15175243
0.13308206 0.14422768 0.11944318 0.12180867 0.13080133 0.13170643 0.13618673 0.14313644
0.098106585 0.1 0.13068467 0.131943 0.13603094 0.13071947 0.12803632 0.13597828
0.12820557 0.117937855 0.12779407 0.13686611 0.11933389 0.12300433 0.12272977 0.12497544
0.13451137 0.13152227 0.12671924 0.13260902 0.12748222 0.13080932 0.097928435 0.11842412
0.12620966 0.12994678 0.13752554 0.121020645 0.13620692 0.13183397 0.12334592 0.13238621
0.12240103 0.11919675 0.1304479 0.1336275 0.124887906 0.12855047 0.12462802 0.1325168
0.14488883 0.14121874 0.15073527 0.12806724 0.14002073 0.12369419 0.11843058 0.13929392
0.13223416 0.12498619 0.15155421 0.12487545 0.13627817 0.1386688 0.12315017 0.1164518
0.13881673 0.121968016 0.15321037 0.12684621 0.122293286 0.11897971 0.13830954 0.126605
0.13011979 0.0989416 0.1271909 0.12798008 0.1275391 0.13185105 0.12846673 0.13018873
0.11446063 0.12268664 0.12473324 0.13247688 0.13796066 0.119849734 0.12694238 0.12760276
0.12897329 0.11902769 0.1331735 0.12148507 0.13111465 0.13485377 0.1343445 0.13799533
0.12082458 0.13603063 0.13170967 0.12717429 0.11948848 0.1269007 0.12888542 0.13591826
0.11842126 0.118951894 0.12451632 0.1312464 0.12851189 0.13673097 0.12582318 0.13086034
0.14236973 0.12621897 0.12700982 0.13067472 0.12961681 0.13001885 0.1215914 0.12832426
0.12005181 0.1333035 0.12839906 0.123330705 0.120942146 0.12553762 0.13179459 0.12793419
0.116396606 0.12937555 0.13125058 0.1334948 0.14190434 0.11649936 0.12834257 0.13785322
0.12218372 0.12227898 0.128452 0.13177645 0.12702914 0.12811047 0.14321935 0.13454857
0.12893878 0.13002384 0.12248342 0.122176826 0.12805673 0.12426567 0.14443992 0.1352824
0.12831983 0.12927581 0.12802589 0.12150467 0.12430018 0.12732275 0.12257313 0.13586436
0.12688185 0.13074967 0.14352116 0.121238776 0.12434027 0.12149481 0.122052826 0.1356788
0.1289822 0.12151999 0.11614695 0.1 0.12735455 0.13108589 0.12856612 0.1300111
0.12354021 0.13089845 0.12912619 0.1426892 0.1538396 0.14236617 0.118930295 0.13004702
0.12698719 0.12757803 0.15411784 0.12701808 0.132886 0.124553174 0.124536686 0.12936121

critic.qf.last_fc.weight f4 [2, 256]
00000000: 67fa 053d 864c 0b3d 6b4f 223c 5c10 263c
00000010: 2f8f 173d da33 493c c0bf 0d3d 8218 cb3b
00000020: 011c a43c 440b ea3b 9783 133d cc47 1c3c
00000030: 46f5 ca3b 9ca7 fb3c f27a 0e3d 0b69 ed3c
00000040: f036 163d 71d8 063d 4fc4 fc3c f593 ef3b
00000050: 11e8 f13c 9371 313c 8e9e ff3c 9520 f63c
00000060: a68f be3b 3a92 323c 336d 0f3d 1112 2b3c
00000070: 2046 133d 438d 133d 078d 033d df3a 043c
00000080: 68b6 023d 36ad 553c 0108 f43b bbdd 903c
00000090: 66d2 073d bddb 473c 82b7 043d fa13 a03a
000000a0: 92bd 883c f04a 333c 1ede 033d 192e 103d
000000b0: aa05 0d3d 6f2f 903c 5877 863c 9267 043d
000000c0: d792 143d 5b5f 473c eaf7 1e3c 6ee6 0b3d
000000d0: 2ce1 703c 6946 083d 348c 453c bdbd 123d
000000e0: 1b29 7d3c 5543 013d abc7 0d3d 15d5 0e3d
000000f0: fe7e 053d 757c 153d b3e2 fb3c d0c1 e13c
00000100: 5f51 0e3d c404 193d e709 e83c d5a8 ff3c
00000110: 2f0c 303c 8706 243c d53b 773c 9d57 a33c
00000120: 7c3f 1b3a f817 6039 508e 323c c937 293c
00000130: 631a 8b3c 0c21 143d d385 d83b 6dba 123d
00000140: 7fb1 0f3d 7f67 e23c 7e4c 113d 34f5 1c3d
00000150: 6fea f73c c043 db3b 046a 123d 6da8 c43b
00000160: 33ff 4c3c d073 323c 6a35 de3b 902d 523c
00000170: 663b ea3b 3b0c 3d3c 00b1 713a b8cf fc3c
00000180: 4d4f 003d 0961 143d 704b 873c 4ffd 053d
00000190: aebe 0a3d 8f88 3e3c d2e3 053d 6e39 073d
000001a0: abad 043d a593 033d e3be 393c 1088 5a3c
000001b0: 1200 143d 2c4c fb3b da7e 123d 2626 803c
000001c0: d2be 073d 6d7a 9a3c 6467 0f3d 37cd 163c
000001d0: ae59 913c e731 f43b f2ac d63c 9b80 893c
000001e0: b646 373c 28fc fb3b 3e8e d33c ef3f 003d
000001f0: ea44 733c 5944 813c fa31 123d 05b7 d63c
00000200: ff4c 953c c2c5 043d 4097 083d 6b5c 0d3d
00000210: 4e23 003d db9a ed3c f1e4 8b3c f233 073d
00000220: 9bee d63b b7a6 49ba 935e 103c b869 e33b
00000230: 29e9 383c f8b1 133c 7245 113d fa9a 383c
00000240: c5a5 d43c 995e 0f3d 529d 0c3d a939 3e3c
00000250: ce3c 0d3d fb44 f73c 4d7b fb3b b955 0c3c
00000260: 093a 013c b5cb f63c f7bf 123d e97a 023d
00000270: aa36 393c b020 553c 139a 133d 90af 063d
00000280: 448e e83c 29b7 743c 73e5 113d 9293 eb3b
00000290: ff3e f83c 851f 0c3d b434 123c 4921 803c
000002a0: c11d 013d b9a1 d13c b9d3 093d 7633 303c
000002b0: f980 153d 97ce 143d e5f4 fe3c 9eaf 183d
000002c0: ae70 a83c f904 163d 49ce f43c 3626 193c
000002d0: 7ee6 083d 2670 eb3b 28df e63c fe88 263c
000002e0: a031 063d 0eb9 563c bb3f 0e3d a706 053d
000002f0: fa5e fc3c 5165 0e3c 57e7 143d ff1a 323c
00000300: ba0b f43c 0966 163d cf65 303c 6eca 5a3c
00000310: 9548 1b3d 015a ea3c 8406 b23b fe30 873c
00000320: eaac 123d 3faa 093d ba23 f73b ced4 443c
00000330: 7395 103d 9252 2b3c 7bbc ad3c 48f8 603c
00000340: 0f6f 193c b57b 303c 8acc f63c 4a77 093d
00000350: a122 113c 7884 c73b 36f2 0c3d 949e 143d
00000360: 0eb9 7f3c 28ad cc3b 98a4 033d 9d7e 063d
00000370: eec1 0f3d 9b5b 163c d05a fa3c 873a 6a3c
00000380: a88c 0a3d 7dd6 163c 4fba aa3c 8862 053d
00000390: 16bf 0f3d bf73 003d 20b1 093d d9d9 613c
000003a0: 32a5 0a3d 80f0 d83c 5a97 da3c 9198 27bb
000003b0: 659b d73b 0309 343c b966 1c3c 0b6b 323c
000003c0: 6746 0f3d 5b9e 373c bcab c43b 0cf3 a13c
000003d0: 749a e63c 4af1 a83c 474d ce3c bf73 153c
000003e0: c500 123d 441a 143c 6879 0b3d c96d 0f3d
000003f0: e792 233c 5f2b 0b3d 4004 d73b 6cf7 113c
0.032709505 0.034008525 0.00990663 0.010135736 0.037001785 0.012280429 0.034606695 0.00619799
0.020032885 0.0071424562 0.036014166 0.009538602 0.0061937897 0.03071957 0.03478522 0.028980752
0.036673486 0.03292126 0.030855326 0.007311339 0.029529603 0.010830301 0.031203534 0.030044833
0.005815464 0.010899121 0.03501625 0.010441319 0.03595555 0.03602339 0.032116916 0.008070677
0.031912237 0.013041785 0.007447243 0.017683854 0.033159636 0.012198386 0.03240157 0.0012212985
0.016691957 0.010943159 0.03219425 0.035200212 0.03442923 0.017600743 0.01641433 0.032325335
0.03627285 0.012168731 0.009702662 0.0341553 0.014702123 0.033270273 0.012057353 0.03582548
0.015451695 0.031558353 0.034614246 0.03487118 0.032591812 0.036495645 0.030747747 0.027558237
0.03474557 0.03735806 0.028325034 0.031208435 0.010745092 0.010011322 0.015089949 0.019939238
0.00059222407 0.00021371234 0.010898188 0.010328242 0.016980356 0.03616433 0.00660775 0.03582232
0.035081383 0.027637241 0.03547334 0.03831978 0.030263154 0.006691426 0.035745636 0.006001523
0.012512016 0.01089187 0.00678127 0.012828246 0.007148194 0.0115385605 0.00092197955 0.030860767
0.031325627 0.036225352 0.016515464 0.032712277 0.033873253 0.011629238 0.03268797 0.033013754
0.032392185 0.032123227 0.011337015 0.013338104 0.03613288 0.0076689925 0.035765506 0.01564319
0.033140965 0.018857205 0.03501071 0.0092042005 0.017742958 0.007452238 0.026205514 0.016784957
0.011186292 0.0076899715 0.025824662 0.03131097 0.014847973 0.015779661 0.035692193 0.026210317
0.018225191 0.03241516 0.03334737 0.034511965 0.03128367 0.029004505 0.017076941 0.033008523
0.0065592057 -0.0007692384 0.008811611 0.006940093 0.011286058 0.009014599 0.03546662 0.011267418
0.025957951 0.035002325 0.03432972 0.011610427 0.034481816 0.03018426 0.0076746107 0.00856536
0.007887372 0.030126432 0.035827603 0.031855498 0.011304537 0.013008282 0.03603561 0.032882273
0.02838815 0.014936247 0.03561921 0.0071892226 0.030303476 0.034209747 0.008923698 0.015640872
0.031522516 0.02558981 0.03364918 0.010754457 0.03649995 0.036329832 0.031122634 0.037276857
0.020561542 0.036625836 0.02988352 0.009347489 0.03342294 0.007185 0.028182581 0.010164497
0.03276217 0.013105644 0.034728747 0.032477047 0.030807007 0.008691148 0.036353435 0.010870694
0.029790748 0.036718402 0.010766461 0.013353927 0.037911016 0.02860737 0.0054329056 0.016502853
0.035809435 0.033609625 0.0075421007 0.012013627 0.035298776 0.010456698 0.021208039 0.01373107
0.009364857 0.010771682 0.030126829 0.03356103 0.008858354 0.0060887896 0.034410678 0.036284044
0.015608085 0.006246228 0.03213939 0.03283559 0.035097055 0.009177114 0.03056088 0.014296181
0.033825547 0.009206411 0.020840792 0.03256467 0.035094343 0.031360384 0.033616185 0.013784849
0.03384895 0.026481867 0.026683498 -0.0025573114 0.006579804 0.010988477 0.009545975 0.010889779
0.03497925 0.0112071885 0.0060019176 0.019769214 0.02814982 0.020622868 0.025183333 0.009121834
0.035645265 0.009039465 0.03405133 0.03501681 0.009983755 0.03397691 0.006561786 0.008909088

critic.qf.last_fc.bias f4 [2]
00000000: 2ae6 153d 9cc9 0c3d
0.036596455 0.034371957
