TFPORL-main/pomdp-discrete/logs_results/network-defender/param-search/lr-network-size/lr3e4-ns256/seed-3/save/agent_0010010_perf-74.320.pt (torch, 941672 bytes, 28 tensors)

critic.observ_embedder.fc.weight f4 [32, 15]
0	0xbf19e5db	-0.60116357
1	0xbf019ac7	-0.50626796
2	0xbe93d13a	-0.28870565
3	0xbef677d1	-0.48138288
4	0x3da28cf1	0.07937039
5	0xbec01460	-0.37515545
6	0x3ee16db6	0.44029015
7	0x3f1af940	0.60536575
8	0x3e831759	0.2560375
9	0x3ecf2560	0.40458202
10	0x3dc8f5ca	0.098125055
11	0x3ee56606	0.448044
12	0xbdd4407d	-0.10363863
13	0xbed7f346	-0.4217779
14	0xbe74829e	-0.23877952
15	0x3db4ff5c	0.088377684
16	0xbee5ae00	-0.44859314
17	0x3eed23b8	0.46316314
18	0x3eed916e	0.46400017
19	0x3ea8288f	0.32843444
20	0x3e90f4b8	0.28311706
21	0xbe5b1bbd	-0.213973
22	0x3efb60ef	0.49097392
23	0xbeb4eb48	-0.35335755
24	0xbd9ebd40	-0.0775094
25	0xbe99d068	-0.30041814
26	0xbe00d069	-0.12579502
27	0x3eb73860	0.35785198
28	0xbec34d07	-0.38144705
29	0xbdf2cf7e	-0.11855982
30	0xbe8de4e6	-0.27713698
31	0x3ef017bb	0.46893105
32	0xbe8caf4b	-0.27477488
33	0xbe913d86	-0.2836725
34	0xbeaa6817	-0.3328254
35	0xbe00f398	-0.12592924
36	0xbd388365	-0.045047183
37	0xbea2b14f	-0.317759
38	0xbe54dccf	-0.20787357
39	0xbca2f58d	-0.019892478
40	0x3ecf615c	0.40503967
41	0xbe47f138	-0.19525611
42	0xbe2e043d	-0.16993804
43	0xbc3ccc1c	-0.011523273
44	0x3f160753	0.58604926
45	0x3d01f58b	0.03172831
46	0xbea41265	-0.32045284
47	0xbd9c4930	-0.07631147
48	0xbe699cc2	-0.22813705
49	0x3e6702cc	0.2255966
50	0x3d8d85b5	0.06910268
51	0xbec0af40	-0.37633705
52	0xbdf69945	-0.120409526
53	0x3ec50a83	0.38484582
54	0x3e061ef2	0.13097742
55	0x3e48905f	0.19586323
56	0xbe15844f	-0.14601253
57	0x3f13bc18	0.57708883
58	0x3e0c7489	0.1371633
59	0xbe6d0846	-0.23147687
60	0x3ef8dde2	0.48606783
61	0x3d99cb3d	0.07509468
62	0xbc7d8fba	-0.015476162
63	0xbe989746	-0.29802912
64	0xbe8f875f	-0.28032967
65	0xbe985b3c	-0.29757106
66	0xbe0b28de	-0.13589808
67	0xbe67971a	-0.22616234
68	0x3ecffb11	0.40621236
69	0x3e4e8164	0.20166546
70	0x3e4aa96f	0.19791196
71	0x3ee1d91e	0.4411096
72	0xbd924a42	-0.0714307
73	0x3e076c08	0.13224804
74	0x3eac5dd5	0.33665338
75	0x3ebe4769	0.37163857
76	0x3e388132	0.18018034
77	0x3ecd306a	0.40076
78	0x3e9c2e32	0.30503994
79	0x3efed44f	0.49771354
80	0xbf037ffa	-0.5136715
81	0xbea1fd41	-0.3163853
82	0xbe12c2e4	-0.14332157
83	0xbd274cce	-0.04084473
84	0x3f038289	0.51371056
85	0xbebb073a	-0.3652895
86	0x3e8004a2	0.25003535
87	0xbe847bd4	-0.25875723
88	0xbf1983ea	-0.5996691
89	0xbcf318ca	-0.029674906
90	0xbeba8791	-0.36431554
91	0xbce837ff	-0.028347014
92	0xbf157c29	-0.5839258
93	0x3ed51132	0.4161468
94	0x3d90f059	0.07077093
95	0x3cda8af0	0.026677579
96	0xbe88a3d8	-0.26687503
97	0x3ec26374	0.37966502
98	0xbd2ee1db	-0.04269586
99	0xbdfed116	-0.12442224
100	0x3d93ef6d	0.07223401
101	0x3e578312	0.21046093
102	0xbe18babd	-0.14914985
103	0x3c2783b5	0.0102242725
104	0x3e286ae4	0.16447026
105	0xbe86f645	-0.26359764
106	0xbeae6735	-0.34063116
107	0xbe47a402	-0.19496158
108	0x3dff3439	0.124611326
109	0xbe809507	-0.251137
110	0x3ca68880	0.02032876
111	0x3ecb837f	0.3974876
112	0xbd002e3f	-0.031294104
113	0xbe5c84cd	-0.21535034
114	0xbeaf946a	-0.34292918
115	0xbec80e47	-0.39073393
116	0x3edca04d	0.4309105
117	0x3f0f4cac	0.55976367
118	0xbdbed5bd	-0.09318111
119	0x3f28f942	0.6600534
120	0x3d95c92e	0.073137626
121	0xbe81afe1	-0.25329497
122	0xbe71eaac	-0.23624676
123	0xbdff575b	-0.124678336
124	0xbe83dd80	-0.2575493
125	0xbdf29729	-0.11845238
126	0x3d8f0437	0.06983226
127	0xbbbdbca2	-0.005790309
128	0xbd457c79	-0.04821441
129	0x3c81ea15	0.01585869
130	0x3e71ba66	0.23606262
131	0x3b37db13	0.0028054162
132	0x3e04f0f2	0.12982538
133	0xbd7ee8b4	-0.06223364
134	0xbe46586f	-0.19369672
135	0x3e09a0b7	0.13440214
136	0x3df45dc3	0.11931946
137	0x3ef16f2e	0.47155136
138	0xbee54383	-0.4477807
139	0xbe1e22c0	-0.15442944
140	0xbf0783ef	-0.5293569
141	0x3db37715	0.087629475
142	0x3d7b8dd9	0.061414573
143	0x3ddcc19f	0.10779118
144	0xbd73d89b	-0.059532743
145	0xbe8611ff	-0.26185605
146	0x3e2c9e8a	0.16857353
147	0xbf464bc2	-0.7745935
148	0x3eb090a6	0.34485358
149	0x3e9f1b75	0.31075636
150	0xbe19c3d8	-0.15016115
151	0x3ecafeca	0.39647514
152	0x3e85fd2f	0.26169726
153	0x3ee326db	0.44365582
154	0x3e964737	0.29351208
155	0xbdc67f5d	-0.09692261
156	0x3ea33292	0.3187452
157	0xbd7a25ff	-0.061071392
158	0x3eaa1176	0.33216447
159	0xbe928435	-0.2861649
160	0xbcec2055	-0.02882401
161	0x3e0573ce	0.13032457
162	0x3e141b8e	0.14463636
163	0x3e54c263	0.20777278
164	0xbee10fea	-0.43957454
165	0xbf36d726	-0.7142204
166	0x3ec8ddb5	0.3923165
167	0xbde78972	-0.113055125
168	0x3da5475c	0.08070251
169	0xbd324ec1	-0.043532137
170	0x3c5d5dda	0.0135111455
171	0x3e82a9de	0.25520223
172	0xbdc8aee3	-0.09798982
173	0x3d52a780	0.05142927
174	0xbdf0794b	-0.11741885
175	0x3ea49b19	0.3214958
176	0xbee70b6d	-0.45125905
177	0x3ee90de0	0.45518398
178	0x3ea859f2	0.32881123
179	0xbe273b71	-0.16331269
180	0x3e91c830	0.28473043
181	0x3d00b51c	0.03142272
182	0x3e8d6d2e	0.2762236
183	0x3ec84843	0.3911763
184	0xbd3c5e7e	-0.045988552
185	0x3e9fd87a	0.31219846
186	0xbe26a758	-0.16274774
187	0x3cecbcc7	0.02889861
188	0xbeefd340	-0.46840858
189	0xbdc2deb0	-0.095151305
190	0x3eba6931	0.3640838
191	0xbe618fc3	-0.22027497
192	0xbec20f89	-0.37902477
193	0x3e9923c2	0.29910094
194	0x3e51aebd	0.20476814
195	0x3e83e292	0.25758797
196	0x3d301c34	0.042995647
197	0x3e5354e6	0.20637855
198	0xbe7221eb	-0.23645751
199	0x3ee8d286	0.45473117
200	0xbda70090	-0.08154404
201	0x3e8008ce	0.25006717
202	0x3d202036	0.03909322
203	0x3ea4f8d2	0.32221085
204	0x3ed112c1	0.4083462
205	0xbbb3bc24	-0.0054850746
206	0x3e8b920b	0.2725986
207	0xbe6b4909	-0.2297708
208	0x3eb46b83	0.35238275
209	0xbe8ce550	-0.27518702
210	0xbe016781	-0.1263714
211	0xbeafd8fe	-0.3434524
212	0x3ea2d6d8	0.31804538
213	0x3f0bfd14	0.5468304
214	0xbde13823	-0.10997035
215	0xbe8dabde	-0.27670187
216	0xbc3654b6	-0.011128595
217	0xbe00592a	-0.12534013
218	0x3e90e827	0.28302118
219	0x3ec23065	0.37927547
220	0xbeb35af6	-0.35030335
221	0xbf212917	-0.62953323
222	0xbe16a184	-0.14710051
223	0x3d904b78	0.070456445
224	0x3e90f918	0.28315043
225	0xbd109ac1	-0.035303835
226	0xbdf9a137	-0.121889524
227	0x3e3f0aa4	0.18656403
228	0x3e95616f	0.29175898
229	0xbeaf3c48	-0.34225678
230	0x3d52af7d	0.05143689
231	0x3e03ed01	0.12883379
232	0x3ea762cc	0.32692564
233	0x3e8f8b91	0.28036168
234	0x3e832d97	0.2562072
235	0x3f03a793	0.5142757
236	0xbe2a5396	-0.16633448
237	0x3e865247	0.26234648
238	0xbc24122b	-0.010014097
239	0x3e60283b	0.21890347
240	0x3e89e45e	0.26932043
241	0x3eccc2e1	0.3999243
242	0xbe256368	-0.16151202
243	0xbe900dd9	-0.28135565
244	0x3caf86a0	0.021426499
245	0x3eb9f690	0.36320925
246	0xbd8ef532	-0.06980361
247	0x3db43baf	0.08800446
248	0xbd9d6e48	-0.0768705
249	0xbcfcbfc1	-0.030853154
250	0x3ea36b79	0.31917933
251	0x3e6e5664	0.23275143
252	0x3ee6fbe0	0.4511404
253	0xbec49ec2	-0.38402373
254	0xbda8936f	-0.08231246
255	0xbf0682cd	-0.52543336

critic.observ_embedder.fc.bias f4 [32]
0	0x3dae7321	0.08518053
1	0xbbeafaff	-0.0071710343
2	0x3ee579f9	0.4481962
3	0x3ca58ac1	0.020207765
4	0xbde7219c	-0.11285707
5	0x3cf83d66	0.030302715
6	0x3e9ff67f	0.3124275
7	0x3e8c6471	0.2742038
8	0xbe57a2ee	-0.21058246
9	0x3eb7904c	0.35852277
10	0xbf0eb9c6	-0.5575222
11	0x3dbb8253	0.09155717
12	0xbe492d60	-0.19646215
13	0xbf1c9b6a	-0.61174643
14	0x3e907835	0.2821671
15	0xbf138c1e	-0.57635677
16	0xbec78aea	-0.3897317
17	0x3db91958	0.09038037
18	0x3f58c7a7	0.84679645
19	0xbe4167af	-0.18887208
20	0x3e8bcda1	0.2730532
21	0xbc8d6114	-0.017258205
22	0xbe484223	-0.19556479
23	0x3f1871b9	0.59548527
24	0xbe13ebce	-0.14445421
25	0xbe2a0b8d	-0.16605969
26	0x3dde6147	0.10858398
27	0xbea62088	-0.32446694
28	0xbe02872d	-0.12746878
29	0x3e820a7f	0.25398633
30	0xbea33ea6	-0.31883734
31	0x3e3ca58b	0.18422525

critic.action_embedder.fc.weight f4 [16, 16]
0	0xbe5d0866	-0.21585235
1	0xbe5799a4	-0.21054703
2	0xbe57c54e	-0.2107136
3	0xbe7c6fd2	-0.24652031
4	0xbce72d10	-0.02821973
5	0xbe55adc7	-0.20867072
6	0xbe041ddf	-0.1290202
7	0x3f0bef97	0.5466246
8	0xbe63c66c	-0.2224366
9	0xbe5c4010	-0.21508813
10	0xbe5ef32b	-0.21772449
11	0xbe542d2d	-0.20720358
12	0x3f7c3df1	0.98532015
13	0xbdbaf5a6	-0.09128885
14	0xbda311bc	-0.07962367
15	0xbe10beaa	-0.14135233
16	0x3eb89e79	0.36058405
17	0xbe8dbdaa	-0.27683765
18	0xbe8deb80	-0.27718735
19	0xbe519aae	-0.20469162
20	0xbe65f1ba	-0.22455493
21	0xbe50d89f	-0.20395134
22	0xbcaa152b	-0.020762047
23	0x3db2ed01	0.08736611
24	0x3de45777	0.11149495
25	0xbe7c29f7	-0.24625383
26	0x3f3dcf96	0.74144876
27	0x3f21c980	0.6319809
28	0xbe6a711a	-0.22894707
29	0x3ddea10e	0.108705625
30	0xbe5dda92	-0.21665409
31	0x3df39e6b	0.1189545
32	0xbd013ab2	-0.031550117
33	0x3ec96f11	0.3934255
34	0xbe445872	-0.19174364
35	0xbe44bc96	-0.19212565
36	0xbe7a5fee	-0.24450657
37	0xbe434af0	-0.19071555
38	0xbe514a86	-0.20438585
39	0xbe42b401	-0.19013979
40	0xbe46e3a2	-0.19422773
41	0x3e9561c8	0.29176164
42	0xbe4462dd	-0.19178338
43	0x3f4c74e7	0.7986588
44	0xbe49568e	-0.19661924
45	0x3da071a9	0.07834179
46	0x3e23ea7a	0.16007414
47	0xbe5653be	-0.20930383
48	0xbe35ad93	-0.17741995
49	0xbe30bf10	-0.17260385
50	0x3f8ff67f	1.12471
51	0xbe2ea9dc	-0.17056984
52	0xbe33501e	-0.17511031
53	0xbe32ce0d	-0.17461415
54	0x3dff8bf3	0.12477865
55	0xbe38da0a	-0.18051925
56	0xbe357a43	-0.1772242
57	0x3d53c127	0.051697876
58	0xbe673c3a	-0.22581568
59	0xbe5eb340	-0.21748066
60	0xbe309087	-0.17242633
61	0x3de734fe	0.11289404
62	0x3de43c7e	0.111443505
63	0xbe47bf30	-0.19506526
64	0xbe7187d1	-0.23586966
65	0xbe70721c	-0.2348103
66	0xbe6aec61	-0.22941734
67	0xbe6f07bc	-0.23342794
68	0xbe6c4845	-0.23074444
69	0x3f433e8b	0.7626731
70	0xbe73601e	-0.23767135
71	0x3ebc4d57	0.36777756
72	0xbe6b98dc	-0.2300753
73	0xbe6f35d5	-0.23360379
74	0x3c884755	0.016635576
75	0xbe6b959e	-0.23006293
76	0xbe0ab5d0	-0.13545918
77	0x3f0f0b66	0.5587677
78	0xbdb27a6d	-0.08714757
79	0xbe6c98d4	-0.23105174
80	0x3f93cdc4	1.154717
81	0xbd844347	-0.06458145
82	0xbd79eea9	-0.06101862
83	0xbe3991be	-0.18122002
84	0xbd75a835	-0.059974868
85	0x3ed278c8	0.41107774
86	0xbd765ffc	-0.06015013
87	0xbd82e9ff	-0.063922875
88	0xbd743b65	-0.059626956
89	0x3e7e7dad	0.24852629
90	0xbd6d42aa	-0.057924904
91	0xbd70ac9d	-0.058758367
92	0xbd813b70	-0.06310165
93	0xbc152eaa	-0.009105364
94	0xbd3c5521	-0.045979623
95	0xbe141c76	-0.14463982
96	0xbe2d2b90	-0.16911149
97	0x3f399978	0.724998
98	0xbe6461fc	-0.22303003
99	0xbe5709a9	-0.20999779
100	0x3d14817f	0.03625631
101	0x3e883620	0.26603794
102	0xbda58232	-0.080814734
103	0xbe4f2a0f	-0.20230888
104	0xbe52b0e4	-0.20575291
105	0xbe374ec9	-0.17901148
106	0x3f6d5a36	0.92715776
107	0xbe7b94b0	-0.24568439
108	0x3ee05870	0.43817472
109	0xbe506a06	-0.20352945
110	0xbe2e7edf	-0.17040585
111	0xbe511a71	-0.20420243
112	0xbe4176ac	-0.18892926
113	0xbe3b473d	-0.18288894
114	0xbe3ed22d	-0.18634863
115	0xbe42145f	-0.18953083
116	0xbe3fd566	-0.18733749
117	0x3e8b482c	0.272035
118	0x3dad58db	0.084642135
119	0xbe369eaf	-0.1783397
120	0xbc43ecc6	-0.011958307
121	0x3f0232a4	0.5085852
122	0xbe3dfb91	-0.18552996
123	0xbe435dac	-0.19078702
124	0xbe41dc3a	-0.18931666
125	0xbe3e9224	-0.18610436
126	0x3f570f58	0.8400779
127	0x3eb501bc	0.35352886
128	0xbdc4f1f8	-0.096164644
129	0x3dae1e42	0.08501865
130	0x3e3f74d1	0.18696906
131	0xbda62a55	-0.08113543
132	0xbe134370	-0.14381194
133	0xbdcf051f	-0.10108399
134	0xbe3a9798	-0.18221891
135	0xbe3d5d24	-0.18492562
136	0x3f341e51	0.7035876
137	0xbd5ffe30	-0.05468577
138	0xbdccf16a	-0.100069836
139	0xbdc876bb	-0.09788271
140	0xb8a9ca40	-8.09622e-05
141	0x3f0db0d9	0.55347973
142	0xbe0f2e06	-0.139824
143	0x3e68e922	0.22745183
144	0x3c0ac1e5	0.00846908
145	0x3ed606a6	0.41801947
146	0xbe84d604	-0.2594453
147	0xbe767978	-0.24069774
148	0x3da09242	0.078403965
149	0xbe7498f2	-0.23886469
150	0xbe682772	-0.22671297
151	0x3e4d7bbb	0.2006673
152	0x3f6c5403	0.9231569
153	0xbe75f763	-0.24020152
154	0xbe7370fa	-0.23773566
155	0xbe707d18	-0.2348522
156	0xbe6ef331	-0.23334958
157	0xbe7124a1	-0.23549129
158	0xbe0e8e64	-0.13921505
159	0xbe7d90e8	-0.24762309
160	0xbe58d0f6	-0.21173462
161	0xbe3da826	-0.18521175
162	0xbe34538a	-0.17609993
163	0xbdf291d7	-0.11844223
164	0x3f8b3127	1.0874375
165	0x3e4eaa96	0.20182261
166	0xbdf54bb5	-0.119773306
167	0xbddf9fe6	-0.1091917
168	0xbe794504	-0.24342734
169	0xbddd72ce	-0.10812913
170	0x3d494a74	0.04914327
171	0x3e778cff	0.2417488
172	0xbde847c3	-0.113418125
173	0x3d594d90	0.053052485
174	0xbe5f2398	-0.21790922
175	0x3d9d2a6e	0.076741084
176	0xbd24c4c0	-0.040226698
177	0xbd9a2712	-0.07526983
178	0xbe555198	-0.20831907
179	0x3eaf5aba	0.34248906
180	0xbe5a45c9	-0.21315683
181	0xbe51bae1	-0.20481445
182	0x3f870bf2	1.055052
183	0xbe572333	-0.21009521
184	0xbe595b8e	-0.21226332
185	0xbe530fd1	-0.20611502
186	0xbe511871	-0.2041948
187	0xbe58bd3a	-0.21165934
188	0x3e333c4f	0.17503475
189	0xbe75960c	-0.2398302
190	0x3ec58a7f	0.38582227
191	0xbe71679e	-0.23574683
192	0xbe61cd39	-0.22050942
193	0xbe8c736e	-0.27431816
194	0xbe62c337	-0.22144781
195	0x3ef4de54	0.47825873
196	0xbe8c20b2	-0.27368695
197	0x3ea8e0c3	0.3298398
198	0xbe47dba5	-0.19517381
199	0xbe8bbd09	-0.2729266
200	0x3edd832b	0.43264136
201	0x3f3cc05d	0.73731023
202	0x3e89eb30	0.26937246
203	0xbe615f48	-0.22009003
204	0x3e27468e	0.16335508
205	0xbe5ca338	-0.21546638
206	0xbe61e409	-0.22059645
207	0xbe5b13bd	-0.21394248
208	0x3e36c34d	0.17847939
209	0x3e7f8cef	0.24956106
210	0xbc3ed57a	-0.0116475765
211	0x3f3fe435	0.7495759
212	0xbe3b0556	-0.18263754
213	0xbe4f34dc	-0.20235008
214	0xbe3d31f2	-0.18476084
215	0x3f0ababf	0.541912
216	0xbe245c95	-0.16050942
217	0xbe7d3325	-0.24726541
218	0xbcbb9994	-0.02290038
219	0xbe8c7fcf	-0.2744126
220	0xbe354a39	-0.17704095
221	0x3d9999ce	0.07500039
222	0x3e370902	0.1787453
223	0x3d67e9c3	0.056619417
224	0xbe2034ea	-0.15645185
225	0xbe212300	-0.15736008
226	0xbe631516	-0.22176012
227	0xbe23fcc4	-0.16014391
228	0x3f2c49c2	0.67300045
229	0xbe1e7798	-0.15475309
230	0xbe66fd9a	-0.22557679
231	0xbe220988	-0.15823948
232	0xbe2039f3	-0.15647106
233	0x3f3b1a00	0.7308655
234	0xbe1cfac9	-0.15330042
235	0xbe1dee10	-0.15422845
236	0xbe2481ed	-0.16065188
237	0x3f0b1d3d	0.5434149
238	0xbe1cddef	-0.15319036
239	0xbe22ff09	-0.159176
240	0xbdf822a6	-0.12115984
241	0xbe79d5c8	-0.24397957
242	0xbc7623f7	-0.015023223
243	0xbe55b769	-0.20870747
244	0xbe50244f	-0.2032635
245	0xbda5824b	-0.08081492
246	0xbe502deb	-0.20330016
247	0xbe55e847	-0.20889388
248	0xbe7055e2	-0.23470262
249	0xbe4f50a6	-0.20245609
250	0x3e8272fa	0.25478345
251	0xbe54f719	-0.20797385
252	0xbe53657f	-0.20644186
253	0xbe597bc6	-0.21238622
254	0x3fa3879c	1.277576
255	0xbe50c30f	-0.20386909

critic.action_embedder.fc.bias f4 [16]
0	0x3dca5cfe	0.09881018
1	0x3e344be4	0.17607075
2	0x3e1207e9	0.1426083
3	0x3e234642	0.1594477
4	0x3e533414	0.20625335
5	0xbd431f89	-0.047637496
6	0x3e29ce7d	0.16582675
7	0x3e263237	0.16230093
8	0x3db9e4e8	0.090768635
9	0x3e6b9e75	0.23009665
10	0x3d22c23f	0.03973603
11	0x3e4ed3b1	0.20197941
12	0x3e5a5417	0.2132114
13	0x3e1b07d8	0.15139711
14	0x3db67cd5	0.089105286
15	0x3e42b207	0.19013225

critic.seq_model.model.weight_ih_l0 f4 [256, 48]
0	0xbd8107d4	-0.06300321
1	0x3dd12993	0.10213008
2	0xbe8181d2	-0.25294358
3	0x3da5d1ca	0.08096655
4	0x3c49265a	0.01227721
5	0x3e85afc3	0.26110658
6	0xbe6d43c9	-0.23170389
7	0xbe26453f	-0.16237353
8	0xbe1b1af5	-0.15147002
9	0xbe3817c9	-0.17977823
10	0x3d41880e	0.047248892
11	0xbd86f36c	-0.06589398
12	0x3e1be898	0.15225446
13	0x3eafe9de	0.34358114
14	0x3e3362bf	0.17518137
15	0xbd60e9e2	-0.054910548
16	0xbe87105b	-0.26379666
17	0xbd68f84d	-0.056877423
18	0xbefba569	-0.49149635
19	0xbe5d3fb8	-0.21606338
20	0xbe9055ed	-0.28190556
21	0x3c202fe9	0.009777048
22	0xbdd1efae	-0.102507934
23	0x3d168580	0.03674841
24	0x3b4179d4	0.0029522078
25	0x3d8d47c3	0.06898453
26	0x3e5432fa	0.20722571
27	0x3f3150b1	0.6926375
28	0x3c11fa2f	0.008909746
29	0xbe0ec140	-0.13940907
30	0x3d840886	0.06446938
31	0x3e6467c4	0.22305208
32	0xbe16baa8	-0.14719641
33	0x3f13faad	0.57804376
34	0xbfb870eb	-1.440946
35	0xbd089121	-0.03334153
36	0x3f25e872	0.6480781
37	0xbccf05da	-0.025271345
38	0x3e8b9428	0.27261472
39	0x3dd20834	0.10255471
40	0xbda63df9	-0.08117289
41	0xbd0e0b51	-0.03467876
42	0xbe3df082	-0.18548778
43	0x3d392942	0.045205362
44	0xbeab51de	-0.33460897
45	0x3e159775	0.14608558
46	0xbf03ead4	-0.51530194
47	0x3dca45f5	0.098766245
48	0x3f4d2b6f	0.801444
49	0x3ef7ac21	0.4837351
50	0xbf03feda	-0.5156075
51	0xbe15d4c5	-0.14631946
52	0x3dd48930	0.10377729
53	0x3f297b6a	0.6620394
54	0xbd64bd2c	-0.05584447
55	0x3e0549d3	0.13016443
56	0x3e8292d5	0.2550265
57	0xbe333c8e	-0.17503569
58	0xbe35baed	-0.17747088
59	0xbe6e925d	-0.2329802
60	0x3e9279e0	0.28608608
61	0x3e633a98	0.2219032
62	0xbe415e6b	-0.18883674
63	0xbe3e8be2	-0.18608049
64	0xbe070dc6	-0.13188848
65	0xbe65b4ce	-0.22432253
66	0xbe9dab77	-0.3079488
67	0xbe80113b	-0.25013146
68	0xbda2dbd0	-0.07952082
69	0xbd7f4e72	-0.06233067
70	0xbe02eeaa	-0.12786356
71	0x3e7f4802	0.24929813
72	0x3d541021	0.051773194
73	0x3e0852e2	0.13312867
74	0x3d5bf446	0.053699754
75	0x3e561407	0.20906077
76	0x3e82ff1d	0.2558526
77	0xbe6de85e	-0.23233172
78	0x3bd18e82	0.006395162
79	0x3e11239e	0.14173743
80	0xbe33bf99	-0.17553557
81	0x3d2a5283	0.041582596
82	0xbe1da421	-0.15394641
83	0xbe5b883e	-0.21438691
84	0xbf0e0b8b	-0.55486363
85	0xbe6e30a4	-0.23260742
86	0xbea67a60	-0.3251524
87	0xbe490806	-0.19631967
88	0x3e122b3d	0.14274307
89	0xbc841e44	-0.016127713
90	0xbdc5bb48	-0.09654862
91	0x3c97c1ee	0.01852509
92	0x3f6374e8	0.8885026
93	0x3ef78d4c	0.48349988
94	0x3ed491c9	0.41517475
95	0x3f4ef33b	0.8083989
96	0xbe6cd58c	-0.23128337
97	0xbd3da493	-0.04629953
98	0xbe3a2930	-0.18179774
99	0xbe39a4bc	-0.18129247
100	0x3d949cd1	0.07256473
101	0x3f488856	0.7833303
102	0x3de65d6d	0.11248288
103	0xbd78ca10	-0.060739577
104	0xbe2cf583	-0.1689053
105	0x3eb2b61d	0.34904566
106	0xbe2cb3e1	-0.16865493
107	0x3e897661	0.26848128
108	0x3f003e45	0.50095016
109	0x3dee9185	0.116488494
110	0x3e249bf3	0.16075115
111	0xbf69bc94	-0.9130337
112	0x3efc376f	0.49261042
113	0x3e8c4d7f	0.27402875
114	0x3f6e916d	0.9319065
115	0xbc7dfd31	-0.01550226
116	0xbb76bb11	-0.0037648121
117	0x3f30d0f6	0.6906885
118	0x3f000b27	0.5001702
119	0x3ef8ee49	0.48619297
120	0x3dd77cb0	0.10521829
121	0x38fa0d4e	0.00011923407
122	0x3e4f3492	0.20234898
123	0xbe422b05	-0.18961723
124	0xbc68a897	-0.014200351
125	0xbe85c68c	-0.26128042
126	0x3cdcfd79	0.026976334
127	0x3e3c85de	0.18410441
128	0x3e80186e	0.25018638
129	0x3f110ab0	0.5665693
130	0xbf1a9e7d	-0.60398084
131	0x3e9fe7ae	0.31231445
132	0x3e8cee34	0.27525485
133	0x3e4079a2	0.18796399
134	0xbe8f6cec	-0.28012788
135	0x3eb452eb	0.3521951
136	0x3e78a489	0.24281515
137	0x3c038a2a	0.008028546
138	0x3f025c42	0.50922024
139	0xbf1800f2	-0.5937644
140	0x3eb16936	0.34650582
141	0xbe23e2e1	-0.16004516
142	0x3e0ae2d5	0.13563092
143	0x3e193c13	0.14964323
144	0x3e0fea01	0.14054109
145	0xbda8b493	-0.08237567
146	0x3f05c8fe	0.52259815
147	0x3fa0f4ef	1.2574748
148	0x3d57e5ef	0.052709516
149	0x3ec1a041	0.37817577
150	0x3df5cc29	0.12001831
151	0x3e65c781	0.22439386
152	0x3e117802	0.14205936
153	0xbed5f12b	-0.4178556
154	0xbdca5c60	-0.098809004
155	0x3ea85e9a	0.32884675
156	0xbe0473b0	-0.12934756
157	0x3e808227	0.25099298
158	0x3f04e2eb	0.5190875
159	0xbf019cb8	-0.5062976
160	0xbf0480aa	-0.51758826
161	0x3d2587de	0.040412776
162	0x3f624f4e	0.8840226
163	0xbea854a3	-0.32877073
164	0x3eb3f4f0	0.3514781
165	0x3de229c8	0.110431254
166	0x3ec5780b	0.38568148
167	0x3e662e0e	0.22478506
168	0xbcbcd206	-0.023049366
169	0x3f04e157	0.5190634
170	0xbe92c1b9	-0.28663424
171	0x3ef65cde	0.48117727
172	0x3f168fc5	0.58813125
173	0x3e427845	0.18991192
174	0xbed10921	-0.40827277
175	0x3f020ce2	0.5080091
176	0x3f06954a	0.5257155
177	0xbdc7c05b	-0.09753486
178	0x3ec070ae	0.37585968
179	0x3dafeaea	0.08589728
180	0x3e54b89b	0.20773546
181	0xbda8c400	-0.08240509
182	0x3eb00b81	0.34383777
183	0x3ecae4fb	0.39627823
184	0x3e1a0acb	0.1504318
185	0x3b518729	0.003197143
186	0x3f06324c	0.52420497
187	0x3f0c27c4	0.5474818
188	0xbe995e00	-0.2995453
189	0x3e92cff1	0.28674272
190	0x3ebd2c04	0.36947644
191	0x3f18a64d	0.59628755
192	0x3f0573e2	0.5212995
193	0xbe96645f	-0.29373452
194	0x3f2d529e	0.6770419
195	0x3f3a4e3d	0.7277563
196	0x3f20d5df	0.6282634
197	0x3f166043	0.58740634
198	0xbe0e4922	-0.13895085
199	0xbf657bf3	-0.89642256
200	0xbea2e734	-0.3181702
201	0xbf94a54d	-1.1612946
202	0x3d815198	0.06314391
203	0xbea6ad84	-0.32554257
204	0xbe631e90	-0.22179627
205	0xbe127215	-0.14301331
206	0x3e2bfaa6	0.16794834
207	0xbf85168b	-1.0397505
208	0xbeca0df8	-0.39463782
209	0x3f12fe07	0.57418865
210	0xbf37cdc8	-0.7179837
211	0xbd8bafbc	-0.06820628
212	0xbed6771a	-0.41887742
213	0x3eb58219	0.3545082
214	0x3f0a50aa	0.54029334
215	0xbf11debb	-0.56980485
216	0x3c1acf2d	0.009448809
217	0xbe7abaf1	-0.24485375
218	0x3fac0a59	1.3440658
219	0x3d9bd6ec	0.076093525
220	0x3f475dbe	0.77877414
221	0x3f2cd160	0.6750698
222	0x3f30b4b4	0.6902573
223	0x3e2fb3d7	0.17158447
224	0xbf01cf02	-0.50706494
225	0x3e91ac9c	0.28452003
226	0xbde9755e	-0.11399339
227	0x3f239c5b	0.63910455
228	0xbf87de4b	-1.0614713
229	0x3e91a953	0.28449497
230	0xbe5d72c5	-0.21625812
231	0xbe596ec1	-0.21233656
232	0x3f28fab4	0.6600754
233	0x3ca21e35	0.019789794
234	0x3e8ad461	0.27115157
235	0x3f26aae7	0.65104526
236	0x3ecb698b	0.3972896
237	0xbed670d4	-0.41882956
238	0x3f069fb0	0.52587414
239	0xbee20624	-0.4414531
240	0x3f2354bd	0.63801175
241	0xbeeeb20a	-0.46620208
242	0xbe4f5cbd	-0.2025022
243	0x3f14ae93	0.5807888
244	0x3d1e390b	0.03862862
245	0x3e81a6b4	0.25322497
246	0xbebfae9d	-0.37437907
247	0xbf15668a	-0.5835959
248	0xbeba3e26	-0.3637554
249	0xbdad6510	-0.08466542
250	0xbee22ffd	-0.44177237
251	0x3e21a296	0.15784678
252	0xbd1202ff	-0.03564739
253	0xbd858b93	-0.06520762
254	0xba93618c	-0.0011244281
255	0x3e9a14c8	0.3009398

critic.seq_model.model.weight_hh_l0 f4 [256, 64]
0	0xbd7370b2	-0.059433647
1	0xbe861b7f	-0.26192853
2	0x3ec2c8bf	0.38043782
3	0xbf0ac72f	-0.5421018
4	0xbe48e28f	-0.19617675
5	0xbdb02eef	-0.08602702
6	0x3d233377	0.039844003
7	0xbe00a28e	-0.1256201
8	0xbea81b55	-0.32833353
9	0x3e4324ba	0.19056979
10	0xbef5d28e	-0.48012203
11	0x3d8f4301	0.06995202
12	0x3e9cc1e1	0.30616668
13	0x3d7df63f	0.062002417
14	0xbd4b863a	-0.049688555
15	0x3e0042ab	0.12525432
16	0x3df18191	0.11792291
17	0x3e9b829c	0.30373085
18	0x3ecb84af	0.39749667
19	0x3d2757e4	0.040855303
20	0xbe674706	-0.22585687
21	0xbdfc7ff2	-0.12329091
22	0xbd93de59	-0.07220144
23	0xbdb5925a	-0.08865805
24	0x3ee58244	0.44825947
25	0x3ebc219a	0.36744386
26	0xbe4bc57d	-0.19899555
27	0x3e97bcc8	0.29636216
28	0xbcdac27d	-0.026704067
29	0x3eb9125d	0.36146823
30	0x3eb0e5ec	0.34550416
31	0xbe83365e	-0.25627416
32	0xbe900638	-0.28129745
33	0x3d6a31f6	0.057176553
34	0x3ec3941e	0.38198942
35	0x3e02f6fb	0.12789528
36	0xbd376b06	-0.0447798
37	0x3e84b8f2	0.25922352
38	0xbd12fea5	-0.03588738
39	0xbe7f88a6	-0.24954471
40	0x3e8d5920	0.2760706
41	0xbea97bef	-0.33102366
42	0x3ec80799	0.39068297
43	0x3ee831db	0.45350537
44	0x3dd588fc	0.10426518
45	0xbebbec96	-0.36703938
46	0x3e5a5d10	0.21324563
47	0xbe958baf	-0.29208133
48	0x3dbdbe10	0.09264767
49	0x3f10e8e9	0.5660539
50	0x3eab1343	0.33413133
51	0xbeb642fe	-0.35597986
52	0xbe33cfe1	-0.17559768
53	0x3ba26570	0.00495594
54	0x3eec6e84	0.46178067
55	0x3edaf819	0.42767408
56	0x3eb5359b	0.3539246
57	0x3d879cbd	0.06621692
58	0x3ecd6e9d	0.40123454
59	0x3d5f073b	0.054450255
60	0xbe0159e3	-0.12631945
61	0x3ea92a1a	0.33039933
62	0xbf0f253c	-0.5591619
63	0xbea9ca4e	-0.3316216
64	0x3d5fd898	0.05464992
65	0x3e88dec7	0.26732466
66	0xbf2cdbad	-0.675227
67	0x3dbd9e67	0.092587285
68	0x3f2e9a81	0.68204504
69	0x3dea985c	0.114548415
70	0xbe62b60b	-0.22139756
71	0x3ef3aa38	0.47590804
72	0x3e8e9ee9	0.27855614
73	0x3e41f662	0.18941644
74	0xbead0ec6	-0.33800334
75	0xbea42ede	-0.32067007
76	0x3ec8ebc4	0.39242375
77	0xbcaf87ea	-0.021427114
78	0xbf3a14c7	-0.72687954
79	0xbf35535d	-0.7083033
80	0x3c512c0a	0.012766847
81	0x3d614562	0.05499781
82	0xbee23a3c	-0.44185054
83	0xbeaa2cbd	-0.33237258
84	0xbf0221bc	-0.50832725
85	0x3e626bac	0.22111386
86	0xbcf2fcb5	-0.029661516
87	0xbe8a9754	-0.2706858
88	0x3b514723	0.003193327
89	0x3e77a7ec	0.24185151
90	0x3dc34d6e	0.09536253
91	0x3eb8aa27	0.36067316
92	0x3f3085dd	0.6895426
93	0x3e5f0cbb	0.217822
94	0xbef7212d	-0.482675
95	0x3d64b3e4	0.05583562
96	0x3e64f1cb	0.22357862
97	0xbc9dbba2	-0.01925451
98	0x3bf6d2c2	0.0075324485
99	0x3dcddc12	0.10051741
100	0x3e2ce447	0.16883956
101	0xbd9d0694	-0.0766727
102	0x3de5ee5f	0.11227106
103	0x3e3bc6f1	0.18337609
104	0xbd7da8dc	-0.061928615
105	0x3f548529	0.83015686
106	0x3e0c9e4b	0.13732259
107	0xbf36a6e3	-0.713484
108	0x3e1b462e	0.1516349
109	0x3d9a77be	0.0754237
110	0x3e6b1e51	0.22960784
111	0xbe03fd76	-0.12889656
112	0x3ee568c0	0.4480648
113	0xbd8b8351	-0.06812156
114	0x3e1a0d05	0.15044029
115	0xbdfc7301	-0.12326623
116	0xbcc34e2f	-0.023840992
117	0x3dc030af	0.09384286
118	0xbe8fa672	-0.28056675
119	0x3e501283	0.20319562
120	0xbece690b	-0.40314516
121	0x3d2786c0	0.040899992
122	0xbdfb62da	-0.12274714
123	0xbe4b69a0	-0.19864511
124	0xbd97ba91	-0.074086316
125	0x3c91c5c6	0.017794501
126	0x3e0bc789	0.13650335
127	0xbe625ce3	-0.22105746
128	0xbf012b2b	-0.50456494
129	0xbd8ffe23	-0.070308946
130	0xbb3caa15	-0.00287879
131	0x3d814fe5	0.06314067
132	0xbe8e890e	-0.2783894
133	0x3c967fad	0.018371427
134	0x3e4e3005	0.20135505
135	0x3bc26013	0.005931863
136	0x3f0e15bf	0.5550193
137	0x3e6ed010	0.23321557
138	0x3b9c985a	0.004778904
139	0x3e36b8c9	0.17843927
140	0x3f17791c	0.59169173
141	0x3e8c3aa5	0.27388492
142	0xbdbef9b7	-0.09324973
143	0x3d28a0f6	0.04116913
144	0x3e1df6ce	0.1542618
145	0xbf134665	-0.5752929
146	0xbd1e6798	-0.038673013
147	0xbec5cd15	-0.38633028
148	0x3e6d7d7a	0.23192397
149	0xbecd59d7	-0.40107605
150	0xbebca5df	-0.368453
151	0xbd665a4c	-0.056238458
152	0xbd7ca9da	-0.06168542
153	0x3f0124c7	0.5044674
154	0x3f18c94a	0.5968214
155	0xbf0ebef9	-0.5576015
156	0x3d8ce392	0.06879343
157	0xbd9d99d4	-0.07695356
158	0xbe22ab26	-0.158856
159	0x3d94dc17	0.07268541
160	0x3e682fe6	0.22674522
161	0x3e06b4e7	0.13154946
162	0x3dc9b2d2	0.098485604
163	0xbefe57c7	-0.49676344
164	0xbf110e6c	-0.5666263
165	0xbd99d645	-0.07511572
166	0xbeb5df73	-0.3552204
167	0xbf2fe6cc	-0.68711543
168	0xbd34ff40	-0.044188738
169	0xbecf37ce	-0.40472263
170	0x3f640d60	0.8908291
171	0x3e65e56a	0.22450796
172	0xbebac1c4	-0.36475956
173	0x3d4a3d0d	0.04937463
174	0xbe95d465	-0.29263607
175	0xbdfc6ab8	-0.123250425
176	0xbe8efd0c	-0.27927434
177	0x3c8558a6	0.016277622
178	0xbe080523	-0.1328321
179	0x3d905ab0	0.07048547
180	0x3e169d78	0.14708507
181	0x3d146f01	0.036238674
182	0xbe1f7afe	-0.15574262
183	0x3e8f5685	0.27995697
184	0x3f030da6	0.511927
185	0x3edaf256	0.42763013
186	0xbf02426c	-0.508826
187	0x3e863342	0.26210982
188	0x3d9794cc	0.074014276
189	0x3eac0e6b	0.3360475
190	0xbe166791	-0.14687945
191	0x3d1aba73	0.037775468
192	0xbe1a62b1	-0.1507671
193	0xbf0ae952	-0.5426227
194	0x3f00dfc5	0.50341445
195	0x3e4047a1	0.18777324
196	0x3f513914	0.8172772
197	0x3ed364e1	0.41287902
198	0xbf679b19	-0.90471035
199	0x3e8d4ed8	0.27599216
200	0xbe0853d6	-0.13313231
201	0xbed8cc76	-0.4234349
202	0xbe99b696	-0.30022115
203	0xbe81e486	-0.25369662
204	0xbf0aa2d7	-0.54154724
205	0x3f453ba9	0.7704416
206	0xbeb4ba6d	-0.35298482
207	0x3e56cdcc	0.20976943
208	0xbf376dcc	-0.7165191
209	0xbea6d5f6	-0.32585114
210	0x3f65776a	0.89635336
211	0x3bc9e1b3	0.0061609386
212	0xbfd7f94a	-1.6872952
213	0x3e95f8f1	0.2929149
214	0x3de9c41e	0.114143595
215	0x3ea56b98	0.3230865
216	0x3f00d749	0.503285
217	0xbefa2374	-0.48855174
218	0xbd58d280	-0.052935123
219	0x3f82bd91	1.0214101
220	0x3f26ef79	0.65209156
221	0xbf348048	-0.7050824
222	0x3f6e4d21	0.9308644
223	0xbea53ce5	-0.3227302
224	0xbf2dfbd8	-0.6796241
225	0xbe961350	-0.2931161
226	0xbefcafff	-0.49353024
227	0xbf19a537	-0.6001772
228	0xbf68bc9d	-0.909128
229	0x3e331a73	0.17490558
230	0x3e80e2cd	0.25173035
231	0x3e99d928	0.3004849
232	0xbf8e6c6a	-1.1126835
233	0xbe660a44	-0.22464854
234	0x3f805711	1.002657
235	0x3f29f60e	0.66391075
236	0xbf6d670e	-0.92735374
237	0x3e32b55b	0.17451994
238	0xbb916035	-0.0044365176
239	0x3f68b732	0.90904534
240	0x3f624f67	0.8840241
241	0x3e53e9db	0.20694678
242	0x3e63b3d4	0.22236568
243	0xbdced72a	-0.10099633
244	0xbb96d0f9	-0.004602548
245	0xbf54778a	-0.829949
246	0x3f339acf	0.70158094
247	0x3e564c01	0.2092743
248	0x3f1e1215	0.6174634
249	0xbeb29b26	-0.34883994
250	0xbd714b9b	-0.058909994
251	0xbe331dcb	-0.17491834
252	0xbdc61206	-0.096714064
253	0x3eb4ce57	0.35313675
254	0x3ead18cd	0.33807984
255	0x3f44eca6	0.76923597

critic.seq_model.model.bias_ih_l0 f4 [256]
0	0xbd9cbf1a	-0.07653637
1	0x3df2a81b	0.1184847
2	0x3dc21c71	0.09478081
3	0x3e8b47e7	0.27203295
4	0xbcf5c781	-0.030002357
5	0xbd1415e8	-0.036153704
6	0x3cdc8343	0.02691806
7	0x3d9c615f	0.076357596
8	0x3ca4ea45	0.02013124
9	0x3e0138bc	0.12619299
10	0xbc4872c6	-0.012234395
11	0x3d92dbc1	0.07170821
12	0xbe007be4	-0.1254726
13	0x3ca66900	0.02031374
14	0x3e867224	0.26258957
15	0x3dab0da4	0.08352211
16	0xbe540756	-0.20705923
17	0x3e376c93	0.17912512
18	0x3b9e9306	0.004839304
19	0x3e224066	0.15844879
20	0x3d900757	0.0703265
21	0x3dbd8f3d	0.09255836
22	0xbd72ecaa	-0.05930773
23	0x3e80830e	0.25099987
24	0x3c0a5653	0.008443433
25	0x3db9c298	0.09070319
26	0xbe237edc	-0.15966362
27	0xbe205777	-0.15658365
28	0x3dba162f	0.090862624
29	0x3e2e5f28	0.17028487
30	0x3e57de9d	0.21081014
31	0x3c3f0e14	0.011661071
32	0xbd85a8a5	-0.06526307
33	0x3d43ecc9	0.047833238
34	0x3dbe3b10	0.09288609
35	0x3e4e00f2	0.20117548
36	0x3dc4a4be	0.096017346
37	0xbe215645	-0.15755565
38	0x3d1067fa	0.03525541
39	0x3d96c168	0.07361108
40	0x3e016dd2	0.1263955
41	0x3e70f46f	0.23530744
42	0x3dfce6b4	0.12348691
43	0x3c28b97b	0.010298128
44	0xbd151378	-0.03639552
45	0x3e0b0e8b	0.13579766
46	0xbd8f9875	-0.07011501
47	0xbca6f654	-0.02038113
48	0x3ddaeaa3	0.10689285
49	0xbbf9618e	-0.0076105064
50	0xbdb2ef14	-0.08737007
51	0x3d42228d	0.04739623
52	0x3d7f8e48	0.06239155
53	0x3e86a866	0.26300353
54	0x3d774c9c	0.060375795
55	0xbe1aae8d	-0.15105648
56	0xbd6f80ed	-0.058472563
57	0x3d096902	0.03354741
58	0x3df29809	0.11845405
59	0x3dc6cf9c	0.09707567
60	0x3d922fbe	0.07138012
61	0xbdcb9f96	-0.09942548
62	0x3da63e9a	0.08117409
63	0xbdae63c7	-0.08515125
64	0x3deb9097	0.11502188
65	0x3dc0947b	0.094033204
66	0x3d5f11aa	0.054460205
67	0x3d6143d7	0.054996338
68	0xbd8f0bd8	-0.06984681
69	0x3d81cd09	0.063379355
70	0x3e322696	0.17397532
71	0xbc152497	-0.009102962
72	0x3d90c41b	0.07068654
73	0x3d9d0fcc	0.07669029
74	0xbccf6074	-0.025314547
75	0x3da42a1c	0.08015844
76	0xbd60400b	-0.054748576
77	0x3c3a6281	0.011376024
78	0x3cea75b3	0.028620576
79	0x3e0b4e14	0.13604003
80	0x3d22146f	0.03957027
81	0xbe315263	-0.17316584
82	0x3d48774f	0.048941907
83	0x3e09ab30	0.13444209
84	0x3e19c863	0.15017848
85	0x3d559b1b	0.052149873
86	0x3d5b1ad3	0.05349238
87	0xbc64f0a7	-0.013973392
88	0x3e3fc137	0.1872605
89	0xbd434c35	-0.0476801
90	0xbc98e87c	-0.018665545
91	0x3dcd9779	0.10038657
92	0x3d1be7ff	0.038063046
93	0x3d8796e4	0.06620577
94	0x3d4e58ee	0.05037778
95	0x3d8b5875	0.06803981
96	0xbdc39c6c	-0.095513195
97	0xbd3d851b	-0.046269517
98	0x3c69fbbb	0.014281209
99	0xbcab0529	-0.020876484
100	0xbdbd74b6	-0.092507765
101	0xbdcf7625	-0.10129956
102	0x3d1df2f8	0.03856179
103	0xbc8ad2ee	-0.016946282
104	0xbdadd1d4	-0.08487287
105	0xbce6f70b	-0.028193971
106	0xbdaa1e75	-0.083065905
107	0x3e0e4b0e	0.13895819
108	0xbe4394f3	-0.19099788
109	0xbbac707e	-0.0052624336
110	0x3ca0a08c	0.019607805
111	0xbd896997	-0.06709593
112	0xbd6ffa83	-0.058588516
113	0xbe1397c6	-0.14413366
114	0x3de4ffa5	0.11181573
115	0x3d480270	0.04883045
116	0xbda105c3	-0.07862427
117	0xbdd451b2	-0.10367145
118	0x3e0214ca	0.12703243
119	0xbd73e9a5	-0.059548993
120	0x3d21d46d	0.039509226
121	0x3cafd8f9	0.021465765
122	0x3d81abe1	0.063316114
123	0x3d48f172	0.049058385
124	0x3e0c6040	0.13708591
125	0xbb8c86c2	-0.0042885253
126	0x3e26137e	0.16218373
127	0x3e1e5337	0.15461431
128	0x3cf5e393	0.030015742
129	0x3dac0aa3	0.08400466
130	0xbdad5361	-0.08463169
131	0xbe0e5c02	-0.13902286
132	0x3d779725	0.060446877
133	0x3d0cecf6	0.03440567
134	0xbc2faa53	-0.010721761
135	0xbccac4c2	-0.024752025
136	0x3e2c4ce8	0.16826212
137	0x3e1b3599	0.15157165
138	0xbdc583f6	-0.0964431
139	0xbdbddb0e	-0.09270297
140	0xbd45fd15	-0.04833706
141	0x3e1c3035	0.15252765
142	0x3da7c913	0.08192649
143	0xbc3a2ca4	-0.011363182
144	0xbaec563a	-0.0018031069
145	0x3db81ab1	0.08989466
146	0xbdfb8078	-0.12280363
147	0xbd57ac96	-0.052654825
148	0xbc477a88	-0.01217521
149	0xbe2e08f7	-0.16995607
150	0xbd8645b6	-0.06556265
151	0x3d6f788b	0.058464568
152	0x3d912627	0.07087355
153	0xbda5c18c	-0.08093557
154	0xbcc98cf3	-0.024603343
155	0xbce2395c	-0.027615242
156	0x3cb2382d	0.021755302
157	0xbd373a1c	-0.04473315
158	0x3d38d08e	0.04512077
159	0x3d2648c1	0.040596727
160	0xbc665184	-0.014057521
161	0x3c8295ee	0.015940633
162	0x3d4dee49	0.050276075
163	0xbc910795	-0.01770381
164	0x3df0a915	0.11751
165	0x3d207e38	0.03918287
166	0x3d94d2f2	0.07266797
167	0x3d9ecdb0	0.077540755
168	0xbdf47252	-0.11935867
169	0x3dc7effe	0.09762572
170	0xbd55cd60	-0.052197814
171	0xbd08c241	-0.03338838
172	0xbdf54e95	-0.11977879
173	0xbdd46cea	-0.10372336
174	0x3cf12282	0.0294354
175	0x3caa655a	0.020800281
176	0x3d4e63bf	0.050388094
177	0xbd6d0c4d	-0.05787306
178	0xba9a8423	-0.0011788647
179	0xbd17c482	-0.03705264
180	0xbe1d1f4f	-0.15343975
181	0x3b837f30	0.0040129647
182	0x3de73335	0.11289064
183	0xbd981417	-0.07425707
184	0x3d981678	0.074261606
185	0x3c456f3e	0.012050448
186	0xbd5237fa	-0.051322915
187	0x3de2c698	0.11073035
188	0xbe2fe47f	-0.17177008
189	0xbd0bc9ef	-0.034128126
190	0x3de1995b	0.11015578
191	0x3c9dbf4c	0.019256257
192	0x3db79be6	0.08965282
193	0x3e113831	0.14181592
194	0x3e796bc1	0.24357511
195	0x3e842403	0.25808725
196	0x3e629ed6	0.22130904
197	0x3d9ab75d	0.07554505
198	0x3ca209d9	0.019780086
199	0x3e449d36	0.19200596
200	0x3e434c44	0.19072062
201	0x3e9a4ab0	0.30135107
202	0x3d2248ae	0.039620094
203	0x3e7437f1	0.23849465
204	0x3e1e8f26	0.15484294
205	0x3e04193e	0.12900254
206	0x3e072b8c	0.13200206
207	0x3e1bfb72	0.15232638
208	0x3da4cf48	0.08047348
209	0x3db4f4e8	0.08835775
210	0x3dd51788	0.10404879
211	0x3ed1f793	0.41009197
212	0x3e5b09fe	0.2139053
213	0x3d6ef9de	0.05834376
214	0x3dad4bcf	0.08461725
215	0x3e7ebb62	0.24876168
216	0x3e211117	0.15729176
217	0x3e313269	0.17304386
218	0x3c97e382	0.018541101
219	0x3e1cb1d6	0.15302214
220	0x3dfcd1cc	0.12344703
221	0x3ec0a4bd	0.37625685
222	0x3e65b42b	0.2243201
223	0x3d755286	0.059893154
224	0x3caac00c	0.020843528
225	0x3e25412a	0.1613814
226	0x3e0a875c	0.13528198
227	0x3d8e3b7c	0.069449395
228	0x39c16fd1	0.00036895138
229	0xbceb14af	-0.028696386
230	0x3e618bb1	0.22025944
231	0x3d8ba9e2	0.06819512
232	0x3db7bcfd	0.089715935
233	0x3ea120c4	0.3147031
234	0x3e842d3e	0.25815767
235	0x3cc653c0	0.024209857
236	0x3e1ce7ad	0.15322752
237	0x3e2b2b56	0.1671575
238	0x3de741fb	0.11291882
239	0xbd0cf930	-0.03441733
240	0x3e077e7b	0.13231842
241	0xbca71f06	-0.020400535
242	0x3dc88046	0.09790091
243	0x3d77453d	0.060368765
244	0x3e343d9b	0.17601626
245	0x3e7fb6e9	0.24972118
246	0x3d57e5d1	0.052709404
247	0x3dc288aa	0.09498723
248	0x3e8034fa	0.25040418
249	0xbcea60c3	-0.028610593
250	0x3e3e696e	0.18594906
251	0x3e83f135	0.25769964
252	0x3e81c230	0.25343466
253	0x3b6512e8	0.0034953896
254	0x3e814818	0.25250316
255	0x3e895fec	0.26830995

critic.seq_model.model.bias_hh_l0 f4 [256]
0	0xbd9cbf1a	-0.07653637
1	0x3df2a81b	0.1184847
2	0x3dc21c71	0.09478081
3	0x3e8b47e7	0.27203295
4	0xbcf5c781	-0.030002357
5	0xbd1415e8	-0.036153704
6	0x3cdc8343	0.02691806
7	0x3d9c615f	0.076357596
8	0x3ca4ea45	0.02013124
9	0x3e0138bc	0.12619299
10	0xbc4872c6	-0.012234395
11	0x3d92dbc1	0.07170821
12	0xbe007be4	-0.1254726
13	0x3ca66900	0.02031374
14	0x3e867224	0.26258957
15	0x3dab0da4	0.08352211
16	0xbe540756	-0.20705923
17	0x3e376c93	0.17912512
18	0x3b9e9306	0.004839304
19	0x3e224066	0.15844879
20	0x3d900757	0.0703265
21	0x3dbd8f3d	0.09255836
22	0xbd72ecaa	-0.05930773
23	0x3e80830e	0.25099987
24	0x3c0a5653	0.008443433
25	0x3db9c298	0.09070319
26	0xbe237edc	-0.15966362
27	0xbe205777	-0.15658365
28	0x3dba162f	0.090862624
29	0x3e2e5f28	0.17028487
30	0x3e57de9d	0.21081014
31	0x3c3f0e14	0.011661071
32	0xbd85a8a5	-0.06526307
33	0x3d43ecc9	0.047833238
34	0x3dbe3b10	0.09288609
35	0x3e4e00f2	0.20117548
36	0x3dc4a4be	0.096017346
37	0xbe215645	-0.15755565
38	0x3d1067fa	0.03525541
39	0x3d96c168	0.07361108
40	0x3e016dd2	0.1263955
41	0x3e70f46f	0.23530744
42	0x3dfce6b4	0.12348691
43	0x3c28b97b	0.010298128
44	0xbd151378	-0.03639552
45	0x3e0b0e8b	0.13579766
46	0xbd8f9875	-0.07011501
47	0xbca6f654	-0.02038113
48	0x3ddaeaa3	0.10689285
49	0xbbf9618e	-0.0076105064
50	0xbdb2ef14	-0.08737007
51	0x3d42228d	0.04739623
52	0x3d7f8e48	0.06239155
53	0x3e86a866	0.26300353
54	0x3d774c9c	0.060375795
55	0xbe1aae8d	-0.15105648
56	0xbd6f80ed	-0.058472563
57	0x3d096902	0.03354741
58	0x3df29809	0.11845405
59	0x3dc6cf9c	0.09707567
60	0x3d922fbe	0.07138012
61	0xbdcb9f96	-0.09942548
62	0x3da63e9a	0.08117409
63	0xbdae63c7	-0.08515125
64	0x3deb9097	0.11502188
65	0x3dc0947b	0.094033204
66	0x3d5f11aa	0.054460205
67	0x3d6143d7	0.054996338
68	0xbd8f0bd8	-0.06984681
69	0x3d81cd09	0.063379355
70	0x3e322696	0.17397532
71	0xbc152497	-0.009102962
72	0x3d90c41b	0.07068654
73	0x3d9d0fcc	0.07669029
74	0xbccf6074	-0.025314547
75	0x3da42a1c	0.08015844
76	0xbd60400b	-0.054748576
77	0x3c3a6281	0.011376024
78	0x3cea75b3	0.028620576
79	0x3e0b4e14	0.13604003
80	0x3d22146f	0.03957027
81	0xbe315263	-0.17316584
82	0x3d48774f	0.048941907
83	0x3e09ab30	0.13444209
84	0x3e19c863	0.15017848
85	0x3d559b1b	0.052149873
86	0x3d5b1ad3	0.05349238
87	0xbc64f0a7	-0.013973392
88	0x3e3fc137	0.1872605
89	0xbd434c35	-0.0476801
90	0xbc98e87c	-0.018665545
91	0x3dcd9779	0.10038657
92	0x3d1be7ff	0.038063046
93	0x3d8796e4	0.06620577
94	0x3d4e58ee	0.05037778
95	0x3d8b5875	0.06803981
96	0xbdc39c6c	-0.095513195
97	0xbd3d851b	-0.046269517
98	0x3c69fbbb	0.014281209
99	0xbcab0529	-0.020876484
100	0xbdbd74b6	-0.092507765
101	0xbdcf7625	-0.10129956
102	0x3d1df2f8	0.03856179
103	0xbc8ad2ee	-0.016946282
104	0xbdadd1d4	-0.08487287
105	0xbce6f70b	-0.028193971
106	0xbdaa1e75	-0.083065905
107	0x3e0e4b0e	0.13895819
108	0xbe4394f3	-0.19099788
109	0xbbac707e	-0.0052624336
110	0x3ca0a08c	0.019607805
111	0xbd896997	-0.06709593
112	0xbd6ffa83	-0.058588516
113	0xbe1397c6	-0.14413366
114	0x3de4ffa5	0.11181573
115	0x3d480270	0.04883045
116	0xbda105c3	-0.07862427
117	0xbdd451b2	-0.10367145
118	0x3e0214ca	0.12703243
119	0xbd73e9a5	-0.059548993
120	0x3d21d46d	0.039509226
121	0x3cafd8f9	0.021465765
122	0x3d81abe1	0.063316114
123	0x3d48f172	0.049058385
124	0x3e0c6040	0.13708591
125	0xbb8c86c2	-0.0042885253
126	0x3e26137e	0.16218373
127	0x3e1e5337	0.15461431
128	0x3cf5e393	0.030015742
129	0x3dac0aa3	0.08400466
130	0xbdad5361	-0.08463169
131	0xbe0e5c02	-0.13902286
132	0x3d779725	0.060446877
133	0x3d0cecf6	0.03440567
134	0xbc2faa53	-0.010721761
135	0xbccac4c2	-0.024752025
136	0x3e2c4ce8	0.16826212
137	0x3e1b3599	0.15157165
138	0xbdc583f6	-0.0964431
139	0xbdbddb0e	-0.09270297
140	0xbd45fd15	-0.04833706
141	0x3e1c3035	0.15252765
142	0x3da7c913	0.08192649
143	0xbc3a2ca4	-0.011363182
144	0xbaec563a	-0.0018031069
145	0x3db81ab1	0.08989466
146	0xbdfb8078	-0.12280363
147	0xbd57ac96	-0.052654825
148	0xbc477a88	-0.01217521
149	0xbe2e08f7	-0.16995607
150	0xbd8645b6	-0.06556265
151	0x3d6f788b	0.058464568
152	0x3d912627	0.07087355
153	0xbda5c18c	-0.08093557
154	0xbcc98cf3	-0.024603343
155	0xbce2395c	-0.027615242
156	0x3cb2382d	0.021755302
157	0xbd373a1c	-0.04473315
158	0x3d38d08e	0.04512077
159	0x3d2648c1	0.040596727
160	0xbc665184	-0.014057521
161	0x3c8295ee	0.015940633
162	0x3d4dee49	0.050276075
163	0xbc910795	-0.01770381
164	0x3df0a915	0.11751
165	0x3d207e38	0.03918287
166	0x3d94d2f2	0.07266797
167	0x3d9ecdb0	0.077540755
168	0xbdf47252	-0.11935867
169	0x3dc7effe	0.09762572
170	0xbd55cd60	-0.052197814
171	0xbd08c241	-0.03338838
172	0xbdf54e95	-0.11977879
173	0xbdd46cea	-0.10372336
174	0x3cf12282	0.0294354
175	0x3caa655a	0.020800281
176	0x3d4e63bf	0.050388094
177	0xbd6d0c4d	-0.05787306
178	0xba9a8423	-0.0011788647
179	0xbd17c482	-0.03705264
180	0xbe1d1f4f	-0.15343975
181	0x3b837f30	0.0040129647
182	0x3de73335	0.11289064
183	0xbd981417	-0.07425707
184	0x3d981678	0.074261606
185	0x3c456f3e	0.012050448
186	0xbd5237fa	-0.051322915
187	0x3de2c698	0.11073035
188	0xbe2fe47f	-0.17177008
189	0xbd0bc9ef	-0.034128126
190	0x3de1995b	0.11015578
191	0x3c9dbf4c	0.019256257
192	0x3db79be6	0.08965282
193	0x3e113831	0.14181592
194	0x3e796bc1	0.24357511
195	0x3e842403	0.25808725
196	0x3e629ed6	0.22130904
197	0x3d9ab75d	0.07554505
198	0x3ca209d9	0.019780086
199	0x3e449d36	0.19200596
200	0x3e434c44	0.19072062
201	0x3e9a4ab0	0.30135107
202	0x3d2248ae	0.039620094
203	0x3e7437f1	0.23849465
204	0x3e1e8f26	0.15484294
205	0x3e04193e	0.12900254
206	0x3e072b8c	0.13200206
207	0x3e1bfb72	0.15232638
208	0x3da4cf48	0.08047348
209	0x3db4f4e8	0.08835775
210	0x3dd51788	0.10404879
211	0x3ed1f793	0.41009197
212	0x3e5b09fe	0.2139053
213	0x3d6ef9de	0.05834376
214	0x3dad4bcf	0.08461725
215	0x3e7ebb62	0.24876168
216	0x3e211117	0.15729176
217	0x3e313269	0.17304386
218	0x3c97e382	0.018541101
219	0x3e1cb1d6	0.15302214
220	0x3dfcd1cc	0.12344703
221	0x3ec0a4bd	0.37625685
222	0x3e65b42b	0.2243201
223	0x3d755286	0.059893154
224	0x3caac00c	0.020843528
225	0x3e25412a	0.1613814
226	0x3e0a875c	0.13528198
227	0x3d8e3b7c	0.069449395
228	0x39c16fd1	0.00036895138
229	0xbceb14af	-0.028696386
230	0x3e618bb1	0.22025944
231	0x3d8ba9e2	0.06819512
232	0x3db7bcfd	0.089715935
233	0x3ea120c4	0.3147031
234	0x3e842d3e	0.25815767
235	0x3cc653c0	0.024209857
236	0x3e1ce7ad	0.15322752
237	0x3e2b2b56	0.1671575
238	0x3de741fb	0.11291882
239	0xbd0cf930	-0.03441733
240	0x3e077e7b	0.13231842
241	0xbca71f06	-0.020400535
242	0x3dc88046	0.09790091
243	0x3d77453d	0.060368765
244	0x3e343d9b	0.17601626
245	0x3e7fb6e9	0.24972118
246	0x3d57e5d1	0.052709404
247	0x3dc288aa	0.09498723
248	0x3e8034fa	0.25040418
249	0xbcea60c3	-0.028610593
250	0x3e3e696e	0.18594906
251	0x3e83f135	0.25769964
252	0x3e81c230	0.25343466
253	0x3b6512e8	0.0034953896
254	0x3e814818	0.25250316
255	0x3e895fec	0.26830995

critic.qf.fc0.weight f4 [256, 64]
0	0xbec410bf	-0.38294026
1	0xbe807528	-0.25089383
2	0xbe92973e	-0.28631014
3	0x3d0c0fdd	0.034194816
4	0x3d149605	0.036275882
5	0x3e319ef9	0.173458
6	0x3b675f7f	0.0035304723
7	0x3ec48350	0.38381433
8	0x3f16d198	0.58913565
9	0x3f6cc620	0.92489815
10	0xbe07bf93	-0.13256674
11	0x3f9402af	1.1563319
12	0xbec75498	-0.38931727
13	0x3eb5ffc2	0.3554669
14	0xbddd4817	-0.10804766
15	0x3f2f7ec7	0.6855282
16	0x3d9cd72f	0.076582305
17	0x3edd7592	0.43253762
18	0x3ee6145c	0.44937408
19	0xbec0f541	-0.37687114
20	0xbe54f5ed	-0.20796938
21	0xbf1f14c9	-0.6214109
22	0xbe9cac2b	-0.30600104
23	0x3ecad0b0	0.3961234
24	0x3f3ff4bc	0.7498281
25	0x3ec60ccc	0.38681638
26	0xbe34b524	-0.17647225
27	0xbea04a07	-0.31306478
28	0x3e875a95	0.26436296
29	0xbe709c45	-0.23497112
30	0xbcf9aac9	-0.030476945
31	0xbf2e6a09	-0.68130547
32	0x3deab692	0.11460604
33	0x3e276d70	0.16350341
34	0x3d580d9e	0.05274736
35	0xbdcc1e47	-0.099667124
36	0xbe577232	-0.21039656
37	0xbe19e9b9	-0.15030564
38	0xbe776812	-0.24160793
39	0x3e333848	0.17501938
40	0x3edbf47e	0.4295997
41	0x3f2ccd4e	0.6750077
42	0x3f120251	0.57034785
43	0xbe992eeb	-0.29918608
44	0xbf207156	-0.62672937
45	0x3ee49ad6	0.4464938
46	0x3eae8adf	0.34090325
47	0x3f422023	0.75830287
48	0x3e73ed3c	0.23820966
49	0xbeace34a	-0.33767158
50	0xbe177590	-0.1479094
51	0x3e2a6ebb	0.16643803
52	0xbef91335	-0.48647466
53	0xbddec9a2	-0.10878302
54	0x3ef96c0f	0.48715255
55	0xbd477622	-0.048696645
56	0xbd94ce8c	-0.07265958
57	0x3f443538	0.76643705
58	0xbeacb974	-0.3373524
59	0xbdc18d70	-0.09450805
60	0xbe98f124	-0.29871476
61	0xbe1f6876	-0.15567192
62	0x3ede8944	0.434641
63	0x3d742b9a	0.059611894
64	0xbdf976e5	-0.121808805
65	0x3ea48bea	0.32137996
66	0xc004fd73	-2.0779693
67	0x3e969eb5	0.2941796
68	0xbf462865	-0.7740539
69	0xbcb03798	-0.021510884
70	0xbf586ac5	-0.8453792
71	0xbd8022c1	-0.06256629
72	0xbf27ed37	-0.65596336
73	0x3d5dcfe0	0.054153323
74	0xbdd28e70	-0.10281074
75	0x3ed8c9e9	0.42341545
76	0xbf275ddc	-0.65377593
77	0xbd5bac70	-0.053631246
78	0xbea1228c	-0.3147167
79	0x3f8f4080	1.1191559
80	0x3f86b6af	1.0524501
81	0x3f2be33a	0.67143595
82	0x3f2f4a85	0.6847308
83	0xbf3fe549	-0.74959236
84	0xbf84decf	-1.0380496
85	0xbc10a194	-0.008827586
86	0x3d21f019	0.039535616
87	0xbe915a8b	-0.2838939
88	0xbe66b3b6	-0.22529492
89	0x3f56f7bf	0.8397178
90	0xbeec9f02	-0.46215063
91	0x3ebb9dd2	0.36643845
92	0x3f1f784b	0.6229293
93	0x3e47e894	0.19522315
94	0xbecadca6	-0.39621466
95	0x3e3f67c6	0.1869193
96	0x3dfa0398	0.12207717
97	0xbe636814	-0.22207671
98	0x3f689f92	0.90868485
99	0x3ec2f6a2	0.3807879
100	0x3f3f4365	0.7471221
101	0xbe5f638d	-0.2181532
102	0xbeff278f	-0.49834868
103	0x3d653794	0.055961207
104	0xbafec043	-0.001943596
105	0x3d8b95b7	0.06815665
106	0xbf8ad043	-1.0844806
107	0xbea6d367	-0.32583162
108	0xbfb7b589	-1.4352275
109	0xbd6255ca	-0.055257596
110	0xbeff6a9f	-0.49886033
111	0xbf1efd04	-0.6210482
112	0x3f4d4afe	0.80192554
113	0xbee997cc	-0.45623624
114	0x3e1a22d8	0.15052354
115	0xbd3ba650	-0.045812905
116	0xbf610f20	-0.87913704
117	0xbcadc039	-0.021209823
118	0xbe6baccc	-0.23015136
119	0xbf3620b2	-0.7114364
120	0xbe84973d	-0.25896636
121	0x3e0ee551	0.13954665
122	0xbefcc1b8	-0.49366546
123	0x3e827ae6	0.2548439
124	0x3f2ddcd3	0.67915076
125	0xbf9fa1a4	-1.2471204
126	0x3fa261ca	1.2686093
127	0x3ea3e57b	0.32011017
128	0x3e8c7c59	0.2743862
129	0xbf109589	-0.5647817
130	0xbe9c9849	-0.30584934
131	0xbd7cae0b	-0.061689418
132	0x3f6c6bc2	0.92351925
133	0xbe9451d0	-0.28968668
134	0xbae00c8b	-0.0017093582
135	0x3e4a97cd	0.1978447
136	0x3f46f289	0.7771383
137	0xbf302ec8	-0.6882138
138	0xbf0159bf	-0.50527567
139	0xbf248e43	-0.64279574
140	0x3f014bcb	0.50506276
141	0x3f8cf5eb	1.1012548
142	0x3da0f8bc	0.07859942
143	0xc01b9abc	-2.4313192
144	0xbf34ecf9	-0.7067409
145	0x3e55b2d9	0.20869006
146	0xbe5b816d	-0.21436091
147	0x3ed73f6b	0.42040572
148	0xbf48c4c2	-0.7842523
149	0x3d93b1d9	0.07211656
150	0xbd262cfb	-0.04057024
151	0x3f1d8296	0.61527383
152	0xbe940695	-0.28911272
153	0xbed6ba49	-0.41939
154	0xbf223e34	-0.63376164
155	0x3eb0e4e0	0.34549618
156	0x3ed9e337	0.42556164
157	0x3eb54c42	0.35409743
158	0x3d9fb742	0.077986255
159	0xbe756a82	-0.23966411
160	0xbd4a8c15	-0.04945
161	0x3f6207fa	0.8829342
162	0x3efb37d9	0.49066046
163	0x3e781339	0.24226083
164	0xbde58853	-0.112076424
165	0x3ee6310e	0.449593
166	0x3f2cea7b	0.6754529
167	0x3f499e00	0.78756714
168	0xbe2111f0	-0.15729499
169	0x3f69d6d9	0.91343457
170	0xbef45539	-0.4772127
171	0xbe8e984c	-0.27850568
172	0xbf6aba76	-0.91690767
173	0x3daf59f0	0.08562076
174	0x3f47458b	0.7784049
175	0xbe9f3d75	-0.31101575
176	0x3f51719c	0.8181398
177	0xbe69a893	-0.22818212
178	0xbeb400b1	-0.35156778
179	0xbcad2424	-0.021135397
180	0xbf93735a	-1.1519578
181	0x3dbf1f4c	0.09332141
182	0x3c6b360a	0.014356146
183	0x3f02ae90	0.5104761
184	0xbed46067	-0.414798
185	0x3e943302	0.28945166
186	0xbfad9724	-1.356175
187	0x3f21093c	0.62904716
188	0x3cf6108f	0.030037193
189	0x3e2bb573	0.16768436
190	0x3d725f27	0.059172776
191	0x3dbfc79c	0.09364244
192	0x3ec3aa19	0.38215712
193	0xbeeda15a	-0.46412164
194	0xbd950b4f	-0.072775476
195	0x3f0f3e35	0.55954295
196	0x3db4aa6a	0.088215664
197	0xbb28fb13	-0.0025784418
198	0xbe87b3aa	-0.2650426
199	0xbf8fadd0	-1.1224918
200	0x3ec1f849	0.3788474
201	0xbf3df51d	-0.7420214
202	0x3e8c9bc7	0.274626
203	0xbf1e2288	-0.6177144
204	0x3f334f12	0.70042527
205	0x3eb72b7f	0.35775372
206	0xbed06832	-0.40704495
207	0x3f4136f1	0.7547446
208	0xbe41ff2a	-0.18944994
209	0xbf0849e1	-0.5323773
210	0x3faa976e	1.3327463
211	0x3e5a024f	0.21289943
212	0x3b7739de	0.00377237
213	0xbe7f9830	-0.24960399
214	0x3d988367	0.07446938
215	0x3e406e80	0.18792152
216	0xbeeff626	-0.46867484
217	0xbf23d9e9	-0.6400438
218	0x3ef43004	0.47692883
219	0xbee69df1	-0.45042375
220	0x3e20f689	0.15719046
221	0x3e1236b9	0.14278688
222	0x3d71ea82	0.059061535
223	0xbd77be22	-0.06048406
224	0xbf22a6e7	-0.6353592
225	0xbf41c109	-0.75685173
226	0xbdd69e8b	-0.104794584
227	0xbe6ab393	-0.22920065
228	0x3f23373d	0.6375616
229	0xbe921ad2	-0.28536087
230	0x3f234f1a	0.63792574
231	0xbe0afe6a	-0.13573614
232	0xbf6f8773	-0.93566054
233	0x3f33d7a2	0.70250905
234	0xbe96bf0c	-0.29442632
235	0xbec61382	-0.38686758
236	0x3e93c7d8	0.28863406
237	0x3f0158e9	0.5052629
238	0x3e3ee437	0.18641745
239	0xbd83442a	-0.06409486
240	0x3dd7742b	0.10520204
241	0x3f3efe55	0.7460683
242	0x3e3a9557	0.18221031
243	0xbf498259	-0.7871452
244	0xbe86c97d	-0.26325598
245	0xbec360df	-0.38159844
246	0x3d139fd1	0.036041085
247	0x3ea2676d	0.31719533
248	0xbee422e2	-0.44557863
249	0x3e45e212	0.1932452
250	0xbedb9557	-0.42887375
251	0x3e595ca2	0.21226743
252	0xbee2ac69	-0.44272164
253	0xbe260db7	-0.1621617
254	0xbe896cbe	-0.26840776
255	0x3ed0f951	0.40815213
