logs/minimal-test/100/mlp/2025-04-26-23:49:29/seed-1/save/agent_003010_perf-11.408.pt (torch, 547458 bytes, 12 tensors)

qf1.fc0.weight f4 [256, 5]
00000000: 3eb8 32bc 43bd d23a 937a 893d 1e68 ad3b
00000010: 3840 de3b 3c60 913b 0c2f a5bc 9518 eebd
00000020: bae4 a3bc 7787 6b3c 95df 95bc 3f12 7bbc
00000030: 8800 223d b315 1c3c b853 3cbc 8ced 083a
00000040: fb8a b23a d834 af3c 67d8 de3b bd72 9eb9
00000050: 7a16 54ba 60b0 f9bb 776a 883c 65d7 723b
00000060: bec3 35bb c775 da3a a9eb 85bb cc06 a73c
00000070: 700b b13b 6aef 1db9 2e91 ac3b 9e4a 41ba
00000080: 7ea8 d53c d887 ebb9 b41b 5d3b a2ce dbbc
00000090: dcee 44bb f81f cfbc 3041 4d3c d8d0 1c3d
000000a0: 6890 fe3a d80b 08ba 257f 2b3c 3126 9b3b
000000b0: 146b 5cbb a065 b0ba ab19 e93b 37f0 f7bd
000000c0: 4416 373b 7e1b 2d3c a124 233a 447a cbba
000000d0: 0725 9f3c 4883 2a3b 77cb 8abb 5d02 7e3b
000000e0: 77ca 373b 9161 05bd cb7b 3cbc 89b2 5fbc
000000f0: e234 443c a0fc 21bc cc39 613d 48f6 37bb
00000100: efff cbbb e2d0 11bc 154e 40bc 3714 223d
00000110: 429a f03a 7138 c03b a76b 1c3d 95b8 513d
00000120: 980a 3abd c783 2fbb 1e27 443d 7d74 40bc
00000130: b618 553b 3d20 eabd a122 5e3c 6ca0 dd3b
00000140: 713e 503c b175 ee3c e7fe 8e39 5246 3ebd
00000150: e154 223c 8d75 0bba dbbb fcba 73ab a63c
00000160: 5929 e03b bff3 7dbb f520 bcbb af4c 08bc
00000170: 54fe 2d3d cea9 033c 37f2 06bc 0da2 b7bc
00000180: 5a63 a0b9 7fcd 1e3d 7f8e b1bc cb1f ad3b
00000190: 3de0 103c e9bb 9f3c bef7 f8bd 33a8 cb3c
000001a0: 6350 62bc d00d f73c 39e0 323d 81c9 58bd
000001b0: 56e6 89bc 8532 b1bb f9b2 b83a 7768 05bb
000001c0: 65fc 833c b3a9 223b 7b03 4fbb 7e54 c638
000001d0: c05a a6ba 6cb2 8d3c 67fd a239 b59a 8e3a
000001e0: fb39 863c fe6a 15bc c8b1 dbbd a1cf db3a
000001f0: 1158 88bc af1d 8c3b 558f 3d3d 3a3b 8cbd
00000200: b1f0 b73b e0f1 a83b 21db d9bc 307a 0839
00000210: f97d 61bd f664 033d facb 18bd af3b 3bba
00000220: 250f 7fbc 00be b8bd bf6c e4bb f82a d7bb
00000230: ccca a73c 1756 073d 5ccd 96bc 45be 13bc
00000240: 3476 9dbc 9b53 cabb 6842 7cbb 6c24 fe3c
00000250: 26e5 b73b e223 373a 7357 85bc d151 f4bb
00000260: 4c0e ca3d 7e32 fdbb 0319 053c ff62 d43b
00000270: b5ae 513b 0001 01be 78ad 15bc 137f b73a
00000280: cbcf 59ba 35cd 32bc f9c4 d5bd 5310 a23c
00000290: 2952 97bc 5fb7 68ba d64f 133d c617 28bd
000002a0: c7d0 cfbc 55c8 3c3c 8444 593d b2fe 1f3c
000002b0: a0e5 27bd af78 da3c 6435 c13c 512a 843b
000002c0: 4f7a 753c 9d82 6b3d 481a f63a a13e 86bc
000002d0: 4613 6aba 2c37 dfb9 9bac 983c 4585 beba
000002e0: 716b d73a 64a3 da3b 60f3 0d3d 5b89 afbd
000002f0: 2de4 aa3b 3bf4 d63b 9b47 27bc 137a a5bc
00000300: 67f2 59bd 0706 18bd 7286 ccbc da56 a43c
00000310: 80c6 febb 8c79 debd 31d4 343c aa40 90bb
00000320: b053 61bb 43ef cfbb 6203 753d c745 773c
00000330: 1b75 843b f445 68bd d2fd 45bd 0e54 c5bc
00000340: 7076 15bd 402c 6d3c 5378 80bc 6026 be3c
00000350: 4a52 413d 6cbd 433b 037a 853c 2bfa 053a
00000360: 1173 25bb ccf9 383c ded3 ac3a 903b 84ba
00000370: 2594 02bd ea59 483c 3774 1fb9 fd2e 113d
00000380: cfc2 d33c 876e 2bba 3c83 7eb9 8a12 893c
00000390: 8e41 b739 ac43 be39 9244 e2bc 4d83 a039
000003a0: 762d d0bd 846d bd3c 98d2 033d 1b38 b63a
000003b0: bfd8 873a 3763 9c3c 5cf6 83bb 7dd3 073a
000003c0: 9f3e 533c 87de 1a3c 690a 403d 58c9 b73c
000003d0: 2539 c1bb a289 f0ba 9607 703a 1007 5e3d
000003e0: 5026 df3b 3320 93bb f5a5 18bb b584 eaba
000003f0: 82bf 9c3c 6757 943b d2c3 28bb c45b cdbb
-0.010908185 0.0016078133 0.06712832 0.0052919528 0.006782558 0.004436521 -0.020164035 -0.116257824
-0.020006526 0.014375559 -0.018295089 -0.015324174 0.039551288 0.009526658 -0.0114945695 0.00052233855
0.0013621742 0.021387503 0.0068006995 -0.00030221595 -0.00080905075 -0.0076199025 0.016652329 0.0037054655
-0.002773508 0.001666718 -0.004086931 0.020388983 0.005402975 -0.00015061875 0.00526633 -0.00073734846
0.02608132 -0.00044923904 0.0033738436 -0.026831929 -0.0030049598 -0.025283799 0.012527749 0.038285106
0.0019421699 -0.0005189753 0.010467325 0.0047347774 -0.003363316 -0.0013458021 0.0071136556 -0.12106364
0.0027936855 0.010565637 0.00062234147 -0.0015524109 0.019426836 0.002601819 -0.0042356807 0.0038758733
0.0028044262 -0.03256375 -0.011504124 -0.013653406 0.011975499 -0.009886891 0.05498676 -0.002807038
-0.006225578 -0.008899899 -0.011737366 0.03957006 0.0018356519 0.0058661033 0.038188603 0.05120142
-0.04542026 -0.0026781426 0.047888868 -0.011746523 0.003251595 -0.1143193 0.013558061 0.0067635085
0.0127102 0.029108854 0.00027274268 -0.04645378 0.009907932 -0.00053199456 -0.001928206 0.020345425
0.0068408665 -0.003875002 -0.0057412335 -0.008319064 0.042478874 0.00803609 -0.008236459 -0.022416139
-0.000305916 0.038770195 -0.021674393 0.005283331 0.008842525 0.019498782 -0.12156628 0.024860477
-0.013813111 0.030157954 0.043670867 -0.052926544 -0.016833466 -0.0054076337 0.0014091424 -0.0020356455
0.016111562 0.0024820387 -0.0031587768 9.4571136e-05 -0.001269184 0.017296992 0.00031087847 0.0010879847
0.01638507 -0.009119747 -0.107272685 0.0016770252 -0.016643556 0.0042759995 0.04627927 -0.06847234
0.0056134094 0.005155787 -0.026593747 0.00013015489 -0.055051778 0.032078706 -0.037303902 -0.00071423774
-0.015567576 -0.090206146 -0.0069709714 -0.0065664016 0.020482443 0.033041086 -0.01840847 -0.009017532
-0.019221403 -0.0061745173 -0.003849173 0.031023227 0.0056120334 0.0006986243 -0.01627705 -0.0074560423
0.09866008 -0.0077269664 0.008123639 0.006481528 0.0031995003 -0.12598038 -0.009135596 0.0013999663
-0.00083088566 -0.010913183 -0.1043796 0.019783175 -0.018471794 -0.0008877422 0.03596481 -0.041038297
-0.025368107 0.011522372 0.053043857 0.009765314 -0.04099047 0.026668875 0.023585029 0.004033365
0.014982774 0.05749761 0.0018776143 -0.016387286 -0.00089292636 -0.0004257498 0.018636992 -0.0014535567
0.0016435218 0.0066723097 0.03465593 -0.0857112 0.005215189 0.0065598763 -0.010209943 -0.020199811
-0.05320969 -0.037115123 -0.024966452 0.020060945 -0.007775128 -0.10863027 0.0110369185 -0.00440224
-0.0034382157 -0.006345661 0.05981768 0.01509232 0.0040422804 -0.056707337 -0.048337765 -0.024087932
-0.036489904 0.014475882 -0.015682375 0.023211658 0.047197618 0.0029867543 0.016293531 0.00051108253
-0.0025245587 0.011290025 0.00131857 -0.0010088552 -0.031879563 0.012228468 -0.00015206715 0.035445202
0.025849728 -0.0006539602 -0.00024272216 0.016732473 0.00034953322 0.00036290043 -0.027620587 0.00030615405
-0.10164921 0.02312351 0.03218326 0.0013902219 0.0010364278 0.019090278 -0.004027171 0.00051813555
0.012893348 0.009452469 0.046884928 0.022434875 -0.0058967047 -0.0018351565 0.0009156404 0.054205954
0.006809987 -0.0044899224 -0.0023292277 -0.0017892333 0.019134287 0.0045270207 -0.0025751484 -0.006267043

qf1.fc0.bias f4 [256]
00000000: e60c 333d 6208 c33d e682 c73c 700d f6bc
00000010: 4cbb f9bc 156f 08bd dfe9 24bd d483 493d
00000020: f03a a3bc d079 bd3d fc3f eebc fb8a 353d
00000030: c602 ee3c 8442 f6bb 44f3 953d df01 b83d
00000040: 783b 5e3d a08f 04bd e94a 3b3a f559 2e3d
00000050: e83c c63d 4cdb 9d3d 89ca c2bc 3d60 a8bc
00000060: 8d2e af3d 4c28 9c3d 79a4 9e3d 32fd a03d
00000070: 5ce9 4f3d 58a3 60bc cd8f 503c d949 c63d
00000080: 660d b43d c3ce 813d 1dad a73d 55b4 d5bb
00000090: a1d0 efbc 1c52 a43d 80e6 913d 97d2 ba3d
000000a0: eb39 4cbc ac9a 963d fd98 72bc 3795 96bc
000000b0: d8d1 4b3d 6979 94bc a4d4 bb3d be4c cfbc
000000c0: c308 f4bc 50e9 bcbb 534d febc eb8e c3bb
000000d0: a2c4 333d 3b24 94bc 0a83 adbc 005d b13d
000000e0: 035b 2e3d 3bd0 6ebb 60dd 91bb 9e69 3d3d
000000f0: cd7c 923d 09f3 c03d b046 bd3d 1604 7d3c
00000100: 47b0 06bd e422 c73d cf70 46bc 1366 7cbc
00000110: 7404 213d 734d 55bc 00d7 c23d a207 5a3d
00000120: 499c d73d ab59 80bc c01b ae3d d048 a9bc
00000130: 69d6 6ebc fb09 b43d 6db4 d13d 6f44 14bc
00000140: ef12 923d 9ed1 28bc afa1 f8bc cbe8 9f3d
00000150: 373d e4bc f20e c33d ba02 8cbc 5fea f5bc
00000160: c4c0 923d f145 b03d 840d 093d 3f10 e0bc
00000170: 2593 c53d 7d0e 07bd 11fb b93d e205 c23d
00000180: 501f a23d f10c ebbc 1ee0 a33d 8af5 b33d
00000190: bed4 9abc 5647 64bc 7adb 503d 2d0b 8c3d
000001a0: 87e8 313d 9dd0 8abc d189 ac3d 22f2 e43c
000001b0: 0ffe 4d3d 4d7b 0fbd 0780 133b 8b88 54bc
000001c0: 4cee bb3d 256c 82bc c60e 043d 3e10 4a3d
000001d0: 52b9 41bc 8090 09bc 18e9 403d f1c0 64bc
000001e0: 2626 8ebc 0d94 bb3d a8a6 4dbc 680b 9ebc
000001f0: 268e 833d 94f2 b13d 0a05 cb3d dc7c c53d
00000200: 6398 c03d 7b55 ecbb 7579 953d 981a 913d
00000210: db8d c1bc 6e57 b03d bee3 98bc ecd6 71bc
00000220: b4b5 c13d 01e9 1ebd b711 8f3d 2ed5 863b
00000230: 74f1 b93d 76c4 a03d ada3 833d 87f7 3f3d
00000240: 51b3 27bc 51e1 adbc 7a3d c63d 6ba8 ebbc
00000250: 81b4 63bc d470 a13d 0c6b ccbc faa4 73bc
00000260: 6a74 00bd a405 c63d 5931 ba3d 1483 903d
00000270: d260 f8bc 8814 a0bc defb 973d a007 cebb
00000280: 1901 b4bc 95c3 973d 7963 863d 235a 813d
00000290: 860f 893d b6fe 8c3d c09c abbc 018b 0fbd
000002a0: 2b32 9cbc 58fa cfbc 27c4 7f3d d1cb 833d
000002b0: e232 873d 8627 05bd 89b4 5f3d b74a bfbc
000002c0: b1b0 c63d 2438 adbc 43ab 2c3d 3b92 09bd
000002d0: 88cf a63d 8e48 973d 750a 02bc d6b3 06bd
000002e0: 0832 be3d aad7 eebc 99fd b53d 4779 bf3d
000002f0: 2d76 943d 0ff3 44bc 2f98 ae3d 87b5 ae3d
00000300: ab2d bf3d 1908 bebc d47f b33d 0fbe 9abc
00000310: 1ef4 f6bc a62e 74bc 017d be3d 4ec4 973d
00000320: fdac 80bc 6aab a43d cb90 d8bb 004b f9bc
00000330: b318 99bc bd80 be3d 59b2 9a3d ceaa 8abc
00000340: 7194 bf3d 2002 333d e031 23bc 03c9 133b
00000350: 38bf 923d 921e d9bc a4dd 79bc 0c87 84bc
00000360: ea05 81bc 5e99 9d3d e454 713d 9826 edb9
00000370: a619 aabc bea3 ae3d 1abf 97bc 062c b63d
00000380: 9518 85bc edef 2d3d 3858 723d cc55 b73d
00000390: f349 8cbc e26a bd3d ae15 10bc 6751 893d
000003a0: 7293 c13d 3787 963d 1acb 7bbc 0065 c53d
000003b0: 79ae 1c3d 4759 b4bc 6622 853d fe5b c6bc
000003c0: 269e b33d 175a 863d 2aad 98bc 3507 b53d
000003d0: 3018 f53c a6e3 ab3d b747 e1bc 05a4 f1bc
000003e0: 43b9 50bc e88e 4dbc edb7 5ebc 48de c4bc
000003f0: 8191 8e3d 9dd3 b63d 78b5 8dbb 68c3 c73d
0.043713473 0.09523083 0.02435441 -0.030035704 -0.030484818 -0.03330906 -0.0402621 0.049197987
-0.019925565 0.092517495 -0.029083245 0.044321995 0.029054057 -0.0075152535 0.0732179 0.08984732
0.054255933 -0.032363534 0.00071446464 0.04256626 0.09679586 0.07707843 -0.023778217 -0.020553702
0.08553801 0.076248735 0.077462144 0.07860793 0.05075966 -0.013710819 0.012729597 0.09682054
0.08791618 0.06338265 0.081873156 -0.0065217414 -0.029274287 0.080234736 0.071240425 0.09122198
-0.012464981 0.0735372 -0.014806983 -0.018381698 0.04976067 -0.0181243 0.09171417 -0.025305148
-0.029789334 -0.0057651177 -0.03104273 -0.005967965 0.043888696 -0.018083682 -0.021180648 0.086603165
0.042567264 -0.0036440033 -0.004451439 0.046243303 0.0715271 0.09421355 0.09241998 0.015442869
-0.032882955 0.09723452 -0.012111857 -0.015405196 0.039310887 -0.013018954 0.09513664 0.053229935
0.10527856 -0.015667757 0.08501387 -0.020664603 -0.014577487 0.08790966 0.102394916 -0.009049519
0.071325175 -0.010303883 -0.030350534 0.078080736 -0.02786122 0.09524335 -0.017091144 -0.030018983
0.071656734 0.0860709 0.033460155 -0.027351497 0.09647206 -0.0329728 0.0908109 0.09473778
0.07916129 -0.028692694 0.08001731 0.08787067 -0.018900272 -0.013933023 0.05099056 0.06838069
0.043434646 -0.016945178 0.08424724 0.02794749 0.050291117 -0.0350297 0.002250673 -0.0129720075
0.09176311 -0.015920708 0.03224065 0.049331896 -0.011823969 -0.008396268 0.047097296 -0.013962016
-0.017352175 0.09159098 -0.012551941 -0.019292548 0.06423597 0.08688846 0.099130705 0.09642956
0.094040655 -0.0072123385 0.07298557 0.070851505 -0.023627212 0.08610426 -0.018663283 -0.014760714
0.09458485 -0.03879643 0.06985801 0.0041147685 0.09079257 0.07849972 0.06427703 0.04686692
-0.010235623 -0.021225603 0.096796945 -0.028766831 -0.013898016 0.078828484 -0.024953388 -0.014870876
-0.03136102 0.096690446 0.090914436 0.07056251 -0.030319605 -0.01954104 0.07421087 -0.00628753
-0.02197318 0.07410351 0.06561942 0.0631602 0.06692414 0.0688452 -0.020948768 -0.035044674
-0.01906689 -0.025387928 0.062442925 0.06435359 0.06601502 -0.032508396 0.05461553 -0.023351057
0.0970167 -0.021144934 0.042155515 -0.033586722 0.08145052 0.073868856 -0.007937063 -0.03288635
0.092868865 -0.029155571 0.088862605 0.09349304 0.07249103 -0.01202084 0.085251205 0.08530717
0.09334882 -0.02319722 0.08764616 -0.018889455 -0.030145701 -0.0149037 0.09301186 0.07410489
-0.015707487 0.08040507 -0.0066090575 -0.03043127 -0.018688535 0.09301899 0.07553548 -0.01692715
0.09354485 0.0437032 -0.009960622 0.0022550232 0.07165378 -0.026503835 -0.015250597 -0.016177677
-0.01574989 0.07695268 0.05891885 -0.00045232917 -0.020764183 0.08527325 -0.018523742 0.088951156
-0.016247073 0.04246514 0.059166163 0.08951911 -0.017125105 0.09248902 -0.008794231 0.067049794
0.09451951 0.07350009 -0.015368247 0.09638405 0.038252328 -0.022015227 0.065007016 -0.024213787
0.08770399 0.06560152 -0.018637259 0.08839265 0.02991876 0.0839303 -0.027500017 -0.029497156
-0.012739482 -0.012546279 -0.013593656 -0.024031773 0.069613464 0.08927081 -0.0043246113 0.09754068

qf1.fc1.weight f4 [256, 256]
00000000: 9db5 e73c 9878 5bbd 2240 acbd 85c6 04ba
00000010: d891 a43b 5aae f6bc 0363 49bc a5d5 13bc
00000020: 180a 2f3d dfe7 c5ba 2c72 393d cdfa aa3c
00000030: a2bf 28bd e5f6 a2bc 2a75 313d 7ee8 af3c
00000040: e3be 7fbd 2f5e 89bd 0281 f0bc 0336 8a3b
00000050: bc04 a0bd c4d8 ccbc f12c 27bd a6a9 5cbd
00000060: f6f4 503c 7cd6 c7bc c35c 6abd 7dfb 54bd
00000070: 4e17 693c a2f5 27bd d9d7 ccbc 4d83 cabc
00000080: 3ee3 57bc 55da 28bd 86ad a2bd 3a97 e0bc
00000090: 6e9d 66bd b5df d53c 69bd 4ebc 1964 b53c
000000a0: 2e2c 043b 762b 11bd d8a2 9a3a c411 94bd
000000b0: 90e4 983c cfa2 28bd 6640 90bc 4888 f83c
000000c0: 4385 e73c 86ed 8cbc fb40 9bbd c4dc 52bc
000000d0: 05ae 90bd 167a 5ebd 6c82 30bc e5d1 b2bc
000000e0: 6d5e 36bd f647 1fbd 5bf6 a5bc b739 79bd
000000f0: e1ff b3bc 975e 41bd 317a 0d3d 7619 133c
00000100: 2588 aa3c 7fa3 8ebc a694 52bd ec60 263d
00000110: a25b aebc 472a 34bc 733f 93bd f3fc b7bc
00000120: 562e a9bc e335 8d3b b37f d6bb 4a42 78bd
00000130: d672 94bd d3f8 c33c 8709 94bd 4554 a4bd
00000140: 93fc 30bd 0be1 b63c e1e6 1abd afee 5dbd
00000150: 58be 1bbc da26 b0bc 0065 aabc 6d5a e5bc
00000160: a5f3 96bd c87a c5bc 4f36 1dbc a8c6 1b3d
00000170: 9e1d 62bc c9ca 713c 4cf0 893c 7bd8 183b
00000180: 42b7 f63b 65f9 4cbd 0041 14bd 7871 2fbd
00000190: 7283 043d 9fd7 393d 1963 a6bd fd40 bc3c
000001a0: 5394 86bb af3a 4a3d 87e9 b0bd 127b b83a
000001b0: 248b 843c a542 8139 9e38 0c3d 90d4 243d
000001c0: d54d 283d d59e 55bb e983 fabc 4790 5ebd
000001d0: 4076 2e3d 476f 26bd 8d53 aebd efc8 473c
000001e0: 6f7a 48bd 8c61 863c 447e 1fbb 3755 f6bc
000001f0: f17c 47bc 3766 48bd 78a4 213d 4d37 54bd
00000200: 944f 0e3d 738c 9b3c 89f0 b53c 6801 1abd
00000210: 4a4d f1bc 1f6a 7f3c 7297 73bd e2b8 d83c
00000220: 1f6a 003d 1e31 82bd 30f4 86bd cf86 ef3c
00000230: eee0 ddbc adf9 81bd 6fee c3bc 31d5 56bd
00000240: 5569 74bb 18af 14bd df2d 9c3c 217f 423c
00000250: fba4 28bd d07c 1ebc 7c80 283c 6818 a6bc
00000260: b001 eebc 7cda a53b 5f7e 893b f47b b9bc
00000270: 2229 51bb ef43 703c 58a5 a83c 7fd3 7fbd
00000280: a610 bb3c 47e5 b9bd 5e69 38bd d1d7 393d
00000290: d576 a7bb 9ba2 73bd 7035 45bd 9eb2 303c
000002a0: 70c1 773c 0734 dbba 4f13 63bd ceb5 03bd
000002b0: adb9 acbd f0f9 333d 4660 8cbd d090 ddbc
000002c0: b403 f2bc 6781 0d3c c890 87bd 527e 313d
000002d0: 1da5 fb3c f462 df3c 3ad9 05bc bdee 203d
000002e0: 3e17 c8bb e252 89bd 7cda 1cbd 8eee 5cbd
000002f0: 457b c63c 6634 31bd 9158 b0bb 7346 bc3c
00000300: a7c1 38bd 5c9d a93c cbfb 85bd 1bc1 36bd
00000310: 88af 23ba f97d 59bd cd7a 84bd cf79 a7bd
00000320: 084f 78bc 4d07 3a3b c5cf 69bd 2296 1fbd
00000330: 75cd 19bd a05f 79bd 9272 0b3d 4afc 10bd
00000340: 6c65 8fbd 8ae3 a1bc 39a4 14bd 6705 a7bc
00000350: b70c 48bd 46fb bf3c 8b6c e03c 4779 d1bb
00000360: b96a 3fbd 3db4 8abd 1080 4fbd 97af 4bbd
00000370: 3a17 26bc 4636 a2bc e9c9 44bd 6611 773c
00000380: 7fce 143d 2c05 9d3c 7694 f13c e6f6 39bb
00000390: a2ad 8dbd b7a0 0abc dcc4 dc3b 29a1 57bc
000003a0: 3a2c 86bd 13d5 133d deb0 85bd a619 90bc
000003b0: 35c5 11bd 4039 56bd fc1b a7bd d5d4 113d
000003c0: 4e6c 83bc 1927 6ebd 548a 2b3d cfd8 97bd
000003d0: 24ff 623c 6d13 023d 1a83 573d 9a6e 3cbd
000003e0: 48fd 80bd d84e 02bd c4a6 1cbc 2bbd fa3b
000003f0: 86f5 69bd 5fd8 11bd e820 0bbd b8aa a93c
0.028284842 -0.053581804 -0.0841067 -0.0005064982 0.0050222687 -0.030112434 -0.012291673 -0.009023105
0.042734236 -0.001509901 0.0452749 0.020871544 -0.04119838 -0.01989312 0.043324627 0.021473166
-0.062437903 -0.06707417 -0.02935839 0.0042178645 -0.07813403 -0.025005706 -0.040814344 -0.053872727
0.012753716 -0.024394266 -0.05721737 -0.05199765 0.014226748 -0.041005738 -0.025005268 -0.024720812
-0.013176737 -0.041223843 -0.07943253 -0.02741586 -0.05630248 0.026107648 -0.012618401 0.022142457
0.0020167935 -0.03544184 0.0011797799 -0.07229951 0.018663675 -0.04117089 -0.017608833 0.030338421
0.028261786 -0.017203104 -0.075807534 -0.012870017 -0.070644416 -0.05431565 -0.0107732825 -0.021828601
-0.044523645 -0.038886987 -0.020259073 -0.060846057 -0.021972599 -0.04720935 0.03454036 0.008978238
0.020816872 -0.017411945 -0.051411293 0.040619776 -0.021283928 -0.010996408 -0.07189836 -0.022459483
-0.020651978 0.0043094023 -0.0065459847 -0.060610093 -0.07248466 0.02392236 -0.0722838 -0.08023886
-0.043209624 0.022324106 -0.03781784 -0.054182705 -0.009505831 -0.0215029 -0.020800114 -0.02799722
-0.0737069 -0.024106398 -0.009595468 0.03803125 -0.013801007 0.01475782 0.016838215 0.0023322392
0.0075291703 -0.05004253 -0.0361948 -0.04283282 0.03235192 0.045371648 -0.0812437 0.022980208
-0.004107037 0.04937237 -0.08638292 0.0014074764 0.016179629 0.0002465445 0.03423368 0.040241778
0.04108985 -0.0032595892 -0.030580478 -0.054336812 0.04259324 -0.040633466 -0.0851203 0.012193902
-0.048944887 0.016403936 -0.0024336735 -0.03006993 -0.012175784 -0.048925605 0.03946349 -0.05181055
0.03474386 0.01898787 0.022209423 -0.037598997 -0.0294558 0.015589266 -0.0594706 0.026455346
0.031351205 -0.063570246 -0.06589544 0.029239086 -0.027084794 -0.0634645 -0.023917405 -0.05244941
-0.0037294228 -0.036299795 0.019064842 0.01187113 -0.041172963 -0.009673312 0.010284539 -0.02027531
-0.029053539 0.0050614458 0.004195973 -0.022642113 -0.0031915386 0.014664634 0.020586655 -0.062457558
0.022835087 -0.09076934 -0.04502236 0.045371834 -0.0051106014 -0.059481245 -0.048146665 0.010784773
0.015121803 -0.0016723879 -0.055438336 -0.032155804 -0.08433852 0.04393953 -0.068543 -0.027046591
-0.029542781 0.008636809 -0.06619412 0.04333336 0.03071838 0.027268864 -0.008169467 0.03929018
-0.0061062863 -0.06705262 -0.0382943 -0.05393844 0.024228701 -0.04326286 -0.0053816517 0.022982812
-0.045106556 0.020704918 -0.06542166 -0.044617753 -0.0006244113 -0.053098653 -0.06468735 -0.0817753
-0.015155561 0.00283857 -0.05708291 -0.038961537 -0.037549455 -0.06088221 0.03404481 -0.03539685
-0.070017666 -0.01976182 -0.036289427 -0.020388318 -0.04884025 0.023435246 0.027395507 -0.006392631
-0.046732638 -0.06772659 -0.05065924 -0.049728002 -0.010137374 -0.01980127 -0.04804412 0.015079832
0.036329743 0.019167505 0.029489737 -0.0028375923 -0.069178835 -0.008461169 0.0067373347 -0.013160982
-0.06551404 0.036091875 -0.06527875 -0.017590355 -0.035588462 -0.05230069 -0.081596345 0.035603363
-0.016042855 -0.058142755 0.041879967 -0.074144 0.013854776 0.031756807 0.052615263 -0.046003915
-0.062983096 -0.031813473 -0.009561244 0.007651945 -0.057118915 -0.03560674 -0.03396693 0.020711288

qf1.fc1.bias f4 [256]
00000000: 74b3 a53d 5817 e63d 322f bb3d 6068 9d3d
00000010: 1063 9d3d d6d3 903d 8aff a73d f5ec 933d
00000020: fad7 993d b148 e73d c20b ad3d d1dc aa3d
00000030: 2143 a33d c70a ac3d f608 a33d 0ce7 da3d
00000040: 178c e83d e173 963d fba6 9c3d 6f57 a63d
00000050: c143 9c3d 5b5b 9e3d 989e 993d c787 a73d
00000060: 966b 963d 378a ad3d 5c9f 983d fcaf a03d
00000070: 42da 9b3d 686a b13d c720 9e3d cad5 d83d
00000080: cde2 ed3d 9208 a13d 82f5 933d d150 b23d
00000090: 69ef dd3d d773 a03d a516 9b3d c791 a93d
000000a0: 9512 e03d f5d1 dc3d f8f8 aa3d 1a12 983d
000000b0: 5fe2 a43d abf8 a63d ff4e 9e3d 42e4 9b3d
000000c0: 5a76 e43d 4390 a63d 76f9 de3d 9adc a73d
000000d0: 0fd6 a83d 6b5b 983d a900 e33d 3bd3 a23d
000000e0: 8c16 a63d da69 953d 7acd af3d 885a cc3d
000000f0: a726 d23d e620 a43d edd2 a63d 7bef a53d
00000100: 3ec1 a83d 3aae a23d 56df 953d 6030 b23d
00000110: f554 8b3d 0c13 9f3d 19ee 953d b82a a23d
00000120: 6951 8f3d 5718 963d ae2f 893d 3e68 9e3d
00000130: 1181 9c3d 06d2 a13d 5284 a73d b392 913d
00000140: 93f8 e33d e060 e23d bada a13d f68c 8f3d
00000150: 1c62 903d 2eee 8f3d bf5c 953d 2dc6 a23d
00000160: 10a7 923d 6c77 aa3d e0a2 ad3d 9bdc 973d
00000170: c0ce d03d 183d 973d df42 963d f801 a63d
00000180: 510c 9e3d c173 b43d e2ff ad3d e573 a53d
00000190: ad3a a03d c738 ad3d f1af 983d 038f c43d
000001a0: 5c4b e73d 59b0 9c3d 5905 d93d 53b8 9e3d
000001b0: 54c5 a43d 5cce a03d 8fc1 b43d 3ccd 8d3d
000001c0: f4cf 9a3d 7857 8b3d 2792 9e3d 11e8 9f3d
000001d0: 9c2c 9c3d 6404 a63d c02f f43d acf7 983d
000001e0: e893 993d b527 ea3d 4e3f 963d 444c 9f3d
000001f0: 1931 a43d aa11 9d3d 6cfb a93d 83d8 ac3d
00000200: f9f4 973d a171 9f3d 1b1c ec3d db36 af3d
00000210: 2f1b cf3d 40d0 9b3d 48cb 9c3d 12bc c73d
00000220: 766b 9d3d 89c0 a23d df14 af3d e9f3 9b3d
00000230: b1c7 b63d 007c 9c3d ccdb 8f3d c7cb a93d
00000240: 672a a53d bf2a 993d 4cdf 963d 09d7 d63d
00000250: 2e31 a33d 5346 af3d c09d a33d a9b2 933d
00000260: 79c0 e03d 707a a63d e218 a93d b342 d13d
00000270: 70d0 a13d 33eb b33d 45c9 a83d c21e a73d
00000280: 9afa aa3d f71a a23d 930d f53d f44d a43d
00000290: b0e5 943d 8ebd 9d3d 6365 f63d b27c c43d
000002a0: d706 993d 05b5 e73d 1650 ac3d 5f7c 903d
000002b0: 04ff 9e3d ae8a b23d a517 a33d 0d2e a83d
000002c0: 2500 903d d41a a03d 6952 983d ac3d a33d
000002d0: ca83 b03d f885 913d ccc5 ab3d 13cd a03d
000002e0: 6c84 a93d f20c 9e3d 3621 963d 93e7 a23d
000002f0: dc2b a43d 95ab ae3d c35f a93d 85d2 a03d
00000300: 3dfc 9c3d dc15 a03d eee3 ac3d 1e3f e53d
00000310: 6647 883d 3205 b33d 6646 a83d 3571 9f3d
00000320: d120 923d d17a ee3d d71f 953d dfa9 a33d
00000330: 0ab6 933d b87e aa3d 12aa 9f3d 31ef 923d
00000340: 3c81 9c3d 2e76 a23d cb4b e23d 6d47 a83d
00000350: 5efb 9e3d 388d 9c3d e7f5 973d 2c70 a73d
00000360: e0be 9d3d a656 a93d e85a a83d 8f6d 9d3d
00000370: 72af a73d 42ca a73d c769 a13d 0de8 c13d
00000380: 87df a43d f281 a43d 9164 a43d ab13 983d
00000390: 396d a83d c7cc b03d fe1b b23d 7212 ae3d
000003a0: b6bb b23d f245 ce3d 0178 a73d 5271 a43d
000003b0: 2f35 9d3d b1ac 9f3d c250 9f3d b8b6 a93d
000003c0: f05f a63d 977b a13d 7a4e a13d d018 9f3d
000003d0: ce66 aa3d 58c2 9e3d d3e0 983d 6d75 9a3d
000003e0: 8c5b 983d 9249 b63d 3311 c03d 7d4f 903d
000003f0: 340b 9b3d bc19 8d3d a9c5 9d3d 4337 b43d
0.080908686 0.11234921 0.09139861 0.076859236 0.0768491 0.070716545 0.08203037 0.0722293
0.075118974 0.11293162 0.08449508 0.08342899 0.07971788 0.08400493 0.079606935 0.106886
0.11354845 0.07346321 0.076490365 0.081221454 0.076301105 0.077322684 0.075009525 0.08180194
0.07344739 0.08473628 0.074522704 0.07846066 0.07609989 0.086628735 0.077210955 0.10587652
0.116155244 0.07862963 0.07224561 0.08706821 0.108366795 0.07834595 0.075726785 0.08279758
0.10941044 0.107822336 0.08348268 0.074253276 0.08050989 0.081528984 0.07729911 0.07611896
0.11155386 0.081329845 0.10887425 0.08196373 0.082439534 0.074393116 0.1108411 0.07950445
0.08109769 0.0729558 0.085841134 0.09978205 0.102612786 0.080140874 0.081457 0.08102318
0.08239983 0.07943387 0.073179886 0.08700633 0.06803314 0.07767305 0.07320804 0.07918304
0.0699795 0.07328861 0.06698547 0.07734726 0.07641805 0.07901387 0.08179535 0.07108059
0.11131396 0.11053634 0.07903047 0.07009308 0.07049963 0.07027851 0.072930805 0.07947955
0.07160771 0.08323559 0.084783316 0.07415124 0.101956844 0.073846996 0.073369734 0.08105844
0.07717193 0.08811141 0.084960714 0.08078746 0.078236915 0.08458095 0.07455433 0.0959759
0.112936705 0.07650823 0.10596723 0.07750001 0.0804545 0.0785186 0.08825981 0.06923911
0.07559195 0.06803793 0.0774272 0.07807935 0.07625696 0.08106306 0.1192317 0.07469115
0.07498914 0.11433355 0.07336293 0.077782184 0.08017177 0.07669385 0.08299908 0.08439734
0.07419772 0.07785345 0.11528798 0.08555385 0.10112607 0.0760808 0.0765596 0.097526684
0.07686512 0.079468794 0.08548903 0.076148815 0.08924807 0.076408386 0.07024345 0.082908206
0.08064728 0.07478856 0.07366809 0.104902335 0.07968365 0.08558335 0.07989073 0.07211811
0.10974211 0.08128822 0.08256699 0.102178 0.079010844 0.08785095 0.08241514 0.081601635
0.0834858 0.079152994 0.1196548 0.08022681 0.07270372 0.0770217 0.12031057 0.09594096
0.07472008 0.113138236 0.08413713 0.07054972 0.07763484 0.08717857 0.07963494 0.082119085
0.070312776 0.07817617 0.074375935 0.07970747 0.08618887 0.07105631 0.08387336 0.07851615
0.082772106 0.07717313 0.07330553 0.079543255 0.08016178 0.085288204 0.08270218 0.078526534
0.07665298 0.07816669 0.08441912 0.11193679 0.06654243 0.08741225 0.082165524 0.077852644
0.071351655 0.11644519 0.072814636 0.07991385 0.072124556 0.08324951 0.0779611 0.071745284
0.07641837 0.07932697 0.110496126 0.082167484 0.07762788 0.07644123 0.07419949 0.08175692
0.07702422 0.0826848 0.08220464 0.07686912 0.081877604 0.081928745 0.078815036 0.09468088
0.08050447 0.080325976 0.08026994 0.07425626 0.082239576 0.08632808 0.08696745 0.08499612
0.08727209 0.10071935 0.08177186 0.08029427 0.076761596 0.0779661 0.07779075 0.08286804
0.081237674 0.07884901 0.07876296 0.077684045 0.0832039 0.07751912 0.07464757 0.075419284
0.07439336 0.08900751 0.093782805 0.07046411 0.07570496 0.06889674 0.07703716 0.08799603

qf1.last_fc.weight f4 [2, 256]
00000000: c6aa 86b8 f29a a33c cdfa 4ebc eb5d 883a
00000010: b8a5 e5b9 cf16 e73a c0f0 f0b8 b8d4 fb39
00000020: 2307 d5b9 0bc4 943c 5fd4 b0b9 83c8 4dbb
00000030: 0e71 83ba 2138 5bba bc24 c9b9 a892 4d3c
00000040: 0335 b63c 0aca a3ba 8805 3a3b d973 b7ba
00000050: 67cd b53a 3b60 863a 6bbf 30bb 9453 813b
00000060: 11e9 05ba f726 84bc 5911 a53a 2d08 1c3b
00000070: 3eb8 b6ba 4243 03ba 513d 353b 9cc6 8fbc
00000080: 4db6 a23c 9826 85ba 9b37 60ba 023a 1abc
00000090: 22d1 573c 863e a2b8 6595 cb39 6c5c 113b
000000a0: 082e 793c 99bd 7a3c 82b5 ceb9 545e fcb9
000000b0: d743 75b9 89b7 0c3b 6831 453a 374d 013b
000000c0: 6d3a a23c 7c87 8c3a 5985 623c e298 c2ba
000000d0: 3fdb 7cba c7e5 673a 0da3 793c 5f1e c73a
000000e0: f1a6 463a 427c d1b8 fcaa 343b 3b5c db3b
000000f0: ab2d 013c 5cec 16bb 0ff8 5ab8 126a 18ba
00000100: 43a3 b3ba 2c39 0abb 2687 d4ba b195 b539
00000110: 4758 083b 0005 603a 4bbf b7ba 8888 273b
00000120: 9a58 ffba efa2 b539 3ea8 183b 3f44 e2ba
00000130: e776 f93a db93 da3a 7077 ca3a 9f32 72ba
00000140: c813 943c 2a80 883c 8452 053b 8372 2539
00000150: a676 4c3b 18cf d63a 0bbd 17ba c152 973a
00000160: c75e 5a3a 2316 27bb 9305 d838 844d dc3a
00000170: 0ccc 5e3c 9e36 503a 13b0 263b f396 77ba
00000180: 6abd 92ba fe49 1ebb 5716 b9ba b8ac acba
00000190: 3a58 01bb 9333 c8bb 0fb0 553b f6b5 7a3b
000001a0: d222 923c 653a f13a d781 8a3c 8445 403a
000001b0: 3d30 4aba 2236 053a 2eea 363c c8cd bcba
000001c0: 9d0f 683a a95a 35bb 7e5c c8ba 92bd 9c39
000001d0: e984 db39 9d41 9e38 b853 cf3c b080 5b3a
000001e0: 4286 06b9 0a12 be3c 3ab6 14ba 4638 ceba
000001f0: 0550 1b3b cde0 3cb8 b6e8 6eba b135 59ba
00000200: 3487 0ebb a16a 6b39 93f2 b23c 7984 4c3a
00000210: 844e e7bb ddcb 81b9 9ced 92ba 88a1 c0bb
00000220: 6400 903a 8579 ae37 72fb 633c 3a35 ca39
00000230: b8e9 11ba 77c6 493a d0d0 f8ba 6e6d 913a
00000240: 807f 05ba c9ec edba dd4e 5bba addc 263c
00000250: 5833 813a e752 0bba a6c0 cf39 785a 863a
00000260: 4ab0 0b3c 291e d13a c681 3438 fd04 1f3c
00000270: 44ab bbba e64a a2bb 57bb 14bc 697b 283a
00000280: d2d2 043b 7d60 72ba 1abd d13c 9962 bd3a
00000290: cf53 0bbb e584 73bb 3ff1 d73c 6b5d 843b
000002a0: 42ad a9ba 1cf0 c43c fc6e af3a 9994 28bb
000002b0: 97fc c43a 2f5b 2539 57e2 3bbb cca7 eeba
000002c0: 98eb db38 988b 243b 9376 40bb 1b1a 6eba
000002d0: f725 f33a 8231 a8ba 2671 413a b818 b7b9
000002e0: f379 74ba 10b4 0fbb d7f0 e4ba 1fe4 0cbb
000002f0: 05ba 16bb 7eb6 76bc ec73 f9ba a673 03bb
00000300: 3baf 603a e23b 0538 8e2d 1dba a6db 963c
00000310: 1e83 aeba e7da f6ba 073d b83a 5ca7 4a3b
00000320: ef49 9bba b183 c33c f00c 78ba f83b 8cba
00000330: 4e20 08ba 6ccb 333b 158d fb3a 196d 8c3a
00000340: af11 103b f7d9 4aba 1166 4c3c e324 e2ba
00000350: d2ab 963a dc14 323b c020 22bb ae3e 4f3a
00000360: d6c9 8a39 5aff 2f3a 7f95 a4ba d124 ceba
00000370: ed52 fdba dd21 81bb d93e e73a 2472 5bba
00000380: 3dc0 2539 3493 bcba efc9 1a3b 8b83 96b7
00000390: b6ed 183b 162b 55b9 a336 10bb d436 253a
000003a0: ceed 01bc 33b9 90bb ac91 073b a30d e5ba
000003b0: 8ebe e4b8 e246 283b b19e 6eb9 05cd cfb9
000003c0: fb26 bbba ff63 c03a 400d bfba 5b5b 3c3b
000003d0: 5091 0cbb 0c66 eaba 0046 2fbb 32f0 053a
000003e0: 14f5 203b b18f 703b 5093 91bb 12cc 6d3a
000003f0: a49d db39 6dd9 623a 7bb7 44ba b5ea 11bb
-6.421427e-05 0.019971345 -0.012633038 0.0010403966 -0.00043801754 0.0017630699 -0.00011488935 0.00048032939
-0.00040631843 0.018159887 -0.00033727565 -0.0031400032 -0.00100282 -0.0008362551 -0.00038365077 0.012547173
0.022242075 -0.0012496125 0.0028384645 -0.0013996317 0.0013870419 0.0010252068 -0.0026969563 0.003946731
-0.0005108277 -0.016131861 0.0012593671 0.0023808584 -0.0013940406 -0.00050072756 0.0027654956 -0.017550759
0.019862318 -0.0010158597 -0.0008553208 -0.009413244 0.01317242 -7.736408e-05 0.00038830485 0.0022180332
0.015208729 0.015303993 -0.00039426616 -0.00048135465 -0.00023390293 0.00214717 0.0007522316 0.0019729862
0.01980325 0.001072153 0.013825738 -0.0014846588 -0.00096457073 0.000884619 0.015236628 0.0015191546
0.0007577977 -9.9890414e-05 0.0027567735 0.0066943443 0.007884423 -0.0023029065 -5.2206273e-05 -0.00058141456
-0.0013705272 -0.0021091206 -0.0016214594 0.0003463454 0.002080457 0.0008545667 -0.0014018802 0.0025563557
-0.0019481361 0.00034644405 0.002329364 -0.001726277 0.0019032628 0.0016676144 0.0015446972 -0.00092391105
0.018075839 0.016662676 0.0020343373 0.00015778285 0.003119865 0.0016388623 -0.00057883625 0.0011545048
0.0008330163 -0.0025495372 0.00010300721 0.001680777 0.013598453 0.0007942709 0.0025434538 -0.00094447954
-0.0011195366 -0.002415299 -0.0014121038 -0.0013174033 -0.0019736425 -0.0061096638 0.003260616 0.003825543
0.01783887 0.0018404244 0.016907616 0.00073345774 -0.00077128765 0.0005081614 0.011164231 -0.0014404589
0.0008852424 -0.0027672446 -0.0015286354 0.0002989588 0.0004186996 7.5462485e-05 0.025308475 0.0008373363
-0.00012829251 0.023201961 -0.0005672906 -0.0015733324 0.0023698818 -4.5032055e-05 -0.0009113656 -0.0008285894
-0.0021748068 0.00022451069 0.021844184 0.00078017224 -0.0070589203 -0.00024756687 -0.0011209729 -0.005878631
0.0010986445 2.0799003e-05 0.01391493 0.000385681 -0.0005566138 0.0007697115 -0.0018983129 0.0011095235
-0.00050925463 -0.0018152233 -0.00083659386 0.010184449 0.000985722 -0.00053147826 0.0003962565 0.001025035
0.008525917 0.0015954423 4.3036205e-05 0.009705779 -0.0014318009 -0.0049527762 -0.009077868 0.0006427081
0.002026726 -0.0009245945 0.025602866 0.001444894 -0.002125967 -0.0037158069 0.026360152 0.0040394566
-0.0012945312 0.024040274 0.0013384516 -0.0025723337 0.0015028891 0.00015769595 -0.0028668845 -0.0018207966
0.000104866165 0.0025107618 -0.002936755 -0.00090828695 0.0018550743 -0.0012832137 0.0007379226 -0.00034922897
-0.0009326033 -0.0021927394 -0.0017466795 -0.0021498275 -0.002299906 -0.015058158 -0.001903174 -0.0020057946
0.0008571033 3.176544e-05 -0.0005995863 0.018415283 -0.0013314222 -0.0018833549 0.0014056274 0.0030922508
-0.0011847595 0.023866506 -0.0009462377 -0.0010699024 -0.0005192802 0.0027434481 0.0019191826 0.0010713666
0.0021983196 -0.0007738168 0.012475506 -0.0017253425 0.0011495298 0.0027173078 -0.0024738759 0.00079057633
0.0002647179 0.00067137706 -0.001255676 -0.0015727525 -0.0019327082 -0.0039408044 0.0017642631 -0.0008371195
0.0001580724 -0.0014387132 0.0023618897 -1.7942648e-05 0.0023335046 -0.00020329314 -0.0022005222 0.00063024205
-0.007930232 -0.0044166087 0.0020686192 -0.0017475378 -0.00010907381 0.0025677015 -0.00022756566 -0.00039634868
-0.0014278585 0.0014678239 -0.0014576092 0.0028740976 -0.0021448918 -0.0017883196 -0.0026744604 0.0005109339
0.002456014 0.003670674 -0.00444261 0.00090712414 0.00041888386 0.0008653615 -0.00075041474 -0.002226514

qf1.last_fc.bias f4 [2]
00000000: b208 e13c d9c3 013e
0.027469967 0.12672366

qf1_target.fc0.weight f4 [256, 5]
00000000: 26bf 32bc be25 b93a ce6a 8a3d 2f99 b13b
00000010: 0109 e03b b305 8e3b ec8a acbc fe19 edbd
00000020: 05b5 a2bc b2cf 713c 4e13 92bc 6268 78bc
00000030: 3425 1b3d ff28 063c d908 38bc beed 083a
00000040: 458b b23a f834 af3c afd8 de3b 1f73 9eb9
00000050: 6416 54ba 91b0 f9bb e26a 883c d5d7 723b
00000060: e1c3 35bb 0776 da3a d2eb 85bb 3807 a73c
00000070: ad0b b13b 18ef 1db9 9491 ac3b 0e4b 41ba
00000080: bba8 d53c f487 ebb9 c31b 5d3b df63 debc
00000090: d602 70bb e3c4 c8bc fde5 543c 166b 1e3d
000000a0: 9d90 fe3a f60b 08ba 5c7f 2b3c 9726 9b3b
000000b0: 336b 5cbb 2701 d0ba 6ea2 d73b 8b12 f7bd
000000c0: cc79 4c3b 11d6 323c b024 233a 7a7a cbba
000000d0: 3f25 9f3c 6883 2a3b decb 8abb 9702 7b3b
000000e0: a120 173b 33a2 03bd 8d36 3abc 6129 5ebc
000000f0: 1147 473c b395 18bc 7a2b 5d3d b21b 58bb
00000100: dd39 cdbb e802 e9bb d5f2 20bc 088a 1d3d
00000110: a58a 68b9 7687 b83b d0a5 1d3d 3fd0 503d
00000120: 2947 38bd 621e 36bb b9c5 463d 229e 47bc
00000130: d070 283b dbca e8bd a617 6a3c 7f3a e53b
00000140: d8f7 4f3c 62ba ec3c de26 693a 75e8 3ebd
00000150: 32ff 253c ca75 0bba 41bc fcba d0ab a63c
00000160: 6829 e03b f9f3 7dbb d199 a8bb 9cf7 02bc
00000170: 6dba 293d cee1 c63b 77a7 01bc 6d66 b8bc
00000180: 7fa8 0fba e29e 203d 37e5 b1bc e532 b23b
00000190: baef 0c3c 04f3 9b3c b066 f8bd 83bb cf3c
000001a0: bf7d 63bc 1e74 f83c 3b2a 313d c1e1 56bd
000001b0: 19c7 89bc 6c0e adbb 0db3 b83a 9268 05bb
000001c0: 82fc 833c 08aa 223b 8e03 4fbb eaa3 4939
000001d0: 1fc1 bcba 653e 8e3c 72e3 d539 5bad a03a
000001e0: f79c 863c 5336 1fbc d947 dabd a284 0b3b
000001f0: 84db 88bc da89 8b3b 5254 3c3d 05db 8abd
00000200: cdd9 c23b 21f5 ad3b ec4e dcbc 7d27 03ba
00000210: f1d1 5ebd 17ca 043d 7a90 18bd 7499 66ba
00000220: bce2 85bc 59c1 b6bd 14e1 ddbb 5ff5 d1bb
00000230: 3437 a93c 3597 053d 3383 94bc 7515 13bc
00000240: 1176 9dbc 5964 a7bb 4583 47bb 6431 f73c
00000250: dc67 883b b87e 983a 98ac 79bc b54f dfbb
00000260: e750 c83d c372 0abc 1ea7 033c 8f7f d43b
00000270: da21 2f3b ae7c 00be f1ff 11bc 17aa e13a
00000280: 322c 9eba f21d 3fbc 3a7b d4bd 0844 a63c
00000290: e753 97bc add5 75ba 8bb6 113d 963b 26bd
000002a0: 8424 d0bc 2a65 413c 420e 593d fee2 143c
000002b0: a8df 23bd 51ea dd3c fd8a c33c b83a 873b
000002c0: f2ef 733c 1b51 683d e5d9 673a b685 84bc
000002d0: b013 6aba 3837 dfb9 ffac 983c 4a85 beba
000002e0: 836b d73a 06e2 d83b 88e6 0c3d 5612 aebd
000002f0: 5734 b83b d2cb dd3b 657e 2abc d05b acbc
00000300: dd06 57bd 634b 18bd 1bcd ccbc 8a05 a43c
00000310: 2d2d 0abc 6a20 ddbd e934 3b3c 65f1 8abb
00000320: 6aa1 47bb ed7a a8bb d638 713d 316d 513c
00000330: 3837 753b 1895 69bd 57f1 48bd 8497 bfbc
00000340: 4490 15bd f938 703c aff5 74bc 2931 b93c
00000350: 5449 3d3d 55d3 113b a95c 7d3c e3f9 053a
00000360: 5073 25bb 25fa 383c fcd3 ac3a ca3b 84ba
00000370: 84fc 03bd ee29 433c 8377 ef39 0156 123d
00000380: 9498 d63c f46e 2bba f282 7eb9 da12 893c
00000390: e941 b739 0d44 be39 a9cd e6bc 4c61 1bba
000003a0: aacc cebd 6324 c23c f76a 053d 4938 b63a
000003b0: cad8 873a 6363 9c3c a6f6 83bb b6d3 073a
000003c0: 21eb 4c3c ba25 073c f693 3c3d 2cff ac3c
000003d0: c7ce b2bb 35bd c4ba 7c04 b03a c098 5a3d
000003e0: 4b28 b13b 40ff 8dbb 71a6 18bb 7784 eaba
000003f0: 93bf 9c3c b857 943b 62c4 28bb c061 b9bb
-0.010909831 0.0014125628 0.067586526 0.0054198722 0.006837011 0.0043341755 -0.021062337 -0.11577223
-0.019861707 0.014758991 -0.01783147 -0.015161606 0.037877277 0.008188485 -0.011232578 0.00052234146
0.0013621828 0.021387562 0.006800733 -0.0003022188 -0.00080904947 -0.0076199253 0.016652528 0.0037054915
-0.002773516 0.0016667255 -0.00408695 0.020389184 0.005403003 -0.00015061756 0.0052663777 -0.000737355
0.026081434 -0.00044923986 0.003373847 -0.027147232 -0.0036622784 -0.024507945 0.012994287 0.038676344
0.001942176 -0.00051897706 0.010467377 0.004734825 -0.0033633232 -0.0015869484 0.0065806424 -0.12064084
0.0031200526 0.010915295 0.00062234234 -0.0015524172 0.01942694 0.0026018266 -0.0042357286 0.0038301104
0.002306022 -0.032137107 -0.011365545 -0.01355967 0.01216294 -0.009313035 0.05399654 -0.0032975492
-0.0062630014 -0.007110942 -0.009823521 0.038461715 -0.00022176893 0.0056313826 0.03848821 0.05097985
-0.04498974 -0.0027789106 0.048528407 -0.012183698 0.0025702007 -0.113668166 0.014287865 0.0069954987
0.012693368 0.028897468 0.00088940363 -0.046608407 0.010131644 -0.0005319981 -0.0019282178 0.020345598
0.0068408735 -0.0038750155 -0.0051452895 -0.007993605 0.041437555 0.0060693985 -0.007913462 -0.022509778
-0.0005480125 0.039214022 -0.021715743 0.005438196 0.008602077 0.019036777 -0.12128961 0.025357967
-0.013884961 0.030328806 0.043253165 -0.05246139 -0.01681857 -0.0052812602 0.0014091447 -0.0020356518
0.016111616 0.0024820585 -0.0031587812 0.00019229917 -0.0014400816 0.017363736 0.00040795986 0.0012258695
0.016432269 -0.009717542 -0.10658235 0.0021288772 -0.016706236 0.0042583765 0.04597885 -0.06780056
0.005946374 0.0053087627 -0.026893102 -0.00050031376 -0.054399434 0.03241929 -0.03724716 -0.000879667
-0.016343467 -0.08923597 -0.006771216 -0.0064074243 0.020656206 0.032614905 -0.018128967 -0.008977284
-0.019221338 -0.005108398 -0.0030443233 0.030174918 0.0041627716 0.0011634445 -0.015238903 -0.0068149217
0.09781056 -0.008450213 0.008035449 0.0064849327 0.0026723058 -0.12547562 -0.008911119 0.0017216828
-0.0012067615 -0.011664854 -0.10375066 0.020296112 -0.018472625 -0.00093778485 0.035574477 -0.04058417
-0.025408037 0.011803905 0.052992113 0.009087322 -0.040008217 0.02708927 0.023869986 0.004126873
0.01488875 0.056717973 0.00088444195 -0.01617704 -0.0008929325 -0.00042575016 0.018637178 -0.0014535573
0.0016435239 0.006618741 0.03439954 -0.08499591 0.005621474 0.006768682 -0.010406111 -0.021039873
-0.05249678 -0.03718127 -0.025000146 0.020022172 -0.008433622 -0.10797198 0.011426189 -0.0042402023
-0.00304612 -0.005141607 0.058892094 0.012782381 0.0037416946 -0.057026953 -0.049058285 -0.023387678
-0.036514536 0.014662021 -0.014951154 0.02260645 0.04621251 0.0022251208 0.015463986 0.00051107834
-0.0025245734 0.011290108 0.0013185735 -0.0010088619 -0.03222324 0.011911852 0.00045674675 0.03572655
0.026195802 -0.00065396656 -0.00024272109 0.016732622 0.00034953587 0.00036290326 -0.028174238 -0.0005927279
-0.1009763 0.023698991 0.032572713 0.0013902272 0.0010364291 0.01909036 -0.0040272055 0.00051813887
0.012507231 0.008248741 0.046039544 0.02111777 -0.0054567787 -0.0015010001 0.0013429071 0.05336833
0.0054064146 -0.0043334067 -0.0023292566 -0.0017892261 0.019134318 0.0045270585 -0.002575182 -0.0056574047

qf1_target.fc0.bias f4 [256]
00000000: fb29 343d c0f1 c33d c157 c13c 520d f6bc
00000010: 1ebb f9bc cb6e 08bd d1e9 24bd 6630 4b3d
00000020: f53a a3bc c568 be3d a93f eebc 9708 373d
00000030: e107 eb3c 36a4 0fbc cdc6 963d 73f5 b83d
00000040: 6db5 5f3d 638f 04bd a1e0 5db9 c9a1 2f3d
00000050: ae21 c73d 37b5 9e3d 43ca c2bc 32ee a7bc
00000060: 9b26 b03d ac13 9d3d 418b 9f3d 2bf3 a13d
00000070: 3d5a 513d 7492 70bc d65f 423c 1d3f c73d
00000080: 9501 b53d 7c95 823d 599f a83d 46eb eebb
00000090: 71d0 efbc be39 a53d 0bc2 923d 02cc bb3d
000000a0: e81e 5ebc 338f 973d 7867 82bc 1095 96bc
000000b0: 2a42 4d3d 3879 94bc e8c5 bc3d 9b4c cfbc
000000c0: 3d62 fcbc 4b39 dcbb 0a4d febc 825e e9bb
000000d0: 001d 313d 1024 94bc fd82 adbc 623c b23d
000000e0: c14d 2b3d 42b4 93bb a673 b4bb ca7d 3a3d
000000f0: 136a 933d 95e1 c13d 3634 be3d cf6b 703c
00000100: 4fb0 06bd ee2e c83d 07fb 58bc 0c69 7cbc
00000110: a104 1e3d 544d 55bc e1d5 c33d f1bc 5b3d
00000120: 8897 d83d 13d2 89bc b808 af3d 9148 a9bc
00000130: 068d 7dbc 2701 b53d e0a1 d23d f41e 27bc
00000140: e5ee 923d a57f 38bc 7aa1 f8bc 67d5 a03d
00000150: 293d e4bc 9409 c43d 6b02 8cbc 2aea f5bc
00000160: 24b0 933d 5d3b b13d d013 063d 0510 e0bc
00000170: 2189 c63d 730e 07bd 5cf0 ba3d 50fa c23d
00000180: fe0b a33d ebf0 e9bc aace a43d 25e9 b43d
00000190: 90d4 9abc 5147 64bc 4f4f 523d c8f2 8c3d
000001a0: 89d7 323d 8fd0 8abc 3168 ad3d c2e2 de3c
000001b0: ff53 4f3d 707c 13bd 50ec aa3a 7488 54bc
000001c0: c4df bc3d 1f6c 82bc 3336 043d e993 4b3d
000001d0: 37b9 41bc c948 14bc 67b7 413d cdc0 64bc
000001e0: 82bf 8ebc 6e81 bc3d 7794 5dbc 380b 9ebc
000001f0: 903e 823d 1de9 b23d 7ff1 cb3d c77c c63d
00000200: f588 c13d 5189 07bc b96c 963d 19f4 913d
00000210: db8d c1bc 7b40 b13d b0e3 98bc a02a 85bc
00000220: 2aa0 c23d b4e8 1ebd 6402 903d 54f2 543b
00000230: 58e4 ba3d 08ad a13d d581 843d 505f 413d
00000240: 9cd7 38bc 21e1 adbc b236 c73d 61a8 ebbc
00000250: 9cd1 73bc 305c a23d b76a ccbc 0e3d 82bc
00000260: 5074 00bd cef7 c63d ef19 bb3d 9d5e 913d
00000270: a260 f8bc 5114 a0bc 04e0 983d 56b1 e9bb
00000280: 1a01 b4bc d0b9 983d 5d31 873d c0ec 7f3d
00000290: 80e6 893d 07e2 8d3d a99c abbc 655a 0fbd
000002a0: 2c32 9cbc 0bfa cfbc aec2 803d e6bd 843d
000002b0: e326 883d 5727 05bd 6d42 613d 8e4a bfbc
000002c0: d4a4 c73d fd37 adbc 5b3f 2e3d 3392 09bd
000002d0: e3b8 a73d 6b2f 983d 770a 02bc d3b3 06bd
000002e0: 0d30 bf3d 9dd7 eebc 17ea b63d a47a c03d
000002f0: 325f 953d 5c08 55bc 1b92 af3d 69a8 af3d
00000300: 6a1d c03d e607 bebc 2e79 b43d 765f a6bc
00000310: caf3 f6bc 6a2e 74bc 5f77 bf3d 5dac 983d
00000320: 7d28 87bc 0a90 a53d 213f 00bc 024b f9bc
00000330: 6c18 99bc 0977 bf3d 4594 9b3d abaa 8abc
00000340: 7f8a c03d 0402 343d 9531 23bc 2843 883a
00000350: f398 933d 481e d9bc 7edd 79bc 2513 83bc
00000360: d205 81bc a87a 9e3d 7685 723d 03b9 a0ba
00000370: 8d19 aabc 91a7 af3d 1cbf 97bc e818 b73d
00000380: 64c6 8cbc 06fa 2d3d 61e6 733d 9b45 b83d
00000390: e749 8cbc fe5a be3d 0221 1fbc 5511 8a3d
000003a0: 718a c23d 2a76 973d 5252 87bc fb5e c63d
000003b0: d406 1e3d 11fc b4bc 6a07 863d ef5b c6bc
000003c0: a77f b43d 5934 873d 00ad 98bc ef08 b63d
000003d0: a0a1 f03c 80cf ac3d bd47 e1bc 06a4 f1bc
000003e0: fd72 65bc e78e 4dbc e0b7 5ebc e598 ccbc
000003f0: 7c5f 8f3d a4bf b73d 4996 afbb 5bcf c83d
0.04398535 0.095675945 0.023601415 -0.030035648 -0.030484732 -0.033308785 -0.040262047 0.049606703
-0.019925574 0.09297327 -0.02908309 0.044685926 0.02869028 -0.008767178 0.07362137 0.09031191
0.05461638 -0.032363307 -0.00021159883 0.0428789 0.09723221 0.07749408 -0.023778087 -0.020499323
0.086011134 0.07669768 0.077902324 0.07907709 0.05111145 -0.014683355 0.011863669 0.09728835
0.088381924 0.06376168 0.08233518 -0.0072912304 -0.029274197 0.08067654 0.07165917 0.09169771
-0.013557173 0.0740036 -0.015918478 -0.018381625 0.050111927 -0.018124208 0.09217435 -0.025305083
-0.030808562 -0.006720697 -0.031042594 -0.007121862 0.043240547 -0.018083602 -0.021180624 0.08702923
0.0418222 -0.0045075724 -0.0055069504 0.045530118 0.071979664 0.094668545 0.09287302 0.014674141
-0.032882985 0.09774576 -0.013243443 -0.0154059045 0.038578633 -0.013018925 0.095622785 0.053646985
0.10575777 -0.016823804 0.08546585 -0.020664485 -0.015475517 0.088381104 0.102847815 -0.010200251
0.07174472 -0.011260902 -0.030350436 0.07853203 -0.027861195 0.095721394 -0.017090997 -0.030018885
0.072113305 0.08653901 0.03273374 -0.027351389 0.09694124 -0.032972764 0.09127876 0.095203996
0.07961272 -0.028557261 0.080472305 0.08833531 -0.018900186 -0.013933019 0.051345166 0.06882244
0.04366258 -0.016945152 0.084671386 0.027207736 0.050617214 -0.036007345 0.0013040397 -0.012971986
0.092223674 -0.015920697 0.03227825 0.049701605 -0.011823944 -0.009050556 0.047294047 -0.013961983
-0.017425302 0.09204374 -0.013524166 -0.019292459 0.06359589 0.08735869 0.09958171 0.09691768
0.094499506 -0.008272485 0.07344956 0.07126636 -0.023627212 0.08654877 -0.018663257 -0.016255677
0.09503205 -0.03879614 0.07031706 0.0032493072 0.09125584 0.07894331 0.06470076 0.047210038
-0.011281874 -0.021225514 0.09727229 -0.028766813 -0.014881518 0.079277396 -0.02495323 -0.015898254
-0.031360924 0.09715234 0.09135806 0.07098124 -0.030319516 -0.019540938 0.074646026 -0.007131736
-0.021973182 0.07457316 0.06601212 0.06248164 0.067334175 0.06927877 -0.020948725 -0.034998316
-0.019066893 -0.025387784 0.06287132 0.06481533 0.06648042 -0.03250822 0.05499499 -0.02335098
0.09748235 -0.021144861 0.04254089 -0.033586692 0.08189561 0.07430919 -0.007937065 -0.032886337
0.09335337 -0.029155547 0.08931368 0.09398392 0.07293548 -0.013002481 0.08572789 0.085770436
0.0938061 -0.023197126 0.08812176 -0.020309191 -0.030145545 -0.014903644 0.0934894 0.07454751
-0.016498799 0.08084114 -0.007827551 -0.030431274 -0.018688403 0.09348876 0.075966395 -0.016927084
0.09401416 0.043947235 -0.009960552 0.0010395991 0.07206907 -0.026503697 -0.015250562 -0.01600034
-0.015749846 0.077382386 0.05920931 -0.0012262169 -0.020764137 0.08576883 -0.018523745 0.08940297
-0.017184444 0.04247477 0.05954588 0.08997651 -0.017125083 0.09294699 -0.0097124595 0.06741587
0.09499062 0.07395585 -0.016518746 0.09686085 0.03858073 -0.02209285 0.06544383 -0.02421376
0.0881341 0.066017814 -0.01863718 0.08888423 0.029373944 0.08438015 -0.027500028 -0.029497158
-0.014004466 -0.012546278 -0.013593644 -0.02497525 0.07000634 0.089720994 -0.0053584916 0.09805175
