logs/minimal-test/100/mlp/2025-04-26-23:49:29/seed-1/save/agent_002500_perf27.419.pt (torch, 547442 bytes, 12 tensors)

qf1.fc0.weight f4 [256, 5]
0	0xbc762257	-0.015022836
1	0x3c0bb0b0	0.008526012
2	0x3d9abbff	0.07555389
3	0x3b2afb97	0.00260899
4	0x3c40d0b4	0.011768509
5	0x3bce686e	0.00629907
6	0xbce5ba39	-0.0280429
7	0xbddcef97	-0.10787886
8	0xbcbe2dfa	-0.023215283
9	0x3c66993e	0.014074622
10	0xbcb43c16	-0.022001307
11	0xbd04479b	-0.03229485
12	0x3d0c9e31	0.03433055
13	0x3c5687b2	0.013093876
14	0xbce23511	-0.027613195
15	0x3afc58b7	0.0019252513
16	0x3928df30	0.00016104872
17	0x3ce72970	0.028218001
18	0x3c6ea3fd	0.014565465
19	0x3b1385d9	0.00225102
20	0xba8e307f	-0.0010848193
21	0xbbc7b723	-0.0060948296
22	0x3ca6886a	0.02032872
23	0x3b745e96	0.0037287823
24	0xba840596	-0.0010072466
25	0x3ada75c7	0.001666718
26	0xbb85eba9	-0.004086931
27	0x3ca706cc	0.020388983
28	0x3bb10b70	0.005402975
29	0xb91def6a	-0.00015061875
30	0x3c1af253	0.009457189
31	0xbb857f91	-0.004074045
32	0x3d022cd7	0.031781044
33	0xbbda2a2a	-0.0066578584
34	0x3c1c16a5	0.009526883
35	0xbcc6a32b	-0.024247726
36	0xbbc70feb	-0.0060748956
37	0xbcbf9c55	-0.023389975
38	0x3c35e9a6	0.011103069
39	0x3d2b09e8	0.041757494
40	0x3b135ed6	0.0022486947
41	0xba52f11d	-0.0008046793
42	0x3c2f8c1c	0.010714557
43	0x3ba7a054	0.005115548
44	0xbb6d7852	-0.0036235047
45	0xb75f8443	-1.332263e-05
46	0x3bbe455e	0.005806609
47	0xbde690ef	-0.11258113
48	0x3b9c9e01	0.0047795777
49	0x3c680556	0.014161428
50	0xbb2a67f7	-0.002600191
51	0xbb6936cf	-0.0035585647
52	0x3cbb92de	0.02289718
53	0x3b858611	0.00407482
54	0x3a5b6b96	0.00083702186
55	0x3c011360	0.0078781545
56	0x3b934d00	0.004495263
57	0xbd25f6f9	-0.040518735
58	0xbc5a128d	-0.013310087
59	0xbc1c5967	-0.0095428
60	0x3d0613d6	0.03273376
61	0xbad4f8ec	-0.0016248501
62	0x3d38568f	0.045004424
63	0xbc95686d	-0.01823827
64	0xb9851553	-0.00025383625
65	0xbb1d89bc	-0.0024038395
66	0xbc61596d	-0.013754231
67	0x3d440a57	0.047861423
68	0xb9ef721f	-0.0004567066
69	0xba4a9ddb	-0.0007729211
70	0x3d4be79f	0.049781438
71	0x3d5f9742	0.05458761
72	0xbd279114	-0.04090984
73	0xb8a6b7be	-7.9497215e-05
74	0x3d727681	0.059195045
75	0xbc433c0a	-0.01191617
76	0x3b2fb27f	0.0026809273
77	0xbdd81a58	-0.105519
78	0x3ca50156	0.020142239
79	0x3bc367af	0.005963288
80	0x3cbcc031	0.023040863
81	0x3d12ea39	0.035867903
82	0x3a1b2134	0.00059177284
83	0xbd5ad9b3	-0.05343027
84	0x3c576855	0.013147433
85	0x3a05fa1d	0.0005110817
86	0xbb2dbf47	-0.0026511715
87	0x3caa2b9e	0.020772751
88	0x3becb678	0.0072239004
89	0xbb8d5f2b	-0.0043143234
90	0xb9ca5fc0	-0.00038599782
91	0xbb091e42	-0.0020922576
92	0x3d77bf45	0.060485143
93	0x3c2357b1	0.009969638
94	0xbbee024c	-0.0072634574
95	0xbca3d418	-0.019998595
96	0xba5927d9	-0.0008283831
97	0x3d519dc5	0.05117585
98	0xbd0d3fc3	-0.034484636
99	0x3be93370	0.0071167275
100	0x3c0d4102	0.008621456
101	0x3c9ea525	0.019365856
102	0xbded0900	-0.11573982
103	0x3d069de9	0.03286544
104	0xbc7e8da4	-0.015536699
105	0x3d0470e8	0.03233424
106	0x3d34545b	0.04402576
107	0xbd452e57	-0.048139896
108	0xbc8f977f	-0.017528294
109	0xbb522b03	-0.0032069094
110	0xbbc29dbe	-0.0059392145
111	0x3b816324	0.003948586
112	0x3ce18595	0.027529517
113	0x3b9d96fe	0.0048092594
114	0x3aba6c90	0.0014223028
115	0x3b128553	0.00223573
116	0xbbac2532	-0.0052534575
117	0x3d0d3487	0.034473922
118	0xbab816c2	-0.0014044868
119	0xbb596c0e	-0.0033175978
120	0x3c803920	0.01565224
121	0xbc9c1483	-0.01905275
122	0xbdcfefd6	-0.10153167
123	0x3b3f4540	0.0029185563
124	0xbcc1808d	-0.023620868
125	0x3c225242	0.009907307
126	0x3d3df339	0.046374533
127	0xbd7b39d3	-0.061334442
128	0x3b8dada3	0.0043236776
129	0x3c1e60ef	0.009666665
130	0xbcc66c12	-0.024221454
131	0xbbaf9e56	-0.0053594513
132	0xbd470d38	-0.04859659
133	0x3d0aae78	0.033857793
134	0xbd13881b	-0.036018472
135	0x3b44395f	0.0029941422
136	0xbce8bdd3	-0.028410828
137	0xbdad68c4	-0.08467248
138	0xbbbd1b80	-0.0057711005
139	0xbc35b2ad	-0.011089963
140	0x3cbf936c	0.023385726
141	0x3d03b3e3	0.032153975
142	0xbcc91001	-0.024543764
143	0xbc02e9e3	-0.007990333
144	0xbc955bac	-0.01823219
145	0xbc0a0fdf	-0.0084266355
146	0xbc4b50a8	-0.012409367
147	0x3d303154	0.043015793
148	0x3b856027	0.0040703
149	0xbb2210f8	-0.0024729352
150	0xbc51d4cd	-0.012807083
151	0xba0fbbf0	-0.0005483022
152	0x3dc7416c	0.09729275
153	0xbc28da65	-0.010305976
154	0x3a346382	0.0006881283
155	0x3c2b9696	0.010472914
156	0xbad5bb47	-0.0016306423
157	0xbdf4769b	-0.11936685
158	0xbc18bb31	-0.009321974
159	0xbaff2afe	-0.0019467769
160	0xba11cf38	-0.0005562189
161	0xbca9fdd2	-0.020750914
162	0xbdce1b4d	-0.10063801
163	0x3ce92687	0.028460754
164	0xbccecef7	-0.025245173
165	0x3b66c298	0.0035211202
166	0x3d138f50	0.036025345
167	0xbd26310b	-0.040574115
168	0xbcd6f4ce	-0.026239779
169	0x3c37f615	0.011228104
170	0x3d6a081a	0.057136633
171	0x3bc7f2f1	0.006101959
172	0xbcfdc76f	-0.030978886
173	0x3ce86197	0.028366847
174	0x3ce118ea	0.0274777
175	0xbb2bdd08	-0.0026224274
176	0x3c285341	0.0102737555
177	0x3d4a80db	0.049439292
178	0x3b263c47	0.0025365518
179	0x3ab03b42	0.0013445395
180	0xbb717de1	-0.0036848711
181	0x3c1726e1	0.009225578
182	0x3cf65aec	0.030072652
183	0x3c02091a	0.00793674
184	0xba8f78d5	-0.0010946045
185	0x3c3c9643	0.011510435
186	0x3d208eb8	0.039198607
187	0xbda88a64	-0.08229521
188	0x3c18ae82	0.00931895
189	0x3c6773d9	0.014126741
190	0xbc208000	-0.009796143
191	0xbcad9a47	-0.02119173
192	0xbd4c2f8d	-0.049850035
193	0xbd235f43	-0.03988577
194	0xbce2f44a	-0.027704377
195	0x3cd784d4	0.026308455
196	0xbc5d9e9d	-0.013526586
197	0xbdcf3a0e	-0.10118495
198	0x3c9e7b99	0.019346045
199	0xbb9c6eee	-0.004773966
200	0xbba525f3	-0.0050399243
201	0x3bf8dd36	0.00759473
202	0x3d72f209	0.059312854
203	0x3b46c0a7	0.0030327232
204	0x3ba638c6	0.005072686
205	0xbd7188b7	-0.058968272
206	0xbd586e83	-0.052839767
207	0xbc84f4a2	-0.016229931
208	0xbd0b13d3	-0.033954453
209	0x3c9ddc23	0.019270008
210	0xbc054291	-0.008133546
211	0x3c0dd392	0.008656399
212	0x3d1ba1a5	0.037995953
213	0x3c10c5b9	0.008836203
214	0xbb1b2a1e	-0.0023676227
215	0x3a2b17eb	0.00065266964
216	0x3afc460c	0.001924695
217	0x3c8a308a	0.016868848
218	0x3be8174b	0.007082855
219	0xb9b0b671	-0.00033705265
220	0xbd06ed4f	-0.03294116
221	0x3cb0952b	0.021555504
222	0x3b789070	0.0037927888
223	0x3d19681b	0.0374528
224	0x3ce46974	0.027882315
225	0xbb8ebecf	-0.0043562423
226	0x3b961f84	0.0045813937
227	0x3cb62ae9	0.022237258
228	0x3bbbc6b1	0.005730473
229	0x3a9ca6b6	0.0011951539
230	0xbcf8f1e4	-0.03038878
231	0x3b2dd6de	0.0026525776
232	0xbdbda254	-0.09259477
233	0x3cfff131	0.031242939
234	0x3d1714b9	0.036884997
235	0x3b2def52	0.002654035
236	0xbb1f50d2	-0.0024309647
237	0x3cc527d5	0.024066845
238	0xbc153379	-0.00910651
239	0x3b595d3c	0.0033167144
240	0x3a114c38	0.00055426685
241	0x3c48f18e	0.012264622
242	0x3d30dc4e	0.04317885
243	0x3c8621f5	0.016373614
244	0xb8372f08	-4.36744e-05
245	0xbb7215e4	-0.0036939317
246	0x3b9b4cfb	0.0047394014
247	0x3d418cd2	0.047253437
248	0x3a1aee31	0.0005910127
249	0x3b2bf457	0.0026238167
250	0x3a1703bd	0.000576075
251	0x3ba18aad	0.0049298615
252	0x3ccf1896	0.025280278
253	0x3b9d4853	0.0047998815
254	0xbb6219de	-0.0034500281
255	0x3ba9cd94	0.0051819775

qf1.fc0.bias f4 [256]
0	0x3d6bdfb9	0.057586405
1	0x3dcf98ca	0.10136564
2	0x3d3b95d4	0.045797184
3	0xbcbbdb1a	-0.022931624
4	0xbce2dc51	-0.027692946
5	0xbd086f15	-0.03330906
6	0xbd0e460b	-0.034734767
7	0x3d75f2ff	0.060046192
8	0xbca167bf	-0.01970279
9	0x3dc98a85	0.09840874
10	0xbcd1f5c2	-0.025629882
11	0x3d607f5e	0.054808967
12	0x3d3a89ed	0.045541693
13	0x3b8c74eb	0.0042863986
14	0x3da3affe	0.07992552
15	0x3dc517a9	0.096236534
16	0x3d8463c5	0.06464342
17	0xbd029219	-0.03187761
18	0x3cd3004e	0.025756981
19	0x3d602fb8	0.05473301
20	0x3dd135df	0.10215353
21	0x3dadd2f0	0.08487499
22	0xbc51fdb4	-0.012816835
23	0x39db422b	0.00041820234
24	0x3dbc59f7	0.09196847
25	0x3dab02b8	0.08350128
26	0x3daef396	0.08542554
27	0x3dae64c0	0.0851531
28	0x3d77d617	0.060506906
29	0x3b4648e6	0.0030255853
30	0x3c805a51	0.015668066
31	0x3dd22342	0.10260631
32	0x3dbe8a88	0.093037665
33	0x3d95a2a6	0.07306413
34	0x3db52348	0.0884462
35	0xbc2eafcf	-0.010662033
36	0xbc98f097	-0.01866941
37	0x3db223d5	0.08698241
38	0x3da1fa60	0.07909083
39	0x3dc550e0	0.09634566
40	0xbc1c7962	-0.009550424
41	0x3da5fe70	0.08105171
42	0xbca940a0	-0.020660698
43	0xbc4b94af	-0.012425586
44	0x3d79dfdb	0.0610045
45	0xbc57806f	-0.01315318
46	0x3dc6fe1f	0.097164385
47	0xbca9b404	-0.020715721
48	0xbcf17ef8	-0.029479489
49	0xbc089d89	-0.008338341
50	0xbcc1de59	-0.023665594
51	0x3bf544fb	0.0074850298
52	0x3d251d0a	0.040310897
53	0xbc620381	-0.013794781
54	0xbcad830a	-0.021180648
55	0x3dbf0d93	0.09328761
56	0x3d34f7db	0.044181686
57	0xbc20e364	-0.009819839
58	0x3b8bac6b	0.004262497
59	0x3d3d8af1	0.046275083
60	0x3da1594d	0.07878361
61	0x3dcc29e5	0.09968928
62	0x3dc9ba12	0.09849943
63	0x3ca0a43c	0.019609563
64	0xbcb4050d	-0.021975065
65	0x3dd05c87	0.10173898
66	0xbc97eb1e	-0.01854473
67	0x3c897ce0	0.016783178
68	0x3d3e1387	0.04640534
69	0xbc1e2c6a	-0.009654144
70	0x3dcef31d	0.10104964
71	0x3d83840c	0.0642167
72	0x3de09ac5	0.1096702
73	0xbc451c9d	-0.012030748
74	0x3dbb16f0	0.09135234
75	0xbc81bfce	-0.01583853
76	0xbcbc756d	-0.023005212
77	0x3dc1a38e	0.09455024
78	0x3ddba4cf	0.10724794
79	0xbc169790	-0.009191409
80	0x3da25f04	0.07928279
81	0xbc7af6f0	-0.015317664
82	0xbcdba1ef	-0.026810614
83	0x3db02c1d	0.08602164
84	0xbcc061c0	-0.02348411
85	0x3dcec81b	0.10096761
86	0xbc30f754	-0.010801155
87	0xbcf5ea5f	-0.030018983
88	0x3da22bde	0.07918523
89	0x3dbccc63	0.09218671
90	0x3d27e02e	0.04098528
91	0xbc922cd3	-0.01784364
92	0x3dd00535	0.10157243
93	0xbcdb14fb	-0.026743403
94	0x3dc5cd69	0.096583195
95	0x3dcd8ab9	0.10036225
96	0x3daf72a9	0.085667916
97	0xbccd5cdf	-0.025068698
98	0x3db1c14c	0.086794466
99	0x3dc18c04	0.09450534
100	0xbc9ad4be	-0.018900272
101	0xbc644756	-0.013933023
102	0x3d816db8	0.06319755
103	0x3d9d9111	0.07693685
104	0x3d6c803d	0.057739485
105	0xbc8ad09d	-0.016945178
106	0x3dbb08bf	0.091325276
107	0x3cd67868	0.026180461
108	0x3d7e2500	0.062047005
109	0xbce2b73c	-0.027675264
110	0x3cf74b8f	0.030187396
111	0xbc54888b	-0.0129720075
112	0x3dc7227e	0.09723376
113	0xbc826c25	-0.015920708
114	0x3d432469	0.047642145
115	0x3d792cce	0.060833745
116	0xbc41b952	-0.011823969
117	0xbca9b977	-0.02071832
118	0x3d774ce8	0.060376078
119	0xbc64c0f1	-0.013962016
120	0x3acacb97	0.0015472051
121	0x3dc77696	0.09739415
122	0xbbe1ecb8	-0.006894674
123	0xbc742f53	-0.014903861
124	0x3d797aa3	0.06090797
125	0x3dc08987	0.09401231
126	0x3dd66166	0.10467796
127	0x3dd0481a	0.10170002
128	0x3dcbe5e0	0.099559546
129	0x3ba5fabb	0.00506529
130	0x3da49dc9	0.08037908
131	0x3da062de	0.078313574
132	0xbc929692	-0.017894063
133	0x3dbdd2cb	0.09268721
134	0xbc57f431	-0.013180778
135	0xbba40c42	-0.005006344
136	0x3dccbd36	0.099970266
137	0xbd1b8dc8	-0.03797701
138	0x3d9cdcee	0.076593265
139	0x3b487086	0.0030584647
140	0x3dc6089d	0.096696116
141	0x3dadaa88	0.08479792
142	0x3d948a54	0.072529465
143	0x3d6e66de	0.05820357
144	0xbbdb2bc2	-0.006688566
145	0xbc0b2253	-0.00849207
146	0x3dd0e411	0.1019975
147	0xbc8d6270	-0.017258853
148	0xbbcc4a69	-0.0062344563
149	0x3daf6be0	0.085654974
150	0xbccc6b0c	-0.024953388
151	0xbb95b700	-0.0045689344
152	0xbcf49657	-0.029856844
153	0x3dd19794	0.10233989
154	0x3dc6670c	0.096876234
155	0x3da16cb0	0.078820586
156	0xbcf179c4	-0.029477008
157	0xbc2f91b2	-0.010715889
158	0x3da7e243	0.08197453
159	0xbc5d76c9	-0.01351709
160	0xbc7d0d9d	-0.01544514
161	0x3da6771f	0.08128189
162	0x3d9bd7c1	0.07609511
163	0x3d72b681	0.05925608
164	0x3d99e5ee	0.07514559
165	0x3d9c38c4	0.07628015
166	0xbc9b18b9	-0.018932687
167	0xbd0a48ba	-0.033760764
168	0xbc5581ba	-0.0130314175
169	0xbccffa58	-0.025387928
170	0x3d921145	0.071322
171	0x3d94b712	0.072614804
172	0x3d9917fb	0.07475277
173	0xbd031e5f	-0.032011386
174	0x3d87388a	0.06602581
175	0xbcb8e329	-0.022569256
176	0x3dd20601	0.102550514
177	0xbcad3824	-0.021144934
178	0x3d58c2fd	0.05292033
179	0xbcef0e8d	-0.029181743
180	0x3db59e71	0.08868111
181	0x3da8968c	0.082318395
182	0xba815d11	-0.0009869655
183	0xbd06b3d6	-0.03288635
184	0x3dc97109	0.09836013
185	0xbceed7aa	-0.029155571
186	0x3dc16ae3	0.09444215
187	0x3dc9d818	0.0985567
188	0x3da30319	0.07959575
189	0xbcac1632	-0.021006677
190	0x3db99587	0.09061723
191	0x3dbc4fee	0.09194933
192	0x3dc9dad8	0.09856194
193	0xbcb061fb	-0.021531096
194	0x3dbfc2ba	0.09363313
195	0xbc87cb07	-0.016576303
196	0xbcd3d84e	-0.025859978
197	0xbc742ea6	-0.0149037
198	0x3dc8fee8	0.098142445
199	0x3da73aed	0.08165536
200	0xbc83459e	-0.016024407
201	0x3db0dbb1	0.08635653
202	0xbbca6676	-0.006176765
203	0xbc65ca4b	-0.014025281
204	0xbc63ff00	-0.013915777
205	0x3dc9dfb9	0.09857125
206	0x3dab5b6e	0.08367048
207	0xbc8aaace	-0.01692715
208	0x3dc9c833	0.09852638
209	0x3d6bc1b3	0.057557773
210	0xbc2331e0	-0.009960622
211	0x3cc6e05a	0.024276901
212	0x3da59a26	0.08086042
213	0xbc7ba874	-0.015359987
214	0xbc79dda4	-0.015250597
215	0x3c8ece70	0.017432421
216	0xbc8105ea	-0.01574989
217	0x3dad4c93	0.08461871
218	0x3d911a77	0.07085126
219	0xbc65e322	-0.014031203
220	0xbc9bea7f	-0.019032715
221	0x3db9ec7f	0.09078311
222	0xbc97bf1a	-0.018523742
223	0x3dc30211	0.095218785
224	0xbcb4a726	-0.022052359
225	0x3d6fcb06	0.058543228
226	0x3d8e9ba0	0.06963277
227	0x3dc47dc2	0.09594299
228	0xbc7372e6	-0.014858937
229	0x3dc885ff	0.09791183
230	0xbc38e6bb	-0.011285479
231	0x3d9d2aef	0.076742046
232	0x3dccebc4	0.10005906
233	0x3da5af1a	0.080900386
234	0xbbfaba43	-0.0076515987
235	0x3dcfbd49	0.10143525
236	0x3d4fa486	0.05069401
237	0x3b36fa4c	0.0027920185
238	0x3d96a618	0.073558986
239	0xbc735cbb	-0.014853652
240	0x3dbf5192	0.0934173
241	0x3d95d661	0.0731628
242	0xbc98ad2a	-0.018637259
243	0x3dc09c5b	0.094048224
244	0x3d590e9c	0.05299245
245	0x3db8e4b8	0.09028
246	0xbce147b7	-0.027500017
247	0xbcf1a405	-0.029497156
248	0x3b0b790a	0.0021281862
249	0xbc4d8ee8	-0.012546279
250	0xbc5eb7ed	-0.013593656
251	0xbcefbd81	-0.029265167
252	0x3da1e5f7	0.079051904
253	0x3dc461b0	0.09588945
254	0xbc87fb03	-0.016599184
255	0x3dd1b936	0.10240404

qf1.fc1.weight f4 [256, 256]
0	0x3d0bed71	0.03416199
1	0xbd404564	-0.046941176
2	0xbd9dfa5f	-0.0771377
3	0x3bc83dde	0.006110891
4	0x3c636fbb	0.013881619
5	0xbcf6ae5a	-0.030112434
6	0xbc496303	-0.012291673
7	0xbb42ba27	-0.0029713006
8	0x3d2f0a18	0.042734236
9	0xb912083f	-0.00013926717
10	0x3d3e6e9b	0.0464922
11	0x3cb24987	0.021763576
12	0xbd129988	-0.03579095
13	0xbc5bcece	-0.013416005
14	0x3d3dfd97	0.04638442
15	0x3cd1f66c	0.025630198
16	0xbd7b68d7	-0.06137928
17	0xbd895e2f	-0.06707417
18	0xbcbfd116	-0.02341513
19	0x3c18d63f	0.009328424
20	0xbd98f0d4	-0.07467809
21	0xbcc101f4	-0.023560502
22	0xbd2322d3	-0.039828133
23	0xbd49d42d	-0.049274612
24	0x3c9cc33e	0.019136067
25	0xbcae8475	-0.021303395
26	0xbd518df4	-0.051160768
27	0xbd30a5e6	-0.043126963
28	0x3c85483d	0.016269797
29	0xbd0cec5d	-0.0344051
30	0xbc9c4fe8	-0.019081071
31	0xbcac1a2e	-0.021008577
32	0xbbf0776b	-0.0073384545
33	0xbd23c9b8	-0.039987296
34	0xbd973e13	-0.073848866
35	0xbcaffa14	-0.021481551
36	0xbd6354fd	-0.055500973
37	0x3cee8f5c	0.029121093
38	0xbc211a82	-0.00983298
39	0x3ce7841f	0.028261242
40	0x3c0b1e9f	0.008491187
41	0xbcfbfa81	-0.030759098
42	0x3bcbf3b3	0.0062241196
43	0xbd876363	-0.066107534
44	0x3cc7ead7	0.024403973
45	0xbd1cc1c9	-0.038270745
46	0xbc444273	-0.011978733
47	0x3cf88848	0.030338421
48	0x3d082895	0.033241827
49	0xbc286789	-0.010278591
50	0xbd8f7392	-0.07004465
51	0xbbbf6a25	-0.005841511
52	0xbd8522b0	-0.06500757
53	0xbd5087d5	-0.05091079
54	0xbc30826c	-0.0107732825
55	0xbc8bd7bd	-0.017070645
56	0xbd1ecf23	-0.03877176
57	0xbd0d0417	-0.03442773
58	0xbc6f32b4	-0.014599491
59	0xbd63bc34	-0.055599406
60	0xbcb7ebae	-0.022451248
61	0xbd32e280	-0.04367304
62	0x3d288cb4	0.04114981
63	0x3c64c29c	0.013962414
64	0x3cd0a57d	0.025469536
65	0xbc1e7096	-0.009670397
66	0xbd4aaadd	-0.049479354
67	0x3d3be4f3	0.04587264
68	0xbc84235d	-0.016130144
69	0xbc25ea60	-0.01012668
70	0xbd897283	-0.067112945
71	0xbc86201b	-0.016372731
72	0xbc865630	-0.01639852
73	0x3c757098	0.014980458
74	0xbb61e31d	-0.0034467645
75	0xbd6e8699	-0.05823383
76	0xbd89ab47	-0.06722122
77	0x3cbdcd6c	0.023169242
78	0xbd941a39	-0.07231564
79	0xbd921a0f	-0.071338765
80	0xbd29d7ec	-0.041465685
81	0x3ceac7e9	0.028659778
82	0xbd1cfe18	-0.03832826
83	0xbd47b341	-0.048754934
84	0xbbda1566	-0.006655383
85	0xbc809ded	-0.015700305
86	0xbc9f68fc	-0.01945924
87	0xbce55a6d	-0.02799722
88	0xbd953e76	-0.07287304
89	0xbcaa1a42	-0.020764474
90	0xbb87d38a	-0.0041450905
91	0x3d09f0a2	0.03367675
92	0xbc4675d0	-0.01211305
93	0x3c8f815c	0.017517738
94	0x3cb0f19b	0.021599581
95	0x3b98ffbf	0.004669159
96	0x3c42f089	0.011898168
97	0xbd4f1fd8	-0.050567478
98	0xbd03d3ca	-0.0321844
99	0xbd17f227	-0.03709617
100	0x3d048372	0.03235192
101	0x3d39d79f	0.045371648
102	0xbd992504	-0.07477763
103	0x3cf8f7cf	0.030391602
104	0x3ab130d8	0.0013518585
105	0x3d4a3aaf	0.04937237
106	0xbdb26372	-0.08710374
107	0x3bec4e87	0.0072115096
108	0x3ca66af2	0.020314667
109	0x3ba596a4	0.005053358
110	0x3d267182	0.040635593
111	0x3d24d490	0.040241778
112	0x3d271b4b	0.040797513
113	0xbb559ed5	-0.0032595892
114	0xbcc4eeaa	-0.024039585
115	0xbd5299db	-0.05141626
116	0x3d2e7640	0.04259324
117	0xbd184d33	-0.037182998
118	0xbda95275	-0.082676806
119	0x3c47c8ef	0.012193902
120	0xbd3423f2	-0.043979593
121	0x3c86bea4	0.016448326
122	0x3b97da5e	0.0046341857
123	0xbcde3c9d	-0.027128512
124	0xbbf15b9c	-0.007365657
125	0xbd3075f1	-0.043081228
126	0x3d1b3104	0.03788854
127	0xbd4a3bd4	-0.049373463
128	0x3d1be824	0.038063183
129	0x3ccceb54	0.025014557
130	0x3cca327e	0.02468228
131	0xbd0ab443	-0.033863317
132	0xbce7cff4	-0.028297402
133	0x3ca25ea0	0.019820511
134	0xbd70a607	-0.058752086
135	0x3d062ffe	0.032760613
136	0x3d097086	0.033554576
137	0xbd82311e	-0.063570246
138	0xbd866cb7	-0.065637045
139	0x3d1044d6	0.035221897
140	0xbcb87ca4	-0.02252037
141	0xbd7d9900	-0.06191349
142	0xbcb1bc3d	-0.021696204
143	0xbd46960d	-0.048482943
144	0x3a9c8b4d	0.001194337
145	0xbcf3e8c5	-0.02977408
146	0x3cadaffc	0.02120208
147	0x3c4e67e3	0.012598011
148	0xbd13a25d	-0.036043514
149	0xbb94522e	-0.004526398
150	0x3c28807c	0.010284539
151	0xbc64ce09	-0.013965138
152	0xbcc4d170	-0.024025649
153	0x3b9189ee	0.0044414913
154	0x3c16a6db	0.009195055
155	0xbc7993a0	-0.01523295
156	0xbb512922	-0.0031915386
157	0x3c9d3643	0.019190913
158	0x3ce421f7	0.027848227
159	0xbd672427	-0.056430962
160	0x3cc7e096	0.024399083
161	0xbda6c331	-0.081426986
162	0xbd2dc76f	-0.042426523
163	0x3d542079	0.05178878
164	0x378cfd3c	1.6807222e-05
165	0xbd77378d	-0.06035571
166	0xbd453368	-0.048144728
167	0x3c4e1aed	0.012579662
168	0x3c95a7f4	0.018268563
169	0xbadb3407	-0.0016723879
170	0xbd4b029d	-0.04956304
171	0xbcd18d30	-0.025580019
172	0xbda01ea5	-0.07818345
173	0x3d33f9f0	0.04393953
174	0xbd830be1	-0.0639875
175	0xbcdd90d0	-0.027046591
176	0xbcde6cb6	-0.027151447
177	0x3c0d8167	0.008636809
178	0xbd649f21	-0.05581582
179	0x3d313609	0.043264423
180	0x3cf82872	0.030292723
181	0x3d0b07c6	0.03394296
182	0xbbe2c1cf	-0.0069200764
183	0x3d20eebd	0.03929018
184	0xbacd8519	-0.0015679925
185	0xbd8952e2	-0.06705262
186	0xbd06fce4	-0.03295602
187	0xbd58a92d	-0.052895714
188	0x3ce21716	0.027598899
189	0xbd1bf934	-0.038079455
190	0x3b249494	0.0025112974
191	0x3cdb8513	0.026796853
192	0xbd3fbb8c	-0.046809718
193	0x3ca99d5c	0.020704918
194	0xbd82b8bf	-0.06382894
195	0xbd0a13bc	-0.033710226
196	0xba23af88	-0.0006244113
197	0xbd597df9	-0.053098653
198	0xbd6e7724	-0.05821909
199	0xbd9d59ff	-0.07683181
200	0xbc70e1e4	-0.014702294
201	0x3be60f78	0.007020887
202	0xbd4e0ba6	-0.050304078
203	0xbd1fd93d	-0.039025534
204	0xbd15ee1a	-0.036604024
205	0xbd6a0224	-0.057130948
206	0x3d2523e4	0.04031743
207	0xbd10fc4a	-0.03539685
208	0xbd8940be	-0.06701802
209	0xbc78f226	-0.015194451
210	0xbd14a439	-0.036289427
211	0xbc6eab4a	-0.014567206
212	0xbd33c9b5	-0.043893535
213	0x3d0931ab	0.033494633
214	0x3ce06c8b	0.027395507
215	0xba8cfda6	-0.0010756745
216	0xbd3f6ab9	-0.046732638
217	0xbd846bca	-0.06465872
218	0xbd370c5c	-0.04468952
219	0xbd4146b3	-0.047186565
220	0xbc26173a	-0.010137374
221	0xbc56460a	-0.013078222
222	0xbd44c9e9	-0.04804412
223	0x3c8de3e1	0.017320575
224	0x3d2a5cc2	0.041592367
225	0x3cccd786	0.025005113
226	0x3d0a1233	0.033708762
227	0xba64684d	-0.0008713052
228	0xbd8bcb2f	-0.068258636
229	0xbbc5d3e8	-0.006037224
230	0x3c4419f9	0.011969083
231	0xbc059dd8	-0.008155309
232	0xbd843f5c	-0.06457397
233	0x3d2840b3	0.041077327
234	0xbd717da1	-0.0589577
235	0xbc7d9dd4	-0.015479524
236	0xbd0d2713	-0.034461092
237	0xbd3de980	-0.04636526
238	0xbda25eef	-0.079282634
239	0x3d17066a	0.03687135
240	0xbc88447c	-0.016634218
241	0xbd6f6cc8	-0.05845335
242	0x3d2b8a54	0.041879967
243	0xbd8feba6	-0.07027368
244	0x3c9da3b9	0.019243108
245	0x3d17b5bd	0.037038554
246	0x3d57831a	0.052615263
247	0xbd3c6e9a	-0.046003915
248	0xbd6a5283	-0.057207596
249	0xbd024ed8	-0.031813473
250	0xbc1ca6c4	-0.009561244
251	0x3c5aeb68	0.013361789
252	0xbd6cfc6b	-0.057857912
253	0xbd056b1d	-0.032572854
254	0xbce1ed90	-0.027579099
255	0x3cd617c2	0.026134375

qf1.fc1.bias f4 [256]
0	0x3db29cc0	0.08721304
1	0x3deedd98	0.116633594
2	0x3da5a2e4	0.080877095
3	0x3da98c52	0.08278717
4	0x3da3af4f	0.07992422
5	0x3d9c8f4f	0.076445214
6	0x3db07aab	0.08617147
7	0x3d912dc9	0.07088811
8	0x3d9d3179	0.07675452
9	0x3df0575a	0.11735411
10	0x3db38542	0.08765651
11	0x3da3bdc0	0.07995176
12	0x3db02f47	0.086027674
13	0x3dc14bf0	0.09438312
14	0x3db9bc55	0.090691246
15	0x3de580ef	0.11206233
16	0x3df0ef93	0.11764445
17	0x3da23cee	0.07921778
18	0x3da2dcdd	0.079522826
19	0x3da8e4f3	0.082467936
20	0x3da37043	0.079803966
21	0x3da5be33	0.08092918
22	0x3da0f161	0.078585394
23	0x3db03e84	0.08605674
24	0x3d9cf1a5	0.076632775
25	0x3d9aa6a4	0.075513154
26	0x3d9f14f9	0.07767672
27	0x3da70a98	0.081563175
28	0x3da06fa7	0.07833796
29	0x3db979a2	0.09056403
30	0x3da30b62	0.079611555
31	0x3dbe0c7e	0.092797264
32	0x3df6923f	0.12039613
33	0x3daba0c5	0.08380274
34	0x3da0cf70	0.078520656
35	0x3da03d72	0.0782422
36	0x3de870aa	0.11349614
37	0x3daa3f86	0.083128974
38	0x3da1e00c	0.07904062
39	0x3dab4967	0.0836361
40	0x3de9dfd0	0.11419642
41	0x3de6b7f0	0.11265552
42	0x3dc3b2e8	0.09555608
43	0x3d98121a	0.074253276
44	0x3da8f59f	0.082499735
45	0x3dad779b	0.084700786
46	0x3db3b1ac	0.087741226
47	0x3da3b38a	0.07993229
48	0x3ded4db9	0.1158709
49	0x3da67d8a	0.081294134
50	0x3de94f6b	0.11392101
51	0x3db1a87f	0.08674716
52	0x3daf4ee0	0.08559966
53	0x3daa8cc1	0.08327628
54	0x3decb78c	0.11558446
55	0x3dab824a	0.0837446
56	0x3db1b2d9	0.086766906
57	0x3d96a16b	0.07355007
58	0x3db7c7d6	0.089736626
59	0x3dd9ce83	0.10635092
60	0x3ddef352	0.108862534
61	0x3dafbfd0	0.08581507
62	0x3da6d2ed	0.081457
63	0x3dbd8bb0	0.09255159
64	0x3dacce69	0.08437807
65	0x3dae7ad1	0.08519519
66	0x3da15c4d	0.07878933
67	0x3db23060	0.08700633
68	0x3d98143c	0.074257344
69	0x3da3d570	0.07999694
70	0x3da1f048	0.07907158
71	0x3dbecf48	0.093168795
72	0x3d9f0199	0.077639766
73	0x3da27a2a	0.07933457
74	0x3d963140	0.073336124
75	0x3da3cc2e	0.079979286
76	0x3da943b8	0.082648695
77	0x3dbd87ff	0.09254455
78	0x3dae5e1f	0.08514046
79	0x3d9b3e32	0.07580222
80	0x3ded272f	0.11579739
81	0x3debdfe2	0.11517312
82	0x3da827af	0.08210694
83	0x3da8c811	0.08241285
84	0x3da15651	0.07877792
85	0x3d9a41f8	0.07532114
86	0x3da80cab	0.08205541
87	0x3da69025	0.08132962
88	0x3d97b004	0.07406619
89	0x3da9acbf	0.08284902
90	0x3db4353b	0.087992154
91	0x3da8d731	0.082441695
92	0x3ddb8bab	0.10719999
93	0x3da388e4	0.07985094
94	0x3d9c9ad6	0.0764672
95	0x3dac6b03	0.08418848
96	0x3daf4233	0.085575484
97	0x3db36187	0.08758836
98	0x3db3f847	0.087875895
99	0x3da573e5	0.08078746
100	0x3dac0235	0.083988585
101	0x3db30d5b	0.08742782
102	0x3da20e7d	0.0791292
103	0x3dd3f449	0.10349328
104	0x3df07fec	0.11743149
105	0x3da26d38	0.07930988
106	0x3de2b660	0.110699415
107	0x3da9f35f	0.082983725
108	0x3dac1d94	0.08404079
109	0x3da0ce5c	0.0785186
110	0x3da5b2f2	0.08090772
111	0x3d943a0d	0.07237635
112	0x3da1cb1a	0.07900067
113	0x3d97efad	0.074187614
114	0x3d9e9227	0.0774272
115	0x3dabab14	0.0838224
116	0x3da8bb8a	0.08238895
117	0x3da88511	0.082285054
118	0x3dfc1de3	0.12310388
119	0x3da08ac5	0.07838968
120	0x3d9993e8	0.07498914
121	0x3df2754e	0.1183878
122	0x3d98303c	0.07431075
123	0x3da7ef75	0.0819997
124	0x3daac97e	0.08339213
125	0x3d9fbd56	0.07799785
126	0x3da9fb6c	0.08299908
127	0x3daab4af	0.08335244
128	0x3d9e67d3	0.07734647
129	0x3daabce2	0.08336808
130	0x3df48155	0.119387306
131	0x3db05776	0.08610432
132	0x3dd73a13	0.10509124
133	0x3d9ecf8f	0.077544324
134	0x3da007b7	0.078139715
135	0x3dde1b84	0.10845092
136	0x3da7ba64	0.08189848
137	0x3dad53e8	0.084632695
138	0x3d993a7d	0.07481859
139	0x3da847c8	0.08216816
140	0x3dca1a29	0.09868271
141	0x3da39c9f	0.079888575
142	0x3d9cacff	0.07650184
143	0x3dab8efb	0.08376881
144	0x3dadfe0a	0.0849572
145	0x3da5eb3e	0.081015095
146	0x3d9e9f0b	0.07745179
147	0x3de26eb5	0.11056272
148	0x3db0a66a	0.08625491
149	0x3dca396c	0.098742336
150	0x3da92d32	0.082605734
151	0x3da8a90b	0.082353674
152	0x3deca818	0.11555499
153	0x3dacf1cd	0.08444557
154	0x3daf92a4	0.08572891
155	0x3ddd16ac	0.1079534
156	0x3da86453	0.0822226
157	0x3dba8d39	0.09108967
158	0x3d9cc548	0.07654816
159	0x3da71ec2	0.081601635
160	0x3daed648	0.08536965
161	0x3da21af7	0.079152994
162	0x3dfce926	0.12349157
163	0x3da8f8b2	0.0825056
164	0x3da1418d	0.07873831
165	0x3da950e2	0.0826738
166	0x3dfe3c43	0.12413838
167	0x3dd4035e	0.10352205
168	0x3dad4531	0.08460463
169	0x3defdb35	0.11711732
170	0x3dc120e3	0.09430101
171	0x3da30461	0.079598196
172	0x3da07741	0.07835246
173	0x3db64576	0.08899967
174	0x3da317a5	0.07963494
175	0x3da82e0d	0.082119085
176	0x3d98acf2	0.07454862
177	0x3da01ad4	0.07817617
178	0x3da60cf0	0.081079364
179	0x3daacc91	0.08339799
180	0x3db6f2d1	0.08933032
181	0x3d96bd73	0.07360353
182	0x3dc41bcc	0.09575614
183	0x3daa16ba	0.08305116
184	0x3db30cfb	0.0874271
185	0x3d96dc36	0.07366221
186	0x3d9c945d	0.076454856
187	0x3dafb31d	0.08579085
188	0x3dae337d	0.08505914
189	0x3d97669a	0.073926166
190	0x3dae5182	0.0851164
191	0x3dabea0c	0.0839425
192	0x3da3579a	0.07975693
193	0x3da75b94	0.08171764
194	0x3dbac500	0.09119606
195	0x3dee4495	0.11634175
196	0x3d8eb883	0.069687866
197	0x3db30532	0.08741225
198	0x3dae96e7	0.08524876
199	0x3da51133	0.08059921
200	0x3d995d9a	0.07488556
201	0x3df6a2cd	0.120427705
202	0x3d9ade35	0.07561914
203	0x3dac2d55	0.08407084
204	0x3da09a02	0.07841875
205	0x3daf8e52	0.08572067
206	0x3da61f34	0.0811142
207	0x3d9cfd9b	0.07665559
208	0x3da956a3	0.08268478
209	0x3da214f5	0.079141535
210	0x3decd099	0.11563224
211	0x3db526de	0.08845304
212	0x3da6e71f	0.081495516
213	0x3d9e6951	0.07734931
214	0x3d9e5a0e	0.0773202
215	0x3dab8755	0.08375422
216	0x3da188a7	0.078873925
217	0x3db5b616	0.08872621
218	0x3dac7f43	0.08422711
219	0x3da3d381	0.079993255
220	0x3db187fa	0.086685136
221	0x3dadf09a	0.08493157
222	0x3dae4df2	0.08510961
223	0x3dd59db4	0.1043047
224	0x3daf3327	0.085546784
225	0x3da981e7	0.0827673
226	0x3dade9f7	0.08491891
227	0x3da4bfd9	0.080444045
228	0x3db09ead	0.08624015
229	0x3db493d7	0.08817261
230	0x3db81a35	0.089893736
231	0x3dbf6de6	0.09347133
232	0x3da22322	0.07916857
233	0x3dec108b	0.11526593
234	0x3d9a0e62	0.075222746
235	0x3db5411f	0.088503115
236	0x3da3ad06	0.07991986
237	0x3da59fa1	0.080870874
238	0x3da49087	0.08035379
239	0x3da9b6b8	0.08286804
240	0x3da87b7f	0.0822668
241	0x3dafe1ce	0.08587991
242	0x3da725f9	0.081615396
243	0x3dab685a	0.08369513
244	0x3db2bbff	0.08727264
245	0x3daa3195	0.08310238
246	0x3d9f1ef9	0.077695794
247	0x3d9d29b8	0.07673973
248	0x3d9ebd96	0.077510044
249	0x3da70c62	0.08156659
250	0x3ddfb342	0.109228626
251	0x3d9608e5	0.07325915
252	0x3d9fafae	0.0779718
253	0x3d96fced	0.073724605
254	0x3dad708b	0.084687315
255	0x3db43743	0.08799603

qf1.last_fc.weight f4 [2, 256]
0	0xbb1ce07c	-0.0023937514
1	0x3cbc4966	0.022984218
2	0x3a3e1a72	0.00072518655
3	0x3a5343d9	0.00080591213
4	0x3ac0a4cf	0.0014697554
5	0x3a3b6cdf	0.0007149707
6	0xbb422dc2	-0.0029629325
7	0x387d4712	6.038609e-05
8	0xba9ca9be	-0.0011952443
9	0x3cb1e89b	0.02171736
10	0x3b37dbd5	0.0028054614
11	0xbb02015e	-0.001983724
12	0xba815ac9	-0.0009868975
13	0xb92a182a	-0.00016221465
14	0x3b6a1590	0.0035718419
15	0x3c8a0105	0.01684619
16	0x3ccdd947	0.02512802
17	0x3b14f4b9	0.0022728874
18	0xb991a166	-0.00027776806
19	0x39b3dbbd	0.00034305258
20	0x3aefa924	0.0018284661
21	0x3a89d84e	0.0010516734
22	0x3a561d8e	0.0008167856
23	0xb95c2c05	-0.00020997234
24	0xba35697f	-0.0006920322
25	0x39e24356	0.00043156248
26	0xbaeb7c4f	-0.0017966124
27	0xba2420bc	-0.00062609813
28	0x3a624400	0.00086313486
29	0xbadeb0ea	-0.001698998
30	0xba3e6675	-0.0007263192
31	0x39eb3c41	0.00044867586
32	0x3cbd4aae	0.0231069
33	0x39774b3d	0.00023583784
34	0xba892673	-0.0010463729
35	0xbb00e2e1	-0.001966648
36	0x3c8d6bf3	0.017263388
37	0x37bc3405	2.243557e-05
38	0xbb204027	-0.00244523
39	0xb9be4c4c	-0.0003629647
40	0x3c999da8	0.018751934
41	0x3c9a0ff6	0.018806439
42	0x3c04d51a	0.008107448
43	0xb9fc5e54	-0.00048135465
44	0xba7c3f01	-0.00096224254
45	0x3ba26eeb	0.00495707
46	0x3bdc6862	0.0067263106
47	0xb96b2178	-0.00022423815
48	0x3cb9fd3f	0.022703765
49	0xba97d4f2	-0.0011583848
50	0x3c90d22e	0.017678346
51	0xbb038b06	-0.0020071878
52	0x3b0ac653	0.002117534
53	0x3b694010	0.0035591163
54	0x3c9b916c	0.018990241
55	0x3ab39ef7	0.0013703991
56	0xba4de281	-0.0007853881
57	0x3a2361f6	0.0006232554
58	0x396cb0e9	0.00022572618
59	0x3c42d7e6	0.0118922945
60	0x3c55ef2d	0.013057512
61	0x3a21c799	0.0006171405
62	0xb85af80f	-5.2206273e-05
63	0x3bb95211	0.005655535
64	0x3a8a0fce	0.0010533275
65	0xb97378dd	-0.00023219311
66	0xbaf79c2f	-0.0018891151
67	0x39b595b1	0.0003463454
68	0x3b01040e	0.0019686255
69	0xbad78866	-0.0016443848
70	0xbafe279b	-0.0019390465
71	0x3c5cbcf7	0.013472787
72	0x3a8a0bf5	0.0010532128
73	0x3abd2f96	0.0014433737
74	0xbb3c4899	-0.0028729795
75	0xba5ad6b5	-0.0008348034
76	0x3adc9053	0.001682768
77	0xba1481ff	-0.0005665123
78	0x3a864925	0.0010245187
79	0xbacb3737	-0.0015504126
80	0x3cafd80c	0.021465324
81	0x3ca76514	0.02043394
82	0xba5ff3d7	-0.000854311
83	0x3b90b0d6	0.0044156117
84	0x38c545db	9.4067036e-05
85	0x3a6ca64c	0.0009027466
86	0xbb0c5d46	-0.00214179
87	0xbb4b1a5a	-0.0030991049
88	0xbb012f04	-0.0019711861
89	0xbb28da2a	-0.0025764802
90	0x399f4ebe	0.0003038551
91	0xb842a01b	-4.6402314e-05
92	0x3c8b0761	0.016971292
93	0xba3112ba	-0.00067548046
94	0xba09a6ac	-0.00052509713
95	0x3af37caa	0.0018576581
96	0x3a977bc9	0.0011557277
97	0xba659a13	-0.00087586156
98	0xbb0d99c0	-0.0021606535
99	0xbaacacb8	-0.0013174033
100	0xba34c90a	-0.0006896412
101	0x3a2afae5	0.00065223716
102	0x3afc1fa3	0.0019235503
103	0x3c2d8e6b	0.010593037
104	0x3cad6ad1	0.021169098
105	0x3ab03da9	0.001344611
106	0x3ca42b27	0.020040108
107	0x3a3d7af5	0.00072281
108	0xbae30ddd	-0.0017322857
109	0x3a053622	0.0005081614
110	0x3b00823c	0.0019608876
111	0x3ade640b	0.0016967071
112	0xbb0eef6a	-0.0021810182
113	0xbb3477c4	-0.0027537206
114	0xbac85c7e	-0.0015286354
115	0xb8bc3d70	-8.975982e-05
116	0x39c56dee	0.00037656672
117	0x3b090c22	0.0020911773
118	0x3ce4a3cf	0.027910141
119	0x37dcb93f	2.6312306e-05
120	0xb9068642	-0.00012829251
121	0x3cd474c3	0.025934583
122	0x394ed583	0.0001972523
123	0xbaee2d9a	-0.0018171549
124	0xb99b5dcc	-0.00029633788
125	0xba592c59	-0.00082845014
126	0xba6ee8b6	-0.0009113656
127	0xbb0f2ba2	-0.0021846076
128	0x3a6c78ef	0.0009020706
129	0x392c5890	0.0001643619
130	0x3ccad50b	0.02475979
131	0x3a90b90a	0.0011041474
132	0xbb13b582	-0.0022538607
133	0xbb2c464b	-0.0026287015
134	0x3957b972	0.00020573082
135	0xba837787	-0.0010030129
136	0xba3f4c54	-0.00072974456
137	0xbaf875e0	-0.0018956028
138	0xb97ef726	-0.00024315398
139	0x3b4d3981	0.0031314793
140	0x3bc49f72	0.0060004527
141	0xbb17b715	-0.0023149897
142	0xbafbe90c	-0.0019219234
143	0x3a8b569d	0.0010630671
144	0xbb377def	-0.0027998646
145	0xbad77d30	-0.0016440507
146	0xba409d79	-0.0007347684
147	0x3c6f6394	0.014611144
148	0x3a88ef2a	0.0010447253
149	0x3c2c0e3a	0.010501439
150	0x3a35a5ca	0.00069293065
151	0xbb1da6f0	-0.0024055801
152	0x3c69b2b4	0.014263798
153	0xbacc8c69	-0.001560581
154	0x3b48c61d	0.0030635663
155	0x3c6ca679	0.014443987
156	0xb9a04c4d	-0.00030574427
157	0xb9dcd260	-0.00042118412
158	0xb9ba5807	-0.0003554227
159	0x3a287b69	0.0006427081
160	0xbb06fb23	-0.0020596466
161	0xba72607d	-0.0009245945
162	0x3ce70d3e	0.028204557
163	0x3a0521b0	0.0005078567
164	0x3a281bf3	0.0006412856
165	0x38a387f2	7.7977675e-05
166	0x3ced0025	0.028930733
167	0x3c23a39c	0.009987738
168	0xbaaee282	-0.0013342651
169	0x3cda4731	0.026645275
170	0x3afd4aa4	0.0019324613
171	0x3b1425c5	0.002260552
172	0x3a52e70d	0.00080452935
173	0x3a9a5f2c	0.0011777631
174	0xbb3be257	-0.0028668845
175	0xbaeea7cc	-0.0018207966
176	0xbac183f2	-0.0014764054
177	0x3b248b98	0.0025107618
178	0xba8f5ffc	-0.001093864
179	0x39374f63	0.00017481814
180	0xbaa885b6	-0.0012857232
181	0x3a0a008d	0.00052643643
182	0x3b07b476	0.0020706928
183	0x3af35581	0.0018564911
184	0xbaa72b55	-0.0012754003
185	0x394fccdf	0.00019817379
186	0x3aac2d54	0.0013136067
187	0xbafce212	-0.0019293448
188	0xb93d9868	-0.0001808122
189	0x39846783	0.00025254124
190	0xbb36e3f3	-0.0027906864
191	0xbabb4c6e	-0.0014289746
192	0xbad5a34c	-0.0016299277
193	0x3a9c86b7	0.0011942004
194	0x3b640b56	0.0034796796
195	0x3cb1fa98	0.021725938
196	0x3ae77b45	0.0017660639
197	0xbaf6dae7	-0.0018833549
198	0xbad202a9	-0.0016022521
199	0xbaa4707b	-0.0012545729
200	0x3aed8e19	0.0018124013
201	0x3cda9d82	0.026686434
202	0xba8ab1a0	-0.0010581501
203	0xba535a90	-0.0008062506
204	0x3a15dc1e	0.0005716699
205	0xb8f317b5	-0.00011591559
206	0xbaa101bf	-0.0012283846
207	0x3ad47e00	0.0016211867
208	0x3b113b1e	0.002216048
209	0xbb2fc9ac	-0.0026823087
210	0x3c8b1d6a	0.0169818
211	0xbadd7876	-0.0016896862
212	0x3a7cd9eb	0.00096455094
213	0x3b2aae6f	0.0026043912
214	0x3b07ea02	0.0020738845
215	0xb9ea9763	-0.0004474475
216	0x3b028d52	0.001992066
217	0xb9c5f8a3	-0.00037760017
218	0xbaae4adc	-0.0013297456
219	0x3aca904e	0.0015454383
220	0xbabd842d	-0.0014458947
221	0xbb01d613	-0.0019811436
222	0x3aea4cd6	0.0017875682
223	0x3c01a04b	0.007911752
224	0x3b032f90	0.0020017363
225	0x3abf4165	0.0014591633
226	0xbb0daf22	-0.002161928
227	0xb9796e16	-0.000237875
228	0xb7b5c620	-2.166914e-05
229	0x3b1286f5	0.0022358273
230	0x3a717f50	0.00092123915
231	0xbab9a073	-0.0014162197
232	0xba89f463	-0.0010525103
233	0x3b06d741	0.0020575079
234	0x3a440203	0.00074771064
235	0xba23d9cc	-0.0006250411
236	0xbb547643	-0.0032419122
237	0xb9e2bb52	-0.00043245644
238	0xba9ec630	-0.0012113508
239	0xb9cfcd05	-0.00039634868
240	0x3a06233c	0.00051169447
241	0xb9e21dbb	-0.0004312823
242	0x3b136873	0.0022492677
243	0x3b1e0496	0.002411162
244	0x38b86831	8.793211e-05
245	0xbb200c12	-0.0024421257
246	0x39f23455	0.00046196827
247	0xb9037780	-0.00012537651
248	0xb9e9477e	-0.0004449449
249	0x3ab173fb	0.0013538593
250	0x3a9101e6	0.0011063188
251	0x3af68a80	0.0018809587
252	0xbb0c84f2	-0.0021441546
253	0x3a61a7a2	0.0008608048
254	0x3b2d5324	0.002644726
255	0xbb11eab5	-0.002226514

qf1.last_fc.bias f4 [2]
0	0x3cf00c55	0.029302755
1	0x3deff86b	0.11717304

qf1_target.fc0.weight f4 [256, 5]
0	0xbc74ece0	-0.0149490535
1	0x3c018fef	0.007907852
2	0x3d9af169	0.075655766
3	0x3b06f175	0.0020590697
4	0x3c364180	0.011124015
5	0x3bca646a	0.006176521
6	0xbceb9bed	-0.028760875
7	0xbddb6c38	-0.107140005
8	0xbcc34923	-0.023838585
9	0x3c580799	0.013185405
10	0xbcb432fa	-0.021996964
11	0xbd062dca	-0.03275851
12	0x3d0d939a	0.034564592
13	0x3c4b2fe5	0.012401556
14	0xbce5f359	-0.028070139
15	0x3b43a173	0.002985087
16	0x3a9be8ad	0.0011894904
17	0x3cec7b8e	0.02886751
18	0x3c81eaae	0.015858974
19	0x3b738b67	0.0037161948
20	0xba9797fd	-0.0011565682
21	0xbbca0453	-0.0061650663
22	0x3ca703ae	0.020387497
23	0x3b7ae95a	0.003828606
24	0xba69a919	-0.0008913442
25	0x3ada7607	0.0016667255
26	0xbb85ebd2	-0.00408695
27	0x3ca70738	0.020389184
28	0x3bb10bad	0.005403003
29	0xb91def18	-0.00015061756
30	0x3c1dcb90	0.009631053
31	0xbba68fb0	-0.005083047
32	0x3d052762	0.03250826
33	0xbbc90801	-0.0061349873
34	0x3c1b774a	0.00948889
35	0xbcc63ac7	-0.02419795
36	0xbbe492de	-0.0069755157
37	0xbcbb2a54	-0.022847332
38	0x3c2c4166	0.010513639
39	0x3d272751	0.04080898
40	0x3b136f68	0.0022496823
41	0xba5286cc	-0.00080309506
42	0x3c2f8e10	0.010715023
43	0x3ba7a4d7	0.005116086
44	0xbb6d81ea	-0.0036240765
45	0xb8d0f5df	-9.96401e-05
46	0x3b994543	0.004677446
47	0xbde5b8af	-0.11216866
48	0x3b88d65a	0.0041759433
49	0x3c5befbe	0.013423858
50	0xbb2778d5	-0.00255542
51	0xbb74a874	-0.0037331851
52	0x3cbc75e3	0.023005432
53	0x3b8b5377	0.004251893
54	0x3a86fbf8	0.0010298481
55	0x3bff194b	0.0077849976
56	0x3b6a2e4b	0.003573316
57	0xbd23867e	-0.039923184
58	0xbc63ce36	-0.013904145
59	0xbc291164	-0.010319088
60	0x3d0537ec	0.032524034
61	0xbb1f0c28	-0.002426872
62	0x3d3a52bb	0.045489054
63	0xbc970677	-0.0184357
64	0xba32af70	-0.00068163034
65	0xbb21acc2	-0.0024669622
66	0xbc54e204	-0.012993339
67	0x3d457dca	0.048215665
68	0x3a4c4c14	0.0007793319
69	0xb955342e	-0.00020332701
70	0x3d4bdd18	0.0497714
71	0x3d5d3c6e	0.05401271
72	0xbd253233	-0.040331077
73	0xba4e0184	-0.0007858502
74	0x3d7075cb	0.058706086
75	0xbc44c8c8	-0.012010761
76	0x3ad24aea	0.0016044055
77	0xbdd7042a	-0.10498841
78	0x3ca060ba	0.019577373
79	0x3ba23267	0.004949856
80	0x3cbc9e03	0.023024565
81	0x3d109009	0.035293613
82	0x3aa6881e	0.0012705361
83	0xbd5d4873	-0.05402417
84	0x3c4ff345	0.012692277
85	0x3a0b18b6	0.00053061114
86	0xbb2e05c3	-0.0026553727
87	0x3caa39ec	0.020779572
88	0x3bece193	0.007229039
89	0xbb8d7440	-0.0043168366
90	0xba07b0f4	-0.00051762094
91	0xbb184562	-0.0023234715
92	0x3d77dfd4	0.060516194
93	0x3c1edfe0	0.009696931
94	0xbbf55ffa	-0.007488248
95	0xbca3b68c	-0.019984506
96	0xbaaf8e94	-0.0013393932
97	0x3d52cd26	0.051465176
98	0xbd0e8a6e	-0.034799986
99	0x3bd88bfa	0.0066084834
100	0x3c072652	0.008248882
101	0x3c97289c	0.018451981
102	0xbdebe320	-0.1151793
103	0x3d04960f	0.03236967
104	0xbc86ccaa	-0.016455013
105	0x3d042e07	0.032270458
106	0x3d30ddb9	0.0431802
107	0xbd42b7ba	-0.047538497
108	0xbc9537a7	-0.018215014
109	0xbb885e59	-0.0041616377
110	0xbbe4d323	-0.0069831773
111	0x3b9bb9c5	0.00475237
112	0x3ce5e4ee	0.028063264
113	0x3bd2c6a1	0.00643237
114	0x3b35f841	0.002776638
115	0x3b092a38	0.0020929705
116	0xbbaefb38	-0.005340006
117	0x3d0ef04a	0.034897126
118	0xba1ad10d	-0.0005905785
119	0xbb5ac28f	-0.0033380126
120	0x3c785dd6	0.015159091
121	0xbca3bbd3	-0.019987023
122	0xbdce9af6	-0.1008815
123	0x3b13dfed	0.002256389
124	0xbcc877e6	-0.024471235
125	0x3c21eef7	0.009883634
126	0x3d3a230e	0.045443587
127	0xbd786988	-0.060647517
128	0x3b72805b	0.0037002775
129	0x3c1147f5	0.008867254
130	0xbcc7aa5c	-0.024373226
131	0xbbcd3c82	-0.0062633166
132	0xbd44f00f	-0.0480805
133	0x3d086aa6	0.033304833
134	0xbd17dfa7	-0.037078526
135	0x3b351b56	0.0027634702
136	0xbcef9e4f	-0.029250292
137	0xbdac00b0	-0.08398569
138	0xbbcf89b8	-0.006333556
139	0xbc441142	-0.011967005
140	0x3cbe9eed	0.023269141
141	0x3d0051a0	0.031327844
142	0xbcc49675	-0.023997525
143	0xbc0f1733	-0.0087335585
144	0xbc9d4d3b	-0.019201865
145	0xbc0c162f	-0.008550211
146	0xbc3f0085	-0.011657839
147	0x3d31fdc2	0.043454893
148	0x3bbf81db	0.0058443374
149	0xbb0abf84	-0.002117128
150	0xbc4e3b25	-0.012587343
151	0x3a0fdd6d	0.0005488012
152	0x3dc7c80e	0.09754954
153	0xbc1d3c90	-0.009596959
154	0x3aac01f6	0.0013123143
155	0x3c2918ef	0.010320886
156	0xbb39a378	-0.0028326195
157	0xbdf35e2c	-0.11883196
158	0xbc2296e0	-0.009923667
159	0xbb31020c	-0.0027009277
160	0xba514e98	-0.00079844287
161	0xbcb15f5e	-0.02165192
162	0xbdcced08	-0.100061476
163	0x3ce3ae88	0.027793184
164	0xbcd6a315	-0.02620081
165	0x3b63ad8e	0.0034740898
166	0x3d0fb8c4	0.035088316
167	0xbd23a839	-0.03995535
168	0xbcdc3c01	-0.02688408
169	0x3c2bff5e	0.010497896
170	0x3d69980b	0.057029765
171	0x3baa305d	0.0051937536
172	0xbcf86e88	-0.030326143
173	0x3ce2fb28	0.027707651
174	0x3cd97419	0.026544617
175	0xbb56e26b	-0.0032788764
176	0x3c2fbaec	0.010725718
177	0x3d4be3cc	0.04977779
178	0x3b9415fa	0.0045192214
179	0x3b166183	0.0022946305
180	0xbb978b78	-0.0046247803
181	0x3c28bb75	0.0102985995
182	0x3cfa4e6c	0.030554973
183	0x3c16c971	0.009203301
184	0x39030e51	0.00012498467
185	0x3c3b6e15	0.01143982
186	0x3d1d8576	0.038457356
187	0xbda75d1d	-0.08172057
188	0x3c0f87a9	0.008760371
189	0x3c5924e8	0.013253428
190	0xbc20e3bd	-0.009819922
191	0xbcb4edc7	-0.022086037
192	0xbd494264	-0.04913558
193	0xbd25823a	-0.040407397
194	0xbcea1ba9	-0.028577643
195	0x3cd54f62	0.02603883
196	0xbc6c07c4	-0.014406148
197	0xbdcdd93e	-0.10051201
198	0x3c994d21	0.018713536
199	0xbbb9ca57	-0.0056698727
200	0xbbbd6363	-0.00577967
201	0x3c09cd62	0.0084107835
202	0x3d743587	0.05962136
203	0x3b9c0a7e	0.004761993
204	0x3bc01ad8	0.005862575
205	0xbd6fe0c2	-0.058563955
206	0xbd5a4a36	-0.05329343
207	0xbc7db397	-0.015484712
208	0xbd0c3b0c	-0.034236
209	0x3c944e2b	0.01810368
210	0xbc106818	-0.00881388
211	0x3c17b7a1	0.009260089
212	0x3d1d488e	0.03839927
213	0x3c26a72a	0.010171691
214	0xbae19ace	-0.0017212273
215	0x3ab4195d	0.0013740469
216	0x3b0ab76b	0.0021166455
217	0x3c8ee53f	0.017443297
218	0x3c06f29c	0.0082365535
219	0x3a1e2129	0.0006032163
220	0xbd06c882	-0.032906063
221	0x3cabc5b5	0.020968297
222	0x3b8e7ad2	0.0043481374
223	0x3d169b80	0.03676939
224	0x3cdc37b5	0.026882032
225	0xbba2efba	-0.0049724253
226	0x3bb3ef03	0.005491139
227	0x3cbb09d9	0.022831844
228	0x3bf4968e	0.0074642366
229	0x3b11a891	0.0022225718
230	0xbcf8d4fa	-0.030374993
231	0x3adf8770	0.0017053913
232	0xbdbc7e37	-0.09203761
233	0x3cfa39c3	0.030545121
234	0x3d138a20	0.0360204
235	0x3a54dbf8	0.0008119936
236	0xbb1f668b	-0.0024322595
237	0x3ccab673	0.024745202
238	0xbc11d25b	-0.00890025
239	0x3b674c4e	0.0035293284
240	0x3a9bd292	0.0011888316
241	0x3c54a510	0.012978807
242	0x3d327a36	0.04357358
243	0x3c8e2d94	0.017355718
244	0x3ab4303e	0.0013747287
245	0xbb929893	-0.0044737547
246	0x3bb51213	0.0055258363
247	0x3d42f41a	0.047596075
248	0x3b26ed09	0.0025470874
249	0x3b5ec955	0.0033994515
250	0x3a3b558d	0.0007146232
251	0x3baba8b3	0.0052386164
252	0x3cd1eb2a	0.02562483
253	0x3bb3081a	0.0054636123
254	0xbb563bd8	-0.0032689478
255	0x3ba6ad5b	0.0050865836

qf1_target.fc0.bias f4 [256]
0	0x3d6b0c5c	0.057384834
1	0x3dceeddf	0.10103964
2	0x3d3ad7c0	0.04561591
3	0xbcb3a106	-0.021927368
4	0xbce26d0f	-0.027639894
5	0xbd086ecb	-0.033308785
6	0xbd0bb654	-0.03410943
7	0x3d74cee2	0.05976761
8	0xbca16725	-0.019702503
9	0x3dc8bfe6	0.09802227
10	0xbcd13bd8	-0.025541231
11	0x3d5f6479	0.054539178
12	0x3d39aa4e	0.04532843
13	0x3b9c2534	0.004765177
14	0x3da2ed41	0.07955409
15	0x3dc45d4e	0.09588109
16	0x3d83cb2f	0.064352386
17	0xbd028c33	-0.031871986
18	0x3cd247a1	0.025668921
19	0x3d5f3b0e	0.05449968
20	0x3dd077d0	0.101791024
21	0x3dad2cb7	0.08455794
22	0xbc443b72	-0.0119770635
23	0x3a49cd23	0.0007698109
24	0x3dbbad65	0.09163932
25	0x3daa5e0c	0.08318719
26	0x3dae49cb	0.08510169
27	0x3dadbc2f	0.08483159
28	0x3d7692d7	0.06019863
29	0x3b673f2c	0.0035285456
30	0x3c839875	0.016063908
31	0x3dd16684	0.102246314
32	0x3dbdcbc7	0.09267383
33	0x3d950dc5	0.07278017
34	0x3db47332	0.08811034
35	0xbc26af59	-0.010173642
36	0xbc92bb22	-0.017911498
37	0x3db17295	0.08664433
38	0x3da162b6	0.07880156
39	0x3dc49a09	0.095996924
40	0xbc156043	-0.009117189
41	0x3da56c21	0.080772646
42	0xbca4826e	-0.020081725
43	0xbc3ec26d	-0.011643034
44	0x3d78ccd8	0.06074223
45	0xbc48ca29	-0.01225523
46	0x3dc64167	0.09680443
47	0xbca4394c	-0.020046853
48	0xbcec7221	-0.028863015
49	0xbc009df0	-0.007850155
50	0xbcbeebe6	-0.023305845
51	0x3c055034	0.008136798
52	0x3d26ca69	0.040720377
53	0xbc610c7f	-0.013735889
54	0xbcad82fd	-0.021180624
55	0x3dbe52c8	0.09293133
56	0x3d3699b5	0.04458018
57	0xbc19bdd8	-0.009383641
58	0x3b971808	0.004611019
59	0x3d3f1b7e	0.046657078
60	0x3da0a782	0.078444496
61	0x3dcb7243	0.09933903
62	0x3dc90832	0.09816016
63	0x3ca458a4	0.020061798
64	0xbcaf33e1	-0.021387042
65	0x3dcf967b	0.10136124
66	0xbc93e6e2	-0.01805443
67	0x3c890e78	0.016730532
68	0x3d3fd8ce	0.04683762
69	0xbc13763d	-0.009000358
70	0x3dce400e	0.10070811
71	0x3d830163	0.06396749
72	0x3ddfdae9	0.10930426
73	0xbc3cde0f	-0.011527552
74	0x3dba67b4	0.09101811
75	0xbc7a5511	-0.0152790705
76	0xbcb7ed26	-0.022451948
77	0x3dc1003b	0.09423872
78	0x3ddae769	0.10688669
79	0xbc0e992b	-0.00870351
80	0x3da1d1a3	0.07901313
81	0xbc743f9e	-0.014907746
82	0xbcd89fde	-0.026443418
83	0x3daf8e8d	0.08572111
84	0xbcc0614a	-0.023483891
85	0x3dce15f1	0.10062779
86	0xbc2228e9	-0.009897449
87	0xbcf5ea2a	-0.030018885
88	0x3da181d9	0.078860946
89	0x3dbc19a6	0.091845796
90	0x3d29b26d	0.041429926
91	0xbc8d5805	-0.017253885
92	0x3dcf5779	0.10124106
93	0xbcd76591	-0.026293548
94	0x3dc513e3	0.09622934
95	0x3dcce051	0.100037225
96	0x3daeca82	0.08534719
97	0xbcc6e4fe	-0.024279114
98	0x3db1131f	0.08646225
99	0x3dc0d9b5	0.09416524
100	0xbc9ad490	-0.018900186
101	0xbc644751	-0.013933019
102	0x3d80f464	0.06296614
103	0x3d9cf20f	0.076633565
104	0x3d6b7735	0.05748673
105	0xbc8ad08f	-0.016945152
106	0x3dba5fb0	0.09100282
107	0x3cd9bd7b	0.02657961
108	0x3d7cf964	0.061761275
109	0xbcde5ead	-0.027144754
110	0x3cf6560c	0.030070327
111	0xbc548874	-0.012971986
112	0x3dc665b3	0.09687366
113	0xbc826c1f	-0.015920697
114	0x3d423d1a	0.047421552
115	0x3d77fc8d	0.060543586
116	0xbc41b937	-0.011823944
117	0xbca32f83	-0.019920116
118	0x3d76708f	0.060165938
119	0xbc64c0cd	-0.013961983
120	0x3b05dd70	0.0020426176
121	0x3dc6bc0a	0.09703834
122	0xbbce32cf	-0.006292678
123	0xbc71aa27	-0.01475004
124	0x3d7af27a	0.0612664
125	0x3dbfdd35	0.09368364
126	0x3dd5a41c	0.10431692
127	0x3dcf8459	0.10132665
128	0x3dcb2477	0.099190645
129	0x3bb68179	0.0055696336
130	0x3da3eeb8	0.08004516
131	0x3d9fce6c	0.07803044
132	0xbc8bf5ae	-0.017084923
133	0x3dbd219d	0.09234927
134	0xbc4c3f9f	-0.01246634
135	0xbb92b6ea	-0.0044773715
136	0x3dcbfef1	0.099607356
137	0xbd1b68f5	-0.03794189
138	0x3d9c3553	0.07627358
139	0x3b5eecaf	0.0034015586
140	0x3dc55199	0.09634704
141	0x3dad05ed	0.08448396
142	0x3d93ed5a	0.072230056
143	0x3d6d2b4d	0.057902623
144	0xbbc95d36	-0.006145145
145	0xbc052b94	-0.008128066
146	0x3dd02dbd	0.10164974
147	0xbc870cde	-0.016485628
148	0xbbb89186	-0.005632582
149	0x3daec323	0.08533313
150	0xbccc6ab7	-0.02495323
151	0xbb83c78d	-0.004021591
152	0xbcf49432	-0.029855821
153	0x3dd0d6aa	0.10197194
154	0x3dc5bada	0.0965478
155	0x3da0c9a9	0.078509636
156	0xbcf16f29	-0.02947195
157	0xbc24d5a2	-0.0100607
158	0x3da73c9b	0.081658565
159	0xbc5651a6	-0.01308099
160	0xbc709cb6	-0.0146858
161	0x3da5c9b0	0.080951095
162	0x3d9b452b	0.07581552
163	0x3d746441	0.059665922
164	0x3d994978	0.07484716
165	0x3d9b8a03	0.07594683
166	0xbc96433e	-0.01834261
167	0xbd08e0da	-0.03341756
168	0xbc458dae	-0.012057705
169	0xbccffa0b	-0.025387784
170	0x3d917463	0.07102277
171	0x3d942597	0.07233732
172	0x3d98838e	0.07446967
173	0xbd0303af	-0.031985935
174	0x3d86ade3	0.06576135
175	0xbcb99c7b	-0.022657624
176	0x3dd14325	0.10217885
177	0xbcad37fd	-0.021144861
178	0x3d578501	0.052617077
179	0xbceb6d5e	-0.028738674
180	0x3db4fea8	0.08837634
181	0x3da7f5d7	0.08201187
182	0xba06a14f	-0.0005135731
183	0xbd06b3d3	-0.032886337
184	0x3dc8c049	0.098023005
185	0xbceed79d	-0.029155547
186	0x3dc0b89e	0.09410213
187	0x3dc92860	0.09822154
188	0x3da25975	0.07927219
189	0xbca765a8	-0.020434216
190	0x3db8dfb4	0.09027043
191	0x3dbb9917	0.09160059
192	0x3dc9140f	0.09818279
193	0xbcaf2429	-0.021379547
194	0x3dbf1241	0.093296535
195	0xbc821314	-0.015878238
196	0xbccee385	-0.025254974
197	0xbc742e6a	-0.014903644
198	0x3dc8425a	0.097782806
199	0x3da6919f	0.08133244
200	0xbc81b65e	-0.01583403
201	0x3db02291	0.08600343
202	0xbbb75b5f	-0.005595609
203	0xbc5c95ed	-0.0134634795
204	0xbc5a2659	-0.013314807
205	0x3dc92f53	0.098234795
206	0x3daac5f9	0.083385415
207	0xbc8aaaab	-0.016927084
208	0x3dc90662	0.098156705
209	0x3d6ab850	0.05730468
210	0xbc233195	-0.009960552
211	0x3cc7b5d1	0.024378689
212	0x3da4fe5e	0.08056329
213	0xbc6e59a7	-0.014547742
214	0xbc79dd7e	-0.015250562
215	0x3c8f3087	0.017479194
216	0xbc8105d2	-0.015749846
217	0x3daca34e	0.084295854
218	0x3d909241	0.07059146
219	0xbc5b0ae3	-0.013369295
220	0xbc9b985e	-0.018993553
221	0x3db935d0	0.09043467
222	0xbc97bf1c	-0.018523745
223	0x3dc25603	0.09489062
224	0xbcb0723e	-0.02153885
225	0x3d6ee2e2	0.05832184
226	0x3d8e0153	0.06933846
227	0x3dc3c3bc	0.09558818
228	0xbc72e1ea	-0.01482437
229	0x3dc7cb01	0.09755517
230	0xbc2ed4a5	-0.010670816
231	0x3d9c8a61	0.07643581
232	0x3dcc2db3	0.09969654
233	0x3da50707	0.08057981
234	0xbbeca312	-0.007221588
235	0x3dcf0744	0.10108808
236	0x3d4e87f2	0.050422616
237	0x3b4a461e	0.0030864547
238	0x3d960a7a	0.07326217
239	0xbc65a067	-0.014015294
240	0x3dbe9aab	0.09306844
241	0x3d952f42	0.07284404
242	0xbc98ad00	-0.01863718
243	0x3dbfe9f5	0.09370796
244	0x3d58454a	0.052800454
245	0x3db82da5	0.08993081
246	0xbce147bd	-0.027500028
247	0xbcf1a406	-0.029497158
248	0x3b2b0094	0.0026092874
249	0xbc4d8ee7	-0.012546278
250	0xbc5eb7e0	-0.013593644
251	0xbcec66ba	-0.028857578
252	0x3da151a0	0.07876897
253	0x3dc3a39f	0.095526926
254	0xbc87dd5c	-0.016585045
255	0x3dd0f9d4	0.10203901
