logs_results/network-defender/final/lstm/seed-5/save/agent_0015010_perf30.810.pt (torch, 941646 bytes, 28 tensors)

critic.observ_embedder.fc.weight f4 [32, 15]
00000000: e4cd a03e f95b 34be 622e b53e 55f9 4e3e
00000010: 5802 a53e b7c1 a6be ae1e 73be 17a7 6c3e
00000020: 75cf fbbe b40d 4c3e 2c41 833e d71a b83d
00000030: fbfe 7dbe 5b18 473e 3b08 ff3c c698 e13d
00000040: ecf7 8f3e 0ba1 663d 1190 5fbe 489f 563e
00000050: 6576 ea3d 698d 01be d54a d7be c9fc 3d3e
00000060: ba57 a53e b1b6 92be 2d75 23be b4d7 533d
00000070: 0cd3 f0bd 3637 72be 5ad0 01be c980 bbbd
00000080: 384e 3fbd f923 843d 0330 4f3e bcb8 c93e
00000090: 548e 773e beb5 5ebe b3e0 54bd 32b6 153f
000000a0: d33b 40bd 56ca b9bd 3754 26be 596a 6dbc
000000b0: 1b36 cc3d 04ea 9c3e 5574 a23e 2d91 8c3e
000000c0: a015 a23e 87b8 eebd 43ca 5f3e 5acf 1abe
000000d0: ea2f 6c3d 708d 7cbe 667f 383e 4b82 ac3d
000000e0: 1824 233d 45f2 d2bd 55f2 a0be b9ee ca3e
000000f0: 7046 bcbe 014b 25be 4dc1 bc3b c7b6 f3bd
00000100: 1051 46be 82ff 983e 29e1 9bbd 62b2 bf3e
00000110: 9a53 213e bc6b cbbe 6dbd e13e 781a e7bd
00000120: f2e6 bdbd 8755 5f3e bd00 cf3e a59a a23e
00000130: 8f9f 8abc 5685 9e3e 1591 23be 0118 21bc
00000140: f928 24be 43dc f93d 17d0 7b3c 6372 8a3e
00000150: ec51 933e 17b2 c5bc 272b a0be 7e34 03be
00000160: c138 30be a073 0a3b 0e71 24be 4029 41bd
00000170: cb06 01be 08ef e83b aab8 43be 5230 84bd
00000180: fa1b c3bd 7f16 12bd 1bbe 4f3e cd5e 2d3e
00000190: cca4 aabd 6a67 72be 701e 3dbe 10d7 4abe
000001a0: eeb0 c8bc b832 833d f8d3 60bc dd1c c8ba
000001b0: 4f49 23bd 429c 69bd 8ac4 f6bd 5ff9 123e
000001c0: 1e07 2dbe 7284 0f3e 9a42 d13d 3693 053f
000001d0: 41b5 67be 6612 693d 0f81 de3e 36e3 423e
000001e0: c9e4 9f3d 42a7 e9bd 5e7f 373e 424b c6bd
000001f0: 6760 0ebe d4d2 6f3e 2e14 8c3d 28a0 e9ba
00000200: d542 38be ac17 6abd ea1b 4bbe b3e4 31be
00000210: 0d75 17bd 9874 4c3d 9ba3 58be 6d5c c73e
00000220: 57c4 c73e dc5a 9cbe 7159 c63e 8d00 6cbe
00000230: 1399 a9be f96a e33e bb44 be3c 8d5f de3d
00000240: 47eb d7bc 2599 8d3e cc26 b2bb bca8 0cbe
00000250: c643 82bd 212c d1bd 7769 94be 5242 b53e
00000260: ef91 833c 2186 6b3e c2bc 8ebd a258 6bbe
00000270: 1f00 4ebe c1bf 83be a5ae 223c dbde 263e
00000280: f6fc 75bd 8b76 883e d0a8 fb3d 2d9f 613e
00000290: 4ee9 373e 5a44 22be a065 42bd 323a 35be
000002a0: e18f 043d 7c45 ce3d e985 97bd 5ff1 583f
000002b0: 8002 ebbd 1720 e9bc e6e6 2ebe e23c 63be
000002c0: a3ea 13be c172 72bd 697b dbbd f8ff 89bd
000002d0: 3f7d c5bd c241 f7be d69c 03be 741a 93be
000002e0: 71f6 27be 828d ca3d 1352 3c3e d53f 7d3e
000002f0: 6844 773e 56d1 91bb fce7 93bc 6fc2 09bd
00000300: 7312 c63e f932 4abd 2fa9 66be f504 0e3e
00000310: c3e8 02bb a6a6 493e 08b2 95bd fcf8 9bbe
00000320: 4327 6ebe abec d9bd 8fa9 96be 9461 8a3d
00000330: bfb5 0d3e fa49 023e 0192 8b3e 8d84 c43e
00000340: 8158 903e 1576 b3be af02 c63e a6be 913d
00000350: 281b 55be e8c4 51bd 33a4 bebd 439f f13e
00000360: 9587 983d 3d60 f8bd 7778 6dbe bb73 58bc
00000370: 786e 463d 841b 693e 58e2 2abe 56ae 983e
00000380: 5caa 23be 2d3c 713e b0c9 e0be 7c41 fb3d
00000390: 726d 363e aa34 9a3e 9925 f0bd 9c18 b33d
000003a0: acc8 ea3c 86c3 2b3e bdee cebe 2eda b6bd
000003b0: 28f0 74be 6b49 f73e 8e39 2abe fd18 593e
000003c0: 7378 773d 0cb4 5c3e 2f4e c6bd e7ce 133e
000003d0: 389f b1bd 9b4f f93d 4221 5dbe 213f 12bc
000003e0: 0c5a ec3e 2217 06be f031 8cbe 7eb3 e2be
000003f0: 2acf 353c 108b 843e 314d 6f3e 5217 56be
0.31407082 -0.1761321 0.3538695 0.202123 0.3222835 -0.32569668 -0.23742172 0.23110615
-0.49181715 0.19927102 0.2563566 0.08989494 -0.24804299 0.19442885 0.031131854 0.11015467
0.28118837 0.056305926 -0.218323 0.20959198 0.11448363 -0.126516 -0.4204928 0.18553461
0.32293493 -0.28655007 -0.15962668 0.051719382 -0.11759004 -0.23653874 -0.12677136 -0.09155423
-0.046705455 0.06452174 0.20233159 0.39398754 0.24175388 -0.21749017 -0.051972102 0.58481133
-0.046932053 -0.09071796 -0.16243063 -0.014490687 0.09971257 0.3064729 0.3172938 0.2745451
0.31657124 -0.116562895 0.218545 -0.15118161 0.057662882 -0.24663329 0.18017349 0.08423289
0.039829344 -0.103001155 -0.31434885 0.39635256 -0.3677249 -0.16141893 0.005760348 -0.119000964
-0.1936686 0.29882437 -0.07611305 0.37440783 0.15754548 -0.39730632 0.44089833 -0.112843454
-0.09272565 0.2180997 0.4043025 0.3175861 -0.016921787 0.30961102 -0.15973313 -0.009832383
-0.16031255 0.12200215 0.015369437 0.27040395 0.2877344 -0.024132771 -0.31282923 -0.12812993
-0.1720915 0.0021126047 -0.16058752 -0.04715848 -0.12600248 0.007108573 -0.19113412 -0.06454529
-0.095268205 -0.035665985 0.20287363 0.16930695 -0.08332214 -0.23672262 -0.18468642 -0.19808602
-0.02449843 0.06406158 -0.013722412 -0.0015267391 -0.039864834 -0.057033785 -0.120492056 0.1435294
-0.16897246 0.14015368 0.10217781 0.5217775 -0.22627737 0.05690231 0.4345784 0.19031987
0.07807309 -0.11408855 0.1791968 -0.09682323 -0.13903962 0.23420268 0.068397865 -0.001782422
-0.17994244 -0.05715148 -0.19834867 -0.17372398 -0.036976863 0.04991588 -0.2115616 0.38937703
0.39016983 -0.3053807 0.38740113 -0.23047085 -0.331246 0.4441755 0.023226133 0.108580686
-0.026357306 0.27655903 -0.005436754 -0.13736242 -0.06360583 -0.10213495 -0.28986713 0.3540216
0.016060797 0.23000385 -0.069695964 -0.2298303 -0.20117234 -0.25732234 0.009929334 0.1629595
-0.060055695 0.2665294 0.12288058 0.22033377 0.17960092 -0.15846387 -0.0474602 -0.17697981
0.032363776 0.10071847 -0.07398588 0.84743303 -0.11475086 -0.028457684 -0.17080268 -0.22191194
-0.14444976 -0.05919147 -0.10716898 -0.06738275 -0.096430294 -0.48292357 -0.12852797 -0.2873112
-0.16402604 0.09890272 0.18390684 0.24731381 0.24147189 -0.0044500036 -0.018054955 -0.033632692
0.3868595 -0.049365018 -0.22525476 0.13869078 -0.0019975163 0.19692478 -0.073093474 -0.30463398
-0.23257165 -0.10640844 -0.29426238 0.06756893 0.13838862 0.12723532 0.2725983 0.38382378
0.28192523 -0.35051027 0.38673922 0.071164414 -0.2081114 -0.051213175 -0.09308662 0.4719182
0.07447735 -0.12127731 -0.23190485 -0.013211186 0.048445195 0.22764403 -0.16687906 0.29820508
-0.15982956 0.23558111 -0.43903875 0.122683495 0.17815188 0.30118304 -0.11725921 0.08744928
0.028660141 0.16773805 -0.40416518 -0.08928333 -0.23919737 0.482982 -0.16623518 0.21200939
0.060417604 0.21553057 -0.09682881 0.14434396 -0.08672947 0.12173387 -0.21594718 -0.008926184
0.4616245 -0.13094762 -0.2738185 -0.44277567 0.011096755 0.25887346 0.2336929 -0.20907333

critic.observ_embedder.fc.bias f4 [32]
00000000: 2761 133e fce6 9b3c 8288 29be fd46 82be
00000010: f75a 773e e701 53be dd4e b5bb 556c 63be
00000020: dd5d 83be ff0d 903d 5de3 dabc a342 0f3e
00000030: 56cd b4bc 9284 8f3e 8b4a babd a35c 5e3e
00000040: 3ff3 943e 7354 1ebe f144 c53c d178 b33e
00000050: 21b8 52be bc10 2c3e f143 b73e 969f d1be
00000060: db93 783e 54bf 933e 52d6 d7bd ad7c d1be
00000070: cbf8 53bd d184 30be d764 883e b314 3a3f
0.1439253 0.01903104 -0.1655598 -0.25444785 0.24155794 -0.20606194 -0.005533083 -0.22209294
-0.2565755 0.070339195 -0.026719743 0.13990264 -0.022070568 0.2803083 -0.09096249 0.21715026
0.29091832 -0.15461902 0.024080725 0.35053113 -0.20578052 0.16803259 0.35794023 -0.40942067
0.24275152 0.2885691 -0.10538925 -0.40915433 -0.05175094 -0.17238165 0.26639435 0.72687835

critic.action_embedder.fc.weight f4 [16, 16]
00000000: be0a 0c3e 3847 643d cad8 3c3e 9650 32be
00000010: 8064 f0bb b863 b5bd 908c a63d b88e 1dbe
00000020: 7a1f 3fbe 9080 813c 18fe f7bd bcd2 f43d
00000030: 00b5 1d3e e094 fabd 5888 90bd f00a b0bc
00000040: 15d6 133e 30bb 803d 32ec 8bbe 4fe2 f73e
00000050: e11d 923e 8983 6abe 5ee2 da3d 0474 1c3e
00000060: 3bbb 8cbe e089 8bbe 4189 5bbe 5531 393f
00000070: 3505 6abd dc62 71bd 0c70 1d3e 7095 103e
00000080: 8f70 0c3f faa0 54be 44ed 6fbe cb5a babd
00000090: a624 0fbe 748b 3dbe 4a1d 6b3e 26d0 0fbe
000000a0: 6f66 393f 2544 0dbe a3f7 d0bd 7cb5 f53d
000000b0: 4d30 0bbe 3264 20be 8acd 2d3b 75d9 ddbd
000000c0: e82e 37be 7eed 8dbe b7ad 8dbe efd2 8dbe
000000d0: ec43 853e ee72 85be 940f 9dba c856 8f3e
000000e0: df63 5d3e 9f67 043f d405 e03d 8f5d fb3d
000000f0: f8c6 4a3f 85a3 8dbe 8e8b 8ebe a032 763d
00000100: 6c29 223d c169 55be 26ca 67be 4acb 1c3f
00000110: 1696 10be 5aa4 433f 4fb0 56be 68f0 54be
00000120: a796 4abe f5b6 53bd 4c1c 58be 6467 60be
00000130: d03d 0b3d 86c9 54be 69d3 96bd f441 a83e
00000140: d4a4 8abe 6f06 72bd 27f5 c03e 2e19 17be
00000150: 390f d83d 59a4 89be fe97 893c 6759 89be
00000160: 963f a23e f306 8abe ecb5 8abe c3a8 b13c
00000170: 6eb5 c53e 6232 fb3e a347 133e 719a 2f3e
00000180: 9085 e4bd 0217 37be bcf1 ccbd e053 3dbe
00000190: 6876 f1bd 18a8 19be 16c1 51be e0c6 6abc
000001a0: 1c0f 36be 280f 98bd 9881 a93d 4c19 bfbd
000001b0: 2640 22be 2844 a3bd 10d5 753d c0f4 56bc
000001c0: 7555 89bd 4bb6 4ebd 4c34 833e 80a0 e13e
000001d0: 08ba a1bd 28ad 54bd bf26 823f 6a38 43be
000001e0: 425b 85bd c6b3 77be 301b 89bd ca8f 87bd
000001f0: 9a58 2e3d 4475 63be 5e13 9b3d c62e 7cbe
00000200: dd74 56be 9d7d 55be 4a3c c53e 9b20 56be
00000210: 1262 55be e55a d93e 5abf 7cbe b707 123f
00000220: 4c73 19be 7289 56be 84aa 123e dd16 58be
00000230: c415 55be 98aa 57be 00fe 6abe d09b 5b3c
00000240: 7178 db3e 82a9 90bd 3727 5b3f 3c46 4d3e
00000250: 54b6 00be 9254 a6bd 3e10 b6bd a11f b4bd
00000260: 667a 14be 152c 9c3e dd9c b8bd 193b b8bd
00000270: feb8 603e feb1 40be 3e19 21be 3817 b7bd
00000280: eece 5fbe 9c18 33be 2e31 b23d 5fe5 363e
00000290: 0187 eabd 0e7a 833e f5ab 2a3e 3aff 14be
000002a0: be88 13be adcd 13be eb99 8b3f 7433 ab3e
000002b0: ce9f 5d3e f3d6 973d 0851 f9bd 2d3e 13be
000002c0: 2765 0a3f aca6 34be 1646 0dbe bcd3 16be
000002d0: 6df8 183f 2cb1 1cbe 14c6 1c3c 362d 24be
000002e0: 88b2 37bc 02f5 2cbe 904f 65be 68c8 7cbe
000002f0: f230 6abe c60a 0dbe e4f1 0ebe 1932 0fbe
00000300: d32a 55be b0e3 a43e 2c22 d8bc 6381 a53e
00000310: 3b66 4b3c b3df 44b9 29b8 a4be e6a1 053f
00000320: 6b6f 2b3e 1a72 a5be 3950 7c3d 93e2 9dbe
00000330: d89e a4be 549e 2a3e 038d a4be 643c 4dbd
00000340: 55ff 5cbd 1ead 77be 842c f4bd 04e3 cebd
00000350: d280 963e 384f 1bbe 9840 5bbd 0c73 bbbd
00000360: 6717 273f 8c1c cc3e caae 053a 3d27 53bd
00000370: 842a 61be 6bfd 103e 6962 2b3f 0059 70bd
00000380: 3283 103e 8658 7abe 617a 29be 2421 7cbe
00000390: 2d13 7bbe c643 7cbe 018b 153f e13e 7bbe
000003a0: b1dd e8bd 5926 b03e e43f 7bbe 2a01 2f3e
000003b0: 4243 7abe 5a4e 1e3f 8d09 7abe 1fb1 533e
000003c0: bf10 703e 65c4 7b3e 0cb0 7ebe 8a76 56be
000003d0: cdeb 0dbe af67 243e be30 3cbe a0c3 0b3f
000003e0: 6596 df3d 02b9 33be 6732 ac3d fab1 0ebe
000003f0: a4eb 9e3e 3de3 8f3e 8aa4 e83e ee33 f63d
0.13675973 0.055731982 0.18442073 -0.17413554 -0.0073361993 -0.088569105 0.08132279 -0.15386474
-0.18664351 0.015808374 -0.121090114 0.11954257 0.15401077 -0.12235427 -0.070572555 -0.02148959
0.14437135 0.06285703 -0.2732864 0.48414847 0.2853842 -0.22901739 0.10687707 0.15278631
-0.27486596 -0.27253628 -0.21439077 0.723409 -0.057133872 -0.05893217 0.15374774 0.14119506
0.5485925 -0.20764533 -0.23430353 -0.09099349 -0.13978824 -0.18510228 0.22960392 -0.14044246
0.72421926 -0.13795526 -0.10203483 0.11997506 -0.13592644 -0.15663221 0.0026520216 -0.10832492
-0.17888987 -0.27720255 -0.27671596 -0.27699992 0.26028383 -0.26064247 -0.0011982792 0.27995896
0.21620129 0.51720613 0.109386116 0.12273704 0.7920985 -0.27663818 -0.27840847 0.060106874
0.039590284 -0.20841123 -0.22635707 0.61247694 -0.14119753 0.76422656 -0.20965694 -0.20794833
-0.19784032 -0.051688153 -0.21104544 -0.2191444 0.033994496 -0.2078 -0.07364542 0.32862818
-0.2707888 -0.059088167 0.37687036 -0.14755699 0.105497785 -0.268832 0.016796108 -0.2682602
0.31689137 -0.26958427 -0.2709192 0.021686917 0.38614982 0.49061877 0.14382796 0.17148758
-0.111582875 -0.1787987 -0.10007045 -0.18489027 -0.11790162 -0.15005529 -0.20483813 -0.014329642
-0.17779201 -0.07424766 0.08276671 -0.09330997 -0.15844783 -0.07971984 0.060017645 -0.013119876
-0.06705753 -0.050466817 0.25625837 0.44067764 -0.07896811 -0.051922947 1.0168074 -0.19064489
-0.06511547 -0.24189672 -0.06694639 -0.066192225 0.042564966 -0.22212702 0.075720534 -0.24627218
-0.20943017 -0.20848699 0.3852256 -0.20910875 -0.20838192 0.4245216 -0.2468237 0.5704302
-0.14985389 -0.20950869 0.14322859 -0.21102472 -0.20809084 -0.2106117 -0.22948456 0.013403848
0.42865327 -0.07063581 0.8560671 0.20046324 -0.12569553 -0.08121599 -0.08889817 -0.08795095
-0.14499816 0.30502382 -0.09014294 -0.08995647 0.21945569 -0.18817899 -0.15732285 -0.089399755
-0.21856281 -0.17489856 0.087007865 0.17860936 -0.11451531 0.25679058 0.16667159 -0.14550486
-0.14407632 -0.14433928 1.0906347 0.33437693 0.21642992 0.07414045 -0.121736586 -0.14379187
0.54060596 -0.17641705 -0.13796267 -0.14729208 0.5975407 -0.1530196 0.00956871 -0.16032872
-0.011211999 -0.16890338 -0.22393632 -0.24685824 -0.22870234 -0.13773641 -0.13959461 -0.13983954
-0.20817117 0.32204962 -0.026383482 0.32325277 0.01241451 -0.00018775351 -0.32171753 0.5220016
0.16741721 -0.32313615 0.061599944 -0.30836925 -0.32152438 0.1666196 -0.32138833 -0.05010642
-0.05395444 -0.24187133 -0.11922553 -0.101018935 0.29395157 -0.15166938 -0.0535284 -0.09152803
0.65270084 0.3986553 0.0005099593 -0.051551092 -0.21988875 0.14159171 0.66947037 -0.058678627
0.14112547 -0.24447832 -0.1655059 -0.24622017 -0.24519034 -0.24635229 0.5841523 -0.24535705
-0.11370409 0.34404257 -0.24536091 0.17090288 -0.2443972 0.61838305 -0.24417706 0.20673035
0.23443888 0.24586637 -0.24871844 -0.20943657 -0.13859482 0.16055177 -0.18377969 0.54595375
0.10917357 -0.17551044 0.08408051 -0.1393508 0.31039155 0.28103057 0.45438033 0.120216236

critic.action_embedder.fc.bias f4 [16]
00000000: 5e2a 4bbe 2cd5 8a3e c387 093e 50b4 8c3e
00000010: c3e8 533e 34b6 883e 74a4 4fbe 19f1 823d
00000020: a3d2 533e 984a b33d 894a 123e 04ed 0b3e
00000030: 7d50 a43e 2771 503d 44e2 793e 20f9 0b3e
-0.1984038 0.27115762 0.13430695 0.27481318 0.2069426 0.2670151 -0.20277578 0.06393642
0.2068582 0.08754462 0.14286245 0.13664633 0.32092658 0.05088916 0.2440272 0.13669252

critic.seq_model.model.weight_ih_l0 f4 [256, 48]
00000000: a0a6 62bd 9a55 60be 9764 b5be 4edb 5bbe
00000010: c531 8bbe cc71 2ebe 18df e7bc ad5b 11bf
00000020: 669c 86be 7be5 c53e 8f5f 53be 04c5 373e
00000030: 0384 72be a43f be3d e215 383e ef7a 09bc
00000040: 222c da3a e631 8d3d 0f74 aabd 8948 7bbd
00000050: 50d4 7d3c bea1 863e 5be9 00be 968a 82be
00000060: cee6 983d fc1d 4ebd e2a9 dcbe bb5e 323d
00000070: 0966 153f b834 6a3e dc02 273f 748d 023d
00000080: cccb 2d3d 2bc8 90bc 9f1d 8fbd ee4d 053f
00000090: 7fed 5aba 924c 1c3e 3c31 473d 69d3 5d3d
000000a0: aa41 9cbd cd62 82bb 4859 cd3c d2c4 a5bc
000000b0: 5c60 683d 13e1 6a3e 418d d93e bd27 dbbc
000000c0: 426f 0fbd fb3e 343e 1e78 543e e8fa fd3d
000000d0: f261 6c3e d7e9 02be a9c8 dfbd 5ac3 913d
000000e0: 616d a03c 6f73 853c 7654 ab3e cf5f 953e
000000f0: 5a2c e13d 483c 76bd 1597 213d c736 1cbd
00000100: ac25 c73c 586f a6be 5277 273e 8b8c babd
00000110: 9dd7 683d 621c 053f 2db5 1e3d dc35 b1bc
00000120: 66f6 f2bc 1111 54be b798 363b 1832 ca3d
00000130: 5635 283e ac7a 073d b8de 45be 7edf 043e
00000140: 27d1 583e 4b8e 0f3d baf9 4f3c 76d1 1ebc
00000150: 25d8 01be 4db6 39bd afc1 a13c ec9f 903a
00000160: f00b 85bc 9663 5f3d 270d f6bd cf0d a03b
00000170: 6650 09be 3026 e8bd 16fe 8c3e 6964 0c3e
00000180: 16d3 c7bd 03a5 d13c 6b0a 53be a6d8 36bd
00000190: c333 143e ef0d bbbd be69 f13c e0b8 aebe
000001a0: 3703 84bd d70e b6be f4a8 b4be 9658 14bd
000001b0: c283 103d 0c07 943e a42c 7fbe 5b2a 23be
000001c0: bc4b 853e 4953 53be df20 5bbe 971b e33d
000001d0: d154 e1bc d436 3c3e 0f0d 163d 312a 94be
000001e0: 2f31 593d 3c2e 25be 5979 36be ad82 2c3f
000001f0: f2f5 b3be e236 e0bd 83c4 8fbe aa5d 503c
00000200: dd44 14be 9d41 e1bd 8c8f 85be 1062 173d
00000210: 479b 813e 769d 093e 8f25 95be 393c e73d
00000220: 0c1d 81be ebb5 0dbd ab63 5d3c b850 cbbb
00000230: 4e86 81be ec52 063e a07a 86bd 78b7 8b3e
00000240: f660 3fbd 453e 8cbe 1ee6 823e 6190 7fbe
00000250: 76fb c23d 9472 1f3e e477 333d f681 313e
00000260: 7040 a63e 7d22 a13d f8c8 86bd 3ce9 8a3e
00000270: fb49 6f3e 570f 283e b167 a03e ce71 403e
00000280: 2a22 b23e f66d b23d 7160 c83d 5b35 1dbd
00000290: 0b8e b0bd 6a4d bd3e 405e 213d 44b6 3d3d
000002a0: bca1 6abd 8d0e 81be 4b79 d2bd 686d 23bf
000002b0: 69de 90bf 8ae1 68bd 44f4 02be edcd 2f3c
000002c0: 5a27 7cbe 6aa9 6ebc 586c 2f3e 8641 90bc
000002d0: fb7f edbb 0136 9fbe 909f 44be 142a 563d
000002e0: fe28 6f3e 3be8 133e f4d7 453e d2f9 d13d
000002f0: 660a 92bd 39ed d3bb 399d a93e a238 ab3e
00000300: d921 9ab9 887b cf3d f7c6 9fbd 5d88 403d
00000310: e668 24be 19c8 933e 2b9e d9bd 3cee 7fbd
00000320: d6a6 093f 5994 59be 7c0f 5fbd 8458 673c
00000330: 6160 67be ab00 4fbd deb4 d83e 9f2e 1a3f
00000340: 12fe a3bd a14c 03bf 24e6 113e 6c26 603e
00000350: f0ac 103e f732 2bbf 570d 003d e130 723e
00000360: 8350 02bc c8d3 6b3e eceb bcbd f62e 9d3f
00000370: 2f02 d2bf 840b 24be 1a1f 133c 4ac7 3b3d
00000380: 900c a93e 362b 043c babd bf3c 11dd cfbe
00000390: fa66 2f3e eed1 853e f88c a5bd 5dae 1f3e
000003a0: eaaa a5bd 0243 ffbd 0149 48bd 68b7 003e
000003b0: a0a1 4bbe 10a2 2b3e bdba 343e 1727 03bf
000003c0: f5ad fb3d b415 9cbe f2ef 88be 3181 e93e
000003d0: 76d9 e5be dfc1 20be ee2e 2ebe a292 573e
000003e0: 1ede 393f cc5f 213f 9cc9 86be 9971 43be
000003f0: c3ed 9ebd 3762 e5be 2d8b 033f 285f ae3e
-0.055334687 -0.21907654 -0.35428306 -0.21470377 -0.2718641 -0.17035598 -0.028304622 -0.5678051
-0.26291198 0.38651642 -0.20641921 0.17946249 -0.23683171 0.09289482 0.17977098 -0.008391126
0.0016645233 0.06894283 -0.08322918 -0.06134847 0.015492514 0.26295274 -0.12589018 -0.25496358
0.074658975 -0.050321564 -0.4309836 0.043547373 0.5835882 0.22871673 0.6523874 0.03187318
0.042430684 -0.017673573 -0.06988072 0.52072036 -0.000835143 0.15263584 0.048630938 0.054156695
-0.07629712 -0.003979063 0.025066987 -0.020235453 0.05673252 0.22937422 0.4249058 -0.026752347
-0.035018213 0.1760215 0.20748946 0.12401372 0.23084238 -0.12784515 -0.10926945 0.071173385
0.019583406 0.016290395 0.33462876 0.2917466 0.109947875 -0.060116082 0.039450724 -0.038138177
0.024309956 -0.32506824 0.16354111 -0.09108838 0.05684625 0.51996434 0.038747 -0.021632127
-0.029658508 -0.20709635 0.0027862021 0.09872836 0.16426596 0.033075973 -0.19323242 0.1297588
0.21173535 0.03504781 0.012693817 -0.009693494 -0.12680109 -0.04533987 0.019745676 0.0011033989
-0.016241044 0.054538332 -0.12014227 0.0048844586 -0.13409576 -0.11335409 0.27537602 0.13710178
-0.09757058 0.025591379 -0.20609443 -0.044640206 0.1447287 -0.09133517 0.029469367 -0.34125423
-0.06445926 -0.35558197 -0.3528515 -0.036217295 0.035281904 0.28911626 -0.24919373 -0.15934126
0.26034343 -0.2063724 -0.21399258 0.11089247 -0.027506264 0.1838029 0.036633547 -0.2893844
0.05302542 -0.16130918 -0.17819728 0.67386895 -0.3514858 -0.10947968 -0.28079614 0.012717644
-0.14479394 -0.10998843 -0.2608608 0.036958754 0.2531378 0.13438973 -0.29130217 0.112907834
-0.25217474 -0.03459732 0.013512532 -0.006204691 -0.2529778 0.1311757 -0.065663576 0.27288413
-0.04672333 -0.27391258 0.2556619 -0.2495742 0.095206186 0.15571052 0.04381551 0.17334732
0.32471037 0.07867906 -0.065813005 0.2713107 0.23368065 0.16412102 0.3132911 0.18793413
0.3479169 0.0871238 0.0978402 -0.038380962 -0.086208425 0.36973125 0.039396524 0.0463164
-0.05728315 -0.25206414 -0.10277041 -0.63838816 -1.1317874 -0.056855716 -0.12788492 0.010730249
-0.24624386 -0.014566759 0.17131174 -0.017609369 -0.0072479225 -0.3109589 -0.19201493 0.052286223
0.23355481 0.14444058 0.19320661 0.102527276 -0.071308896 -0.006467488 0.33127764 0.33441645
-0.00029398387 0.101309836 -0.078016214 0.047005046 -0.1605564 0.288636 -0.10625871 -0.062483057
0.53770196 -0.21247996 -0.054458126 0.014120225 -0.2259536 -0.050537746 0.4232549 0.6022739
-0.080074444 -0.512888 0.14247948 0.21889657 0.1412847 -0.6687464 0.031262722 0.23651458
-0.007953766 0.23030007 -0.09224686 1.2279956 -1.6406916 -0.16020018 0.008979583 0.045844354
0.33017397 0.008066943 0.023405898 -0.40598348 0.17129126 0.26136726 -0.08083528 0.15593858
-0.0808924 -0.124639526 -0.048897747 0.12569964 -0.19885874 0.1676104 0.1764936 -0.5123152
0.12289039 -0.30485308 -0.26745564 0.45606378 -0.44892472 -0.15698956 -0.1701009 0.2105203
0.7260455 0.630368 -0.2632569 -0.19086303 -0.07760193 -0.44801494 0.5138424 0.34056973

critic.seq_model.model.weight_hh_l0 f4 [256, 64]
00000000: 6218 3cba cf1d 51be 211e e9bc 3de9 d93e
00000010: 5348 4ebe 912e 11bf 98c2 753e 67ae 083e
00000020: 3986 00bf 51b3 0e3e 31b3 91bd 7ab8 29bf
00000030: a232 fc3d c0e5 7dbe 733d 65bd 814d 8fbe
00000040: cfa0 163e c024 8c3d eefa 75bd 9e06 34be
00000050: c532 b1bd b1bc 793e c3c1 6fbd d15c 83bd
00000060: 8770 383d 8aa7 153e 8f76 093e c6a3 c0bd
00000070: 25e7 c43e 4ba5 a5bd b03f 0dbe 9b60 b53d
00000080: a5a0 ec3d 8c39 3bbe 6ee6 55be 8a2d cc3e
00000090: a4cf c5be 4603 e7bb f3e7 dbbe 668d 46be
000000a0: 850f 3abd f3d2 1dbe c8ca 80be f893 823e
000000b0: dba3 93be 0f10 84be 2769 02be 7cd6 30be
000000c0: 6e20 303e 495e 73bd a40f a43a 310e c73e
000000d0: 1e96 2abf 4c48 38bd ab5a ab3e 8e9a d3be
000000e0: 8472 dfbe 23ef 083f 8027 9fbd f935 91bd
000000f0: 1de9 b23e 83da 803d bee7 0fbd f2b5 6fbd
00000100: 0396 9cbe 9c2b d93d 3828 35be bdc9 01be
00000110: 2932 68be 35c9 8abd 1947 b03e 2023 7e3e
00000120: e88f e53d 52d8 85be 466d 4f3e b4f0 0abe
00000130: ff08 9ebd 22bb 8cbc a6a8 493d 14f9 943d
00000140: a583 163d 4ba6 8f3d 6fa0 cfbd 10be 16be
00000150: e9c6 3dbe 18ec 323e b07e 9f3d 3cc4 0dba
00000160: dbcf a3bd 3f8b c13d 5408 d93c 2968 abbd
00000170: b0a4 81bd a422 f43c a903 923e de61 263e
00000180: df78 0f3d 74cf adbc 0683 24bd c2d1 8ebe
00000190: a724 d33e 0330 3e3e d537 75bd 92aa 09bc
000001a0: 0e27 90be 0982 f63d 6e0c 1f3e 6d3f 543d
000001b0: 419b 393d 2c0a 13be 063d 42be d7f7 273d
000001c0: 7799 be3e 4866 a93e 8d04 873d 7058 8d3b
000001d0: 194d d5be c5bc 083e 581f 913d 59c0 123c
000001e0: e169 00bf 3ece 34be 18ea 2f3e edb8 da3c
000001f0: 1146 993c 0bd2 55bd e48a babd 12a4 a0be
00000200: bb54 823e f8ee 663d 685f 9cbe 9ccf b6bc
00000210: 5054 d9bd 70e6 303b acc4 183d 5d4a ccbe
00000220: 6ebf 96be 5799 fcbc 3737 7bbe 91de e0be
00000230: a91b e53d e837 21bd e86b 61bf 369c 3ebe
00000240: 0afe c33c 8a23 3f3d f8bd 143f a208 32be
00000250: 8acc b93e e473 ac3e dd7b 443e 285e 313d
00000260: 8527 3ebd 936b 343e 7497 9ebd cdc9 b03e
00000270: 7649 b0be eb2c c13d ea2b 4abd caef c63e
00000280: a8ca 003d f9f6 62be 0519 0f3e 8ed1 81be
00000290: afa4 7fbd 2e57 59bd e587 6a3c 075e 433d
000002a0: 95c0 21be 06ed 24bd ffbb 91bd 17a9 0f3f
000002b0: 5c78 23be 3bf7 453e b970 403e dbdb 3cbd
000002c0: 4ac1 fabe dbe2 7c3c 22fb e6be 5c1b 14be
000002d0: 7e8d cc3d dfa3 e1bd b202 6abe 76c3 15be
000002e0: 9e24 053e a5ab dd3d d112 dfbc c8f0 96bd
000002f0: 7a56 d73d fbba c6bc 6e9e 73be d9f7 a23c
00000300: 6800 2a3e 4a5d e3bd bbc9 383e 742f f23d
00000310: d951 6a3e d101 e83e 711b 273e 68f7 df3e
00000320: d51a f2bd afe7 57be 0b33 a5be 0a91 463e
00000330: e67d 7f3d c679 95be 7186 d4be 1421 133e
00000340: e99d 0abe 0335 e93d 905c f33c 1bb9 613d
00000350: 1099 ef3e 528f e03d c923 953c bfe3 c2bc
00000360: 57c2 aebd 788d eb3d 848e 823d 10d3 213e
00000370: 3d24 9c3c a710 ab3e ce3a 7bbe a4d9 263e
00000380: bf19 883c 5e61 5abe 5130 373d 05da 8f3e
00000390: b2c8 82bd f7ed 83be 854d bebe b793 b03e
000003a0: 8384 613e 1c57 c73e 2fa6 f23d 3be6 943e
000003b0: 990c f83d 32f0 6c3d 256a 51be c5b3 083e
000003c0: 2d93 fdbe 559e 8e3d eb57 de3d 4751 a7bc
000003d0: 20b0 38be 9cb0 08be d41e a83e 4203 c23d
000003e0: 2b2d 8abd ceb8 7abe 9032 0ebd 12cb b83b
000003f0: 568d 8ebd 8a13 363e 9c00 efbe c881 1c3e
-0.0007175264 -0.20421527 -0.02845675 0.4256076 -0.20144777 -0.5671168 0.24000013 0.13347779
-0.5020481 0.13935591 -0.07114256 -0.66297114 0.12314345 -0.24794674 -0.055966806 -0.27988818
0.14709781 0.06842947 -0.06005376 -0.1758065 -0.08652262 0.24388386 -0.058534395 -0.06414188
0.04502919 0.14614692 0.13424133 -0.09406237 0.384576 -0.08088168 -0.13793826 0.08856317
0.11554078 -0.18283671 -0.20888683 0.39878494 -0.3863498 -0.007049951 -0.429504 -0.19389877
-0.045424957 -0.15412502 -0.2515471 0.25503516 -0.2883595 -0.25793502 -0.12735425 -0.1726932
0.17199871 -0.05941609 0.0012516868 0.38878015 -0.6663531 -0.044990823 0.33467612 -0.41328853
-0.43642056 0.53489894 -0.07771206 -0.070903726 0.34943476 0.06291678 -0.035133116 -0.058523126
-0.305832 0.10604021 -0.17691123 -0.12674613 -0.22675385 -0.067766584 0.34429243 0.24818087
0.112090886 -0.26141602 0.20256528 -0.13568383 -0.077165596 -0.017179076 0.0492331 0.072740704
0.03674664 0.0701414 -0.10138022 -0.1472094 -0.1853291 0.17472875 0.077878356 -0.00054079643
-0.0799863 0.09450387 0.026493229 -0.08369476 -0.0633024 0.029801674 0.28518417 0.16248271
0.03502738 -0.021217085 -0.040164016 -0.27894408 0.412389 0.18573003 -0.0598677 -0.008402484
-0.28154796 0.12036521 0.15532085 0.0518183 0.045314077 -0.14359349 -0.18968591 0.041007843
0.3722646 0.33085847 0.06592665 0.004313521 -0.41660383 0.1335326 0.070860565 0.008956992
-0.5016156 -0.176568 0.17179143 0.026699508 0.018710168 -0.052202266 -0.091085225 -0.31375176
0.2545527 0.056380242 -0.3054154 -0.022315793 -0.106117845 0.002699282 0.037296936 -0.39900485
-0.29442924 -0.030834837 -0.24532782 -0.43919805 0.111869164 -0.039359957 -0.88055277 -0.18614277
0.023924846 0.046664752 0.5810237 -0.17386106 0.36288863 0.33682168 0.19187875 0.043302685
-0.046424408 0.17619161 -0.07743731 0.34528962 -0.34431046 0.094323955 -0.049358286 0.3885482
0.031443268 -0.22164525 0.13974388 -0.2535519 -0.062412914 -0.053061657 0.014314626 0.047697093
-0.1579612 -0.040265106 -0.071159355 0.56117386 -0.15963882 0.19332592 0.18793 -0.046108108
-0.48975593 0.015434946 -0.45113474 -0.14463562 0.09987925 -0.11017584 -0.2285259 -0.14625344
0.1300225 0.10823754 -0.027230652 -0.07370144 0.10514541 -0.024259081 -0.23790905 0.019893574
0.16601717 -0.11101778 0.18045704 0.11825457 0.22882785 0.45313886 0.16319062 0.43743443
-0.11821524 -0.21084474 -0.32265505 0.19391266 0.062375925 -0.29194468 -0.4150882 0.14368087
-0.135368 0.11387064 0.029707223 0.05510817 0.46796465 0.10964836 0.01820554 -0.023790238
-0.08533161 0.115015924 0.06374839 0.1580317 0.019060249 0.33411142 -0.24534151 0.16293961
0.01661384 -0.21326205 0.044723812 0.28096023 -0.06385936 -0.2576749 -0.37168518 0.34487697
0.22023205 0.38933647 0.11848103 0.29081902 0.12111778 0.057846256 -0.20450647 0.13349827
-0.4952635 0.06963793 0.10856613 -0.020424498 -0.18035936 -0.13348621 0.3283602 0.09473278
-0.06746896 -0.2448456 -0.03471619 0.0056394422 -0.069605514 0.17780891 -0.46680152 0.15283883

critic.seq_model.model.bias_ih_l0 f4 [256]
00000000: af9e 76bc 7474 7f3d e75d b4bc 015a eebc
00000010: e9cd 343e 21da 553e 9614 88bd 62f5 a73d
00000020: c10b 2d3c 6365 54bc d78c 28bd 8881 d2bc
00000030: 8efc 20b8 45fa a53d 4620 023e e8af 0e3e
00000040: c473 473e 9ab3 953d dc7c aebc 0cf5 a53d
00000050: 265c 843e 8034 b13d 132d d53c 601b 53bd
00000060: 1b0d 903d c5c0 c93d ab24 b23d b052 5c3e
00000070: d76c 293e 3ca2 8d3d 65c3 e53d 62d1 c23d
00000080: b1c7 97bc d2d5 dc3d 2e68 4bbd 0b93 cf3b
00000090: 9063 243d 73a1 253d b69a f63b 5223 00bc
000000a0: 288c 4c3e a897 48bd 2b41 12bc 7d6d 5d3d
000000b0: 9ef7 ab3d 7384 1f3e 7a7d a63d 16f7 c0bc
000000c0: 5d85 153e beb2 a3bd 8c4a ecbc e1d0 74bd
000000d0: 953b b83d fb6b 3d3d fd2f bfbd bd19 983c
000000e0: c950 983d ce4a 153d f5e0 15bc bd63 35bd
000000f0: 460e d4bd 72e6 b2bc 323a fc3c 0cb9 e8bd
00000100: 1ca3 dc3d 2f4d 053e f563 0b3e 7666 2c3d
00000110: 958f 113e a3cd 2c3e 4f4a 553e 44da 873d
00000120: b120 ee3d c12c 0a3e 759b d6bc cc18 013e
00000130: 8896 553d 08d7 98bc 86ba 643d c7e5 313d
00000140: aaa6 b43c 5981 05bd f740 383d 4b21 163e
00000150: 8e4d f13d f396 513b 2390 653d 247c 233d
00000160: bda7 423d 2546 0cbd 3ac8 5abd 1293 1a3d
00000170: 1954 663d 3f41 5f3c 605d a03d 2ce0 ca3d
00000180: 21fe 993d 2bba 6a3d fdec 0d3e 21b7 c23d
00000190: fc43 04bd 198f 9e3d 4234 b53d 15ef b63d
000001a0: ce22 f23d bb94 ba3d 32c9 e43d 5931 e3ba
000001b0: 9607 0f3e f655 943d 5e9a 0cbc 64c5 e43c
000001c0: f535 9b3d 9916 163e fbee 1e3d cdb5 03be
000001d0: 5601 813d 14ac ac3c da04 0ebe b727 883d
000001e0: 4c1a ea3c 3569 143c b8d7 da3d bbc3 9e3d
000001f0: a740 1d3d bcd4 933d fd58 1a3d af78 753e
00000200: 9c9a 32bc 8905 ef3c 283c 70bc 016f ce3c
00000210: 1141 c4bd 0f37 c83d 06bb 68bb 614f 81bd
00000220: 6b62 e13c d7e2 e13a 2669 bc3d f767 e23c
00000230: 1942 073c e406 1d3e 7034 6f3d a79a d83c
00000240: 5ef2 82bd 2d87 27bd 4881 a8bb 2ff8 e73c
00000250: 7bf6 773d becc 6bbd e099 1dbd d6d6 7ebd
00000260: 0f2e e5bc f6bc 66bd 5f58 443b 3437 133d
00000270: b0d4 0ebd 6dc6 51bd 8ffb 963d dc91 0dbd
00000280: 9bdf 17bd cfae a4bb 6bdf 5e3d 2777 1fbb
00000290: 2346 e83c df0a b33c aa52 2d3c ab14 67bc
000002a0: 62ff 2bbe b14f 15bd ad59 693b b7da 86bd
000002b0: a211 52bd f1f6 3dbd 8ef4 283c be04 edbc
000002c0: 9a81 40bd 3883 85bb 8429 b23c 4081 f53d
000002d0: 630a 803d 75cd 33bd 2e8f df3c e0d0 243d
000002e0: 9084 e13c 36b2 1cbc b095 e2bc 5365 c0bb
000002f0: 9c8b 683c 3f85 c33c ef3a ec3d d882 f13b
00000300: 502a 9a3d 94f4 c03d 56e2 c83d 70a5 4c3d
00000310: ac6c 753e 0e24 853e 8359 7f3d a5f9 713e
00000320: de22 c03d 4ad3 8b3d e344 a93b 7dcb c93d
00000330: 79fb 343d aeba 533e 1440 ed3c ad1b ff3d
00000340: d550 613e 095a a13d 26ee 273c b8e0 f13d
00000350: 8bdd a73e 45ba 313e 8b91 113d 7739 343d
00000360: bbfe b53d 7edb bb3d 9181 b13d 35ee 3d3e
00000370: 2954 523e 9ca8 d13d f44b fe3d 27b9 a03d
00000380: 7238 193d 0985 c53d 990b 203e 72da da3d
00000390: e8d5 c63d 9e6b 213e 2c21 9e3d 2011 ad3d
000003a0: 1bfd 093e ac2d 3e3d 9f55 8e3d 3754 af3d
000003b0: 5344 443e 894d 2e3e 1a02 933d e60d 143d
000003c0: 7e71 353e 1235 7e3d ed87 983d b9c3 8ebc
000003d0: 8481 113e 825e b23d 4a96 29bd 890d 0d3e
000003e0: ea39 353e 1c36 913d 6d75 3b3d 811d 913d
000003f0: 4db6 953d 0b12 573d 3ac7 443e 7926 223e
-0.015052482 0.062366918 -0.022017432 -0.029095652 0.17656673 0.20883991 -0.066445515 0.082011
0.010561884 -0.012963626 -0.04114994 -0.025696531 -3.8382183e-05 0.08104376 0.12707624 0.1393429
0.19477755 0.07309647 -0.021299772 0.081033796 0.25851554 0.08652592 0.02602247 -0.05153978
0.0703375 0.09851221 0.086984 0.21515918 0.16545425 0.069157094 0.11218909 0.09512593
-0.018527837 0.107829705 -0.0496599 0.0063346676 0.040134013 0.040437173 0.007525767 -0.007820921
0.1997534 -0.048972756 -0.00892667 0.054059494 0.083968386 0.15577869 0.081294015 -0.02355532
0.14601655 -0.07993077 -0.02884414 -0.059769515 0.08995739 0.046245556 -0.09335325 0.01856696
0.074372835 0.036448292 -0.009147872 -0.04428457 -0.10354285 -0.0218384 0.030789468 -0.1136342
0.10773298 0.13017724 0.1361235 0.042089902 0.14214928 0.16875319 0.20829128 0.06633428
0.11627329 0.13493635 -0.026197175 0.12607116 0.05214551 -0.018657222 0.055841945 0.043432023
0.022052128 -0.03259406 0.04498383 0.14661138 0.117823705 0.0031980842 0.056045663 0.03991331
0.04752325 -0.034246583 -0.053413607 0.037737913 0.056232546 0.013626396 0.0783031 0.09906039
0.07519174 0.05730645 0.13859935 0.09507585 -0.032291397 0.077421375 0.08847858 0.0893232
0.11823045 0.09110399 0.111711875 -0.0017333432 0.13967738 0.07242958 -0.008581726 0.027926154
0.07578651 0.14657058 0.03880213 -0.1286232 0.06299083 0.021078147 -0.13869038 0.066482
0.028576992 0.009058286 0.10685676 0.077521764 0.038391735 0.0721831 0.037682522 0.23971818
-0.01090112 0.029177444 -0.01466278 0.025199415 -0.09582723 0.097761266 -0.0035511865 -0.063139684
0.02751275 0.0017233741 0.09199743 0.027637465 0.008255505 0.1533466 0.058399618 0.026440931
-0.06393884 -0.040900398 -0.0051423647 0.028316585 0.060537796 -0.057568304 -0.038476825 -0.062216602
-0.027976064 -0.05633255 0.00299599 0.035941318 -0.034870803 -0.051214624 0.073722 -0.03456293
-0.03707848 -0.0050257216 0.054412287 -0.0024332495 0.028353756 0.02185577 0.010578791 -0.014104049
-0.1679664 -0.036452953 0.003560643 -0.06584685 -0.051286347 -0.04637808 0.010312213 -0.028932925
-0.046998598 -0.0040744804 0.021748312 0.11987543 0.06251981 -0.04389711 0.027289953 0.04023826
0.027529031 -0.009563973 -0.027659267 -0.005871454 0.014193442 0.023867248 0.11534678 0.007370334
0.07527602 0.094216496 0.09808795 0.04996246 0.23967236 0.2600407 0.062341224 0.23630388
0.093816504 0.068274096 0.0051656826 0.098532654 0.044185136 0.20676681 0.028961219 0.124564506
0.22003491 0.07878501 0.01024965 0.1181044 0.3278621 0.17356212 0.03553919 0.044000115
0.088864766 0.09172724 0.08667291 0.185479 0.20539917 0.10237238 0.12416831 0.07847815
0.037407346 0.09644515 0.15629424 0.106861964 0.09708768 0.15763709 0.07721171 0.08450532
0.13475458 0.046430275 0.06949925 0.085609846 0.19166689 0.17021765 0.07178135 0.036146067
0.17719075 0.06206233 0.07447801 -0.017427312 0.14209563 0.08709432 -0.041403092 0.13774695
0.17697874 0.07090399 0.045766283 0.070857055 0.07310162 0.05250744 0.19216624 0.15834989

critic.seq_model.model.bias_hh_l0 f4 [256]
00000000: af9e 76bc 7474 7f3d e75d b4bc 015a eebc
00000010: e9cd 343e 21da 553e 9614 88bd 62f5 a73d
00000020: c10b 2d3c 6365 54bc d78c 28bd 8881 d2bc
00000030: 8efc 20b8 45fa a53d 4620 023e e8af 0e3e
00000040: c473 473e 9ab3 953d dc7c aebc 0cf5 a53d
00000050: 265c 843e 8034 b13d 132d d53c 601b 53bd
00000060: 1b0d 903d c5c0 c93d ab24 b23d b052 5c3e
00000070: d76c 293e 3ca2 8d3d 65c3 e53d 62d1 c23d
00000080: b1c7 97bc d2d5 dc3d 2e68 4bbd 0b93 cf3b
00000090: 9063 243d 73a1 253d b69a f63b 5223 00bc
000000a0: 288c 4c3e a897 48bd 2b41 12bc 7d6d 5d3d
000000b0: 9ef7 ab3d 7384 1f3e 7a7d a63d 16f7 c0bc
000000c0: 5d85 153e beb2 a3bd 8c4a ecbc e1d0 74bd
000000d0: 953b b83d fb6b 3d3d fd2f bfbd bd19 983c
000000e0: c950 983d ce4a 153d f5e0 15bc bd63 35bd
000000f0: 460e d4bd 72e6 b2bc 323a fc3c 0cb9 e8bd
00000100: 1ca3 dc3d 2f4d 053e f563 0b3e 7666 2c3d
00000110: 958f 113e a3cd 2c3e 4f4a 553e 44da 873d
00000120: b120 ee3d c12c 0a3e 759b d6bc cc18 013e
00000130: 8896 553d 08d7 98bc 86ba 643d c7e5 313d
00000140: aaa6 b43c 5981 05bd f740 383d 4b21 163e
00000150: 8e4d f13d f396 513b 2390 653d 247c 233d
00000160: bda7 423d 2546 0cbd 3ac8 5abd 1293 1a3d
00000170: 1954 663d 3f41 5f3c 605d a03d 2ce0 ca3d
00000180: 21fe 993d 2bba 6a3d fdec 0d3e 21b7 c23d
00000190: fc43 04bd 198f 9e3d 4234 b53d 15ef b63d
000001a0: ce22 f23d bb94 ba3d 32c9 e43d 5931 e3ba
000001b0: 9607 0f3e f655 943d 5e9a 0cbc 64c5 e43c
000001c0: f535 9b3d 9916 163e fbee 1e3d cdb5 03be
000001d0: 5601 813d 14ac ac3c da04 0ebe b727 883d
000001e0: 4c1a ea3c 3569 143c b8d7 da3d bbc3 9e3d
000001f0: a740 1d3d bcd4 933d fd58 1a3d af78 753e
00000200: 9c9a 32bc 8905 ef3c 283c 70bc 016f ce3c
00000210: 1141 c4bd 0f37 c83d 06bb 68bb 614f 81bd
00000220: 6b62 e13c d7e2 e13a 2669 bc3d f767 e23c
00000230: 1942 073c e406 1d3e 7034 6f3d a79a d83c
00000240: 5ef2 82bd 2d87 27bd 4881 a8bb 2ff8 e73c
00000250: 7bf6 773d becc 6bbd e099 1dbd d6d6 7ebd
00000260: 0f2e e5bc f6bc 66bd 5f58 443b 3437 133d
00000270: b0d4 0ebd 6dc6 51bd 8ffb 963d dc91 0dbd
00000280: 9bdf 17bd cfae a4bb 6bdf 5e3d 2777 1fbb
00000290: 2346 e83c df0a b33c aa52 2d3c ab14 67bc
000002a0: 62ff 2bbe b14f 15bd ad59 693b b7da 86bd
000002b0: a211 52bd f1f6 3dbd 8ef4 283c be04 edbc
000002c0: 9a81 40bd 3883 85bb 8429 b23c 4081 f53d
000002d0: 630a 803d 75cd 33bd 2e8f df3c e0d0 243d
000002e0: 9084 e13c 36b2 1cbc b095 e2bc 5365 c0bb
000002f0: 9c8b 683c 3f85 c33c ef3a ec3d d882 f13b
00000300: 502a 9a3d 94f4 c03d 56e2 c83d 70a5 4c3d
00000310: ac6c 753e 0e24 853e 8359 7f3d a5f9 713e
00000320: de22 c03d 4ad3 8b3d e344 a93b 7dcb c93d
00000330: 79fb 343d aeba 533e 1440 ed3c ad1b ff3d
00000340: d550 613e 095a a13d 26ee 273c b8e0 f13d
00000350: 8bdd a73e 45ba 313e 8b91 113d 7739 343d
00000360: bbfe b53d 7edb bb3d 9181 b13d 35ee 3d3e
00000370: 2954 523e 9ca8 d13d f44b fe3d 27b9 a03d
00000380: 7238 193d 0985 c53d 990b 203e 72da da3d
00000390: e8d5 c63d 9e6b 213e 2c21 9e3d 2011 ad3d
000003a0: 1bfd 093e ac2d 3e3d 9f55 8e3d 3754 af3d
000003b0: 5344 443e 894d 2e3e 1a02 933d e60d 143d
000003c0: 7e71 353e 1235 7e3d ed87 983d b9c3 8ebc
000003d0: 8481 113e 825e b23d 4a96 29bd 890d 0d3e
000003e0: ea39 353e 1c36 913d 6d75 3b3d 811d 913d
000003f0: 4db6 953d 0b12 573d 3ac7 443e 7926 223e
-0.015052482 0.062366918 -0.022017432 -0.029095652 0.17656673 0.20883991 -0.066445515 0.082011
0.010561884 -0.012963626 -0.04114994 -0.025696531 -3.8382183e-05 0.08104376 0.12707624 0.1393429
0.19477755 0.07309647 -0.021299772 0.081033796 0.25851554 0.08652592 0.02602247 -0.05153978
0.0703375 0.09851221 0.086984 0.21515918 0.16545425 0.069157094 0.11218909 0.09512593
-0.018527837 0.107829705 -0.0496599 0.0063346676 0.040134013 0.040437173 0.007525767 -0.007820921
0.1997534 -0.048972756 -0.00892667 0.054059494 0.083968386 0.15577869 0.081294015 -0.02355532
0.14601655 -0.07993077 -0.02884414 -0.059769515 0.08995739 0.046245556 -0.09335325 0.01856696
0.074372835 0.036448292 -0.009147872 -0.04428457 -0.10354285 -0.0218384 0.030789468 -0.1136342
0.10773298 0.13017724 0.1361235 0.042089902 0.14214928 0.16875319 0.20829128 0.06633428
0.11627329 0.13493635 -0.026197175 0.12607116 0.05214551 -0.018657222 0.055841945 0.043432023
0.022052128 -0.03259406 0.04498383 0.14661138 0.117823705 0.0031980842 0.056045663 0.03991331
0.04752325 -0.034246583 -0.053413607 0.037737913 0.056232546 0.013626396 0.0783031 0.09906039
0.07519174 0.05730645 0.13859935 0.09507585 -0.032291397 0.077421375 0.08847858 0.0893232
0.11823045 0.09110399 0.111711875 -0.0017333432 0.13967738 0.07242958 -0.008581726 0.027926154
0.07578651 0.14657058 0.03880213 -0.1286232 0.06299083 0.021078147 -0.13869038 0.066482
0.028576992 0.009058286 0.10685676 0.077521764 0.038391735 0.0721831 0.037682522 0.23971818
-0.01090112 0.029177444 -0.01466278 0.025199415 -0.09582723 0.097761266 -0.0035511865 -0.063139684
0.02751275 0.0017233741 0.09199743 0.027637465 0.008255505 0.1533466 0.058399618 0.026440931
-0.06393884 -0.040900398 -0.0051423647 0.028316585 0.060537796 -0.057568304 -0.038476825 -0.062216602
-0.027976064 -0.05633255 0.00299599 0.035941318 -0.034870803 -0.051214624 0.073722 -0.03456293
-0.03707848 -0.0050257216 0.054412287 -0.0024332495 0.028353756 0.02185577 0.010578791 -0.014104049
-0.1679664 -0.036452953 0.003560643 -0.06584685 -0.051286347 -0.04637808 0.010312213 -0.028932925
-0.046998598 -0.0040744804 0.021748312 0.11987543 0.06251981 -0.04389711 0.027289953 0.04023826
0.027529031 -0.009563973 -0.027659267 -0.005871454 0.014193442 0.023867248 0.11534678 0.007370334
0.07527602 0.094216496 0.09808795 0.04996246 0.23967236 0.2600407 0.062341224 0.23630388
0.093816504 0.068274096 0.0051656826 0.098532654 0.044185136 0.20676681 0.028961219 0.124564506
0.22003491 0.07878501 0.01024965 0.1181044 0.3278621 0.17356212 0.03553919 0.044000115
0.088864766 0.09172724 0.08667291 0.185479 0.20539917 0.10237238 0.12416831 0.07847815
0.037407346 0.09644515 0.15629424 0.106861964 0.09708768 0.15763709 0.07721171 0.08450532
0.13475458 0.046430275 0.06949925 0.085609846 0.19166689 0.17021765 0.07178135 0.036146067
0.17719075 0.06206233 0.07447801 -0.017427312 0.14209563 0.08709432 -0.041403092 0.13774695
0.17697874 0.07090399 0.045766283 0.070857055 0.07310162 0.05250744 0.19216624 0.15834989

critic.qf.fc0.weight f4 [256, 64]
00000000: 68b0 a03d 5126 263e e31f 073e 9540 413c
00000010: 96e4 9ebd 1f33 e6bd 340e ea3d 466a 993d
00000020: 8fc3 e43c 53df 77be 7904 79be aa9d 06be
00000030: 8e31 2d3e 38c8 b5bd dfd0 833e a172 b7bd
00000040: c6b6 4cbb d3e1 55be c395 4fbe cbc2 d53e
00000050: 1874 16be 3642 04be 42cc a2bd 359a b83d
00000060: e58c d4be 3c1d a9bd b719 22bf 503c 133d
00000070: 3137 46be b450 74bd ea1c 8abe 0ad4 40be
00000080: 0d9e 573c 620e 99bd 084a bfbd 31f6 aabc
00000090: ded6 79be 557e 053e 4a31 c6bd 6b1b 07be
000000a0: 572c e9bd 9de3 b9bd 36e5 b1bc 8c14 64bd
000000b0: 64e3 4b3e e792 273e d4c4 9a3e 98f5 bb3d
000000c0: faa1 6a3d b841 f8bd 506c 823e f07f 153e
000000d0: 0637 413b e930 94bd 0941 3cbd 5a43 073e
000000e0: fb76 80bc 48f1 28be 84db 23be e82c 75bd
000000f0: 2ac1 da3d 6976 153e 86ee 303e bbcb 563d
00000100: 1ca5 9c3d 8f12 93bd bb4d 8abd 2a2f f4bc
00000110: 5470 943c 9048 963d 6826 803d 8960 4e3b
00000120: 865a c4bc 8aaf 49be 817d 533d 0c75 b93d
00000130: ea0b a63d e58c 1b3e 9bb2 10be c41e 803e
00000140: e6df 793e d472 ab3c eb24 473e b6b4 ff3d
00000150: 5c59 973d 0cc4 9d3e 9d9c bc3d baf0 1b3e
00000160: 108b c93d a10f 3bbe ebd1 e03d db64 9fbd
00000170: 8975 8d3d a9ed e53d 4b65 b5bd e342 683d
00000180: cf5b 2a3c a816 c03c 1f2c 7abd cad0 803c
00000190: 2f63 79be 2e13 e1bd c9dc 06bd 3344 f8bc
000001a0: 75b0 fb3e dacc 363c 58bc 0f3d 34a9 ad3d
000001b0: 4750 b33e e5cd 883d ba16 cf3c 187a b23d
000001c0: 8d7d 6b3e d5ce 753d b813 2cbe 146f 7dbd
000001d0: 1a1f c43d 2a54 533e 9b11 3ebe fa68 d8bd
000001e0: 19d1 9cbe 319a c13d 11cb 203d 7ae0 09be
000001f0: e5f4 203d 9bca fbbd a16c 353e 9f81 bb3d
00000200: d9a3 933d 4933 5cbe 81b7 68be a65a b73d
00000210: e64f 9fbe 8a00 62be 6988 37bc b946 be3d
00000220: 7944 533e 1fb3 6cba 1c3f 04bf 3ac5 663d
00000230: 34d1 e7bd 4173 ab3d 7cde db3c d3dc 4d3d
00000240: 7152 c4bd c8fd e53e a702 eabd 348d 30be
00000250: 1d83 56be 181c 3b3c 83e3 16be 1140 08be
00000260: fccc d23d d058 60be d475 27be 3dcf 8a3e
00000270: fbfc f63d 28f9 07bc 2dda 573e 192a 623d
00000280: e5a7 8c3d dd17 10be 6747 05bd 5c82 1b3e
00000290: 1430 be3e 809c 00be eba8 c9bd d2e5 b9be
000002a0: 5f31 bc3e 77f3 efbd 78d2 11be fe4a 583d
000002b0: 05a1 c63c 3f8a 223e 7e37 423e 43c4 b23d
000002c0: 643b 71bd 8756 5bbe 6e23 cfbe e516 b13d
000002d0: e8e1 1ebe 33d9 6d3d 1c3a 86bc 036f ae3c
000002e0: 7a7e 223e 685d 8b3c 8e76 9cbd 9e57 0e3e
000002f0: 6ef3 2bbd 38d0 2a3c 46ee 563e c5d4 db3d
00000300: b83c 49bc 6e59 7a3d 76b8 9fbd ef68 31be
00000310: 19ab 813d bd31 783d 9490 b2bd e4c2 6cbd
00000320: 2aa2 9b3d b6b7 c13d 1438 eb3e 5680 10bd
00000330: 364a 023d 39f7 45bd 8902 383c 3c1c 6cbe
00000340: 589a 993c 79ac c9bc 3404 b03d 8a30 86be
00000350: 4226 263e c1ce 24be 60b4 973d e108 18be
00000360: 4ab0 acbd a809 3dbd f03a 903d 3382 db3d
00000370: 7c81 b8be 2c7b 173e 1db1 62bb 8b54 b2bd
00000380: 6127 0b3d b0cf 0f3e 5ec5 d7bd 0752 3c3d
00000390: 663f f93d f971 e03d df00 38be 63a6 733e
000003a0: ff19 8dbe 6810 3b3e fe9c c93d e0ca 283e
000003b0: cab9 9cbe 6051 d2bd 0ccc 01be 9943 3f3d
000003c0: 6da2 15be 0377 00be 5f13 863e 7221 1d3d
000003d0: d5d0 f9bc 0734 83be 4c82 dd3c b506 bb3e
000003e0: b240 0a3e 2b20 c73d a5a5 953a 02ac 21bb
000003f0: 1e25 713e 7baa bd3d 6c60 923b 7f94 473d
0.07846147 0.16225554 0.13195758 0.011795183 -0.07758443 -0.11240219 0.1142849 0.07490973
0.02792528 -0.24206285 -0.24318112 -0.13146082 0.16913435 -0.08876079 0.25745293 -0.089574106
-0.003123687 -0.20886926 -0.20271973 0.41750178 -0.14692724 -0.12915882 -0.07949115 0.09013788
-0.41513744 -0.08257529 -0.6332049 0.03594619 -0.19356991 -0.059647277 -0.26975185 -0.18830886
0.013160241 -0.074734464 -0.09340292 -0.020869346 -0.24398372 0.13036473 -0.0967737 -0.13194053
-0.1138541 -0.09076617 -0.021715742 -0.055683658 0.19910961 0.16364633 0.30228293 0.09177703
0.05728338 -0.1212191 0.2547326 0.14599586 0.002948226 -0.07235891 -0.04596046 0.13209286
-0.015681734 -0.16498291 -0.16001707 -0.05985728 0.10681374 0.14595951 0.1727849 0.052440386
0.076486796 -0.07181274 -0.06753107 -0.029807646 0.018119968 0.07338059 0.062573254 0.0031490645
-0.023968946 -0.19695869 0.05163336 0.09055528 0.08107741 0.15190466 -0.14130633 0.25023472
0.24401817 0.020928778 0.19447677 0.1248564 0.07390091 0.30813634 0.09209559 0.15228549
0.09840977 -0.1826768 0.10977539 -0.077829085 0.06907184 0.11226971 -0.08857211 0.056704413
0.010397865 0.023448303 -0.061077233 0.015724558 -0.24354242 -0.10989986 -0.0329254 -0.030305957
0.49158064 0.011157239 0.035091728 0.084795386 0.35022184 0.06679896 0.025279392 0.08714694
0.22997113 0.060011704 -0.16804397 -0.06187351 0.09576245 0.20637575 -0.18561403 -0.10566898
-0.3062828 0.09453238 0.03925616 -0.13464537 0.03929605 -0.12294503 0.1771722 0.09155583
0.07208986 -0.21503939 -0.22726251 0.08952837 -0.31115645 -0.22070518 -0.011201956 0.09290833
0.20631589 -0.00090293767 -0.516588 0.056340434 -0.11319199 0.08371592 0.026839487 0.050259423
-0.09586037 0.44920182 -0.11426287 -0.17241365 -0.20948453 0.011420272 -0.14735226 -0.1330569
0.10293004 -0.2190888 -0.16353542 0.27111235 0.12059971 -0.00829915 0.21079321 0.05521593
0.06867961 -0.14071603 -0.032538798 0.15186447 0.37146056 -0.125597 -0.09846672 -0.3630815
0.36756417 -0.11716359 -0.14240444 0.052805893 0.024246702 0.15873049 0.18966481 0.0872884
-0.05889453 -0.21419726 -0.40456718 0.08646945 -0.15515864 0.058068465 -0.01638513 0.021293169
0.1586856 0.017012313 -0.076398 0.13900611 -0.0419802 0.01042562 0.20989332 0.10733942
-0.012282543 0.061120443 -0.07798855 -0.17325185 0.063314624 0.06059431 -0.08718982 -0.05780305
0.0759929 0.09458868 0.45941222 -0.03527864 0.031809054 -0.048331473 0.011231073 -0.23057646
0.018750355 -0.024618374 0.08594552 -0.26208907 0.16225532 -0.16094495 0.07407451 -0.14847137
-0.08432062 -0.046151787 0.070424914 0.10718193 -0.3603629 0.1479308 -0.003459043 -0.087075315
0.0339731 0.1404407 -0.10535692 0.045976665 0.121702954 0.109592386 -0.17969082 0.2379394
-0.27558896 0.18267977 0.09844397 0.1648364 -0.30610496 -0.10269427 -0.12675494 0.046695326
-0.14612742 -0.125454 0.26186654 0.038361974 -0.030495087 -0.2562563 0.02703967 0.36528555
0.13501242 0.097229324 0.0011417164 -0.0024669175 0.23549315 0.09261032 0.004467061 0.0487256
