logs_results/network-defender/param-search/discount-exploration/discount095_se05/seed-1/save/agent_0010010_perf43.090.pt (torch, 941646 bytes, 28 tensors)

critic.observ_embedder.fc.weight f4 [32, 15]
0	0x3e7bce23	0.24590354
1	0xbe9a304f	-0.30114982
2	0xbd261be7	-0.040553953
3	0x3e853792	0.2601896
4	0xbe9da4b8	-0.30789733
5	0x3e7bb29b	0.24579851
6	0xbd5054ed	-0.05086224
7	0x3d113a3e	0.035455935
8	0x3ddada18	0.10686129
9	0x3ca0ea40	0.01964295
10	0x3dd1ca1a	0.10243626
11	0xbc0e0ed5	-0.008670528
12	0x3e3ca787	0.18423282
13	0xbe0d486e	-0.13797161
14	0xbd6557fa	-0.055992104
15	0x3d1c0ec6	0.038100027
16	0x3dc6bf40	0.09704447
17	0x3b05de96	0.002042686
18	0x3e8865db	0.2664021
19	0x3e473356	0.19453177
20	0xbd5cf280	-0.053942204
21	0xbe5530ed	-0.20819445
22	0xbd9c5e63	-0.0763519
23	0xbdb8d2a2	-0.0902455
24	0xbcbb2b29	-0.022847729
25	0xbd672d73	-0.056439828
26	0x3e8b4e9d	0.27208415
27	0x3e8fadb2	0.28062207
28	0xbe9d2eed	-0.30699864
29	0x3e642e14	0.22283202
30	0x3df5ee1d	0.12008307
31	0x3e94367a	0.28947812
32	0x3e57faf2	0.21091822
33	0xbe6bcd3f	-0.23027514
34	0xbe81bf82	-0.2534142
35	0xbe51e9d9	-0.20499362
36	0x3ed2bd81	0.41160205
37	0xbe242c87	-0.16032611
38	0x3df94aa8	0.12172443
39	0xbddad3ff	-0.10684966
40	0x3ec50d77	0.38486835
41	0xbe406a6f	-0.18790601
42	0x3e935250	0.28773737
43	0xbd0ed39d	-0.03486978
44	0xbdb42f44	-0.08798078
45	0x3e486e7d	0.19573398
46	0xbd2e0a73	-0.042490434
47	0x3d45daaa	0.048304237
48	0xbdd6ffca	-0.10498007
49	0x3dfb37c3	0.12266495
50	0xbe913bb1	-0.28365853
51	0xbddba00c	-0.10723886
52	0x3ea2a3bd	0.31765547
53	0xbe7ebaf2	-0.24876001
54	0x3e805fa5	0.2507297
55	0x3ea2dc2a	0.31808597
56	0xbd267168	-0.040635496
57	0xbea2f289	-0.31825665
58	0x3ef3672a	0.47539645
59	0x3e574180	0.2102108
60	0xbe09c4d1	-0.13453986
61	0x3e3f4b51	0.18681075
62	0x3df9fb48	0.12206131
63	0x3e5d7e66	0.21630248
64	0xbe89a160	-0.26880932
65	0xbdd64a0b	-0.10463341
66	0x3e30d0b5	0.17267115
67	0x3dfc97e4	0.12333658
68	0xbe7271fd	-0.23676296
69	0xbec14bab	-0.37753043
70	0x3d9cb71e	0.07652114
71	0xbd07ed95	-0.03318556
72	0x3e34db6d	0.1766183
73	0x3de82df7	0.11336892
74	0x3e77f204	0.24213415
75	0x3da2dceb	0.07952293
76	0x3e0fb05a	0.14032117
77	0x3e026f04	0.12737662
78	0xbe6d475b	-0.23171751
79	0x3e6d6cc4	0.23186022
80	0xbcfa32ff	-0.030541895
81	0xbe367632	-0.17818525
82	0x3e2f469e	0.17116782
83	0xbc0b6489	-0.008507856
84	0x3e5b282d	0.21402045
85	0xbdc8191f	-0.097704165
86	0xbe5bdfce	-0.21472093
87	0x3eeb2e0a	0.45933563
88	0xbd7b1513	-0.061299395
89	0x3e863c17	0.2621772
90	0x3d2ca61e	0.04215061
91	0xbf081fd8	-0.5317359
92	0x3c8d774a	0.017268796
93	0x3e0736f8	0.13204563
94	0xbdb8caa7	-0.09023028
95	0xbe1e48a3	-0.15457396
96	0x3e3161dd	0.17322488
97	0xbd3642b5	-0.04449721
98	0x3cce4f9a	0.025184441
99	0xbe50c413	-0.20387296
100	0x3e888e61	0.26671126
101	0x3d5e3cb6	0.054257117
102	0x3e7f3322	0.2492185
103	0x3eb09cd0	0.34494638
104	0xbdedaa70	-0.11604774
105	0xbe9f4d97	-0.31113884
106	0x3ed7da70	0.42158842
107	0x3dcf50d6	0.1012284
108	0x3e57305b	0.2101454
109	0xbe220a0d	-0.15824147
110	0x3e8da44c	0.2766441
111	0x3e0f887c	0.14016908
112	0x3e815493	0.25259838
113	0xbeca4f6c	-0.3951372
114	0x3e8f4fa9	0.27990463
115	0x3dc5e560	0.096628904
116	0x3e79d443	0.24397378
117	0x3e5378f0	0.20651603
118	0xbe9e641a	-0.30935746
119	0xbef5d6ad	-0.48015347
120	0xbe5c4527	-0.21510755
121	0xbd1f3efe	-0.038878433
122	0x3ea20450	0.31643915
123	0xbdf0f21e	-0.1176493
124	0x3e20b359	0.15693416
125	0xbed807fc	-0.42193592
126	0xbd17171b	-0.03688727
127	0xbdd8a248	-0.10577828
128	0x3dfe1a24	0.1240733
129	0x3ea31cd2	0.31857926
130	0xbebc0343	-0.36721238
131	0xbcdde389	-0.027086036
132	0x3ecf3497	0.4046981
133	0x3ec1042a	0.3769849
134	0x3e597ad1	0.21238257
135	0x3e97829c	0.29591835
136	0x3e325ec0	0.17418957
137	0x3e0ea226	0.13929042
138	0xbe7732e5	-0.24140508
139	0xbe7a10a9	-0.24420418
140	0xbe26df9e	-0.1629624
141	0xbd22da32	-0.03975887
142	0xbe164a77	-0.14676844
143	0x3c253a55	0.010084708
144	0x3d626aa2	0.055277474
145	0xbe35c380	-0.17750359
146	0x3dd7e0fd	0.1054096
147	0x3d8b2dc8	0.067958415
148	0x3e32224f	0.173959
149	0x3e8a8214	0.27052367
150	0xbca83a72	-0.020535681
151	0x3edfbed7	0.43700287
152	0xbdefa35e	-0.11701082
153	0x3db2a18a	0.087222174
154	0xbe920bad	-0.28524533
155	0xbdae405c	-0.08508369
156	0xbe298790	-0.16555619
157	0xbe5e8353	-0.21729784
158	0x3ea8a864	0.32940972
159	0xbd03ca71	-0.032175485
160	0xbdb66fd5	-0.08908049
161	0x3eb836fe	0.35979456
162	0x3e553de0	0.20824385
163	0x3e70a0cc	0.23498839
164	0xbe5cfd5b	-0.21581022
165	0x3d593f7c	0.05303906
166	0xbe5af0be	-0.21380898
167	0xbd86e7b1	-0.065871604
168	0xbe442783	-0.19155698
169	0xbe2c2e8f	-0.16814636
170	0xbe3ecbd0	-0.18632436
171	0x3e4ec555	0.20192464
172	0xbdb1503e	-0.08657883
173	0x3e25752b	0.16157977
174	0x3e906faf	0.28210208
175	0x3eddc44f	0.43313834
176	0x3ea92fd5	0.33044305
177	0x3e066696	0.13125071
178	0xbe33b8e3	-0.17550997
179	0x3eb3e269	0.35133675
180	0xbdd0b5cd	-0.10190926
181	0x3d851542	0.06498195
182	0xbea36535	-0.31913152
183	0x3e1a57f9	0.15072621
184	0xbe31cb66	-0.17362747
185	0x3e7eaade	0.24869868
186	0xbe809115	-0.2511069
187	0xbe1662fb	-0.14686196
188	0x3e021825	0.12704523
189	0xbe5cdff6	-0.2156981
190	0x3e290a30	0.16507792
191	0xbe31bbe3	-0.1735683
192	0xbd832fad	-0.06405578
193	0xbd5d17bf	-0.053977724
194	0x3e92ab0d	0.28646126
195	0xbe76a452	-0.2408612
196	0x3e29a713	0.1656764
197	0x3e8b77c4	0.2723981
198	0x3ecb7227	0.3973553
199	0xbe4e8666	-0.20168456
200	0x3dbd78ca	0.09251554
201	0xbe15188b	-0.14560144
202	0x3ea1d403	0.31607065
203	0xbd0a2a92	-0.033732004
204	0x3e3d4278	0.18482387
205	0x3d5d965e	0.05409848
206	0xbc897105	-0.016777525
207	0x3b25707f	0.0025244055
208	0x3d67647d	0.056492317
209	0x3e23cdf5	0.15996535
210	0x3db39ec2	0.08770515
211	0x3dabe1fb	0.08392712
212	0xbe7dcd5d	-0.24785371
213	0x3f1a05a7	0.60164875
214	0x3ea9478d	0.330624
215	0x3db88fc1	0.09011794
216	0x3f100afa	0.5626675
217	0xbec71c77	-0.38888904
218	0xbe6bf667	-0.23043214
219	0x3eaf584f	0.34247062
220	0xbe7086de	-0.23488948
221	0x3e505288	0.20343983
222	0xbe37e5af	-0.17958711
223	0xbe3ed292	-0.18635014
224	0x3ddaf948	0.10692078
225	0xbebaaea4	-0.36461365
226	0xbe0711e2	-0.13190416
227	0xbcb4466e	-0.02200624
228	0x3e8e8526	0.2783596
229	0x3eb84049	0.35986546
230	0xbd7e0fc5	-0.062026758
231	0xbdc8d77c	-0.098067254
232	0x3e87e02b	0.26538214
233	0x3db9cecc	0.090726465
234	0xbe9b5525	-0.30338398
235	0x3e285610	0.1643908
236	0xbdece61a	-0.11567326
237	0x3ec97989	0.39350536
238	0x3eb8006c	0.35937822
239	0xbdde6bd1	-0.10860408
240	0xbee10258	-0.439471
241	0x3cf38dab	0.029730638
242	0x3e7e3341	0.2482424
243	0xbd061f02	-0.032744415
244	0x3a99e223	0.0011740368
245	0xbd502b1e	-0.05082237
246	0xbe77bac3	-0.24192338
247	0xbe7ea15b	-0.2486624
248	0xbd18f47c	-0.037342533
249	0x3ec29279	0.38002375
250	0x3edef9ca	0.4354995
251	0x3b1157f7	0.0022177675
252	0xbcc6b51f	-0.024256287
253	0x3dff3a82	0.12462331
254	0x3d4691ec	0.048479006
255	0xbe2801a4	-0.16406876

critic.observ_embedder.fc.bias f4 [32]
0	0x3db63645	0.0889707
1	0xbd727aa4	-0.05919899
2	0x3d671eec	0.056425974
3	0x3d4346b9	0.04767487
4	0x3e430a08	0.19046795
5	0xbe16bbfe	-0.14720151
6	0xbe427cec	-0.18992966
7	0x3e1ef47d	0.15522952
8	0x3d921137	0.0713219
9	0x3dfa3d74	0.122187525
10	0x3e1cbea2	0.15307096
11	0xbe1e16b4	-0.15438348
12	0x3e6b01e5	0.22949941
13	0xbe8f0309	-0.27932003
14	0xbc1a4d71	-0.0094178775
15	0x3cb2e40f	0.021837262
16	0x3e85c646	0.26127833
17	0xbe64b0a6	-0.22333011
18	0xbe22d896	-0.15902933
19	0x3e84b791	0.259213
20	0xbe29de80	-0.16588783
21	0xbe5ef820	-0.2177434
22	0xbe2e1e35	-0.1700371
23	0xbe5d13ab	-0.21589534
24	0xbcbaac57	-0.022787256
25	0xbd31772c	-0.04332654
26	0xbe88b23d	-0.26698485
27	0xbe820b23	-0.25399122
28	0x3e47c496	0.19508585
29	0xbcca46a3	-0.024691885
30	0xbe9292b8	-0.28627563
31	0x3d75d940	0.06002164

critic.action_embedder.fc.weight f4 [16, 16]
0	0xbe3f69ca	-0.18692699
1	0x3f05a5d5	0.52206165
2	0x3ee1ffec	0.44140565
3	0xbe7b92fc	-0.24567789
4	0xbe48f23a	-0.19623652
5	0xbe28cce6	-0.16484413
6	0xbe0a94ae	-0.1353328
7	0x3e86ac49	0.26303318
8	0xbe7d25b8	-0.2472142
9	0xbe3dca38	-0.18534172
10	0xbda1e9d8	-0.0790593
11	0xbdceb66a	-0.100933865
12	0xbdcbbc7c	-0.0994806
13	0xbe53c8b4	-0.20682031
14	0xbdcf85ac	-0.10132918
15	0xbdcb6e54	-0.09933153
16	0xbe0e0e59	-0.1387266
17	0xbe1cc530	-0.15309596
18	0x3d0b544f	0.03401595
19	0x3d16b24e	0.03679114
20	0x3eee1640	0.4650135
21	0xbe041f2f	-0.1290252
22	0xbe13e11b	-0.1444134
23	0xbe462bfc	-0.19352716
24	0xbd83abea	-0.064292744
25	0xbd07dae0	-0.03316772
26	0xbe2a2264	-0.16614681
27	0x3e97e177	0.29664204
28	0x3e8e3db6	0.27781457
29	0xbe4932ac	-0.19648236
30	0xbe14df09	-0.14538206
31	0xbe15238d	-0.14564343
32	0xbe13c8d6	-0.14432082
33	0x3d87dd61	0.066340216
34	0xbe36a102	-0.17834857
35	0x3e532b08	0.20621884
36	0xbdd3a090	-0.10333359
37	0x3f015bd7	0.5053076
38	0xbda9afbb	-0.08285471
39	0xbde12c4c	-0.10994777
40	0x3edd615c	0.43238342
41	0xbe43562c	-0.1907584
42	0xbe0771ea	-0.13227049
43	0xbda92cdd	-0.0826051
44	0x3e88bac2	0.26704985
45	0xbddb5e80	-0.10711384
46	0xbe1be2e4	-0.1522327
47	0xbe236f38	-0.15960395
48	0x3e0a6e48	0.13518631
49	0xbe29eda8	-0.16594565
50	0xbe2976c2	-0.16549209
51	0xbe286d59	-0.16447963
52	0x3e975ce4	0.29563057
53	0x3e225f1a	0.15856591
54	0xbe2a2ef1	-0.16619469
55	0xbe294dd4	-0.16533595
56	0xbe28678a	-0.16445747
57	0xbcb6c53e	-0.02231085
58	0x3f14aacf	0.58073133
59	0xbe29daf8	-0.16587436
60	0xbe4f62d4	-0.20252544
61	0xbe3d573e	-0.18490312
62	0xbe281649	-0.16414751
63	0x3d12d656	0.035848938
64	0x3ce9b920	0.028530657
65	0xbd65a728	-0.056067616
66	0x3dbcea70	0.09224403
67	0xbdaa486c	-0.083145946
68	0x3e3be468	0.18348849
69	0x3d6b3330	0.057421863
70	0xbd9d6838	-0.07685894
71	0x3e6425bc	0.2228002
72	0x3d82b5e4	0.06382349
73	0xbe2df99c	-0.1698975
74	0xbe0e79a4	-0.1391359
75	0x3e20840e	0.15675375
76	0x3de9d754	0.11418024
77	0x3e47e220	0.19519854
78	0xbc9d5190	-0.019203931
79	0x3e330d3a	0.17485514
80	0x3a8f1f0b	0.0010919286
81	0x3d650de5	0.055921454
82	0x3d6395de	0.055562846
83	0x3e954ee8	0.29161763
84	0xbe039230	-0.12848735
85	0xbe2589a0	-0.16165781
86	0x3ebbca26	0.36677665
87	0x3d46fe21	0.0485822
88	0x3e8bd28f	0.2730908
89	0xbe255ad5	-0.16147931
90	0x3e85a7b9	0.26104525
91	0xbdcb6a50	-0.09932387
92	0xbe3ae675	-0.18251975
93	0xbe68fa48	-0.22751725
94	0x3dde1ca5	0.10845307
95	0x3ea46e4b	0.32115397
96	0x3d2af1c6	0.04173448
97	0x3e2dba45	0.16965587
98	0xbdb69b06	-0.08916287
99	0xbe8f74e2	-0.28018862
100	0xbe477f89	-0.19482245
101	0x3cc1518f	0.02359846
102	0xbe51e6f4	-0.20498258
103	0x3e5b31e1	0.21405746
104	0x3e115057	0.14190803
105	0x3e5ebd97	0.2175201
106	0x3ea7873c	0.32720363
107	0xbdc719e9	-0.09721739
108	0x3e9bc4d4	0.30423605
109	0x3ddd3f55	0.10803095
110	0x3ed70883	0.4199868
111	0xbdf0017f	-0.11719035
112	0x3e467bda	0.19383183
113	0x3e2f493e	0.17117783
114	0xbe07c4c6	-0.13258657
115	0x3e8b979b	0.27264103
116	0xbe07ddc5	-0.13268192
117	0x3e9cff1c	0.30663383
118	0x3f0bd30a	0.54618895
119	0xbe0666a5	-0.13125093
120	0xbe08440b	-0.13307206
121	0xbe07a9f6	-0.13248429
122	0xbe08ec99	-0.13371505
123	0xbe07a7a6	-0.13247547
124	0xbe085696	-0.1331428
125	0xbe060532	-0.1308792
126	0xbe71a9e0	-0.23599958
127	0xbe1ad5f8	-0.15120685
128	0xbc414544	-0.011796299
129	0xbe153101	-0.14569475
130	0x3dca406b	0.09875568
131	0x3e1093c8	0.14118874
132	0x3e442e77	0.1915835
133	0x3e994a12	0.29939324
134	0xbe4af28c	-0.19819087
135	0x3f3b3a73	0.7313606
136	0xbe6196fc	-0.22030252
137	0xbe190f9b	-0.1494736
138	0xbe342d40	-0.17595387
139	0x3dd70998	0.10499877
140	0xbe550586	-0.20802888
141	0xbe1809a5	-0.14847429
142	0xbe229d38	-0.15880287
143	0xbe1d5c0c	-0.15367144
144	0xbdef02d8	-0.11670464
145	0x3ee7fb8e	0.45309108
146	0xbcecbb2f	-0.02889785
147	0x3e1eab82	0.15495113
148	0xbe7e208a	-0.248171
149	0x3f0de5ac	0.55428576
150	0xbd5efb80	-0.054439068
151	0xbe6af142	-0.22943595
152	0x3ea95f2f	0.33080432
153	0xbd8a7110	-0.06759846
154	0xbce8863e	-0.028384324
155	0xbe2de228	-0.16980803
156	0xbe6dadc2	-0.23210815
157	0xbe40522a	-0.18781343
158	0x3d6b730a	0.057482757
159	0xbcffb2e2	-0.031213228
160	0xbe6d29d0	-0.23160481
161	0xbd44673e	-0.047950022
162	0xbd4bf67a	-0.049795605
163	0xbd4de013	-0.050262522
164	0xbe0238da	-0.12717
165	0xbe36c166	-0.17847213
166	0x3e5710eb	0.21002547
167	0xbdf65ff0	-0.120300174
168	0x3f07de5f	0.53073686
169	0x3eca9101	0.39563754
170	0xbe33077a	-0.17483321
171	0xbdec0d78	-0.115260065
172	0xbd435935	-0.047692496
173	0xbe715fac	-0.23571652
174	0xbd467285	-0.048449058
175	0xbdd554b8	-0.104165494
176	0xbde30268	-0.11084443
177	0xbe45e7b4	-0.19326669
178	0xbd4568f0	-0.04819578
179	0xbe2322a0	-0.15931177
180	0xbe4c9f0c	-0.19982547
181	0xbd86a4bc	-0.06574389
182	0xbe0e8404	-0.13917547
183	0xbe78e1f6	-0.24304947
184	0x3e3f674c	0.18691748
185	0xbdc2cc68	-0.09511644
186	0x3f1a68f1	0.6031638
187	0x3efb1719	0.4904106
188	0xbe2344f0	-0.15944266
189	0xbe153db0	-0.14574313
190	0xbdb5bcec	-0.088739246
191	0xbd45bc8a	-0.048275508
192	0xbdd4a0b0	-0.10382211
193	0xbdc3f066	-0.09567337
194	0x3f16f109	0.5896154
195	0x3cd25875	0.025676945
196	0x3e97d70d	0.29656258
197	0xbe43c3be	-0.19117638
198	0xbdd0fe53	-0.102047585
199	0xbdd12970	-0.10212982
200	0x3d36d641	0.044637922
201	0xbe0467c4	-0.12930208
202	0xbe12b8aa	-0.14328256
203	0xbdd1ea97	-0.102498226
204	0xbdc3b789	-0.09556491
205	0x3eb99e45	0.36253563
206	0xbdd4f249	-0.10397775
207	0xbe18d87a	-0.1492633
208	0x3f15c58b	0.5850455
209	0x3e4578e9	0.19284405
210	0x3d442c3e	0.047893755
211	0xbe67b63a	-0.22628108
212	0xbcd13088	-0.025535837
213	0xbdcdfb36	-0.1005768
214	0x3ddf98d0	0.109178185
215	0xbdcc69de	-0.0998113
216	0x3df02311	0.117254384
217	0xbdcb31ef	-0.099216335
218	0x3e1def40	0.15423298
219	0x3e721897	0.23642193
220	0xbdca40fe	-0.098756775
221	0xbe2c3c74	-0.16819936
222	0x3d8e02f4	0.06934157
223	0x3eb58828	0.3545544
224	0x3c0cb95f	0.008589118
225	0xbe40a0c0	-0.18811321
226	0x3ec22511	0.37918904
227	0xbdda7f04	-0.106687576
228	0xbe61030a	-0.21973816
229	0xbe32c246	-0.17456922
230	0x3dce8862	0.10084607
231	0xbd758579	-0.059941743
232	0xbe60aec6	-0.21941671
233	0x3eb45c17	0.3522651
234	0x3de76587	0.11298662
235	0x3e21f2d0	0.15815282
236	0xbd0f0e61	-0.034925822
237	0xbd73458f	-0.059392508
238	0x3f1cb371	0.61211306
239	0x3e33c897	0.17556988
240	0x3d9fc1e0	0.078006506
241	0xbe3820ca	-0.17981258
242	0xbdb2b110	-0.08725178
243	0x3f046f5e	0.5173243
244	0x3e5f52e0	0.21808958
245	0x3d01d4a8	0.031696945
246	0xbdd5fee4	-0.10449007
247	0xbda92a29	-0.082599945
248	0xbe3eb8f2	-0.18625239
249	0xbe11e508	-0.14247525
250	0x3e9d6aa1	0.30745414
251	0xbe521e90	-0.20519471
252	0xbda71de5	-0.08159999
253	0xbdaa8afa	-0.08327289
254	0xbe199a68	-0.15000308
255	0x3d918941	0.07106257

critic.action_embedder.fc.bias f4 [16]
0	0x3d544497	0.051823225
1	0x3e0cf942	0.1376696
2	0x3da346ce	0.07972489
3	0x3e2754d9	0.1634096
4	0xbe6966d4	-0.22793132
5	0x3e1d2525	0.15346201
6	0x3e90a8a9	0.28253677
7	0x3e04ffba	0.12988177
8	0x3e124eea	0.14287916
9	0x3ce46d76	0.027884226
10	0x3d4087b6	0.047004424
11	0xb9b37c5d	-0.00034234198
12	0x3dceb176	0.10092442
13	0x3dc7b2dd	0.09750912
14	0x3d66e967	0.056374934
15	0x3d95e885	0.0731974

critic.seq_model.model.weight_ih_l0 f4 [256, 48]
0	0x3d382f82	0.044967182
1	0x3e1bfd0c	0.15233248
2	0x3eb3f69b	0.35149083
3	0xbe18401d	-0.14868207
4	0x3d6c5d4b	0.05770616
5	0x3ea92793	0.33038005
6	0x3e66edcd	0.22551651
7	0xbe180c55	-0.14848454
8	0xbea9030c	-0.33010137
9	0xbdea13a0	-0.114295244
10	0x3e0cca00	0.13748932
11	0xbe35ca1b	-0.17752878
12	0xbcbd6928	-0.023121431
13	0x3e1b35e5	0.15157278
14	0x3e5671ba	0.2094182
15	0x3e3951c1	0.18097593
16	0xbcc7a32f	-0.024369804
17	0x3cf01c29	0.029310303
18	0xbba9d770	-0.005183153
19	0x3e372cb2	0.17888144
20	0x3d0799b4	0.033105567
21	0x3e6bc015	0.23022492
22	0x3ea0fcde	0.31442922
23	0x3db66a99	0.08907051
24	0xbe041e9e	-0.12902305
25	0x3daed5bf	0.085368626
26	0xbdfb02f9	-0.12256426
27	0xbc3f169c	-0.011663105
28	0xbd9b133e	-0.075720295
29	0xbce5aa50	-0.028035313
30	0x3d9fa83d	0.07795761
31	0x3bd73f55	0.006568829
32	0x3d085032	0.033279605
33	0x3de36ba6	0.11104517
34	0x3e58b03b	0.21160977
35	0xbd1c4713	-0.03815372
36	0xbcfa8a9e	-0.030583676
37	0xbc7d3b05	-0.015455966
38	0xbcf2469e	-0.029574689
39	0x3ddcb090	0.10775864
40	0xbdcff512	-0.10154165
41	0xbd9a2dca	-0.07528265
42	0x3d371f16	0.04470738
43	0xbee89568	-0.45426488
44	0x3de185eb	0.11011871
45	0xbe944775	-0.28960767
46	0x3e284005	0.16430672
47	0x3dcae71a	0.099073604
48	0xbe1c1dc2	-0.15245727
49	0xbdd802e5	-0.10547427
50	0xbe45c0c4	-0.19311816
51	0x3e98fa79	0.29878595
52	0x3d3b45e8	0.045720965
53	0x3cf46f7f	0.029838322
54	0x3e1107a3	0.1416307
55	0xbd9484cf	-0.07251894
56	0x3eba1699	0.36345366
57	0xbdb63cf4	-0.08898345
58	0x3ea5224b	0.32252726
59	0xbe267067	-0.16253816
60	0xbdbdd566	-0.09269218
61	0xbda207f4	-0.07911673
62	0x3dd93d95	0.10607449
63	0x3e0172fd	0.12641521
64	0x3e985d8f	0.2975888
65	0x3d63c5a9	0.055608425
66	0xbdcf4049	-0.10119683
67	0x3d8a47ec	0.06751999
68	0xbb2b48e6	-0.002613598
69	0x3d587987	0.052850273
70	0x3ecd67f5	0.40118375
71	0x3daf2333	0.085516356
72	0xbc86528a	-0.01639678
73	0x3dcbaef3	0.09945478
74	0xbdffa2fe	-0.1248226
75	0x3daa578d	0.0831748
76	0xbe0df354	-0.13862354
77	0xbd04fb5d	-0.03246628
78	0x3d34fd34	0.044186786
79	0x3d9e5396	0.077307865
80	0x3e080785	0.13284118
81	0x3e1b6ded	0.15178652
82	0x3c8bd44c	0.017069004
83	0x3efc7e43	0.4931508
84	0xbe9edee9	-0.31029442
85	0x3caa6ef7	0.020804865
86	0xbee8f98e	-0.45502895
87	0x3df9e21f	0.12201332
88	0x3f3e3f26	0.74315107
89	0xbe034fd2	-0.12823418
90	0x3ded9977	0.11601537
91	0x3efef2a0	0.49794483
92	0x3dd2c0c5	0.10290674
93	0xbe7a6c0c	-0.24455279
94	0x3e4c331d	0.19941373
95	0x3d62c964	0.055367842
96	0x3de52431	0.111885436
97	0x3e083d78	0.13304698
98	0x3d87071d	0.065931536
99	0xbddfe9ba	-0.10933252
100	0x3da2ede6	0.07955532
101	0x3d4c9e69	0.04995576
102	0xbdcfccc6	-0.10146479
103	0x3e6c8b58	0.2310003
104	0xbde4bd45	-0.11168913
105	0xbe98e06a	-0.29858714
106	0x3db43f9b	0.08801194
107	0x3f2f1f05	0.6840671
108	0xbdbff2d3	-0.09372487
109	0x3c9b4313	0.018952882
110	0xbe7a00a3	-0.24414305
111	0xbce052e0	-0.027383268
112	0x3d158074	0.036499456
113	0x3e0a1cf6	0.1348761
114	0x3e9a9589	0.3019221
115	0x3df91b4a	0.12163408
116	0x3e207097	0.1566795
117	0xbcb94952	-0.02261797
118	0x3d157427	0.036487725
119	0x3cf1e899	0.029529857
120	0x3b529fe7	0.0032138766
121	0x3d9c8604	0.07642749
122	0x3bba2179	0.00568026
123	0x3e3316ec	0.17489213
124	0xbee91bc5	-0.45529
125	0x3e5d1c06	0.21592721
126	0xbcbf9c6e	-0.023390021
127	0xbdb36897	-0.08760183
128	0xbe1d0fd5	-0.1533807
129	0x3e0d3f8a	0.1379377
130	0xbe30ee07	-0.172783
131	0xbea6f905	-0.32611862
132	0xbe2d5a52	-0.16928986
133	0xbd3b5f6b	-0.045745295
134	0x3f00397d	0.5008772
135	0x3e69f4b2	0.2284725
136	0x3ef5c92c	0.48005044
137	0x3e6fca7b	0.23417084
138	0x3cac8bc5	0.021062741
139	0x3eb5cadc	0.35506332
140	0xbd07d8de	-0.033165805
141	0x3c5dedc0	0.013545454
142	0x3e227b7c	0.15867418
143	0xbe1e7ed1	-0.15478064
144	0x3e016991	0.12637927
145	0xbe47f892	-0.19528416
146	0x3e58fba4	0.21189743
147	0x3dc0c5fe	0.09412764
148	0x3b089fa5	0.0020847109
149	0x3e44ac11	0.19206263
150	0x3e1452d4	0.14484721
151	0xbd9f1434	-0.07767525
152	0xbde06b86	-0.109580085
153	0x3db3cf13	0.08779731
154	0xbd3ad43e	-0.045612566
155	0xbe0be073	-0.1365984
156	0x3b3c3bc7	0.0028722154
157	0x3dd119d6	0.10210006
158	0xbe107f4b	-0.14111058
159	0x3ec20eac	0.3790182
160	0x3e580c60	0.2109847
161	0xbd931922	-0.07182528
162	0x3e4e8fa1	0.20171978
163	0x3e81b841	0.25335887
164	0xbdb7fc0b	-0.0898362
165	0x3e7e64be	0.24843118
166	0x3e81c77f	0.25347516
167	0xbe291700	-0.1651268
168	0x3ed045ce	0.40678257
169	0x3e3bbac7	0.18332969
170	0x3ec74c43	0.3892537
171	0x3e39ec2c	0.18156499
172	0x3d8d8e96	0.06911962
173	0xbe249e10	-0.16075921
174	0x3da1d319	0.07901592
175	0x3e316539	0.1732377
176	0x3e0097d8	0.12557924
177	0x3e67e96c	0.22647637
178	0xbec43a39	-0.3832567
179	0x3e8a437c	0.27004611
180	0xbd94731a	-0.072485164
181	0xbc6af79b	-0.01434126
182	0x3e208010	0.15673852
183	0x3e2cade9	0.16863216
184	0x3ecf3e4e	0.40477222
185	0xbd3d81d2	-0.046266384
186	0x3e0bfe5d	0.1367125
187	0x3ed00a3d	0.4063281
188	0xbd22755d	-0.039662708
189	0x3ec28e55	0.37999216
190	0x3e826b61	0.2547255
191	0x3ed535f7	0.41642734
192	0x3f1c10b6	0.60963
193	0x3e04d80f	0.12973045
194	0xbe7ce790	-0.24697709
195	0x3e16c780	0.1472454
196	0x3c185241	0.009296955
197	0xbcdec571	-0.027193757
198	0xbe3c4cec	-0.18388718
199	0xbe400f48	-0.1875583
200	0x3ea19731	0.31560662
201	0xbee90d81	-0.45518115
202	0xbedcc3be	-0.4311809
203	0x3e25a693	0.16176824
204	0xbdd14dbd	-0.102199055
205	0x3eada1db	0.33912548
206	0xbe3de5b0	-0.1854465
207	0x3e3e0fd8	0.18560731
208	0x3d9ca02b	0.07647737
209	0x3e068436	0.13136372
210	0xbe0a7e1f	-0.13524674
211	0xbe801e5d	-0.25023165
212	0x3db1e1e5	0.08685664
213	0x3e16e135	0.14734347
214	0xbde9a238	-0.11407894
215	0x3de331bd	0.11093471
216	0xbd9814b0	-0.07425821
217	0xbcd3a696	-0.02583627
218	0xbd09cc82	-0.0336423
219	0xbdce3ffc	-0.10070798
220	0x3ed151c1	0.40882686
221	0x3eb97f93	0.36230144
222	0x3e31647a	0.17323485
223	0x3d98582f	0.07438695
224	0xbbcba73a	-0.0062150033
225	0x3de2a8c1	0.110673435
226	0x3efae873	0.4900547
227	0xbd37a67c	-0.044836506
228	0x3eb4969e	0.35271162
229	0x3b5046ea	0.003178055
230	0xbe45b1ce	-0.19306108
231	0x3c1fb570	0.009747848
232	0x3d0c50d5	0.034256775
233	0x3d8f76a0	0.07005048
234	0x3c284b28	0.010271825
235	0xbe9f5a59	-0.31123617
236	0x3dde1fa6	0.1084588
237	0xbe232971	-0.15933777
238	0x3ce3c4ce	0.027803805
239	0xbe3321df	-0.1749339
240	0xbf5585be	-0.834072
241	0xbe2444a2	-0.16041806
242	0x3d9476ce	0.07249223
243	0x3e922695	0.2854506
244	0xbd80fdd0	-0.06298411
245	0x3e17d4f9	0.14827336
246	0xbb6fe18c	-0.0036602942
247	0xbd5bd92e	-0.053673916
248	0x3de4e764	0.11176947
249	0x3e5bd9e2	0.21469834
250	0x3d3807e8	0.044929415
251	0x3f4823d9	0.781797
252	0xbe43e247	-0.19129287
253	0x3e1d4879	0.15359677
254	0x3e43b939	0.19113626
255	0x3dfd143f	0.12357377

critic.seq_model.model.weight_hh_l0 f4 [256, 64]
0	0x3dbb2984	0.09138778
1	0x3e36eb13	0.17863111
2	0xbe78701e	-0.2426152
3	0x3e439a3f	0.19101809
4	0x3e0e2851	0.13882567
5	0xbece98ab	-0.4035085
6	0xbdb14cfc	-0.08657262
7	0x3dc6f0ed	0.09713922
8	0xbd872688	-0.06599146
9	0x3e8f89ee	0.2803492
10	0xbec0cb90	-0.37655306
11	0xbad0ddc7	-0.0015935235
12	0x3da633b4	0.0811533
13	0xbd9707d5	-0.07374541
14	0x3e4e2ace	0.20133516
15	0x3e2f629d	0.17127462
16	0x3cfabbf9	0.03060721
17	0x3df26116	0.11834924
18	0x3ddbc187	0.10730272
19	0xbe7e4cc2	-0.24833968
20	0xbdbe4f33	-0.0929245
21	0xbea20cad	-0.31650296
22	0x3d9bbc42	0.07604267
23	0x3e598270	0.21241164
24	0xbe94a78d	-0.2903408
25	0xbe18cc7f	-0.14921759
26	0x3ee08bf5	0.4385678
27	0xbd5e12a7	-0.054217007
28	0xbc136d71	-0.008998261
29	0xbda0bcb8	-0.07848495
30	0xbd8d0a55	-0.06886736
31	0x3daab547	0.08335357
32	0x3eb60e78	0.35557914
33	0x3d0aa53b	0.033848982
34	0x3cc1e269	0.023667531
35	0x3e8bb55e	0.2728681
36	0xbf41de6d	-0.7573002
37	0xbe33b94f	-0.17551158
38	0xbe505f7b	-0.20348923
39	0x3e83a9af	0.25715396
40	0xbeaa6733	-0.3328186
41	0xbd1bfc5c	-0.038082466
42	0x3e8a8e4c	0.2706169
43	0xbb791fa7	-0.003801325
44	0x3d581b21	0.052760247
45	0x3e6f7103	0.23382954
46	0x3d845805	0.06462101
47	0x3e1c8a42	0.15287116
48	0x3d8276d7	0.06370323
49	0xbdaf6e3f	-0.0856595
50	0x3da10a68	0.07863313
51	0xbe84c9e9	-0.25935295
52	0xbd630547	-0.055424955
53	0x3e7a535a	0.24445859
54	0xbc63eb2f	-0.013911053
55	0xbd8c96fb	-0.06864735
56	0x3c456de9	0.01205013
57	0x3d4cdac9	0.050013337
58	0xbebdd81c	-0.3707894
59	0x3d9b7e49	0.07592446
60	0xbc526c62	-0.012843223
61	0x3d49299c	0.049111947
62	0x3d18b2ce	0.037279896
63	0x3e451e90	0.1924994
64	0xbd54db4a	-0.051966943
65	0xbc71f013	-0.014766711
66	0xbe755757	-0.23959099
67	0xbe963d83	-0.29343805
68	0xbe192e31	-0.14959027
69	0xbdf768e3	-0.120805524
70	0x3ec45995	0.38349596
71	0x3d85a30b	0.065252386
72	0x3e1dc34d	0.15406533
73	0xbc24ef42	-0.010066809
74	0x3d6339d8	0.055475086
75	0xbe364315	-0.17799027
76	0xbe8c3868	-0.27386785
77	0x3cf31ff1	0.029678317
78	0xbe44f138	-0.19232643
79	0xbd5d054c	-0.05396013
80	0xbe04f14c	-0.12982672
81	0x3b93f705	0.004515531
82	0x3e75d9fe	0.24008939
83	0x3d604b37	0.05475923
84	0xbe28f62e	-0.1650016
85	0x3dad6177	0.084658556
86	0xbeb2dd86	-0.34934634
87	0xbea261f3	-0.31715354
88	0xbb8b19a4	-0.004245
89	0xbe1b4f9d	-0.15167089
90	0xbd8037ca	-0.06260641
91	0xbd71caae	-0.05903118
92	0xbd0d5ab9	-0.034510348
93	0x3db9734b	0.090551935
94	0xbdae05d6	-0.08497207
95	0x3e88a182	0.2668572
96	0xbdaf098f	-0.08546745
97	0x3df3bacd	0.11900864
98	0x3ec7ed93	0.39048442
99	0xbe1924d3	-0.14955454
100	0xbe994553	-0.29935703
101	0xbd4c6d30	-0.049908817
102	0x3e47aba9	0.19499077
103	0xbdd886f7	-0.105726175
104	0x3d8f7e6e	0.070065364
105	0xbea636d9	-0.3246372
106	0xbe6f2b2e	-0.23356315
107	0x3e1b9794	0.15194541
108	0xbdb7217f	-0.08941936
109	0x3d94a810	0.07258618
110	0xbe3be1e8	-0.18347895
111	0x3e7959f7	0.24350725
112	0xbcd1c184	-0.02560497
113	0x3e624d91	0.22099902
114	0x3e9eeff3	0.31042442
115	0xbe7fa8f1	-0.2496679
116	0x3d3b0561	0.045659427
117	0x3d25cfe2	0.040481456
118	0x3d28fb2b	0.041255157
119	0x3db1d431	0.086830504
120	0xbb325b96	-0.0027215234
121	0xbc6d92f6	-0.01450037
122	0xbd8b95cf	-0.06815683
123	0xbe180095	-0.14843972
124	0x3e21d9eb	0.15805785
125	0xbacd58bb	-0.0015666703
126	0x3e98d414	0.29849303
127	0xbdd244b8	-0.10267013
128	0xbe5eb953	-0.21750383
129	0x3e9b6a0e	0.3035435
130	0xbd248b85	-0.04017212
131	0x3e4cfe52	0.2001889
132	0xbd812274	-0.063053995
133	0x3f0cd9f4	0.5502007
134	0xbf3f66ee	-0.74766433
135	0xbeb74d76	-0.35801286
136	0x3eaf6d10	0.34262896
137	0x3dbf5c0d	0.09343729
138	0x3f30d46a	0.6907412
139	0x3ef65da0	0.48118305
140	0x3e82ebbe	0.25570482
141	0xbe27ff46	-0.16405973
142	0x3e44cb3c	0.19218153
143	0x3f0dd203	0.5539858
144	0x3db6a64b	0.089184366
145	0x3ecc19b7	0.3986337
146	0x3c1f65db	0.009728874
147	0xbee3f3b5	-0.4452187
148	0xbd10a02b	-0.035308998
149	0x3c95c46f	0.018282143
150	0x3da1bd12	0.078973904
151	0x3eec821b	0.46193013
152	0xbdffdb67	-0.124930196
153	0xbec1cc1f	-0.37851045
154	0x3e8fcc7f	0.28085706
155	0x3de5dc2b	0.11223634
156	0xbeb29ff6	-0.34887666
157	0xbe4d0f4f	-0.20025371
158	0x3ec97382	0.39345938
159	0xbd394c4b	-0.045238774
160	0xbe086a15	-0.13321717
161	0xbe23e1ed	-0.16004153
162	0x3e5c4e76	0.21514305
163	0x3f377f4a	0.716786
164	0xbeacd723	-0.33757886
165	0x3e9d3742	0.3070622
166	0xbe24ca4a	-0.16092792
167	0x3ea626b3	0.324514
168	0x3e85584f	0.26043937
169	0xbdbea8c6	-0.09309535
170	0xbeb251d5	-0.34828058
171	0xbf12fda4	-0.57418275
172	0xbe9a57ea	-0.30145198
173	0xbe9a0b6a	-0.30086833
174	0x3e193ada	0.14963856
175	0xbdfb7b42	-0.12279369
176	0x3ddb2566	0.107004926
177	0xbdff8bcf	-0.12477838
178	0x3c5d68c7	0.01351375
179	0xbe08c37d	-0.13355823
180	0xbec3e124	-0.38257706
181	0x3ee23a82	0.44185263
182	0xbe3f7796	-0.18697962
183	0x3d56f3d4	0.052478626
184	0xbe2c76cc	-0.16842192
185	0xbe1a0b5a	-0.15043393
186	0xbeecd2ce	-0.4625458
187	0x3e04bb50	0.12962079
188	0x3f15cc0c	0.58514476
189	0xbf1498a1	-0.58045393
190	0x3e636c68	0.22209322
191	0x3e802acd	0.25032654
192	0xbe6bf5ca	-0.2304298
193	0x3f120954	0.57045484
194	0x3f00a5c0	0.50252914
195	0x3d91f802	0.07127382
196	0x3cfb994b	0.030712744
197	0x3f28e349	0.6597181
198	0xbf02f427	-0.51153797
199	0xbf112bba	-0.56707346
200	0x3daeeb8a	0.08541019
201	0xbd221fd8	-0.03958115
202	0x3e688448	0.22706711
203	0x3e8501f6	0.2597806
204	0xbd477dd8	-0.048704
205	0xbe91cbcf	-0.28475806
206	0x3d49a1d0	0.049226582
207	0xbc94b2ae	-0.018151607
208	0xbdc47e17	-0.09594362
209	0x3da77158	0.081759155
210	0xbec6d901	-0.38837436
211	0x3d9cdb06	0.07658963
212	0x3e652e23	0.22380881
213	0xbe4bba42	-0.1989527
214	0x3ba423bc	0.0050091427
215	0xbe121fbc	-0.14269918
216	0xbdf9caef	-0.1219691
217	0x3e3a3064	0.18182522
218	0x3f8f1d48	1.1180811
219	0x3ecfb585	0.40568176
220	0x3e6bfc7d	0.23045535
221	0xbf01baa5	-0.5067542
222	0x3ea51251	0.32240537
223	0x3da8b921	0.082384355
224	0x3e246428	0.16053832
225	0xbe5ae18f	-0.21375106
226	0x3e40f51f	0.18843506
227	0x3f05ad77	0.5221781
228	0x3e5f0690	0.21779847
229	0x3ec3b85e	0.38226599
230	0xbec40bb8	-0.3829019
231	0xbdaa4dba	-0.083156064
232	0x3c08c697	0.008348129
233	0x3e82393a	0.25434285
234	0xbe10bd4e	-0.14134714
235	0xbf03ce33	-0.5148651
236	0xbf6ddc8c	-0.9291465
237	0xbecc9930	-0.39960623
238	0x3eab1ce8	0.3342049
239	0xbd95d4c7	-0.07315975
240	0x3e3cc818	0.18435705
241	0xbd60d6e2	-0.05489243
242	0xbdce1c71	-0.100640185
243	0x3e38405c	0.17993301
244	0x3ddfbe78	0.10925001
245	0x3e5d0196	0.21582636
246	0xbeb3086c	-0.34967363
247	0x3e0ce38d	0.13758679
248	0xbe7b1684	-0.24520308
249	0xbe4982e9	-0.19678845
250	0x3edc004a	0.4296897
251	0x3c474617	0.012162707
252	0x3e880b98	0.26571345
253	0x3dea51c2	0.11441375
254	0xbb10bce2	-0.002208524
255	0x3e825c0e	0.25460857

critic.seq_model.model.bias_ih_l0 f4 [256]
0	0x3cae73f2	0.021295521
1	0x3e24f9be	0.16110894
2	0xbe2ecbed	-0.17069979
3	0x3de7a543	0.11310818
4	0xbdf5ab52	-0.119955674
5	0x3c1c7af3	0.009550798
6	0x3e0c1001	0.1367798
7	0xbd63bddc	-0.055600986
8	0x3f3a8a71	0.72867495
9	0x3c3db65b	0.011579121
10	0x3aaaf6a6	0.0013043478
11	0x3d3f5bce	0.04671841
12	0xbd85525c	-0.065098494
13	0x3cbadaa2	0.02280933
14	0xbc08299c	-0.008310702
15	0x3ccb1a7e	0.024792906
16	0x3e773fbe	0.2414541
17	0xbcb19fee	-0.021682706
18	0x3da16c76	0.078820154
19	0x3d9fd621	0.07804514
20	0x3c795591	0.0152181545
21	0x3cd015ec	0.025401078
22	0x3d795244	0.06086947
23	0x3d7c5733	0.061606597
24	0x3c658ab8	0.014010124
25	0x3bdce0b2	0.006740653
26	0xbc7c6c07	-0.015406615
27	0x3c4dbd97	0.012557409
28	0xbd7e4707	-0.062079456
29	0xbaad4d64	-0.0013221917
30	0x3d641e4e	0.055692963
31	0x3dc5487d	0.09632967
32	0xbd3e074b	-0.046393674
33	0x3d7f04c1	0.062260393
34	0xbca5a67d	-0.02022099
35	0xbbb1df44	-0.0054282267
36	0x3e4324f0	0.1905706
37	0xbd2efb2c	-0.042720005
38	0x3cbb170b	0.022838136
39	0xbbb12331	-0.0054058065
40	0x3d87f1fd	0.066379525
41	0x3d97a51c	0.07404539
42	0xbdcb1cd8	-0.09917611
43	0xbd537e71	-0.051634256
44	0x3c51779f	0.012784868
45	0x3dce4b37	0.1007294
46	0xbd0e8278	-0.034792393
47	0xbda555c6	-0.080730006
48	0x3dbc1366	0.091833875
49	0x3dd1fe97	0.10253637
50	0x3cc2c358	0.023774788
51	0x3d542419	0.051792238
52	0xbc83e66b	-0.016101083
53	0x3d89ea25	0.06734113
54	0xbb3c2ca1	-0.0028713124
55	0x3c9a1c04	0.018812187
56	0x3d1fa03a	0.038971163
57	0xbcae8fe5	-0.021308849
58	0xbd522dc0	-0.05131316
59	0xbc2ae9c4	-0.010431711
60	0x3d1cfa5a	0.03832469
61	0x3d03944f	0.03212386
62	0x3e18ad40	0.1490984
63	0xbb56c825	-0.0032773104
64	0xbd187108	-0.03721717
65	0xbd03106e	-0.03199809
66	0xbd4c430d	-0.049868632
67	0x3dba9070	0.091095805
68	0x3da6f1a2	0.081515566
69	0x3d0f892f	0.035042938
70	0x3daab2c6	0.083348796
71	0xbc23d069	-0.009998419
72	0x3d99fb9f	0.07518696
73	0x3b94d9a6	0.0045425473
74	0x3d40dd88	0.04708627
75	0x3d2f36c6	0.042776845
76	0xbbaa8fc5	-0.005205127
77	0x3d8ec619	0.06971378
78	0x3daf797d	0.08568094
79	0xbd0e575b	-0.034751277
80	0x3e136f1d	0.14397855
81	0x3d7fe464	0.06247367
82	0x3d698f9d	0.057021726
83	0x3d7f81e0	0.062379718
84	0x3d3492ad	0.044085193
85	0xbca6e5eb	-0.020373305
86	0x3d8f4d47	0.06997161
87	0xbcb2234a	-0.021745343
88	0x3d7486df	0.059698936
89	0xbce43d7e	-0.027861353
90	0x3cd9897c	0.026554815
91	0xbd274fff	-0.040847775
92	0xbc96c31f	-0.018403588
93	0x3d2a9a58	0.0416511
94	0x3d9339b7	0.071887426
95	0x3d832473	0.064034365
96	0xbd861f6d	-0.06548963
97	0x3d782030	0.06057757
98	0xbcb2dcf9	-0.021833884
99	0x3dfd2df3	0.1236228
100	0xbcba6f39	-0.022758113
101	0x3dd4eaed	0.10396371
102	0xbb8b30f5	-0.0042477795
103	0x3d318787	0.04334214
104	0xbe448a3b	-0.19193356
105	0x3d91302d	0.07089267
106	0x3dba0cbf	0.090844624
107	0xbb34756a	-0.0027535805
108	0xbc9557af	-0.018230287
109	0x3d72141f	0.05910122
110	0x3d26fc8a	0.040768184
111	0xbd7ecef8	-0.0622091
112	0x3dec3549	0.11533601
113	0x3b0aa62e	0.002115618
114	0x3d87923d	0.066196896
115	0x3d58177d	0.052756775
116	0x3d7b6ae5	0.06138124
117	0x3da34b2d	0.07973323
118	0x3cfdd443	0.030985003
119	0x3d7e0260	0.062013984
120	0x3de8149f	0.11332058
121	0x3cbacdc2	0.022803191
122	0xbca8df44	-0.020614274
123	0x3d29a1ac	0.041413948
124	0x3cdfb2cb	0.027306935
125	0x3d45ca81	0.048288826
126	0x3ca8bfcb	0.020599267
127	0x3d38ea56	0.045145355
128	0xbccd855e	-0.025088008
129	0xbd37ce26	-0.044874333
130	0xbc8b7c16	-0.017026942
131	0xbcf3eeb7	-0.029776914
132	0xbd39ad82	-0.045331486
133	0xbbb4f017	-0.005521785
134	0x3d5f24ad	0.054478336
135	0xbcdea418	-0.027177855
136	0xbe234c38	-0.15947044
137	0xbd8c81aa	-0.06860669
138	0xbd404584	-0.046941295
139	0xbd746402	-0.059665687
140	0xbab0ee64	-0.001349878
141	0xbb83ea93	-0.004025766
142	0x3bf8f83d	0.0075979517
143	0xbdb7d812	-0.08976759
144	0x3df83a59	0.12120504
145	0xba8d9294	-0.001080113
146	0x3c85b289	0.016320484
147	0xbd325370	-0.043536603
148	0xbc13dc49	-0.009024688
149	0x3d28b89c	0.041191682
150	0x3c0370fc	0.008022543
151	0xbd7f952f	-0.062398132
152	0x3bad193f	0.0052825506
153	0x3d49557c	0.04915379
154	0xbda01ce3	-0.0781801
155	0xbcc27cc3	-0.023741132
156	0x3c630aea	0.013857583
157	0xbbbdaded	-0.005788556
158	0x3abba699	0.0014316618
159	0xbd0fadfe	-0.03507804
160	0xbd412203	-0.047151577
161	0xbd29cb60	-0.04145372
162	0xbd185883	-0.037193786
163	0xbcd700d2	-0.026245508
164	0x3d7a8ef6	0.061171494
165	0x3bc45120	0.005991116
166	0x3c2b70e3	0.010463926
167	0xbd8cd3e6	-0.06876354
168	0xbd46cfb8	-0.04853794
169	0x3cff5283	0.031167274
170	0x3d4d28ae	0.050087623
171	0x3b5da0e3	0.003381782
172	0x3cebf571	0.028803559
173	0x3d43c189	0.04779199
174	0xbc21706a	-0.009853462
175	0xb992c293	-0.0002799226
176	0xbca0c261	-0.019623937
177	0x3d5f5804	0.054527298
178	0x3c956781	0.018237831
179	0x3c8a1617	0.016856236
180	0x3d386666	0.04501953
181	0xbcc67aad	-0.024228418
182	0xbc84444d	-0.01614585
183	0xbd324e55	-0.043531734
184	0x3d28ae89	0.041182075
185	0x3da90ea6	0.08254747
186	0x3d52c7aa	0.051459946
187	0xbd132c6b	-0.035931032
188	0xbc76bf13	-0.015060204
189	0x3a9d15ce	0.0011984648
190	0x3c843ccc	0.016142271
191	0xbd0c6fdf	-0.034286376
192	0x3d75561f	0.059896585
193	0x3e5ec7fd	0.21755977
194	0xbd4e3000	-0.050338745
195	0x3dbc1a2f	0.091846816
196	0x3cb881fd	0.02252292
197	0x3dd822b9	0.10553498
198	0x3e484e76	0.1956118
199	0xbcf7e166	-0.030258846
200	0x3ecfbd3a	0.40574056
201	0x3d7d3edd	0.06182753
202	0x3e04afe3	0.1295772
203	0x3d8d4947	0.06898742
204	0xbbac4f62	-0.0052584866
205	0x3db2e003	0.08734133
206	0x3d9d0ebd	0.07668827
207	0x3e20c292	0.15699223
208	0x3e84ab90	0.25912142
209	0x3cf0498f	0.02933195
210	0x3e07f0ae	0.13275406
211	0x3df6bf7f	0.12048244
212	0x3c023a36	0.007948449
213	0x3def84ef	0.11695277
214	0x3da32cb9	0.079675145
215	0x3df5ae5d	0.11996148
216	0x3d615544	0.055012956
217	0x3de31873	0.11088648
218	0x3dcfbec4	0.101438075
219	0xbc00787c	-0.007841226
220	0xbcbc5dc1	-0.022993924
221	0x3d11998a	0.035546817
222	0x3db6e387	0.08930116
223	0x3e0ac5f1	0.13552071
224	0x3e02eff1	0.12786843
225	0x3d8049ad	0.062640525
226	0xbcdc5f53	-0.026900923
227	0x3e49f6b1	0.19723012
228	0x3dbc0015	0.09179703
229	0x3d8ed277	0.06973737
230	0x3d266fa2	0.040633805
231	0x3d35c208	0.044374496
232	0x3e8bd4bf	0.2731075
233	0x3d9e37ac	0.07725462
234	0x3e3b1127	0.18268262
235	0xbc44df05	-0.012016063
236	0x3dd9d7d1	0.10636867
237	0x3de2ea2a	0.110798195
238	0x3c932d8c	0.017966054
239	0xbd846c8c	-0.06466016
240	0x3dbfc2c0	0.093633175
241	0xbd045d0d	-0.032315303
242	0x3d63e045	0.055633802
243	0x3e40f2b9	0.18842591
244	0x3dd076f9	0.10178942
245	0x3da93830	0.0826267
246	0x3c9e1c34	0.019300558
247	0x3df5ae6c	0.11996159
248	0x3de39549	0.11112458
249	0x3cebd093	0.02878598
250	0x3c80559f	0.015665827
251	0x3d843048	0.064545214
252	0x3cb59934	0.02216778
253	0x3d8f556d	0.069987155
254	0x3dc13a1f	0.09434914
255	0x3d9e704a	0.07736261

critic.seq_model.model.bias_hh_l0 f4 [256]
0	0x3cae73f2	0.021295521
1	0x3e24f9be	0.16110894
2	0xbe2ecbed	-0.17069979
3	0x3de7a543	0.11310818
4	0xbdf5ab52	-0.119955674
5	0x3c1c7af3	0.009550798
6	0x3e0c1001	0.1367798
7	0xbd63bddc	-0.055600986
8	0x3f3a8a71	0.72867495
9	0x3c3db65b	0.011579121
10	0x3aaaf6a6	0.0013043478
11	0x3d3f5bce	0.04671841
12	0xbd85525c	-0.065098494
13	0x3cbadaa2	0.02280933
14	0xbc08299c	-0.008310702
15	0x3ccb1a7e	0.024792906
16	0x3e773fbe	0.2414541
17	0xbcb19fee	-0.021682706
18	0x3da16c76	0.078820154
19	0x3d9fd621	0.07804514
20	0x3c795591	0.0152181545
21	0x3cd015ec	0.025401078
22	0x3d795244	0.06086947
23	0x3d7c5733	0.061606597
24	0x3c658ab8	0.014010124
25	0x3bdce0b2	0.006740653
26	0xbc7c6c07	-0.015406615
27	0x3c4dbd97	0.012557409
28	0xbd7e4707	-0.062079456
29	0xbaad4d64	-0.0013221917
30	0x3d641e4e	0.055692963
31	0x3dc5487d	0.09632967
32	0xbd3e074b	-0.046393674
33	0x3d7f04c1	0.062260393
34	0xbca5a67d	-0.02022099
35	0xbbb1df44	-0.0054282267
36	0x3e4324f0	0.1905706
37	0xbd2efb2c	-0.042720005
38	0x3cbb170b	0.022838136
39	0xbbb12331	-0.0054058065
40	0x3d87f1fd	0.066379525
41	0x3d97a51c	0.07404539
42	0xbdcb1cd8	-0.09917611
43	0xbd537e71	-0.051634256
44	0x3c51779f	0.012784868
45	0x3dce4b37	0.1007294
46	0xbd0e8278	-0.034792393
47	0xbda555c6	-0.080730006
48	0x3dbc1366	0.091833875
49	0x3dd1fe97	0.10253637
50	0x3cc2c358	0.023774788
51	0x3d542419	0.051792238
52	0xbc83e66b	-0.016101083
53	0x3d89ea25	0.06734113
54	0xbb3c2ca1	-0.0028713124
55	0x3c9a1c04	0.018812187
56	0x3d1fa03a	0.038971163
57	0xbcae8fe5	-0.021308849
58	0xbd522dc0	-0.05131316
59	0xbc2ae9c4	-0.010431711
60	0x3d1cfa5a	0.03832469
61	0x3d03944f	0.03212386
62	0x3e18ad40	0.1490984
63	0xbb56c825	-0.0032773104
64	0xbd187108	-0.03721717
65	0xbd03106e	-0.03199809
66	0xbd4c430d	-0.049868632
67	0x3dba9070	0.091095805
68	0x3da6f1a2	0.081515566
69	0x3d0f892f	0.035042938
70	0x3daab2c6	0.083348796
71	0xbc23d069	-0.009998419
72	0x3d99fb9f	0.07518696
73	0x3b94d9a6	0.0045425473
74	0x3d40dd88	0.04708627
75	0x3d2f36c6	0.042776845
76	0xbbaa8fc5	-0.005205127
77	0x3d8ec619	0.06971378
78	0x3daf797d	0.08568094
79	0xbd0e575b	-0.034751277
80	0x3e136f1d	0.14397855
81	0x3d7fe464	0.06247367
82	0x3d698f9d	0.057021726
83	0x3d7f81e0	0.062379718
84	0x3d3492ad	0.044085193
85	0xbca6e5eb	-0.020373305
86	0x3d8f4d47	0.06997161
87	0xbcb2234a	-0.021745343
88	0x3d7486df	0.059698936
89	0xbce43d7e	-0.027861353
90	0x3cd9897c	0.026554815
91	0xbd274fff	-0.040847775
92	0xbc96c31f	-0.018403588
93	0x3d2a9a58	0.0416511
94	0x3d9339b7	0.071887426
95	0x3d832473	0.064034365
96	0xbd861f6d	-0.06548963
97	0x3d782030	0.06057757
98	0xbcb2dcf9	-0.021833884
99	0x3dfd2df3	0.1236228
100	0xbcba6f39	-0.022758113
101	0x3dd4eaed	0.10396371
102	0xbb8b30f5	-0.0042477795
103	0x3d318787	0.04334214
104	0xbe448a3b	-0.19193356
105	0x3d91302d	0.07089267
106	0x3dba0cbf	0.090844624
107	0xbb34756a	-0.0027535805
108	0xbc9557af	-0.018230287
109	0x3d72141f	0.05910122
110	0x3d26fc8a	0.040768184
111	0xbd7ecef8	-0.0622091
112	0x3dec3549	0.11533601
113	0x3b0aa62e	0.002115618
114	0x3d87923d	0.066196896
115	0x3d58177d	0.052756775
116	0x3d7b6ae5	0.06138124
117	0x3da34b2d	0.07973323
118	0x3cfdd443	0.030985003
119	0x3d7e0260	0.062013984
120	0x3de8149f	0.11332058
121	0x3cbacdc2	0.022803191
122	0xbca8df44	-0.020614274
123	0x3d29a1ac	0.041413948
124	0x3cdfb2cb	0.027306935
125	0x3d45ca81	0.048288826
126	0x3ca8bfcb	0.020599267
127	0x3d38ea56	0.045145355
128	0xbccd855e	-0.025088008
129	0xbd37ce26	-0.044874333
130	0xbc8b7c16	-0.017026942
131	0xbcf3eeb7	-0.029776914
132	0xbd39ad82	-0.045331486
133	0xbbb4f017	-0.005521785
134	0x3d5f24ad	0.054478336
135	0xbcdea418	-0.027177855
136	0xbe234c38	-0.15947044
137	0xbd8c81aa	-0.06860669
138	0xbd404584	-0.046941295
139	0xbd746402	-0.059665687
140	0xbab0ee64	-0.001349878
141	0xbb83ea93	-0.004025766
142	0x3bf8f83d	0.0075979517
143	0xbdb7d812	-0.08976759
144	0x3df83a59	0.12120504
145	0xba8d9294	-0.001080113
146	0x3c85b289	0.016320484
147	0xbd325370	-0.043536603
148	0xbc13dc49	-0.009024688
149	0x3d28b89c	0.041191682
150	0x3c0370fc	0.008022543
151	0xbd7f952f	-0.062398132
152	0x3bad193f	0.0052825506
153	0x3d49557c	0.04915379
154	0xbda01ce3	-0.0781801
155	0xbcc27cc3	-0.023741132
156	0x3c630aea	0.013857583
157	0xbbbdaded	-0.005788556
158	0x3abba699	0.0014316618
159	0xbd0fadfe	-0.03507804
160	0xbd412203	-0.047151577
161	0xbd29cb60	-0.04145372
162	0xbd185883	-0.037193786
163	0xbcd700d2	-0.026245508
164	0x3d7a8ef6	0.061171494
165	0x3bc45120	0.005991116
166	0x3c2b70e3	0.010463926
167	0xbd8cd3e6	-0.06876354
168	0xbd46cfb8	-0.04853794
169	0x3cff5283	0.031167274
170	0x3d4d28ae	0.050087623
171	0x3b5da0e3	0.003381782
172	0x3cebf571	0.028803559
173	0x3d43c189	0.04779199
174	0xbc21706a	-0.009853462
175	0xb992c293	-0.0002799226
176	0xbca0c261	-0.019623937
177	0x3d5f5804	0.054527298
178	0x3c956781	0.018237831
179	0x3c8a1617	0.016856236
180	0x3d386666	0.04501953
181	0xbcc67aad	-0.024228418
182	0xbc84444d	-0.01614585
183	0xbd324e55	-0.043531734
184	0x3d28ae89	0.041182075
185	0x3da90ea6	0.08254747
186	0x3d52c7aa	0.051459946
187	0xbd132c6b	-0.035931032
188	0xbc76bf13	-0.015060204
189	0x3a9d15ce	0.0011984648
190	0x3c843ccc	0.016142271
191	0xbd0c6fdf	-0.034286376
192	0x3d75561f	0.059896585
193	0x3e5ec7fd	0.21755977
194	0xbd4e3000	-0.050338745
195	0x3dbc1a2f	0.091846816
196	0x3cb881fd	0.02252292
197	0x3dd822b9	0.10553498
198	0x3e484e76	0.1956118
199	0xbcf7e166	-0.030258846
200	0x3ecfbd3a	0.40574056
201	0x3d7d3edd	0.06182753
202	0x3e04afe3	0.1295772
203	0x3d8d4947	0.06898742
204	0xbbac4f62	-0.0052584866
205	0x3db2e003	0.08734133
206	0x3d9d0ebd	0.07668827
207	0x3e20c292	0.15699223
208	0x3e84ab90	0.25912142
209	0x3cf0498f	0.02933195
210	0x3e07f0ae	0.13275406
211	0x3df6bf7f	0.12048244
212	0x3c023a36	0.007948449
213	0x3def84ef	0.11695277
214	0x3da32cb9	0.079675145
215	0x3df5ae5d	0.11996148
216	0x3d615544	0.055012956
217	0x3de31873	0.11088648
218	0x3dcfbec4	0.101438075
219	0xbc00787c	-0.007841226
220	0xbcbc5dc1	-0.022993924
221	0x3d11998a	0.035546817
222	0x3db6e387	0.08930116
223	0x3e0ac5f1	0.13552071
224	0x3e02eff1	0.12786843
225	0x3d8049ad	0.062640525
226	0xbcdc5f53	-0.026900923
227	0x3e49f6b1	0.19723012
228	0x3dbc0015	0.09179703
229	0x3d8ed277	0.06973737
230	0x3d266fa2	0.040633805
231	0x3d35c208	0.044374496
232	0x3e8bd4bf	0.2731075
233	0x3d9e37ac	0.07725462
234	0x3e3b1127	0.18268262
235	0xbc44df05	-0.012016063
236	0x3dd9d7d1	0.10636867
237	0x3de2ea2a	0.110798195
238	0x3c932d8c	0.017966054
239	0xbd846c8c	-0.06466016
240	0x3dbfc2c0	0.093633175
241	0xbd045d0d	-0.032315303
242	0x3d63e045	0.055633802
243	0x3e40f2b9	0.18842591
244	0x3dd076f9	0.10178942
245	0x3da93830	0.0826267
246	0x3c9e1c34	0.019300558
247	0x3df5ae6c	0.11996159
248	0x3de39549	0.11112458
249	0x3cebd093	0.02878598
250	0x3c80559f	0.015665827
251	0x3d843048	0.064545214
252	0x3cb59934	0.02216778
253	0x3d8f556d	0.069987155
254	0x3dc13a1f	0.09434914
255	0x3d9e704a	0.07736261

critic.qf.fc0.weight f4 [256, 64]
0	0x3cacb4fa	0.02108239
1	0x3d99a397	0.075019054
2	0x3dc19689	0.094525404
3	0x3e081e1d	0.13292737
4	0xbe8dc7b6	-0.2769143
5	0x3cbcb025	0.023033211
6	0x3e8d358b	0.27579913
7	0xbebe4390	-0.3716092
8	0xbd97888a	-0.0739909
9	0xbbe44d00	-0.006967187
10	0x3dd8cfb7	0.105864935
11	0xbe778399	-0.24171294
12	0xbe8fe3e2	-0.28103548
13	0x3cafb143	0.02144683
14	0xbde8d1a7	-0.11368113
15	0x3e4b8a65	0.19877012
16	0x3d9b7653	0.07590928
17	0x3dad317a	0.084567025
18	0xbc9fc15f	-0.019501386
19	0xbeed7bfd	-0.46383658
20	0x3dc7d3b3	0.09757175
21	0x3dc75527	0.097330384
22	0xbe061241	-0.13092901
23	0x3d97ce5d	0.074124075
24	0xbe073c0c	-0.132065
25	0x3cdbd1b2	0.026833389
26	0xbcfdab9d	-0.03096562
27	0xbe923ad9	-0.28560522
28	0xbdcf3866	-0.10118179
29	0x3c9f2101	0.019424917
30	0xbe0c864a	-0.13723102
31	0x3d8f8a45	0.07008795
32	0x3ce4edc9	0.027945416
33	0x3d216957	0.0394071
34	0x3c24f232	0.0100675095
35	0x3d8cc70e	0.06873904
36	0xbdee3385	-0.1163092
37	0x3d1bb402	0.038013466
38	0x3e028f15	0.12749894
39	0xbe3e0180	-0.1855526
40	0x3e3c81eb	0.18408935
41	0x3d676982	0.056497104
42	0xbe6740dd	-0.22583337
43	0xbcb6eb1b	-0.022328904
44	0xbdbdd74a	-0.09269579
45	0x3eaff9ae	0.34370178
46	0x3d9394c5	0.0720611
47	0xbde48901	-0.11158944
48	0x3e0a63f6	0.13514695
49	0x3d1fce9a	0.03901539
50	0xbd83d5fe	-0.064373
51	0xbe26eca8	-0.16301215
52	0xbda989fb	-0.08278271
53	0xbc9ae3e9	-0.018907504
54	0xbdf19b92	-0.11797251
55	0xbdc902e3	-0.09815004
56	0x3d9933fb	0.074806176
57	0x3c824e93	0.015906608
58	0x3e67737d	0.22602649
59	0x3c8df15c	0.017327003
60	0xbe50a1da	-0.20374241
61	0xbdabde4c	-0.08392009
62	0xbda5af98	-0.080901325
63	0x3c8c83e3	0.017152732
64	0xbe144921	-0.14481021
65	0xbd151c82	-0.03640414
66	0x3d24a4a5	0.04019608
67	0x3d354ff6	0.04426571
68	0x3db47fae	0.088134155
69	0x3e37b2ee	0.1793935
70	0x3db4f90c	0.088365644
71	0x3c6dba82	0.014509799
72	0xbccd694b	-0.025074622
73	0x3dd3047c	0.1030359
74	0xbd28d554	-0.04121907
75	0xbe099aed	-0.13438006
76	0x3e2c4ac4	0.16825396
77	0xbd3ab92d	-0.045586754
78	0x3e63c195	0.22241814
79	0x3e25a368	0.16175616
80	0xbbc63bc0	-0.006049603
81	0x3d5d22ee	0.05398839
82	0xbddb41cf	-0.10705911
83	0xbd8e4aaf	-0.069478385
84	0x3d00b392	0.03142125
85	0x3e02dac9	0.12778772
86	0xbc767713	-0.015043038
87	0x3d5de2cd	0.054171372
88	0x3b03f5dd	0.002013556
89	0x3dccd294	0.10001102
90	0xbd21047c	-0.039310917
91	0xbcb0c00b	-0.021575948
92	0x3e22481f	0.15847825
93	0xbdae0e30	-0.084988
94	0x3d2e89ed	0.042612005
95	0xbd14fa6b	-0.03637163
96	0x3e69762a	0.22798982
97	0xbc94f06e	-0.018181052
98	0x3cbaa8b5	0.022785524
99	0x3e00bc46	0.1257182
100	0xbd6b9aee	-0.0575208
101	0xbda410f6	-0.080110475
102	0x3cd794a5	0.026315996
103	0x3cefcfeb	0.029273948
104	0x3a9620d4	0.0011453875
105	0x3e2f1c5b	0.1710066
106	0x3b6e736f	0.0036384722
107	0x3ddce8fb	0.10786625
108	0x3e698dc0	0.2280798
109	0xbe91fddb	-0.2851399
110	0xbdcab006	-0.09896855
111	0x3d43caa2	0.047800668
112	0xbc6bbe8d	-0.014388693
113	0x3d0fc9aa	0.03510443
114	0xbde6fa19	-0.11278171
115	0xbdea0859	-0.114273734
116	0x3bdc7b0c	0.0067285355
117	0xbd85509b	-0.06509515
118	0xbe57c6b1	-0.21071889
119	0x3e0c47af	0.1369922
120	0x3e0f9073	0.14019947
121	0xbde51ad7	-0.1118676
122	0x3d48edf8	0.04905507
123	0xbdcb30ce	-0.09921418
124	0x3d30f94d	0.0432065
125	0x3d39c14f	0.04535037
126	0x3d1b1c52	0.037868805
127	0x3d104948	0.035226136
128	0x3e73709f	0.2377343
129	0xbe90a22c	-0.28248727
130	0xbdff7b83	-0.1247473
131	0x3d1c1d8c	0.038114116
132	0x3de678f9	0.112535425
133	0x3cdbf36e	0.026849475
134	0x3ea31af1	0.31856492
135	0xbe143a2b	-0.14475314
136	0xbd84b91a	-0.06480618
137	0xbdb33931	-0.08751143
138	0xbc078c7a	-0.008273238
139	0xbe2d4ac7	-0.16923057
140	0xbd15a594	-0.03653486
141	0xbd2862fd	-0.041110028
142	0xbcb41c88	-0.021986261
143	0x3df565af	0.11982285
144	0xbdefd537	-0.117105894
145	0xbc1330b8	-0.008983783
146	0x3d421483	0.047382843
147	0x3dc3e36b	0.09564861
148	0x3db028a8	0.086015046
149	0xbe23b1db	-0.15985815
150	0x3e41f4e2	0.18941072
151	0xbe19bc1b	-0.15013163
152	0x3c4add95	0.012381931
153	0xbda17300	-0.07883263
154	0x3d50a291	0.050936285
155	0xbdd40df6	-0.10354225
156	0x3dcd4e48	0.100246966
157	0x3ce90754	0.028445877
158	0x3babba9d	0.005240752
159	0xbd2b0fc0	-0.041763067
160	0x3ea9dea4	0.33177674
161	0xbdbadda1	-0.091243036
162	0xbe724d8e	-0.23662397
163	0x3d0d093b	0.03443263
164	0x3dd4a359	0.103827186
165	0x3b6ceae3	0.0036150746
166	0xbcc08490	-0.02350071
167	0xbd9c8a38	-0.07643551
168	0xbdb34394	-0.08753124
169	0x3dcf307e	0.10116671
170	0xbc88816a	-0.016663272
171	0x3da3dd5b	0.080012046
172	0x3d7488ed	0.059700895
173	0x3e2418c1	0.16025068
174	0x3d10c62c	0.03534524
175	0xbcc5beff	-0.024138926
176	0x3d0094fa	0.031392075
177	0xbddee664	-0.10883787
178	0x3d96d779	0.07365317
179	0xbe290f3c	-0.16509718
180	0x3c9c6d0e	0.01909497
181	0x3e00b541	0.12569143
182	0x3d3d3354	0.04619153
183	0x3e2570fc	0.16156381
184	0xbe27e224	-0.1639486
185	0x3e6e0e1e	0.23247573
186	0xbe2815e5	-0.16414602
187	0xbcc664fe	-0.024218079
188	0x3d0e98cc	0.034813687
189	0xbd9c62c2	-0.07636024
190	0xbb34d0ec	-0.0027590347
191	0x3d07c7b7	0.033149447
192	0x3b539d9f	0.0032289994
193	0xbe869bd7	-0.2629077
194	0xbbbc8398	-0.005752992
195	0x3e0722da	0.13196889
196	0xbdef41bc	-0.1168246
197	0xbbdba1f1	-0.0067026545
198	0x3d1ee1a1	0.038789395
199	0xbe1672ee	-0.1469228
200	0xbd887e07	-0.06664663
201	0xbd5cfd9b	-0.053952795
202	0x3c97ffa0	0.018554509
203	0xbce42a92	-0.02785233
204	0x3d963d33	0.073358916
205	0x3d1a1fbe	0.037627928
206	0x3deeebfa	0.11666103
207	0x3e81de98	0.25365138
208	0x3ddc198f	0.107470624
209	0x3e0cd9f3	0.13755016
210	0x3e301cd2	0.17198494
211	0x3e6bbae6	0.23020515
212	0xbd758511	-0.059941355
213	0xbd5d27c8	-0.053993016
214	0x3cf52fcf	0.029930023
215	0x3e1e58f2	0.15463617
216	0x3dc14fb9	0.09439034
217	0xbcde541a	-0.027139712
218	0xbdf3411d	-0.11877654
219	0x3df69d71	0.12041748
220	0xbd846cdf	-0.06466078
221	0xbe28860a	-0.16457382
222	0x3d8ff2ba	0.07028718
223	0x3d8820d5	0.06646887
224	0xbe5431f2	-0.20722178
225	0xbcf2f097	-0.029655738
226	0xbd0aa77d	-0.033851136
227	0x3d30e172	0.04318375
228	0x3e215f2f	0.15758966
229	0x3e2fb82b	0.17160098
230	0xbe5aa2c0	-0.21351147
231	0x3e341249	0.175851
232	0xbc91c3f3	-0.017793631
233	0x3d6c3533	0.057667922
234	0x3c686dfe	0.01418638
235	0x3d05be99	0.03265247
236	0xbe3da440	-0.18519688
237	0x3d053f52	0.03253109
238	0xbd88f6c4	-0.06687692
239	0x3cfd3480	0.030908823
240	0xbc8d4c5f	-0.01724833
241	0xbd8a8981	-0.06764508
242	0xbdb32921	-0.08748079
243	0xbe3d3fde	-0.18481395
244	0xbe1e8916	-0.15481982
245	0xbe1ab83f	-0.15109347
246	0xbdfa4ec3	-0.12222054
247	0xbe73ce2f	-0.23809122
248	0x3d553dbc	0.052060828
249	0xbe89fcc7	-0.26950666
250	0x3ba3c5c3	0.0049979403
251	0xbe4d11ef	-0.20026372
252	0x3bc34970	0.005959682
253	0x3d5824a9	0.052769337
254	0xbd6ba487	-0.057529952
255	0xbe47a3cc	-0.19496077
