TFPORL-main/pomdp-discrete/logs_results/network-defender/preliminary/lstm-30000/seed-1/save/agent_0025500_perf-43.860.pt (torch, 941672 bytes, 28 tensors)

critic.observ_embedder.fc.weight f4 [32, 15]
0.71243453 -0.17676717 -0.4523928 -0.23015875 -0.8708407 0.76600003 0.1746827 0.72567034
0.032157496 -0.22240734 0.03935348 0.23567508 0.62423795 0.11807387 -0.08074474 -0.107572764
0.59595674 -0.27819413 0.72675157 0.18807541 0.06037014 -0.04719442 -0.16170113 -0.26867342
-0.38802576 0.06422006 -0.036107905 -0.12967902 -0.4513362 1.0993085 0.31178638 0.7465217
0.6464113 -0.582528 -0.26213527 -0.24248032 0.72377294 -0.2981564 0.379419 -0.043578234
0.76761717 -0.45139664 0.6797382 -0.2022283 -0.31544635 0.116257004 -0.11962291 0.2796472
0.04127607 0.013607843 -1.0678458 -0.07096289 0.5189884 -0.18396415 0.23981054 0.36715811
-0.15938102 -0.66047794 0.07737932 0.014452386 -0.06898314 0.14416103 -0.0637612 0.15488562
0.015673695 -0.09213659 0.08019364 0.22263163 0.1746857 -1.1188928 0.37858608 -0.12539522
0.11922435 0.16485348 0.051753636 0.07924546 0.19224322 -0.15107259 -0.6849511 0.7572828
-0.30502516 -0.28922114 -0.056024317 -0.037494775 0.46644056 -0.10990557 -0.29546526 0.4190181
-0.06352115 0.22705424 0.21704936 -0.15492444 0.18960458 0.8999021 0.06479425 -0.09903301
0.04306069 0.53535813 -0.5147799 0.022986958 0.6450489 0.36508536 -0.15278243 0.5459761
0.14898014 -0.32455218 0.52776307 0.05510891 -0.22223026 -0.11186888 -0.11787367 -0.016918086
-0.26839918 -0.15652585 0.57184255 0.39510274 0.58715564 -0.009363831 -0.48593014 -0.23049821
-0.18553069 -0.068668075 0.63478404 -0.4714882 0.71751237 -0.10028839 -0.8012428 -0.00020555538
-0.026397897 1.0278928 -0.6063236 0.24827242 0.78161544 0.7385196 0.4096411 1.4863087
-0.16122031 0.29157028 -0.00038828148 0.25797957 -0.42090866 0.21838742 -0.098440126 -0.020287659
0.5836856 -0.40291306 0.3188376 -0.06367749 -0.18471609 0.7555735 -0.3869485 0.3557597
-0.21847938 -0.2100016 -0.392476 -0.6175797 0.07594271 0.058506764 0.18451798 -0.11322338
-0.12902856 0.63576996 0.30816367 0.45820782 0.040405426 0.16789429 -0.41981652 -0.23906714
-0.429248 -0.08367965 0.08502638 0.35523576 0.2973264 0.8828589 0.3058352 0.81136394
-0.11570063 0.0059764176 -0.40807834 0.9232288 -0.3514553 -0.32978365 -0.059650082 -0.40473378
8.922511e-05 1.3060899 -0.20720713 -0.094180696 -0.16370907 0.061466865 0.030779585 -0.10879761
-0.077588215 0.110509284 -0.07260989 -0.14397903 0.44293547 0.27353862 0.6780795 0.060937636
0.46818203 -0.26883784 0.56700546 0.119149186 0.5224536 0.028686011 0.047881804 -0.17079288
0.085938506 0.3638096 0.27293196 -0.5083133 -0.40238118 0.20275073 0.2744518 0.5265161
0.3050738 -0.28654033 -0.13297026 0.03060115 -0.2717533 0.4482161 -0.45655042 -0.19293098
0.11568249 -0.27280745 0.093117945 -0.6157554 0.06138288 0.68515277 0.22084919 -0.15545668
1.0276167 -0.04013918 -0.059145536 0.23456308 -0.69869727 0.18381092 0.1513404 -0.49349558
0.039742615 -0.09622616 0.23875265 0.37175828 -0.20060666 0.10383774 -0.23490825 -0.07399569
-0.430961 0.2109378 0.6032775 -0.14302321 -0.19654088 0.09230267 0.3973214 -0.4202245
00000000: 1c62 363f 7402 35be 07a0 e7be bcae 6bbe
00000010: 6bef 5ebf 9418 443f 06e0 323e 88c5 393f
00000020: 94b7 033d c0be 63be 1d31 213d cf54 713e
00000030: 0fce 1f3f b7d0 f13d 805d a5bd 1c4f dcbd
00000040: 9f90 183f 766f 8ebe 640c 3a3f d796 403e
00000050: ae46 773d f04e 41bd fb94 25be 908f 89be
00000060: 50ab c6be cf85 833d e2e5 13bd 94ca 04be
00000070: 8a15 e7be 24b6 8c3f 77a2 9f3e 0c1c 3f3f
00000080: 367b 253f 8e20 15bf 9836 86be c34c 78be
00000090: 2f49 393f f5a7 98be 3543 c23e 177f 32bd
000000a0: 8f82 443f 761d e7be 5303 2e3f ef14 4fbe
000000b0: 2f82 a1be 2718 ee3d dbfc f4bd eb2d 8f3e
000000c0: 1911 293d 6ef3 5e3c 2caf 88bf fe54 91bd
000000d0: 6cdc 043f 1961 3cbe e590 753e 26fc bb3e
000000e0: c734 23be 1515 29bf 0d79 9e3d b3c9 6c3c
000000f0: 0847 8dbd f39e 133e 3b95 82bd 569a 1e3e
00000100: 1f66 803c 1cb2 bcbd 903c a43d 8cf9 633e
00000110: cfe0 323e e137 8fbf 09d6 c13e 9b67 00be
00000120: e52b f43d 5acf 283e 9ffb 533d 724b a23d
00000130: 68db 443e c6b2 1abe f558 2fbf 49dd 413f
00000140: 422c 9cbe cb14 94be c179 65bd 1f94 19bd
00000150: 4cd1 ee3e 2c16 e1bd 3947 97be 8a89 d63e
00000160: 6017 82bd e880 683e 3042 5e3e 83a4 1ebe
00000170: b427 423e fc5f 663f d9b2 843d d2d1 cabd
00000180: 6860 303d 3b0d 093f 9ec8 03bf 254f bc3c
00000190: ed21 253f 78ec ba3e ff72 1cbe 17c5 0b3f
000001a0: 408e 183e b42b a6be 7b1b 073f e1b9 613d
000001b0: 5490 63be 831b e5bd c067 f1bd cc97 8abc
000001c0: 9e6b 89be 5048 20be 4664 123f e84a ca3e
000001d0: d54f 163f c16a 19bc d6cb f8be b907 6cbe
000001e0: c2fb 3dbe d9a1 8cbd 3581 223f e766 f1be
000001f0: e4ae 373f 0064 cdbd 401e 4dbf 5a8a 57b9
00000200: 6740 d8bc fe91 833f 0638 1bbf 203b 7e3e
00000210: f317 483f 9f0f 3d3f 7abc d13e 5d3f be3f
00000220: f016 25be b348 953e 4292 cbb9 e615 843e
00000230: 5781 d7be f4a0 5f3e fa9a c9bd 4e32 a6bc
00000240: 6b6c 153f 9f4a cebe af3e a33e 5869 82bd
00000250: 3726 3dbe 446d 413f 1d1e c6be 2326 b63e
00000260: 0fb9 5fbe a90a 57be 9df2 c8be b419 1ebf
00000270: da87 9b3d caa4 6f3d 48f2 3c3e a9e1 e7bd
00000280: 1020 04be d2c1 223f a1c7 9d3e 379a ea3e
00000290: 2980 253d 7bec 2b3e 31f2 d6be 04ce 74be
000002a0: 65c6 dbbe 3d60 abbd 5022 ae3d 76e1 b53e
000002b0: 2a3b 983e 0a03 623f 6e96 9c3e 8cb5 4f3f
000002c0: 74f4 ecbd d3d5 c33b a5ef d0be b958 6c3f
000002d0: f3f1 b3be 67d9 a8be a553 74bd 4439 cfbe
000002e0: 5e1e bb38 f42d a73f 1b2e 54be cfe1 c0bd
000002f0: 5aa3 27be aec4 7b3d 7825 fc3c 48d1 debd
00000300: 92e6 9ebd b152 e23d 7eb4 94bd 3d6f 13be
00000310: 70c8 e23e 410d 8c3e 9e96 2d3f be99 793d
00000320: 8eb5 ef3e 1da5 89be 4527 113f 7d04 f43d
00000330: 85bf 053f edfe ea3c b61f 443d 54e4 2ebe
00000340: 8700 b03d 4045 ba3e bdbd 8b3e d220 02bf
00000350: e804 cebe e39d 4f3e f284 8c3e c2c9 063f
00000360: a232 9c3e 6ab5 92be 5b29 08be 43af fa3c
00000370: 4023 8bbe 957c e53e fac0 e9be b38f 45be
00000380: f1ea ec3d 6bad 8bbe 9fb4 be3d 25a2 1dbf
00000390: 9d6c 7b3d 2c66 2f3f 4a26 623e 0930 1fbe
000003a0: f288 833f fb68 24bd 9742 72bd 4e31 703e
000003b0: d3dd 32bf ee38 3c3e faf8 1a3e 74ab fcbe
000003c0: 27c9 223d 3912 c5bd 937b 743e 1a57 be3e
000003d0: d56b 4dbe e2a8 d43d ca8b 70be 0d8b 97bd
000003e0: eca6 dcbe 1400 583e 6570 1a3f ad74 12be
000003f0: 0342 49be 2f09 bd3d b66d cb3e aa27 d7be

critic.observ_embedder.fc.bias f4 [32]
-0.008848468 -0.21621677 -0.22065789 0.10120727 0.52109104 -0.121944875 -0.45122108 0.15589525
-0.009926248 0.14740172 0.11285683 -0.49316064 0.032445274 -0.29371718 0.24264705 -0.09267577
0.3431915 -0.191397 -0.53791624 -0.0593342 -0.29211503 -0.04360622 -0.3907335 0.0033779345
0.0618067 -0.4184466 -0.36379346 -0.088040054 0.12585692 7.2887895e-05 -0.36075807 0.057636086
00000000: 2af9 10bc ee67 5dbe 24f4 61be c245 cf3d
00000010: 3966 053f 3cbe f9bd 7306 e7be 01a3 1f3e
00000020: b4a1 22bc 7af0 163e 7b21 e73d 8d7f fcbe
00000030: 56e5 043d 1962 96be 7878 783e cbcc bdbd
00000040: ccb6 af3e 93fd 43be e1b4 09bf 6b08 73bd
00000050: 1a90 95be 709c 32bd 390e c8be 5660 5d3b
00000060: 0629 7d3d a23e d6be 2343 babe 584e b4bd
00000070: a3e0 003e 64db 9838 48b5 b8be d113 6c3d

critic.action_embedder.fc.weight f4 [16, 16]
1.120478 1.3126274 0.22385134 -0.34282783 1.1250421 0.16745065 -0.35021147 -0.3363688
-0.09324861 0.97589684 0.022981044 0.6911923 -0.34907794 0.40670994 -0.3393542 1.1049987
0.5551493 -0.29256824 -0.29152423 -0.25387174 -0.055462588 0.6394038 0.7369885 0.2717761
0.29938856 0.343059 -0.2887581 0.86772764 0.46022442 -0.29143357 0.21469769 -0.28668624
-0.014574355 0.79905427 -0.067518786 0.64704037 0.42102844 -0.11285952 -0.07081129 -0.061074805
0.38595307 -0.24909759 -0.23730688 -0.012842724 0.5393374 -0.06941912 -0.20204775 0.2718661
-0.30101794 -0.38261652 -0.054385297 -0.37867638 -0.09849946 -0.3007795 -0.37481266 1.0167714
0.1265202 -0.37472382 0.2525859 -0.29024914 -0.37505376 -0.38425672 0.2728718 -0.15406033
0.028530657 -0.056067616 0.09224403 -0.083145946 0.18348849 0.057421863 -0.07685894 0.2228002
0.06382349 -0.1698975 -0.1391359 0.15675375 0.11418024 0.19519854 -0.019203931 0.17485514
-0.23009986 -0.2592515 -0.07484155 0.20025109 0.15033884 0.19676308 0.72579855 0.10621752
0.27397466 -0.26007262 -0.26412767 -0.26122284 -0.24454977 -0.26563576 -0.26090705 0.5461165
-0.26509586 0.15582699 0.20469455 -0.38882333 -0.23376244 0.06406343 -0.6031533 -0.39512458
0.0364903 -0.21100745 -0.59802973 -0.5986407 0.15791488 -0.14007644 0.22448915 -0.3832865
-0.15216343 -0.18992415 -0.1127617 -0.25836864 -0.25924435 0.63784647 0.040179756 0.55235624
0.26940078 0.62797534 0.53032583 0.86999583 -0.218387 -0.1631266 -0.26456207 0.3783905
-0.20485152 -0.29847944 0.39196044 -0.10398379 -0.1004135 -0.2954004 -0.28546777 0.7364596
-0.2986479 0.3953755 -0.29677618 -0.30173805 0.2240191 -0.29281536 -0.26139346 0.76368463
-0.11670464 -0.041769654 -0.10931071 1.1794742 -0.248171 -0.1107244 -0.09837568 -0.22943595
-0.10530263 -0.1194505 -0.101456486 -0.16980803 -0.23210815 -0.18781343 -0.0998883 -0.10944248
-0.23160481 -0.14371046 -0.119914494 -0.15809655 -0.15514871 -0.17847213 0.40053663 -0.13063246
0.3615483 0.42224085 -0.17483321 -0.15181735 0.54488176 -0.23571652 -0.13158412 -0.15258212
0.10988577 -0.19326669 0.9154301 -0.15931177 -0.19982547 0.21435125 -0.16023077 -0.24304947
-0.15021625 -0.14866756 0.87833637 -0.16498208 -0.15944266 -0.1635544 0.4481616 -0.14773528
-0.02411515 -0.23952019 -0.23962235 0.2933577 -0.0018103936 -0.23090495 0.048043333 -0.23989518
-0.030126888 0.14917557 0.0009849654 -0.2340897 -0.2357177 1.4772352 -0.20978408 -0.23934008
0.7903807 1.416868 -0.18111359 -0.22628108 0.84612143 0.19416633 -0.18144262 0.08158611
0.28204617 -0.17938478 -0.17549106 0.56838435 0.9259716 -0.17772906 -0.16959237 -0.046265922
-0.1526427 -0.18811321 -0.15959392 -0.1590045 -0.21973816 -0.17456922 -0.15874138 0.21449387
-0.21941671 -0.15322092 -0.15957369 0.29250315 -0.1632882 -0.16069908 0.72945565 0.018096052
0.7835716 -0.18414472 -0.21822415 0.12627548 0.778738 0.24877802 0.3740255 -0.18611886
-0.19540769 -0.21395558 0.21337302 0.44851917 -0.1816458 1.3706862 -0.18738712 0.3942986
00000000: d36b 8f3f 2d04 a83f 4939 653e 2187 afbe
00000010: 6101 903f 2f78 2b3e eb4e b3be 8838 acbe
00000020: 21f9 bebd 60d4 793f be42 bc3c fbf1 303f
00000030: 58ba b2be 493c d03e d5bf adbe 9970 8d3f
00000040: 441e 0e3f 81cb 95be aa42 95be 7afb 81be
00000050: bd2c 63bd f8af 233f 47ab 3c3f 3d26 8b3e
00000060: 7549 993e 6ea5 af3e 1ad8 93be 6623 5e3f
00000070: 89a2 eb3e c836 95be b6d9 5b3e 8ac8 92be
00000080: 47c9 6ebc d28e 4c3f 4a47 8abd 70a4 253f
00000090: 0a91 d73e e422 e7bd 8205 91bd 9329 7abd
000000a0: a49b c53e 7013 7fbe 9300 73be 4a6a 52bc
000000b0: 0412 0a3f 9d2b 8ebd 9be5 4ebe 0932 8b3e
000000c0: 061f 9abe 50e6 c3be 1ec3 5ebd dfe1 c1be
000000d0: 16ba c9bd c5ff 99be 72e7 bfbe 9125 823f
000000e0: 838e 013e cddb bfbe f052 813e 899b 94be
000000f0: 0c07 c0be 4cbd c4be dab5 8b3e fec1 1dbe
00000100: 20b9 e93c 28a7 65bd 70ea bc3d 6c48 aabd
00000110: 68e4 3b3e 3033 6b3d 3868 9dbd bc25 643e
00000120: e4b5 823d 9cf9 2dbe a479 0ebe 0e84 203e
00000130: 54d7 e93d 20e2 473e 9051 9dbc 3a0d 333e
00000140: 4c9f 6bbe 9dbc 84be 8746 99bd 9f0e 4d3e
00000150: 6df2 193e 437c 493e efcd 393f 9288 d93d
00000160: 6846 8c3e 3d28 85be be3b 87be 00bf 85be
00000170: 416b 7abe 6901 88be 9c95 85be 4ace 0b3f
00000180: a5ba 87be 1c91 1f3e 739b 513e da13 c7be
00000190: 6c5f 6fbe b033 833d 4168 1abf c54d cabe
000001a0: da76 153d 5612 58be 7a18 19bf 8440 19bf
000001b0: 70b4 213e 3370 0fbe 7ce0 653e 213e c4be
000001c0: bbd0 1bbe 7a7b 42be 9bef e6bd e548 84be
000001d0: adbb 84be e849 233f 8793 243d 3867 0d3f
000001e0: e6ee 893e fec2 203f 6fc3 073f 0cb8 5e3f
000001f0: d7a0 5fbe a90a 27be ae74 87be 66bc c13e
00000200: 99c4 51be 4cd2 98be 0aaf c83e 74f5 d4bd
00000210: 98a5 cdbd b93e 97be d528 92be 9e88 3c3f
00000220: 61e8 98be a86e ca3e 0cf3 97be 697d 9abe
00000230: 4365 653e e5eb 95be 5dd5 85be d680 433f
00000240: d802 efbd a816 2bbd 4bde dfbd 03f9 963f
00000250: 8a20 7ebe 79c3 e2bd 3079 c9bd 42f1 6abe
00000260: e8a8 d7bd 77a2 f4bd 6bc8 cfbd 28e2 2dbe
00000270: c2ad 6dbe 2a52 40be 3d92 ccbd 6123 e0bd
00000280: d029 6dbe d628 13be bb95 f5bd 10e4 21be
00000290: 4edf 1ebe 66c1 36be 2313 cd3e 84c4 05be
000002a0: dc1c b93e f42f d83e 7a07 33be 0276 1bbe
000002b0: 5f7d 0b3f ac5f 71be fdbd 06be 7d3e 1cbe
000002c0: ca0b e13d b4e7 45be a159 6a3f a022 23be
000002d0: 0c9f 4cbe e57e 5b3e 8913 24be f6e1 78be
000002e0: 4ad2 19be 4f3c 18be a7da 603f 10f1 28be
000002f0: f044 23be ce7a 27be 7075 e53e eb47 17be
00000300: 238d c5bc c844 75be 905f 75be fb32 963e
00000310: bb4a edba 5972 6cbe 16c9 443d 15a7 75be
00000320: aacc f6bc 7bc1 183e f419 813a 36b5 6fbe
00000330: fb5f 71be 0b16 bd3f a3d1 56be 9115 75be
00000340: 6456 4a3f ee5b b53f d775 39be 3ab6 67be
00000350: 6a9b 583f 8ad3 463e 18cc 39be 9e16 a73d
00000360: 5b68 903e a5b0 37be eeb3 33be a381 113f
00000370: 7a0c 6d3f 9bfe 35be 9fa9 2dbe 5681 3dbd
00000380: 5e4e 1cbe c0a0 40be 976c 23be 13d2 22be
00000390: 0a03 61be 46c2 32be 1a8d 22be 48a4 5b3e
000003a0: c6ae 60be f2e5 1cbe 4967 23be f9c2 953e
000003b0: 0635 27be 4d8e 24be 9bbd 3a3f 2c3e 943c
000003c0: 2698 483f 6f90 3cbe 2776 5fbe 5c4e 013e
000003d0: 605b 473f aabf 7e3e 4580 bf3e f195 3ebe
000003e0: f418 48be 2c17 5bbe 757e 5a3e 4ea4 e53e
000003f0: 5b01 3abe a572 af3f 69e2 3fbe 82e1 c93e

critic.action_embedder.fc.bias f4 [16]
0.29677412 0.17404498 -0.07709552 0.19822036 -0.22793132 0.17681707 0.54688233 0.08808821
-0.24382578 -0.0015183735 0.061275773 0.110163145 0.14807375 0.13485296 0.0624599 0.07741566
00000000: c7f2 973e d938 323e 42e4 9dbd 47fa 4a3e
00000010: d466 69be 890f 353e 7b00 0c3f 9767 b43d
00000020: 77ad 79be 2904 c7ba 4efc 7a3d 379d e13d
00000030: a5a0 173e e516 0a3e f4d5 7f3d 1a8c 9e3d

critic.seq_model.model.weight_ih_l0 f4 [256, 48]
-0.07656675 0.027495235 0.10197306 0.114080824 0.05770616 0.030482152 0.012545372 -0.19626205
-0.028676763 -0.47780502 -0.15050732 -0.27983862 -0.004599741 -0.42107195 -0.23543659 -0.08080487
-0.00020559989 -0.09481799 -0.13896689 0.15687677 -0.077869296 0.3201372 -0.84624034 -0.15467738
-0.07953294 0.18530467 0.21285902 -0.06870198 -0.052571908 -0.06840854 0.068588525 -0.008052266
-0.11701988 0.20913154 -0.12733869 -0.4467006 -0.038549922 0.61171937 0.2593743 -0.47971594
0.22198473 0.06064436 0.81111246 0.6145637 0.4642313 -0.29448956 0.367108 0.8566427
-0.12841468 0.1498398 -0.16326219 0.01269539 0.045720965 0.14544638 0.1980747 0.12311108
0.7068234 -0.31300333 -0.4256588 -0.05424267 0.06221728 0.025609652 -0.2220932 0.10917615
-0.09189632 0.5752867 0.3857905 -0.25142938 -0.61042047 -0.78152215 0.73531437 0.59429204
-0.060377173 0.09125097 0.25409114 0.83349526 0.84863645 0.29063576 0.37438625 -0.10402872
0.12964387 0.110550284 0.57451504 -0.1614635 0.9616246 0.6151431 0.75586104 0.34360287
-0.52963465 0.16454643 -0.1155385 -0.11126459 0.16900317 0.2294388 0.15432455 0.17473015
0.94955474 1.1294487 -0.7090511 1.0142074 0.07955532 -0.08570394 -0.571893 -0.64794827
-0.7371146 -2.0621824 1.9266993 1.2483928 -2.0250394 0.3869779 0.3910215 0.009187193
0.506259 0.04166882 0.5453783 -0.09944115 0.70192647 -0.18642583 0.86071604 0.286381
0.29502976 0.14057674 0.87313807 -0.47143435 -0.34902015 0.511061 -0.1108048 1.1114914
-0.38328207 0.65308344 -0.52350605 0.5401066 -0.19790271 0.13386045 -0.49389595 0.3219488
0.86399263 0.93955714 0.9412654 0.5033817 -0.026377875 0.21408325 0.5771633 -0.6439599
0.3818476 -0.024794754 0.3098101 0.05053958 0.0020847109 0.08091945 0.28848663 0.27493748
0.49465948 0.8755553 1.1860639 0.21692814 -0.26461217 0.322629 -0.39436892 0.73384655
0.24745518 0.27958247 -0.18346748 -0.21012041 0.16840316 0.007911951 -0.18483356 -0.18206659
0.2527586 0.10466491 0.18413867 0.09568519 -0.98242426 -0.26720393 0.08604558 0.039411094
0.07279115 -0.139575 -0.10675586 -0.08891245 -0.13459142 0.26862338 -0.44403848 0.3039104
-0.41501868 0.35451362 -0.11910803 -0.29236272 -0.08555214 -0.07500104 -0.2979519 -0.53972656
-0.047388446 0.16143684 0.7044323 0.010147064 0.009296955 0.341208 -0.04099786 -0.09735183
0.3985732 0.039043393 -0.121297374 0.17282419 0.24307853 0.032431334 0.27792156 0.18677709
0.22285526 0.14142498 0.2615074 0.657292 0.31125402 0.5718585 -0.3876518 0.4849405
-0.0048343446 0.5013663 0.45895338 0.033860527 0.37131342 0.4344173 0.5948596 -0.046619188
-0.020306343 0.41552478 0.07508647 0.5355131 0.21747546 0.9864469 0.127243 -0.085925356
-0.052337736 0.3666168 0.16908549 0.07887705 0.5126301 0.48777542 0.35580194 0.1244611
-0.23787317 -0.2532663 0.15624796 -0.29975793 -0.06298411 -0.7431169 -0.07288492 -0.19646248
0.0034509418 -0.802984 0.14617291 -0.23227906 0.6733048 0.33330452 -0.11516307 -0.11547124
00000000: 07cf 9cbd b03d e13c 40d7 d03d 35a3 e93d
00000010: 4b5d 6c3d b5b5 f93c 1b8b 4d3c ebf8 48be
00000020: 88eb eabc dca2 f4be 971e 1abe 0247 8fbe
00000030: 6db9 96bb be96 d7be 4a16 71be 067d a5bd
00000040: 4d96 57b9 ef2f c2bd 564d 0ebe 4ea4 203e
00000050: f079 9fbd 06e9 a33e 35a3 58bf bf63 1ebe
00000060: 2be2 a2bd 82c0 3d3e b7f7 593e a0b3 8cbd
00000070: a455 57bd c719 8cbd 2478 8c3d a7ed 03bc
00000080: 1ea8 efbd 9426 563e 1365 02be f1b5 e4be
00000090: 86e6 1dbd a499 1c3f b5cc 843e 549d f5be
000000a0: f74f 633e 3866 783d 11a5 4f3f 0c54 1d3f
000000b0: baaf ed3e 56c7 96be 94f5 bb3e f04c 5b3f
000000c0: 237f 03be 9b6f 193e 342e 27be 5300 503c
000000d0: e845 3b3d e5ef 143e 18d4 4a3e a921 fc3d
000000e0: 61f2 343f f941 a0be f3ef d9be 902d 5ebd
000000f0: 8cd7 7e3d 55cb d13c 666c 63be bf97 df3d
00000100: 2334 bcbd fd45 133f 5586 c53e 5abb 80be
00000110: 8444 1cbf d611 48bf 903d 3c3f 8623 183f
00000120: 0e4e 77bd cae1 ba3d 3c18 823e f25f 553f
00000130: 3d40 593f 36ce 943e 8eaf bf3e 020d d5bd
00000140: 5dc1 043e 3068 e23d 6b13 133f b056 25be
00000150: 082d 763f 057a 1d3f 1c80 413f b7ec af3e
00000160: 2396 07bf dc7e 283e 739f ecbd b0de e3bd
00000170: 2b0f 2d3e 01f2 6a3e 4107 1e3e 76ec 323e
00000180: 0516 733f c691 903f 5f84 35bf 8cd1 813f
00000190: e6ed a23d 8c85 afbd 9467 12bf f0df 25bf
000001a0: 8bb3 3cbf ccfa 03c0 159e f63f 56cb 9f3f
000001b0: 3f9a 01c0 f821 c63e f833 c83e e185 163c
000001c0: 319a 013f edac 2a3d ea9d 0b3f cda7 cbbd
000001d0: 74b1 333f 6ae6 3ebe e357 5c3f 88a0 923e
000001e0: 240e 973e 59f3 0f3e fa85 5f3f d85f f1be
000001f0: c5b2 b2be e5d4 023f a1ed e2bd 5a45 8e3f
00000200: 8c3d c4be 7a30 273f 7e04 06bf 6d44 0a3f
00000210: 02a7 4abe b712 093e eedf fcbe 79d6 a43e
00000220: 9f2e 5d3f d186 703f c5f6 703f a0dd 003f
00000230: 6a16 d8bc a438 5b3e f9c0 133f 8eda 24bf
00000240: 8781 c33e 5e1e cbbc 6e9f 9e3e 9702 4f3d
00000250: a59f 083b 19b9 a53d 85b4 933e 9bc4 8c3e
00000260: 0244 fd3e 6424 603f f1d0 973f 6922 5e3e
00000270: 3f7b 87be a12f a53e b9ea c9be 5edd 3b3f
00000280: e464 7d3e 6f25 8f3e e6de 3bbe ce29 57be
00000290: e171 2c3e 21a1 013c 0245 3dbe aa6f 3abe
000002a0: 9369 813e 8e5a d63d d98e 3c3e 99f6 c33d
000002b0: 2880 7bbf f4ce 88be aa38 b03d 876d 213d
000002c0: 8713 953d c0ec 0ebe d1a2 dabd bb17 b6bd
000002d0: 55d2 09be 0189 893e 0359 e3be 259a 9b3e
000002e0: 547d d4be cf82 b53e e9ee f3bd 91b0 95be
000002f0: f635 afbd 259a 99bd 278d 98be 852b 0abf
00000300: 631a 42bd b34f 253e ad55 343f df3f 263c
00000310: 4152 183c d1b2 ae3e 5fed 27bd 6560 c7bd
00000320: c911 cc3e f7eb 1f3d c26a f8bd d3f8 303e
00000330: 94e9 783e b8d6 043d bc4b 8e3e 7e42 3f3e
00000340: 2b34 643e b6d1 103e 4ce4 853e 4a44 283f
00000350: b05c 9f3e 5265 123f 4c7a c6be 1f4a f83e
00000360: 6c69 9ebb 8b59 003f f0fb ea3e 56b1 0a3d
00000370: cb1c be3e f26b de3e b848 183f c3f3 3ebd
00000380: 7d59 a6bc aabf d43e efc6 993d 6317 093f
00000390: e3b1 5e3e c987 7c3f fd4b 023e a2f9 afbd
000003a0: 1860 56bd 32b5 bb3e bf24 2d3e 4a8a a13d
000003b0: ba3b 033f b3bd f93e ac2b b63e 76e5 fe3d
000003c0: 0695 73be 1fac 81be 77ff 1f3e df79 99be
000003d0: d0fd 80bd e93c 3ebf b044 95bd 762d 49be
000003e0: 3229 623b 5c90 4dbf 5aae 153e 90da 6dbe
000003f0: b45d 2c3f e4a6 aa3e 9eda ebbd 2f7c ecbd

critic.seq_model.model.weight_hh_l0 f4 [256, 64]
-0.05534235 -0.7048701 0.3377145 0.74214494 -0.4518072 -0.28298098 -0.4095829 -0.31390983
0.29957405 0.8329649 0.13706711 0.02635178 0.3731814 -0.18186973 0.11832013 -0.76931304
-0.3584975 -0.29217818 1.5395336 -0.18739021 -0.07663732 0.06541946 0.44963995 -0.14273235
-0.46748048 -0.1676064 -0.22788559 -0.28350607 0.36457416 -0.10969741 -0.5690875 0.41206393
-0.084535606 0.31613296 1.3269598 -0.41283283 -0.47648606 0.015853478 0.35839856 1.1900487
1.0909351 0.30972221 -0.079742655 0.49378747 0.44394222 0.31009865 -0.48216182 -0.0048258468
-0.021488655 0.053267665 -0.028747352 -0.42934287 0.017274331 0.15065573 0.46801087 -0.8620015
0.38578078 -0.24716026 0.032641213 -0.056876637 0.4289991 -0.100988805 0.097263396 1.5040495
0.4854677 0.06525174 0.32667089 -0.31511512 -0.31956515 0.75453 0.8137613 0.34008393
-1.1977282 -0.58594203 -0.2767614 -0.114319585 0.14551562 -0.2919792 -0.55924594 0.53642225
0.12153423 0.23003209 -0.020980233 -0.8126008 -0.5355997 0.74264556 0.18124726 -0.53588253
0.5382759 1.0333629 0.030179564 0.44663242 -1.5724503 -0.59414876 0.5298708 -0.9370114
-0.45712218 -0.18210776 -0.532283 0.8893224 -1.5538327 0.02246582 -0.88808006 -0.3194312
-0.021247564 0.036939956 0.3148843 -0.5272753 0.82292044 -1.4044391 0.46630043 -0.5645105
0.2308176 -0.995784 0.2995407 -0.2037805 -0.5804582 0.20351937 -0.8502642 1.4787143
0.124328025 -0.48577812 -0.19324574 -0.71474576 -0.50250405 -0.04337324 -0.7180724 -0.7339433
-0.28371415 0.069768704 -0.04431601 -0.0050899005 0.7430768 -1.0924082 0.74704146 0.09186632
0.5593058 -0.9662152 -0.0056859367 0.25178283 -0.018022936 0.43550998 -1.2092553 0.6852612
0.36333945 -0.43692273 -0.009399962 0.57675594 -0.7009078 -0.27115774 -0.1965716 -0.7113964
-0.02241717 0.34973386 0.08073049 -1.189879 -0.41891265 0.298922 -1.1314443 -2.0039363
0.30414873 -0.39124197 -0.7653224 -1.4592079 -0.8216851 -1.1425741 1.0504824 -0.05971175
-0.8829435 0.45077336 -0.5636496 -0.046727497 -1.418811 0.2187352 -0.11280359 0.5577091
1.065035 -0.67644405 -0.4328157 -0.65249324 0.21576127 -0.4997209 -0.079871655 -1.1499624
0.22434002 0.7622786 -0.1767212 0.4085578 -0.48083305 -0.3052089 -0.9126052 0.6092197
0.22750674 0.23026092 0.64162993 0.61523604 1.0006806 0.27957052 0.01824421 0.7646894
-0.5802027 0.4760641 0.42165914 0.7690884 -0.80829966 0.5525399 -0.15260163 -0.32933646
-0.6528315 -0.30565724 0.61498266 -0.11968062 -0.79851127 0.7546621 -0.8073446 0.3259307
0.0693981 0.1020334 0.21365178 -0.46012124 0.96315485 -0.06332183 -0.34538198 -0.032722134
-0.6492038 -0.03724086 -1.1255804 -0.110596284 -0.08125666 -0.12004332 -0.19290929 -0.5962271
-0.4850487 0.3284252 -0.56432176 -0.5579159 0.17944464 0.29748443 0.37628928 0.33416882
-0.2176772 0.25077027 1.0625284 0.15369657 -0.35807964 0.25083935 0.44384664 0.6283564
-0.16765879 0.053267892 -0.27691445 -0.22295345 -0.60632247 0.042839393 0.12912525 0.28611833
00000000: a9ae 62bd 5e72 34bf eae8 ac3e 36fd 3d3f
00000010: 4653 e7be e2e2 90be dab4 d1be cab8 a0be
00000020: c561 993e 303d 553f 525b 0c3e b0df d73c
00000030: a211 bf3e 0f3c 3abe d351 f23d b3f1 44bf
00000040: fc8c b7be 6198 95be 700f c53f 38e3 3fbe
00000050: 07f4 9cbd a3fa 853d 3537 e63e 6e28 12be
00000060: 9a59 efbe 03a1 2bbe d75a 69be b527 91be
00000070: 77a9 ba3e 09a9 e0bd b8af 11bf 0bfa d23e
00000080: 0121 adbd 2edc a13e d2d9 a93f d35e d3be
00000090: fbf5 f3be 27df 813c 0480 b73e 8453 983f
000000a0: c3a3 8b3f e993 9e3e 1e50 a3bd b6d1 fc3e
000000b0: 654c e33e 40c5 9e3e eadd f6be 2322 9ebb
000000c0: fa08 b0bc 322f 5a3d 917f ebbc d4d2 dbbe
000000d0: e682 8d3c 7f45 1a3e 1f9f ef3e 21ac 5cbf
000000e0: 0f85 c53e 9417 7dbe cbb2 053d 7af7 68bd
000000f0: c5a5 db3e 38d3 cebd 0832 c73d b284 c03f
00000100: 398f f83e b4a2 853d 6841 a73e c556 a1be
00000110: 0b9e a3be e128 413f a952 503f 7b1f ae3e
00000120: 284f 99bf 4c00 16bf acb3 8dbe 6320 eabd
00000130: 0c02 153e 4c7e 95be be2a 0fbf f852 093f
00000140: f0e6 f83d 888d 6b3e bdde abbc 9b06 50bf
00000150: 101d 09bf 051e 3e3f e298 393e 992f 09bf
00000160: 73cc 093f 3c45 843f 223b f73c 01ad e43e
00000170: 0d46 c9bf 221a 18bf 9da5 073f fbdf 6fbf
00000180: eb0b eabe 757a 3abe b343 08bf a2aa 633f
00000190: fde3 c6bf 3d0a b83c 3759 63bf 7c8c a3be
000001a0: 5f0f aebc 5a4e 173d 8438 a13e 84fb 06bf
000001b0: eaaa 523f a9c4 b3bf eebe ee3e c383 10bf
000001c0: 735b 6c3e b3eb 7ebf 665d 993e d6ab 50be
000001d0: e998 14bf 6267 503e eaaa 59bf 8346 bd3f
000001e0: b19f fe3d e9b7 f8be 36e2 45be 94f9 36bf
000001f0: 1ba4 00bf 23a8 31bd 98d3 37bf b5e3 3bbf
00000200: fb42 91be e5e2 8e3d b484 35bd 2ec9 a6bb
00000210: 483a 3e3f 08d4 8bbf 1c3e 3f3f 6924 bc3d
00000220: aa2e 0f3f e159 77bf 1851 babb aee9 803e
00000230: d6a4 93bc 2afb de3e e1c8 9abf 476d 2f3f
00000240: a107 ba3e 56b4 dfbe 4c02 1abc 47a6 133f
00000250: b26e 33bf 30d5 8abe 114a 49be 131e 36bf
00000260: 37a4 b7bc 5110 b33e 0756 a53d f44d 98bf
00000270: b87b d6be 4e0c 993e 2bd3 90bf 7e40 00c0
00000280: 62b9 9b3e de50 c8be 2bec 43bf 53c7 babf
00000290: f459 52bf de3f 92bf 3576 863f 4f94 74bd
000002a0: 9608 62bf c4cb e63e 574b 10bf 5565 3fbd
000002b0: 999b b5bf 1ffc 5f3e 9205 e7bd 06c6 0e3f
000002c0: 1153 883f 702b 2dbf 059a ddbe cc09 27bf
000002d0: 86f0 5c3e 6bdb ffbe c093 a3bd f831 93bf
000002e0: 64b9 653e b124 433f 67f6 34be 7d2e d13e
000002f0: c02f f6be 5744 9cbe 7fa0 69bf d2f5 1b3f
00000300: 87f7 683e 85c9 6b3e dc41 243f 1c80 1d3f
00000310: 4d16 803f de23 8f3e e274 953c afc2 433f
00000320: 2a88 14bf acbe f33e b5e3 d73e fae2 443f
00000330: baec 4ebf 4173 0d3f 9a43 1cbe ca9e a8be
00000340: f71f 27bf 1b7f 9cbe 816f 1d3f 1d1b f5bd
00000350: 3c6b 4cbf 8931 413f 23ae 4ebf 64e0 a63e
00000360: 9720 8e3d e3f6 d03d 88c7 5a3e 0395 ebbe
00000370: 5191 763f e0ae 81bd e8d5 b0be a507 06bd
00000380: 3832 26bf df89 18bd 0513 90bf 4e80 e2bd
00000390: e469 a6bd 46d9 f5bd 038a 45be 57a2 18bf
000003a0: 4e58 f8be 5927 a83e 6477 10bf 94d3 0ebf
000003b0: 56c0 373e e14f 983e fda8 c03e 2d18 ab3e
000003c0: c6e6 5ebe f664 803e ee00 883f a262 1d3e
000003d0: 3756 b7be 046e 803e de3f e33e f7db 203f
000003e0: bfae 2bbe 6f2f 5a3d bbc7 8dbe e94d 64be
000003f0: f337 1bbf 5c78 2f3d 6939 043e 1a7e 923e

critic.seq_model.model.bias_ih_l0 f4 [256]
-0.06020812 -0.12641549 0.1286057 0.2879797 0.20513655 0.07175821 0.4739136 0.10898271
-0.0330916 0.05280275 0.10050388 -0.0543821 0.41661116 0.19020697 0.08863926 0.0926875
0.10832721 0.09309379 -0.053795572 0.3874969 0.3653717 0.4494525 0.14889371 0.21957846
0.05023957 0.038582675 0.10241432 1.0752344 0.4035838 0.25569883 0.1400834 -0.020680653
-0.06733104 -0.06201933 -0.04613542 0.13797797 0.22944976 0.7915754 -0.07085671 0.4247515
0.26324457 -0.19326045 0.05318124 0.4064134 0.40131748 0.16008681 0.12015832 -0.01935925
0.6290324 0.22508025 0.38056353 0.42454836 0.27040872 0.6032041 -0.24676496 0.09012758
0.0689812 0.06834041 0.13829271 0.09469098 -0.00896086 -0.13954146 0.12641405 0.31037122
-0.053540006 -0.06684971 -0.06103774 0.1385795 -0.11267108 -0.11753916 -0.0352935 0.0108721955
-0.030546827 -0.16426718 -0.34120786 -0.057892643 0.23282544 -0.08032368 -0.15565725 -0.27768445
-0.096148945 0.06218078 -0.075150385 0.10922519 0.025997587 0.04737572 -0.04157695 -0.100472696
-0.037040506 -0.13700636 -0.29163784 -0.09001955 -0.008068255 0.04862056 0.018701045 -0.05379519
-0.15045424 -0.064859316 -0.025209654 0.028004013 -0.24547467 0.079259574 -0.19108658 0.15153858
-0.17330657 -0.07916998 -0.1400198 0.02252977 -0.067572095 -0.08587889 -0.07764143 -0.081508435
-0.023304945 -0.4337927 0.075473405 -0.011812717 0.09017881 0.40245122 -0.2385565 0.10945488
0.061194886 0.0024406961 0.060291268 -0.047320437 -0.06286491 0.10108372 0.20531048 -0.01803457
-0.02602339 0.001916703 0.0866862 0.056158297 0.0230355 0.12781875 0.2607803 0.08096111
0.0019041719 0.023349913 -0.11670863 -0.38703635 -0.39868677 0.1279594 -0.33307508 0.16117842
-0.13872421 -0.15338252 0.011320497 -0.15440713 -0.109875105 0.36945897 -0.027816659 -0.34368607
-0.057241675 -0.0101448605 0.13630734 -0.11466703 0.18404017 -0.32787362 -0.032313246 0.10101274
-0.13983853 0.011835028 -0.025540827 0.07926309 -0.113428764 -0.028824173 0.04385276 -0.090805285
-0.1507999 -0.022050945 0.03289137 0.1236642 -0.22046486 -0.10955658 0.10258723 0.01671891
-0.08305361 0.0529902 -0.05524236 -0.15509653 0.14031374 0.14070898 0.0002000443 0.116789915
0.021256829 -0.04412083 0.009892109 -0.04664447 -0.058354344 0.087113805 0.10452554 0.05938212
0.21606502 0.37848407 0.24548033 -0.057855446 0.062686846 0.37449142 0.21021317 0.2617079
0.32614818 0.1946786 0.08605449 0.20913468 0.34465817 0.26601264 0.2090832 0.23673499
0.11230981 0.1632889 -0.046967357 0.50056845 0.4674486 0.5889752 0.5262681 0.3863727
0.3208236 0.38578326 0.25436985 0.6387695 0.6846505 0.43864667 0.53804356 0.13395838
0.23676723 -0.078479074 0.05890717 0.42795125 0.35296533 0.4129962 -0.15259199 0.4791722
0.5814715 0.24208984 0.49887118 0.36335447 0.07590602 0.24715525 0.2530445 -0.18929707
0.55510616 -0.0133119915 0.108401336 0.6215164 0.4272092 0.7492652 0.19284745 0.12613258
0.099074885 0.3598011 -0.09681301 0.3344096 0.06360421 0.20575166 0.3001028 -0.105129994
00000000: ca9c 76bd 1073 01be 36b1 033e 1372 933e
00000010: 510f 523e f8f5 923d cea4 f23e 5432 df3d
00000020: 0f8b 07bd b247 583d fad4 cd3d c4bf 5ebd
00000030: 0f4e d53e 9ec5 423e 8088 b53d f2d2 bd3d
00000040: a8da dd3d f5a7 be3d bf58 5cbd fe65 c63e
00000050: 0012 bb3e a31e e63e 9877 183e 2dd9 603e
00000060: 02c8 4d3d de08 1e3d 99be d13d 48a1 893f
00000070: 89a2 ce3e f5ea 823e 0672 0f3e 796a a9bc
00000080: dbe4 89bd fb07 7ebd 7ff8 3cbd 194a 0d3e
00000090: e1f4 6a3e afa4 4a3f 531d 91bd 0779 d93e
000000a0: fec7 863e 11e6 45be 92d4 593d 6b15 d03e
000000b0: 7c79 cd3e cced 233e 9115 f63d 4a97 9ebc
000000c0: 4408 213f 707b 663e 39d9 c23e 675e d93e
000000d0: 0373 8a3e 956b 1a3f f4af 7cbe cf94 b83d
000000e0: 0446 8d3d 0ff6 8b3d 9b9c 0d3e 58ed c13d
000000f0: 92d0 12bc f5e3 0ebe af72 013e fae8 9e3e
00000100: c44c 5bbd 80e8 88bd b602 7abd c9e7 0d3e
00000110: 18c0 e6bd 5fb8 f0bd eb8f 10bd 4b21 323c
00000120: 573d fabc a835 28be ccb2 aebe d620 6dbd
00000130: cb69 6e3e be80 a4bd 9d64 1fbe a82c 8ebe
00000140: bde9 c4bd 46b1 7e3d 72e8 99bd 75b1 df3d
00000150: e4f8 d43c 0b0d 423d 984c 2abd a1c4 cdbd
00000160: c9b7 17bd 654b 0cbe 8e51 95be 2b5c b8bd
00000170: b730 04bc 5a26 473d ef32 993c 5858 5cbd
00000180: ad10 1abe f6d4 84bd 7a84 cebc ac68 e53c
00000190: b65d 7bbe d852 a23d 33ac 43be ee2c 1b3e
000001a0: 4777 31be df23 a2bd 5a61 0fbe 5a90 b83c
000001b0: 3d63 8abd 45e1 afbd 7802 9fbd e5ed a6bd
000001c0: 03ea bebc 141a debe cd91 9a3d 208a 41bc
000001d0: abaf b83d 160e ce3e 2848 74be e129 e03d
000001e0: 7da7 7a3d 16f4 1f3b faf3 763d 13d3 41bd
000001f0: 51bf 80bd fb04 cf3d e93c 523e 3cbd 93bc
00000200: 012f d5bc e139 fb3a 8988 b13d 3e06 663d
00000210: f2b4 bc3c ebe2 023e ff84 853e f0ce a53d
00000220: 6895 f93a 5148 bf3c ef04 efbd a129 c6be
00000230: ac20 ccbe ca07 033e d188 aabe f50b 253e
00000240: b80d 0ebe 4f10 1dbe 9b79 393c e71c 1ebe
00000250: 3306 e1bd ba29 bd3e c3df e3bc 9ff7 afbe
00000260: 3f76 6abd a136 26bc 2794 0b3e 8cd6 eabd
00000270: 0775 3c3e 0ddf a7be e55a 04bd c4df ce3d
00000280: d531 0fbe b5e7 413c ff3a d1bc b054 a23d
00000290: 574d e8bd ac20 ecbc f49e 333d 1ff8 b9bd
000002a0: 4a6b 1abe 2fa4 b4bc 1ab9 063d a843 fd3d
000002b0: 8ac1 61be 335f e0bd 4119 d23d 18f6 883c
000002c0: 0318 aabd 410c 593d d045 62bd a0d1 1ebe
000002d0: 68ae 0f3e 0416 103e fcc2 5139 8d2f ef3d
000002e0: cd22 ae3c 0bb8 34bd 8312 223c 460e 3fbd
000002f0: f704 6fbd b968 b23d 7c11 d63d aa3a 733d
00000300: 2640 5d3e aac8 c13e 325f 7b3e d5f9 6cbd
00000310: f661 803d 57bd bf3e 1f42 573e 94fe 853e
00000320: e5fc a63e d459 473e 563d b03d 6727 563e
00000330: 0977 b03e cf32 883e e819 563e a86a 723e
00000340: b002 e63d 3535 273e d860 40bd 4125 003f
00000350: 6c55 ef3e 14c7 163f 82b9 063f a4d2 c53e
00000360: fe42 a43e 6285 c53e c43c 823e 6686 233f
00000370: 4145 2f3f 4c96 e03e 39bd 093f 632c 093e
00000380: 1c73 723e a3b9 a0bd a548 713d 6d1c db3e
00000390: dfb7 b43e 3d74 d33e 1341 1cbe 0f56 f53e
000003a0: 51db 143f 66e6 773e 0b6c ff3e 9909 ba3e
000003b0: 9e74 9b3d 4416 7d3e 0c8f 813e 17d7 41be
000003c0: 701b 0e3f 8a1a 5abc 8501 de3d b31b 1f3f
000003d0: 2abb da3e d8cf 3f3f cd79 453e e628 013e
000003e0: c6e7 ca3d da37 b83e e645 c6bd bc37 ab3e
000003f0: ed42 823d 90b0 523e 13a7 993e 654e d7bd

critic.seq_model.model.bias_hh_l0 f4 [256]
-0.06020812 -0.12641549 0.1286057 0.2879797 0.20513655 0.07175821 0.4739136 0.10898271
-0.0330916 0.05280275 0.10050388 -0.0543821 0.41661116 0.19020697 0.08863926 0.0926875
0.10832721 0.09309379 -0.053795572 0.3874969 0.3653717 0.4494525 0.14889371 0.21957846
0.05023957 0.038582675 0.10241432 1.0752344 0.4035838 0.25569883 0.1400834 -0.020680653
-0.06733104 -0.06201933 -0.04613542 0.13797797 0.22944976 0.7915754 -0.07085671 0.4247515
0.26324457 -0.19326045 0.05318124 0.4064134 0.40131748 0.16008681 0.12015832 -0.01935925
0.6290324 0.22508025 0.38056353 0.42454836 0.27040872 0.6032041 -0.24676496 0.09012758
0.0689812 0.06834041 0.13829271 0.09469098 -0.00896086 -0.13954146 0.12641405 0.31037122
-0.053540006 -0.06684971 -0.06103774 0.1385795 -0.11267108 -0.11753916 -0.0352935 0.0108721955
-0.030546827 -0.16426718 -0.34120786 -0.057892643 0.23282544 -0.08032368 -0.15565725 -0.27768445
-0.096148945 0.06218078 -0.075150385 0.10922519 0.025997587 0.04737572 -0.04157695 -0.100472696
-0.037040506 -0.13700636 -0.29163784 -0.09001955 -0.008068255 0.04862056 0.018701045 -0.05379519
-0.15045424 -0.064859316 -0.025209654 0.028004013 -0.24547467 0.079259574 -0.19108658 0.15153858
-0.17330657 -0.07916998 -0.1400198 0.02252977 -0.067572095 -0.08587889 -0.07764143 -0.081508435
-0.023304945 -0.4337927 0.075473405 -0.011812717 0.09017881 0.40245122 -0.2385565 0.10945488
0.061194886 0.0024406961 0.060291268 -0.047320437 -0.06286491 0.10108372 0.20531048 -0.01803457
-0.02602339 0.001916703 0.0866862 0.056158297 0.0230355 0.12781875 0.2607803 0.08096111
0.0019041719 0.023349913 -0.11670863 -0.38703635 -0.39868677 0.1279594 -0.33307508 0.16117842
-0.13872421 -0.15338252 0.011320497 -0.15440713 -0.109875105 0.36945897 -0.027816659 -0.34368607
-0.057241675 -0.0101448605 0.13630734 -0.11466703 0.18404017 -0.32787362 -0.032313246 0.10101274
-0.13983853 0.011835028 -0.025540827 0.07926309 -0.113428764 -0.028824173 0.04385276 -0.090805285
-0.1507999 -0.022050945 0.03289137 0.1236642 -0.22046486 -0.10955658 0.10258723 0.01671891
-0.08305361 0.0529902 -0.05524236 -0.15509653 0.14031374 0.14070898 0.0002000443 0.116789915
0.021256829 -0.04412083 0.009892109 -0.04664447 -0.058354344 0.087113805 0.10452554 0.05938212
0.21606502 0.37848407 0.24548033 -0.057855446 0.062686846 0.37449142 0.21021317 0.2617079
0.32614818 0.1946786 0.08605449 0.20913468 0.34465817 0.26601264 0.2090832 0.23673499
0.11230981 0.1632889 -0.046967357 0.50056845 0.4674486 0.5889752 0.5262681 0.3863727
0.3208236 0.38578326 0.25436985 0.6387695 0.6846505 0.43864667 0.53804356 0.13395838
0.23676723 -0.078479074 0.05890717 0.42795125 0.35296533 0.4129962 -0.15259199 0.4791722
0.5814715 0.24208984 0.49887118 0.36335447 0.07590602 0.24715525 0.2530445 -0.18929707
0.55510616 -0.0133119915 0.108401336 0.6215164 0.4272092 0.7492652 0.19284745 0.12613258
0.099074885 0.3598011 -0.09681301 0.3344096 0.06360421 0.20575166 0.3001028 -0.105129994
00000000: ca9c 76bd 1073 01be 36b1 033e 1372 933e
00000010: 510f 523e f8f5 923d cea4 f23e 5432 df3d
00000020: 0f8b 07bd b247 583d fad4 cd3d c4bf 5ebd
00000030: 0f4e d53e 9ec5 423e 8088 b53d f2d2 bd3d
00000040: a8da dd3d f5a7 be3d bf58 5cbd fe65 c63e
00000050: 0012 bb3e a31e e63e 9877 183e 2dd9 603e
00000060: 02c8 4d3d de08 1e3d 99be d13d 48a1 893f
00000070: 89a2 ce3e f5ea 823e 0672 0f3e 796a a9bc
00000080: dbe4 89bd fb07 7ebd 7ff8 3cbd 194a 0d3e
00000090: e1f4 6a3e afa4 4a3f 531d 91bd 0779 d93e
000000a0: fec7 863e 11e6 45be 92d4 593d 6b15 d03e
000000b0: 7c79 cd3e cced 233e 9115 f63d 4a97 9ebc
000000c0: 4408 213f 707b 663e 39d9 c23e 675e d93e
000000d0: 0373 8a3e 956b 1a3f f4af 7cbe cf94 b83d
000000e0: 0446 8d3d 0ff6 8b3d 9b9c 0d3e 58ed c13d
000000f0: 92d0 12bc f5e3 0ebe af72 013e fae8 9e3e
00000100: c44c 5bbd 80e8 88bd b602 7abd c9e7 0d3e
00000110: 18c0 e6bd 5fb8 f0bd eb8f 10bd 4b21 323c
00000120: 573d fabc a835 28be ccb2 aebe d620 6dbd
00000130: cb69 6e3e be80 a4bd 9d64 1fbe a82c 8ebe
00000140: bde9 c4bd 46b1 7e3d 72e8 99bd 75b1 df3d
00000150: e4f8 d43c 0b0d 423d 984c 2abd a1c4 cdbd
00000160: c9b7 17bd 654b 0cbe 8e51 95be 2b5c b8bd
00000170: b730 04bc 5a26 473d ef32 993c 5858 5cbd
00000180: ad10 1abe f6d4 84bd 7a84 cebc ac68 e53c
00000190: b65d 7bbe d852 a23d 33ac 43be ee2c 1b3e
000001a0: 4777 31be df23 a2bd 5a61 0fbe 5a90 b83c
000001b0: 3d63 8abd 45e1 afbd 7802 9fbd e5ed a6bd
000001c0: 03ea bebc 141a debe cd91 9a3d 208a 41bc
000001d0: abaf b83d 160e ce3e 2848 74be e129 e03d
000001e0: 7da7 7a3d 16f4 1f3b faf3 763d 13d3 41bd
000001f0: 51bf 80bd fb04 cf3d e93c 523e 3cbd 93bc
00000200: 012f d5bc e139 fb3a 8988 b13d 3e06 663d
00000210: f2b4 bc3c ebe2 023e ff84 853e f0ce a53d
00000220: 6895 f93a 5148 bf3c ef04 efbd a129 c6be
00000230: ac20 ccbe ca07 033e d188 aabe f50b 253e
00000240: b80d 0ebe 4f10 1dbe 9b79 393c e71c 1ebe
00000250: 3306 e1bd ba29 bd3e c3df e3bc 9ff7 afbe
00000260: 3f76 6abd a136 26bc 2794 0b3e 8cd6 eabd
00000270: 0775 3c3e 0ddf a7be e55a 04bd c4df ce3d
00000280: d531 0fbe b5e7 413c ff3a d1bc b054 a23d
00000290: 574d e8bd ac20 ecbc f49e 333d 1ff8 b9bd
000002a0: 4a6b 1abe 2fa4 b4bc 1ab9 063d a843 fd3d
000002b0: 8ac1 61be 335f e0bd 4119 d23d 18f6 883c
000002c0: 0318 aabd 410c 593d d045 62bd a0d1 1ebe
000002d0: 68ae 0f3e 0416 103e fcc2 5139 8d2f ef3d
000002e0: cd22 ae3c 0bb8 34bd 8312 223c 460e 3fbd
000002f0: f704 6fbd b968 b23d 7c11 d63d aa3a 733d
00000300: 2640 5d3e aac8 c13e 325f 7b3e d5f9 6cbd
00000310: f661 803d 57bd bf3e 1f42 573e 94fe 853e
00000320: e5fc a63e d459 473e 563d b03d 6727 563e
00000330: 0977 b03e cf32 883e e819 563e a86a 723e
00000340: b002 e63d 3535 273e d860 40bd 4125 003f
00000350: 6c55 ef3e 14c7 163f 82b9 063f a4d2 c53e
00000360: fe42 a43e 6285 c53e c43c 823e 6686 233f
00000370: 4145 2f3f 4c96 e03e 39bd 093f 632c 093e
00000380: 1c73 723e a3b9 a0bd a548 713d 6d1c db3e
00000390: dfb7 b43e 3d74 d33e 1341 1cbe 0f56 f53e
000003a0: 51db 143f 66e6 773e 0b6c ff3e 9909 ba3e
000003b0: 9e74 9b3d 4416 7d3e 0c8f 813e 17d7 41be
000003c0: 701b 0e3f 8a1a 5abc 8501 de3d b31b 1f3f
000003d0: 2abb da3e d8cf 3f3f cd79 453e e628 013e
000003e0: c6e7 ca3d da37 b83e e645 c6bd bc37 ab3e
000003f0: ed42 823d 90b0 523e 13a7 993e 654e d7bd

critic.qf.fc0.weight f4 [256, 64]
0.503525 0.29966643 0.6076212 -1.0077479 0.7785048 1.1228789 -0.2260886 1.3641005
1.2179896 -1.130929 -0.47039297 -0.48463902 1.5993102 2.0429766 0.07420578 1.8281775
-0.05439265 -0.67384505 -1.6517915 1.3661493 -0.35013333 -0.7640276 0.950159 -0.7894134
-1.0594304 -0.24521737 -0.946148 -2.7446733 -0.1526272 1.9063951 -0.7127345 1.191476
-2.3203754 -0.6280155 -0.7584034 -1.2877918 0.8679321 0.63572395 1.0166531 0.23881625
0.5727278 -0.53907126 0.2217763 -0.47854057 0.650974 -0.89165515 -1.9334078 0.3455535
-0.6938746 -1.2942594 -0.03539051 -0.7051985 -0.051720392 -1.548609 -2.169469 1.4684007
1.1857773 0.25971112 -1.0146099 1.3091393 0.15919071 1.8450848 0.09225276 1.4302921
1.2253783 1.2287422 -1.7551844 -1.1288086 2.0588822 1.8450154 -1.410289 1.2411084
1.6726972 -1.7247138 1.1418847 -1.5734262 3.3965669 -1.4398905 -1.6264153 0.7949331
-2.2155013 -1.3870505 -1.4502344 1.5399272 -1.5936589 -2.0954604 1.1553472 -1.1579123
-1.4802206 1.1128012 -2.266754 -1.7311043 -2.3408182 1.7783005 2.5782068 -1.4412661
-1.8477763 -2.1011465 -1.7655557 -0.9991121 2.0600803 1.5678302 1.131902 1.1356051
1.0237676 1.0012108 1.6072938 -1.5385021 1.615189 -1.8305235 -1.9901488 1.2588536
1.7797399 -2.3139555 1.8646116 -1.9750476 2.4091642 -1.1650984 -1.2954218 0.02853078
1.5065975 1.8021855 -1.386878 2.3888521 1.3571458 1.8170966 1.3758854 1.3970448
1.6667367 0.8999474 -0.97597706 -1.1575171 1.7924525 1.7666723 -1.5915418 1.8200274
1.6993623 -1.8848592 0.8083955 -1.3658868 1.4863659 -1.0329351 -1.1717603 0.7495597
-0.8964576 -1.2854792 -1.8609939 1.9526293 -1.6461025 -1.6773963 1.3273351 -1.5513096
-1.3611337 -0.5373167 -1.2070403 -2.0705729 -1.3123897 2.0502083 1.481746 -1.1810149
-1.9500676 -1.1390433 -1.66165 -1.586085 1.8053448 1.6350467 1.3021806 1.9467704
1.722888 0.5740504 1.5988084 -1.60726 1.7109218 -1.921653 -1.950092 1.7507858
1.2398239 -1.4314978 1.1145316 -0.90832627 1.4631802 -1.1880057 -1.8897636 1.4505571
1.9679096 0.9514012 -1.57657 1.5221472 1.3928618 3.017914 1.774852 1.3910671
2.0848417 0.7843305 -1.8731937 -1.7812424 1.6320952 2.0319984 -0.9987484 1.011244
1.2863283 -2.153489 1.5229566 -1.3582486 2.46379 -1.1638969 -1.8924391 0.48258045
-1.6541023 -2.133445 -1.087983 1.4417369 -1.0887707 -1.6169626 1.3244885 -1.2580816
-1.7372977 0.54782736 -2.4191632 -2.3204746 -2.2137146 1.6863658 2.001988 -0.88694704
-1.4308722 -1.874927 -1.36568 -1.1625066 1.7082138 1.7210177 1.4805381 1.3977888
1.2629089 1.0552832 2.3705184 -1.4201118 1.3283949 -1.7368722 -1.9023068 1.8238043
1.7368659 -2.3409076 1.7520328 -1.6205866 2.298936 -1.282799 -1.7424467 0.36286712
1.5550812 2.0358987 -1.1829778 1.9269481 1.4943975 2.265051 1.430233 1.7824044
00000000: 04e7 003f e16d 993e 108d 1b3f e2fd 80bf
00000010: 174c 473f 7fba 8f3f c583 67be d89a ae3f
00000020: 15e7 9b3f 48c2 90bf 59d7 f0be 9b22 f8be
00000030: 32b6 cc3f 21c0 0240 33f9 973d b801 ea3f
00000040: d4ca 5ebd 1c81 2cbf e76d d3bf fbdd ae3f
00000050: ad44 b3be 5097 43bf 9f3d 733f ff16 4abf
00000060: 6a9b 87bf 431a 7bbe c136 72bf baa8 2fc0
00000070: 4e4a 1cbe c104 f43f c575 36bf 4982 983f
00000080: 0881 14c0 a0c5 20bf ba26 42bf 5dd6 a4bf
00000090: cc30 5e3f cebe 223f b021 823f 3f8c 743e
000000a0: 4a9e 123f 9300 0abf 5419 633e 4503 f5be
000000b0: 3ba6 263f 8343 64bf e879 f7bf 63ec b03e
000000c0: c4a1 31bf 4baa a5bf a4f5 10bd e487 34bf
000000d0: c3d8 53bd d238 c6bf 95d8 0ac0 8ef4 bb3f
000000e0: 8dc7 973f dbf8 843e bdde 81bf e091 a73f
000000f0: e402 233e bd2b ec3f 04ef bc3d d013 b73f
00000100: 32d9 9c3f 6d47 9d3f e2a9 e0bf cd7c 90bf
00000110: bac4 0340 7729 ec3f 5a84 b4bf a4dc 9e3f
00000120: f11a d63f 6cc3 dcbf 4729 923f 0866 c9bf
00000130: 5a61 5940 554e b8bf 602e d0bf bc80 4b3f
00000140: c6ca 0dc0 df8a b1bf 48a1 b9bf 561c c53f
00000150: 04fd cbbf 061c 06c0 6be2 933f 7836 94bf
00000160: de77 bdbf 4570 8e3f 7f12 11c0 d394 ddbf
00000170: f7cf 15c0 5a9f e33f 5701 2540 687b b8bf
00000180: ef83 ecbf 2f79 06c0 bbfd e1bf d0c5 7fbf
00000190: 5bd8 0340 a9ae c83f 2ae2 903f 825b 913f
000001a0: d10a 833f ad27 803f cebb cd3f a3ed c4bf
000001b0: 83be ce3f 984e eabf 32bd febf 1d22 a13f
000001c0: 84ce e33f d917 14c0 98ab ee3f 5cce fcbf
000001d0: bf2f 1a40 f221 95bf 62d0 a5bf 62b9 e93c
000001e0: 30d8 c03f 04ae e63f 3885 b1bf f4e2 1840
000001f0: f4b6 ad3f 9f96 e83f 031d b03f 5dd2 b23f
00000200: a157 d53f f462 663f a2d9 79bf 8529 94bf
00000210: 156f e53f 5122 e23f a4b7 cbbf a8f6 e83f
00000220: b484 d93f 1143 f1bf 02f3 4e3f 61d5 aebf
00000230: 3d41 be3f 3837 84bf 3efc 95bf 25e3 3f3f
00000240: 3f7e 65bf 958a a4bf 0c35 eebf c2ef f93f
00000250: 7db3 d2bf ecb4 d6bf 1ee6 a93f 5091 c6bf
00000260: a139 aebf 968d 09bf 4c80 9abf 4484 04c0
00000270: 63fc a7bf 9d36 0340 daa9 bd3f 7f2b 97bf
00000280: d19b f9bf 2ccc 91bf f2b0 d4bf d504 cbbf
00000290: 8a15 e73f 3649 d13f dbad a63f c62f f93f
000002a0: 9887 dc3f f8f4 123f c1a5 cc3f b2ba cdbf
000002b0: 7cff da3f baf8 f5bf 9d9c f9bf c019 e03f
000002c0: 8db2 9e3f 523b b7bf f9a8 8e3f 1288 68bf
000002d0: 7d49 bb3f 9210 98bf c6e3 f1bf dbab b93f
000002e0: 76e4 fb3f 078f 733f 0ccd c9bf b8d5 c23f
000002f0: 4c49 b23f 8125 4140 5a2e e33f 7d0e b23f
00000300: 0c6e 0540 e2c9 483f d0c4 efbf c0ff e3bf
00000310: 7fe8 d03f 430c 0240 faad 7fbf 7270 813f
00000320: 68a6 a43f c4d2 09c0 3ef0 c23f 17db adbf
00000330: bcae 1d40 93fa 94bf 723b f2bf c914 f73e
00000340: a0b9 d3bf 5d8a 08c0 0743 8bbf d68a b83f
00000350: d75c 8bbf a1f8 cebf d788 a93f d108 a1bf
00000360: c55f debf 6a3e 0c3f 92d3 1ac0 a882 14c0
00000370: 80ad 0dc0 d6da d73f 9220 0040 f60e 63bf
00000380: d226 b7bf 9cfd efbf 9ace aebf 04cd 94bf
00000390: c0a6 da3f 4f4a dc3f 4682 bd3f beea b23f
000003a0: 00a7 a13f 8513 873f 93b6 1740 39c6 b5bf
000003b0: d808 aa3f d451 debf ca7e f3bf 6b72 e93f
000003c0: 9f51 de3f 6ed1 15c0 9c42 e03f 626f cfbf
000003d0: c421 1340 c232 a4bf 7e08 dfbf b8c9 b93e
000003e0: e70c c73f 2a4c 0240 d16b 97bf 3ca6 f63f
000003f0: 6b48 bf3f 98f6 1040 e011 b73f d425 e43f

critic.qf.fc0.bias f4 [256]
0.7965935 2.1661716 1.7876581 1.6124837 1.0266358 1.6508783 1.3165565 0.25329658
0.20350525 1.489358 1.5445355 1.6727508 1.6439732 1.4329267 1.6498876 0.28420678
1.3421477 2.001167 1.5325856 0.7248279 1.1713626 0.6862588 1.7569696 0.20734146
1.4556637 1.3131431 1.5836592 0.7482845 1.5840526 1.9052596 1.4954964 1.7909974
1.3865983 1.5258665 1.3298283 1.1221622 1.371846 1.4243957 0.24830094 0.8012373
1.5561539 2.0954003 1.4889395 0.3392867 1.5134983 0.780998 0.32365164 0.6179673
1.5399276 1.63805 1.4507716 1.4853413 1.5482512 0.7608767 1.7926286 2.0759625
1.5091206 1.5114259 0.7944928 0.49608466 1.2091718 1.3642368 0.84737164 0.22524773
1.557299 -0.02585084 1.1133237 1.6815447 1.5443939 1.4820511 1.5079154 0.65168595
1.0473282 1.7472767 0.54877424 1.0279218 1.0490032 0.46806207 1.6827304 0.29159224
1.5630221 1.1130811 0.44403592 0.5298952 1.5538331 0.67872185 1.2235539 0.7773861
1.3542416 0.64403147 0.84424406 1.5678152 1.1944174 0.6502781 1.0704656 1.5341607
1.5968188 1.8126776 1.525196 1.4725655 0.1338106 0.81782144 1.7533512 -0.049599342
0.21079151 0.29809678 1.4392676 -0.08182318 1.2176328 0.54778045 -0.13015334 0.5339819
1.8266811 1.2381482 1.5488716 1.5669769 1.349306 1.6165931 0.074333675 1.3943472
1.5214838 1.4070644 1.6785413 0.72116804 1.4919039 0.22875494 0.6714926 1.4622957
1.3985646 1.499058 0.36270374 1.658275 0.8246927 1.5360368 2.9375238 1.463325
0.090507105 0.20104 2.8845267 0.69127214 1.0533435 1.4333899 1.6890187 1.6008868
1.5766867 1.3861625 0.6426082 0.6291642 1.1898911 1.7840866 1.5432856 1.0576031
1.4911376 1.8069943 1.1597903 2.5454407 1.1549141 0.91884345 1.4629694 0.043424077
2.656446 1.7371105 1.2444806 1.2687576 0.49529567 1.255729 1.8068619 0.3124246
1.6636326 1.6497197 0.5345036 1.6362138 1.4147094 1.6652995 0.11647694 1.9322662
1.5197519 0.7655064 0.070577085 1.0488044 1.5387725 1.2677382 1.5453227 1.1178448
1.1920877 1.2695936 1.6442479 1.3987504 1.7069054 1.5591933 1.7995865 1.3630803
1.5133283 0.5963734 1.4851855 1.0834737 2.0540254 1.5266713 1.5233303 1.6393031
0.84277874 0.92908293 1.6735773 1.8209734 0.8618281 1.7548785 1.3442711 0.3825514
1.3416373 1.6758064 0.9358979 1.2734002 1.2004166 0.21856347 0.32228318 1.6391166
1.4876561 0.5306565 1.3924257 1.4851633 0.27192593 0.80999005 1.7238743 1.6848798
1.4646443 0.8327326 1.6176773 0.38647902 1.4447969 0.33272526 -0.50697094 -0.1715543
0.61423415 0.8786273 1.0372524 0.82157314 0.8543187 -0.03820483 0.43611273 1.7356414
1.3073953 0.41771197 0.6988254 1.6667238 -0.20142499 1.3935436 1.0144619 1.801716
0.84067786 0.18904369 0.538254 0.5584617 -0.13060369 1.7009546 1.4790355 1.5593374
00000000: 8ded 4b3f 8ea2 0a40 fbd1 e43f de65 ce3f
00000010: cd68 833f fb4f d33f ec84 a83f 17b0 813e
00000020: ae63 503e 48a3 be3f 57b3 c53f b31c d63f
00000030: b76d d23f 246a b73f 842f d33f 8d83 913e
00000040: 7fcb ab3f 1f13 0040 c42b c43f 528e 393f
00000050: 36ef 953f a8ae 2f3f 61e4 e03f 5251 543e
00000060: 3053 ba3f 1315 a83f 58b5 ca3f 938f 3f3f
00000070: 3cc2 ca3f 8cdf f33f 6d6c bf3f 673f e53f
00000080: 0e7c b13f 984f c33f d037 aa3f 03a3 8f3f
00000090: a698 af3f 9952 b63f 9a42 7e3e e31d 4d3f
000000a0: 0d30 c73f 0a1b 0640 9295 be3f fdb6 ad3e
000000b0: 50ba c13f 7cef 473f abb5 a53e 1b33 1e3f
000000c0: 591c c53f 9fab d13f e2b2 b93f aa1f be3f
000000d0: 182d c63f d1c8 423f db74 e53f 92dc 0440
000000e0: dd2a c13f 6776 c13f e163 4b3f cffe fd3e
000000f0: 24c6 9a3f 509f ae3f 59ed 583f 57a7 663e
00000100: 9355 c73f 24c5 d3bc 6481 8e3f db3c d73f
00000110: b3ae c53f dab3 bd3f 5f03 c13f e4d4 263f
00000120: da0e 863f c3a6 df3f 787c 0c3f f192 833f
00000130: bd45 863f d5a5 ef3e b663 d73f 944b 953e
00000140: 1c11 c83f 7179 8e3f ad58 e33e 36a7 073f
00000150: 01e4 c63f b7c0 2d3f 6a9d 9c3f c702 473f
00000160: ca57 ad3f 3fdf 243f 6120 583f 2bae c83f
00000170: abe2 983f a078 263f 0405 893f 615f c43f
00000180: 8f64 cc3f d205 e83f 9f39 c33f 077d bc3f
00000190: a505 093e bf5c 513f d06d e03f ae28 4bbd
000001a0: bbd9 573e 24a0 983e ec39 b83f e992 a7bd
000001b0: 64db 9b3f 573b 0c3f eb46 05be 0ab3 083f
000001c0: b0d0 e93f a47b 9e3f 6d41 c63f b392 c83f
000001d0: 0fb6 ac3f 86ec ce3f 413c 983d f879 b23f
000001e0: fbbf c23f b01a b43f 71da d63f 789e 383f
000001f0: b5f6 be3f bc3e 6a3e f0e6 2b3f 812c bb3f
00000200: 2a04 b33f 22e1 bf3f 4eb4 b93e 5b42 d43f
00000210: 101f 533f db9c c43f 6400 3c40 3c4e bb3f
00000220: ca5b b93d 6edd 4d3e 169c 3840 36f7 303f
00000230: f6d3 863f 5279 b73f c431 d83f dce9 cc3f
00000240: dfd0 c93f c66d b13f f981 243f e810 213f
00000250: 5a4e 983f f35c e43f 628a c53f 8a5f 873f
00000260: 99dd be3f 974b e73f 0274 943f 80e8 2240
00000270: 3ad4 933f 5339 6b3f 9542 bb3f 72dd 313d
00000280: 3603 2a40 a359 de3f 244b 9f3f a666 a23f
00000290: 6597 fd3e babb a03f 4047 e73f 1ef6 9f3e
000002a0: eaf1 d43f 042a d33f 3ad5 083f 746f d13f
000002b0: 3315 b53f 8928 d53f 768b ee3d 8054 f73f
000002c0: 3b87 c23f 3af8 433f b88a 903d 393f 863f
000002d0: 7ff6 c43f 3f45 a23f 22cd c53f 8a15 8f3f
000002e0: 5496 983f 0b82 a23f b776 d23f 410a b33f
000002f0: e07b da3f a593 c73f da58 e63f 6a79 ae3f
00000300: beb4 c13f edab 183f 8f1a be3f 44af 8a3f
00000310: 2775 0340 f769 c33f 7dfc c23f afd4 d13f
00000320: 59c0 573f 61d8 6d3f c837 d63f a815 e93f
00000330: c4a0 5c3f dc9f e03f 1311 ac3f c7dd c33e
00000340: c5ba ab3f d380 d63f 0197 6f3f c7fe a23f
00000350: 40a7 993f 1acf 5f3e 4d02 a53e 93ce d13f
00000360: 846b be3f 1bd9 073f 013b b23f d519 be3f
00000370: e039 8b3e 825b 4f3f eaa7 dc3f 24aa d73f
00000380: 7779 bb3f f72d 553f 0d10 cf3f 94e0 c53e
00000390: 1bef b83f f75a aa3e d9c8 01bf eeab 2fbe
000003a0: 733e 1d3f b8ed 603f b0c4 843f 9e52 523f
000003b0: a1b4 5a3f ab7c 1cbd 2b4a df3e 7f29 de3f
000003c0: bb58 a73f 58de d53e 39e6 323f 3557 d53f
000003d0: 5a42 4ebe a35f b23f e3d9 813f a19e e63f
000003e0: aa36 573f ab94 413e 04cb 093f 59f7 0e3f
000003f0: f9bc 05be e1b8 d93f 0951 bd3f 5e98 c73f
