TFPORL-main/pomdp-discrete/logs_results/mini-cage/final/standard/mlp/seed-1/save/agent_0008500_perf0.000.pt (torch, 850074 bytes, 20 tensors)

critic.observ_embedder.fc.weight f4 [64, 78]
000000 c3 6d 1b bd e4 b3 4c bd 3c b3 7b bc 2a af 59 3d
       -0.037946474 -0.049976245 -0.015362557 0.053145565
000010 5e b7 fc bd 2e ca 2c be ca c6 d2 3b 5a 11 2f 3e
       -0.12339662 -0.16874 0.006432389 0.17096463
000020 47 6d de bb dd 24 02 3c e3 fb e1 bc 28 11 fd 3c
       -0.006787929 0.007943359 -0.02758593 0.03089197
000030 a8 8a c8 3d 6c e2 df bd 23 3f 5a bc 2a c0 9e bd
       0.097920716 -0.109318584 -0.013320717 -0.07751496
000040 c5 71 86 3c fa 25 ed b9 55 df 1f 3d ef 52 10 3d
       0.016411671 -0.00045232457 0.039031345 0.03523534
000050 fe b6 2c bd 84 0d 8c bd dc 17 84 3c 27 0c 48 bd
       -0.042166702 -0.068385154 0.016124658 -0.048839714
000060 2a 9e 14 bd 0a a7 b1 3b 57 c1 c6 3d f1 14 7c 3d
       -0.03628365 0.005421524 0.097048454 0.06154341
000070 cb ae 37 be 3d ff ff 3c 62 1f d3 3d b5 4c 35 3e
       -0.17937772 0.031249637 0.1030872 0.17705043
000080 f1 41 6e 3d b6 48 d3 bd fc 17 2c bd 29 7c 8c bc
       0.058168355 -0.10316603 -0.04201506 -0.017149048
000090 10 14 f9 3b 0b c2 2f be d8 f7 7f 3d 52 cf fc bd
       0.0076012686 -0.17163865 0.06249222 -0.12344231
0000a0 99 1b 44 bc 52 90 24 be 55 b5 cb 3d b6 ff ed bd
       -0.01196947 -0.16070679 0.09946696 -0.116210386
0000b0 3a ee 54 bd cb 22 d9 bd 36 d6 ea bd c2 dc 51 3d
       -0.051985003 -0.10602339 -0.11466639 0.05123592
0000c0 5b 7c 04 3d 73 a8 d1 bd 56 1b e8 3c a3 03 1a 3d
       0.032345157 -0.10237207 0.028333347 0.037601124
0000d0 d1 27 28 3e bb 8a 90 bc d0 e7 92 3d 24 7e 26 3c
       0.16421439 -0.017644277 0.07173121 0.01016191
0000e0 25 ba ad bb 6b c8 9a bd 63 36 8d 3d ab f9 99 3d
       -0.005301731 -0.07557758 0.06895139 0.075183235
0000f0 29 05 93 bb 4e 12 87 3c aa 6f 29 bb 5c 85 0f 3d
       -0.004486699 0.01648822 -0.002585391 0.03503929
000100 69 50 8d bd 01 eb 8c 3c b1 57 71 3c 61 37 4f bc
       -0.06900103 0.017201902 0.01473038 -0.012647481
000110 36 f3 11 be f8 8d a4 bd 7e 4c 7c 3d 73 81 d9 bc
       -0.14252934 -0.08034891 0.061596386 -0.026550984
000120 53 48 02 3d 56 85 d3 3b 10 32 77 3c ca 03 0c bc
       0.031807255 0.006455104 0.015087619 -0.008545825
000130 76 53 a0 3d 70 3c 91 3c fa 6f 4e 3e d6 71 69 3d
       0.07828419 0.017729014 0.20159903 0.056993328
000140 73 ff c2 bc 9d f6 ae bd 8c bb 31 3d 31 69 da bd
       -0.023803448 -0.085431315 0.04339175 -0.10664595
000150 90 91 82 3e 99 5d da ba e4 98 42 be a2 9a 0c bc
       0.2550168 -0.0016659974 -0.19003636 -0.008581789
000160 bd 6a 7f 3d 54 d4 dd 3d 43 a0 60 bd b2 2f fb bd
       0.062357653 0.10831514 -0.054840337 -0.122649565
000170 63 4f 22 3e 7a 7b a2 3d a1 43 9b bd 13 0d 5c bd
       0.15850596 0.079337075 -0.075812586 -0.053723406
000180 ae e5 59 3e ad 25 a6 3c 93 47 45 bd cf 64 0c bd
       0.21279022 0.020281637 -0.04816396 -0.034275826
000190 c1 26 00 bd 5c 9e ab bc e2 bc 82 3d 8a d1 48 3d
       -0.03128696 -0.020949535 0.06383683 0.049027957
0001a0 ba dc bd bd d6 34 c5 bd dc bc 62 3c 1a c6 cb bc
       -0.09270616 -0.09629218 0.013838973 -0.024874736
0001b0 ef 1b bd be 6c 1b 55 bc 9d d5 33 3c 65 36 ad 3d
       -0.36935374 -0.013007026 0.010976222 0.084576406
0001c0 b4 26 81 bc e6 fe fe bd f6 66 90 3c 45 7f 92 3c
       -0.015765525 -0.12450962 0.01762722 0.017882952
0001d0 85 c4 10 3e a9 3c c0 3d 6b 89 81 bc 45 e3 aa bd
       0.14137466 0.0938657 -0.015812596 -0.083441295
0001e0 75 85 9c 3d b7 25 1f 3d 20 23 db bc f2 86 b4 bd
       0.076426424 0.038854327 -0.026750147 -0.08814801
0001f0 6f ef c5 3d ef 0a 94 3c 1e 34 5b bc 05 a5 39 bd
       0.09664809 0.01807162 -0.013379125 -0.04532339
000200 1e a6 ce 3d de 0b ac 3d 54 99 73 be bf dd af bc
       0.10090278 0.08400701 -0.23788959 -0.021468041
000210 3a dc 95 bc 85 fc 88 3d f8 84 90 3d f0 c9 a4 3d
       -0.018293489 0.06688789 0.07056612 0.08046329
000220 a8 ac 92 3d 99 bd 09 3e d1 74 3c bd 85 5f 3a bd
       0.07161838 0.13451232 -0.046009842 -0.04550125
000230 a4 91 11 bc ec 11 b2 bc 60 3c d5 bb 07 95 02 bd
       -0.008884821 -0.021737061 -0.0065074414 -0.031880405
000240 d4 e7 b5 3b 4f 7e 0a 3e 13 9b ef ba 07 e3 15 3d
       0.0055513177 0.13524745 -0.0018280469 0.036593463
000250 fd 93 8d 3d 43 2a 9c 3d 73 78 c1 3c 14 90 e2 3d
       0.06912992 0.07625248 0.023617005 0.11062637
000260 77 37 6f 3c d0 d1 30 3d d7 7e 31 be 41 77 12 be
       0.014600626 0.043168843 -0.17333542 -0.14303304
000270 82 4b 0a 3e a0 5e 46 bd 5e 5f 50 bd 03 8e 17 bd
       0.13505366 -0.048430085 -0.0508722 -0.037000667
000280 c6 0a 2f 3a 31 7e b9 be 4f f1 04 3d cd 29 b4 be
       0.00066773256 -0.3622909 0.032456692 -0.3518814
000290 95 87 fe bc bd ae 31 bd f1 94 a4 bd 93 0e 29 3c
       -0.03107051 -0.043379534 -0.08036221 0.010318416
0002a0 b6 9c 4c 3d 3c cb 12 3d d0 b9 ed bd bb 92 2e be
       0.04995414 0.03583835 -0.116077065 -0.1704816
0002b0 a6 74 a9 3c 76 1f e5 3c e8 d4 c7 3d b7 01 e2 3d
       0.020685505 0.027969103 0.097574055 0.11035483
0002c0 ff 28 9e 3d 72 4b 6c 3b 35 18 e4 3d 7b 39 b5 3d
       0.07722663 0.003605571 0.111374296 0.08848854
0002d0 fc f2 e7 bc 62 fa 15 bc 0b 54 49 3d 4b 38 b7 bc
       -0.028314106 -0.009153934 0.049152415 -0.02236571
0002e0 a7 02 12 be 4c 90 d7 3d d6 81 19 3d c0 a1 b9 bc
       -0.14258824 0.10525569 0.037477337 -0.022660136
0002f0 26 d1 d3 bc fc c5 7a bd 97 fa 9a 3d 12 13 a9 bd
       -0.025856566 -0.06122397 0.075673275 -0.082555905
000300 0c 77 6a 3d b8 d7 3c be a1 ce 51 3e 55 76 8a 3d
       0.05724244 -0.18441665 0.20488979 0.06760851
000310 44 73 8e 3c 69 f0 2a bf 5b 37 db 3b 44 e9 26 be
       0.017388947 -0.66773087 0.0066899485 -0.16299921
000320 2a 86 dd bc b8 2e 0c bf 8d e8 73 3d 78 5f 91 be
       -0.027041513 -0.5475879 0.05954795 -0.2839315
000330 08 a0 22 3c f1 c3 9c bd ad 09 f9 3d c2 ae 64 be
       0.00992585 -0.0765456 0.12160049 -0.2233229
000340 5e 6e 86 be 05 a6 fa bb 2d 1c 15 bc bc 15 ef 3c
       -0.26256078 -0.0076491856 -0.009100956 0.029185168
000350 51 97 d0 bd d8 f0 a8 3d 44 2d ca 3d 70 f9 d2 3d
       -0.10185111 0.08249062 0.09871915 0.10301483
000360 62 ce 84 bb c4 e2 d1 bb cb 4d 02 bd ef d5 2e bc
       -0.004052923 -0.0064052064 -0.03181247 -0.010671123
000370 32 a7 05 bd 6b f3 99 3c d4 72 df bd b1 8d 77 bd
       -0.032630153 0.018792829 -0.109105736 -0.06043786
000380 f6 0c 31 3e 55 9c a6 bd 45 81 d4 bc c6 b2 a8 3d
       0.172901 -0.08135287 -0.025940547 0.08237223
000390 6e a3 4b 3e c6 4f db 3d 91 70 6b 3d a0 b8 e1 bd
       0.19886562 0.10708575 0.0574804 -0.110215425
0003a0 89 4b c3 bc 5e 64 c6 bd d5 a9 15 3d 7c 1d e2 3c
       -0.023839729 -0.09687112 0.036538918 0.02760195
0003b0 b6 d6 cf b9 bc 6a 98 3d 87 88 cf bc 14 8a 0b be
       -0.0003964209 0.07442233 -0.025333656 -0.13626891
0003c0 ce 02 77 bc f7 58 37 be 44 fe 81 bc 77 8a e0 bd
       -0.015076352 -0.17905031 -0.015868314 -0.1096391
0003d0 00 c4 98 bc cd 43 1c 3e af 84 35 bb fe 86 89 3e
       -0.018648148 0.15260239 -0.0027697494 0.26860803
0003e0 50 e5 25 be 6d b2 3d bd a6 69 cc 3d e7 87 1d bd
       -0.16200757 -0.04631274 0.09981088 -0.038459685
0003f0 41 b2 be bc 00 d6 4e 3d a3 46 5e 3c 47 3d 68 bd
       -0.023278357 0.050497055 0.013566646 -0.056699064

critic.observ_embedder.fc.bias f4 [64]
000000 ed c7 a4 bd 59 e0 92 bd 23 27 d6 3b 82 58 cd 3d
       -0.08045945 -0.07171697 0.006535427 0.10026647
000010 f5 e1 62 3d 7d 23 fc bd 89 6f 24 3d fb b1 e8 3d
       0.05539127 -0.12311456 0.04014543 0.11362072
000020 34 16 b1 3e c9 5f 39 3d e6 be 10 3d 30 86 bb 3d
       0.34587252 0.045257363 0.035338305 0.091564536
000030 dd 65 21 be 54 5d 63 3c 93 28 d6 3c ef 12 c2 3d
       -0.15761514 0.013877232 0.026142394 0.094762675
000040 01 c1 26 3e f6 b6 1e 3e 2d c2 d7 3d cb f3 bc bd
       0.16284563 0.15499482 0.10535083 -0.09226187
000050 b2 08 11 bd 3d 85 18 3e be d2 7d ba 44 98 66 3d
       -0.035408683 0.14894576 -0.0009682587 0.056297556
000060 55 1a 2c 3e 1d a0 21 3e c4 91 01 3e 69 9e e0 3d
       0.1680692 0.15783735 0.12653261 0.10967714
000070 f0 ce 22 3e 54 7e c0 3c e9 09 cc 3d 19 2d 18 3d
       0.15899253 0.023497738 0.09962828 0.037152383
000080 7e a4 cc 3c 99 cf 52 bd 20 02 f6 3b ca 14 43 3c
       0.02498078 -0.05146751 0.0075075775 0.011906812
000090 42 d8 06 bd 2e d4 42 3d d1 5a 91 bb 06 e5 83 3d
       -0.032921083 0.04756563 -0.004435875 0.06440167
0000a0 e7 68 a8 3d c2 24 87 3d 0f fa b2 3d 1b 53 18 3e
       0.082231335 0.06598808 0.08739101 0.14875452
0000b0 d2 ea 42 3d b7 c4 a3 3d 6f c3 3e 3e fd d0 c6 3d
       0.047587223 0.07996505 0.1862924 0.0970783
0000c0 4b 6d 90 bd 0a 7a 0f 3e ab 77 45 bd c2 90 00 be
       -0.07052096 0.14011398 -0.048209827 -0.1255522
0000d0 52 a6 18 be fc cf 29 3e 01 2d 85 bd f4 06 38 3d
       -0.14907196 0.16583246 -0.065027244 0.044928506
0000e0 15 6a 25 be 9c d0 8c 3d dd e9 3b bc bb 4a ab bd
       -0.16153748 0.068757266 -0.011469332 -0.08363863
0000f0 a0 79 ee 3c 2a fb 30 3c 26 a5 d1 bd f8 3d 38 3d
       0.02911073 0.01080207 -0.10236578 0.044980973

critic.seq_model.model.0.weight f4 [64, 64]
000000 bf cd 0c 3e 86 ea be 3d 99 ca fe bd ef 24 69 3e
       0.13750361 0.093220755 -0.12440986 0.22767995
000010 c6 7f 46 3e 7e 03 17 bd 34 87 62 3e 85 9b 31 bd
       0.19384679 -0.036868565 0.22121888 -0.043361206
000020 81 c8 70 bf 71 61 d4 bd f4 6c 12 bd 2d 81 da 3d
       -0.94055945 -0.10370148 -0.035748437 0.106691696
000030 dd 7a cd bd 4e 06 8f 3d f8 06 ee 3d eb 88 f9 3d
       -0.100332 0.069836244 0.11622423 0.12184318
000040 8f e5 6b 3e a5 e4 9a bd 5d 49 d5 3e 93 56 34 3e
       0.23036788 -0.07563142 0.41657534 0.1761115
000050 fc e2 14 be f8 85 8d bd da 5c 5c 3d cd d2 cc bd
       -0.14539713 -0.06910318 0.053799488 -0.100011446
000060 ba ae 11 bf d0 67 f4 3d b4 17 0b 3e 5d f4 70 3c
       -0.56907237 0.11933863 0.13583261 0.014706698
000070 bc 8c 5f be 40 86 89 bd e7 5e 05 be f1 cd a9 be
       -0.2183103 -0.06715059 -0.13024484 -0.33164933
000080 8c 67 84 bc 59 69 4d 3e 60 e8 ce 3d b4 99 71 3d
       -0.016162656 0.20059718 0.10102916 0.058984473
000090 cb 1f 85 3e 98 3f 97 3d 59 76 fc bd ee fc 05 3e
       0.2600082 0.073851764 -0.123272605 0.13084766
0000a0 a7 38 64 3e 5b cf 5f 3d 2c b3 58 be dc 53 b8 bd
       0.22287236 0.05464111 -0.21162099 -0.0900037
0000b0 e1 d7 30 3d 5c 9f f6 3d 02 c0 46 bf c5 cf 88 be
       0.04317463 0.12042114 -0.7763673 -0.26721016
0000c0 e8 33 03 be f4 4d 21 bd c0 09 ff 3d 5f 12 84 bd
       -0.1281277 -0.039380983 0.124530315 -0.064488165
0000d0 b1 0b 0a 3e fb 90 b9 be 98 42 f9 3d ae 04 7a 3c
       0.13481022 -0.36243424 0.12170905 0.015259905
0000e0 30 df 84 bd 84 10 cb 3d 21 e3 9f 3c 9c ea c2 3b
       -0.06487882 0.099152595 0.019517483 0.005948378
0000f0 6f 19 c0 3d 50 48 e7 3d 89 17 e2 bd 8c ba ad bd
       0.09379851 0.112930894 -0.11039645 -0.084828466
000100 d6 19 e2 bc 7f cf a4 3c 92 d7 37 bd 02 d5 36 be
       -0.02760021 0.020118473 -0.04488332 -0.17854694
000110 7b 57 a9 bd 9b b3 03 3e a7 e3 ee 3d a0 22 07 be
       -0.08268639 0.12861483 0.11664515 -0.13196802
000120 50 a7 8c 3d a8 4f d5 3d 34 a0 b0 3d 26 7c f4 3d
       0.0686785 0.10415584 0.08624306 0.11937742
000130 ad 9e 07 be 2d 6f 6a 3d ec e1 5d bd f1 6a a5 bd
       -0.13244124 0.05723493 -0.054170534 -0.08077038
000140 b3 52 6c 3e f3 e2 70 3d 4e 68 5e be 82 d9 68 3c
       0.23078422 0.058810186 -0.21719477 0.014212014
000150 3c 3f 8b 3d 4c e0 49 bd 24 e6 1c 3d 07 1b 4f 3e
       0.067991704 -0.04928617 0.038305417 0.20225154
000160 da df 8b bd c1 4b 1c 3e d2 f5 f5 bb b7 80 aa bc
       -0.06829806 0.15263273 -0.0075061107 -0.02081333
000170 9a b1 0a be 16 29 ee 3d 76 8c e2 bc 6a 20 8c be
       -0.13544312 0.1162893 -0.027654868 -0.2736848
000180 4e 88 ee bd b3 b7 25 be 92 ca d5 bb 36 0e 63 bc
       -0.11647092 -0.16183357 -0.0065243924 -0.013858369
000190 11 e1 23 bc 36 26 83 bd cb 05 ca bd 8f 37 06 bc
       -0.0100023905 -0.064037725 -0.09864386 -0.008191957
0001a0 05 af 9c bd 69 e6 02 bd f5 de 08 bd 5c f8 bb 3c
       -0.0765057 -0.031958017 -0.033415753 0.022945575
0001b0 60 77 aa 3b 58 ee 30 bd c3 36 cc be 24 9f f3 bd
       0.005202219 -0.043196052 -0.3988553 -0.11895588
0001c0 66 7e 0b 3d 10 18 5e bd 1d 45 3e bd d9 36 d4 bb
       0.03405609 -0.054222167 -0.04645263 -0.006476265
0001d0 27 0a 97 3d 4b 35 12 bd 0a 1f cc 3d 20 96 ac 3c
       0.07374983 -0.035695355 0.09966858 0.021067679
0001e0 f4 9f 00 be 38 c0 d2 3c a8 0f b6 bd d9 cf 06 3d
       -0.12561017 0.025726423 -0.08889705 0.032913063
0001f0 65 3d 03 3e af 1a 2b 3d 33 e0 92 3d 74 33 fc bc
       0.12816389 0.041773494 0.07171669 -0.030786254
000200 70 f3 d4 bd 1a 03 f8 3d c3 4c 11 be 3b 4e 9c be
       -0.103979945 0.121099666 -0.14189439 -0.30528435
000210 61 1c c7 3d a9 46 f9 3d c3 f3 c2 3e 75 3e b4 3d
       0.0972221 0.121716805 0.380766 0.08800975
000220 f5 97 76 bd 66 ba 38 3e e4 55 7e 3d 71 f4 45 3d
       -0.06020351 0.18039855 0.06209363 0.04832882
000230 76 67 19 be 99 ec ab bd 00 89 30 3a ac 5b 35 bc
       -0.14980873 -0.08394737 0.0006734282 -0.01106922
000240 10 c9 20 bd db bd 53 3d 6e a9 d3 bd 20 7b 92 3d
       -0.03925425 0.051694732 -0.103350505 0.071523905
000250 7d 40 51 3e 12 66 2e 3c b4 ee 67 bc 50 09 3a 3d
       0.20434757 0.010644453 -0.014156032 0.045419037
000260 92 c3 b3 be ca 62 18 3e 5f 1a ea 3d 55 11 3c be
       -0.35110146 0.14881435 0.11430811 -0.18365987
000270 f9 69 15 bb 05 3e 0e 3c b0 39 ea 3c 68 b5 b2 bc
       -0.002279876 0.008681779 0.02859196 -0.021815017
000280 f1 38 e6 bd 10 93 4d be 47 78 30 bd db 1f 1b 3e
       -0.112413295 -0.20075631 -0.043083455 0.1514887
000290 23 c2 41 bd 90 c2 e0 3c f6 30 8b 3d ad 93 75 bb
       -0.047304284 0.027436525 0.06796448 -0.0037472055
0002a0 96 9a 7d bd 1f c5 ba 3d ac f3 c7 bd 77 c2 7c 3d
       -0.061915003 0.09119629 -0.097632736 0.061708894
0002b0 1e 46 48 3e aa ca dc 3d d4 3d e5 3c 6d 60 66 3d
       0.19557998 0.107808426 0.027983584 0.056244303
0002c0 fd 2e 99 3c 7f 3c d8 bd 42 97 50 be 4c d9 ba bd
       0.018699164 -0.10558414 -0.203702 -0.09123477
0002d0 07 89 80 bd 10 a6 4a bd 34 3c 5f 3d ce 63 a7 bd
       -0.06276136 -0.049474776 0.054500774 -0.08173333
0002e0 27 66 12 bd a7 c4 55 3c dc 3c 61 bd 3f 92 e1 3d
       -0.03574195 0.013047374 -0.05498968 0.11014222
0002f0 7d 97 27 3e 2c e6 1e be c7 8e bb 3d 5d 55 16 bd
       0.16366382 -0.15517491 0.09158092 -0.036702503
000300 bf cb 80 bc 18 0f 4d 3e b8 f2 03 3c d3 91 2d be
       -0.015722154 0.20025289 0.008053474 -0.16950159
000310 b2 92 7a bd 27 1b 07 be 75 5c 80 3d ad ee 50 3e
       -0.061175056 -0.13193952 0.06267635 0.20403548
000320 e1 ed 16 bf 74 5e 0d 3d 08 8f b5 3c aa 15 bb bc
       -0.58956724 0.034513906 0.02216293 -0.022837479
000330 e4 24 8b 3d a3 4e 2a 3e 17 80 e6 3d 08 a8 18 3c
       0.06794146 0.1663156 0.112549 0.0093174055
000340 d9 dd 04 be bc 68 f2 bd d0 20 90 be 3a 19 a2 bc
       -0.12975253 -0.11836383 -0.28150034 -0.01978742
000350 80 fb 72 3d 6d 9a 5a bd d8 0b 8a 3c 75 a4 fc bd
       0.05932188 -0.05336993 0.01685135 -0.12336055
000360 99 9c 1e bd cc 6d 33 3e 9e 5a 0c be 4f eb 91 bd
       -0.038723562 0.17522353 -0.13706443 -0.0712496
000370 13 e1 b4 bc 7c 55 dc bc 12 bc 87 bd 63 ba 57 be
       -0.02207998 -0.02689623 -0.066276684 -0.21067195
000380 3d f4 19 bd 40 7f 4a 3d 6c ff a8 39 3d 4d 96 3c
       -0.03758644 0.04943776 0.0003223376 0.018347377
000390 9c 56 4f 3d d5 c6 eb bd cd 9f e6 3d d2 40 d9 3c
       0.050619707 -0.115125336 0.11260948 0.026520167
0003a0 ee 53 0e 3b 96 99 b8 3d 9f 8a 8c 3d f2 c2 23 bd
       0.0021717506 0.09013669 0.068623774 -0.039980836
0003b0 cf 47 34 3d f0 bb 10 bd 5c ed 80 3a fb 40 34 bd
       0.044013795 -0.03533548 0.0009836364 -0.044007283
0003c0 1e 7f 14 bd b1 b9 d5 3d 32 be 86 bd f1 9f bf 3d
       -0.03625404 0.104358084 -0.065792456 0.09356678
0003d0 42 5c 7e 3c 7d 10 e8 be 38 ae e5 3d 8b 78 31 bd
       0.015524926 -0.4532508 0.1121487 -0.04332785
0003e0 ca dc 9b 3d af ca 02 be c9 d2 5a 3e c8 72 df 3d
       0.076104715 -0.1277263 0.2136947 0.10910565
0003f0 fc 25 80 3d 82 e0 4d bc 15 bc 7b 3d 32 78 99 3d
       0.06257245 -0.012565734 0.061458666 0.074936286

critic.seq_model.model.0.bias f4 [64]
000000 0f 96 4e bd 99 aa 69 3d 77 74 ec bc dd 4c 17 3d
       -0.050436076 0.05704746 -0.028864129 0.036938537
000010 a8 a4 77 bd b9 6e c7 3d f9 d4 50 3d c5 d8 2c be
       -0.060459763 0.097379155 0.050984357 -0.16879566
000020 9a 19 34 3e 20 1a 01 3d ae 50 4f 3e ce 40 ac 3c
       0.17587891 0.031519055 0.2024562 0.021026995
000030 43 f5 4c bc 1e 2a 69 bd e0 0d be 3d 24 39 55 bd
       -0.012509647 -0.05692493 0.0927999 -0.052056447
000040 5b f8 35 3d 84 0a e7 3c 98 6d 1b 3c da d2 8a 3d
       0.044426303 0.028203256 0.009486578 0.06778498
000050 ad 54 3f 3e 15 a3 c4 bd a9 e2 cd 3c fd 8c a9 bd
       0.18684645 -0.09601418 0.025132494 -0.082788445
000060 57 6a 9f bd c5 3e 38 be 10 7a 9b bc 07 0e 74 3d
       -0.077839546 -0.17992695 -0.018979102 0.05958369
000070 c6 c6 17 3e 90 60 38 3e 46 eb bb 3c b3 b5 0b 3c
       0.1482192 0.18005586 0.022939336 0.008527207
000080 0e 23 13 3d d6 cf da 3d 88 d3 2d 3e e9 7d c7 bc
       0.035922103 0.10684173 0.16975224 -0.02435203
000090 8c ec 89 bc 42 a8 91 bd 90 83 e3 3d 8f 13 da 3d
       -0.016836427 -0.07112171 0.11109078 0.10648262
0000a0 fb 41 81 bd 4f 6f 89 3c 8e 95 75 3d 05 cf 12 bd
       -0.06311413 0.016776709 0.05995708 -0.03584196
0000b0 c1 27 be 3d 4e 78 69 bd 16 df 9d 3d d9 6a ec bc
       0.09284926 -0.056999497 0.07708566 -0.028859543
0000c0 9c 89 85 bc 49 40 c2 bd d6 cb 5d 3d 51 d1 40 bd
       -0.016300969 -0.09484918 0.05414947 -0.04707462
0000d0 34 66 39 3e 85 6d a1 bd 76 54 2d bd 77 f5 89 3a
       0.18105394 -0.07882217 -0.042316876 0.0010525425
0000e0 25 99 82 bd 8d bc 6b 3b db 79 44 be 23 f3 07 3e
       -0.06376866 0.003597054 -0.19187109 0.13276343
0000f0 fe d5 6a bd 00 97 af 3d 96 16 30 3e e3 21 ae bc
       -0.057332985 0.08573723 0.17196116 -0.021256393

critic.qf.fc0.weight f4 [256, 64]
000000 f7 af 11 bd 32 4d b2 bc 41 18 7b b9 14 ff e5 3c
       -0.035568204 -0.021765325 -0.0002394626 0.028075732
000010 98 67 a0 3b 11 9c fb 3d 77 36 0d bd 0a 37 98 3d
       0.004895162 0.12285627 -0.03447577 0.07432373
000020 a2 12 c4 3a 61 ed e8 3c 97 3a 9c 3d 12 41 9b bb
       0.0014959166 0.028433504 0.076283626 -0.0047379816
000030 a1 f7 bc bd 82 23 e5 3d 5f d0 0e 3d 53 9e 92 3d
       -0.09226919 0.11188413 0.034866687 0.07159104
000040 4d 55 19 bd a6 27 e3 bc 25 f6 b9 3d 79 e3 f7 3c
       -0.037434865 -0.027728867 0.090801515 0.030259835
000050 f2 79 8b bd 9a 72 9d bb fa 42 57 3d 6a 6d 71 3d
       -0.068103686 -0.0048049213 0.05255411 0.058942236
000060 b1 fd 32 bd 75 97 8f bb 57 b2 04 3d 69 dd b3 3a
       -0.04369897 -0.0043820688 0.03239664 0.0013722602
000070 ff a2 ae 3d a7 23 c1 3d 87 2c f1 bd 57 b6 ab 3d
       0.08527183 0.09430628 -0.11776071 0.08384388
000080 96 90 8e bc 4e 6d ac 3c a9 9e d2 bc b5 96 45 bd
       -0.017402928 0.021048214 -0.02571042 -0.04823943
000090 d1 1f e9 3d 3c 37 0e 3d 36 c7 01 bd ea 99 97 3b
       0.113830216 0.034720644 -0.031684123 0.0046265023
0000a0 e0 c4 c9 bc 38 f1 5d bd 66 70 71 3c 0a 56 71 3d
       -0.02463001 -0.054185122 0.0147362705 0.058919944
0000b0 5c 1a a8 bd 2a ba bb bd 78 cf 52 3a 28 68 38 3b
       -0.08208153 -0.09166367 0.00080417795 0.0028138254
0000c0 12 19 c1 3d 1d e1 62 3d cf cf c2 3c 95 11 85 bc
       0.0942861 0.055390466 0.023780731 -0.016243735
0000d0 10 fd b9 39 e4 8d cf bd 98 8c 08 3d 4a a5 ae ba
       0.00035474496 -0.10134485 0.033337206 -0.0013324406
0000e0 b7 e3 60 bd d7 95 3f 3d f0 b3 5e be b5 8d 7e bc
       -0.054904666 0.046773758 -0.21748328 -0.015536715
0000f0 14 83 c7 bb c1 1f 59 be 61 cc 59 bd 8a 51 1b bc
       -0.006088624 -0.2120352 -0.053173427 -0.00947989
000100 a6 1c 27 bc 47 50 d3 3c 93 c0 1b 3d a8 09 b5 3d
       -0.010199701 0.025795115 0.03802545 0.088397324
000110 12 1f b7 3d f4 00 9b 3d 70 c8 92 bc ed ad 8f 3c
       0.08941473 0.07568541 -0.017917842 0.017538989
000120 ea bf 92 bd 3a 64 53 3d b2 81 66 3c a3 51 0b bd
       -0.07165511 0.051609255 0.014069008 -0.0340134
000130 cc eb bf 3d 54 b5 f3 3d 10 1d 14 3d 49 68 d3 3c
       0.093711466 0.1189982 0.03616053 0.025806563
000140 40 54 55 bd e7 bf 7e bc 86 47 3b 3e b2 b3 c2 bb
       -0.0520823 -0.015548683 0.18289003 -0.0059418315
000150 c4 03 09 bd 20 98 aa bc 0e d1 70 3d 81 52 cb bd
       -0.033450857 -0.020824492 0.05879312 -0.09927846
000160 fe 64 2e bd 8b db d4 bc 71 fd 49 3d 8e ee 43 bd
       -0.042576782 -0.025983592 0.049313966 -0.047834925
000170 40 c3 95 3c 37 f6 04 3d 30 4a 28 bc e3 cf c4 3d
       0.018281579 0.03246137 -0.010271594 0.09609964
000180 2d ac 5f 3d f5 02 6e bd 92 2c 0d 3d 1a 32 a2 bd
       0.05460756 -0.05810829 0.034466334 -0.07919712
000190 3a 34 74 3d 90 11 05 3d 0f 90 86 bd 2d e0 14 3d
       0.05962012 0.032487452 -0.06570446 0.036346603
0001a0 c5 99 16 3c de dc 9d bc 21 42 11 bb 44 c9 44 3d
       0.009191935 -0.019270357 -0.002216466 0.048043504
0001b0 ce 87 a5 bc 8d 60 00 3d 71 08 07 ba 9c d9 7e 3c
       -0.020206358 0.031342078 -0.0005151099 0.015554812
0001c0 14 3a 35 bd 10 b6 9e bc b0 76 29 bc 27 d5 a9 bd
       -0.04424484 -0.019373924 -0.010343239 -0.08292609
0001d0 3d 4c 67 3d b2 4d 55 bd bb 49 10 3c 47 bf 74 bc
       0.05646919 -0.05207605 0.008806641 -0.014938182
0001e0 0a c4 95 bb 53 cb 87 3d 99 5b 04 be de 60 b2 3d
       -0.004570489 0.06630578 -0.12925567 0.08709882
0001f0 54 bd 5b bc f2 d9 cd bd 4c 38 0d bc fc 81 6d bc
       -0.013411839 -0.100513354 -0.008619379 -0.014496323
000200 b7 64 4b 3d 1e 50 de bd 76 e3 e2 3c b9 b3 d6 bc
       0.049656596 -0.10855125 0.027696352 -0.026208745
000210 f4 8c 1e be 4a cd f8 bc f8 bf 83 bd b3 1b 84 3d
       -0.15483457 -0.030371327 -0.064330995 0.06450596
000220 c2 7f 3e 3d 00 58 a2 bc 16 be 42 3d ea eb f9 3d
       0.046508558 -0.019817352 0.04754456 0.122032
000230 54 c4 a2 3d d0 fd 62 bd 52 81 ca bd eb 2e e4 bd
       0.07947603 -0.055417836 -0.09887947 -0.111417614
000240 9a 80 4d 3e d1 6f dd bc 7e be a3 bd 2a 87 aa 3c
       0.20068589 -0.027030857 -0.07995318 0.020816404
000250 70 b6 88 3c 54 47 93 bc 04 75 42 bd 8f 75 73 3d
       0.016688555 -0.017978348 -0.047474876 0.059438284
000260 cd 30 2b 3c 2e 02 8c bd 6f 69 2d be 32 1e 73 3d
       0.010448647 -0.06836353 -0.16934751 0.05935497
000270 a2 5d bd 3c ef 8e 88 bc ff 26 64 3d 28 50 28 3a
       0.023115937 -0.016669719 0.055701252 0.00064206356
000280 37 47 87 3d 1f 88 44 3e 5b 74 b1 3d 8e e8 79 3e
       0.0660538 0.19192551 0.08664771 0.24405119
000290 b5 42 a9 3c d8 38 75 bf bf f2 69 bf 28 08 48 bc
       0.020661691 -0.9578986 -0.91386026 -0.012208976
0002a0 5e eb d3 bd 35 d7 17 3d 2b 66 a7 3c 75 e4 b6 3d
       -0.10347627 0.03707047 0.02043446 0.089302935
0002b0 c4 e2 0c 3e 25 f9 33 3e eb d3 a0 bd a9 9a 87 bd
       0.13758379 0.1757551 -0.0785292 -0.06621296
0002c0 3a fb c6 bb 4f 47 df bd fd eb a1 3d 3b 3b 34 bd
       -0.006072429 -0.10902273 0.07906339 -0.0440018
0002d0 ff 21 49 bd 2f 39 35 bb d9 12 66 3c 00 8b a5 3b
       -0.049104687 -0.0027652492 0.01404258 0.0050519705
0002e0 54 63 be 3b 5b 80 03 bd 4b 0b 93 bd 6d a2 e0 bc
       0.0058101807 -0.03210483 -0.07179888 -0.0274212
0002f0 93 53 9b bd 0f f1 af 3d 0f 3b 1a bd 06 e1 7d bd
       -0.075843 0.085909 -0.03765398 -0.061982177
000300 e4 15 9c be 63 46 b1 3d a3 1e 00 3e 72 b0 27 bd
       -0.3048545 0.08656003 0.12511687 -0.040939756
000310 c6 66 fa bd e7 bf b7 bd cc e4 a6 bd 24 16 d4 bd
       -0.12226634 -0.08972149 -0.08149108 -0.103557855
000320 c5 d9 26 bd 7a 29 ff bd a5 a8 2e bc 91 c9 86 3e
       -0.040735025 -0.12459083 -0.010660325 0.26325658
000330 f6 61 22 3e a2 9f b9 3d 67 95 85 3c b3 06 96 bd
       0.15857682 0.09063651 0.016306592 -0.073254965
000340 d7 fb 64 3e a3 9e a8 3d 12 bb 85 3d 54 fe ca bc
       0.22361694 0.082333826 0.065298215 -0.024779476
000350 53 4d cc 3e 43 8f 31 bf a0 a6 6b bc 5f a3 5b 3d
       0.39902744 -0.69359225 -0.014382988 0.0536226
000360 4e 00 3a bc 5c b6 cc 3e 1d 7b a2 bd 3b 87 53 bd
       -0.011352612 0.3998288 -0.07933638 -0.051642638
000370 8c 95 be bd d9 38 aa bd 3a ab d2 3c 34 88 05 be
       -0.093058676 -0.08311624 0.025716413 -0.13040239
000380 7a 12 20 3d 54 b5 80 3e a5 44 52 3e 7a c1 06 be
       0.03908012 0.25138342 0.20533998 -0.13159743
000390 b5 e6 b3 bd 92 ff 65 bf 43 db 40 bf 08 d1 75 bd
       -0.08784238 -0.89843094 -0.75334567 -0.0600138
0003a0 4c ee b6 3d 25 08 c1 3d 44 15 78 bd bc f7 95 3d
       0.0893217 0.094253816 -0.060567155 0.07322642
0003b0 ad 89 58 bd fc 66 ed 3c 4d 00 47 3d 5b b8 36 be
       -0.052865673 0.02897977 0.04858427 -0.17843764
0003c0 ed c7 d5 3d 1a c9 ac be e6 df 51 3e 0b 3f 1f bd
       0.104385234 -0.33747178 0.20495567 -0.03887848
0003d0 77 7e e2 3a 8f 87 67 be 07 0a 25 3d 8a 6b aa 3d
       0.0017280121 -0.22610305 0.040292766 0.08321293
0003e0 a2 87 49 be 39 14 f6 bc f4 1a 4d be 97 d2 53 bd
       -0.19680646 -0.03003894 -0.20029813 -0.051714506
0003f0 f2 cf df be a9 da 89 3d 5c ff 24 3e ab 39 fc 3c
       -0.43713337 0.06731159 0.16113037 0.030789217

critic.qf.fc0.bias f4 [256]
000000 dd ac 2f 3e 8e 4b 48 3e 99 c7 20 3e 67 7d 01 3e
       0.17155786 0.19560072 0.1570114 0.12645493
000010 03 92 17 3e b8 f4 54 3e 58 24 2d 3e 17 0a 33 3e
       0.14801793 0.20796478 0.16908395 0.17484318
000020 17 4d 30 3e 19 13 43 3e e0 33 2f 3e 97 06 3e 3e
       0.17216907 0.19050254 0.17109632 0.18557201
000030 4f 9b 59 3e 0d 19 9c 3d d4 5a 47 3e 25 82 48 3e
       0.21250652 0.076219656 0.19468242 0.19580896
000040 87 55 45 3e c6 d2 2f 3e 23 04 51 3e 45 ce 09 3e
       0.19270907 0.17170247 0.20411734 0.13457592
000050 fc 37 54 3e 24 63 13 3e f4 7f 26 3e cc 5a 16 3e
       0.20724481 0.14393288 0.16259748 0.14683074
000060 7b f4 3b 3e e8 9c 48 3e 74 ba 4a 3e 2a dd 18 3e
       0.1835498 0.19591105 0.19797689 0.14928117
000070 48 2f 53 3d e0 4e 4f 3e b5 9a a6 3d cf a7 55 3e
       0.051558763 0.20244932 0.08134977 0.20864795
000080 3d 3d 4f 3e bd 77 37 3e c2 cf 4c 3e 5b 50 33 3e
       0.20238204 0.1791677 0.20001128 0.17511122
000090 09 ac 38 3e 14 23 3a 3e 70 2a 2a 3e 19 dd 37 3e
       0.18034376 0.18177444 0.16617751 0.17955436
0000a0 ff fb 34 3e 10 ba 4c 3e 1f a0 07 3e d2 5c 36 3e
       0.17674254 0.19992852 0.13244675 0.17808846
0000b0 f7 3b 4c 3e a6 c8 5e 3e 05 0e 39 3e 12 a4 64 3e
       0.1994475 0.21756229 0.18071754 0.22328213
0000c0 51 49 3c 3e ac 33 37 3e 85 da 43 3e 34 65 1f 3e
       0.18387343 0.17890805 0.19126327 0.1556595
0000d0 d3 e3 5b 3e 11 49 73 3e a6 e4 35 3e ca d8 1e 3e
       0.21473627 0.23758341 0.17763004 0.15512386
0000e0 42 1c 3a 3e e0 24 36 3e 81 b1 2a 3e f0 db 36 3e
       0.18174842 0.17787504 0.16669275 0.17857337
0000f0 5d e3 4b 3e e4 26 52 3e 02 76 29 3e 57 16 16 3e
       0.19910951 0.20522648 0.16548923 0.1465696
000100 f2 1b 3b 3e 44 7b 3e 3e 00 20 39 3e 13 20 8f 3e
       0.18272379 0.1860171 0.18078613 0.27954158
000110 43 6f 0d 3e 06 3d 42 3e 49 1e 4a 3e 3d 7b 22 3e
       0.13811974 0.18968591 0.19738115 0.15867324
000120 11 e9 28 3e 7d 4c 4f 3e 6e 9a 4e 3e 38 e8 3f 3e
       0.16495158 0.20244022 0.20176098 0.18740928
000130 96 a0 3f 3e 4e bd 46 3e 2e b6 54 3e 0d 5c ff 3d
       0.18713602 0.19408152 0.20772621 0.12468729
000140 7a 33 57 3d 0b 31 1f 3e 18 a8 3c 3e 3d 43 47 3e
       0.052539326 0.15546052 0.18423498 0.19459243
000150 73 ad 51 3e 1d ba 47 3e 2a 73 46 3e 96 3f 9b 3d
       0.20476322 0.1950459 0.19379869 0.075804874
000160 5b bb 17 3e df 01 34 3e 2f 80 97 3d e4 3a 4a 3e
       0.14817564 0.17578839 0.07397496 0.19749027
000170 6d ce 46 3e 0e c9 41 3e e3 69 58 3e ca b2 4a 3e
       0.19414683 0.18924353 0.21134143 0.19794765
000180 11 3d 9d 3d 2a 0c 3c 3e 3b 46 1b 3e d4 0b 90 3d
       0.07677663 0.18364015 0.1516351 0.07033506
000190 77 27 23 3e bf 33 f9 3d 88 fa 4a 3e c0 02 1b 3e
       0.15933023 0.12168073 0.19822133 0.15137768
0001a0 90 24 52 3e 2a 9a ba 3d 07 c9 49 3e 99 be 06 3e
       0.2052176 0.09111436 0.19705592 0.13158645
0001b0 97 83 23 3e 9f 2e 4f 3e 5f 4f 59 3e d7 48 2d 3e
       0.15968166 0.20232628 0.21221684 0.16922317
0001c0 23 a1 2e 3e aa ad 40 3e 1c 09 52 3e 27 7b 1c 3e
       0.17053656 0.18816248 0.20511287 0.15281354
0001d0 d3 32 2e 3e 4b 01 46 3e 16 4a 13 3e 65 6a 27 3e
       0.17011575 0.1933643 0.1438373 0.1634918
0001e0 90 2e 39 3e b2 eb 50 3e f7 0c 37 3e ac a3 ce 3d
       0.18084168 0.2040241 0.1787604 0.10089812
0001f0 e7 c4 35 3e f2 8b 3e 3e a8 b8 a0 3d c1 c5 4e 3e
       0.17750894 0.18608072 0.078477204 0.20192625
000200 8e a4 11 3e 2f 55 32 3e e3 ff 49 3e 5e e4 32 3e
       0.14222929 0.17415307 0.1972652 0.17469928
000210 ed b9 4f 3e 73 bb 3f 3e 92 f6 52 3e db 96 41 3e
       0.20285769 0.1872385 0.20601872 0.18905203
000220 b1 90 fa 3d 79 6f 37 3e 2b 64 23 3e ae e6 3f 3e
       0.12234629 0.17913617 0.1595618 0.18740341
000230 7f ef 28 3e 90 5d 3c 3e 61 44 0c 3e af 3f 18 3e
       0.1649761 0.18395066 0.1369796 0.14868043
000240 81 1d 86 3e 31 34 34 3e 1f 48 37 3e b2 f0 25 3e
       0.26194385 0.17598034 0.17898606 0.16205099
000250 3f 7b 1f 3e b9 ec 36 3e e4 50 35 3e fa 9a e2 3d
       0.15574358 0.1786374 0.17706639 0.11064716
000260 be 1d 41 3e 51 b3 43 3e fb 61 47 3e 91 d9 56 3e
       0.18859002 0.19111373 0.1947097 0.20981432
000270 ac 35 35 3e 1b 1c 1b 3e 59 aa 5b 3e 32 a2 2e 3e
       0.17696255 0.1514744 0.21451701 0.1705406
000280 71 68 aa 3d e9 cb 03 3e 48 f0 33 3e 99 ba 49 3e
       0.08320702 0.12870754 0.17572129 0.19700088
000290 83 9c 8c 3d d3 42 ce 3d 71 bc 45 3e b0 d0 88 3e
       0.0686579 0.100713395 0.19310166 0.26721716
0002a0 2f cd 35 3e a3 9b 42 3e ea db 17 3e 60 58 22 3e
       0.17754053 0.19004683 0.14829984 0.15854025
0002b0 15 be 48 3e ea 30 54 3e 41 e9 25 3e 1f e3 4f 3e
       0.1960376 0.20721784 0.1620226 0.20301484
0002c0 b0 28 48 3e ed ba 45 3e e4 73 c8 3d 93 76 13 3e
       0.19546771 0.19309588 0.097877294 0.14400701
0002d0 2e bd 2e 3e b7 d9 53 3e 38 ee 44 3e 0f 46 59 3e
       0.17064354 0.2068852 0.19231498 0.21218131
0002e0 64 38 0b 3e b4 6b 3d 3e 1c 19 2a 3e 91 bf fd 3d
       0.1359573 0.18498117 0.16611141 0.12390054
0002f0 67 fa 4b 3e 5d e9 54 3e 0b 4d 40 3e 41 6d 44 3e
       0.1991974 0.20792146 0.1877939 0.19182302
000300 91 68 6b 3e d1 d6 30 3e a6 22 51 3e 3a 3c 3c 3e
       0.22989108 0.17269446 0.20423374 0.1838235
000310 65 17 09 3e 46 90 46 3e 87 32 37 3e a6 ad 28 3e
       0.1338783 0.19390973 0.17890368 0.16472492
000320 e2 64 3b 3e 21 31 37 3e e0 71 8c 3e 4e d5 32 3e
       0.18300202 0.17889835 0.2743063 0.17464182
000330 88 44 03 3e 71 27 2b 3e f7 28 42 3e da 69 46 3e
       0.12819111 0.16714264 0.1896094 0.19376317
000340 36 bb 02 3e 03 e7 3a 3e 5a c3 2b 3e 3f 39 1b 3e
       0.12766728 0.18252186 0.1677374 0.15158556
000350 ca e4 3e 3e a3 2b 48 3e 3f a1 4f 3e fd 8f 42 3e
       0.18641964 0.19547896 0.20276354 0.1900024
000360 26 b7 44 3e e0 73 42 3e 68 db 63 3e d8 38 4a 3e
       0.1921049 0.18989515 0.22251666 0.19748247
000370 7d 63 2a 3e 2b 8e 3f 3e 5a eb c8 3d 57 69 15 3e
       0.16639514 0.18706577 0.09810515 0.14590965
000380 a3 9e 31 3e 60 61 44 3e ae b1 46 3e b3 d3 53 3e
       0.17345671 0.1917777 0.19403717 0.20686226
000390 b8 0c 3f 3e 92 79 32 3e 35 76 36 3e 3e e4 e6 3d
       0.18657196 0.17429188 0.1781853 0.112740025
0003a0 47 26 45 3e 97 bc e1 3d 16 4d 57 3e c2 b0 36 3e
       0.19252883 0.11022299 0.210255 0.17840865
0003b0 b8 21 4e 3e 3d 7f 5e 3e fa 0c 4b 3e 0b b0 2d 3e
       0.2013005 0.21728225 0.19829169 0.16961686
0003c0 21 60 3c 3e 69 c4 33 3e 6a 2f 5e 3e 01 4f 54 3e
       0.18396045 0.17555393 0.21697775 0.20733263
0003d0 0f 62 4c 3e 6c 8c 44 3e a4 ad 57 3e d9 e6 1f 3e
       0.19959281 0.19194192 0.21062332 0.15615405
0003e0 a6 c2 49 3e db a7 25 3e 88 c7 38 3e ed 49 45 3e
       0.19703159 0.16177313 0.18044865 0.19266482
0003f0 5f 2a 34 3e dc 90 36 3e 9a 8c 3e 3e 19 1e 95 3d
       0.17594288 0.17828697 0.18608323 0.07281131

critic.qf.fc1.weight f4 [256, 256]
000000 f5 c8 8c bc 11 ce 80 3b ee af 21 3e 9f 2f 94 3f
       -0.017185668 0.003930815 0.15789768 1.1577033
000010 19 34 2d bd 51 1e 1a 3d d1 ea 33 bb f6 65 92 3e
       -0.042286012 0.03762657 -0.0027453194 0.28593415
000020 11 db c7 3d 8e 69 a2 bc f9 29 2e bc 10 27 28 3d
       0.097585805 -0.019825723 -0.010630124 0.041052878
000030 a1 5b 99 3d 01 dc 35 3d 05 3d 0a 3d 8a d3 f1 bc
       0.0748818 0.044399265 0.0337496 -0.029519815
000040 0c bd ed 3e 42 63 31 bd ca e3 a0 3d 4b 51 f5 3e
       0.46433294 -0.04330755 0.07855947 0.47913584
000050 9b 8c cd 3d 0e fd e6 bc 36 92 6f 3c 2e be 3b 3d
       0.10036584 -0.028196838 0.014622262 0.045835666
000060 7a 75 9e 3c dc 9e 83 3d 4d 17 d4 3d 44 ea 8c 3f
       0.019343127 0.064267844 0.10356007 1.1008992
000070 16 ad c3 3f 91 00 8d bd b6 c7 48 3e ef f3 9c 3d
       1.5287197 -0.06884874 0.19607434 0.07663714
000080 db f9 57 3d 88 64 2b 3c 27 c7 ad bc 6b 35 39 bd
       0.052728515 0.01046098 -0.021213127 -0.04521696
000090 13 ef 5f bb 6c da 4e bd e7 db d6 bb 7e 09 8e 3c
       -0.00341696 -0.050501272 -0.006556976 0.01733851
0000a0 bb 1c 4f bd 20 e8 05 3d e6 1e 93 3e ac 29 aa 3d
       -0.05056451 0.032692075 0.2873451 0.083087295
0000b0 02 99 5c 3a 58 08 69 3d 2c 2a 2d bd ec bf a1 3c
       0.0008415134 0.056892723 -0.042276546 0.019744836
0000c0 ec ae e0 bd 84 c3 96 3d a2 26 e4 bb 25 e9 08 3f
       -0.10970864 0.073615104 -0.006962613 0.5348075
0000d0 0e f7 b4 bb 80 68 18 bc a1 19 d0 3c 06 94 83 be
       -0.0055226153 -0.0093022585 0.025402846 -0.2569887
0000e0 a8 fe f2 3d 0b 3f e6 bd 51 9b 4f 3e 1d 4c 8d 3d
       0.11864978 -0.11242493 0.20274092 0.06899283
0000f0 b4 14 a6 3c 95 45 9f 3d 6b 84 0a 3d 9e 54 28 be
       0.020273544 0.077769436 0.03381769 -0.16438529
000100 94 e5 aa bd d2 79 1e 3c 4c 38 48 3c dd 63 ba 3d
       -0.0834457 0.009672599 0.0122204535 0.09101079
000110 6b 26 33 3d 85 b1 f8 3c ed 7f 42 bd 2a c6 07 be
       0.04373781 0.030358085 -0.04748528 -0.13259187
000120 75 6b 56 bd 18 04 9f bc 9b fc 31 3c 06 8f fa bc
       -0.052348573 -0.019411132 0.0108634485 -0.030585777
000130 de 90 ac 3b 8e e9 e0 bc d2 98 ba 3c 39 ff 61 3e
       0.005266293 -0.027455118 0.022777949 0.22070016
000140 ca 77 bd 3f fe 91 10 3d 06 de 35 bc c9 34 84 3d
       1.4802182 0.03529548 -0.011100298 0.064553805
000150 77 2f 1d 3d 73 ee 13 3c 93 aa c3 3d a7 4b 50 3d
       0.038375344 0.009029019 0.09554019 0.050853398
000160 a6 ab 38 3f 9f eb 9e 3e aa 26 0c 3f c7 cf 37 3d
       0.72136915 0.3103914 0.54746497 0.044875886
000170 34 b4 80 bc 0d 8a ac bc f4 db 16 bc c6 0f 8f 3d
       -0.015710928 -0.021061921 -0.009207714 0.069854304
000180 ad 98 c4 3d f5 dc 37 3d c1 c5 12 3d ea 29 c3 3e
       0.09599433 0.044888455 0.035833124 0.38117915
000190 91 1d 9b bd 8e fa 14 3f 0e 3e c3 bc c7 a5 01 3d
       -0.07573999 0.58194816 -0.0238333 0.03165224
0001a0 b1 0f 10 bc 4e f0 44 3c 02 2e 8d 3c 9e c9 d1 3c
       -0.008792804 0.012020184 0.017233852 0.025608834
0001b0 86 b7 7d bd d5 dd a5 39 fd bd a0 3d 31 a2 38 bd
       -0.0619426 0.0003163653 0.078487374 -0.045076553
0001c0 18 58 03 3c 56 92 a7 3e 54 7d 8f 3c 41 c5 c6 3c
       0.008016609 0.32728833 0.017515816 0.02426398
0001d0 85 42 5b 3e 3e 6b 8c 3d 46 c6 b2 3e f7 82 df bc
       0.21412094 0.06856392 0.34916896 -0.027284129
0001e0 86 7e f5 bc 08 ea b5 3b f6 cc 32 bd 31 fb 17 3e
       -0.029967558 0.0055515803 -0.043652497 0.14841916
0001f0 f4 ed a4 bd b6 2b f3 bd 80 9b c7 3d dd d2 39 bc
       -0.080531985 -0.118735716 0.09746456 -0.011341778
000200 65 a1 1e be e2 63 dd 3d 3b 09 9e 3d ff ba 7e bc
       -0.15491255 0.10810067 0.07716604 -0.015547513
000210 34 c5 7d 3b 4a 46 89 3a b6 b3 04 3e f1 7b a9 3c
       0.0038722279 0.0010473218 0.1295918 0.020688983
000220 f3 cc 97 bd bf ba b1 3c ba 62 6d bd eb b6 bf 3c
       -0.07412138 0.021695493 -0.05795548 0.023402652
000230 dc ba ee 3c 16 2a 07 3d a1 61 21 3e 1c 30 9f 3f
       0.029141836 0.03299912 0.15759899 1.2436557
000240 6f d1 b9 3e 8f 5a a5 3c 07 51 1e 3d 1f 42 f4 bc
       0.36292598 0.020184783 0.038651492 -0.029816685
000250 6e 1f 3e 3e ea 82 51 3d 9f 4a 52 bc 72 4c de bd
       0.18566677 0.05115024 -0.012835174 -0.108544245
000260 b6 87 33 bd 99 9c b1 3c c4 60 59 bd d0 3f 77 bd
       -0.043830596 0.021681117 -0.0530708 -0.06036359
000270 58 87 13 3d d2 ad a7 3d ce 5c af 3d d2 a2 91 bd
       0.036017746 0.081874505 0.08562623 -0.07111134
000280 f7 bf 34 3c c9 4e 9f bd 82 bf f2 bd 5f 89 99 3c
       0.011032096 -0.07778699 -0.118529335 0.018742261
000290 3b ae 94 3d de 28 c2 3e 0b f7 a9 ba d5 4b 9c 3e
       0.07259794 0.37921804 -0.0012967301 0.30526605
0002a0 49 a4 fc 3d ab b2 1a 3c 8b 4c 4e 3e 0f ea 37 3e
       0.123360224 0.009442012 0.20146386 0.1796038
0002b0 a3 7e 05 be 58 8b 0e bd bd 96 c8 3b a4 00 2e bb
       -0.1303659 -0.034800857 0.006121485 -0.0026550675
0002c0 71 5c 94 3d 31 5b 59 3d e1 26 99 3e a6 64 6b b9
       0.07244194 0.053065483 0.29912475 -0.00022448841
0002d0 50 06 d1 bd 03 0c c4 3d b1 5b ef 3c 9d 9c ce 3d
       -0.10206282 0.095726036 0.029218527 0.10088465
0002e0 2d a9 74 3d 7c 45 36 bd 84 51 0e 3d 9b 98 09 3f
       0.05973165 -0.04449986 0.034745708 0.5374848
0002f0 bf 33 5b bd 2f bd ce 3d 8c 8a 26 bd d9 d1 6d 3e
       -0.053516146 0.10094678 -0.040659472 0.23224582
000300 c6 6a 91 bd 04 41 34 3c 47 a8 8a 3e 09 5e 29 3d
       -0.071004435 0.011001829 0.2708151 0.041349445
000310 3d 90 93 3d 98 36 04 bd 05 9d c7 bc 4c ea b5 3e
       0.07205246 -0.032278627 -0.024366865 0.35530317
000320 a9 3a 48 3d 77 e2 9e 3d 3b b6 8f 3e c6 ab df 3e
       0.048884068 0.077580385 0.28068718 0.4368574
000330 f8 55 35 be 79 67 a7 bd 35 57 1d 3d c8 7b 92 3d
       -0.17708576 -0.08174033 0.038413245 0.07152516
000340 8c e2 8e 3f 8a 54 db bd d6 76 d5 3c 81 9b b8 bd
       1.1162887 -0.10709484 0.026057642 -0.09014035
000350 de 59 31 3c bf b8 df 3b 4b 22 35 3c b8 02 9e b9
       0.010824649 0.0068274434 0.011055539 -0.00030138134
000360 52 5f b9 3d 60 e6 fa 3c d0 7b 0c 3d 5f bb e8 3d
       0.09051384 0.03062743 0.034297764 0.11363863
000370 f2 a2 0a bd b0 49 50 3d 76 f2 20 3f 30 4e 64 bd
       -0.033846803 0.050851524 0.62869966 -0.055738628
000380 82 bd b9 3d df c7 68 bd ba 21 6b bc 66 42 c2 bc
       0.09069349 -0.056831237 -0.014351303 -0.023713302
000390 f2 8f d6 3d b9 26 e4 3d 44 d7 14 3d db 4e c4 bc
       0.10476674 0.11140198 0.036338106 -0.023963382
0003a0 a7 1d 67 3d cd 01 7b be 2e 06 86 bc be e8 6d 3d
       0.056424763 -0.24512406 -0.016360369 0.05808329
0003b0 de 71 56 3d 66 2c df 3b 65 c0 e9 bc 48 39 84 bd
       0.052354686 0.0068107126 -0.028534124 -0.06456238
0003c0 7f 93 f8 ba af 24 a3 3d 16 0f f9 bd e8 d3 3c be
       -0.0018964856 0.07965981 -0.121610805 -0.18440211
0003d0 ae e5 06 3d 48 5f 62 bd 97 cd 43 bd 1f 14 46 bd
       0.032933883 -0.05526665 -0.047803488 -0.048359033
0003e0 db 3a 80 3d 81 30 57 be 9a 40 13 be 43 f4 af 3c
       0.06261226 -0.21014597 -0.14380112 0.021478778
0003f0 7b 2d fd bc dc 24 44 bd 98 13 48 bd cb b3 2e 3e
       -0.030905476 -0.047886714 -0.04884681 0.17060773

critic.qf.fc1.bias f4 [256]
000000 80 32 ba 3e 4a 75 8f 3e 4f 0e 91 3e e4 ff 07 3e
       0.36366653 0.28019172 0.2833123 0.13281208
000010 dc 9d a0 3e ff 3f 2f 3e e5 a0 4f 3e 26 87 2d 3e
       0.31370437 0.17114256 0.2027622 0.16946086
000020 9f cf 3f 3e 15 fb 67 3e 61 2b 89 3e e9 03 0e 3e
       0.18731545 0.22654374 0.26790908 0.13868679
000030 c1 e9 b0 3e 0d 3c 64 3e 97 cf 5a 3e 54 47 7c 3e
       0.3455334 0.22288533 0.21368252 0.24636585
000040 57 61 75 3e bd ba 8f 3e 23 e7 35 3e 0c 48 19 3e
       0.23962913 0.28072158 0.17763953 0.1496889
000050 68 83 9e 3e 70 f1 68 3e 67 41 38 3e c5 48 8b 3e
       0.3095963 0.22748351 0.17993699 0.27203956
000060 2f d3 1d 3e b4 ce 93 3e 4e be 2b 3e 6d e3 34 3e
       0.15412591 0.2886864 0.16771814 0.17664881
000070 b7 ac 52 3e 64 aa 43 3e dd 9e 7c 3e 41 69 41 3e
       0.20573698 0.19107968 0.24669977 0.18887807
000080 55 56 47 3e 00 cb 8a 3e c0 28 39 3e bf 4b 66 3e
       0.19466527 0.27108002 0.18081951 0.22489832
000090 d2 93 47 3e b4 ae 84 3e de 9b 56 3e c6 d0 2d 3e
       0.19489983 0.25914538 0.20957896 0.16974172
0000a0 a5 8b 29 3e 26 33 80 3e 73 0d 82 3e 6e c0 8c 3e
       0.16557176 0.25039023 0.25400886 0.27490562
0000b0 35 ad 4c 3e 9a 1c 3d 3e 12 3f 42 3e 96 43 4d 3e
       0.19987948 0.18467942 0.18969372 0.20045313
0000c0 63 4c 39 3e ff bf 18 3e ef 2b 3f 3e a0 2c aa 3e
       0.18095545 0.1491699 0.18669103 0.3323717
0000d0 d4 1d 3f 3e 10 7c 43 3e c3 63 88 3e 3b a7 72 3e
       0.18663722 0.19090295 0.26638612 0.23696606
0000e0 99 e9 82 3e ec 00 8e 3e 72 b2 69 3e e3 5f 33 3e
       0.25568846 0.27735078 0.22821978 0.17517047
0000f0 b5 12 57 3e 12 62 5a 3e 90 d8 a0 3e 7b fd 32 3e
       0.2100323 0.21326473 0.31415224 0.17479508
000100 79 02 3d 3e 24 ea 62 3e af ee 11 3e f8 29 2b 3e
       0.18457974 0.2215963 0.14251207 0.16715229
000110 8e c5 98 3e f1 1c 23 3e 61 90 8e 3e a3 da 5c 3e
       0.29838222 0.15929009 0.27844527 0.21567778
000120 80 fc 63 3e a1 43 76 3e a2 b5 59 3e d7 a6 4a 3e
       0.2226429 0.24049236 0.21260694 0.19790207
000130 4a 22 75 3e 06 97 44 3e 96 94 4f 3e d0 30 7f 3e
       0.23938861 0.19198236 0.20271525 0.24920964
000140 1c 27 1c 3e 7b 23 22 3e 88 e3 57 3e 7c 5e 98 3e
       0.15249294 0.15833847 0.2108289 0.29759586
000150 56 1c 4f 3e 0b dd 72 3e 6f f3 53 3e b2 a6 2a 3e
       0.20225653 0.23717134 0.20698331 0.16665152
000160 25 64 27 3e 71 cd 3a 3e d0 4e b6 3e 99 3e a9 3e
       0.16346796 0.18242432 0.35607004 0.3305557
000170 32 08 78 3e cb fa 19 3e 87 be 80 3e 8f 37 1e 3e
       0.24221876 0.15037076 0.2514536 0.15450881
000180 28 1c 8d 3e fd e3 67 3e 83 57 31 3e 81 bc 45 3e
       0.27560544 0.22645564 0.1731854 0.1931019
000190 65 7a a8 3e 7e f4 37 3e 4f f1 3f 3e 7c dc 2e 3e
       0.3290588 0.1796436 0.18744396 0.17076296
0001a0 7c cc 21 3e fe 5e 7f 3e ab 78 44 3e 19 c9 61 3e
       0.15800661 0.2493858 0.19186656 0.22049369
0001b0 7e 82 9d 3e f9 f2 2e 3e 00 2a 9c 3e 20 f3 6a 3e
       0.3076362 0.17084874 0.30500793 0.22944307
0001c0 8e e7 3f 3e 37 6c 0a 3e 28 01 9f 3e 38 0a 82 3e
       0.18740675 0.13517843 0.3105557 0.2539842
0001d0 b3 d3 a1 3e 48 72 a3 3e c7 77 3b 3e 37 2f 78 3e
       0.31606826 0.31923127 0.1830741 0.24236761
0001e0 32 c5 30 3e dc 04 87 3e db 63 9f 3e af 22 57 3e
       0.17262724 0.26370895 0.3113087 0.21009324
0001f0 e4 c9 3d 3e 00 fe 39 3e ef 47 58 3e 02 0f 68 3e
       0.18534046 0.181633 0.2112119 0.22661975
000200 f7 7a 44 3e 83 f9 7b 3e bf 1a 05 3e a1 28 8d 3e
       0.19187532 0.246069 0.12998484 0.2757006
000210 ff 53 96 3e 18 ee a2 3e cc d1 8e 3e f0 a5 48 3e
       0.2936096 0.31822276 0.27894437 0.1959455
000220 1d fd 63 3e 07 dd 68 3e 5c f0 11 3e ca e6 80 3e
       0.22264524 0.22740565 0.14251846 0.25176078
000230 ff bf 98 3e 52 07 87 3e bd 50 ff 3d b7 42 99 3e
       0.2983398 0.26372772 0.124665715 0.29933712
000240 26 48 72 3e d5 89 2a 3e ad 55 0e 3e 43 22 1c 3e
       0.23660335 0.16654141 0.1389987 0.15247445
000250 e9 53 33 3e 70 01 34 3e 6c 1f 88 3e f0 2d 88 3e
       0.17512478 0.17578673 0.26586473 0.26597548
000260 55 b2 24 3e 54 14 9b 3e 63 a3 32 3e a3 e7 9d 3e
       0.16083653 0.30288947 0.1744514 0.30840787
000270 4e 82 84 3e 07 1e 43 3e fe a6 a8 3e f3 79 61 3e
       0.25880665 0.19054423 0.32939905 0.22019176
000280 22 22 4c 3e 18 6d 4b 3e 63 5c 24 3e 79 ba a2 3e
       0.19934896 0.19865835 0.16050868 0.31782892
000290 23 83 8b 3e f8 d5 95 3e 3e 1d 2c 3e 27 a9 92 3e
       0.27248487 0.29264808 0.1680803 0.28644678
0002a0 bd 78 7f 3e 0b 0b 31 3e 45 5e 79 3e e8 99 28 3e
       0.24948402 0.17289369 0.24352367 0.1646496
0002b0 8e 61 7d 3e 46 42 5c 3e cc 92 44 3e a1 d2 27 3e
       0.24744245 0.21509656 0.19196624 0.16388942
0002c0 82 35 24 3e a3 95 4f 3e 43 be 47 3e 4a d5 94 3e
       0.16036037 0.20271926 0.19506173 0.29068977
0002d0 3d 50 4e 3e aa 55 7f 3e 79 a6 41 3e cf 6c 66 3e
       0.20147796 0.24935022 0.1891116 0.22502445
0002e0 65 d5 a8 3e 30 89 92 3e 69 e2 57 3e 8f d1 49 3e
       0.32975307 0.2862029 0.21082462 0.19708847
0002f0 33 02 66 3e aa 1b 37 3e 41 49 33 3e 71 c9 1b 3e
       0.22461776 0.17881647 0.17508413 0.15213563
000300 6e 77 31 3e 4c f3 50 3e bb e0 64 3e 0a 97 69 3e
       0.17330715 0.2040531 0.22351353 0.22811523
000310 80 64 90 3e 0f 6a 5b 3e 66 8d 33 3e ef bc 48 3e
       0.28201675 0.21427177 0.17534408 0.19603322
000320 91 84 30 3e 24 f6 65 3e a4 fd 56 3e e2 17 74 3e
       0.1723807 0.22457176 0.20995194 0.23837236
000330 bc cc 4e 3e 7c 63 22 3e 37 dd 27 3e 6e db 79 3e
       0.20195287 0.15858263 0.1639298 0.24400112
000340 dc d2 39 3e 4f 13 4a 3e a0 58 36 3e 54 7f 73 3e
       0.18146843 0.19733928 0.17807245 0.2377904
000350 cf ee 88 3e df b4 30 3e 24 77 3c 3e 86 d9 95 3e
       0.26744696 0.17256497 0.18404824 0.2926752
000360 99 10 5a 3e 24 99 77 3e a8 d3 b7 3e 07 f0 10 3e
       0.21295394 0.24179512 0.35903668 0.14154063
000370 5a ec 45 3e 92 04 55 3e 5a 70 95 3e 7b 6a 75 3e
       0.19328442 0.20802525 0.2918728 0.239664
000380 b7 f5 62 3e 43 51 8f 3e 7d 1f 55 3e 4b 7f 3b 3e
       0.22164045 0.27991685 0.20812793 0.18310277
000390 e8 60 41 3e d5 49 44 3e 86 91 63 3e 02 7d 3d 3e
       0.18884623 0.1916879 0.22223482 0.18504718
0003a0 58 4f 54 3e 63 b8 36 3e 30 d7 3f 3e 28 93 5f 3e
       0.20733392 0.17843775 0.18734431 0.2183348
0003b0 f3 eb 9a 3e c6 a1 84 3e d9 d7 9b 3e a0 42 57 3e
       0.3025814 0.25904673 0.30438116 0.21021509
0003c0 6c 46 e7 3d b5 1a ae 3e 5c 23 32 3e b1 69 3b 3e
       0.11292729 0.3400475 0.17396301 0.18302037
0003d0 ba 0b 50 3e bf c3 37 3e f9 69 2f 3e 75 ac 35 3e
       0.20316973 0.17945765 0.17130269 0.17741568
0003e0 1c 2f 22 3e 99 86 78 3e df 20 70 3e 0b 13 7a 3e
       0.15838283 0.24270095 0.2345004 0.24421327
0003f0 18 d6 6d 3e bc 38 66 3e 71 e9 16 3e 9b 9a 7d 3e
       0.23226202 0.2248258 0.14737488 0.24766009
