TFPORL-main/pomdp-discrete/logs_results/network-defender/final/lstm/seed-5/save/agent_0010000_perf31.340.pt (torch, 941646 bytes, 28 tensors)

critic.observ_embedder.fc.weight f4 [32, 15]
000000 0a 61 93 3e d7 98 32 be 3a 18 9d 3e 90 e6 4a 3e
       0.28784972 -0.17441116 0.30682546 0.19814515
000010 ea 79 9e 3e 00 66 9f be 0a b6 6d be 0c 4a 6e 3e
       0.30952388 -0.31132507 -0.23213974 0.23270434
000020 7e 07 d1 be 71 93 78 3e 67 8c 35 3e 94 dc 45 3d
       -0.4082603 0.24274994 0.1772934 0.048306063
000030 8c 5e 89 be 9d 59 1f 3e c9 69 5b 3d 75 c0 78 3d
       -0.26829946 0.15561529 0.05356768 0.060730416
000040 3c 4f 5f 3e 26 9d a5 3d d0 16 6c be 27 4a 43 3e
       0.2180757 0.08086614 -0.23055577 0.19071256
000050 56 bb de 3d 78 fa 0d be 6b bf ce be 7a 83 4f 3e
       0.10875575 -0.13865077 -0.40380415 0.20264998
000060 0f fa 99 3e f8 52 8c be c5 53 37 be d3 45 b2 3d
       0.30073592 -0.2740705 -0.1790305 0.08704724
000070 e1 68 32 be ad 2a 2e be ec 65 f8 bd 01 fa b1 bd
       -0.1742282 -0.17008467 -0.12128815 -0.086902626
000080 19 76 41 bd a3 82 51 3d 7e 73 42 3e 1b 1e b8 3e
       -0.047231767 0.051149976 0.1898937 0.3596047
000090 9a 63 81 3e fc 7a 7a be 26 e2 6c bd 0a c2 03 3f
       0.25271302 -0.24460977 -0.05783286 0.51467955
0000a0 db 01 05 bd a0 99 f3 bd 07 60 38 be b4 7a 2c 3d
       -0.032472473 -0.11894536 -0.18005382 0.042109206
0000b0 2d d3 f9 3d c9 18 9e 3e d5 7c 95 3e cc 3a 5e 3e
       0.12198482 0.30878285 0.29196802 0.21702117
0000c0 88 6b 8f 3e 89 b0 ed bd 45 c7 8e 3e a6 c3 0b be
       0.28011727 -0.11605937 0.27886406 -0.13648853
0000d0 12 88 07 3d 0c a9 7a be c1 9b 3d 3e d2 4c 95 3d
       0.03308875 -0.24478549 0.18516447 0.07290043
0000e0 e2 57 61 3d 7d 75 be bd ef 0f 8e be 65 d1 b9 3e
       0.055015452 -0.09299753 -0.2774653 0.36292568
0000f0 e2 12 9e be 0b b7 20 be 0a 1e b7 3b 31 c1 16 be
       -0.3087378 -0.15694825 0.0055882977 -0.14722134
000100 5b 7e 47 be b2 c4 8f 3e bd 85 3e bd 73 b9 a1 3e
       -0.19481795 0.28079754 -0.04651426 0.315868
000110 af b3 32 3e 96 37 be be 9f af c8 3e 13 ac d8 bd
       0.17451356 -0.37151784 0.39196488 -0.105796956
000120 09 79 96 bd 93 70 51 3e 8b d4 c2 3e 43 b7 8f 3e
       -0.073473044 0.204531 0.38052782 0.28069505
000130 f4 73 91 bc 7c 5d 8e 3e 48 94 0d be e4 3b 2e 3d
       -0.017755486 0.27805698 -0.13826096 0.042537585
000140 56 23 1d be 90 ef a5 3d 23 62 c6 3b 03 13 8b 3e
       -0.15345511 0.081023335 0.0060541793 0.27162942
000150 37 03 8c 3e 7f d7 bf bd bb 6d 83 be 2d a7 08 be
       0.27346203 -0.093672745 -0.25669655 -0.13345022
000160 20 4a b7 bd 93 7f 16 bd 0e 71 24 be 40 29 41 bd
       -0.08949685 -0.036742758 -0.16058752 -0.04715848
000170 cb 06 01 be 08 ef e8 3b aa b8 43 be 52 30 84 bd
       -0.12600248 0.007108573 -0.19113412 -0.06454529
000180 fa 1b c3 bd 7f 16 12 bd 1b be 4f 3e cd 5e 2d 3e
       -0.095268205 -0.035665985 0.20287363 0.16930695
000190 cc a4 aa bd 6a 67 72 be 70 1e 3d be 10 d7 4a be
       -0.08332214 -0.23672262 -0.18468642 -0.19808602
0001a0 ee b0 c8 bc 15 c0 72 3d db 46 1e bd 1f 09 10 3c
       -0.02449843 0.059265215 -0.03864179 0.008791237
0001b0 49 c2 a8 bc ac a1 8f bd 65 c9 f5 bd c6 eb 3c 3e
       -0.020600455 -0.07013258 -0.120013036 0.18449315
0001c0 49 b9 35 be 25 21 00 3e 84 e1 ca 3d ac fb f3 3e
       -0.17746462 0.12512644 0.09906295 0.47652948
0001d0 73 66 7e be 72 e0 73 3d 87 cb d0 3e 2e 75 17 3e
       -0.24843769 0.05954022 0.4078028 0.14790794
0001e0 c9 e4 9f 3d 42 a7 e9 bd 5e 7f 37 3e 42 4b c6 bd
       0.07807309 -0.11408855 0.1791968 -0.09682323
0001f0 67 60 0e be d4 d2 6f 3e 2e 14 8c 3d 28 a0 e9 ba
       -0.13903962 0.23420268 0.068397865 -0.001782422
000200 d5 42 38 be ac 17 6a bd ea 1b 4b be b3 e4 31 be
       -0.17994244 -0.05715148 -0.19834867 -0.17372398
000210 0d 75 17 bd 98 74 4c 3d 9b a3 58 be 43 8c c2 3e
       -0.036976863 0.04991588 -0.2115616 0.37997636
000220 65 64 ae 3e ee 55 8f be 3a 9e ab 3e 00 65 6d be
       0.3406097 -0.27995247 0.33519155 -0.2318306
000230 c7 c1 b5 be 12 5e cf 3e b1 8a e2 3c 9e 09 b7 3d
       -0.35499403 0.40501457 0.027654024 0.08937381
000240 0b 3d 9a 3c e5 1f 4c 3e c7 df 69 3c 18 4a fc bd
       0.018827936 0.19934042 0.014274544 -0.1231882
000250 6f d5 50 bd 8c 9a cd bd ea 35 9a be 91 1c ac 3e
       -0.050984796 -0.10039243 -0.30119258 0.33615544
000260 d3 7b 70 3d 3b 68 44 3e ba c1 a9 bd 5f 0d 84 be
       0.058711838 0.19180386 -0.082889035 -0.2579145
000270 bc 65 54 be 2d 81 89 be 54 3f d2 ba 60 8a 04 3e
       -0.20741934 -0.26856366 -0.0016040602 0.12943411
000280 c0 b9 03 bd 04 0d 7d 3e e2 60 0d 3e 57 54 64 3e
       -0.032159567 0.24711996 0.13806489 0.22297798
000290 54 de 1f 3e ae e9 1c be 9d 45 89 bd db 8d 40 be
       0.15612155 -0.15323517 -0.06702731 -0.18804114
0002a0 71 e1 06 3e 42 38 ea 3d 5c e4 f1 bd 2f 18 3a 3f
       0.13171937 0.114365116 -0.11811134 0.7269315
0002b0 6c 64 9f bd 0e 32 3b bd a9 4e 76 be 07 13 0c be
       -0.07782826 -0.045702033 -0.24053444 -0.13679133
0002c0 b0 de 5d be 1a ad c1 bd ae 7f 85 bd 18 56 7d bd
       -0.2166698 -0.09456845 -0.065184936 -0.061849684
0002d0 e2 a2 10 be b5 0d c2 be 2c a7 00 be 73 1d 71 be
       -0.14124635 -0.37901083 -0.12563771 -0.2354639
0002e0 60 c2 33 be 39 ce 16 3d 54 cc 13 3e 12 11 35 3e
       -0.17554617 0.036817763 0.14433414 0.17682293
0002f0 72 ad 76 3e fc ed aa 3c bc 2a 72 bd 02 af 1e bc
       0.24089602 0.020865433 -0.059122786 -0.00968528
000300 07 1a b3 3e be a2 a5 3c 91 e7 47 be 4f d3 fb 3d
       0.34980795 0.020219203 -0.1952193 0.12296163
000310 bb 03 93 3b 88 b4 34 3e 21 88 4b bd 07 9f 8d be
       0.0044865287 0.17646992 -0.04969037 -0.2766039
000320 74 05 7e be d7 80 a7 bd 11 b8 93 be 1c 19 8d 3d
       -0.24806768 -0.08178871 -0.2885137 0.06889555
000330 7c a8 2b 3e d5 1a ed 3d cf 98 7c 3e b2 8b a7 3e
       0.1676349 0.115773834 0.24667667 0.32723767
000340 77 a7 8e 3e d1 56 9e be e1 79 c6 3e ad 6c b3 3d
       0.2786214 -0.3092561 0.3876486 0.08760963
000350 9f 22 32 be f9 b6 22 bd f7 ca c4 bd 4c 95 e0 3e
       -0.1739602 -0.039725278 -0.09609025 0.43863904
000360 e6 7d dc 3d 8e 21 fa bd f4 35 62 be 25 ac 0a bb
       0.10766201 -0.12213431 -0.22090894 -0.0021159735
000370 f0 f5 6d 3c 80 1c 3f 3e e2 0a 49 be 3b 46 89 3e
       0.014523968 0.18663216 -0.19633058 0.26811394
000380 b8 b3 03 be 09 dc 5f 3e e1 15 bb be 67 29 c8 3d
       -0.12861526 0.2186128 -0.3654013 0.09773522
000390 b3 5a 2e 3e 1c c5 84 3e 66 fe 10 be 7c 69 90 3d
       0.17026787 0.25931633 -0.14159545 0.070513695
0003a0 10 96 5b 3d 78 17 43 3e fd 31 cd be d4 1e bc bd
       0.053609908 0.19051921 -0.400772 -0.091855675
0003b0 7f bb 4d be e1 11 ec 3e 5f ee 03 be bc d7 2e 3e
       -0.20091055 0.4610739 -0.128839 0.17074484
0003c0 02 f0 87 3d 87 28 53 3e fc 06 b1 bd 21 0c 0c 3e
       0.06637575 0.20620929 -0.0864391 0.13676502
0003d0 df 44 c0 bd 7e 54 14 3e 12 30 4f be 11 7c 94 3c
       -0.09388136 0.14485356 -0.20233181 0.018125566
0003e0 83 27 bd 3e 2d 41 2c be 03 1e 7b be 1f 49 cd be
       0.36944208 -0.16821738 -0.24523167 -0.4009485
0003f0 50 3b 42 3a 2a 1b 53 3e 76 5b 63 3e 52 17 56 be
       0.0007409351 0.20615831 0.22202858 -0.20907333

critic.observ_embedder.fc.bias f4 [32]
000000 7f 36 fb 3d 45 87 56 3d a8 ab 2d be 30 af 77 be
       0.12266254 0.052375097 -0.16960013 -0.24187922
000010 c1 87 66 3e 49 22 3b be dd 4e b5 bb c2 59 5c be
       0.22512724 -0.18274797 -0.005533083 -0.21518615
000020 dd 5d 83 be d7 f8 6b 3d 95 cf 0e bd 57 00 14 3e
       -0.2565755 0.05761036 -0.034865934 0.14453255
000030 c2 49 f5 bc c6 aa 89 3e 8c cc d5 bd 82 77 5f 3e
       -0.029942397 0.26888102 -0.10439405 0.21822932
000040 8e 07 93 3e 73 54 1e be 3e 87 b1 3c a9 5f a3 3e
       0.287167 -0.15461902 0.021670934 0.3190892
000050 0c a4 41 be de 32 25 3e bd 8d ad 3e 4c 00 bb be
       -0.18910235 0.16132686 0.338972 -0.36523664
000060 12 f3 5f 3e 0c 75 9c 3e 52 d6 d7 bd 55 6c c9 be
       0.21870068 0.3055805 -0.10538925 -0.39340463
000070 04 8f 6f bd 7e 12 2c be 80 a4 6b 3e 9a 6f 31 3f
       -0.058486 -0.16803929 0.2301197 0.69310915

critic.action_embedder.fc.weight f4 [16, 16]
000000 be 0a 0c 3e 38 47 64 3d ca d8 3c 3e 96 50 32 be
       0.13675973 0.055731982 0.18442073 -0.17413554
000010 80 64 f0 bb b8 63 b5 bd 90 8c a6 3d b8 8e 1d be
       -0.0073361993 -0.088569105 0.08132279 -0.15386474
000020 7a 1f 3f be 90 80 81 3c 18 fe f7 bd bc d2 f4 3d
       -0.18664351 0.015808374 -0.121090114 0.11954257
000030 00 b5 1d 3e e0 94 fa bd 58 88 90 bd f0 0a b0 bc
       0.15401077 -0.12235427 -0.070572555 -0.02148959
000040 36 a1 31 3e 37 29 9f 3c 88 05 72 be e7 26 c3 3e
       0.17346653 0.019428832 -0.23634923 0.38115618
000050 25 16 67 3e 79 83 15 bd 4d d6 42 3d 3e 96 19 3e
       0.22567041 -0.036502335 0.047567654 0.14998719
000060 24 06 87 be 56 49 88 be c7 cd 0e be d3 f2 f6 3e
       -0.26371872 -0.2661845 -0.13945685 0.48232135
000070 97 dd c5 3c 0a 7f b3 bd e2 78 b3 3d 89 2b 19 3e
       0.024153514 -0.08764465 0.08763291 0.14958014
000080 74 86 e6 3e fa a0 54 be 44 ed 6f be a7 dd ab bd
       0.45024455 -0.20764533 -0.23430353 -0.08391886
000090 a6 24 0f be 74 8b 3d be 61 45 fa 3d 26 d0 0f be
       -0.13978824 -0.18510228 0.12220264 -0.14044246
0000a0 b9 0a 24 3f 01 a4 ac bd 1c fc a8 bd 76 0b d9 3d
       0.6407886 -0.08429719 -0.08251211 0.10597889
0000b0 f4 12 c1 bd 32 64 20 be 87 d8 18 bd c6 b4 ac bd
       -0.09427443 -0.15663221 -0.03731587 -0.08432917
0000c0 87 79 e1 bd ba 6c 85 be 0c ec 83 be 24 7a 84 be
       -0.110095076 -0.26059514 -0.25766027 -0.25874436
0000d0 c7 96 8b 3e aa f0 30 be 6b 35 0d 3d aa 26 12 3e
       0.2726347 -0.17279306 0.03447477 0.14272562
0000e0 08 4a 6a 3e 6a 74 c3 3e bf f9 cf 3d 7f cb b1 3d
       0.22879803 0.38174754 0.10155057 0.08681392
0000f0 db 94 13 3f bd 63 29 be b4 ca 84 be d1 30 77 3d
       0.5764901 -0.16541953 -0.259359 0.06034929
000100 ea 5d 7d 3c e2 6e 1f be 26 ca 67 be d8 cd d5 3e
       0.015464285 -0.15569642 -0.22635707 0.4175861
000110 d4 54 ae bd 2b 42 29 3f ec ad 2f be 40 6f 4e be
       -0.085122734 0.6611659 -0.1715619 -0.20159626
000120 9a 47 31 be 0f 0a 10 bd 4c 1c 58 be 64 67 60 be
       -0.1731247 -0.035165843 -0.21104544 -0.2191444
000130 fb 83 bc 3d f8 85 db bd 2a 01 ae 3d c2 2a 55 3e
       0.09204861 -0.10718912 0.08496316 0.20817092
000140 14 87 7d be 6c cc b6 bd e1 73 87 3e 70 77 7c bd
       -0.2475856 -0.08925709 0.26455596 -0.061637342
000150 35 7b fd 3d 87 85 7c be 19 a5 52 3d f2 a7 7c be
       0.123770155 -0.24660312 0.05142698 -0.24673441
000160 e4 77 9c 3e d4 d6 7f be 55 1f 7d be bf 94 2c bb
       0.3056022 -0.24984294 -0.24718983 -0.0026333777
000170 b8 51 a8 3e 14 36 ab 3e 99 7d 23 3e f2 c3 2c 3e
       0.32874846 0.33439696 0.1596588 0.16871622
000180 90 85 e4 bd 02 17 37 be bc f1 cc bd e0 53 3d be
       -0.111582875 -0.1787987 -0.10007045 -0.18489027
000190 68 76 f1 bd 18 a8 19 be 16 c1 51 be e0 c6 6a bc
       -0.11790162 -0.15005529 -0.20483813 -0.014329642
0001a0 1c 0f 36 be 28 0f 98 bd 98 81 a9 3d 4c 19 bf bd
       -0.17779201 -0.07424766 0.08276671 -0.09330997
0001b0 26 40 22 be 28 44 a3 bd 10 d5 75 3d c0 f4 56 bc
       -0.15844783 -0.07971984 0.060017645 -0.013119876
0001c0 40 6e 55 3c 30 0c 6e 3c 1a 90 24 3e 62 c6 f2 3e
       0.013026774 0.014529273 0.16070595 0.4741698
0001d0 08 ba a1 bd 85 a2 61 3c 71 2e 3c 3f 6a 38 43 be
       -0.07896811 0.013771658 0.73508364 -0.19064489
0001e0 da 42 7d 3c c6 b3 77 be c0 dc f6 3b b0 c8 1b bd
       0.015457833 -0.24189672 0.0075336397 -0.038033187
0001f0 ab 64 10 3e 44 75 63 be 90 a4 33 3d c6 2e 7c be
       0.14100902 -0.22212702 0.04385811 -0.24627218
000200 b4 36 16 be 9a 51 15 be 46 6e 67 3e 6a 51 17 be
       -0.14669305 -0.1458191 0.2260066 -0.14777151
000210 a0 f7 16 be a9 33 ad 3e 5a bf 7c be f4 b3 e0 3e
       -0.14742899 0.33828476 -0.2468237 0.43887293
000220 74 bb 1e be 72 89 56 be e1 4f b5 3d 8f 5f 05 be
       -0.15501195 -0.20950869 0.08853126 -0.13024734
000230 86 d1 2a be 9c 83 17 be 00 fe 6a be 12 42 05 bc
       -0.1668149 -0.14796299 -0.22948456 -0.008133428
000240 f7 c8 d9 3e e6 32 9d bc 27 4e 41 3f 65 1f 38 3e
       0.42536137 -0.01918931 0.75509876 0.17980726
000250 54 b6 00 be 1f 09 4e bd 08 9e 55 bd 73 be 51 bd
       -0.12569553 -0.050301667 -0.052152663 -0.051207017
000260 66 7a 14 be 0e 45 90 3e 10 98 9e bd c5 c3 50 bd
       -0.14499816 0.28177685 -0.07743847 -0.05096795
000270 64 98 03 3e fe b1 40 be 3e 19 21 be 3f be 57 bd
       0.12851101 -0.18817899 -0.15732285 -0.052671667
000280 ee ce 5f be 9c 18 33 be ff 7f da 3d 1a 83 2f 3e
       -0.21856281 -0.17489856 0.106689446 0.17139855
000290 44 97 a3 bd 62 80 20 3e 3b 39 16 3e 22 3a a5 bd
       -0.07987836 0.15673974 0.14670269 -0.080677286
0002a0 97 a8 a3 bd 28 1d fa bd 63 c7 4b 3f 0b 8c 5b 3e
       -0.0799114 -0.12212592 0.79601115 0.21440141
0002b0 c0 39 19 3e f9 0d a4 bd 7c ec b6 bd 10 fa cc bd
       0.14963436 -0.080104776 -0.089318246 -0.10008633
0002c0 94 b7 c5 3e ac a6 34 be 68 9f e0 bd bc d3 16 be
       0.38616621 -0.17641705 -0.10967904 -0.14729208
0002d0 1a 20 ef 3e 2c b1 1c be 9c 68 94 bd 36 2d 24 be
       0.4670418 -0.1530196 -0.07246515 -0.16032872
0002e0 b2 a0 34 3c 02 f5 2c be 90 4f 65 be 68 c8 7c be
       0.011024641 -0.16890338 -0.22393632 -0.24685824
0002f0 f2 30 6a be 38 90 aa bd 44 83 f1 bd 07 2b a2 bd
       -0.22870234 -0.08328289 -0.11792615 -0.07918363
000300 91 ff 27 be aa 38 34 3e e5 3b e4 bd 4e a2 62 3e
       -0.16406085 0.1759974 -0.111442365 0.22132227
000310 7a 23 75 3d 99 14 f9 bc 54 6a 85 be 32 c8 be 3e
       0.059848286 -0.03040533 -0.26057684 0.37262112
000320 82 19 4c 3d cb 21 95 be 0d c2 95 bb 6a ca 80 be
       0.049829014 -0.29127344 -0.004570252 -0.2515443
000330 08 f6 8d be 7b fe 48 3d 32 33 8e be af 1d 83 bd
       -0.2772677 0.049070816 -0.27773434 -0.06402146
000340 3c c7 e1 3a 1e ad 77 be 84 2c f4 bd 04 e3 ce bd
       0.0017225514 -0.24187133 -0.11922553 -0.101018935
000350 b2 a4 7e 3e 38 4f 1b be 3f 7b 31 3d 0c 73 bb bd
       0.24867514 -0.15166938 0.043330427 -0.09152803
000360 82 5b 1d 3f f6 db 9d 3e 29 f9 f1 3c 84 f3 9a 3c
       0.61467755 0.3083188 0.029537754 0.018914945
000370 84 2a 61 be 0b 7a 2f 3e 85 f2 f0 3e 00 59 70 bd
       -0.21988875 0.171364 0.47060028 -0.058678627
000380 af 33 33 3e ff 8b 3b be 65 a6 3c be 68 5d 63 be
       0.17500184 -0.18315123 -0.1842285 -0.222036
000390 89 30 3a be 8a 6a 3a be 98 d4 e1 3e 0d 7d 3b be
       -0.18182577 -0.18204704 0.4410751 -0.18309422
0003a0 32 95 6a bd b8 0e 88 3e c2 fc 6a be 04 4b fd 3d
       -0.05727119 0.2657373 -0.22947982 0.12367824
0003b0 10 83 3c be 52 e6 be 3e 3a 96 3c be 83 b7 2f 3e
       -0.18409371 0.37285095 -0.18416682 0.17159848
0003c0 d2 98 32 3e 17 d3 6a 3e 0c b0 7e be 8a 76 56 be
       0.17441109 0.22932087 -0.24871844 -0.20943657
0003d0 05 24 e2 bd c9 05 fd 3d be 30 3c be 42 db 06 3f
       -0.110420264 0.12354619 -0.18377969 0.5267831
0003e0 82 ff 26 3e 02 b9 33 be 61 11 b5 3c 78 af 01 be
       0.16308406 -0.17551044 0.022103013 -0.12664592
0003f0 c4 0d 3d 3e f2 35 a4 3e c5 56 9f 3e 0c 78 f8 3d
       0.18462282 0.32072407 0.31120887 0.12132272

critic.action_embedder.fc.bias f4 [16]
000000 5e 2a 4b be f4 0f 86 3e 05 be a7 3d 56 5d 83 3e
       -0.1984038 0.26184046 0.0819054 0.25657147
000010 f5 e4 1d 3e fd fe 7b 3e 74 a4 4f be e4 5e 83 bc
       0.15419371 0.24608989 -0.20277578 -0.016036458
000020 0f 22 14 3e ed 92 48 3d b9 95 a1 3d b1 98 9e 3d
       0.14466117 0.048968244 0.078898855 0.07743967
000030 e7 f8 8c 3e d1 d7 85 bb 2e b3 39 3e 62 cf df 3d
       0.27533647 -0.004084565 0.18134758 0.10928227

critic.seq_model.model.weight_ih_l0 f4 [256, 48]
000000 a0 a6 62 bd 41 02 14 be 7c 22 25 be 9f 12 4a be
       -0.055334687 -0.14453985 -0.16126436 -0.19733666
000010 9c bb 17 be 05 63 fa bd 18 df e7 bc d5 09 ea be
       -0.14817661 -0.12225918 -0.028304622 -0.45710626
000020 af 3b 04 be 75 cc 8f 3e 56 20 5d be 95 29 01 3e
       -0.12913392 0.28085676 -0.21594366 0.12613519
000030 91 2c 0c be 86 7c 34 3e 67 00 d3 3d fe c9 ab 3d
       -0.13688876 0.17625627 0.10302811 0.08388136
000040 07 5c 14 3d 28 21 31 3e 3a 0d 44 3c 0f a0 1d bd
       0.036220577 0.17297804 0.011966044 -0.038482722
000050 29 85 22 bc 7b 46 ec 3d 5b e9 00 be 5b 3e af be
       -0.009919443 0.115368806 -0.12589018 -0.3422726
000060 ce e6 98 3d 15 b6 41 bd fa 0b 8e be 7c 32 86 3d
       0.074658975 -0.047292788 -0.27743512 0.06552598
000070 81 55 a4 3e bd c4 37 3e c9 41 11 3f b7 87 fc 3c
       0.32096484 0.17946143 0.56741005 0.030826433
000080 03 1c 9a 3d 2b c8 90 bc cc 59 d5 bb 2b 1e 14 3f
       0.07524874 -0.017673573 -0.0065109488 0.5785853
000090 69 e9 21 bd 65 a0 49 3e c5 d0 b4 3b 88 80 a9 3c
       -0.039529238 0.19690092 0.0055180513 0.020691171
0000a0 dc c3 22 bd 56 5a 1e 3d 48 59 cd 3c ec 76 7e 3d
       -0.039737567 0.03866037 0.025066987 0.06212513
0000b0 f4 34 b8 3d bc f0 21 3e 79 0e 9e 3e 87 cb 8b 3d
       0.08994475 0.15814489 0.30870417 0.06825929
0000c0 42 6f 0f bd d8 c3 25 3e bf cf 00 3e 13 de eb 3d
       -0.035018213 0.1618799 0.12579249 0.11516967
0000d0 dd 13 e9 3d 0c ed ad bd a9 c8 df bd 21 ac 25 be
       0.11380742 -0.08492479 -0.10926945 -0.16178943
0000e0 fc af 3e bd 0a 97 4c bd 87 af 01 3e 82 82 85 3e
       -0.04655455 -0.04994873 0.12664615 0.26076132
0000f0 fd d6 93 3d 5f 9b fd bc c5 c1 bf 3d f7 bd ad 3d
       0.0721874 -0.030957876 0.093631305 0.084834985
000100 07 3d 71 3d 4e 92 2a be 4b 10 d6 3d b7 11 a2 bd
       0.05889609 -0.16657373 0.104523264 -0.07913535
000110 d7 ad 40 3d e1 a8 0a 3f 2d b5 1e 3d f4 e4 c9 bc
       0.047040787 0.5416394 0.038747 -0.024645306
000120 66 f6 f2 bc 5a 3d 0f be 68 13 fc 3c 90 aa 3b 3c
       -0.029658508 -0.13988248 0.030770972 0.0114542395
000130 34 b2 b1 be 51 c5 a0 3d c2 a6 21 be 78 d8 eb 3d
       -0.3470627 0.07850135 -0.1578627 0.115158975
000140 ef 03 ea 3d 4b 8e 0f 3d 7d b0 a8 3b 8d 42 28 bd
       0.114265315 0.03504781 0.005147992 -0.041079093
000150 81 22 2e bd ee 53 ad 3c d3 d9 af 3b fb 88 a2 bd
       -0.042513374 0.021158185 0.005366543 -0.07936283
000160 a0 2f 84 3b ea 43 54 3d 27 0d f6 bd 9a f0 04 b9
       0.0040339977 0.05182258 -0.12014227 -0.00012678132
000170 72 50 eb bd 4d 54 3a bd 13 6d 51 3e db d1 db 3d
       -0.11489953 -0.04549055 0.20451765 0.10733386
000180 16 d3 c7 bd 4c 2e 49 3d d8 45 24 be a5 a9 1e be
       -0.09757058 0.049116418 -0.16042268 -0.15494402
000190 15 f9 d2 3d 13 0a 5a bd be 69 f1 3c 6e 52 68 be
       0.10301415 -0.053232264 0.029469367 -0.22687694
0001a0 6e a4 96 be c6 e4 fd bd c1 2b 75 be 32 59 21 bb
       -0.29422325 -0.12397151 -0.23942472 -0.0024619815
0001b0 75 c7 17 bd 13 91 75 3e a5 d0 77 be ca a5 74 be
       -0.03705545 0.23981123 -0.24200685 -0.23891369
0001c0 0e 01 6d 3e ca 88 36 3d 00 ed 2e be 40 4f 22 3e
       0.23144934 0.044564046 -0.17082596 0.15850544
0001d0 66 f7 d2 3c b1 be 10 3f 0f 0d 16 3d 67 bf 61 be
       0.025752734 0.5654097 0.036633547 -0.2204567
0001e0 2f 31 59 3d 48 9a 69 be b1 da 0c be 57 54 e0 3e
       0.05302542 -0.2281276 -0.13755299 0.43814346
0001f0 cc 20 56 3e 8d 13 ee bd d2 a9 47 be 2b 9b 4a 3d
       0.20910949 -0.11624823 -0.19498375 0.049464386
000200 ce 4f 3d bd 9d 41 e1 bd e5 e7 d1 bd ed e5 57 3d
       -0.046218686 -0.10998843 -0.102493085 0.05270951
000210 3f fb 89 3e 86 b5 0e 3e d4 37 4a be ff ac 39 bc
       0.26949498 0.13936433 -0.19747859 -0.011332749
000220 ea 19 83 be 2b 32 26 be ab 63 5d 3c f3 7e 0e be
       -0.25605708 -0.16230075 0.013512532 -0.13915615
000230 6d 5a 0c be bf c9 c7 3d 5e 73 2c be 4c 2e 8c 3e
       -0.1370637 0.09755277 -0.16840884 0.27379072
000240 f6 60 3f bd d6 60 66 be 3c 1c b4 3e 49 e0 03 bd
       -0.04672333 -0.22497877 0.3517779 -0.032196317
000250 b8 52 82 bc 99 1e 05 3e e4 77 33 3d 83 62 75 3d
       -0.015908584 0.12999953 0.04381551 0.0599084
000260 99 3c b8 3d 7f e6 a9 bd 51 61 6f be 1c 75 47 3e
       0.08995933 -0.08295917 -0.23376967 0.19478267
000270 8d c9 f3 3d 46 89 53 3e f4 bf 96 3e b3 8d 5f 3e
       0.11903677 0.20657834 0.29443324 0.21831398
000280 3f 93 85 3e b9 1c 9c 3c ff 0d 0a 3e 62 6e 28 bd
       0.26088902 0.019056665 0.13481902 -0.041120894
000290 66 78 f3 bd e0 68 f2 3e 40 5e 21 3d d3 be 7e 3d
       -0.118881986 0.47345638 0.039396524 0.062193703
0002a0 bc a1 6a bd b7 53 23 be b2 0d 2f bd 5c c9 94 bd
       -0.05728315 -0.15949903 -0.04273767 -0.07264969
0002b0 e1 6c fb be aa 3c 0a bd b9 50 0b bd 97 60 10 3d
       -0.49106506 -0.03374926 -0.03401253 0.035248365
0002c0 b0 e1 3d be 6a a9 6e bc 43 ac 66 3e 01 41 1f 3b
       -0.18543124 -0.014566759 0.2252665 0.002430022
0002d0 bc 5a 51 3c 00 3e 6a be 48 2c e4 bd ec 2e ea 3d
       0.01277798 -0.22875214 -0.111412585 0.11434731
0002e0 c8 7d 8a 3e e6 07 08 3e f4 d7 45 3e 9b 78 46 3e
       0.27049088 0.13284263 0.19320661 0.19381945
0002f0 fa 05 8a bd e0 f4 37 3d 7a 80 81 3e 16 84 ad 3e
       -0.06739421 0.044911265 0.25293332 0.33889836
000300 d9 21 9a b9 be 1f 97 3e 14 03 3f 3c 4e 4d 27 3e
       -0.00029398387 0.29516405 0.011658449 0.16338083
000310 f6 c1 39 3e 6d c5 44 3e 2b 9e d9 bd 6b 81 d3 bc
       0.18140396 0.19215937 -0.10625871 -0.025818547
000320 45 94 58 3e c8 fc f2 bd 04 09 62 bd 4c 72 40 be
       0.2115031 -0.118646204 -0.05518438 -0.18793601
000330 fd dd d2 3a 9e 17 43 3e e7 53 70 3e 68 a0 85 3e
       0.0016087886 0.19051978 0.23469506 0.26098943
000340 31 c8 ea 3d a6 f5 9f be ea 3a 87 bd 67 51 ad 3e
       0.11463965 -0.31242102 -0.06603034 0.33851168
000350 ea a8 18 3e 97 53 ef bd 57 0d 00 3d 4b 83 f7 3e
       0.14908186 -0.11685865 0.031262722 0.48342356
000360 83 50 02 bc 3d 4d 97 3e 02 38 90 3d fc ba 3a 3f
       -0.007953766 0.29551116 0.07041933 0.72941566
000370 6f b2 ff bf d2 4d 65 bd d0 0a 07 be 73 d3 34 3d
       -1.9976329 -0.05598242 -0.13187718 0.044146966
000380 e0 93 8d 3e 36 2b 04 3c 81 17 ce 3d aa c0 09 bf
       0.27651882 0.008066943 0.10063077 -0.5380961
000390 d7 37 ae 3d 67 33 a2 3e 5c 34 40 be 3e 81 5b 3e
       0.08506744 0.31679842 -0.18769974 0.2143602
0003a0 9c 16 fc bd b9 39 15 be 01 49 48 bd 67 87 b6 3c
       -0.12309 -0.145728 -0.048897747 0.022281362
0003b0 13 58 72 be c9 ee 0f 3e be b5 be 3e fc 59 0f 3d
       -0.2366641 0.14055933 0.37248033 0.034997925
0003c0 f5 ad fb 3d 01 af 96 bc d8 93 db bd 04 d7 08 3e
       0.12289039 -0.018393995 -0.10721558 0.13363272
0003d0 b6 4c a5 be 30 5c 99 be ee 2e 2e be ff 0b b0 bd
       -0.32285088 -0.29953146 -0.1701009 -0.08596038
0003e0 df 0d 13 3f b2 36 97 3e c3 85 24 3e 5a cc 5b be
       0.5744304 0.29533917 0.16066651 -0.21464673
0003f0 c0 de 12 3e b9 7f 07 be 49 ba 03 3f 73 03 39 3f
       0.14342785 -0.13232316 0.51456124 0.7227089

critic.seq_model.model.weight_hh_l0 f4 [256, 64]
000000 75 5d e8 3d c1 0b 3b be 1a 48 8e bd 32 53 d4 3e
       0.113459505 -0.18266203 -0.06947346 0.41469723
000010 8c 91 f0 bd 38 22 c5 be ae 26 41 3e 1e be c3 3d
       -0.11746511 -0.3850267 0.18862411 0.09557746
000020 7d aa 07 bf 3e c0 d4 3d d8 ff f2 bd 5f 85 25 bf
       -0.5299452 0.1038823 -0.118652046 -0.64656633
000030 25 1c 11 3e 1b 10 f9 be 1f bf 5c be 1f 0f 43 be
       0.14170893 -0.486451 -0.21557282 -0.19048737
000040 e2 7a ea bc 7c ca a5 bc ae bf 39 be e3 dd 88 bc
       -0.028623048 -0.020238154 -0.18139526 -0.016707366
000050 92 a4 b9 bd e0 96 af 3d ea b5 52 3b fe 28 a4 bd
       -0.090645924 0.08573699 0.0032151886 -0.08015631
000060 c4 b5 00 3d ef ab cf 3d 4f 99 71 3e 6d c0 10 be
       0.031423345 0.101402156 0.23593639 -0.14135905
000070 64 c4 98 3e c5 97 e6 bd 49 81 ab bd d7 50 0e be
       0.29837334 -0.112594165 -0.083742686 -0.13898025
000080 1c 6c ab 3d fb ce ff bd 45 63 84 be c4 9d eb 3e
       0.083702296 -0.1249065 -0.25856987 0.46018803
000090 20 c3 d7 be 39 60 b8 3c 54 68 cc be 91 22 78 be
       -0.42141056 0.02250682 -0.39923346 -0.24231936
0000a0 2a 40 89 bd 89 e3 a4 bd 3e de 51 be da 20 ca 3e
       -0.067016914 -0.080512114 -0.20494935 0.3947819
0000b0 87 f5 1b be 25 f9 88 3b f4 d4 b4 bd 90 db c9 bd
       -0.1523038 0.004180091 -0.0882968 -0.09856331
0000c0 7e 28 ad 3d 69 8b e4 bc 1f 8b 9f be f0 09 5b 3e
       0.08454989 -0.027898507 -0.31160828 0.2139051
0000d0 ca 60 9f be 11 f1 3d be fa 36 94 3e 77 72 fe be
       -0.31128532 -0.18548991 0.28948194 -0.49696705
0000e0 19 43 a7 be bb f6 f6 3e be 67 e7 3d aa fa 32 bc
       -0.3266838 0.48235115 0.11299084 -0.010924021
0000f0 7c 23 e3 3e 43 49 b6 3c 51 94 09 bb 07 69 0e be
       0.4436301 0.02225173 -0.0020992944 -0.13907252
000100 47 50 3e be 19 68 d2 3d 87 76 05 be 8a 9d e4 bd
       -0.18585311 0.10273761 -0.13033496 -0.11162861
000110 01 cc 64 be 85 ac 40 be 92 bc 8c 3e f4 d0 7e 3e
       -0.22343446 -0.18815811 0.27487618 0.24884397
000120 53 49 bb 3d d8 dd 92 be 73 f6 23 3e a0 c8 40 be
       0.09144845 -0.28684878 0.16011982 -0.18826532
000130 82 c8 b3 bd f4 3b c1 3c fb 19 93 3d 15 68 5a 3d
       -0.08778478 0.023588158 0.0718269 0.053321917
000140 34 49 99 3b 54 8f ec 3d 4e c1 90 bd 8d b8 05 be
       0.004677916 0.11550775 -0.0706812 -0.13058682
000150 c9 2f 5a bd 46 7a 82 3d 89 d2 bc 3d c0 e0 2d bd
       -0.053268228 0.06370978 0.09219844 -0.042450666
000160 8c d4 04 bd c3 68 e6 3d d6 1d 82 3b 3a de c1 bc
       -0.032429263 0.112504505 0.003970842 -0.023665536
000170 4f 26 b7 bd d2 d3 95 3d 97 64 53 3e 9c 3b 48 3e
       -0.08942854 0.07315792 0.2064384 0.19553989
000180 f6 b1 76 3c 2f 7e 8b 3c b8 1a bf bc ff bb 72 be
       0.015057078 0.017027942 -0.02332817 -0.23704527
000190 c1 7f 6c 3e 5b 42 45 3e 8a 04 af bd 7d ed 27 3c
       0.23095609 0.19263594 -0.08545788 0.010249493
0001a0 24 1c 8c be ab 32 19 3e a0 ce ce 3d 91 bd 4b 3d
       -0.2736522 0.14960735 0.10098004 0.04974133
0001b0 00 dc 99 3d af fa 0d bc 23 23 87 be 75 b4 e7 3c
       0.07512665 -0.008665725 -0.26393995 0.02828429
0001c0 53 4a b5 3e d7 73 b6 3e 98 d4 5f be 81 2b 87 3d
       0.35408267 0.35635254 -0.21858442 0.066000946
0001d0 73 bd a6 be 49 62 35 3e 79 4e 80 3d c6 9e cd bc
       -0.32566413 0.17713274 0.062649675 -0.025100123
0001e0 9a f9 aa be 7b 1c 7c bd ff b6 15 3e 3b 68 a5 3c
       -0.33393556 -0.0615506 0.14620589 0.020191303
0001f0 87 53 53 3d 56 d8 a3 bd 06 ce 72 bd 1b c2 9a be
       0.05159333 -0.08000247 -0.05927851 -0.30226216
000200 02 75 55 3e 4a 86 ef 3d d4 87 8f be 03 49 4f be
       0.20845416 0.116955355 -0.28033316 -0.20242696
000210 9f b6 69 be 7b 8f 01 3d a7 aa 8f 3a 1a 7e ef bd
       -0.2282357 0.031630974 0.0010960893 -0.11693974
000220 12 42 b2 be 64 b8 0c be 99 05 a3 be dd 23 f6 be
       -0.34816033 -0.13742214 -0.31840208 -0.48074237
000230 61 ff 74 3d 91 f0 b1 bd 58 e5 08 bf 7f ad 70 be
       0.05981386 -0.086884625 -0.5347495 -0.23503684
000240 5d 35 27 3d 14 2b 22 3e 4a d7 f5 3e 3b a6 79 be
       0.040822376 0.15836746 0.48015815 -0.24379818
000250 01 20 1e 3e 9c 16 7b 3e c7 73 ff bc 50 4c 0f 3e
       0.15441896 0.24520344 -0.031183137 0.13993955
000260 4b 10 5d 3d 59 7a b5 3d 4a c4 b3 bd 67 10 bd 3e
       0.053970616 0.088612266 -0.087776735 0.36926576
000270 a5 19 ab 3d 79 f6 2c 3d ca 01 35 be 01 10 eb 3d
       0.08354501 0.042227242 -0.17676464 0.11477662
000280 15 71 38 bd 7a db 09 be ec 4a e3 3d 16 ea 72 be
       -0.04502972 -0.1346263 0.110982746 -0.23722109
000290 55 ee 84 bc 95 24 2b 3e 53 13 30 be 56 6e e9 bb
       -0.016226927 0.16713174 -0.17194872 -0.007123749
0002a0 1d ff 33 3d f4 cc a1 3d 28 04 ce bd 2e 07 86 3e
       0.043944467 0.0790042 -0.100593865 0.26177353
0002b0 3d 49 a8 bd 8b ee 31 3e a4 3c 84 bd 7f 6e 22 3e
       -0.08217094 0.17376153 -0.06456879 0.15862463
0002c0 56 48 58 be f7 0a 0e 3e a0 ab 4d be 0c b5 0d bd
       -0.21121344 0.1387137 -0.20085001 -0.034596488
0002d0 8f e4 94 bd 3d f7 a6 be e5 32 a7 be 68 7c de 3c
       -0.072701566 -0.32610503 -0.32656017 0.02715893
0002e0 a5 db 8b 3d 14 4b 0e 3e 1c 3c 87 3d e5 f4 97 bd
       0.06829003 0.13895828 0.06603262 -0.07419757
0002f0 22 ca 2e 3e ce 1a a8 bd 73 06 ca bc ea e4 09 be
       0.17069295 -0.082082376 -0.024661278 -0.1346623
000300 93 08 e5 3c 62 84 2b bc dc 97 0e 3e 9e 6f 55 3d
       0.02795819 -0.010468574 0.13925117 0.0521084
000310 eb 63 26 3e 02 88 9a 3e 22 2e 34 3e 1d 18 c5 3e
       0.16249053 0.3018189 0.17595723 0.3849496
000320 ca 93 af bd 71 e8 aa bd 84 30 06 be 72 58 87 3e
       -0.085731104 -0.08345116 -0.13104445 0.26434666
000330 a4 89 45 3d a1 50 4e be 4c 5e 56 be 2b f6 4e 3e
       0.048226967 -0.20147945 -0.20934409 0.20211093
000340 1a 45 2b bd 33 32 84 3d 62 0b eb 3d 1d e1 48 3d
       -0.041813947 0.06454887 0.114767805 0.04904281
000350 6d a6 35 3e c2 2a b7 3e 0d 66 3f be 5c 2b 3e be
       0.17739268 0.3577481 -0.18691273 -0.18571228
000360 94 aa 2e bd 00 68 c2 3d 82 08 0e bc bd 17 11 3e
       -0.042643145 0.09492493 -0.008669021 0.14169212
000370 9f a3 ff 3d ba 59 b8 3e 5e 1d 2c be 4d 6f 58 3e
       0.1248238 0.36005956 -0.16808078 0.21136208
000380 c8 14 9e bd c5 1b b6 bd 05 fe b4 3c f6 2e 10 3e
       -0.077188075 -0.08892015 0.022093782 0.14080414
000390 dd 63 98 bd 50 46 8b be a1 cf 95 be 2d 5b ca 3e
       -0.074409224 -0.27202082 -0.2925997 0.39522687
0003a0 65 63 55 3e dc 25 a3 3e ca 97 10 3e 67 ca 7b 3e
       0.20838697 0.31864822 0.14120403 0.24588929
0003b0 31 61 95 3d 8b f1 b7 bc 24 6e 98 be 88 00 77 3e
       0.072939284 -0.022454044 -0.2977153 0.24121296
0003c0 bf e2 84 be 10 b5 cd 3d 97 38 8c 3d c9 b3 1e 3e
       -0.25954244 0.100443006 0.06846731 0.1549827
0003d0 da d4 67 be 8b a8 eb 3d 8f f9 44 3e 5e bc 34 3d
       -0.2263979 0.115067564 0.19235824 0.044124953
0003e0 a9 63 eb 3d 0a 1f 4a be b3 bb 5d bd eb 06 4e bb
       0.11493618 -0.19738403 -0.054134082 -0.003143723
0003f0 1c c9 43 bd 95 b1 63 3d f5 ce 16 be 52 74 2f 3e
       -0.047799215 0.055589277 -0.14727385 0.17134216

critic.seq_model.model.bias_ih_l0 f4 [256]
000000 28 6d 20 3c a1 5c 8d 3d da 21 26 bd 7a 64 da bb
       0.00979165 0.06902433 -0.040559627 -0.00666481
000010 3d ec 20 3e eb e1 4d 3e 57 cc fe bc 4e 41 af 3d
       0.15715118 0.20105712 -0.031103296 0.08557378
000020 a5 0a ad 3c 2d a4 00 3d 71 ae 6c 3a 72 0c ee 3b
       0.02112324 0.03140657 0.00090286793 0.007264667
000030 fb d8 04 3d 0c 85 ca 3c e9 a5 0e 3e fd bb e5 3d
       0.03243349 0.024721645 0.13930477 0.112174965
000040 a2 9b b4 3d 9d 7a bb 3d f0 57 d1 3c c7 a9 b2 3d
       0.08818747 0.09154246 0.025554627 0.08723789
000050 05 2f 57 3e 23 99 95 3d c3 77 1b 3d 9f d9 2a bd
       0.2101403 0.07304599 0.03795601 -0.041711446
000060 52 1f 81 3d 02 4c b9 3d 84 b1 79 3d 0c d3 4a 3e
       0.06304802 0.090477005 0.060960308 0.1980707
000070 68 fe f1 3d 3d c5 90 3d 8e d0 eb 3d a1 12 0d 3d
       0.11816102 0.0706887 0.11514388 0.034441594
000080 ed a0 e9 3b e2 2d be 3d c6 fb 07 bd c3 d7 9c 3c
       0.0071297796 0.09286095 -0.033199094 0.019145852
000090 a0 94 36 bc 96 1e 48 3d 01 4b e7 3c 6b 2b 08 3c
       -0.011143833 0.048857294 0.028234007 0.008311133
0000a0 d4 fd 27 3e 98 5a 15 bd 16 1f 40 3b 6b 30 7c 3d
       0.16405421 -0.03646335 0.0029315404 0.061569612
0000b0 4d 80 38 3d 75 34 a3 3d ac 73 3b 3d 64 51 75 3b
       0.045044232 0.0796899 0.04576461 0.0037432546
0000c0 99 31 b6 3d 18 c8 fc bc f7 ac 2f 3d af b2 47 bd
       0.08896179 -0.03085713 0.04288956 -0.04875439
0000d0 b4 6b 91 3d f5 d9 26 3d 94 2c a0 bd 4f 23 59 bc
       0.07100621 0.040735204 -0.078210026 -0.013253047
0000e0 ae 7a 4a 3d 25 6f 2e 3d 56 64 88 3c 34 8c 12 3b
       0.049433403 0.042586464 0.016649406 0.00223614
0000f0 ac 5b 84 bd 1e c6 ac 3c df 15 96 bb c5 4a be bd
       -0.064627975 0.021090563 -0.004580244 -0.09291605
000100 ad 56 b8 3d aa 32 04 3e 3c 7d 09 3e cf c2 d3 3c
       0.09000907 0.12909952 0.1342668 0.025849728
000110 b2 d2 06 3e cc a1 e7 3d b5 51 33 3e 9d 60 9a 3c
       0.13166311 0.11310157 0.17511638 0.018844897
000120 75 bb bd 3d 2b 3b a5 3d ef 5a 18 3a 2a a5 8f 3d
       0.0926427 0.08067926 0.000581189 0.070139244
000130 3d c6 3d 3d bc 1f 1f bc a8 0a 53 3d 2c fb c2 3d
       0.046331633 -0.009712156 0.051523834 0.095205635
000140 63 79 26 3d 62 c8 bc bc e0 d3 2a 3d c6 01 97 3d
       0.040643107 -0.023044769 0.041705966 0.07373385
000150 50 f2 c6 3d 4b 60 5e bc 32 af 5f 3d 3f 8d 2e 3d
       0.09714186 -0.013572763 0.05461044 0.04261517
000160 56 10 d1 3c f0 1b a8 bc 54 11 52 bd fd 0a ab 3c
       0.025520485 -0.020521134 -0.051286057 0.020879263
000170 2f 92 be 3c 33 46 75 3c da 2c 77 3d 55 1b f1 3c
       0.023263065 0.01497035 0.06034551 0.029431978
000180 18 61 8b 3d b1 0b 77 3d 82 9a 26 3d 5b 2b a9 3d
       0.068056285 0.060313884 0.040674694 0.082602225
000190 4d e8 42 bc 85 04 9c 3d 93 ff fd 3c 29 ab c5 3d
       -0.011896205 0.076180495 0.031005656 0.09651787
0001a0 52 6d b8 3d cb 71 83 3d d0 c6 a5 3d 59 b6 0c 3a
       0.09005226 0.06418189 0.08094561 0.0005367748
0001b0 61 55 d6 3d 6c 08 56 3c ae 9a 8c bc c6 80 f0 3c
       0.104655035 0.013063531 -0.0171636 0.029358279
0001c0 d7 a6 76 3d 25 62 06 3e 2f 88 59 3d a6 cd a1 bd
       0.060217705 0.13123377 0.05310839 -0.079005525
0001d0 68 bc 11 3d 07 d1 3d 3c 0c e6 db bd b7 8a 6d 3d
       0.03558007 0.0115854805 -0.10737237 0.057993617
0001e0 47 6c 5e 3d ef e4 7a 3b 5c f8 ba 3d 56 55 85 3d
       0.05430248 0.0038283428 0.09129402 0.06510417
0001f0 65 ce e4 3c a7 50 81 3d 31 cd 16 3d 40 59 62 3e
       0.027930448 0.06314211 0.03681678 0.22104359
000200 c8 96 80 bc 9c bc 07 3d 3b 4c 9f bb 77 bf a0 3c
       -0.015696898 0.033138856 -0.0048613823 0.019622548
000210 39 12 88 bd 49 15 86 3d f9 a3 4c 3b e7 06 48 bd
       -0.06644101 0.065470286 0.0031225665 -0.048834708
000220 ef b5 f4 3c 3c 1f e8 bb cb ac 77 3d ab 94 ac 3c
       0.029871909 -0.0070838016 0.060467523 0.021066984
000230 96 75 43 3c 21 dd 02 3e 64 45 5c 3d 4b 79 b3 3c
       0.01192989 0.12779666 0.053777114 0.021908423
000240 e4 47 11 bd 26 20 19 bd 8d ef ea 3b a1 ac fd 3c
       -0.03546895 -0.037384175 0.00716967 0.030966105
000250 e1 f6 4a 3d 20 bf 5d bd 94 07 e1 bc d0 7a 56 bd
       0.04955185 -0.05413735 -0.027469434 -0.052363217
000260 5c 1a 8e bc 3e 89 56 bd 25 5d 24 3c b6 fe a0 3c
       -0.017346554 -0.052376978 0.010031973 0.019652706
000270 6b 23 e1 bc 79 9f 0e bd ed 9d 7f 3d 5d 74 e1 bc
       -0.027482709 -0.034820054 0.06240647 -0.027521307
000280 d6 38 8a bc e5 ca ac bb 3b b4 54 3d 69 60 5c 3b
       -0.016872805 -0.0052732104 0.051929694 0.00336268
000290 81 1c 38 3c f1 20 be 3c c5 58 86 3c 8f 65 da bb
       0.011237265 0.023209067 0.01639975 -0.0066649388
0002a0 9d 6e 09 be 53 4f 03 bd 67 f1 2a 3c 1b 55 73 bd
       -0.13421102 -0.03205807 0.010433531 -0.059407335
0002b0 2b fb da bc 5c e8 ce bc d8 1d 57 3c 8e 86 7d bc
       -0.026731094 -0.025257282 0.013129674 -0.015473975
0002c0 aa 6d 25 bd 4d df a5 ba f3 64 72 3c 60 ab 96 3d
       -0.040387787 -0.001265505 0.014794576 0.07356906
0002d0 49 16 6c 3d f6 80 d8 bc 97 43 79 bb dc ec 36 3d
       0.05763844 -0.02642868 -0.0038034671 0.04465948
0002e0 03 f5 44 3c 4e e5 eb bb b5 67 ba bc cf f3 bc bb
       0.012021306 -0.007198966 -0.02275453 -0.005766369
0002f0 c1 30 12 3b 60 a6 7a 3c 39 2a bd 3d 6a ad 9e b3
       0.0022306892 0.015298456 0.09236569 -7.388992e-08
000300 e6 c1 c3 3d d0 ad 92 3d 9d 66 76 3d 94 12 ea 3c
       0.095584676 0.07162058 0.060156453 0.028573312
000310 9f 2c 41 3e 5f d5 56 3e 4e bf 75 3d fe ca 12 3e
       0.18864678 0.20979832 0.059996895 0.14335248
000320 a3 61 c7 3d 8f 8d 11 3d c6 db 54 3d 63 a8 50 3d
       0.097354196 0.03553539 0.051967405 0.050941836
000330 50 1e 5a 3d 53 3e c0 3d bc c3 e6 3d 21 07 0e 3d
       0.053251565 0.093868874 0.11267802 0.034674767
000340 7c 7d 20 3e 6e 15 b7 3d b8 e5 c1 3c f5 a7 a1 3d
       0.15672868 0.08939634 0.023669109 0.078933634
000350 46 27 83 3e 62 de 11 3e 73 9e d0 3c b7 d0 98 3c
       0.256159 0.14244989 0.02546618 0.01865421
000360 6c 8e af 3d ca c1 cf 3d f6 70 df 3d d0 f1 34 3e
       0.08572087 0.10144384 0.109102175 0.17670369
000370 12 91 0e 3e 19 b4 c9 3d 51 4e 22 3e ff 58 08 3d
       0.13922527 0.09848804 0.15850188 0.033288
000380 cd 58 8f 3d fa e4 aa 3d 0b ee 94 3d 1d 00 e7 3d
       0.06999359 0.08344455 0.072719656 0.112793185
000390 d1 e7 65 3d 80 b3 3a 3e 6e d0 2b 3d bf 19 b9 3d
       0.05612928 0.18232536 0.04194682 0.09038114
0003a0 0b 0b 88 3d 1a e5 d2 3c 71 a5 92 3d 3b e9 9f 3d
       0.06642731 0.02574401 0.07160462 0.07808157
0003b0 b1 b5 e0 3d 0e 48 d8 3d 1a c5 cb 3c 7c 61 39 3d
       0.10972155 0.10560618 0.024874259 0.045258984
0003c0 ef 70 1e 3e 81 ad 5a 3d 23 27 1d 3d 6c 3f ca bc
       0.15472768 0.053388122 0.0383674 -0.024688445
0003d0 6a b6 82 3d d4 cf 57 3d 08 0a 95 bd 64 72 2a 3d
       0.06382449 0.052688435 -0.07277304 0.041612998
0003e0 4a 1a ac 3d b6 64 8a 3d 1f 80 2e 3d c8 c7 42 3d
       0.08403452 0.0675749 0.042602655 0.047553807
0003f0 00 88 4a 3d a1 d4 81 3d 11 c0 a1 3d f5 01 01 3e
       0.049446106 0.06339384 0.07897962 0.12598403

critic.seq_model.model.bias_hh_l0 f4 [256]
000000 28 6d 20 3c a1 5c 8d 3d da 21 26 bd 7a 64 da bb
       0.00979165 0.06902433 -0.040559627 -0.00666481
000010 3d ec 20 3e eb e1 4d 3e 57 cc fe bc 4e 41 af 3d
       0.15715118 0.20105712 -0.031103296 0.08557378
000020 a5 0a ad 3c 2d a4 00 3d 71 ae 6c 3a 72 0c ee 3b
       0.02112324 0.03140657 0.00090286793 0.007264667
000030 fb d8 04 3d 0c 85 ca 3c e9 a5 0e 3e fd bb e5 3d
       0.03243349 0.024721645 0.13930477 0.112174965
000040 a2 9b b4 3d 9d 7a bb 3d f0 57 d1 3c c7 a9 b2 3d
       0.08818747 0.09154246 0.025554627 0.08723789
000050 05 2f 57 3e 23 99 95 3d c3 77 1b 3d 9f d9 2a bd
       0.2101403 0.07304599 0.03795601 -0.041711446
000060 52 1f 81 3d 02 4c b9 3d 84 b1 79 3d 0c d3 4a 3e
       0.06304802 0.090477005 0.060960308 0.1980707
000070 68 fe f1 3d 3d c5 90 3d 8e d0 eb 3d a1 12 0d 3d
       0.11816102 0.0706887 0.11514388 0.034441594
000080 ed a0 e9 3b e2 2d be 3d c6 fb 07 bd c3 d7 9c 3c
       0.0071297796 0.09286095 -0.033199094 0.019145852
000090 a0 94 36 bc 96 1e 48 3d 01 4b e7 3c 6b 2b 08 3c
       -0.011143833 0.048857294 0.028234007 0.008311133
0000a0 d4 fd 27 3e 98 5a 15 bd 16 1f 40 3b 6b 30 7c 3d
       0.16405421 -0.03646335 0.0029315404 0.061569612
0000b0 4d 80 38 3d 75 34 a3 3d ac 73 3b 3d 64 51 75 3b
       0.045044232 0.0796899 0.04576461 0.0037432546
0000c0 99 31 b6 3d 18 c8 fc bc f7 ac 2f 3d af b2 47 bd
       0.08896179 -0.03085713 0.04288956 -0.04875439
0000d0 b4 6b 91 3d f5 d9 26 3d 94 2c a0 bd 4f 23 59 bc
       0.07100621 0.040735204 -0.078210026 -0.013253047
0000e0 ae 7a 4a 3d 25 6f 2e 3d 56 64 88 3c 34 8c 12 3b
       0.049433403 0.042586464 0.016649406 0.00223614
0000f0 ac 5b 84 bd 1e c6 ac 3c df 15 96 bb c5 4a be bd
       -0.064627975 0.021090563 -0.004580244 -0.09291605
000100 ad 56 b8 3d aa 32 04 3e 3c 7d 09 3e cf c2 d3 3c
       0.09000907 0.12909952 0.1342668 0.025849728
000110 b2 d2 06 3e cc a1 e7 3d b5 51 33 3e 9d 60 9a 3c
       0.13166311 0.11310157 0.17511638 0.018844897
000120 75 bb bd 3d 2b 3b a5 3d ef 5a 18 3a 2a a5 8f 3d
       0.0926427 0.08067926 0.000581189 0.070139244
000130 3d c6 3d 3d bc 1f 1f bc a8 0a 53 3d 2c fb c2 3d
       0.046331633 -0.009712156 0.051523834 0.095205635
000140 63 79 26 3d 62 c8 bc bc e0 d3 2a 3d c6 01 97 3d
       0.040643107 -0.023044769 0.041705966 0.07373385
000150 50 f2 c6 3d 4b 60 5e bc 32 af 5f 3d 3f 8d 2e 3d
       0.09714186 -0.013572763 0.05461044 0.04261517
000160 56 10 d1 3c f0 1b a8 bc 54 11 52 bd fd 0a ab 3c
       0.025520485 -0.020521134 -0.051286057 0.020879263
000170 2f 92 be 3c 33 46 75 3c da 2c 77 3d 55 1b f1 3c
       0.023263065 0.01497035 0.06034551 0.029431978
000180 18 61 8b 3d b1 0b 77 3d 82 9a 26 3d 5b 2b a9 3d
       0.068056285 0.060313884 0.040674694 0.082602225
000190 4d e8 42 bc 85 04 9c 3d 93 ff fd 3c 29 ab c5 3d
       -0.011896205 0.076180495 0.031005656 0.09651787
0001a0 52 6d b8 3d cb 71 83 3d d0 c6 a5 3d 59 b6 0c 3a
       0.09005226 0.06418189 0.08094561 0.0005367748
0001b0 61 55 d6 3d 6c 08 56 3c ae 9a 8c bc c6 80 f0 3c
       0.104655035 0.013063531 -0.0171636 0.029358279
0001c0 d7 a6 76 3d 25 62 06 3e 2f 88 59 3d a6 cd a1 bd
       0.060217705 0.13123377 0.05310839 -0.079005525
0001d0 68 bc 11 3d 07 d1 3d 3c 0c e6 db bd b7 8a 6d 3d
       0.03558007 0.0115854805 -0.10737237 0.057993617
0001e0 47 6c 5e 3d ef e4 7a 3b 5c f8 ba 3d 56 55 85 3d
       0.05430248 0.0038283428 0.09129402 0.06510417
0001f0 65 ce e4 3c a7 50 81 3d 31 cd 16 3d 40 59 62 3e
       0.027930448 0.06314211 0.03681678 0.22104359
000200 c8 96 80 bc 9c bc 07 3d 3b 4c 9f bb 77 bf a0 3c
       -0.015696898 0.033138856 -0.0048613823 0.019622548
000210 39 12 88 bd 49 15 86 3d f9 a3 4c 3b e7 06 48 bd
       -0.06644101 0.065470286 0.0031225665 -0.048834708
000220 ef b5 f4 3c 3c 1f e8 bb cb ac 77 3d ab 94 ac 3c
       0.029871909 -0.0070838016 0.060467523 0.021066984
000230 96 75 43 3c 21 dd 02 3e 64 45 5c 3d 4b 79 b3 3c
       0.01192989 0.12779666 0.053777114 0.021908423
000240 e4 47 11 bd 26 20 19 bd 8d ef ea 3b a1 ac fd 3c
       -0.03546895 -0.037384175 0.00716967 0.030966105
000250 e1 f6 4a 3d 20 bf 5d bd 94 07 e1 bc d0 7a 56 bd
       0.04955185 -0.05413735 -0.027469434 -0.052363217
000260 5c 1a 8e bc 3e 89 56 bd 25 5d 24 3c b6 fe a0 3c
       -0.017346554 -0.052376978 0.010031973 0.019652706
000270 6b 23 e1 bc 79 9f 0e bd ed 9d 7f 3d 5d 74 e1 bc
       -0.027482709 -0.034820054 0.06240647 -0.027521307
000280 d6 38 8a bc e5 ca ac bb 3b b4 54 3d 69 60 5c 3b
       -0.016872805 -0.0052732104 0.051929694 0.00336268
000290 81 1c 38 3c f1 20 be 3c c5 58 86 3c 8f 65 da bb
       0.011237265 0.023209067 0.01639975 -0.0066649388
0002a0 9d 6e 09 be 53 4f 03 bd 67 f1 2a 3c 1b 55 73 bd
       -0.13421102 -0.03205807 0.010433531 -0.059407335
0002b0 2b fb da bc 5c e8 ce bc d8 1d 57 3c 8e 86 7d bc
       -0.026731094 -0.025257282 0.013129674 -0.015473975
0002c0 aa 6d 25 bd 4d df a5 ba f3 64 72 3c 60 ab 96 3d
       -0.040387787 -0.001265505 0.014794576 0.07356906
0002d0 49 16 6c 3d f6 80 d8 bc 97 43 79 bb dc ec 36 3d
       0.05763844 -0.02642868 -0.0038034671 0.04465948
0002e0 03 f5 44 3c 4e e5 eb bb b5 67 ba bc cf f3 bc bb
       0.012021306 -0.007198966 -0.02275453 -0.005766369
0002f0 c1 30 12 3b 60 a6 7a 3c 39 2a bd 3d 6a ad 9e b3
       0.0022306892 0.015298456 0.09236569 -7.388992e-08
000300 e6 c1 c3 3d d0 ad 92 3d 9d 66 76 3d 94 12 ea 3c
       0.095584676 0.07162058 0.060156453 0.028573312
000310 9f 2c 41 3e 5f d5 56 3e 4e bf 75 3d fe ca 12 3e
       0.18864678 0.20979832 0.059996895 0.14335248
000320 a3 61 c7 3d 8f 8d 11 3d c6 db 54 3d 63 a8 50 3d
       0.097354196 0.03553539 0.051967405 0.050941836
000330 50 1e 5a 3d 53 3e c0 3d bc c3 e6 3d 21 07 0e 3d
       0.053251565 0.093868874 0.11267802 0.034674767
000340 7c 7d 20 3e 6e 15 b7 3d b8 e5 c1 3c f5 a7 a1 3d
       0.15672868 0.08939634 0.023669109 0.078933634
000350 46 27 83 3e 62 de 11 3e 73 9e d0 3c b7 d0 98 3c
       0.256159 0.14244989 0.02546618 0.01865421
000360 6c 8e af 3d ca c1 cf 3d f6 70 df 3d d0 f1 34 3e
       0.08572087 0.10144384 0.109102175 0.17670369
000370 12 91 0e 3e 19 b4 c9 3d 51 4e 22 3e ff 58 08 3d
       0.13922527 0.09848804 0.15850188 0.033288
000380 cd 58 8f 3d fa e4 aa 3d 0b ee 94 3d 1d 00 e7 3d
       0.06999359 0.08344455 0.072719656 0.112793185
000390 d1 e7 65 3d 80 b3 3a 3e 6e d0 2b 3d bf 19 b9 3d
       0.05612928 0.18232536 0.04194682 0.09038114
0003a0 0b 0b 88 3d 1a e5 d2 3c 71 a5 92 3d 3b e9 9f 3d
       0.06642731 0.02574401 0.07160462 0.07808157
0003b0 b1 b5 e0 3d 0e 48 d8 3d 1a c5 cb 3c 7c 61 39 3d
       0.10972155 0.10560618 0.024874259 0.045258984
0003c0 ef 70 1e 3e 81 ad 5a 3d 23 27 1d 3d 6c 3f ca bc
       0.15472768 0.053388122 0.0383674 -0.024688445
0003d0 6a b6 82 3d d4 cf 57 3d 08 0a 95 bd 64 72 2a 3d
       0.06382449 0.052688435 -0.07277304 0.041612998
0003e0 4a 1a ac 3d b6 64 8a 3d 1f 80 2e 3d c8 c7 42 3d
       0.08403452 0.0675749 0.042602655 0.047553807
0003f0 00 88 4a 3d a1 d4 81 3d 11 c0 a1 3d f5 01 01 3e
       0.049446106 0.06339384 0.07897962 0.12598403
