TFPORL-main/pomdp-discrete/logs/network-defender/100/mlp/2025-03-04-11:34:51/save/agent_00200_perf-10030.000.pt (torch, 742050 bytes, 20 tensors)

critic.observ_embedder.fc.weight f4 [64, 15]
00000000: b33f 443e 4c61 1ebe 7a12 64bd 54fe 253e
00000010: 90fa 9ebe a07c 8d3e 1de8 c23c 6c78 173e
00000020: d3f6 3a3d 2343 c33c 29d7 073e 436f d23c
00000030: 7d24 193e 8781 a8bd 3089 a63d b42b b83d
00000040: 9523 383e 633e cbbd 6714 363e 9d70 703e
00000050: 9d8a 9cbe 6e20 76be eafc bebd 86b6 8abe
00000060: fd1a 46bf cc28 043e cc29 033e 8b49 383e
00000070: 599a aabe 39a5 39be d16a 813d d284 4d3e
00000080: 4e90 4d3e 91f0 74be 19d1 2ebe 8bdd a6be
00000090: ea30 aa3e c33b 913e 10a1 d13d d846 b8be
000000a0: 5dfa d43e 3753 2abd 4509 603c 95a0 71bd
000000b0: 55f5 f4bd 9f0d 453e aa3d 75be 308a d0bc
000000c0: 299e ea3c 557b dabd 8818 2fbf b3c4 30be
000000d0: e875 a13e 682d 7bbe 5740 db3d f2f1 323e
000000e0: 8aa7 bebc 4373 3fbd c58a ae3e e506 b83c
000000f0: 7e76 1cbe 570d 063e eba9 213e 0034 823e
00000100: ea47 15be 3ede 093d 8a4e 4c3d bb61 b03c
00000110: 5367 06be 4c2a ffbd f2ec 343e f7f0 8239
00000120: 9bfe 273e 4282 993c b3a7 e63d dbda 133d
00000130: b6fe d93d 90e7 463d 2d48 8cbe b6de 6b3e
00000140: 2639 f1ba fd28 20be d22a 973d a086 84bd
00000150: 56b9 053e 152c 2ebe 8e16 6fbe ffaa 373e
00000160: 5ce1 d7ba 73bc 493e d765 3f3e e42f 48be
00000170: eebd 053e 59ea 473d 1b89 f6bd 8906 a2bd
00000180: a049 133e 2a48 883d 4761 d5bd b57d 85bd
00000190: 2b03 823e 4899 663d 2c64 533e eb7c 233e
000001a0: fe8e 45be 5e0b 2fbe c771 ac3e 8bf1 233d
000001b0: 8196 c33d e5e1 7abc a56c 743d 8f4a 6c3e
000001c0: 392d 813e f7d2 cabe 7871 b93d 8bf4 6f3e
000001d0: 91b0 e73d aca1 5c3e 0c7d 57be 78b7 5cbe
000001e0: 2c25 28be 9e06 473c 5e2e 8a3e 8648 1cbe
000001f0: 1bae 413e 770b c1bd 3734 49be 9094 5ebd
00000200: ad28 b33d a06a 843e b051 75be 0177 443d
00000210: 4b1b 743e 3455 663e ddc6 1a3e b4d1 293e
00000220: f43b 5e3e 5bc4 babc 09b0 02be cd94 87be
00000230: 8117 3bbd 1813 d73d 61d4 32bd 8f69 073e
00000240: 5df7 d13d a5c7 253b 5f6b 9c3e 5087 d43d
00000250: c3db 5f3e feb7 553e 0a25 0dbd b01c 803e
00000260: 352a dbbd 0127 0f3b 7bd1 bdbd c8f7 0dbe
00000270: 8556 a6bd 61b3 623c 49b3 683e bd01 9c3b
00000280: 6b85 75bd 0554 283e e82e fe3d f90c 5f3e
00000290: 6fbc cebd e61d 153e 03f2 89bd a449 0cbe
000002a0: dd1b 82bd 0161 9cbb fc03 813d 7dcb f93d
000002b0: 3a7f 9fbc ae9d 093e f507 883e 8d13 ae3e
000002c0: f31b 4a3e 9852 0e3d 685c 8cbe 75f1 763e
000002d0: b480 a8bb 7c7b 4bbd 056f 2ebe 1d7d 9bbd
000002e0: 7da1 86be 478f 8b3e e6d1 7fbe 4cc7 57be
000002f0: 0de2 9f3d f1b4 263a 81e3 383e 90ef 8cbc
00000300: e39c bfbf 610c f53d 67e8 633e 7b9e c3be
00000310: 81c8 093e e03d 543e c6c0 703e a0e4 15bc
00000320: d8ac 68bd 76a3 b9be 8927 1d3e 4758 d5bd
00000330: 261a 5dbd e171 46be 80b5 50bd 8ee4 f5bc
00000340: 996f b13b a7a5 1a3e 088c 5d3d 1f4a 023e
00000350: 733f b1be 0043 7f3e d8c4 9a3e d828 8d3e
00000360: a6ff 283e 73b0 81be 7985 adbc 011c 8b3e
00000370: 5e80 64be 60e9 9f3e 994c 3ebe 902d fabd
00000380: b87b 0b3e e9a8 8c3c d48a 93bb b885 373e
00000390: bd56 b03e 1ee1 553e 9ed1 f43d 1c57 47bf
000003a0: 976f f13d f8ff d6be 486b de3c 07a8 6c3e
000003b0: 019e dabe f8c1 153e 715e 6a3d 4f81 f4bd
000003c0: b05e 3dbe 4745 51be f323 0f3e fa26 0cbf
000003d0: 0874 c9be c377 c43d 13f4 85be 61e4 13bf
000003e0: 56d3 73be 2657 c13d 2f59 983e dc34 723d
000003f0: 5050 56be fe9a 9cbb 5290 ac3c f510 15be
0.19164924 -0.15466803 -0.055681683 0.162103 -0.3105054 0.27634144 0.02379232 0.14792031
0.045645546 0.023835724 0.13265671 0.02568782 0.14955325 -0.082278304 0.08131635 0.08992711
0.17982323 -0.09924009 0.1778122 0.23480459 -0.30574504 -0.24035808 -0.09325583 -0.2709238
-0.7738493 0.12906188 0.12808913 0.17996804 -0.33320883 -0.18129434 0.06319202 0.20070198
0.20074579 -0.23919894 -0.17071952 -0.325909 0.33240443 0.28365907 0.10235798 -0.3599155
0.41597262 -0.041583266 0.013674085 -0.058991034 -0.11960856 0.19243477 -0.23949304 -0.025456518
0.02863987 -0.10668055 -0.68396807 -0.17262535 0.31535268 -0.2452904 0.10705631 0.17475107
-0.023273248 -0.04674078 0.34090248 0.022464225 -0.15279576 0.13091026 0.15787475 0.25430298
-0.14578214 0.033659212 0.04987959 0.021530977 -0.13125353 -0.12459239 0.17668512 0.00024975065
0.16405718 0.01873887 0.11262455 0.03609739 0.106442854 0.04856068 -0.27398816 0.23034176
-0.0018403872 -0.15640636 0.07381214 -0.0647099 0.13058981 -0.17009003 -0.23348448 0.17936324
-0.001647036 0.19700794 0.18691193 -0.19549519 0.13060734 0.048807476 -0.120378695 -0.07911403
0.14383554 0.06654389 -0.10418945 -0.06518117 0.25393042 0.056298524 0.20643681 0.15965621
-0.19292828 -0.1709418 0.33680555 0.040025275 0.09550191 -0.0153126465 0.059673924 0.23075317
0.25229815 -0.39614078 0.090548456 0.2343313 0.11312974 0.21546048 -0.21043795 -0.21554363
-0.1642043 0.012147574 0.269885 -0.1526204 0.18914072 -0.09426015 -0.19648825 -0.0543409
0.08747993 0.25862598 -0.23956943 0.047965053 0.23838536 0.2249344 0.15114923 0.16583902
0.21702558 -0.022798708 -0.12762465 -0.26480713 -0.045676712 0.10501689 -0.04365957 0.13223861
0.10252259 0.0025296 0.30550668 0.10377371 0.21861176 0.20870969 -0.03445915 0.25021887
-0.1070141 0.0021843316 -0.09268471 -0.13864052 -0.08121971 0.013836713 0.22724642 0.0047609494
-0.05994169 0.16438301 0.124112904 0.21782292 -0.100945346 0.14562187 -0.06735613 -0.13699967
-0.06352971 -0.004772306 0.06299588 0.121970154 -0.019469846 0.13439056 0.2656857 0.3399929
0.19737224 0.034746736 -0.2741425 0.24115546 -0.0051422957 -0.04967831 -0.17034538 -0.07592223
-0.2629508 0.2725775 -0.24982414 -0.2107212 0.07806788 0.000635936 0.18055536 -0.017204076
-1.4969753 0.11965252 0.22256623 -0.38206849 0.13455392 0.20726728 0.23511037 -0.009148747
-0.05680546 -0.36257523 0.15347113 -0.10417228 -0.053980015 -0.19379379 -0.050954342 -0.03001621
0.005414915 0.15102254 0.054088622 0.12723587 -0.3461872 0.24927902 0.30228305 0.27570224
0.16503772 -0.25329933 -0.021181809 0.27169803 -0.22314593 0.31232738 -0.18583907 -0.122157216
0.13621414 0.017170386 -0.0045026336 0.17922103 0.34441176 0.20886657 0.11954044 -0.77867293
0.11788862 -0.41992164 0.027150765 0.23110972 -0.42698672 0.14624774 0.057218973 -0.11938726
-0.18493152 -0.20436583 0.13978557 -0.54746974 -0.39346337 0.09593155 -0.26162776 -0.57770354
-0.23811087 0.0944045 0.29755542 0.059132442 -0.20929074 -0.0047792187 0.021064911 -0.1455725

critic.observ_embedder.fc.bias f4 [64]
00000000: f4d7 723c 4dbe f8bd b8cd 05be 9de9 12bd
00000010: f30c a83e 4655 923e 7ddb 193e 6071 30bd
00000020: 10c8 8b3e 7f66 ad3b e85d 9b3e af9b 4c3d
00000030: 4ba5 d3bd b1bf e3ba 0bf8 de3c 21c5 13be
00000040: c8fc 85bb 7488 b6bd 4821 533e 4309 4c3e
00000050: 102e 8cbb 009f a93e 6e97 e43d f458 873e
00000060: ed20 2abe b43d 5f3c 1e34 0b3b 9c74 b63e
00000070: ee99 0bbe ad75 eb3c a920 0e3e 72cf 9b3e
00000080: 35ec 6f3e edd6 2bbe b796 1cbe 1d8f b53e
00000090: 5b00 e33c a12a 4fbe 0a1c 6cbd 1561 543e
000000a0: 75b5 bab6 052f 95bd b211 edba 5f86 5cbb
000000b0: a4cc 843d ff73 403e 57d4 2b3e 2954 41be
000000c0: fda0 79bb 6e0c 05bb 7ad5 773e 4ad0 ba3e
000000d0: 4e97 af3e acfc 5d3e 2027 113d 00e9 78bb
000000e0: 3026 943d 19e3 bfbd 3b38 3c3c 328b 3cbe
000000f0: c202 35bd 7b39 87bd e9f4 bf3c a013 81be
0.014821995 -0.12145672 -0.13066757 -0.035867322 0.3282238 0.28580683 0.15025134 -0.043076873
0.27301073 0.0052917595 0.30345082 0.04995316 -0.103342615 -0.0017375854 0.027217885 -0.14430667
-0.0040889718 -0.08912745 0.20618165 0.19925408 -0.004277952 0.3312912 0.111616954 0.26435053
-0.16614123 0.013625551 0.002124078 0.3563584 -0.13632938 0.028742636 0.13879646 0.30431706
0.2342995 -0.16781206 -0.15291868 0.3546075 0.02771013 -0.20231105 -0.057643928 0.20740159
-5.5643563e-06 -0.07284359 -0.0018086939 -0.0033649427 0.064843446 0.18794249 0.1678022 -0.18879761
-0.0038090341 -0.0020301598 0.24202529 0.36487037 0.34295124 0.21678418 0.035437703 -0.0037980676
0.07233846 -0.09369487 0.011488016 -0.18412474 -0.044192083 -0.066027604 0.023432212 -0.25210285

critic.seq_model.model.0.weight f4 [64, 64]
00000000: 751e d03d b7f7 253e 96e3 e43d 8308 4d3e
00000010: c194 a7bd 6754 3f3d 9143 373c 9f29 91bd
00000020: 61e6 0b3e 5e14 a43d 60c4 c83d 84fd 533b
00000030: 7c94 c9be 76b5 403e b054 db39 0ca6 01be
00000040: 6893 a73e 2542 67bd 4a5f 15bd 0d58 133e
00000050: a066 753e 2ece 9d3e bb89 263e c12d b33d
00000060: 64cf 2c3f af2f 8f3d dcda 39bc b1bd 0f3e
00000070: 99c3 623e d614 173d 70f8 df3d 3b09 703d
00000080: 819b e23d 5329 09bf a6f0 2dbf d257 163e
00000090: 90b7 20bd fd9a 173f 930b 81be 992d 3d3d
000000a0: ffd2 80bd 8858 cbbc 188c 1f3e c765 ca3a
000000b0: 5ca6 1bbd 3dd1 0c3e 18bd 733e e486 973e
000000c0: bd9e 26bd 4b12 e23d f766 2ebd 2374 403d
000000d0: 693d 8a3d 189e 253e 2d8c 9c3c 26e8 493e
000000e0: 5bad 9fbe 1a65 a93e 060c 2f3e 93e4 0e3e
000000f0: e047 013e 047f 123d d726 b6bd c3f2 193e
00000100: eba1 c93c 7697 8a3e e290 2e3e 118e a83e
00000110: 540f 49bd 9fa3 22bd b20a 2c3e ac0e 09bd
00000120: 3fd8 92bd 65ec 683d 593c 873c 0405 3d3d
00000130: 6625 72be bbf5 613e c8ad c4bb debf 00be
00000140: 6f76 bb3e afdd 82bd 330e f63d a513 d93d
00000150: 2592 893e 186b 8b3e 521f 03bd 8275 c23d
00000160: 9733 193f c87f c93d 1578 453d b882 c43e
00000170: 7d30 fc3c b833 b1bd e251 e53c d892 a43d
00000180: 274e 323e 8ebe bfbe 1f09 f4be 0573 c23d
00000190: 003a eebd dce0 fe3e 5fdc 42be 9b2f 8b3d
000001a0: 57ef a4bc 8597 383d 5bcc 823e 1128 4d3e
000001b0: f88a 05bd 90ef 743e e5d8 493d 31a9 273e
000001c0: 26f2 223e 23c0 5c3e 9c0a fe3c b882 663e
000001d0: cd8d 9cbc 4251 143e 47ac 373e 758b 3d3e
000001e0: d0b8 d2be e915 943e 779f c33b 172d 8f3b
000001f0: 4006 6e3c 900c a0bd 5b47 a5bd 7a86 8c3e
00000200: 8beb c23b f7d4 c73d 10d1 c73d 0432 5e3e
00000210: 6c4a 283e ab03 093c b5ca 37bb bbb4 53bd
00000220: 7aca 47bd 870b 0a3e dc3c 203e c068 e3bc
00000230: 360f adbe 88e5 973e f936 dbba 5c38 babd
00000240: 56f1 a83e d176 81be 9913 713d e525 edbc
00000250: 7804 643e bd32 353e f265 cc3d 9a6d 82ba
00000260: 3421 3a3f a027 483e 844c e83c 843d 3a3e
00000270: 7fe8 fcba fe1a 203e 0dc6 e83d a452 e93d
00000280: d78f d43d 723d c8be b0d4 07bf d63c f43d
00000290: 17cd e2bb 8ffb 0e3f 9300 4abc eaaa f83d
000002a0: 1a2f 843d 2374 62bd 47ad 3a3e ea2e 4a3e
000002b0: 159d 2f3e c141 b43d bf1d d53d 556c 7a3e
000002c0: 0368 bb3d 1144 883e fb01 073e 86b0 453e
000002d0: 0e11 0b3e abbf 8dbd 759b 4b3c 7ab0 543e
000002e0: be63 04bf 6fca 513e bf3b 303e df6c da3d
000002f0: 169f a8bd 3a7c fd3c 7d44 bb3d 8667 aa3e
00000300: 9d95 4c3e 2bdf eb3d a53b 1e3e e1e9 3c3e
00000310: 7fc5 073d 45b1 dfbc f45f 313d 2a38 5e3d
00000320: 9386 eb3d 354b 883b 60ef 543c a818 a53c
00000330: 7d0f abbe 1f4b df3d 18a1 3b3e 36c3 0dbd
00000340: b409 073f a241 5abe 3f26 163e 762d 1f39
00000350: 495e ff3d 47db 323e 80dd ad3d 972f 1b3c
00000360: dc84 313f 310e 1fbb f9a7 ca3d 8c4c 1f3e
00000370: e688 903d bbb7 47bd 6eed 153e 7672 153e
00000380: 86ed 89bc 86c6 07bf 5ff4 e8be db05 c03d
00000390: eb83 c139 945b dd3e 276c 83bd 3802 003e
000003a0: 740f 1e3d ec24 27bb 1f25 873e 934e 063e
000003b0: 0760 023e 0eac 0a3e b5b2 983d 0d63 e03d
000003c0: 0bd9 2e3e 5759 0a3e 228d 393e d1ca 813e
000003d0: 07eb 1b3d 5962 673d 79d4 e33c c24b 453e
000003e0: ee70 b2be 288c c53e 7bc2 6b3c 76f5 153b
000003f0: 4923 8fbd 7fac a7bd bb2e c73d 12da 343e
0.10162059 0.16207777 0.11176221 0.20022778 -0.081826694 0.04671135 0.011185543 -0.07088017
0.13662101 0.08011697 0.098030806 0.0032347152 -0.39371097 0.18819222 0.00041834032 -0.12660998
0.3272965 -0.056459565 -0.036467828 0.14389057 0.2396493 0.30821365 0.16263478 0.08748961
0.6750395 0.06991517 -0.011343684 0.14037205 0.22144927 0.036885105 0.109360576 0.058602553
0.11064816 -0.5357868 -0.67945325 0.14681938 -0.03923756 0.5922087 -0.25204143 0.046186063
-0.06290244 -0.024822488 0.15580785 0.0015441709 -0.03800045 0.13751693 0.23802602 0.295951
-0.04067873 0.11038645 -0.042578664 0.046985757 0.06749994 0.16173589 0.01910981 0.19717464
-0.31186947 0.33084947 0.1709443 0.13954382 0.12625074 0.035765663 -0.08894127 0.15034012
0.024613341 0.2706868 0.17047456 0.32920888 -0.049086884 -0.039706822 0.16800955 -0.033461258
-0.07170152 0.05686607 0.016508268 0.04614736 -0.23647079 0.22066395 -0.0060021617 -0.12573192
0.36613795 -0.06389939 0.12014427 0.1059945 0.26869312 0.27230144 -0.03201229 0.09495069
0.59844345 0.098388255 0.048210222 0.3838098 0.03078484 -0.08652443 0.027993146 0.08035821
0.17412625 -0.3745007 -0.4766321 0.094945945 -0.11632156 0.4978093 -0.19029377 0.067961894
-0.020133657 0.045066375 0.25546536 0.20034815 -0.032603234 0.23919511 0.049279112 0.16373135
0.15912685 0.2155767 0.031010918 0.22510803 -0.019110585 0.14484122 0.17936812 0.1851023
-0.41156626 0.28922966 0.0059699374 0.004369389 0.014527857 -0.07814896 -0.080702506 0.27446347
0.005948489 0.09757417 0.097566724 0.21698767 0.1643464 0.008362691 -0.0028044407 -0.05168603
-0.04877708 0.1348096 0.15648216 -0.02775991 -0.33800668 0.29667306 -0.0016724757 -0.09092781
0.32996625 -0.25285962 0.05885658 -0.028948734 0.2226733 0.17695136 0.09980382 -0.0009950877
0.72706914 0.19546366 0.028356798 0.18187529 -0.0019295363 0.15635297 0.113659 0.113927156
0.10378998 -0.3910938 -0.5305891 0.11925666 -0.0069214213 0.558526 -0.0123292385 0.12141974
0.064542964 -0.055286538 0.18230163 0.19744459 0.17149766 0.08801604 0.10406064 0.24455388
0.09150698 0.2661443 0.13184349 0.1930562 0.13580725 -0.069213234 0.012427201 0.20770445
-0.51714694 0.20487379 0.17210291 0.10665297 -0.08233468 0.030943025 0.091439225 0.33282107
0.19978948 0.11517175 0.1545244 0.18448593 0.03314733 -0.027306208 0.0433044 0.05425278
0.11500277 0.004159356 0.012996525 0.020153359 -0.33410254 0.10903 0.18323171 -0.034609996
0.5274918 -0.213141 0.14663027 0.00015180357 0.12469155 0.1746646 0.084895134 0.0094717955
0.6934335 -0.0024269933 0.098953195 0.15556544 0.07057361 -0.048759203 0.14641353 0.14594445
-0.016836893 -0.530373 -0.4549894 0.09376117 0.00036910115 0.4323393 -0.06417113 0.12500846
0.038588956 -0.0025504185 0.2639551 0.13115911 0.12731944 0.13542196 0.07455961 0.109563924
0.17074983 0.13510643 0.18120244 0.2535005 0.038065936 0.056490276 0.027811276 0.1926718
-0.34851784 0.38583493 0.0143896295 0.0022881902 -0.06989152 -0.08187198 0.0972571 0.17661312

critic.seq_model.model.0.bias f4 [64]
00000000: 9f04 903d 827c ab3d 24d0 3a3c e382 dcbc
00000010: c3af db3c 9324 5c3e 386a 593e 1d57 d2bd
00000020: 59bd 103d 0c57 153e b293 3e3e 10e7 453e
00000030: 5526 26bc ee3f 303e db07 5c3d b664 073d
00000040: e5d5 523e ac90 1f3e e0af 563e 092f cc3d
00000050: 0ddd e63d 7324 0f3d 5890 12bd 267a 613e
00000060: 159e 973d 4fd4 073e 8508 983d eec9 35bc
00000070: 49b0 f6bc beb9 613e 90fb 6fbd fea9 17bd
00000080: e9b2 c9bc 2e9e 443e 04fb d23d 2c8c e13d
00000090: 4053 42bc ad8f b1bd 9854 96bd 6840 033e
000000a0: 7e72 383d d055 5e3d 05b5 cf3d d34b 4dbc
000000b0: 468a f23d 3728 4b3d 2bd8 a6bd 532b 783d
000000c0: ceb3 0b3e addd d73b f410 ac3d f09f 7fbc
000000d0: 69bf 063e f1a0 653c 2321 4c3e 2dcf 4b3e
000000e0: 0f07 43bc a66f e53d f028 d0bc b8a6 043e
000000f0: 014c 3c3e 59fb 97bc 7161 233e c5ea 583d
0.070321314 0.08373357 0.011402164 -0.02691788 0.026817208 0.21498327 0.21231925 -0.10270522
0.035336826 0.14583987 0.18611029 0.19326425 -0.010140975 0.17211887 0.05371843 0.03305503
0.20589407 0.15582532 0.20965528 0.09969909 0.11272631 0.03494687 -0.03578219 0.22019252
0.07403199 0.13264583 0.074235 -0.011095507 -0.030113356 0.22043511 -0.058589518 -0.03702735
-0.024621444 0.19200966 0.10301784 0.11013064 -0.011860669 -0.08669982 -0.07340354 0.12817538
0.045031063 0.054281056 0.101419486 -0.012530285 0.1184278 0.0495989 -0.081466995 0.060588192
0.13642809 0.006587705 0.08401671 -0.015602097 0.13158955 0.014015422 0.19934516 0.1990325
-0.011903538 0.11202936 -0.025410146 0.12954223 0.18388368 -0.01855247 0.1595514 0.05295827

critic.qf.fc0.weight f4 [256, 64]
00000000: 3c2b 7a3d 24bf 643d 21fc c93d f9be 0d3e
00000010: c47f 1c3e 03bd 773d 4181 b63e b4bc dbbe
00000020: 0648 b33d 1a93 133d 72c8 233e 2956 bd3d
00000030: 3ce5 aa3d ba8f 733e f398 323d 4df4 963d
00000040: 62b3 0f3e 4220 ac3d 77b1 173e f72b 1e3e
00000050: 69c3 333e 9593 343e 974d 1cbd cd98 233e
00000060: f34f 193e 4ad7 e13d 2583 243d 26a6 b13d
00000070: 4af5 113f ca5d 813d 5a62 90bc 6bad 113f
00000080: c164 4fbf c5e3 0e3e d03f e33d 6f73 993d
00000090: 86ec 7c3e 6bae e5bc 1d64 25bf 2dd8 083e
000000a0: 0990 683d 9013 ec3d c9fa a83d 3b97 313c
000000b0: 42b5 f93d 711e b03d ed0b 8abd 6ef4 193e
000000c0: 4dc4 533d 34d3 1e3e 92ea 073e a6c4 3b3f
000000d0: b325 993d 432c b93d d4fe fb3d 9fab b83d
000000e0: 9002 893d 369d 993d ddc5 393d 3442 983d
000000f0: 654d 0c3e 261d 2ebd a3ed 753d d80a 1e3e
00000100: 0821 053e 2b1d d73d 7c67 143e 5f1e 003e
00000110: 0792 a03d c259 723d c202 af3e ba93 febe
00000120: ed8b f73d 605f 843d 1c18 b23d 7bcf e53d
00000130: 108f fc3d 1f78 623e 5add a93d 0535 4f3d
00000140: e38c fc3d 3e0d 4c3d beb1 b33d 6fcb 2a3e
00000150: 452d e73d 66bf 0c3e d1e1 f93c f39f 163e
00000160: 4b7b 1d3e 9fe7 6e3d ca78 d43c 5897 163e
00000170: 31f7 113f b33e f53d f23c 8fbd 83df 2d3f
00000180: 8580 46bf aada 363d cf3a e03d cf08 a03d
00000190: 3ed8 9a3e 0483 7fba 1cf1 26bf 29bb db3d
000001a0: 9eeb ff3d 5822 6d3d 9f2c c43d b025 67bd
000001b0: 13c9 293e 8838 143e efb3 253c a4c8 c23d
000001c0: cc23 cd3d 4d40 2a3e e479 033e a628 473f
000001d0: 7338 c33d 950e 9c3d c357 7c3d 68c1 fc3d
000001e0: d4b3 0d3d 04fb a33d 252b b63d 233d 0b3e
000001f0: b678 1c3e 2bdc c03a 9d0b a03d 5987 143d
00000200: 133f 863d 480d 273e a0bf 0c3e fe5b 933d
00000210: b6aa 9f3d 52bc ff3d 1db4 af3e 5cfa d8be
00000220: e9fb 323e 25cf 103e bcff 0d3e 4622 ff3d
00000230: cce3 623d 15c3 593e f66e 0c3e c672 2a3d
00000240: 62a9 913d 00bc b43d dc9e 153e a36b 103e
00000250: 9766 b83d c362 c23d ff62 31bb 9b0d 953d
00000260: b755 f63d 2e0c 9b3d ea32 ad3d 0114 e53d
00000270: af46 1b3f e26a 0a3e 6012 59bc a3dc 2a3f
00000280: ffd0 39bf a64c a13d 14c5 873d d0e9 853d
00000290: c650 743e 0f51 5f3d 75b4 26bf 425e da3d
000002a0: e37b 223d 593d 073e 6d8a f13d 520c 60bd
000002b0: 8371 003e 9859 123e dc05 8abc db64 b13d
000002c0: a743 0d3d 2b52 253e 182d 083e 69ce 3c3f
000002d0: c7c5 273e e58f 523d ac66 d63d c33f d33d
000002e0: 764d 1b3e 19c3 6d3d 4962 103e 3070 1b3e
000002f0: e347 1b3e 25c4 95bc 473f 583d 53a5 0e3e
00000300: eb85 943d c449 2b3e 76db 053e 2230 0a3e
00000310: 9c78 173e 76e2 9b3d 017d ae3e e379 e0be
00000320: 7125 c53d 3c36 173e 2905 db3d f201 bc3d
00000330: d9f3 d43d ec22 983e aa16 a83d 5bda 8e3d
00000340: 3258 383d 028f 1a3e 5704 1f3e f015 063e
00000350: 174b 4a3e 165a b43d 4327 2cbd 9226 213e
00000360: 576c 2b3e e3b5 203e b25e 0b3e 8abd 153e
00000370: 97fa 0e3f c92c 033e e2aa b5bc 89fe 0f3f
00000380: ebba 35bf 2594 3c3d 9c72 103e 8746 703d
00000390: 0e94 793e 3baf e9bc e1cf 21bf 5518 a73d
000003a0: 8544 f73c e16a 273e b7f9 a23d 917e e83c
000003b0: 0013 313e 71a5 b73d 69a7 e5bc 46d1 d53d
000003c0: 9301 1f3e 7e22 1a3e b4ac 163e b5fb 2c3f
000003d0: f2dc d43d 9388 233e 81f1 fc3d 5ac8 f83c
000003e0: aded 783d 1b45 b23d f977 1f3d a8e6 e63d
000003f0: 91fb b73d f723 503d 020d 143e 9029 453d
0.061076388 0.05584635 0.09862543 0.13842382 0.15283114 0.06048299 0.35645488 -0.42917407
0.08753972 0.03602896 0.15994433 0.09244949 0.08344504 0.23785296 0.043602895 0.073708154
0.14033273 0.0840459 0.14813791 0.15446459 0.17555012 0.17634423 -0.038159933 0.15976258
0.14971904 0.11027391 0.04016413 0.086742684 0.57014906 0.06316717 -0.017625023 0.5690524
-0.81013113 0.13954075 0.11096156 0.0749272 0.24699602 -0.02803727 -0.64605886 0.13363715
0.056777988 0.11527169 0.082509585 0.010839279 0.12192775 0.08599556 -0.06740556 0.15034649
0.05170088 0.15510255 0.13273075 0.73346937 0.07477894 0.090416454 0.12304464 0.09017109
0.06689942 0.07500689 0.045354713 0.07434502 0.13701399 -0.042508267 0.06004108 0.15433824
0.13000882 0.1050361 0.14492601 0.12511586 0.078403525 0.05916763 0.34181792 -0.4972208
0.120872356 0.06463504 0.08696005 0.112212144 0.123319745 0.22116135 0.082941726 0.050587673
0.123315595 0.049817316 0.08774136 0.16679166 0.11287931 0.13744888 0.030503185 0.14709453
0.15379064 0.05832636 0.025936503 0.1470617 0.5701781 0.119748496 -0.06994046 0.67919177
-0.77539855 0.044642128 0.10948717 0.0781418 0.30243105 -0.0009747001 -0.65211654 0.10729057
0.12496112 0.05789408 0.09578823 -0.056432426 0.1658061 0.1447469 0.0101137 0.095109254
0.10016593 0.16626091 0.12839466 0.777964 0.09532251 0.07619969 0.061607134 0.12341577
0.034595326 0.08006862 0.08894948 0.1359754 0.15280423 0.0014714053 0.07814715 0.03626189
0.06554999 0.1631366 0.13744974 0.071952805 0.077962324 0.12487091 0.34317103 -0.4237851
0.17478909 0.1414152 0.13867086 0.12457709 0.055393025 0.21265824 0.13714203 0.041613363
0.07112385 0.08824921 0.14611381 0.1410356 0.090039425 0.094914936 -0.0027067063 0.07277986
0.120280676 0.075706825 0.08456977 0.11185456 0.6065473 0.13517335 -0.01324901 0.66742915
-0.7258453 0.07875948 0.066293865 0.06538737 0.23858938 0.054520663 -0.65119106 0.106625095
0.03966893 0.13206996 0.11793981 -0.05469925 0.12543301 0.1429199 -0.016848497 0.08661815
0.034488346 0.16144626 0.13298452 0.73752457 0.1638404 0.05140676 0.10468802 0.10314896
0.15166268 0.058047388 0.14099993 0.15179515 0.15164141 -0.018282006 0.05279472 0.13930254
0.07252105 0.16727358 0.13071999 0.13494924 0.14792103 0.07611553 0.34079745 -0.43842992
0.09626282 0.14766783 0.106943436 0.091800585 0.10398073 0.29714143 0.08207448 0.06975242
0.045005985 0.15093616 0.15529 0.13094306 0.19755207 0.08806245 -0.04202963 0.1573737
0.16740547 0.15694384 0.13610342 0.14623085 0.5585112 0.12810053 -0.02217621 0.56247765
-0.7098834 0.04603972 0.1410622 0.05866101 0.24372885 -0.02852594 -0.63207823 0.08158938
0.03018404 0.16349365 0.079577856 0.028380664 0.17292404 0.08967102 -0.028033929 0.10440306
0.15527944 0.1505222 0.14714319 0.67571574 0.103937045 0.15970068 0.12350751 0.030368973
0.06077354 0.08704587 0.038932774 0.11274463 0.08983529 0.05081555 0.14458087 0.04813534

critic.qf.fc0.bias f4 [256]
00000000: 9977 503e 1b3a 4d3e 8b8c 4c3e 6f9d 503e
00000010: 18e0 453e 9517 503e 8ad6 4f3e 8867 513e
00000020: c079 473e 1a49 4c3e 4abe 4e3e 8e91 4a3e
00000030: 9b7b 4d3e 7f14 473e 2180 493e 19e2 503e
00000040: d527 4e3e f9a3 463e d78a 443e 03e0 4e3e
00000050: a59e 4f3e f2a7 4e3e 6a3f 503e 24ab 503e
00000060: 0755 4e3e 8c37 4c3e c011 503e 77ce 453e
00000070: e0c7 4f3e 5b41 493e a455 4f3e 8a34 503e
00000080: 82f6 483e c0a2 503e 796f 503e f5cc 503e
00000090: 815f 493e 4fd0 503e 0c1a 493e dc96 503e
000000a0: 1d9a 4d3e 7779 463e 0448 4e3e 2d13 513e
000000b0: f7b8 453e bd5e 503e 7858 4e3e ce4f 483e
000000c0: 563e 4b3e a79e 463e 6ef4 4f3e df8e 483e
000000d0: 7d60 4b3e ce8e 503e eb26 503e 3faf 4f3e
000000e0: fd3f 4e3e 0aef 483e 8c6a 493e 3384 433e
000000f0: a2e8 493e a62e 4e3e 4463 4f3e 84d3 503e
00000100: 82be 4f3e bbf3 403e d167 4a3e ab91 4b3e
00000110: 1a47 483e 52e7 4f3e 4668 4e3e 1da3 4e3e
00000120: fe03 4c3e c4fb 4c3e 217c 493e 8a57 503e
00000130: d373 4f3e f3db 4b3e 172e 503e 8a53 503e
00000140: 0e13 4b3e 2804 4b3e 9d8d 503e 31a8 4a3e
00000150: a8ea 4d3e ed13 4a3e 6cf4 4f3e 32a8 503e
00000160: 5d20 4f3e b378 503e ca99 463e 6c92 483e
00000170: 100e 4b3e 4381 4d3e ab78 503e 3605 513e
00000180: b606 503e 9d6b 4c3e a479 4b3e 62ca 493e
00000190: 8058 493e d3a4 503e d3ec 4f3e 4cb2 4f3e
000001a0: aad8 483e 7f3e 4a3e 5280 433e c59c 503e
000001b0: 40ad 4c3e b68c 4f3e 3f2a 503e 96b8 493e
000001c0: f47e 4f3e 8d85 4d3e 1d82 503e 3f6b 4a3e
000001d0: b9c5 453e b89a 4e3e 03c4 493e 670d 4d3e
000001e0: ae3f 4d3e 7717 4e3e 9740 503e 88c4 433e
000001f0: 3156 4d3e 18b6 4d3e 31c5 493e 36ad 503e
00000200: f814 4f3e 0a10 473e 0c0f 503e 0c90 4f3e
00000210: f063 483e ecd3 4d3e bc05 503e 9282 483e
00000220: a16a 503e d98a 4f3e 3d4f 483e 5ae1 433e
00000230: 6ad8 4f3e 5789 493e d6af 483e 3dcf 4f3e
00000240: 4e5a 503e 0417 4e3e 852c 503e a90b 4f3e
00000250: 801b 503e 14a1 4c3e 2914 503e 0cb3 4b3e
00000260: ad30 4d3e 0424 4f3e cf60 4d3e 7025 4d3e
00000270: 0d61 4b3e 8a38 4b3e ec37 4a3e 1573 483e
00000280: 6039 4a3e f006 4f3e e026 503e b7a1 483e
00000290: 0835 513e 54a9 4e3e eec6 4f3e 6d18 4f3e
000002a0: 0f65 503e 6ff1 4d3e 41de 503e 2baa 4e3e
000002b0: ab3d 4d3e c129 503e ece0 4e3e 36b9 503e
000002c0: 159d 4e3e 0c89 483e 8747 503e 6c47 503e
000002d0: 673f 4f3e 059c 4d3e 7499 4c3e ea4c 503e
000002e0: 8c06 4f3e a119 503e 5098 503e c784 503e
000002f0: e292 4b3e ee79 4c3e 48b8 4f3e 72b6 4f3e
00000300: 24b9 463e 57a0 4f3e ca6e 503e 8e40 4e3e
00000310: 92a5 4b3e aa39 503e be7d 4c3e 19ae 4c3e
00000320: 9e3a 503e f0ef 4e3e 44eb 413e 0823 4d3e
00000330: 2912 4a3e 352b 503e 9081 503e 5695 4f3e
00000340: 898a 503e c6b5 4b3e 2149 4e3e b304 503e
00000350: c832 4e3e c2f6 4f3e 4ce1 4d3e 4c94 4e3e
00000360: 4a0a 503e 6a59 4b3e 0656 4c3e cc32 483e
00000370: d6a0 4b3e 0711 503e aa93 503e 75d2 4c3e
00000380: 2980 503e 9838 4c3e 0b0a 3e3e ad67 503e
00000390: 5d32 4e3e cc05 503e 5523 4a3e 7ada 4e3e
000003a0: c5de 483e e373 503e 6973 503e a03b 4f3e
000003b0: 4ce3 503e ac4b 503e 42d2 4d3e b66e 503e
000003c0: 562d 463e 6b71 503e 1e1d 4e3e f2ce 4d3e
000003d0: 1d50 4d3e e7a0 463e 5f59 473e 4cd3 4c3e
000003e0: 02e8 4f3e 0ee6 493e 8028 4e3e 3f2c 473e
000003f0: bba7 4f3e 12c7 4e3e 2c6d 4f3e 9438 503e
0.20358123 0.20041697 0.19975488 0.20372556 0.19323766 0.20321496 0.20296684 0.2044965
0.19480038 0.19949761 0.20189777 0.19782087 0.20066683 0.19441412 0.19677784 0.2039875
0.20132382 0.19398488 0.19193588 0.20202641 0.20275362 0.20181254 0.2033669 0.20377785
0.20149623 0.19943064 0.20319271 0.19317041 0.2029109 0.19653837 0.20247513 0.20332542
0.19625285 0.20374584 0.20355023 0.20390685 0.19665338 0.20391963 0.19638842 0.20370048
0.20078321 0.19382273 0.2014466 0.20417471 0.1930884 0.2034864 0.20150936 0.19561693
0.19847998 0.19396459 0.20308086 0.19585751 0.19861026 0.20366976 0.20327346 0.20281695
0.20141597 0.19622436 0.1966955 0.19093399 0.19717649 0.20134982 0.2025271 0.20393187
0.20287517 0.18842976 0.19766165 0.19879787 0.19558373 0.20303085 0.20156965 0.2017941
0.19923398 0.20017916 0.19676258 0.20345894 0.20259027 0.19908123 0.20330082 0.20344368
0.19831488 0.19825804 0.20366521 0.19790722 0.20109046 0.19734164 0.20308083 0.20376661
0.2022719 0.20358543 0.19394603 0.19587106 0.19829583 0.2006884 0.20358531 0.20412144
0.2031506 0.19962926 0.19870621 0.19706109 0.19662666 0.20375375 0.20305185 0.20282859
0.19613901 0.19750403 0.19091919 0.20372303 0.19987965 0.2026852 0.20328616 0.1969932
0.20263273 0.20070477 0.20362134 0.19767474 0.19313706 0.20176208 0.19703679 0.20024644
0.20043823 0.20126139 0.20337139 0.1911794 0.2005241 0.20088995 0.19704129 0.20378575
0.20222843 0.19439712 0.2031824 0.20269793 0.19569373 0.20100373 0.20314687 0.19581059
0.20353176 0.2026781 0.19561477 0.19128934 0.20297399 0.19681297 0.19598326 0.20293899
0.20346949 0.20125967 0.20329483 0.20219292 0.2032299 0.19983321 0.2032019 0.1989252
0.200381 0.20228583 0.20056461 0.20033813 0.1986124 0.19845787 0.19747895 0.1957515
0.1974845 0.2021749 0.2032733 0.1959294 0.20430386 0.20181781 0.2029073 0.20224161
0.20351051 0.20111631 0.20397283 0.20182101 0.20043056 0.20328428 0.20202988 0.20383152
0.2017711 0.19583529 0.20339786 0.20339745 0.2023903 0.20079048 0.19980413 0.2034184
0.20217341 0.20322277 0.20370603 0.2036315 0.1988025 0.19968387 0.20285141 0.20284441
0.19406563 0.20276009 0.20354763 0.20141813 0.19887379 0.20334497 0.19969842 0.19988288
0.2033486 0.20208716 0.18937403 0.20032895 0.1973349 0.20328982 0.20361924 0.20271811
0.20365347 0.1989356 0.20145084 0.20314293 0.20136559 0.20308974 0.20105475 0.20173758
0.20316425 0.19858328 0.1995469 0.19550627 0.19885573 0.20318995 0.2036883 0.20002158
0.20361389 0.19943464 0.18558519 0.20352049 0.201364 0.20314711 0.1974004 0.2020053
0.1961623 0.20356707 0.20356525 0.20237589 0.20399207 0.20341367 0.20099738 0.20354733
0.19353232 0.20355766 0.20128295 0.20098475 0.20050092 0.19397317 0.19467686 0.20002478
0.20303348 0.19716665 0.20132637 0.19450472 0.20278828 0.20193127 0.2025649 0.20334083

critic.qf.fc1.weight f4 [256, 256]
00000000: 04d5 e13d 222a af3d 73b0 293e 3f07 143e
00000010: 84f4 453e f71e bc3d 2067 3e3e af03 413e
00000020: 91f8 b13d 4258 233e 9929 d53d a6ed 343e
00000030: 1330 2a3e c449 183e 4532 023e d0eb 913d
00000040: 7991 c03d f2b0 fb3d 9fc0 db3d be17 063e
00000050: 891c f53d a3e8 3e3e 5809 143e 5507 453e
00000060: c7d1 a63d a029 ec3d 21ed ad3d 21dc 3f3e
00000070: a474 b53d b72f 0d3e 1513 ac3d c401 e83d
00000080: 7490 bd3d 6ed7 063e 3e1e 023e 0101 d83d
00000090: a759 203e be48 243e db61 b43d 7875 143e
000000a0: 1782 133e 83fe 243e f39b c53d beef 083e
000000b0: 20fa 0f3e fd6d 433e 09fc 2f3e 69d7 a33d
000000c0: a815 183e 0042 3e3e c8a1 e83d fd4f 163e
000000d0: 00b5 233e 23e2 853d 5a36 a83d 69ec 2b3e
000000e0: a4a2 343e 0282 313e 5b0e 333e 8f77 153e
000000f0: df25 393e 5d50 403e 6992 b33d 1bab 043e
00000100: 0529 a13d 75d0 003e 6303 ca3d 7234 af3d
00000110: 4218 2c3e 99e5 373e 8be8 f23d 314d 3e3e
00000120: 6b2f ba3d ca68 2f3e 9a0d 993d 61e1 153e
00000130: 5f1e 0c3e 4a8a 1a3e ed5f bf3d d223 2d3e
00000140: a147 9d3d facd 363e 613e 013e b553 e73d
00000150: 8a51 dd3d 060e 063e d8c7 243e bd48 ba3d
00000160: c67e 303e 9fea ea3d 45a1 c23d 26e7 c43d
00000170: caf4 013e 6b0b d23d 524d 3f3e ef00 3c3e
00000180: c9f3 423e 8956 183e a590 0f3e 7708 3f3e
00000190: aa78 cd3d 0a20 b13d 72d0 0f3e 7bfd d13d
000001a0: 3559 353e 8227 f73d 5bfe 2a3e 26a6 153e
000001b0: f7e7 3e3e 63ca 023e 6073 123e df91 053e
000001c0: 159f bf3d c7c7 ed3d efd6 3e3e a6b0 f23d
000001d0: 40bc 313e a178 f63d 4750 a83d 423f f63d
000001e0: 9d01 f73d 7026 043e e5b7 8c3d fac2 3d3e
000001f0: 6cae 143e 49fb 1a3e 1380 263e 37ea 133e
00000200: 4578 463e f9f0 0c3e 235d 0c3e 7b43 333e
00000210: d492 2d3e 9a9a 903d c62e 263e 75e6 273e
00000220: 1456 293e e1e0 dd3d 01d6 423e 2b7e aa3d
00000230: 2cb5 283e 2268 333e ba28 153e 120e 883d
00000240: e700 a23d a82d b73d 4667 b53d a2ca f73d
00000250: d52e 9c3d f745 e83d 8819 f63d 2b4f 113e
00000260: 53d6 3e3e 67e2 d23d 24bd 253e eb22 2e3e
00000270: 8846 263e 0878 ff3d 7470 d03d 16f1 b53d
00000280: f7ac 903d eec8 063e f2b7 233e 7b56 373e
00000290: af88 e33d 72a4 0f3e 2d86 0a3e 28de c13d
000002a0: b56a bb3d 37ef 943d 688c 1f3e d4b5 2e3e
000002b0: 2a9c 043e b7a5 3a3e 32d1 043e 452e e03d
000002c0: af65 293e f654 b13d f67f 163e d3c3 bc3d
000002d0: dcc8 123e afcd e13d 3ba9 ef3d 5842 a93d
000002e0: 3392 e23d 635a 353e 2961 c33d 549e 3a3e
000002f0: e4d9 213e 380d 0a3e a8c4 c73d 41d9 433e
00000300: 381f 103e 111b ea3d 161e e53d 66ef e73d
00000310: 842d 103e 6060 a83d 6f47 ff3d 7580 333e
00000320: 6a1c 983d c386 893d 31f1 e23d 5012 043e
00000330: 4d2d 103e 35de 3c3e 6bb0 383e c260 c03d
00000340: d1bc d83d 970f 953d 867d ed3d 613f 2d3e
00000350: 4ccd e83d ee93 2f3e 0b20 433e 577e f83d
00000360: 9d8b 373e 1834 033e c69d 973d 5c63 0d3e
00000370: 4cfb 2d3e 1413 bb3d 2d6a b63d a41f 2f3e
00000380: fbb9 933d c64d e03d 9f49 ad3d 1ddc 0d3e
00000390: 81d0 0e3e e14e 2c3e 8bbe 1a3e c4c2 043e
000003a0: 952d 2a3e d698 1c3e c8d8 c63d 6a0c 283e
000003b0: 484a fa3d a6e3 b93d 4794 9e3d ce60 0c3e
000003c0: 87bb 163e ce92 0c3e 37dc da3d 8999 ad3d
000003d0: 9353 343e 8161 193e 1bb1 e33d c1d8 043e
000003e0: dac4 963d 9406 cb3d f79c eb3d aeea 453e
000003f0: 930d 943d b5f1 023e 6afe 2c3e 1334 1d3e
0.11026958 0.08552958 0.16571216 0.14455889 0.19331557 0.091855936 0.18594027 0.18849061
0.086899884 0.15951636 0.10408325 0.1766878 0.16619901 0.1487189 0.12714489 0.07125056
0.09402747 0.12289609 0.10730099 0.13094994 0.11968333 0.18643431 0.1445669 0.19241078
0.081454806 0.11531377 0.084924944 0.18736316 0.08860138 0.13787733 0.08402077 0.11328462
0.09256068 0.13168117 0.12706849 0.105470665 0.156592 0.16043374 0.08807727 0.14497936
0.14405094 0.16112714 0.096488856 0.13372704 0.14060259 0.19084926 0.17185988 0.080000706
0.14852011 0.18579865 0.11358982 0.1467895 0.15987015 0.06537273 0.08213492 0.16789402
0.17640167 0.1733475 0.17485945 0.14596389 0.18080853 0.18780656 0.0876816 0.12955897
0.07869152 0.1257952 0.09863927 0.08554925 0.16806129 0.17958678 0.1186076 0.18584134
0.090910755 0.17129818 0.074732974 0.14636756 0.1368346 0.15091816 0.09344468 0.16908196
0.07679678 0.17852011 0.12621452 0.11295263 0.10806568 0.13091287 0.1609186 0.09095905
0.1723586 0.11470532 0.09503416 0.096144006 0.12691036 0.10256084 0.18681839 0.18359731
0.19038309 0.1487676 0.14020021 0.18655573 0.100327805 0.08648689 0.1404436 0.10253426
0.17709811 0.120680824 0.16698591 0.14614162 0.18643175 0.12772517 0.14301825 0.13043927
0.09356514 0.1161037 0.18636678 0.11850099 0.17356968 0.12034727 0.08218437 0.12023784
0.120608546 0.12905288 0.068710126 0.18531409 0.14519662 0.1513492 0.16259794 0.14444815
0.19381817 0.13763799 0.13707404 0.1750621 0.16950542 0.07060738 0.1622878 0.16396506
0.16536742 0.10833908 0.19026949 0.08324846 0.16475362 0.17520192 0.14566317 0.06643309
0.07910328 0.08944255 0.088575885 0.12099196 0.0762612 0.1134147 0.120165884 0.14190356
0.18636446 0.10297089 0.16185433 0.17005508 0.16237843 0.12474066 0.10177699 0.08883874
0.070642404 0.13162586 0.15988138 0.17904083 0.11110055 0.14027575 0.13527746 0.09466201
0.09151212 0.07272189 0.15580904 0.1706155 0.12950197 0.18227278 0.12970427 0.10946325
0.16542695 0.08658783 0.1469725 0.09217038 0.14334434 0.11025559 0.117022 0.08264607
0.110630415 0.17710261 0.09540016 0.1822446 0.15805775 0.13481605 0.09754306 0.19125845
0.14074409 0.11430944 0.11187379 0.113249585 0.14079863 0.08221507 0.12464797 0.17529471
0.074272946 0.06715157 0.1108116 0.1289761 0.14079781 0.1844414 0.18036048 0.09393455
0.10582889 0.07278364 0.11596207 0.16918708 0.11367282 0.17146274 0.19055192 0.121334724
0.17924352 0.12812841 0.0740314 0.13807434 0.16990393 0.09134498 0.0890697 0.17101914
0.07213207 0.10952334 0.08461308 0.13853498 0.13946725 0.16826965 0.15111749 0.12964922
0.1661895 0.15292677 0.097093165 0.16410986 0.12221199 0.090766236 0.077431254 0.13708803
0.14719974 0.13727877 0.10686534 0.0847655 0.17610006 0.14978601 0.111177646 0.1297331
0.07361765 0.09913364 0.11504548 0.19327804 0.072291516 0.12787516 0.16893926 0.15351896

critic.qf.fc1.bias f4 [256]
00000000: d01a 493e 70c1 4d3e 69de 4b3e 4e2a 4e3e
00000010: dd50 4c3e b32b 513e b578 4e3e aaab 4b3e
00000020: 2954 503e 7965 4a3e bcb3 4c3e e19e 4b3e
00000030: 076c 493e 1c67 523e c513 553e 53b3 4a3e
00000040: 2353 533e 359f 503e c9cb 4a3e ccb3 4b3e
00000050: fde5 513e 9976 503e 3c80 4f3e b2fe 533e
00000060: 00c3 4e3e 2068 4e3e 08ef 513e 2523 503e
00000070: cdcc cc3d 123f 4d3e 233a 543e 5173 553e
00000080: 5329 533e c439 4f3e 3c07 543e 08ab 4d3e
00000090: 7f62 c93d c9e4 523e 9911 493e 48de 553e
000000a0: 57ee 4e3e 03e5 4b3e a5a3 4d3e d369 4d3e
000000b0: abcf 483e 9d73 4b3e 2f2e 523e d368 513e
000000c0: d596 4d3e d508 4c3e 4b80 523e fcc8 523e
000000d0: c995 513e 4dbf 4e3e e985 4c3e afd9 4d3e
000000e0: 8aa6 4d3e bc5f 4d3e e11e 4b3e 1d3b 533e
000000f0: 1107 533e 259a 4e3e 6092 4d3e 4779 4b3e
00000100: fa5c 4a3e 53a0 4a3e 4e9f c73d e782 4f3e
00000110: ab34 4a3e 83b2 4c3e cdcc cc3d 3b78 503e
00000120: cdcc cc3d f43c 503e fa53 4b3e eeb8 483e
00000130: ae34 4f3e 3c7e 463e 71bc c63d 89ca 463e
00000140: a834 4b3e 8302 4c3e 48f7 4b3e 3db5 493e
00000150: dff8 4e3e 311d 4c3e 3d2a 4f3e c01d 4f3e
00000160: 41c9 493e 2972 473e 1ee6 493e 00d0 4f3e
00000170: 973f 523e a2f1 4c3e ed4e 4b3e a30c 513e
00000180: 1aa1 483e f645 493e 19da 4e3e 879e 4b3e
00000190: c932 4b3e 011c 4b3e 7b01 513e 49e3 503e
000001a0: 4e82 513e ee06 543e ed1f 4f3e 0b78 4c3e
000001b0: a909 4e3e c6a9 4b3e b7cf 503e 8068 4d3e
000001c0: 9226 4d3e 3f83 4b3e 576f 4a3e 5059 493e
000001d0: 3b1c c93d ce54 4c3e b0eb 513e 043c 513e
000001e0: 1a4e 4f3e ae5b 4f3e 38e3 463e 5c66 4a3e
000001f0: fe11 4e3e 83a4 4a3e 590f 543e 76b2 4f3e
00000200: d5a8 4a3e a998 4a3e cdcc cc3d ea9e 4e3e
00000210: ef85 4c3e 08fe 4f3e 8864 493e c7b6 c73d
00000220: aa59 513e bfc7 4c3e dfb6 4a3e 118c 4b3e
00000230: 0820 543e 62c6 4e3e 3ebc 4c3e f241 4a3e
00000240: e8ad 4d3e 444a 4a3e c51e 4f3e 7e44 483e
00000250: 0476 483e 8cdd 4c3e a59a 4d3e 570e 493e
00000260: 729d 4f3e 3f1c c93d e33a 4c3e ae82 493e
00000270: a032 513e 9c28 4a3e 7c2f 4a3e b2f4 4f3e
00000280: 4e20 4c3e 29c3 513e a36f 453e f42d c83d
00000290: 31c5 503e 904f 4d3e 0bb7 4e3e 000d 523e
000002a0: f32c 503e a5a7 583e 5f14 4d3e d6f0 443e
000002b0: 7e38 483e c11d 4b3e 0280 523e 94bd 4e3e
000002c0: df9a 493e b20e 4e3e e9e3 4d3e 61f2 503e
000002d0: 838f 4f3e dd27 533e 14b4 503e a947 493e
000002e0: d7be 493e 0b3b 4b3e ef54 493e b353 4f3e
000002f0: 4f5a 4b3e 8f4c 513e 2865 4e3e 2bb8 563e
00000300: 2568 453e 4af0 4f3e 82a9 523e 5998 553e
00000310: 9bfa 533e c97a 4f3e 8724 463e 16cc 4d3e
00000320: ba2f 503e 2cf7 513e 9016 4c3e add3 4d3e
00000330: 43e2 493e 328d 523e 7640 4d3e d654 4f3e
00000340: 21ec 4f3e 90e4 4d3e 0f1b 473e e514 4b3e
00000350: 07b1 453e f6e9 4f3e 755e 513e 8493 4f3e
00000360: f869 4e3e 8ffd 4a3e 86b6 453e 2ae1 503e
00000370: a866 4d3e 2bd3 4e3e 397a 4f3e 5374 483e
00000380: a3b4 4d3e 7a13 503e ce73 4c3e 2f2b 4a3e
00000390: b370 4b3e 58e0 453e ecc5 473e f095 4a3e
000003a0: cdcc cc3d cdcc cc3d 13c8 473e f957 493e
000003b0: b900 4c3e 645f 4e3e 0cbb 473e 1440 4e3e
000003c0: 04a1 4d3e 20a6 4d3e 751c 4d3e 1543 4d3e
000003d0: ca01 533e 296d 493e 4619 4a3e f5d2 4d3e
000003e0: b258 473e 812b 4f3e 00ea 4f3e c364 4e3e
000003f0: f0bf 4f3e b506 4f3e 60dd 493e 7fe4 4b3e
0.19639134 0.20093322 0.19909061 0.20133325 0.19952722 0.20426826 0.20163234 0.19889703
0.20344605 0.19765271 0.19990438 0.19884826 0.19670115 0.20547146 0.20808323 0.1979497
0.20637183 0.20373233 0.198043 0.19892806 0.2049789 0.20357741 0.20263761 0.20702627
0.20191574 0.20156908 0.2050134 0.20325907 0.1 0.2004359 0.20725302 0.20844771
0.20621233 0.2023688 0.20705885 0.20084774 0.0983324 0.20595087 0.19635619 0.20885575
0.20208107 0.1991158 0.20081957 0.200599 0.19610469 0.19868322 0.2052543 0.20450144
0.20077069 0.19925244 0.20556752 0.20584482 0.20467295 0.20190163 0.19972958 0.20102571
0.20083061 0.20056051 0.19835998 0.20628019 0.20608164 0.20175989 0.20075369 0.19870482
0.1976203 0.19787721 0.09747182 0.20264779 0.19746654 0.19989972 0.1 0.20358364
0.1 0.20335752 0.19856253 0.19601795 0.2023494 0.19384092 0.09703911 0.19413199
0.19844306 0.19922833 0.19918549 0.19698043 0.20212124 0.1993301 0.20230956 0.20226192
0.19705679 0.19477142 0.19716689 0.2029419 0.2053207 0.2001405 0.19854327 0.20414977
0.19592705 0.19655594 0.20200385 0.19884692 0.19843592 0.19834901 0.20410721 0.20399202
0.20459864 0.20705768 0.20227022 0.19967668 0.20120873 0.19888982 0.20391737 0.20059395
0.20034245 0.19874285 0.19769035 0.19662976 0.09819838 0.19954225 0.20500064 0.2043305
0.20244637 0.20249817 0.19422615 0.1976561 0.20124051 0.19789319 0.2070898 0.20282921
0.19790967 0.19784798 0.1 0.20177808 0.19972967 0.20311749 0.19667256 0.09751659
0.2044436 0.19998072 0.19796322 0.1987765 0.20715344 0.20192865 0.19993684 0.19751719
0.20085871 0.19754893 0.20226581 0.19557378 0.1957627 0.20006388 0.20078523 0.19634376
0.20274904 0.09819841 0.19944339 0.19678757 0.20429468 0.19742054 0.19744676 0.20308188
0.19934198 0.20484604 0.19280867 0.0977439 0.20387723 0.20049882 0.20187013 0.20512772
0.20329647 0.21157701 0.20027302 0.19232497 0.195528 0.19835569 0.20556644 0.20189506
0.19687985 0.20122793 0.20106472 0.2040496 0.20269589 0.20620675 0.20381194 0.19656242
0.19701706 0.19846742 0.19661306 0.20246772 0.19858669 0.20439361 0.20155776 0.20968692
0.19278009 0.20306507 0.20572475 0.20858897 0.20701067 0.20261683 0.19349872 0.20097384
0.20330706 0.20504445 0.19930482 0.20100279 0.19715218 0.20561674 0.20044121 0.20247206
0.2030492 0.20106721 0.19443916 0.1983219 0.19305812 0.20304093 0.20446189 0.20271116
0.20157611 0.19823287 0.19307908 0.20398393 0.20058692 0.20197742 0.20261468 0.19575624
0.20088439 0.2031993 0.19966051 0.19743036 0.1986721 0.19323862 0.19509095 0.19783759
0.1 0.1 0.19509916 0.19662465 0.1992215 0.20153576 0.19504946 0.20141631
0.20080954 0.20082903 0.20030387 0.20045121 0.20606151 0.19670548 0.19736204 0.20100005
0.19467428 0.20231439 0.20304108 0.20155625 0.20288062 0.20217402 0.19713354 0.19911383

critic.qf.last_fc.weight f4 [16, 256]
00000000: ef5c b5bd 0424 aabd f06a abbd eeb6 adbd
00000010: e0df adbd ce32 aebd 65d3 afbd 060f abbd
00000020: 2d26 b0bd 4219 b2bd f4da b3bd 59d1 b4bd
00000030: 5464 a9bd 404d b0bd ac8e abbd a75d aabd
00000040: 0de5 abbd b246 acbd d645 aabd 1373 b3bd
00000050: b5a6 a8bd 9a7b aabd 878c acbd 7d82 acbd
00000060: 3514 b3bd 17b1 acbd 4fa5 afbd 16ba abbd
00000070: 5230 8b3a ed24 adbd 8aad abbd 7f69 aabd
00000080: 57a8 adbd 755c aabd e61d b2bd e32b b1bd
00000090: d527 24bb 1e2e adbd ac51 a8bd e24a aabd
000000a0: 6f2a b4bd 5b63 acbd 1aa0 a9bd 5432 aebd
000000b0: cbe6 afbd 98e4 b3bd cf69 afbd 4f47 b1bd
000000c0: bf0e adbd f62c aabd 0f89 aebd 8a62 abbd
000000d0: 5afb acbd 740d a9bd 6f0f b2bd f5ce b3bd
000000e0: 8a07 aebd 90a5 acbd 4521 b4bd 4db3 acbd
000000f0: 1778 a9bd b161 b0bd bda7 b0bd fdc6 aebd
00000100: acf1 a8bd 3b12 aebd 9ac4 c0ba 299d b1bd
00000110: df92 a7bd 8819 b2bd 6bfe 86b9 3353 b0bd
00000120: 5cdb 433b 2384 acbd 8ae3 b2bd 0a12 b5bd
00000130: 68ce b1bd 2e03 aebd 7de7 a6ba 6af9 b0bd
00000140: f13a b0bd f44d b1bd 7024 b4bd 56fa b2bd
00000150: 15e9 afbd 8ff5 acbd 2cc9 b2bd a5ea aebd
00000160: d4b5 b4bd 2bdf aebd 0868 b1bd 45b0 b0bd
00000170: 8919 acbd a251 b4bd b37e b3bd 8e33 b2bd
00000180: 4916 b5bd a5b8 aebd 4b5f a7bd ec2e adbd
00000190: 5374 acbd e099 afbd 288e afbd 46e3 a9bd
000001a0: b4fa afbd 1a27 abbd a3ee adbd cc20 b0bd
000001b0: 576f b2bd adce abbd 04f1 acbd 29c6 b2bd
000001c0: f1e0 a9bd cf08 afbd 1d6b b4bd d88c acbd
000001d0: aab5 453a 748d b2bd dbbb aebd ffba afbd
000001e0: f216 a9bd 8d81 aebd 57f1 b4bd abd2 a9bd
000001f0: b0d0 afbd d222 afbd 8a12 aabd 335d aabd
00000200: 55a0 abbd d163 aebd 4fcc 063b 2385 a9bd
00000210: 8e91 b1bd 0fa4 adbd 9cf8 b2bd 5973 82b8
00000220: ac42 b1bd 1735 aebd f4d8 b2bd f6b6 b1bd
00000230: 852b abbd b766 b3bd c949 acbd 5f63 b4bd
00000240: 817e aebd cd7a b6bd c1f8 b4bd a54d b2bd
00000250: 9551 b5bd 8e33 b0bd b269 afbd c0ea afbd
00000260: 9efe afbd f9af d73a 7da4 acbd 0188 b1bd
00000270: 4f4a afbd fda2 adbd b153 b5bd 36fc b2bd
00000280: 2401 b1bd 4a0b a8bd c859 afbd c9f4 d7ba
00000290: c32f aabd 8bfb afbd 5f53 acbd ac05 a9bd
000002a0: f6c5 a9bd 8e54 aabd e65c b2bd a381 b3bd
000002b0: e4ee afbd 26eb a8bd f976 aabd da04 aebd
000002c0: b0f3 aebd 6797 aebd a233 b6bd 0e4c aabd
000002d0: 94ca b0bd 56be aebd 1835 a9bd 95f2 b0bd
000002e0: bd91 b1bd 471a b1bd 8154 b4bd 48d0 aebd
000002f0: cc80 abbd 3bc8 abbd 060b a9bd 70e8 aabd
00000300: b43b b2bd c027 b2bd bbeb aabd 53cd a8bd
00000310: 6942 b1bd a82a adbd 552e b5bd d0f6 b2bd
00000320: be41 abbd 1b55 b4bd ffa9 afbd 12fd aebd
00000330: 211a b0bd 8406 adbd 473b b1bd c83a a9bd
00000340: 97bc b2bd e021 abbd 5398 b3bd 94f6 afbd
00000350: 73d5 b2bd 1afd abbd edaa a7bd b836 b3bd
00000360: 59ab afbd 703b b2bd 9dd3 b1bd d57b b4bd
00000370: db8a aabd 494d b4bd 1cee abbd 04d8 aebd
00000380: 4182 a8bd 6270 acbd 2bc6 aebd 5ca8 adbd
00000390: c3fc b4bd 6cb7 b5bd b401 b2bd a3d8 b2bd
000003a0: 1d0a 8b38 38f5 403b d8cc b3bd 3f36 b1bd
000003b0: f31b b4bd 85a4 abbd e1f7 b0bd a8af b2bd
000003c0: 6c30 b5bd 237f b2bd be58 acbd 2712 acbd
000003d0: c88a aabd 7858 b0bd febf acbd 0518 abbd
000003e0: d5be b2bd 7dbc a6bd 6596 b2bd e9bc b4bd
000003f0: f1f0 acbd 3920 aabd 082f b0bd 865b b0bd
-0.08855616 -0.08307651 -0.08370006 -0.08482157 -0.084899664 -0.08505784 -0.08585242 -0.08352475
-0.086010315 -0.08696224 -0.08781996 -0.088289924 -0.08271089 -0.08608484 -0.08376822 -0.08318644
-0.08393297 -0.084119216 -0.083141014 -0.08762183 -0.08234922 -0.083243564 -0.08425241 -0.08423326
-0.087440886 -0.08432215 -0.08576452 -0.083851025 0.0010619259 -0.08454309 -0.08382709 -0.08320903
-0.08479374 -0.08318416 -0.08697109 -0.08650949 -0.0025048156 -0.08456062 -0.08218703 -0.08315064
-0.08797156 -0.08417388 -0.0828249 -0.08505693 -0.08588942 -0.08783835 -0.08565103 -0.08656179
-0.08450078 -0.08309357 -0.085222356 -0.08368404 -0.08446379 -0.08254519 -0.0869435 -0.08779708
-0.08497532 -0.08430016 -0.08795408 -0.084326364 -0.082748584 -0.08612383 -0.086257435 -0.08534048
-0.0824922 -0.08499571 -0.0014707029 -0.08672554 -0.0818231 -0.08696276 -0.00025748028 -0.08609619
0.0029885387 -0.084236406 -0.08734806 -0.08841331 -0.08681947 -0.084967 -0.0012733784 -0.08641322
-0.08604992 -0.086574465 -0.087960124 -0.08739154 -0.08589379 -0.08445274 -0.08729777 -0.08540849
-0.088237435 -0.0853866 -0.086624205 -0.08627371 -0.08403308 -0.08804633 -0.087644 -0.087012395
-0.08842141 -0.08531312 -0.081724726 -0.08456215 -0.084206246 -0.08574271 -0.08572036 -0.08295302
-0.0859274 -0.083570674 -0.08492782 -0.086000055 -0.08712643 -0.0838903 -0.084444076 -0.08729202
-0.08294857 -0.08546602 -0.08809493 -0.08425301 0.00075420237 -0.08718386 -0.08531924 -0.085805885
-0.082563296 -0.085208036 -0.088350944 -0.08292135 -0.08584726 -0.08551563 -0.08304317 -0.083185576
-0.0838019 -0.08515132 0.0020568555 -0.08277347 -0.086703405 -0.08478557 -0.08738825 -6.220368e-05
-0.08655295 -0.0850622 -0.08732787 -0.08677475 -0.0835791 -0.08759826 -0.08412511 -0.08808016
-0.085202225 -0.08910141 -0.088365085 -0.08706216 -0.08853451 -0.08603583 -0.08565082 -0.08589697
-0.08593486 0.0016455642 -0.08429811 -0.08668519 -0.08559095 -0.08478353 -0.088538535 -0.08739512
-0.08642796 -0.08205278 -0.08562046 -0.001647615 -0.08309891 -0.085929 -0.08414339 -0.08253035
-0.08289711 -0.08316909 -0.08709125 -0.087649606 -0.08590487 -0.08247976 -0.083234735 -0.08497019
-0.085425735 -0.085249715 -0.08896567 -0.083152875 -0.08632389 -0.085323974 -0.0826208 -0.08640019
-0.086703755 -0.0864759 -0.0880518 -0.0853582 -0.083741754 -0.083878 -0.08254056 -0.08345115
-0.08702794 -0.08698988 -0.08345743 -0.082422875 -0.08655245 -0.08455402 -0.08846728 -0.08738482
-0.08362149 -0.08805295 -0.08577346 -0.08544363 -0.08598734 -0.084485084 -0.086538844 -0.08263165
-0.08727377 -0.083560705 -0.08769288 -0.08591953 -0.087321185 -0.08397885 -0.081868984 -0.08750671
-0.08577604 -0.08702743 -0.0868294 -0.088126816 -0.08327266 -0.088038035 -0.08395025 -0.085372955
-0.08227969 -0.08419873 -0.08533891 -0.084793776 -0.08837273 -0.088728756 -0.08691731 -0.087327264
6.62992e-05 0.0029443037 -0.08779305 -0.08652925 -0.087943934 -0.08380989 -0.08641029 -0.0872491
-0.08847126 -0.08715656 -0.08415364 -0.084019 -0.08327252 -0.08610624 -0.08435057 -0.08354191
-0.087278046 -0.0814142 -0.08720092 -0.08825094 -0.084443934 -0.08306927 -0.086027205 -0.08611207

critic.qf.last_fc.bias f4 [16]
00000000: 3e7a 3b3e 9b7c 973e 47f7 20bd 9a8a 34bd
00000010: 52b3 a2bc c5c9 833d 582e 2dbd 4f21 27be
00000020: c261 73be 9d30 09be 2d84 0ebe 8d6e c5bd
00000030: 7a84 7fbd b9b5 74be 7f48 65be 1106 08be
0.1830835 0.29587254 -0.039298322 -0.044077493 -0.019860897 0.06434969 -0.042280525 -0.163213
-0.2376776 -0.13397451 -0.13917609 -0.096402265 -0.0623822 -0.23897447 -0.22390936 -0.13283564
