TFPORL-main/pomdp-discrete/logs_results/network-defender/param-search/lr-network-size/lr3e4-ns256/seed-2/save/agent_0010000_perf7.520.pt (torch, 941620 bytes, 28 tensors)

critic.observ_embedder.fc.weight f4 [32, 15]
0.3409553 0.09347617 0.11414059 -0.025393259 0.22491395 0.07067542 -0.08850014 -0.6366036
0.09242931 -0.16823296 0.0651515 -0.28394878 -0.10491684 0.454525 -0.05365106 0.106712736
0.17868093 -0.28883797 -0.118858285 0.6939703 -0.41884506 -0.046658438 0.026658833 0.3795601
0.0049209725 0.08748023 -0.16137919 -0.22624491 -0.23036215 -0.16466017 -0.2827352 -0.30118078
0.19925651 0.19650674 0.09905426 -0.029735826 0.60306245 -0.24239731 0.05443769 -0.32610002
-0.24087353 -0.41461715 0.31970245 0.18642858 0.14206222 0.0010489504 0.072025664 0.07551481
-0.013875464 -0.038480736 0.32743677 0.23312151 0.18996117 0.14382899 -0.26523086 0.09847832
-0.04899079 0.21688466 -0.28369752 0.28030363 0.27438143 -0.64660907 -0.07370584 0.38672262
0.30552882 -0.22960299 0.47146994 -0.23587756 0.16473939 0.21522912 -0.4244003 0.32544118
-0.49815524 0.26617572 0.054095037 0.19390096 0.124093264 -0.30813214 -0.15164709 -0.14983442
0.5577335 0.15183598 -0.47474873 -0.0098543 0.33910778 -0.29407305 -0.004578752 0.29612926
-0.30357835 -0.003636252 0.07017716 -0.031720247 0.35588536 0.3973496 0.32543343 0.124518335
-0.27359542 -0.36639836 -0.48469296 -0.15170601 -0.4138163 0.063374504 -0.3045819 -0.006036426
0.22420284 0.03868144 0.38002393 0.23244576 -0.45942363 0.23645309 0.26692107 -0.3713706
-0.1985502 -0.027609542 -0.23997626 -0.15104651 -0.2036599 0.46880785 0.14707682 0.33057615
0.26478484 0.2565433 -0.44117287 0.31592077 0.33080113 -0.008621479 -0.31760246 0.5032095
-0.37210268 -0.3768989 0.004751039 0.0661211 0.3019099 -0.68096083 0.1850694 0.30414692
0.10603053 -0.48327056 0.24173208 -0.037700526 -0.3336042 -0.15240818 0.21863908 -0.099473365
0.17031488 0.24707906 -0.28225905 0.19357489 0.32828492 -0.24242833 0.3637139 0.14128439
-0.0013168277 0.114666596 -0.21816067 -0.08431696 -0.7691764 -0.09568231 0.5823508 -0.040532507
-0.0631785 0.25646535 -0.17621315 -0.49389255 0.35809183 0.4234408 -0.24354726 0.09534099
-0.10694015 -0.26236123 -0.28416312 0.17100957 0.4317296 -0.36690062 -0.45016733 0.20689084
-0.27050662 0.060274556 0.26993078 -0.05240927 -0.19402324 -0.13400845 0.15765977 0.52954364
-0.25342625 0.13930327 -0.33520088 0.048650704 0.33451632 0.51134676 0.06023915 -0.5164408
0.22080658 0.051866308 -0.3676861 -0.23487642 0.22045326 -0.1499784 0.46989208 0.19298927
-0.3907007 0.006038228 -0.14959575 -0.63031393 0.14749569 0.5658044 0.19857208 -0.03946093
0.009318169 -0.10750447 -0.34196126 -0.30106974 -0.2399524 -0.25209397 0.13256505 0.042130403
0.17512718 0.0059703547 0.24760017 0.29514185 0.15088272 -0.2690775 0.2939816 0.52780557
0.24726926 -0.12562987 -0.11779364 0.21578538 0.12551977 -0.14179896 0.0011596729 0.043599818
0.058925945 -0.023714108 -0.14417477 -0.01710101 -0.08029637 -0.095436335 -0.13700627 -0.134125
-0.14351109 0.07927449 -0.23859893 -0.26707372 0.19830997 0.07066596 0.12021324 0.0901087
-0.11958512 -0.18616432 -0.20294733 -0.041873913 0.044610992 -0.26354575 -0.21702914 0.25462225
00000000: b191 ae3e 6f70 bf3d 8bc2 e93d 8605 d0bc
00000010: d84f 663e 46be 903d 903f b5bd 74f8 22bf
00000020: 944b bd3d 4345 2cbe 266e 853d bc61 91be
00000030: a4de d6bd 80b7 e83e 37c1 5bbd 358c da3d
00000040: 22f8 363e 92e2 93be f96b f3bd 0aa8 313f
00000050: dc72 d6be eb1c 3fbd a063 da3c b455 c23e
00000060: 1c40 a13b d628 b33d 9640 25be bfac 67be
00000070: 0ee4 6bbe ad9c 28be abc2 90be 5e34 9abe
00000080: e609 4c3e 1039 493e f6dc ca3d 8c98 f3bc
00000090: 4d62 1a3f 0037 78be 0efa 5e3d 95f6 a6be
000000a0: 8da7 76be b348 d4be 0ab0 a33e 22e7 3e3e
000000b0: c278 113e ef7c 893a 3182 933d 82a7 9a3d
000000c0: ea55 63bc fa9d 1dbd cba5 a73e 68b7 6e3e
000000d0: 2e85 423e e847 133e 57cc 87be 00af c93d
000000e0: 91aa 48bd 0317 5e3e cd40 91be f583 8f3e
000000f0: b97b 8c3e 2c88 25bf 16f3 96bd 8200 c63e
00000100: 466e 9c3e 0c1d 6bbe 8264 f13e e389 71be
00000110: 71b1 283e 0665 5c3e ff4a d9be 3aa0 a63e
00000120: 340e ffbe 2f48 883e c292 5d3d f98d 463e
00000130: 9c24 fe3d 7fc3 9dbe 6049 1bbe 326e 19be
00000140: 9fc7 0e3f e47a 1b3e 4412 f3be ee73 21bc
00000150: 899f ad3e be90 96be 5b09 96bb 419e 973e
00000160: 9f6e 9bbe 2f4e 6ebb 0bb9 8f3d 17ed 01bd
00000170: 9b36 b63e 6871 cb3e 369f a63e 7803 ff3d
00000180: b314 8cbe 9198 bbbe ad29 f8be d258 1bbe
00000190: bbdf d3be 7eca 813d 29f2 9bbe 36cd c5bb
000001a0: 6e95 653e 6e70 1e3d 7f92 c23e 4306 6e3e
000001b0: 9339 ebbe c220 723e e1a9 883e 4a24 bebe
000001c0: be50 4bbe 682d e2bc 56bc 75be f0ab 1abe
000001d0: 398c 50be 9507 f03e 4e9b 163e 4741 a93e
000001e0: e191 873e a559 833e 69e1 e1be 5ec0 a13e
000001f0: c45e a93e 1b41 0dbc ca9c a2be 56d2 003f
00000200: 3e84 bebe e5f8 c0be 9bae 9b3b 806a 873d
00000210: ef93 9a3e 7353 2ebf d582 3d3e 25b9 9b3e
00000220: 8926 d93d 3d6f f7be 9d88 773e de6b 1abd
00000230: 2bce aabe e410 1cbe ece2 5f3e b1b8 cbbd
00000240: 0667 2e3e 4b02 7d3e 4284 90be 7f38 463e
00000250: f614 a83e 223f 78be b538 ba3e dbac 103e
00000260: 6899 acba 52d6 ea3d 8365 5fbe 5fae acbd
00000270: bfe8 44bf 16f5 c3bd f114 153f 6a05 26bd
00000280: bb63 81bd 6d4f 833e 3871 34be 7cdf fcbe
00000290: d057 b73e 3ccd d83e 7464 79be 2342 c33d
000002a0: 7003 dbbd 3654 86be d47d 91be 221d 2f3e
000002b0: aa0b dd3e 66da bbbe 557c e6be 31db 533e
000002c0: d87f 8abe 74e2 763d 5e34 8a3e 1aab 56bd
000002d0: 07ae 46be 8339 09be 9071 213e 2c90 073f
000002e0: 16c1 81be 84a5 0e3e 739f abbe f645 473d
000002f0: b945 ab3e 9fe7 023f 54bd 763d 7735 04bf
00000300: 1f1b 623e c471 543d 5a41 bcbe 7283 70be
00000310: 80be 613e f093 19be b295 f03e fb9e 453e
00000320: ec09 c8be 54dc c53b a12f 19be 415c 21bf
00000330: 1c09 173e 8fd8 103f 7b56 4b3e c9a1 21bd
00000340: 3cab 183c 4e2b dcbd 8c15 afbe d025 9abe
00000350: 15b6 75be 7612 81be 22bf 073e ee90 2c3d
00000360: 8a54 333e f7a2 c33b e68a 7d3e d51c 973e
00000370: 0081 1a3e 87c4 89be c284 963e 441e 073f
00000380: 2734 7d3e 1ea5 00be cb3d f1bd d8f6 5c3e
00000390: 4188 003e bf33 11be 2a00 983a b995 323d
000003a0: 555c 713d 1744 c2bc 8da2 13be 6b17 8cbc
000003b0: 6c72 a4bd 2074 c3bd 5f4b 0cbe 1058 09be
000003c0: 92f4 12be aa5a a23d 4753 74be e3bd 88be
000003d0: c511 4b3e 51b9 903d 5c32 f63d e98a b83d
000003e0: 0be9 f4bd dca1 3ebe 6dd1 4fbe fb83 2bbd
000003f0: 04ba 363d 78ef 86be e33c 5ebe d95d 823e

critic.observ_embedder.fc.bias f4 [32]
0.07787605 0.41999313 0.26270065 -0.32528344 -0.27987003 0.2558524 0.446054 0.05135056
0.004515108 0.21195868 -0.113523 0.2783519 -0.15376659 -0.19885837 -0.41272703 -0.20855069
-0.1245651 -0.49515316 -0.27726215 -0.09454764 -0.121989906 0.349798 -0.10995707 -0.17173612
-0.15214624 0.44314983 -0.5389263 -0.16538195 -0.41965058 0.4048003 0.43097535 -0.21717677
00000000: 7a7d 9f3d 5709 d73e b380 863e 8d8b a6be
00000010: 204b 8fbe 16ff 823e 3161 e43e f754 523d
00000020: 79f3 933b b20b 593e bf7e e8bd 2484 8e3e
00000030: fd74 1dbe 87a1 4bbe f550 d3be 508e 55be
00000040: fd1b ffbd b784 fdbe 4ef5 8dbe 31a2 c1bd
00000050: d8d5 f9bd b918 b33e 2c31 e1bd 98db 2fbe
00000060: 39cc 1bbe 89e4 e23e 13f7 09bf e359 29be
00000070: 71dc d6be fc41 cf3e cda8 dc3e 9663 5ebe

critic.action_embedder.fc.weight f4 [16, 16]
0.12890357 -0.15448925 -0.15122744 -0.23079962 0.43085682 -0.15072638 0.2737197 -0.15132776
-0.15552416 0.42725092 -0.15169165 -0.23594895 -0.15554294 0.5956532 -0.2266641 -0.24828532
0.69385475 -0.20449972 0.042304996 0.44335273 0.029155575 -0.1973744 -0.17376482 0.44970134
-0.19696878 0.13495858 -0.19636787 -0.19314533 -0.18249932 0.15377647 -0.2042985 0.16134414
-0.1293504 0.17126977 -0.12752838 0.25705636 0.23739727 0.41418064 -0.12738109 -0.12799633
0.22808969 0.5698128 -0.17565182 0.30442476 -0.13587414 0.29352382 -0.13398284 -0.13455938
0.16400686 -0.13479877 0.2667115 -0.19224793 -0.2155917 -0.10632547 0.7017396 -0.12878329
-0.16034544 -0.13618416 -0.20985407 0.08084698 -0.01957683 -0.13299581 -0.12708898 0.07363629
0.24008957 0.19730611 -0.18487597 -0.18922101 0.08514401 -0.18604743 -0.18307576 0.09006882
0.8798978 -0.19037789 -0.1837354 -0.18454455 -0.18398467 -0.18111545 0.16857535 -0.05720577
-0.21234557 0.19492006 0.14374536 0.0533894 0.17718521 0.0537405 0.0419524 0.1663363
-0.018886983 0.17308849 -0.019710839 0.21594083 0.021784633 -0.091707915 -0.03856662 -0.2208682
-0.21022798 -0.20467634 -0.22728992 -0.20513195 0.21789825 0.7565572 0.34117165 0.450672
-0.20904228 -0.20966598 -0.19818804 -0.20298478 -0.21113989 -0.20372947 -0.21060888 0.22359578
0.13622598 -0.24016157 -0.23328519 0.3462915 -0.14934747 0.54897463 0.27091047 -0.13281447
-0.14839168 0.05390401 0.34058934 -0.15643597 0.31783968 -0.24527088 0.34776607 -0.15029943
-0.1833184 0.44686404 -0.08254683 -0.17009851 -0.08803981 -0.1486178 -0.08537283 -0.08212898
-0.08143242 -0.085020475 -0.08431525 -0.086809754 0.39616698 -0.08426358 -0.20898366 0.50796247
0.30415764 0.2820254 -0.20462942 -0.21065217 0.9151645 -0.20209438 -0.22242123 -0.12312141
-0.21904185 -0.2192112 -0.21648936 0.11394059 0.16302243 -0.21611293 -0.20371395 -0.20364815
-0.08508814 0.4091872 0.48437208 0.43706587 -0.17246288 -0.12696308 -0.1318852 -0.2063376
-0.08651666 0.06624031 -0.16550982 -0.14016122 -0.08482229 0.33352476 0.6487207 -0.19493902
-0.025759995 -0.24504456 0.81098926 -0.13481078 -0.027843894 0.13231692 -0.07173416 -0.15245289
0.47048545 -0.028570706 -0.030569613 -0.029747665 0.827278 -0.020783806 -0.14272916 0.038106296
-0.25966626 -0.10946296 -0.2677979 0.1547363 -0.11085153 -0.26060617 -0.09746362 0.4532749
-0.0464145 -0.26588416 0.30764407 0.25299254 -0.25702474 -0.029014675 -0.25600186 -0.26382244
0.5749488 0.19695643 -0.21776934 -0.08023132 -0.16037808 0.13290492 -0.21896338 -0.21742758
0.024198124 -0.234554 -0.21609688 -0.24334326 -0.21449749 0.6273566 -0.21968202 -0.22035196
-0.16624866 -0.21659182 -0.23678878 -0.20965128 0.040394727 -0.08837179 -0.21313432 -0.14878738
-0.20721848 -0.23935267 0.8354809 -0.2043427 -0.21609992 -0.21945491 0.3348465 0.15590358
-0.21090358 -0.1251726 -0.2480574 -0.14639264 -0.105086304 -0.12906955 -0.16274056 0.30505255
-0.12459945 0.29455435 -0.12295146 0.36535764 0.14235786 -0.12854345 0.6456441 -0.12929818
00000000: 4cff 033e 6e32 1ebe 5edb 1abe bc56 6cbe
00000010: 4499 dc3e 0458 1abe fd24 8c3e aaf5 1abe
00000020: ba41 1fbe a2c0 da3e 0e55 1bbe 9a9c 71be
00000030: a646 1fbe ba7c 183f a21a 68be 823e 7ebe
00000040: 77a0 313f 6068 51be 0148 2d3d 21ff e23e
00000050: acd7 ee3c 841c 4abe 68ef 31be 413f e63e
00000060: 2fb2 49be 9532 0a3e a914 49be e4c7 45be
00000070: 1ae1 3abe 9477 1d3e a033 51be 6637 253e
00000080: 6e74 04be 5861 2f3e cd96 02be e49c 833e
00000090: 4518 733e 7c0f d43e 3070 02be 7811 03be
000000a0: 5890 693e 40df 113f 12de 33be 90dd 9b3e
000000b0: 9722 0bbe c148 963e cc32 09be efc9 09be
000000c0: 6af1 273e b008 0abe 698e 883e a4dc 44be
000000d0: 12c4 5cbe 2bc1 d9bd 35a5 333f c4df 03be
000000e0: 9831 24be dc73 0bbe fce3 56be 1a93 a53d
000000f0: 975f a0bc 0e30 08be 9d23 02be a0ce 963d
00000100: 0ada 753e 9d0a 4a3e 2050 3dbe 27c3 41be
00000110: fc5f ae3d 3883 3ebe 3678 3bbe 0076 b83d
00000120: fb40 613f 6cf2 42be 2225 3cbe 3ff9 3cbe
00000130: 7a66 3cbe 5476 39be 049f 2c3e 9950 6abd
00000140: 1e71 59be 2099 473e fc31 133e d8ae 5a3d
00000150: 0a70 353e 001f 5c3d 48d6 2b3d 1054 2a3e
00000160: e0b8 9abc 1c3e 313e a078 a1bc 981f 5d3e
00000170: b075 b23c 5cd1 bbbd 08f8 1dbd 462b 62be
00000180: 0146 57be ad96 51be b0be 68be 1c0e 52be
00000190: b820 5f3e bcad 413f 0dae ae3e 7bbe e63e
000001a0: 2e0f 56be aeb2 56be cef1 4abe 3edb 4fbe
000001b0: 0e35 58be 759e 50be dba9 57be 4bf6 643e
000001c0: d37e 0b3e eaec 75be 50e2 6ebe 1f4d b13e
000001d0: 8bee 18be 9a89 0c3f c7b4 8a3e 8400 08be
000001e0: fdf3 17be 74ca 5c3d ba61 ae3e c030 20be
000001f0: e2bb a23e 4a28 7bbe 650e b23e 18e8 19be
00000200: d2b7 3bbe 5dcb e43e 500e a9bd 4e2e 2ebe
00000210: 374e b4bd 442f 18be f3d7 aebd 3d33 a8bd
00000220: 0ac6 a6bd 371f aebd 79ad acbd 50c9 b1bd
00000230: 66d6 ca3e 6292 acbd d0ff 55be d409 023f
00000240: 8dba 9b3e a265 903e 608a 51be 34b5 57be
00000250: 3848 6a3f d4f1 4ebe 64c2 63be 1427 fcbd
00000260: 824c 60be e778 60be 63af 5dbe af59 e93d
00000270: 5aef 263e b54c 5dbe 649a 50be 2489 50be
00000280: b142 aebd fc80 d13e 9eff f73e 19c7 df3e
00000290: 1c9a 30be 9c02 02be ea0c 07be 2a4a 53be
000002a0: a62f b1bd 00a9 873d 687b 29be 6c86 0fbe
000002b0: 4fb7 adbd c2c3 aa3e 8f12 263f 189e 47be
000002c0: a006 d3bc f6ec 7abe fe9c 4f3f d60b 0abe
000002d0: e118 e4bc 167e 073e 5ce9 92bd 9c1c 1cbe
000002e0: 78e3 f03e 1d0d eabc 206d fabc 60b1 f3bc
000002f0: 7ec8 533f cd42 aabc 9827 12be 5915 1c3d
00000300: faf2 84be 1e2e e0bd ce1c 89be 3173 1e3e
00000310: 2106 e3bd 2c6e 85be 029b c7bd a613 e83e
00000320: 211d 3ebd f821 88be 8683 9d3e 3d88 813e
00000330: bf98 83be 2fb0 edbc ad12 83be bc13 87be
00000340: d82f 133f f2ae 493e edfe 5ebe 5150 a4bd
00000350: 273a 24be 3a18 083e f037 60be 56a5 5ebe
00000360: 253b c63c ec2e 70be 8048 5dbe fa2e 79be
00000370: 3ba5 5bbe 719a 203f 53f4 60be f2a3 61be
00000380: 173d 2abe 3fca 5dbe c278 72be d3ae 56be
00000390: f174 253d 45fc b4bd e23f 5abe b85b 18be
000003a0: 1531 54be de18 75be 14e2 553f 363f 51be
000003b0: 4c49 5dbe cab8 60be 0071 ab3e 30a5 1f3e
000003c0: 1cf7 57be 3f2d 00be c202 7ebe f4e7 15be
000003d0: 7d37 d7bd cf2a 04be 76a5 26be d92f 9c3e
000003e0: ff2d ffbd d4cf 963e facd fbbd 2810 bb3e
000003f0: 42c6 113e e5a0 03be ef48 253f be66 04be

critic.action_embedder.fc.bias f4 [16]
0.1464445 0.16264844 0.08805065 0.12192389 0.124116905 -0.2261593 0.1723245 0.11644563
0.07377047 0.17527734 0.053557113 0.006734589 0.21854615 0.15733577 0.2000867 0.08842157
00000000: 8cf5 153e 508d 263e e653 b43d 3cb3 f93d
00000010: 0131 fe3d 4e96 67be d575 303e 0c7b ee3d
00000020: f914 973d e77b 333e b45e 5b3d d4ad dc3b
00000030: 90ca 5f3e a11c 213e 87e3 4c3e 5e16 b53d

critic.seq_model.model.weight_ih_l0 f4 [256, 48]
0.031093761 0.292356 0.38028345 0.08042699 -0.14375022 -0.016369987 0.45280588 0.19465135
-0.22957303 -0.5056503 0.07881469 0.012809163 0.21021372 -0.32160684 -0.53469145 -0.44812337
0.73891586 -0.1605064 0.22081855 0.08325943 -0.96246666 -0.21583687 0.8914444 0.4737041
0.32808432 0.34936598 -0.17127973 -0.09733329 0.9207476 0.7096999 -0.13538347 0.0485878
-0.00071795547 0.3089881 0.1783911 -0.0695884 0.124906994 -0.033803247 0.29814792 0.044392414
0.065532915 0.17231965 0.23893644 -0.7201843 0.16243336 -0.3573802 -0.13147095 -0.0203007
-0.10281307 0.34589908 -0.439651 0.112957366 -0.015836822 0.09302829 0.22717611 0.04131212
0.6278983 -0.29673788 -0.1417148 0.31551358 -0.1935251 -0.46821234 0.37039164 0.08893781
0.59195966 0.4988449 0.4477537 0.29590303 0.25549287 -0.26454902 0.09202732 0.101109624
-0.081699446 -0.08373119 -0.7827327 -0.10557813 0.05454692 -0.24361488 0.028219268 0.045235362
0.020473551 0.42040974 0.105509266 0.0023868398 -0.19238481 -0.11944415 0.3095175 0.6014979
0.16556765 -0.66453654 0.60925543 0.20315851 0.096459076 0.15618174 0.095720425 0.0035508475
0.4875549 0.113873124 0.060265567 -0.1917799 -0.32657263 0.0001156964 -0.56913066 0.08567027
-0.27843627 0.16893518 0.2860136 0.024035344 -0.23753451 -0.0038893616 -0.029890064 0.22530258
0.051828478 -0.4763861 -0.13667357 0.372019 0.21773861 -0.48861164 0.2251741 -0.14073369
0.06438774 -0.34399757 0.8749975 0.089557625 -1.1830261 -1.1852994 -0.42119318 -0.017860515
-0.041072942 0.33670083 -0.5006399 -0.85351104 0.09276208 0.16117589 -0.13577539 0.009847885
-0.4773959 -0.07300943 -0.14511012 0.66800237 0.29565355 -0.19059181 -0.2233947 -0.026844753
-0.26007235 -0.12722692 -0.08801462 -0.24788548 -0.08966407 0.121032335 0.32390964 0.33998427
-0.2941201 0.22904754 0.18197156 -0.31720522 -0.07373311 -0.12632222 0.21577772 0.0964855
0.19164744 -0.24943167 -0.07523417 -0.029718999 0.029653361 0.09585489 -0.48653567 -0.110314585
-0.06616871 0.06291368 0.29795972 -0.10637003 0.32731223 -0.64712626 0.83376604 -0.070171475
-0.037211668 -0.16867352 -0.27826825 -0.33371425 -0.18195182 0.12459911 0.17067748 0.27594882
0.3216671 -1.2277576 -0.077571124 0.32707787 -0.011374861 -0.29554096 0.09063901 0.03297732
0.45312753 -0.12564725 0.39481482 -0.13464884 -0.336933 0.07429163 -0.4168587 -0.13781475
-0.47834674 -0.04053645 0.5105641 -0.67674154 0.08734802 -0.025100723 -0.55609673 -0.33448586
0.26004887 -0.040287998 -0.19861893 0.18530613 -0.20295332 0.030405626 -0.14668344 0.15377294
0.50311023 -0.21468237 0.8229067 0.24089389 -0.42789248 0.106611826 0.15126789 0.0038628634
0.017627196 0.4944502 0.009324583 -0.6013448 -0.1798056 0.061373353 0.092549615 -0.052253455
-0.1869476 -0.21050574 -0.04607412 0.7003994 -0.090210095 0.26561382 0.023018783 -0.06927392
-0.04940816 -0.080525205 0.26025125 -0.3191864 -0.37582058 0.019058043 0.021870708 -0.12632056
-0.009297929 -0.028816381 -0.07524602 -0.25986856 -0.1246049 0.17891932 0.09027436 -0.6843304
00000000: 58b8 fe3c b0af 953e 83b4 c23e e8b6 a43d
00000010: 4233 13be 5a1a 86bc 2cd6 e73e af52 473e
00000020: 3115 6bbe 4c72 01bf 9969 a13d 86dd 513c
00000030: 4442 573e a7a9 a4be 8ae1 08bf 6d70 e5be
00000040: 9729 3d3f ca5b 24be 421e 623e ec83 aa3d
00000050: 3764 76bf 5704 5dbe b335 643f 5889 f23e
00000060: abfa a73e 19e0 b23e f463 2fbe ad56 c7bd
00000070: 1db6 6b3f e5ae 353f f7a1 0abe 0004 473d
00000080: 2d35 3cba b033 9e3e 28ac 363e 5d84 8ebd
00000090: 3dcf ff3d 4675 0abd d8a6 983e d2d4 353d
000000a0: 1f36 863d 9074 303e c1ab 743e 005e 38bf
000000b0: ee54 263e 8afa b6be 52a0 06be a74d a6bc
000000c0: a98f d2bd af19 b13e f019 e1be 3156 e73d
000000d0: 39bc 81bc 9e85 be3d dba0 683e e636 293d
000000e0: f1bd 203f 07ee 97be af1d 11be ff8a a13e
000000f0: 722b 46be 87b9 efbe f9a3 bd3e 0725 b63d
00000100: ab8a 173f 9968 ff3e f93f e53e 9a80 973e
00000110: f6cf 823e f872 87be d278 bc3d 9012 cf3d
00000120: 0a52 a7bd 427b abbd 2c61 48bf 5939 d8bd
00000130: 976c 5f3d 2e76 79be 182c e73c b748 393d
00000140: 26b8 a73c f23f d73e 3e15 d83d 876c 1c3b
00000150: 8600 45be 229f f4bd 1479 9e3e c4fb 193f
00000160: 918a 293e 111f 2abf 2af8 1b3f c908 503e
00000170: 568c c53d 1bee 1f3e 1209 c43d 56b5 683b
00000180: cca0 f93e 5036 e93d 07d9 763d f361 44be
00000190: 8734 a7be 08a2 f238 8cb2 11bf e573 af3d
000001a0: 338f 8ebe 58fd 2c3e 6070 923e c5e5 c43c
000001b0: 3f3c 73be a9e4 7ebb 02dc f4bc b8b5 663e
000001c0: 194a 543d e1e8 f3be 28f4 0bbe 4679 be3e
000001d0: dff6 5e3e 4e2b fabe 0a94 663e 7e1c 10be
000001e0: b8dd 833d 7320 b0be d6ff 5f3f fd69 b73d
000001f0: 666d 97bf e4b7 97bf a2a6 d7be 3750 92bc
00000200: 1a3c 28bd 0d64 ac3e f029 00bf b37f 5abf
00000210: 0cfa bd3d 4b0b 253e b408 0bbe 0659 213c
00000220: 3c6d f4be f885 95bd bf97 14be 3402 2b3f
00000230: e75f 973e 802a 43be 95c1 64be 87e9 dbbc
00000240: 3428 85be c647 02be 0241 b4bd b1d5 7dbe
00000250: cca1 b7bd cddf f73d 7cd7 a53e 6b12 ae3e
00000260: e996 96be 708b 6a3e c156 3a3e b968 a2be
00000270: 6301 97bd 9d5a 01be d6f4 5c3e 319a c53d
00000280: 3a3f 443e 046b 7fbe 5f14 9abd 4275 f3bc
00000290: 9beb f23c 924f c43d 341b f9be 9dec e1bd
000002a0: 7683 87bd e3d8 803d 2d8e 983e 88d8 d9bd
000002b0: 7895 a73e 11aa 25bf b171 553f 10b6 8fbd
000002c0: 436b 18bd c0b8 2cbe 2d79 8ebe 98dc aabe
000002d0: 9451 3abe d12d ff3d 14c6 2e3e 2a49 8d3e
000002e0: 8db1 a43e 2927 9dbf 9cdd 9ebd c076 a73e
000002f0: a05d 3abc 2551 97be f2a0 b93d 3a13 073d
00000300: 5500 e83e aca9 00be 2b25 ca3e 63e1 09be
00000310: 7b82 acbe 3626 983d 816e d5be 4f1f 0dbe
00000320: dde9 f4be 8c09 26bd 54b4 023f ef3e 2dbf
00000330: 85e3 b23d 08a0 cdbc 5b5c 0ebf bb41 abbe
00000340: 2025 853e 0705 25bd c362 4bbe e4c0 3d3e
00000350: ffd2 4fbe 3815 f93c 2f34 16be a776 1d3e
00000360: d5cb 003f b2d5 5bbe 03aa 523f e3ac 763e
00000370: b914 dbbe 4d57 da3d f8e5 1a3e 1828 7d3b
00000380: e966 903c 9428 fd3e 23c6 183c bcf1 19bf
00000390: f61e 38be a062 7b3d a78a bd3d b807 56bd
000003a0: 316f 3fbe d18e 57be 37b8 3cbd 604d 333f
000003b0: 12c0 b8bd 89fe 873e e391 bc3c 7cdf 8dbd
000003c0: 3660 4abd 66ea a4bd a73f 853e 666c a3be
000003d0: 8e6b c0be 9d1f 9c3c 332a b33c 2d5a 01be
000003e0: 5756 18bc 5510 ecbc 961a 9abd 7e0d 85be
000003f0: db30 ffbd a036 373e c3e1 b83d 4730 2fbf

critic.seq_model.model.weight_hh_l0 f4 [256, 64]
-0.2879125 0.09205956 1.2382109 0.48506033 0.07268594 0.47365683 -0.7281149 0.5061231
-0.26230064 -0.10379077 -0.13263929 -0.21382707 -0.01480247 -0.74141407 -0.6919668 -0.39889777
-0.28696668 -0.045567013 -0.18058567 0.31795022 0.24530807 -0.077226035 0.3709283 0.04172957
-0.44917032 -0.5243876 -0.08566881 0.055452902 0.30805972 -0.5084343 0.17102596 -0.39315674
-1.0200454 0.2957363 0.052590244 -0.16842034 -0.24241039 0.3189021 -0.056743853 -0.4492108
-0.18995966 0.46951228 -0.10191411 -0.105529584 -0.375616 0.28736532 -0.13609138 0.2670641
-0.42553872 0.5807913 -0.11831648 -0.06472287 0.16658534 -0.009807313 0.31992334 -0.2039627
0.41845936 -0.05170936 0.3718432 -0.3703856 0.09844998 -0.14262399 -0.09972899 0.919345
0.19534084 0.35453537 -0.08560235 -0.47694078 0.42268807 -0.19748823 -0.024431877 -0.68285906
0.20945556 -0.16241822 -0.3132186 0.52058995 0.5595255 0.015975224 0.6221843 0.18178494
0.07007368 -0.42832366 -0.0019497391 0.07001534 0.27125555 0.6925182 -0.528555 0.105078846
0.034758493 -0.21094568 0.09383917 -0.45697525 -0.39549163 0.35602424 0.13701263 -0.1539669
-0.51978505 -0.351428 0.09868091 0.08646142 0.07929782 -0.016478661 -0.07368645 -0.10671592
1.0197843 -0.015953002 -0.6389234 -0.071900964 0.20792562 -0.55588895 0.12800868 0.07236437
-0.3967704 -0.23684321 -0.009364419 -0.859978 0.0070008007 0.6467938 0.48590758 0.28594652
0.327247 -0.04516858 0.046650995 0.08610086 0.1344681 0.38902843 0.0011543788 -0.17881078
0.08058804 0.023263577 -0.018728739 0.51955646 0.1257041 0.11348354 0.35203022 -0.6697707
-0.6548284 0.68604696 0.23882556 -0.4899482 -0.1433934 -0.7784642 -0.84395117 -0.24672593
-0.15672511 0.09339725 -1.170888 -0.16817133 0.3327695 -0.38667244 -0.47684404 0.0681929
0.12102992 -0.5093639 0.63962597 0.14237563 -0.3244453 0.13502026 0.11280741 -0.44598994
0.27852628 0.14877094 0.27247807 -0.032577995 -0.24892381 -0.14681007 -0.39774433 -0.1625081
-0.35548404 0.6532816 0.30614868 -0.20026633 -0.6808201 -0.1362137 0.12308089 0.18372805
0.26723245 -0.20991553 -0.52317667 -0.15422513 -0.022791991 0.37154174 0.3168939 -0.27117604
-0.5090429 0.01984408 -0.10911933 0.21633092 -0.07865712 -0.9688631 0.83025384 0.10037091
-0.26734492 -0.12876071 0.017156847 0.13983235 -0.17574213 0.1458757 -0.19364029 0.47929975
0.06581506 -0.21169075 -0.37277284 0.34828416 0.122648664 -0.21338095 0.6620399 0.20902936
-0.18166217 -0.44480553 -0.07741708 0.026418764 -0.35118082 0.46241593 0.010188243 -0.25300688
0.47706145 -0.46641707 -0.015469287 -0.036421232 -0.3361823 -0.17557363 0.30491027 0.3506448
-0.40081766 0.3047168 0.44553915 -0.061141144 0.14256394 0.009399988 -0.17579392 0.008142732
0.2739985 0.20902203 0.02519265 0.05821131 -0.46822092 0.020030184 0.47161847 0.2945945
-0.13929598 0.23376335 -0.40289062 0.12637477 -0.39590973 0.17062561 0.41842714 -0.39311478
0.029349813 0.006551507 -0.26826215 0.26706964 -0.5192815 -0.052099347 0.057818662 0.24089716
00000000: 4469 93be b989 bc3d b27d 9e3f d459 f83e
00000010: 5edc 943d 2683 f23e bd65 3abf 4991 013f
00000020: 454c 86be 4190 d4bd 98d2 07be 7cf5 5abe
00000030: 0f86 72bc 50cd 3dbf bc24 31bf 543c ccbe
00000040: 4ced 92be 7aa4 3abd 73eb 38be 5fca a23e
00000050: 0a32 7b3e af28 9ebd 50ea bd3e a0ec 2a3d
00000060: a7f9 e5be 443e 06bf 2173 afbd 9522 633d
00000070: 01ba 9d3e c028 02bf 6e21 2f3e d74b c9be
00000080: d990 82bf c06a 973e de68 573d 6276 2cbe
00000090: 6e3a 78be 2347 a33e 3e6c 68bd f5fe e5be
000000a0: c984 42be ea63 f03e 58b8 d0bd e51f d8bd
000000b0: be50 c0be 8c21 933e 8a5b 0bbe a0bc 883e
000000c0: 36e0 d9be bdae 143f e94f f2bd 6d8d 84bd
000000d0: 5995 2a3e daae 20bc fecc a33e 99db 50be
000000e0: 4e40 d63e 32cd 53bd 3b62 be3e 2ea3 bdbe
000000f0: 25a0 c93d 060c 12be b63e ccbd 325a 6b3f
00000100: 6e07 483e a985 b53e 4950 afbd 9531 f4be
00000110: 926a d83e 5b3a 4abe 5c25 c8bc dacf 2ebf
00000120: 857b 563e f650 26be 305e a0be 6245 053f
00000130: 103d 0f3f 79de 823c 7847 1f3f d525 3a3e
00000140: ca82 8f3d 3d4d dbbe 638e ffba 3464 8f3d
00000150: 02e2 8a3e df48 313f 614f 07bf 9433 d73d
00000160: ec5e 0e3d 2502 58be c02e c03d a9f8 e9be
00000170: e17d cabe cf48 b63e 0a4d 0c3e 80a9 1dbe
00000180: a210 05bf 5fee b3be 3819 ca3d af12 b13d
00000190: e566 a23d 42fe 86bc ece8 96bd e08d dabd
000001a0: 4b88 823f dfaf 82bc 7c90 23bf d040 93bd
000001b0: 74ea 543e bd4e 0ebf b514 033e c533 943d
000001c0: 7d25 cbbe 0787 72be 386d 19bc 8527 5cbf
000001d0: f966 e53b 4794 253f e1c8 f83e 9567 923e
000001e0: eb8c a73e b002 39bd 1d15 3f3d a655 b03d
000001f0: 01b2 093e bc2e c73e 864e 973a 2c1a 37be
00000200: 580b a53d 4293 be3c 036d 99bc a701 053f
00000210: 93b8 003e 0f6a e83d 4e3d b43e 1876 2bbf
00000220: d6a2 27bf c6a0 2f3f b08e 743e 7eda fabe
00000230: b8d5 12be 6e49 47bf 2f0d 58bf b9a5 7cbe
00000240: 8c7c 20be 0f47 bf3d a8df 95bf 1b35 2cbe
00000250: c460 aa3e eef9 c5be e724 f4be b8a8 8b3d
00000260: 89de f73d ac65 02bf 87be 233f ebca 113e
00000270: b21d a6be c042 0a3e 9207 e73d cb58 e4be
00000280: ff9a 8e3e 6957 183e 3f82 8b3e 8170 05bd
00000290: e2e5 7ebe 6155 16be 25a5 cbbe 8668 26be
000002a0: 0102 b6be 773d 273f 85bf 9c3e 9e12 4dbe
000002b0: 3a4a 2ebf 9b7b 0bbe d511 fc3d 3523 3c3e
000002c0: b1d2 883e 19f4 56be e8ee 05bf 31ed 1dbe
000002d0: 45b6 babc b83a be3e eb3f a23e 96d7 8abe
000002e0: a350 02bf 0d90 a23c f579 dfbd da85 5d3e
000002f0: fc16 a1bd 6a07 78bf 848b 543f 438f cd3d
00000300: 6fe1 88be d9d9 03be 848c 8c3c 3630 0f3e
00000310: bff5 33be 7160 153e a449 46be c766 f53e
00000320: 0cca 863d 76c5 58be 15dc bebe 4d52 b23e
00000330: 392f fb3d 8980 5abe 727b 293f cb0b 563e
00000340: a605 3abe 8dbd e3be d98c 9ebd 2a6c d83c
00000350: f9cd b3be c8c1 ec3e 97ec 263c 1e8a 81be
00000360: 6641 f43e 38ce eebe e472 7dbc 6e2e 15bd
00000370: 1620 acbe 93c9 33be 331d 9c3e b787 b33e
00000380: f937 cdbe d703 9c3e b51d e43e 236f 7abd
00000390: 48fc 113e 6802 1a3c 5203 34be 1869 053c
000003a0: 8849 8c3e df09 563e d160 ce3c fc6e 6e3d
000003b0: a7ba efbe 5716 a43c fa77 f13e 17d5 963e
000003c0: 9ba3 0ebe a95f 6f3e ae47 cebe 6368 013e
000003d0: aeb4 cabe 7bb8 2e3e 153c d63e 5746 c9be
000003e0: 056f f03c 06ae d63b a859 89be 5abd 883e
000003f0: a2ef 04bf 2066 55bd 43d3 6c3d bfad 763e

critic.seq_model.model.bias_ih_l0 f4 [256]
0.009028209 0.028820867 -0.020121912 -0.07178781 -0.16346633 -0.115489416 -0.1136328 -0.17387766
0.091407165 0.06895802 -0.0043677213 -0.10396842 -0.17313357 -0.1892476 0.12993595 -0.053198107
0.08054577 0.024712006 -0.2631752 -0.08838003 -0.025738286 -0.052126937 -0.059052713 -0.24949864
-0.116198696 -0.05195743 -0.07865304 0.027867218 -0.022047598 0.08041137 -0.01201448 -0.03993844
0.16420701 -0.0445092 -0.07825321 -0.27383837 0.022083152 0.05377836 0.18962424 -0.024277898
-0.06900035 0.08804999 0.12395284 -0.09916192 -0.16090953 -0.07910269 -0.10593784 -0.26692027
0.017556613 0.10222555 0.036996648 -0.15540975 0.018617578 -0.13211069 -0.11208672 -0.060867216
0.025252858 -0.043882173 0.070951544 -0.008764816 0.087784626 -0.21883325 -0.05006847 -0.16637644
-0.11814778 -0.10000805 -0.054940004 0.113362126 0.06496974 -0.0527836 -0.038910575 -0.17719278
-0.095855616 0.05417205 0.03477833 0.09829745 -0.048980173 -0.119108 -0.18436255 0.15118651
0.24409373 0.062221996 -0.102384955 0.030464975 -0.05998027 0.10894828 0.039528098 0.13327734
-0.14310925 0.096935295 0.0047033047 -0.09865136 -0.040990893 -0.043455806 -0.049762867 -0.030022226
-0.08433932 0.09788025 0.09513914 0.2594955 -0.115297295 -0.06351088 0.12191562 -0.0507521
-0.06047663 -0.06809364 0.06442177 0.0050636386 0.08137526 -0.038093682 0.16019027 0.012549026
-0.16634648 0.1098121 -0.0612611 0.08727776 0.102392636 0.359199 0.09745165 -0.1198733
-0.055542365 0.04359078 0.119919606 0.006099226 -0.14026757 -0.021113712 -0.08862208 0.08760487
0.05125254 -0.037938587 -0.11843611 -0.022317149 0.010327782 0.100143366 0.010971149 0.039135348
0.14145373 -0.017573899 0.011403965 0.016189173 0.06266744 0.03487589 -0.18877448 -0.04805307
0.016317988 -0.08517328 -0.019882215 -0.04606294 -0.0012150927 0.034400836 -0.028680902 0.013931126
0.008583732 0.028194636 0.010990116 0.047605123 -0.024243925 0.06210727 0.046919025 -0.00933841
0.111646734 0.019356985 -0.0605917 -0.021036925 -0.010194728 -0.08855939 0.023531737 -0.020790309
0.038891688 -0.07374139 0.002338744 -0.01431762 0.020097172 -0.042156212 0.01817811 -0.02349174
0.009749968 -0.06551756 0.11223334 -0.012123789 -0.006663194 -0.024298366 -0.089865066 0.06871042
-0.014086026 0.02770512 0.050728697 0.07258679 -0.07352869 0.120828144 -0.014112637 0.09802062
-0.12486642 0.06320454 -0.00020872317 0.071010135 -0.04395026 -0.051570043 -0.037500873 -0.068122365
0.13795137 0.2512642 0.010583053 0.20900182 -0.19314283 -0.092667356 -0.0386939 0.09502655
0.26772672 0.051850982 -0.052030247 -0.067955524 -0.0011102448 -0.03877576 0.012248496 0.11136341
0.025706371 0.11416827 -0.0010055298 0.023307737 0.063181035 0.0820835 0.07475754 -0.032355
0.2599508 0.17948772 -0.043592975 -0.057203535 0.2467283 0.18103491 0.29328728 0.061567478
0.08528203 0.40040347 0.14094208 -0.005611101 0.04787337 -0.06610421 0.06757104 -0.0140449
0.05443523 -0.0033395786 0.10722204 0.08744734 0.055249423 0.059222106 0.0039171986 0.0022263916
0.072051704 -0.030915935 0.24807683 -0.08914694 0.042665202 -0.016372424 0.051590025 -0.10371307
00000000: 0eeb 133c bd19 ec3c b5d6 a4bc 7d05 93bd
00000010: b863 27be b785 ecbd 50b8 e8bd fc0c 32be
00000020: ae33 bb3d dd39 8d3d 1a1f 8fbb 65ed d4bd
00000030: ed49 31be 1fca 41be ee0d 053e 42e6 59bd
00000040: 2ef5 a43d d570 ca3c e6be 86be 9700 b5bd
00000050: 19d9 d2bc 0e83 55bd 42e1 71bd 927c 7fbe
00000060: 95f9 edbd 50d1 54bd d814 a1bd cb49 e43c
00000070: 2a9d b4bc b7ae a43d 62d8 44bc 7d96 23bd
00000080: e225 283e 474f 36bd 3843 a0bd 8b34 8cbe
00000090: bae7 b43c b346 5c3d db2c 423e 71e2 c6bc
000000a0: 0e50 8dbd 8e53 b43d fdda fd3d 6815 cbbd
000000b0: 78c5 24be 9700 a2bd f0f5 d8bd c6a9 88be
000000c0: e3d2 8f3c a15b d13d cc89 173d bc23 1fbe
000000d0: e483 983c 0648 07be b98d e5bd e74f 79bd
000000e0: 15df ce3c cbbd 33bd 0b4f 913d 4e9a 0fbc
000000f0: 6dc8 b33d d315 60be 9914 4dbd 965e 2abe
00000100: 77f7 f1bd 05d1 ccbd c508 61bd 672a e83d
00000110: db0e 853d 9e33 58bd b260 1fbd 0672 35be
00000120: f34f c4bd 83e3 5d3d b973 0e3d 2c50 c93d
00000130: 6f9f 48bd e5ee f3bd 89c9 3cbe a3d0 1a3e
00000140: b5f3 793e 7edc 7e3d 34af d1bd af91 f93c
00000150: dfad 75bd 4720 df3d 37e8 213d db79 083e
00000160: 3b8b 12be 0386 c63d 2e1e 9a3b b909 cabd
00000170: 11e6 27bd b7fe 31bd 26d4 4bbd 2cf1 f5bc
00000180: 18ba acbd 7175 c83d 4fd8 c23d 98dc 843e
00000190: fd20 ecbd fe11 82bd e6ae f93d 6fe1 4fbd
000001a0: 58b6 77bd ae74 8bbd 90ef 833d e1ec a53b
000001b0: 13a8 a63d 1f08 1cbd eb08 243e 6e9a 4d3c
000001c0: bb56 2abe 2be5 e03d ebec 7abd afbe b23d
000001d0: 3bb3 d13d eee8 b73e bb94 c73d 2280 f5bd
000001e0: 6480 63bd 3f8c 323d 6998 f53d 04dc c73b
000001f0: 4da2 0fbe aaf6 acbc 7e7f b5bd 2f6a b33d
00000200: 2fee 513d 7e65 1bbd a28e f2bd 74d2 b6bc
00000210: db35 293c f717 cd3d 56c0 333c 634c 203d
00000220: 3fd9 103e 23f7 8fbc b2d7 3a3c 289f 843c
00000230: c957 803d 05da 0e3d 194e 41be 4cd3 44bd
00000240: 4dad 853c 546f aebd 07e0 a2bc 7eac 3cbd
00000250: bf43 9fba e4e7 0c3d 36f4 eabc 613f 643c
00000260: c8a2 0c3c 70f8 e63c e30f 343c 97fd 423d
00000270: 329b c6bc 3164 7e3d 2a2e 403d 2100 19bc
00000280: 0ba7 e43d 8a92 9e3c 012f 78bd a155 acbc
00000290: ca07 27bc a05e b5bd a1c5 c03c 7050 aabc
000002a0: e44c 1f3d ba05 97bd 9d45 193b 7394 6abc
000002b0: d3a2 a43c feab 2cbd 42ea 943c c071 c0bc
000002c0: 54be 1f3c 122e 86bd 98da e53d dba2 46bc
000002d0: ec56 dabb 5e0d c7bc 2d0b b8bd 0cb8 8c3d
000002e0: 13c9 66bc d9f5 e23c e5c8 4f3d 62a8 943d
000002f0: 3696 96bd bf74 f73d b138 67bc 09bf c83d
00000300: f7b9 ffbd 6271 813d b3dc 5ab9 c36d 913d
00000310: 3005 34bd 1c3b 53bd 849a 19bd bd83 8bbd
00000320: 2043 0d3e b4a5 803e 8b64 2d3c 9304 563e
00000330: 3cc7 45be 62c8 bdbd 7f7d 1ebd 489d c23d
00000340: 7a13 893e b261 543d ab1d 55bd 442c 8bbd
00000350: a285 91ba 55d3 1ebd eaad 483c 8012 e43d
00000360: 2b96 d23c 0ed1 e93d fbcb 83ba deef be3c
00000370: 0f65 813d 651b a83d 7b1a 993d ad86 04bd
00000380: 4518 853e a1cb 373e 8c8e 32bd 414e 6abd
00000390: 58a6 7c3e 3761 393e c029 963e 2e2e 7c3d
000003a0: 58a8 ae3d af01 cd3e 1f53 103e 54dd b7bb
000003b0: de16 443d a561 87bd af62 8a3d 951c 66bc
000003c0: 7af7 5e3d d5dc 5abb 3b97 db3d 9717 b33d
000003d0: 384d 623d e192 723d d85b 803b a7e8 113b
000003e0: d88f 933d 6a43 fdbc da07 7e3e ac92 b6bd
000003f0: b5c1 2e3d 761f 86bc 1050 533d 8567 d4bd

critic.seq_model.model.bias_hh_l0 f4 [256]
0.009028209 0.028820867 -0.020121912 -0.07178781 -0.16346633 -0.115489416 -0.1136328 -0.17387766
0.091407165 0.06895802 -0.0043677213 -0.10396842 -0.17313357 -0.1892476 0.12993595 -0.053198107
0.08054577 0.024712006 -0.2631752 -0.08838003 -0.025738286 -0.052126937 -0.059052713 -0.24949864
-0.116198696 -0.05195743 -0.07865304 0.027867218 -0.022047598 0.08041137 -0.01201448 -0.03993844
0.16420701 -0.0445092 -0.07825321 -0.27383837 0.022083152 0.05377836 0.18962424 -0.024277898
-0.06900035 0.08804999 0.12395284 -0.09916192 -0.16090953 -0.07910269 -0.10593784 -0.26692027
0.017556613 0.10222555 0.036996648 -0.15540975 0.018617578 -0.13211069 -0.11208672 -0.060867216
0.025252858 -0.043882173 0.070951544 -0.008764816 0.087784626 -0.21883325 -0.05006847 -0.16637644
-0.11814778 -0.10000805 -0.054940004 0.113362126 0.06496974 -0.0527836 -0.038910575 -0.17719278
-0.095855616 0.05417205 0.03477833 0.09829745 -0.048980173 -0.119108 -0.18436255 0.15118651
0.24409373 0.062221996 -0.102384955 0.030464975 -0.05998027 0.10894828 0.039528098 0.13327734
-0.14310925 0.096935295 0.0047033047 -0.09865136 -0.040990893 -0.043455806 -0.049762867 -0.030022226
-0.08433932 0.09788025 0.09513914 0.2594955 -0.115297295 -0.06351088 0.12191562 -0.0507521
-0.06047663 -0.06809364 0.06442177 0.0050636386 0.08137526 -0.038093682 0.16019027 0.012549026
-0.16634648 0.1098121 -0.0612611 0.08727776 0.102392636 0.359199 0.09745165 -0.1198733
-0.055542365 0.04359078 0.119919606 0.006099226 -0.14026757 -0.021113712 -0.08862208 0.08760487
0.05125254 -0.037938587 -0.11843611 -0.022317149 0.010327782 0.100143366 0.010971149 0.039135348
0.14145373 -0.017573899 0.011403965 0.016189173 0.06266744 0.03487589 -0.18877448 -0.04805307
0.016317988 -0.08517328 -0.019882215 -0.04606294 -0.0012150927 0.034400836 -0.028680902 0.013931126
0.008583732 0.028194636 0.010990116 0.047605123 -0.024243925 0.06210727 0.046919025 -0.00933841
0.111646734 0.019356985 -0.0605917 -0.021036925 -0.010194728 -0.08855939 0.023531737 -0.020790309
0.038891688 -0.07374139 0.002338744 -0.01431762 0.020097172 -0.042156212 0.01817811 -0.02349174
0.009749968 -0.06551756 0.11223334 -0.012123789 -0.006663194 -0.024298366 -0.089865066 0.06871042
-0.014086026 0.02770512 0.050728697 0.07258679 -0.07352869 0.120828144 -0.014112637 0.09802062
-0.12486642 0.06320454 -0.00020872317 0.071010135 -0.04395026 -0.051570043 -0.037500873 -0.068122365
0.13795137 0.2512642 0.010583053 0.20900182 -0.19314283 -0.092667356 -0.0386939 0.09502655
0.26772672 0.051850982 -0.052030247 -0.067955524 -0.0011102448 -0.03877576 0.012248496 0.11136341
0.025706371 0.11416827 -0.0010055298 0.023307737 0.063181035 0.0820835 0.07475754 -0.032355
0.2599508 0.17948772 -0.043592975 -0.057203535 0.2467283 0.18103491 0.29328728 0.061567478
0.08528203 0.40040347 0.14094208 -0.005611101 0.04787337 -0.06610421 0.06757104 -0.0140449
0.05443523 -0.0033395786 0.10722204 0.08744734 0.055249423 0.059222106 0.0039171986 0.0022263916
0.072051704 -0.030915935 0.24807683 -0.08914694 0.042665202 -0.016372424 0.051590025 -0.10371307
00000000: 0eeb 133c bd19 ec3c b5d6 a4bc 7d05 93bd
00000010: b863 27be b785 ecbd 50b8 e8bd fc0c 32be
00000020: ae33 bb3d dd39 8d3d 1a1f 8fbb 65ed d4bd
00000030: ed49 31be 1fca 41be ee0d 053e 42e6 59bd
00000040: 2ef5 a43d d570 ca3c e6be 86be 9700 b5bd
00000050: 19d9 d2bc 0e83 55bd 42e1 71bd 927c 7fbe
00000060: 95f9 edbd 50d1 54bd d814 a1bd cb49 e43c
00000070: 2a9d b4bc b7ae a43d 62d8 44bc 7d96 23bd
00000080: e225 283e 474f 36bd 3843 a0bd 8b34 8cbe
00000090: bae7 b43c b346 5c3d db2c 423e 71e2 c6bc
000000a0: 0e50 8dbd 8e53 b43d fdda fd3d 6815 cbbd
000000b0: 78c5 24be 9700 a2bd f0f5 d8bd c6a9 88be
000000c0: e3d2 8f3c a15b d13d cc89 173d bc23 1fbe
000000d0: e483 983c 0648 07be b98d e5bd e74f 79bd
000000e0: 15df ce3c cbbd 33bd 0b4f 913d 4e9a 0fbc
000000f0: 6dc8 b33d d315 60be 9914 4dbd 965e 2abe
00000100: 77f7 f1bd 05d1 ccbd c508 61bd 672a e83d
00000110: db0e 853d 9e33 58bd b260 1fbd 0672 35be
00000120: f34f c4bd 83e3 5d3d b973 0e3d 2c50 c93d
00000130: 6f9f 48bd e5ee f3bd 89c9 3cbe a3d0 1a3e
00000140: b5f3 793e 7edc 7e3d 34af d1bd af91 f93c
00000150: dfad 75bd 4720 df3d 37e8 213d db79 083e
00000160: 3b8b 12be 0386 c63d 2e1e 9a3b b909 cabd
00000170: 11e6 27bd b7fe 31bd 26d4 4bbd 2cf1 f5bc
00000180: 18ba acbd 7175 c83d 4fd8 c23d 98dc 843e
00000190: fd20 ecbd fe11 82bd e6ae f93d 6fe1 4fbd
000001a0: 58b6 77bd ae74 8bbd 90ef 833d e1ec a53b
000001b0: 13a8 a63d 1f08 1cbd eb08 243e 6e9a 4d3c
000001c0: bb56 2abe 2be5 e03d ebec 7abd afbe b23d
000001d0: 3bb3 d13d eee8 b73e bb94 c73d 2280 f5bd
000001e0: 6480 63bd 3f8c 323d 6998 f53d 04dc c73b
000001f0: 4da2 0fbe aaf6 acbc 7e7f b5bd 2f6a b33d
00000200: 2fee 513d 7e65 1bbd a28e f2bd 74d2 b6bc
00000210: db35 293c f717 cd3d 56c0 333c 634c 203d
00000220: 3fd9 103e 23f7 8fbc b2d7 3a3c 289f 843c
00000230: c957 803d 05da 0e3d 194e 41be 4cd3 44bd
00000240: 4dad 853c 546f aebd 07e0 a2bc 7eac 3cbd
00000250: bf43 9fba e4e7 0c3d 36f4 eabc 613f 643c
00000260: c8a2 0c3c 70f8 e63c e30f 343c 97fd 423d
00000270: 329b c6bc 3164 7e3d 2a2e 403d 2100 19bc
00000280: 0ba7 e43d 8a92 9e3c 012f 78bd a155 acbc
00000290: ca07 27bc a05e b5bd a1c5 c03c 7050 aabc
000002a0: e44c 1f3d ba05 97bd 9d45 193b 7394 6abc
000002b0: d3a2 a43c feab 2cbd 42ea 943c c071 c0bc
000002c0: 54be 1f3c 122e 86bd 98da e53d dba2 46bc
000002d0: ec56 dabb 5e0d c7bc 2d0b b8bd 0cb8 8c3d
000002e0: 13c9 66bc d9f5 e23c e5c8 4f3d 62a8 943d
000002f0: 3696 96bd bf74 f73d b138 67bc 09bf c83d
00000300: f7b9 ffbd 6271 813d b3dc 5ab9 c36d 913d
00000310: 3005 34bd 1c3b 53bd 849a 19bd bd83 8bbd
00000320: 2043 0d3e b4a5 803e 8b64 2d3c 9304 563e
00000330: 3cc7 45be 62c8 bdbd 7f7d 1ebd 489d c23d
00000340: 7a13 893e b261 543d ab1d 55bd 442c 8bbd
00000350: a285 91ba 55d3 1ebd eaad 483c 8012 e43d
00000360: 2b96 d23c 0ed1 e93d fbcb 83ba deef be3c
00000370: 0f65 813d 651b a83d 7b1a 993d ad86 04bd
00000380: 4518 853e a1cb 373e 8c8e 32bd 414e 6abd
00000390: 58a6 7c3e 3761 393e c029 963e 2e2e 7c3d
000003a0: 58a8 ae3d af01 cd3e 1f53 103e 54dd b7bb
000003b0: de16 443d a561 87bd af62 8a3d 951c 66bc
000003c0: 7af7 5e3d d5dc 5abb 3b97 db3d 9717 b33d
000003d0: 384d 623d e192 723d d85b 803b a7e8 113b
000003e0: d88f 933d 6a43 fdbc da07 7e3e ac92 b6bd
000003f0: b5c1 2e3d 761f 86bc 1050 533d 8567 d4bd

critic.qf.fc0.weight f4 [256, 64]
-0.20088254 0.08714671 0.049312778 0.04994132 -0.023427512 -0.05901998 -0.32238218 -0.30207872
-0.08023749 0.13287044 -0.386862 0.098938555 -0.26105884 0.023873601 0.06749478 0.10410071
-0.008320106 -0.22504419 -0.11694538 -0.33534813 -0.07922311 0.14520359 -0.045995682 0.1708546
-0.072099835 0.15202619 -0.21677366 0.19051056 0.28395674 0.4002052 0.043701604 -0.21645954
-0.24005997 -0.2432681 -0.18778865 -0.02572098 0.1671594 -0.20640023 -0.10720627 -0.27774456
-0.0145991035 0.11450627 0.24550267 -0.061958414 0.23372626 0.43209392 -0.044276793 -0.03093447
-0.059601605 0.17420062 0.07385152 0.11313699 -0.0954771 0.15997416 0.033519868 -0.23079483
-0.080658026 0.2316913 -0.046270974 0.16639182 -0.18798392 0.08834154 -0.1582186 0.17966679
0.108634606 -0.034746427 0.03427813 -0.05060837 0.31051528 0.1493137 -0.026015714 0.19666459
-0.27774158 0.021909524 -0.13887434 -0.17365791 0.08799289 -0.19169225 -0.23122801 -0.2317147
-0.3441668 0.14194077 -0.15871549 0.017103806 0.054202 -0.266455 0.15991317 0.017951215
-0.0045244605 0.004117085 -0.27900964 0.038293824 -0.14810063 -0.14254956 0.37326604 0.10105879
-0.005831367 -0.15052491 0.33113655 0.1090738 0.19770826 -0.24333693 0.19058989 0.058985572
0.47225142 -0.15637407 0.048295967 0.17633317 -0.017580675 -0.40826222 -0.03246496 -0.42094436
0.17577599 -0.11209388 0.062753126 0.058861703 -0.2685054 -0.4327482 -0.16607925 0.11735713
0.32688057 0.3432141 -0.12896127 -0.06012097 -0.22524193 0.06429383 0.1529285 -0.2175105
-0.16633259 -0.005921912 -0.28837192 0.11534839 0.0026330685 0.034871276 -0.057164762 0.12714657
0.6467248 -0.2852135 0.40149337 0.045183074 0.32977894 0.013492777 -0.13328762 -0.068795346
-0.09950275 0.09923125 -0.0892683 -0.023674214 -0.19896564 -0.263467 0.17088981 -0.36142468
-0.033365138 0.009569627 -0.54309803 0.08503798 0.03187233 -0.1614037 0.10788745 0.2532678
-0.010838646 0.035300475 0.11776557 0.1882391 0.0057515725 0.33338228 -0.037654135 0.03627872
0.22286436 0.16487847 -0.07156139 -0.2378513 0.058327314 0.48477364 -0.12637326 0.31181666
0.22506 0.16209765 0.113370866 -0.046080366 -0.010746836 -0.3009167 -0.22079746 0.2944612
0.20283425 -0.029660968 -0.15925649 0.299152 0.026049808 -0.024096107 -0.01572731 0.16552348
0.4432085 -0.21222083 -0.23219675 -0.094415426 0.05622027 -0.03774364 -0.014924988 0.04926589
0.07394417 -0.13200025 -0.52768016 0.22505146 0.3401423 -0.08981196 -0.3320628 0.002984391
0.22243427 0.27161127 -0.37677562 -0.20469615 0.032469466 0.09593297 -0.0163281 -0.18807779
-0.30697128 -0.006585936 -0.032369815 -0.39497882 0.06195761 -0.17611262 0.02298331 -0.012650032
0.013328711 0.012526872 -0.22072479 0.11199487 0.07073852 -0.041994575 0.15022527 0.19682026
0.14249235 -0.1691963 0.078603424 0.14001268 -0.07105558 -0.5089992 -0.113463715 0.011590908
0.20599732 -0.2552659 -0.0951138 -0.22377223 0.15361764 -0.37854552 0.31647152 0.116652235
-0.020254062 -0.0008714085 0.2853119 -0.23208982 -0.08451435 -0.075890064 0.3401764 0.10745025
00000000: 27b4 4dbe f979 b23d 32fc 493d 458f 4c3d
00000010: 0eeb bfbc efbe 71bd 470f a5be 10aa 9abe
00000020: 8e53 a4bd 300f 083e c712 c6be 4ca0 ca3d
00000030: 81a9 85be 9292 c33c b43a 8a3d c132 d53d
00000040: 0e51 08bc fc71 66be 0f81 efbd c0b2 abbe
00000050: ba3f a2bd 40b0 143e f865 3cbd 82f4 2e3e
00000060: 14a9 93bd c1ac 1b3e eaf9 5dbe 3315 433e
00000070: c762 913e b2e7 cc3e 7400 333d 92a7 5dbe
00000080: 48d2 75be 461b 79be ab4b 40be ceb4 d2bc
00000090: d52b 2b3e 955a 53be f68e dbbd 8934 8ebe
000000a0: 1431 6fbc 4382 ea3d 0d65 7b3e 1bc8 7dbd
000000b0: f055 6f3e 6a3b dd3e 955b 35bd 496a fdbc
000000c0: d020 74bd a661 323e 773f 973d 5eb4 e73d
000000d0: 7f89 c3bd 44d0 233e 214c 093d 7b55 6cbe
000000e0: 0930 a5bd 7c40 6d3e a286 3dbd 9e62 2a3e
000000f0: db7e 40be 69ec b43d 0f04 22be 92fa 373e
00000100: d27b de3d 4552 0ebd 3967 0c3d b94a 4fbd
00000110: dcfb 9e3e b1e5 183e e81e d5bc 7162 493e
00000120: 2534 8ebe 9a7b b33c 1335 0ebe 61d3 31be
00000130: 9e35 b43d f94a 44be 09c7 6cbe 9e46 6dbe
00000140: a136 b0be ec58 113e 5086 22be 481d 8c3c
00000150: eb02 5e3d ca6c 88be 47c0 233e 6d0e 933c
00000160: ed41 94bb 9de8 863b 5ada 8ebe fcd9 1c3d
00000170: b1a7 17be 83f8 11be ba1c bf3e e9f7 ce3d
00000180: 0d15 bfbb 3423 1abe bb8a a93e 1662 df3d
00000190: 0974 4a3e 512d 79be ff29 433e db9a 713d
000001a0: f0ca f13e 8620 20be fed1 453d af90 343e
000001b0: 5905 90bc bf07 d1be faf9 04bd 0586 d7be
000001c0: 9ffe 333e 7a91 e5bd b684 803d f818 713d
000001d0: 8a79 89be 2c91 ddbe ae10 2abe ef58 f03d
000001e0: e45c a73e c2b9 af3e 6c0e 04be 6841 76bd
000001f0: d2a5 66be 7cac 833d 4a99 1c3e 13bb 5ebe
00000200: 1753 2abe 990c c2bb 7ca5 93be c73b ec3d
00000210: 8f8f 2c3b 2fd5 0e3d 9925 6abd b632 023e
00000220: c28f 253f 8107 92be 8a90 cd3e e311 393d
00000230: c9d8 a83e cf10 5d3c 8d7c 08be 93e4 8cbd
00000240: 19c8 cbbd c139 cb3d 4cd2 b6bd 6df0 c1bc
00000250: a6bd 4bbe 26e5 86be bdfd 2e3e a80c b9be
00000260: e2a9 08bd edc9 1c3c 7908 0bbf 6428 ae3d
00000270: 8f8c 023d 0347 25be 18f4 dc3d 51ac 813e
00000280: 9494 31bc 3b97 103d 132f f13d c0c1 403e
00000290: b077 bc3b 15b1 aa3e 393b 1abd ff98 143d
000002a0: 8e36 643e e7d5 283e c78e 92bd 4b8f 73be
000002b0: 9fe8 6e3d 4034 f83e fe67 01be 6fa6 9f3e
000002c0: 2176 663e edfc 253e fc2e e83d c4be 3cbd
000002d0: 7f13 30bc c111 9abe bb18 62be 9ec3 963e
000002e0: c8b3 4f3e 8ffb f2bc 2214 23be 732a 993e
000002f0: 6866 d53c 3365 c5bc 8fd6 80bc fd7e 293e
00000300: 39ec e23e 6b50 59be fcc4 6dbe e05c c1bd
00000310: 3a47 663d 1399 1abd f087 74bc 08cb 493d
00000320: 0a70 973d 132b 07be 0c16 07bf e473 663e
00000330: 2227 ae3e 55ef b7bd 2304 aabe c695 433b
00000340: cfc5 633e a210 8b3e bce8 c0be de9b 51be
00000350: b4fe 043d 8178 c43d 82c2 85bc 7797 40be
00000360: 572b 9dbe d6ce d7bb 3696 04bd aa3a cabe
00000370: 43c7 7d3d de56 34be 7f47 bc3c 1442 4fbc
00000380: aa60 5a3c 823d 4d3c ae05 62be 915d e53d
00000390: 5bdf 903d 8102 2cbd a7d4 193e 408b 493e
000003a0: 84e9 113e cb41 2dbe d5fa a03d 7c5f 0f3e
000003b0: 9785 91bd c64d 02bf aa5f e8bd cbe7 3d3c
000003c0: f6f0 523e 36b2 82be 06cb c2bd 8c24 65be
000003d0: f14d 1d3e b8d0 c1be 8e08 a23e 5ee7 ee3d
000003e0: d9eb a5bc 3c6f 64ba 6714 923e f4a8 6dbe
000003f0: dc15 adbd 406c 9bbd 9a2b ae3e e00e dc3d
